output/models/220424_1118_ggcnn_rotate1/epoch_46_iou_0.75_statedict.pt (torch, 255529 bytes, 16 tensors)

conv1.weight f4 [32, 1, 9, 9]
0	0xbf3dbd7e	-0.7411727
1	0xbe5a2ad9	-0.21305408
2	0x3dae5ed7	0.08514183
3	0xbeec2b33	-0.46126708
4	0xbe8c6e2b	-0.274278
5	0xbe86d2d2	-0.26332718
6	0xbe3e7baa	-0.18601862
7	0xbe8c8a8d	-0.27449456
8	0xbeee26f0	-0.46514082
9	0xbe4bffb9	-0.19921769
10	0x3e1b8b13	0.15189771
11	0x3ee851d7	0.4537494
12	0xbc665440	-0.014058173
13	0x3d9bf493	0.07615008
14	0x3d97643b	0.07392164
15	0x3e8c22a7	0.27370188
16	0x3e3be2f9	0.18348302
17	0x3cc79074	0.024360873
18	0x3e02bc68	0.12767184
19	0x3f00d821	0.50329787
20	0x3f415ba6	0.7553047
21	0x3e24e1db	0.16101782
22	0x3ebed4af	0.3727164
23	0x3eb0a823	0.34503278
24	0x3f04ee77	0.5192637
25	0x3ef93104	0.48670208
26	0x3ece7c0d	0.40329018
27	0xbf2444c9	-0.6416746
28	0xbe72ef46	-0.23724088
29	0x3d8fffde	0.07031225
30	0xbf0add0a	-0.5424353
31	0xbecd94d9	-0.40152624
32	0xbed22d01	-0.4104996
33	0xbe6c7600	-0.23091888
34	0xbe82a11d	-0.25513545
35	0xbea1b5ad	-0.3158392
36	0xbeba061a	-0.3633278
37	0x3cb2d14a	0.021828312
38	0x3e847aee	0.25875038
39	0xbeb3962a	-0.35075504
40	0xbe4c973c	-0.19979566
41	0xbe6a7df7	-0.22899614
42	0xbd3473bd	-0.04405569
43	0xbd6858a5	-0.056725163
44	0xbe14d331	-0.14533688
45	0xbea50a2c	-0.32234323
46	0x3ca59281	0.02021146
47	0x3e8d57da	0.27606088
48	0xbea27f83	-0.3173791
49	0xbe741906	-0.2383767
50	0xbe700957	-0.23441063
51	0x3b3ad805	0.0028510105
52	0xbd3e14ae	-0.04640644
53	0xbe2fddcd	-0.17174454
54	0xbe0ae885	-0.13565262
55	0x3e31248b	0.17299096
56	0x3ee2b849	0.44281223
57	0xbe1217b2	-0.14266852
58	0xbd4ab9f3	-0.04949374
59	0x3c98232e	0.018571462
60	0x3e24c5b1	0.16091038
61	0x3e21466b	0.15749519
62	0x3c7ad5c7	0.015309758
63	0xbe3ee82c	-0.18643254
64	0x3e4dc72f	0.20095514
65	0x3eef82c1	0.46779445
66	0xbdf83740	-0.12119913
67	0xbc93d698	-0.018046662
68	0xbce633b1	-0.02810082
69	0x3ddd8cd1	0.10817874
70	0x3d9fae2d	0.07796893
71	0xbd8f873a	-0.07008214
72	0xbecf3c55	-0.40475717
73	0xbcc49d98	-0.024000928
74	0x3eb1d827	0.34735224
75	0xbe701687	-0.23446093
76	0xbd9c2119	-0.076235004
77	0xbd9f3de4	-0.077754766
78	0x3d722e53	0.05912621
79	0xbd44afe3	-0.0480193
80	0xbe02ffb6	-0.12792858
81	0x3ee9f944	0.45697987
82	0x3e8dd175	0.27698866
83	0x3db86d3f	0.09005212
84	0x3ebad320	0.364892
85	0x3e3a8315	0.18214066
86	0x3e2b8e2c	0.16753453
87	0x3dd7342d	0.105079986
88	0x3d7c9807	0.061668422
89	0x3d03f2f7	0.03221413
90	0x3ea4fa04	0.32221997
91	0x3e06ef33	0.13177185
92	0xbd74f822	-0.05980695
93	0x3e5a87d5	0.21340878
94	0x3dee6e10	0.116420865
95	0x3d64e929	0.05588642
96	0x3d2276a0	0.03966391
97	0xbc789a50	-0.01517351
98	0xbd838527	-0.06421881
99	0x3e4681d6	0.19385466
100	0xbcd6ef6a	-0.026237208
101	0xbe1c5c7c	-0.15269655
102	0x3ddc4c63	0.10756757
103	0xbcd7743d	-0.026300544
104	0xbde13bca	-0.10997732
105	0xbdd8cc20	-0.10585809
106	0xbe5de753	-0.21670274
107	0xbe5c5c99	-0.21519698
108	0x3ebcef69	0.36901405
109	0x3e5d84b3	0.21632652
110	0x3cd35302	0.025796417
111	0x3e8b73c3	0.27236757
112	0x3e123bb9	0.14280595
113	0x3d85eab7	0.06538909
114	0xbb800f1f	-0.0039080526
115	0x3ce67e4c	0.028136395
116	0x3c9c6c4f	0.019094614
117	0x3e9ab089	0.3021281
118	0x3df32eec	0.11874184
119	0xbe0736f0	-0.1320455
120	0x3e1bd519	0.15218009
121	0x3d3cd6f6	0.04610344
122	0xbd65906c	-0.056045935
123	0xbdab9930	-0.083788276
124	0xbe166734	-0.14687806
125	0xbda03b74	-0.0782384
126	0x3e40af1c	0.18816799
127	0x3d999932	0.07499923
128	0xbe3ba18f	-0.18323348
129	0x3d8fbd98	0.07018584
130	0xbda77769	-0.081770726
131	0xbdfa7191	-0.12228692
132	0xbe22fa07	-0.1591569
133	0xbe2f69fc	-0.17130274
134	0xbdfdb054	-0.123871475
135	0x3e0f3c8d	0.13987942
136	0xbc2130d6	-0.009838304
137	0xbe5f1b6b	-0.21787803
138	0x3c252e4d	0.01008184
139	0xbd46ca50	-0.048532784
140	0xbdb95651	-0.09049667
141	0xbe373c61	-0.17894126
142	0xbe484ddc	-0.19560951
143	0xbe2df154	-0.1698659
144	0x3e1aac23	0.15104727
145	0xbcb766ad	-0.022387827
146	0xbe8bcc1f	-0.2730417
147	0x3c6aa502	0.0143215675
148	0xbdd3596b	-0.103197895
149	0xbe0f66c3	-0.14004044
150	0xbe243e42	-0.16039374
151	0xbe330bc3	-0.17484955
152	0xbe45910d	-0.19293614
153	0x3e0b63bf	0.13612269
154	0xbcbf9c57	-0.023389978
155	0xbe6f4fc7	-0.23370276
156	0x3dd2a681	0.10285664
157	0xbd3bb423	-0.04582609
158	0xbcf99ce0	-0.030470312
159	0xbdd421a9	-0.10357983
160	0xbe198a12	-0.14994076
161	0xbdc31a1d	-0.09526465
162	0xbd3c8ec9	-0.046034608
163	0xbc96c19b	-0.018402865
164	0xbb1d6231	-0.0024014825
165	0x3c9135ed	0.01772591
166	0x3d2721de	0.040803783
167	0xbb3a3fd3	-0.002841939
168	0xbd379133	-0.044816207
169	0x3d1176b7	0.035513606
170	0xb99d1355	-0.00029959777
171	0x3c1772af	0.009243651
172	0x3cec8a15	0.028874436
173	0xbccb980d	-0.024852777
174	0x3cf5a53f	0.029986022
175	0xbbf48f43	-0.007463367
176	0xbbc49c3c	-0.00600007
177	0x3b678682	0.0035327976
178	0x3d1e5cfd	0.0386629
179	0xbcef946b	-0.029245576
180	0xbd0c1574	-0.034200147
181	0x3ca8da63	0.020611947
182	0xbd1af412	-0.03783042
183	0x3ba7934f	0.005113996
184	0xbd1861d0	-0.037202656
185	0x3cd240a9	0.025665598
186	0x3d01dd5e	0.031705253
187	0x3c409508	0.011754282
188	0xbd080f64	-0.033217803
189	0x3b82ae52	0.0039880658
190	0xbd45ff7b	-0.04833935
191	0xbd4b6d42	-0.049664743
192	0x3b6bcae3	0.0035979084
193	0xbc8ba3b6	-0.017045837
194	0x3c38fe0c	0.011291038
195	0xbcfb8fe1	-0.030708255
196	0xbce05b54	-0.027387299
197	0x3d4a1694	0.04933794
198	0x3ce0b1e3	0.027428573
199	0xbcf66b0a	-0.030080337
200	0xbb8932bb	-0.0041869557
201	0xbcd93a38	-0.026517019
202	0x3c6637db	0.014051403
203	0xbcfe916e	-0.031075206
204	0xbd18add7	-0.03727516
205	0xbc6df25b	-0.014523114
206	0x3d6b27fe	0.057411186
207	0x3a267c96	0.0006350962
208	0xbcd3186d	-0.025768483
209	0xbbd36c95	-0.006452153
210	0xbca22e3a	-0.019797433
211	0x3c6b90e2	0.0143778045
212	0xbb7a262f	-0.0038169732
213	0xbd055bdd	-0.03255831
214	0x3c519139	0.012790971
215	0x3d3ee7c8	0.046607763
216	0xbd2ee085	-0.042694587
217	0xbc7d1ea8	-0.015449204
218	0xbd1673e3	-0.036731612
219	0xbcc5e2d2	-0.024156008
220	0xbbc3f9da	-0.0059807124
221	0x3cba067d	0.022708172
222	0xbc8934ba	-0.016748775
223	0x3d3f95df	0.046773788
224	0x3d85cd82	0.06533338
225	0xbd0856e7	-0.033286
226	0x3cf22ce3	0.02956242
227	0xbcda858c	-0.026675008
228	0xbc46a2ee	-0.012123806
229	0x3d012744	0.031531587
230	0xbcd8c487	-0.026460899
231	0x3ced02bd	0.02893197
232	0xbcbfcdbc	-0.023413531
233	0x3caed22a	0.021340448
234	0x3a6efb7c	0.00091164536
235	0x3d4fa089	0.050690208
236	0x3d72643e	0.05917763
237	0x3d1ef25b	0.038805347
238	0x3d648667	0.05579224
239	0x3d0e6418	0.034763426
240	0x3d938a26	0.07204084
241	0x3d0a53ba	0.033771254
242	0x3d454345	0.048159856
243	0xbd097c33	-0.03356571
244	0xbd896f5a	-0.06710692
245	0xbcf45752	-0.029826794
246	0xbd8b562d	-0.06803546
247	0xbdb4f478	-0.08835691
248	0xbdff6214	-0.12469879
249	0xbdf2c201	-0.118534096
250	0xbd6c431f	-0.0576812
251	0xbd010390	-0.031497538
252	0x3d34fbc7	0.044185426
253	0x3bec7497	0.007216047
254	0xbbb0984e	-0.00538925
255	0xbda543b6	-0.080695555

conv1.bias f4 [32]
0	0x3c0fedc4	0.008784715
1	0xbd1f3744	-0.038871065
2	0xbe2c1eb8	-0.16808593
3	0xbe75c729	-0.24001755
4	0xbcc264c0	-0.023729682
5	0xbd12ee4b	-0.035871785
6	0xbdb5393b	-0.088488065
7	0xbe704509	-0.23463835
8	0xbe78ee42	-0.24309638
9	0xbf114aa8	-0.5675454
10	0x3c4a42f0	0.012345061
11	0xbe1be8f4	-0.15225583
12	0x3dc4b5c6	0.09604983
13	0xbda06dfd	-0.078334786
14	0xbd19a15d	-0.037507404
15	0xbe2c4535	-0.16823275
16	0xbdeb73fa	-0.1149673
17	0xbe0a6026	-0.1351324
18	0xbb480ba8	-0.0030524526
19	0xbecd8990	-0.40144014
20	0xbcf4d9ed	-0.029889071
21	0x3d6c81ed	0.057741094
22	0xbe2e93e8	-0.1704861
23	0xbe8eaf36	-0.2786805
24	0xbdbd6ceb	-0.0924929
25	0x3e27e413	0.16395597
26	0xbcc6cefc	-0.02426862
27	0x3dca1c85	0.09868721
28	0xbe219328	-0.15778792
29	0xbca9f4fa	-0.020746697
30	0x3dedb8c3	0.11607506
31	0xbdbc2b2d	-0.091879226

conv2.weight f4 [16, 32, 5, 5]
0	0x3d48e63b	0.04904769
1	0xbd15dd77	-0.03658816
2	0xbc840a75	-0.016118268
3	0x3ca25da7	0.019820048
4	0xbbf2e1a2	-0.0074121514
5	0xbd2b74c3	-0.0418594
6	0xbcf12c63	-0.02944011
7	0x3ad6087f	0.0016329436
8	0x3cf7193c	0.0301634
9	0xbd73af5a	-0.0594934
10	0x3d295357	0.041339245
11	0xbcc8dd90	-0.024519712
12	0x3d082600	0.033239365
13	0x3d4b0273	0.049562883
14	0x3d65c0ae	0.056091957
15	0xbc889049	-0.016670363
16	0xbcd8dace	-0.026471522
17	0x3c5d6596	0.0135129895
18	0xbca00440	-0.019533277
19	0x3d8967d5	0.067092575
20	0xbbf94cc0	-0.0076080263
21	0xbcea9fb9	-0.028640615
22	0xbd800c04	-0.06252292
23	0xbd1777ed	-0.036979605
24	0x3d5b5f27	0.05355754
25	0x3d54ce2d	0.051954437
26	0x3d1229ea	0.035684504
27	0xbc6a1808	-0.014287956
28	0xbc8d7066	-0.01726551
29	0xbd312a9f	-0.043253537
30	0x3cb88f2e	0.02252921
31	0x3c0e1d0e	0.008673919
32	0xbd9732b5	-0.073827185
33	0xbd85f7d3	-0.06541409
34	0xbd6e45c0	-0.058171988
35	0x3d54514b	0.05183534
36	0xbcab4008	-0.020904556
37	0xbd7cc3cb	-0.06171016
38	0x3cf7ce6a	0.030249793
39	0xbca3b280	-0.019982576
40	0x3c8f5103	0.017494684
41	0xbd5b1e92	-0.05349595
42	0x3c07f71a	0.00829866
43	0xbce0f006	-0.027458202
44	0x3ccc922a	0.02497204
45	0x3d526529	0.051366005
46	0x3d7aab8b	0.061198752
47	0xbd09c6be	-0.0336368
48	0xbd38afe2	-0.04508961
49	0x3cf2389b	0.029568007
50	0x3d8f00f9	0.069826074
51	0x3d8ea171	0.06964386
52	0xbbb35770	-0.00547307
53	0x3d2fc2e2	0.042910464
54	0xbd237456	-0.03990587
55	0xbcbd37a0	-0.023097813
56	0xbd7f214d	-0.062287617
57	0xbd813a2e	-0.06309925
58	0x3c297ef8	0.010345213
59	0xbc216f08	-0.009853132
60	0xbd444144	-0.047913805
61	0x3d6ca8ba	0.057778098
62	0xbcee89cc	-0.029118441
63	0x3d376af6	0.04477974
64	0xbd075d6e	-0.033048086
65	0xbd35fad4	-0.04442866
66	0x3d0e1ade	0.03469359
67	0xbc9fb9de	-0.019497808
68	0x3d647e76	0.055784665
69	0xbc0fda0c	-0.008780014
70	0xbc581480	-0.013188481
71	0x3d4c3ff8	0.049865693
72	0x3c0cacc0	0.008586109
73	0xbd382e3c	-0.044965968
74	0x3d0de904	0.03464605
75	0x3c37dfea	0.011222819
76	0xbd697140	-0.05699277
77	0xbc0f78e4	-0.00875685
78	0xbd761ddf	-0.06008708
79	0x3d20aea8	0.039229065
80	0xbc81c3cf	-0.01584044
81	0x3c744b4a	0.014910528
82	0xbc666550	-0.014062241
83	0x3d3c6e9e	0.04600393
84	0x3d893e74	0.06701365
85	0xbbd3d84d	-0.006464994
86	0xbd405dbc	-0.046964392
87	0xbd05bf27	-0.032653
88	0x3d348d37	0.044079985
89	0x3d4589d8	0.04822716
90	0x3d81ae8b	0.063321196
91	0xbd8a8377	-0.06763356
92	0xbcdc097f	-0.026859997
93	0x3cf7c67e	0.030246016
94	0xbd856410	-0.06513226
95	0x3d857e52	0.06518234
96	0x3a651880	0.00087393075
97	0x3c2e0420	0.010621101
98	0x3cb5a3b2	0.022172783
99	0xbd227085	-0.03965809
100	0xbdaa5f0c	-0.0831891
101	0x3d411a82	0.04714442
102	0x3c3ba2c4	0.011452381
103	0x3c90fd55	0.017698923
104	0xbd098854	-0.03357728
105	0xbc03a153	-0.008034068
106	0xbceafcc0	-0.028684974
107	0xbd961517	-0.07328241
108	0xbc9a2e7f	-0.018821
109	0x3d1e860e	0.038702063
110	0x3d3b2e30	0.045698345
111	0xbcbb46b9	-0.022860872
112	0xbc811cf2	-0.015760873
113	0x3beaba2d	0.007163307
114	0xbd7f4805	-0.062324543
115	0xbd5915bd	-0.052999247
116	0xbc902d3a	-0.01759969
117	0xbb83ff4d	-0.004028237
118	0xbd788a33	-0.060678672
119	0xbd88d71e	-0.06681655
120	0x3d20eaa3	0.039286267
121	0xbd34e7ca	-0.044166364
122	0xbcf2ce1e	-0.0296393
123	0x3ce622eb	0.028092822
124	0xbca82b92	-0.020528588
125	0x3d687055	0.056747753
126	0xbcfeaf8d	-0.031089569
127	0xbdb2dd30	-0.087335944
128	0x3cdfb122	0.027306143
129	0x3c56d38b	0.013111959
130	0x3beb1d23	0.007175104
131	0xbd43dbb8	-0.047816962
132	0x3c014df8	0.007892124
133	0xbd86079f	-0.06544422
134	0x3c04fa11	0.008116261
135	0xbc62e7dc	-0.013849225
136	0x3d25ce74	0.040480092
137	0xbd4274fa	-0.04747484
138	0x3d077a6e	0.033075742
139	0xbd29a869	-0.041420374
140	0xbc6a8c52	-0.0143156815
141	0xbd3fdf8a	-0.046844043
142	0xbd000daa	-0.03126303
143	0xbd24ec34	-0.040264323
144	0xbbd3d7e4	-0.006464945
145	0xbda4209e	-0.08014034
146	0xbcb68953	-0.022282278
147	0xbd23a46a	-0.03995172
148	0x3b295b9a	0.0025841952
149	0xbdb8efd7	-0.09030121
150	0xbd5dbc2b	-0.05413453
151	0x3d26d375	0.040729005
152	0xbd08d27f	-0.03340387
153	0xbd93a3e1	-0.07208992
154	0x3ce513c9	0.027963536
155	0xbd1f2bcf	-0.03886014
156	0x3a0a2ec7	0.00052712526
157	0x3cce6ca3	0.025198286
158	0x3d0fa6e7	0.03507128
159	0x3c77d6f1	0.01512693
160	0xbc0ea1f2	-0.008705603
161	0x3be7bd57	0.0070721316
162	0xbcc069ff	-0.023488043
163	0xbd9e9aac	-0.07744345
164	0xbd084250	-0.033266366
165	0xbd706232	-0.058687396
166	0xbd9123a0	-0.07086873
167	0x3d087aaa	0.033320107
168	0xbdb5bfbd	-0.08874462
169	0xbd54a80e	-0.051918082
170	0x3c44e390	0.012017146
171	0xbd0ceeaa	-0.034407295
172	0xbcf64828	-0.030063704
173	0xbca1d1ac	-0.0197533
174	0xbd87d6f6	-0.066327974
175	0xbc5fdfdc	-0.013664212
176	0xbd6fe587	-0.058568504
177	0xbd88f8f4	-0.06688109
178	0xbc53b621	-0.012921841
179	0xbd8cca05	-0.0687447
180	0x3d5281a8	0.05139318
181	0x3ccd1680	0.025035143
182	0xbb4c417a	-0.0031166957
183	0xbcd85afe	-0.026410576
184	0xbd99a610	-0.07502377
185	0xbb8e9161	-0.0043508266
186	0xbd84bf1e	-0.06481765
187	0xbd40a510	-0.047032416
188	0x3c262d43	0.010142627
189	0x3c992dc9	0.01869859
190	0xbcf47ecb	-0.029845616
191	0xbb968b71	-0.0045942594
192	0x3d235c61	0.03988302
193	0xbca93edf	-0.020659862
194	0xb8f38048	-0.00011611037
195	0xbd615a17	-0.055017557
196	0x3cee8abf	0.029118894
197	0x3b77881b	0.0037770334
198	0x3bc404f0	0.005982034
199	0xbd552371	-0.052035753
200	0x3d4edd8a	0.050504245
201	0x3be35d43	0.006938608
202	0x3d27a7b9	0.040931437
203	0x3d0a4269	0.03375474
204	0x3cbdce5c	0.023169689
205	0xbc677832	-0.014127778
206	0xbc914324	-0.01773221
207	0x3cb8132a	0.022470076
208	0x3cb0e951	0.021595629
209	0xbdb3d21c	-0.087803096
210	0x3d7fc87a	0.06244705
211	0xbd5ace4f	-0.053419407
212	0x3d1d015b	0.03833137
213	0x3c175b4e	0.009238077
214	0xbc9192fe	-0.017770287
215	0xbd21aa5e	-0.039469115
216	0x3d24889d	0.040169347
217	0xbd46cd51	-0.04853565
218	0x3c80cf63	0.01572389
219	0x3b901cc1	0.004397959
220	0xbbeab93a	-0.007163194
221	0x3b6575db	0.0035012874
222	0xbd47dcfa	-0.048794724
223	0xbc907491	-0.017633708
224	0xbd8b17dc	-0.0679166
225	0x3d80941a	0.06278248
226	0x3cc330c1	0.023826959
227	0xbd505441	-0.0508616
228	0x3cb988b7	0.022648199
229	0x3cea339d	0.028589064
230	0xbadebc74	-0.0016993419
231	0x3d530b5f	0.051524516
232	0xbd216613	-0.039403986
233	0xbd88d558	-0.06681317
234	0x3c60cbef	0.013720497
235	0xbc854b52	-0.016271267
236	0x3d80f5df	0.06296896
237	0x3a97d706	0.0011584468
238	0xbd5f35d1	-0.054494683
239	0xbd3b73e2	-0.04576481
240	0x3c7e7583	0.015530947
241	0x3d80ffee	0.06298815
242	0xbd5ea60c	-0.054357573
243	0x3c257b40	0.010100186
244	0x3d20093f	0.039071318
245	0xbd1a98ad	-0.03774326
246	0xbd8ba2ec	-0.06818184
247	0x3d05ebcb	0.032695573
248	0x3d50bfaf	0.050964054
249	0x3c238e39	0.009982639
250	0xbd2c415c	-0.04205452
251	0xbd47e50d	-0.048802424
252	0x3d1d76e2	0.038443454
253	0xbcb0a27b	-0.021561852
254	0x3d0ff159	0.035142276
255	0x3cd49c41	0.025953414

conv2.bias f4 [16]
0	0xbd559ed8	-0.05215344
1	0x3e8dec5e	0.27719396
2	0x3e1f32f8	0.15546787
3	0xbe4c89e3	-0.19974475
4	0xbd5ae51d	-0.053441156
5	0x3dce62a6	0.100774094
6	0xbe870b65	-0.2637588
7	0xbdbbfbe5	-0.091789044
8	0xbda372f7	-0.07980912
9	0xbe521bb5	-0.20518382
10	0xbe8a6c8e	-0.27035946
11	0x3cd57a04	0.026059158
12	0xbcc491dd	-0.023995334
13	0xbce5f573	-0.02807114
14	0xbcb727c5	-0.02235783
15	0xbd52ddca	-0.051481046

conv3.weight f4 [8, 16, 3, 3]
0	0xbd150d80	-0.036389828
1	0x3db50866	0.088394925
2	0xbdad7b23	-0.08470752
3	0x3ded474a	0.11585863
4	0xbd940b46	-0.07228713
5	0x3da93a4a	0.08263071
6	0x3df6aff2	0.12045278
7	0xbdf5e68a	-0.120068625
8	0xbdc6e468	-0.09711534
9	0xbe49d6f9	-0.19710912
10	0xbe598ce3	-0.2124515
11	0xbe6a54b4	-0.22883874
12	0x3cc3e7ac	0.02391418
13	0xbe1ee765	-0.15517958
14	0xbe406e1b	-0.18792002
15	0x3ee339e9	0.4438012
16	0x3e265565	0.16243513
17	0x3ea471ac	0.32117975
18	0x3e8f07ba	0.27935582
19	0x3e178c66	0.14799652
20	0x3e472126	0.19446239
21	0xbd392a9e	-0.04520666
22	0x3de492e8	0.11160833
23	0x3dd4f259	0.10397787
24	0xbec36d1c	-0.3816918
25	0xbe454fb9	-0.19268693
26	0xbe1e4570	-0.15456176
27	0xbedc1145	-0.42981926
28	0xbe94747c	-0.2899512
29	0xbda4eb0a	-0.08052643
30	0xbdd5afee	-0.104339465
31	0x3e107f5c	0.14111084
32	0x3e25130e	0.1612055
33	0x3e495a87	0.1966344
34	0x3e5bfb12	0.21482494
35	0x3e38df91	0.18054034
36	0x3de013c2	0.109412685
37	0xbddfe04a	-0.109314516
38	0x3d6c9a42	0.0577643
39	0x3db7f8b2	0.08982982
40	0x3d959cd4	0.07305303
41	0xbe059157	-0.13043724
42	0xbd66e764	-0.056373015
43	0x3cdd33e3	0.02700228
44	0xbd2b11cf	-0.04176503
45	0xbe413923	-0.18869452
46	0xbe835d1f	-0.25656983
47	0xbdc9d8ea	-0.09855826
48	0x3ddb3c45	0.10704855
49	0x3b352f53	0.0027646616
50	0xbbcda601	-0.0062758927
51	0x3e6f36b7	0.23360716
52	0x3e839317	0.25698158
53	0xbd46335c	-0.048388824
54	0xbe7c04b1	-0.24611165
55	0xbeb06148	-0.3444922
56	0xbe901857	-0.2814357
57	0xbd8ae38d	-0.06781683
58	0x3e40bb52	0.18821457
59	0x3e05b0b1	0.13055684
60	0x3db3e74b	0.0878435
61	0x3d4e4d3b	0.05036662
62	0x3e492a6f	0.19645093
63	0x3db758fd	0.0895252
64	0xbd9eb557	-0.077494316
65	0x3d73d339	0.05952761
66	0xbd9506be	-0.072766766
67	0x3cbe0cd6	0.02319948
68	0x3d7fd4d8	0.062458843
69	0xbdb921c5	-0.09039644
70	0xbc4db75e	-0.012555925
71	0x3e31c0c6	0.17358693
72	0x3cbe15b8	0.023203716
73	0xbda81a9d	-0.08208201
74	0x3d963176	0.07333653
75	0xbdacafbe	-0.08431958
76	0x3de85cf2	0.11345853
77	0x3e1e6feb	0.15472381
78	0x3d9a9cba	0.075494245
79	0xbe1420d1	-0.14465643
80	0xbde4369b	-0.11143228
81	0xbe54ce27	-0.20781766
82	0xbe897c0a	-0.26852447
83	0xbe0f0c89	-0.13969626
84	0x3d5bb6f2	0.053641267
85	0x3d5e4d20	0.05427277
86	0x3d10d747	0.035361554
87	0x3e4b3acc	0.19846648
88	0x3e08059b	0.13283388
89	0x3d95bb65	0.07311133
90	0xbe525401	-0.20539857
91	0xbe2c76bf	-0.16842173
92	0xbee0d6e0	-0.43913937
93	0x3dc99d96	0.0984451
94	0x3d891f05	0.0669537
95	0xbd5c5b84	-0.053798214
96	0x3e4b1b0c	0.19834536
97	0x3e8de772	0.2771564
98	0x3e1dc705	0.15407951
99	0x3e050ed4	0.12993938
100	0x3c56c02f	0.013107344
101	0x3be85612	0.0070903385
102	0x3cd5f512	0.026117835
103	0x3da764af	0.08173501
104	0xbdb01a3b	-0.08598753
105	0xbcd8ae7b	-0.026450386
106	0xbce4fc87	-0.027952446
107	0xbde060aa	-0.10955937
108	0x3d27ce70	0.04096836
109	0x3d9e23d7	0.0772168
110	0x3e59a497	0.21254192
111	0x3cf4f511	0.029902013
112	0xbe06e3bf	-0.13172816
113	0xbdfc893a	-0.123308614
114	0xbdc16c4a	-0.094444826
115	0xbdcb75cf	-0.099345796
116	0x3e15da84	0.14634138
117	0xbd3afdf9	-0.045652363
118	0xbcb5d63a	-0.022196878
119	0x3d6cf63e	0.057852022
120	0x3d358dfd	0.044324864
121	0x3d6adac1	0.057337526
122	0xbdefc680	-0.11707783
123	0xbe12b924	-0.14328438
124	0xbccc5998	-0.024945065
125	0xbc0922cb	-0.008370112
126	0xbd817e8e	-0.063229665
127	0xbd478844	-0.048713937
128	0xbb71d3c4	-0.0036899904
129	0x3e0b5437	0.13606344
130	0xbc3a9be8	-0.01138971
131	0x3cd7738f	0.02630022
132	0xbd953eb0	-0.07287347
133	0x3e17a52b	0.148091
134	0xbe21c0a6	-0.15796146
135	0x3ccc8a13	0.024968183
136	0xbe3ebbd7	-0.18626343
137	0xbe1e10f5	-0.15436156
138	0x3e424184	0.18970305
139	0xbe092d36	-0.13396153
140	0x3df8c4bb	0.12146898
141	0x3dd37b2f	0.1032623
142	0x3d736e12	0.059431143
143	0x3db03180	0.086031914
144	0xbe021dea	-0.12706724
145	0x3cf01db8	0.029311046
146	0x3c8a50e3	0.016884273
147	0xbcd52a48	-0.026021138
148	0x3dbf48b5	0.0934004
149	0x3e18b18d	0.1491148
150	0xbd911e11	-0.07085813
151	0xbd94ee9f	-0.07272076
152	0xbbf4dad2	-0.0074723745
153	0xbf19bb1d	-0.6005114
154	0xbe47b449	-0.19502367
155	0xbdb61083	-0.08889868
156	0x3d88ed9e	0.06685947
157	0x3dba938e	0.09110175
158	0x3e366ae7	0.17814218
159	0xbd865989	-0.06560046
160	0x3db32fef	0.08749377
161	0x3ed0ad36	0.4075715
162	0xbf408af3	-0.7521202
163	0xbef11dba	-0.47092992
164	0xbd280ba6	-0.041026734
165	0xbcbdcc45	-0.023168692
166	0x3e2eb562	0.1706138
167	0x3f14470f	0.57920927
168	0xbed68c3b	-0.41903862
169	0xbe0bfb3d	-0.13670059
170	0x3e813822	0.25238138
171	0xbf22c104	-0.6357577
172	0xbc9b133a	-0.018930066
173	0xbe1f7ca3	-0.15574889
174	0x3bfdc2b0	0.007744156
175	0x3c35df25	0.011100565
176	0x3c8f7511	0.017511876
177	0x3d0652f1	0.032793943
178	0xbdea06e0	-0.114270926
179	0x3d9673ed	0.0734633
180	0x3e139339	0.1441163
181	0xbc86bf02	-0.016448501
182	0xbdb4cf11	-0.08828557
183	0xbd5e569d	-0.05428182
184	0x3d488bb3	0.048961353
185	0xbdd4d109	-0.10391433
186	0x3d43da69	0.047815714
187	0x3d96219e	0.07330631
188	0x3e18af96	0.1491073
189	0xbf1ac09b	-0.6045014
190	0xbe917bda	-0.28414804
191	0xbe871a49	-0.2638724
192	0xbe3b1132	-0.18268278
193	0x3cbbb7bc	0.02291476
194	0x3e3108ee	0.17288563
195	0xbe3ca0e8	-0.18420756
196	0x3d505063	0.050857913
197	0x3e9a29c8	0.30110002
198	0xbfb33ce2	-1.4002955
199	0x3f08c4a2	0.5342504
200	0xbf9874d6	-1.1910655
201	0x3eb712db	0.35756573
202	0x3f08b328	0.5339837
203	0x3d058ede	0.032606952
204	0x3eb23e0c	0.34812963
205	0x3e981ed7	0.2971103
206	0x3de410d8	0.11136025
207	0xbe1b3771	-0.15157868
208	0x3db3753e	0.087625965
209	0xbe3e76dd	-0.1860003
210	0xbdb75dee	-0.089534625
211	0xbe13665f	-0.1439452
212	0xbda14d3c	-0.078760594
213	0xbdd31a01	-0.10307694
214	0xbd6ae81b	-0.05735026
215	0xbcf05cde	-0.029341158
216	0xbdbba8e6	-0.09163074
217	0xbdcd3eb7	-0.100217275
218	0x3e254097	0.1613792
219	0xbdf95c88	-0.12175852
220	0x3db9351e	0.090433344
221	0xbdf4e770	-0.11958206
222	0xbdc94fe4	-0.09829691
223	0xbce6318c	-0.028099798
224	0x3cd96e8e	0.026541974
225	0x3e68e638	0.22744071
226	0xbe51ea33	-0.20499496
227	0xbe0da14e	-0.13831064
228	0x3dd8db60	0.105887175
229	0x3d8a0b6c	0.0674046
230	0x3c8c8852	0.017154846
231	0xbedb01b7	-0.42774746
232	0xbc6cc922	-0.014452251
233	0x3e2a2906	0.16617212
234	0xbf62322a	-0.88357794
235	0xbe472f42	-0.19451621
236	0xbe984b53	-0.29744968
237	0xbd91db70	-0.071219325
238	0x3d773005	0.06034853
239	0xbe3f39b1	-0.18674351
240	0xbe0ea7a2	-0.13931134
241	0x3beb81a0	0.0071870834
242	0xbda7eb71	-0.08199204
243	0xbc59c1de	-0.01329085
244	0xbe07ff14	-0.13280898
245	0xbd6aacb9	-0.057293627
246	0xbd235fb9	-0.03988621
247	0xbcddae08	-0.027060524
248	0x3dde6536	0.10859148
249	0xbd28d585	-0.041219253
250	0x3dfd9b74	0.12383166
251	0x3e1d4a4a	0.1536037
252	0x3dee5931	0.11638106
253	0xbdbc999e	-0.09208988
254	0xbe32c015	-0.17456086
255	0x3d9723ce	0.07379876

conv3.bias f4 [8]
0	0xbcbbfc93	-0.022947585
1	0x3f1153a2	0.5676824
2	0x3cc085d7	0.02350132
3	0xbd8a23ac	-0.06745085
4	0x3c001c6b	0.007819275
5	0x3e227dd3	0.1586831
6	0x3f1bf95d	0.60927373
7	0x3dd5825a	0.10425253

convt1.weight f4 [8, 8, 3, 3]
0	0xbd4a151b	-0.049336534
1	0xbeb9d0d2	-0.3629213
2	0x3e129bc0	0.14317226
3	0x3ea4eafd	0.32210532
4	0x3e068533	0.13136749
5	0xbf259043	-0.6467325
6	0xbe86981d	-0.26287928
7	0xbe5a9b3c	-0.2134828
8	0x3e084779	0.13308515
9	0xbe3a5b6b	-0.18198936
10	0xbe3840da	-0.17993489
11	0xbf2b60d4	-0.66944623
12	0xbed20fed	-0.41027775
13	0x3ceb0834	0.028690435
14	0x3cf7bff2	0.030242894
15	0xbe9a0620	-0.30082798
16	0xbf220d1f	-0.6330127
17	0xbeab8839	-0.33502367
18	0xbe18d39e	-0.14924476
19	0x3dd6a09b	0.10479852
20	0x3bef68af	0.0073061804
21	0x3f5631a6	0.8366951
22	0xbc9d9524	-0.019236155
23	0xbd3e7638	-0.04649946
24	0xbcecfd35	-0.028929332
25	0x3dc3b23e	0.095554814
26	0xbe1fb9f3	-0.15598278
27	0x38426b6d	4.6353252e-05
28	0x3edb1e70	0.4279666
29	0x3f64ca32	0.89371026
30	0x3e5515e4	0.20809132
31	0xbd056bae	-0.032573394
32	0xbec0ec9f	-0.37680528
33	0xbe7c6bea	-0.24650541
34	0xbf5ac8a7	-0.8546242
35	0x3da53dbf	0.08068418
36	0x3e0c35f9	0.13692464
37	0x3e4ef976	0.2021235
38	0xbdc0b6e4	-0.094098836
39	0xbd86947d	-0.06571291
40	0xbda98962	-0.08278157
41	0xbd9b9b6b	-0.07598003
42	0x3dc7f4d7	0.09763496
43	0xbdae330c	-0.0850583
44	0x3ce62e36	0.028098207
45	0x3def8d8a	0.11696918
46	0xbe5a8bf2	-0.21342447
47	0x3d8a860a	0.06763847
48	0xbd38152f	-0.044942077
49	0xbf6c6221	-0.9233723
50	0x3dd59aea	0.10429938
51	0x3c14651f	0.009057312
52	0x3acc3481	0.0015579612
53	0x3e254dde	0.16142985
54	0xbd56cf56	-0.052443825
55	0xbe2f70a9	-0.1713282
56	0x3e64de3a	0.22350398
57	0xbda55d40	-0.08074427
58	0x3e5cffd1	0.21581961
59	0x3e99d956	0.30048627
60	0x3edfb8e6	0.43695754
61	0xbdc597e3	-0.09648111
62	0x3f266796	0.6500181
63	0x3cd235dd	0.02566045
64	0xbe05f477	-0.13081537
65	0xbdf490a7	-0.11941653
66	0xbd545c30	-0.05184573
67	0x3d0c4409	0.03424457
68	0xbe560b73	-0.20902805
69	0xbe4fa007	-0.2027589
70	0xbdd15e6e	-0.10223089
71	0xbe0fa57f	-0.14027975
72	0x3e3b196c	0.18271416
73	0xbf5856e2	-0.8450757
74	0x3e9eb225	0.30995288
75	0x3d154a97	0.036448088
76	0x3e6bb814	0.23019439
77	0x3e882443	0.26590165
78	0xbe2ae95f	-0.16690587
79	0x3fbc9480	1.4732819
80	0x3c0a6b0c	0.0084483735
81	0x3ec48317	0.38381264
82	0x3e45bf24	0.19311196
83	0xbdf70906	-0.12062268
84	0x3d975bf7	0.07390588
85	0xbe495022	-0.19659474
86	0xbf93cfd2	-1.1547797
87	0x3ec95286	0.39320773
88	0x3ec09977	0.37617084
89	0xbe869b43	-0.2629033
90	0xbe17ef4d	-0.1483738
91	0xbc309a3d	-0.010778961
92	0xbdbf8bb6	-0.093528196
93	0x3d950e00	0.07278061
94	0xbf6c7343	-0.92363375
95	0xbd00882e	-0.03137987
96	0x3dafa989	0.08577258
97	0xbc9c5003	-0.019081121
98	0xbdb85f24	-0.09002522
99	0xbeb3d6d5	-0.3512484
100	0x3b61e8c1	0.0034471008
101	0x3dd91524	0.105997354
102	0xbf6b85f8	-0.92001295
103	0xbe9bb0ff	-0.30408475
104	0xbc04b0a9	-0.00809876
105	0xbdd293c6	-0.10282092
106	0x3d05b2dd	0.03264128
107	0xbdee0106	-0.11621289
108	0xbe2d2d1b	-0.16911738
109	0xbd9fbfe7	-0.07800274
110	0x3d8937d9	0.06700105
111	0xbdc9cfdd	-0.098541
112	0xbd3032c2	-0.043017156
113	0x3ea57bbe	0.3232097
114	0x3d9c7af1	0.07640637
115	0xbe85ef50	-0.26159143
116	0x3deed09b	0.11660882
117	0x3e44b38d	0.19209118
118	0x3ea3c543	0.31986436
119	0x3e3c2b78	0.18375957
120	0x3efdfa31	0.49604943
121	0xbe80c576	-0.2515065
122	0x3d6b1e4d	0.057401944
123	0xbda546e6	-0.080701634
124	0xbc8e0555	-0.017336527
125	0xbd811665	-0.063030995
126	0x3f395d09	0.72407585
127	0x3d6a81bb	0.057252627
128	0x3e2a8c82	0.16655162
129	0x3e92e5ce	0.28690952
130	0xbcd712aa	-0.026254017
131	0x3d81e004	0.06341556
132	0x3e87f7eb	0.26556334
133	0xbe171a9d	-0.14756246
134	0x3d9a7e03	0.07543566
135	0x3e5952c6	0.21222982
136	0xbf128c30	-0.5724516
137	0xba986994	-0.0011628144
138	0xbe634619	-0.22194709
139	0xbe77494b	-0.24149053
140	0x3da89bd6	0.08232848
141	0xbe30bbc0	-0.17259121
142	0x3f0ca6d1	0.5494204
143	0x3d25c814	0.040474012
144	0xbea2f7f0	-0.31829786
145	0xbe34b5c1	-0.17647459
146	0x3e276456	0.16346869
147	0xbedeadf8	-0.43492103
148	0xbea4ebc5	-0.32211128
149	0x3ef5ed6e	0.48032707
150	0xbc96d2f4	-0.018411137
151	0xbf179d5d	-0.5922449
152	0x3d9e0887	0.0771647
153	0xbd369566	-0.04457607
154	0xbdd39cbd	-0.1033263
155	0x3d846cbc	0.06466052
156	0x3e945a98	0.28975368
157	0x3d59ec49	0.053203855
158	0x3db60f9e	0.088896975
159	0x3e6f1a1f	0.23349808
160	0xbde762af	-0.11298119
161	0xbf071eb7	-0.5278124
162	0xbc5a39b6	-0.013319423
163	0x3de09a52	0.10966934
164	0xbe8a9624	-0.27067673
165	0xbe8ce633	-0.27519378
166	0xbf127aa8	-0.5721841
167	0x3edad752	0.427424
168	0xbdb272f7	-0.08713334
169	0x3d865e02	0.06560899
170	0xbe714e45	-0.23565014
171	0x3ebe3bcd	0.37155
172	0x3eb72c46	0.35775965
173	0xbe99789a	-0.29974824
174	0xbe2de5a5	-0.16982134
175	0xbe980099	-0.29687956
176	0x3e706a34	0.23478013
177	0x3d6c1e99	0.057646368
178	0xbeffeb3b	-0.49984154
179	0xbd552182	-0.05203391
180	0x3eca1b7a	0.39474088
181	0x3e89ae66	0.26890868
182	0xbe1ae680	-0.15126991
183	0x3e6add09	0.2293588
184	0x3e255963	0.1614738
185	0x3f0198da	0.5062386
186	0x3e1f484d	0.15554924
187	0x3e72e590	0.23720384
188	0x3e17890c	0.14798373
189	0xbd62b89d	-0.055351842
190	0x3cb845bd	0.022494191
191	0x3d9152c1	0.07095862
192	0xbe83418b	-0.25635943
193	0xbf244229	-0.6416345
194	0x3ddb1ea1	0.106992014
195	0x3eb7d1b5	0.3590218
196	0x3dc245ec	0.09485993
197	0xbdc87520	-0.09787965
198	0xbe2fd90f	-0.17172645
199	0xbd5d22a9	-0.053988133
200	0xbd55ae8c	-0.052168414
201	0xbe6d4329	-0.23170151
202	0xbd6540de	-0.055970065
203	0x3dbfdf50	0.09368765
204	0x3c930969	0.017948823
205	0xbc8b765c	-0.017024212
206	0xbb9d1daa	-0.004794796
207	0xbc636ec9	-0.013881394
208	0xbf422360	-0.7583523
209	0x3d9e4c73	0.07729425
210	0xbde8553c	-0.11344382
211	0x3e4109b2	0.18851355
212	0xbd1f59f8	-0.03890416
213	0xbe5cb956	-0.21555075
214	0x3ded162a	0.11576493
215	0xbe9a88a0	-0.30182362
216	0x3db35e95	0.087582745
217	0xbd214bfc	-0.039379105
218	0x3d9eca7e	0.07753466
219	0x3e3ae6ac	0.18252057
220	0xbdda645c	-0.10663673
221	0x3e26ab87	0.1627637
222	0xbe6ecfc6	-0.23321447
223	0x3dd1d210	0.10245144
224	0xbe2c4054	-0.16821414
225	0xbe3698c9	-0.1783172
226	0xbe189733	-0.14901428
227	0xbd068e1d	-0.032850374
228	0xbe4cd463	-0.20002894
229	0xbd9118ea	-0.0708483
230	0xbdedee14	-0.116176754
231	0xbe3048b3	-0.17215233
232	0x3cc1aa58	0.023640797
233	0x3e28827d	0.16456027
234	0x3d423978	0.047418088
235	0x3d10e450	0.035373986
236	0xbdbbd134	-0.09170762
237	0x3d915eff	0.07098197
238	0xbd9f55b2	-0.07780017
239	0xbe2396cd	-0.15975495
240	0xbe2bfe96	-0.16796336
241	0xbdbe29b5	-0.09285299
242	0xbd545da8	-0.05184713
243	0x3e46880f	0.1938784
244	0x3dc3000e	0.09521495
245	0x3c8678e3	0.016415065
246	0xbda837d4	-0.08213773
247	0xbdc016dd	-0.09379361
248	0x3d56a9a6	0.052407883
249	0x3e2b8508	0.16749966
250	0x3d9fde51	0.07806075
251	0x3e5cc476	0.21559319
252	0xbd904941	-0.07045222
253	0x3d731d33	0.05935402
254	0x3e404d02	0.18779376
255	0xbe249c16	-0.16075167

convt1.bias f4 [8]
0	0x3c50cf94	0.012744803
1	0x3e15d2f6	0.14631256
2	0xbc920db9	-0.01782881
3	0xbd1ada2b	-0.037805717
4	0x3debee4e	0.115200624
5	0x3a2ccdec	0.0006591964
6	0x3e11bd60	0.14232397
7	0x3d17bbcc	0.03704433

convt2.weight f4 [8, 16, 5, 5]
0	0x3e66ce7b	0.22539704
1	0x3b933d9a	0.0044934275
2	0x3d9a0a47	0.075214915
3	0x3d071bbf	0.032985445
4	0xbe54abdf	-0.20768689
5	0xbdb76806	-0.08955388
6	0xbe91e2e7	-0.28493425
7	0xbec48c41	-0.38388255
8	0xbea58f14	-0.32335722
9	0xbe8355c8	-0.25651383
10	0xbe244171	-0.16040589
11	0xbe257e8a	-0.16161552
12	0xbf06a113	-0.5258953
13	0xbcb65212	-0.022255931
14	0xbe235633	-0.15950851
15	0xbe0cf26c	-0.13764352
16	0xbf1f93e1	-0.6233502
17	0xbca6cbdd	-0.020360881
18	0x3d6cd026	0.057815693
19	0xbf15f8da	-0.5858284
20	0xbd415f76	-0.04721018
21	0xbdf92767	-0.121657185
22	0xbe7f9d7b	-0.24962418
23	0xbe2f7c45	-0.17137249
24	0x3d2e090f	0.042489108
25	0xbea36cba	-0.3191889
26	0xbcfe2606	-0.03102399
27	0xbd606795	-0.054786284
28	0xbea65d77	-0.32493183
29	0xbd52cef2	-0.05146689
30	0xbe45e35e	-0.19325015
31	0xbda0dd39	-0.07854695
32	0xbe4cfb60	-0.20017767
33	0xbebed180	-0.3726921
34	0xbcab469a	-0.020907689
35	0xbd695f89	-0.056975875
36	0xbd3c8b8c	-0.04603152
37	0x3c9b885d	0.018985922
38	0xbef7bb93	-0.48385295
39	0x3cc1370e	0.023585822
40	0xbfea4aed	-1.8304116
41	0x3e269606	0.16268167
42	0xbd3595c0	-0.044332266
43	0xbf001298	-0.5002837
44	0x3e7ccc15	0.24687226
45	0x3e0369be	0.12833306
46	0x3ea486e1	0.32134154
47	0x3d64fa81	0.05590296
48	0x3e8cc410	0.27493334
49	0x3e581a0d	0.21103688
50	0xbdff6b69	-0.12471659
51	0xbd252a6f	-0.04032367
52	0xbe1d02ac	-0.1533305
53	0xbf362c32	-0.71161187
54	0xbea52c11	-0.32260182
55	0xbe8fb17b	-0.28065094
56	0xbcbb1f53	-0.022842085
57	0xbe216466	-0.15760955
58	0xbe86f93c	-0.26362026
59	0xbe69f0cf	-0.22845767
60	0xbd25d839	-0.04048941
61	0x3dd474b4	0.10373822
62	0x3c4c2721	0.012460501
63	0xbe994f96	-0.29943532
64	0xbd5af921	-0.053460244
65	0xbdbc7365	-0.09201697
66	0x3c98e529	0.01866396
67	0x3ca38766	0.019962024
68	0xbde736d2	-0.11289753
69	0x3d7d91ac	0.0619065
70	0x3c1bbb6a	0.009505132
71	0xbdf94348	-0.12171036
72	0xbdb96946	-0.090532824
73	0xbcfab835	-0.030605415
74	0xbd0896e2	-0.033347018
75	0xbf1b8fd5	-0.60766345
76	0x3d89cc17	0.0672838
77	0xbea363e7	-0.31912157
78	0xbe893769	-0.26800087
79	0x3e255e63	0.16149287
80	0x3c23e4a2	0.010003241
81	0xbc01856a	-0.007905344
82	0xbd781426	-0.06056609
83	0xbebf5f51	-0.37377408
84	0x3dfe7a2c	0.12425646
85	0xbceff65e	-0.029292282
86	0xbd3030e7	-0.043015387
87	0x3dc05f52	0.09393181
88	0x3d4fe5fd	0.050756443
89	0xbdc3fa1c	-0.09569189
90	0x3e0fdeb6	0.14049801
91	0xbca1bb1f	-0.019742547
92	0x3d33e3ca	0.04391841
93	0x3de58c4d	0.11208401
94	0xbe6bb186	-0.23016939
95	0xbe21aa34	-0.15787584
96	0x3dc3dfe6	0.095641896
97	0xbbe8713b	-0.0070935762
98	0x3dccf8e6	0.10008411
99	0xbe0d8e32	-0.13823774
100	0x3cc3aada	0.02388518
101	0x3d155b19	0.03646383
102	0xbf047d4d	-0.51753694
103	0xbdd4dd9f	-0.10393833
104	0x3cb6f4e0	0.022333562
105	0x3e664f54	0.22491199
106	0xbe07e1cc	-0.13269728
107	0x3c94201f	0.018081723
108	0x3dc05eb7	0.093930654
109	0xbe857851	-0.26068357
110	0x3e23903a	0.15972987
111	0x3c3682d0	0.011139587
112	0xbea05144	-0.31312
113	0xbe60f904	-0.21969992
114	0x3cef6e70	0.029227465
115	0x3e0715d2	0.13191918
116	0x3c46baa2	0.012129458
117	0xbe28d964	-0.16489178
118	0x3e2b85e2	0.16750291
119	0xbf815bf9	-1.0106193
120	0x3e0bb2e3	0.13642459
121	0xbee6bdc8	-0.45066667
122	0xbec070aa	-0.37585956
123	0x3d80ae32	0.06283225
124	0xbe23e195	-0.16004021
125	0x3e0e9a8d	0.13926144
126	0xbdbc34f0	-0.091897845
127	0x3e07dd38	0.13267982
128	0xbd3caf34	-0.046065524
129	0xbd983eeb	-0.07433876
130	0xbd8e21b2	-0.069400206
131	0xbe4b77d4	-0.1986993
132	0xbdb59afd	-0.08867452
133	0x3cf28df2	0.0296087
134	0xbd4757d0	-0.04866773
135	0xbd8ab02f	-0.067718856
136	0xbf2bb7ba	-0.6707722
137	0xbea30669	-0.31840828
138	0x3b3fc755	0.0029263098
139	0xbd8b0ad5	-0.067891754
140	0x3e9ba473	0.30398902
141	0xbecc2404	-0.39871228
142	0xbe2e8326	-0.17042217
143	0x3d8e5edf	0.06951689
144	0xbecee497	-0.40408775
145	0x3e569cc2	0.20958236
146	0x3d1c1108	0.03810218
147	0xbdea4d26	-0.11440496
148	0x3dd7dd29	0.1054023
149	0xbe748510	-0.23878884
150	0xbe2f3661	-0.17110588
151	0x3be84d22	0.007089273
152	0xbeef27f6	-0.46710175
153	0xbd88d60c	-0.06681451
154	0xbde3dbb7	-0.11125892
155	0xbe36d831	-0.17855908
156	0xbd6ef777	-0.05834147
157	0xbe32823d	-0.17432494
158	0xbcdbb06c	-0.026817523
159	0xbe29beae	-0.16576645
160	0xbe2dc70b	-0.1697046
161	0xbf474d3b	-0.7785222
162	0xbf4bf7e3	-0.7967512
163	0xbdcd3a5b	-0.10020896
164	0x3bb611da	0.0055563273
165	0xbef77ae7	-0.48335955
166	0xbe7c693a	-0.24649516
167	0xbf2aebc9	-0.6676603
168	0xbf0912c8	-0.5354428
169	0x3e293750	0.16525006
170	0xbdd565d9	-0.104198165
171	0x3b2bf32c	0.002623747
172	0xbe073475	-0.13203605
173	0xbbf0559d	-0.0073344246
174	0x3e62f52d	0.2216384
175	0xbef815d9	-0.48454168
176	0xbe4a1b6b	-0.19737022
177	0xbf0b8988	-0.5450673
178	0xbe348cfe	-0.17631909
179	0xbe7c4c67	-0.2463852
180	0xbf2e109f	-0.6799411
181	0xbeb3d003	-0.35119638
182	0xbe2d5a38	-0.16928947
183	0xbd3a7e4e	-0.04553061
184	0xbec72984	-0.3889886
185	0xbe267d39	-0.16258706
186	0xbdb5ebd4	-0.08882871
187	0xbeaba9f7	-0.3352811
188	0xbdada8aa	-0.08479436
189	0xbdee4a21	-0.11635233
190	0xbeb27666	-0.34855956
191	0xbe2581d8	-0.16162813
192	0xbea5d297	-0.3238723
193	0xbea59ef6	-0.3234784
194	0x3e1d2b9f	0.15348671
195	0xbdd93093	-0.10604968
196	0xbeafeb37	-0.34359142
197	0xbdd5e508	-0.10444075
198	0x3c36d280	0.011158586
199	0xbdb69894	-0.08915821
200	0xbe3fa6ca	-0.18715969
201	0x3e030cf9	0.12797917
202	0x3df1f2b5	0.11813871
203	0x3cb30ccf	0.021856694
204	0xbe595e63	-0.21227412
205	0xbc0450b1	-0.008075879
206	0xbdc155f3	-0.09440222
207	0xbccc266f	-0.02492067
208	0x3d2464f3	0.040135335
209	0x3d032085	0.032013435
210	0x3d58df9f	0.052947637
211	0xbefeca7e	-0.49763864
212	0xbdcc6e30	-0.09981954
213	0x3d9edbc5	0.077567615
214	0xbd6d622c	-0.057954952
215	0x3d53c215	0.051698763
216	0x3c809adb	0.01569884
217	0x3e06dcd4	0.13170177
218	0xbc3e3507	-0.011609322
219	0x3dcceea6	0.10006456
220	0x3bfa56a1	0.0076397215
221	0xbef3b222	-0.47596842
222	0xbd376c0c	-0.044780776
223	0x3d873ed6	0.06603782
224	0x3e40de68	0.18834841
225	0xbdf22ddd	-0.11825154
226	0xbe895e71	-0.26829866
227	0xbe1b295b	-0.15152495
228	0xbe81dac6	-0.25362223
229	0xbe356a52	-0.17716339
230	0xbe697ee4	-0.22802311
231	0xbbeb1a68	-0.0071747787
232	0xbed89f43	-0.42309007
233	0xbda68d3b	-0.08132406
234	0x3d88a839	0.06672711
235	0x3b926e25	0.0044686967
236	0xbe8f9447	-0.28042814
237	0xbdbd14d3	-0.092324875
238	0xbe4201b2	-0.18945959
239	0xbe47713b	-0.19476788
240	0xbde90481	-0.11377812
241	0x3e1ae48f	0.1512625
242	0xbd8febf6	-0.07027428
243	0xbdb63887	-0.088975005
244	0xbe35d91d	-0.17758603
245	0xbd96b052	-0.07357849
246	0xbdce67ba	-0.10078378
247	0xbdc62734	-0.09675446
248	0xbe45ecbb	-0.19328587
249	0x3a15b572	0.00057109364
250	0x3d4ddaeb	0.050257605
251	0x3e95545e	0.2916593
252	0x3d952639	0.07282681
253	0x3d63ec53	0.0556453
254	0x3de89282	0.11356069
255	0x3e00e338	0.12586677

convt2.bias f4 [16]
0	0x3e611ff2	0.21984842
1	0xbc9f45b0	-0.01944241
2	0x3e216443	0.15760903
3	0x3e083e98	0.13305128
4	0x3c1ab559	0.009442651
5	0xbd710f2f	-0.05885237
6	0x3e2bf996	0.16794428
7	0x3db73bfa	0.089469865
8	0x3df58a51	0.119892724
9	0x3e20f1b0	0.15717196
10	0xbd442291	-0.047884528
11	0x3e2bea85	0.16788681
12	0x3e11d501	0.14241411
13	0xbcc0850a	-0.023500938
14	0xbd017d3a	-0.031613566
15	0x3d3d86a1	0.04627097

convt3.weight f4 [16, 32, 9, 9]
0	0xbf184e16	-0.5949415
1	0x3d54eac6	0.05198171
2	0xbea05ed3	-0.31322345
3	0x3d4e7e77	0.050413575
4	0xbe3d8a45	-0.18509777
5	0xbe82c2aa	-0.25539142
6	0x3d90d627	0.07072096
7	0xbc8ae375	-0.016954163
8	0x3e58f63d	0.21187682
9	0x3d10454f	0.035222348
10	0xbe142b80	-0.14469719
11	0xbe9a520e	-0.30140728
12	0xbe9aa67c	-0.30205142
13	0xbe30a9d5	-0.17252286
14	0xbf18fa46	-0.59756887
15	0xbcb0350f	-0.021509675
16	0xbec5de23	-0.3864604
17	0xbdf0e649	-0.117626734
18	0xbf1bcdd6	-0.60860956
19	0xbec163c8	-0.3777144
20	0x3d3cf8dd	0.046135772
21	0xbe02311a	-0.12714043
22	0xbf25bff8	-0.64746046
23	0x3dccc84c	0.09999141
24	0xbe503263	-0.20331721
25	0xbd406479	-0.04697082
26	0x3d3b7d3f	0.04577374
27	0xbe8fac56	-0.2806117
28	0xbd29c0dc	-0.04144369
29	0xbe13d813	-0.14437895
30	0xbdd91980	-0.10600567
31	0xbe4ad08f	-0.19806121
32	0xbe375ce9	-0.17906536
33	0xbd9fa293	-0.077946804
34	0xbdc54c5c	-0.09633705
35	0xbe4bdefa	-0.19909278
36	0xbe0bd4f0	-0.13655448
37	0xbea72ff5	-0.32653776
38	0xbd4b31d1	-0.049608056
39	0xbec42bbd	-0.3831462
40	0xbdd8bcfd	-0.10582922
41	0xbcde7f27	-0.02716024
42	0xbe68e3cd	-0.22743149
43	0xbf1863b0	-0.5952711
44	0xbd6683bf	-0.056277987
45	0xbedd9caa	-0.43283588
46	0x3cac1c75	0.021009663
47	0xbde2f087	-0.11081033
48	0xbe2648f1	-0.16238762
49	0xbea430ac	-0.32068384
50	0xbd79a2c4	-0.06094624
51	0xbe1f419a	-0.15552369
52	0xbce9716f	-0.028496472
53	0xbd61f6ce	-0.055167012
54	0xbe5c70b5	-0.2152737
55	0xbdade78e	-0.08491431
56	0xbd9421bd	-0.072329976
57	0x3ddb7468	0.10715562
58	0xbc502b4c	-0.012705635
59	0xbe2ef4aa	-0.1708552
60	0xbb640198	-0.003479099
61	0xbd9b5ec5	-0.07586435
62	0x3da1a3d4	0.07892576
63	0xbdb6c950	-0.08925116
64	0xbab0142b	-0.0013433745
65	0xbea7b332	-0.32753903
66	0xbe744318	-0.23853719
67	0xbdd26fc3	-0.10275223
68	0xbe1dfab1	-0.15427662
69	0xbd20cf9d	-0.039260495
70	0x3da43807	0.08018499
71	0x3e094243	0.13404183
72	0xbf187fce	-0.59570014
73	0xbe843b90	-0.25826693
74	0x3d214248	0.03936985
75	0xbe93c009	-0.2885745
76	0xbf1aa887	-0.604134
77	0x3d86f579	0.06589789
78	0xbea374b1	-0.31924966
79	0xbef81360	-0.48452282
80	0x3c20667f	0.009790062
81	0xbc732208	-0.014839657
82	0x3cbb5b1a	0.022870589
83	0xbd334fbf	-0.043777224
84	0x3bce7f99	0.006301832
85	0x3c975759	0.018474268
86	0xbd4d5c24	-0.0501367
87	0xbcac1e0d	-0.021010423
88	0xbc3d7fc3	-0.011566105
89	0x3c815d15	0.015791455
90	0x3d137efd	0.036009777
91	0xbc6b8f25	-0.01437739
92	0x3e0ff92f	0.140599
93	0xbc080030	-0.008300826
94	0x3c7fb26c	0.015606504
95	0x3df6fae7	0.120595746
96	0xbd010aa4	-0.03150429
97	0xbcdfacbc	-0.027304046
98	0x3d5e132a	0.054217495
99	0xbc536af9	-0.012903922
100	0xbbed1ebd	-0.0072363303
101	0xbcf134ba	-0.029444087
102	0xbd4fe226	-0.05075278
103	0xbccfe311	-0.025376828
104	0x3bbfbd3c	0.005851416
105	0xbd71f561	-0.059071902
106	0x3cc273a7	0.023736788
107	0x3c4bfbc9	0.012450167
108	0x3cb1d0a6	0.021705937
109	0xbcd10d0a	-0.025518913
110	0x3c090827	0.00836376
111	0xbcea9e64	-0.02863998
112	0xbc73a27d	-0.014870283
113	0xbd04c523	-0.032414567
114	0xbd37af01	-0.04484463
115	0xbd005093	-0.03132684
116	0xbcbd0f11	-0.023078473
117	0xbc576bb0	-0.013148233
118	0x3a55fe44	0.00081631937
119	0x3da1036d	0.078619815
120	0xbd0da57f	-0.034581657
121	0x3bf85b81	0.0075792675
122	0x3e331b4d	0.17490883
123	0x3ca9a626	0.020709109
124	0xbd14daf4	-0.036341622
125	0x3e0d59b4	0.1380375
126	0xbc8da3cb	-0.017290017
127	0xbcdba16f	-0.026810376
128	0x3a5aa405	0.0008340481
129	0xbcdcbb84	-0.026944883
130	0x3aa6e6c1	0.0012733565
131	0xbcc75766	-0.024333667
132	0xbd5b5fcf	-0.053558167
133	0xbce77150	-0.028252274
134	0x3c437a4e	0.011931015
135	0x3a5f767f	0.0008524432
136	0xbb93eb29	-0.0045141173
137	0x3c9d06c6	0.019168269
138	0xbca342f8	-0.019929394
139	0xbd2b1eb6	-0.041777335
140	0xbc0fe6ac	-0.008783024
141	0xbb6f06ba	-0.0036472515
142	0x3c33a2af	0.01096408
143	0x3cc71d20	0.02430588
144	0x3c8dc2ad	0.017304743
145	0xbcbc6dd9	-0.023001598
146	0x3d43f5fb	0.047842007
147	0x3ca16f5c	0.01970642
148	0x3c97bf2f	0.01852378
149	0x3d2cfc90	0.04223305
150	0xbbe9d523	-0.0071360036
151	0xbcc8acfa	-0.024496544
152	0x3d34145e	0.043964736
153	0xbd1a2252	-0.037630387
154	0xbd35dc2c	-0.044399425
155	0x3cc1b0e9	0.023643928
156	0xbd3d8c7a	-0.046276547
157	0xbb70cdac	-0.0036743684
158	0x3c970ed0	0.01843968
159	0xbbaf927a	-0.0053580375
160	0xbb4e174f	-0.0031446998
161	0xbbbe8218	-0.005813848
162	0x3d4a0cd0	0.049328625
163	0xbdc3449e	-0.09534572
164	0x3d30f72a	0.043204464
165	0x3d8674e8	0.06565267
166	0x3cdebec5	0.027190575
167	0x3e40b78c	0.18820018
168	0x3c9347c7	0.017978562
169	0x3e305934	0.17221528
170	0x3e379b6d	0.17930384
171	0xbd15eb3a	-0.036601283
172	0xbd5f38a2	-0.05449737
173	0xbdfa21af	-0.12213456
174	0x3db12c0a	0.08650978
175	0x3e4ac248	0.19800675
176	0x3d952fa0	0.072844744
177	0xbb4748a4	-0.0030408287
178	0x3cce223a	0.025162805
179	0xbc896c62	-0.016775314
180	0x3cd2b39c	0.02572041
181	0x3d0dd8de	0.03463065
182	0x3ca88b57	0.020574255
183	0x3dc3ab79	0.0955419
184	0x3e299ea0	0.16564417
185	0x3e2d7d68	0.1694237
186	0x3d9dc105	0.07702831
187	0x3e73356a	0.23750845
188	0x3dfc76d1	0.1232735
189	0xbc93ecfb	-0.018057337
190	0xbe923db5	-0.28562704
191	0xbc88e38e	-0.016710069
192	0xbc0635dc	-0.008191552
193	0xbcc6a959	-0.024250673
194	0xbdd96c5e	-0.106163725
195	0xbde3a4e3	-0.11115434
196	0x3d05453b	0.032536726
197	0x3d4482b7	0.047976222
198	0x3d9a4ce2	0.075341955
199	0xbdfc9f1b	-0.123350345
200	0xbd515e4d	-0.051115323
201	0x3e23177b	0.15926926
202	0x3e805606	0.2506563
203	0x3daf824f	0.08569776
204	0xbc33839e	-0.010956673
205	0xbd2ac458	-0.041691154
206	0xbe0408a2	-0.12893918
207	0x3d3f19f3	0.046655606
208	0x3d88e7e6	0.06684856
209	0xbd00e62a	-0.0314695
210	0xbd20be57	-0.039244022
211	0x3e4c6bd1	0.19963004
212	0x3dfce9cb	0.1234928
213	0x3bea89ac	0.007157525
214	0x3e7b47de	0.24539134
215	0x3db2322a	0.08700974
216	0x3d95e2bc	0.07318637
217	0xbe3d527b	-0.18488495
218	0x3d51b891	0.051201407
219	0x3dbc6d39	0.0920052
220	0xbc9a507e	-0.01883721
221	0x3deb43ea	0.11487563
222	0xbcc96a56	-0.024586838
223	0x3db0b365	0.08627967
224	0x3cae3ca7	0.021269156
225	0x3d13b914	0.036065176
226	0x3bdb384d	0.006690061
227	0xbd9777f1	-0.07395924
228	0x3e1730e9	0.14764751
229	0x3e3a0314	0.18165237
230	0x3d4f3697	0.05058917
231	0x3db3ea7c	0.08784959
232	0x3de7d4cc	0.11319885
233	0xbd9ad859	-0.07560796
234	0x3d17b5ff	0.0370388
235	0xbd8a6663	-0.0675781
236	0xbda55ed1	-0.080747254
237	0x3d9a1882	0.07524206
238	0x3e275bdd	0.16343637
239	0x3db6b0ac	0.08920416
240	0x3bacdcca	0.0052753435
241	0x3d7fc39a	0.0624424
242	0x3c9c4c9b	0.019079497
243	0x3d11e1be	0.035615675
244	0xbe9332eb	-0.28749785
245	0xbead9e73	-0.3390995
246	0x3dafc9ac	0.08583388
247	0xbf12b87a	-0.5731274
248	0xbe81c811	-0.2534795
249	0x3c6b3cf0	0.01435779
250	0xbee3e2bd	-0.44508925
251	0xbe681632	-0.22664717
252	0x3df84be8	0.12123853
253	0xbe87ea83	-0.26546106
254	0xbdf7ff3f	-0.12109231
255	0xbc38e8ff	-0.011286019

convt3.bias f4 [32]
0	0x3d976cc6	0.07393794
1	0xbebe1545	-0.37125602
2	0x3dbcd67d	0.09220598
3	0x3d44a0d5	0.048004944
4	0x3e18af4e	0.14910623
5	0x3e1b736b	0.15180747
6	0xbce1e0a4	-0.027572937
7	0x3e71df07	0.23620234
8	0xbe335017	-0.1751102
9	0x3d9a9632	0.07548179
10	0xbed1b52d	-0.4095854
11	0x3dee30c2	0.116303936
12	0x3e1c6374	0.15272313
13	0x3dd57cd8	0.10424203
14	0x3e2f1bbe	0.17100427
15	0x3d3b1dfd	0.045682896
16	0x390eef37	0.0001363129
17	0x3e806dd4	0.25083792
18	0x3ddc2a83	0.10750296
19	0x3df8cc86	0.12148385
20	0x3d8cc878	0.06874174
21	0x3de046a6	0.10950975
22	0x3dbd1fd8	0.09234589
23	0x3d42c8cf	0.047554787
24	0xbeac271b	-0.33623585
25	0xbe99c81a	-0.30035478
26	0x3e1439de	0.144752
27	0x3defd5ca	0.11710699
28	0x3e242d07	0.16032802
29	0x3e24b541	0.16084768
30	0xbe9f898f	-0.31159636
31	0x3e9c9d9e	0.30589002

pos_output.weight f4 [1, 32, 2, 2]
0	0x3dbfbb4c	0.09361896
1	0x3e7ab527	0.24483167
2	0x3d0a31f8	0.03373906
3	0x3e45c4c5	0.19313343
4	0x3d7c21ac	0.06155555
5	0x3d6a4646	0.057195924
6	0xbba17fe7	-0.004928577
7	0xbb646f4c	-0.0034856377
8	0x3c3b417b	0.011429186
9	0x3de732ab	0.11288961
10	0x3dffab73	0.12483873
11	0x3dde84d0	0.10865176
12	0x3d6bf579	0.057607148
13	0xbd1d9e66	-0.03848114
14	0x3e88c5c8	0.26713395
15	0x3e2ccf97	0.16876064
16	0x3de2a22b	0.11066087
17	0x3dd47554	0.10373941
18	0x3e0b6b12	0.13615063
19	0x3deb6e10	0.11495602
20	0x3cfc780a	0.030818958
21	0x3d4ca0ab	0.049957912
22	0x3da554f8	0.08072847
23	0x3dd65f09	0.10467345
24	0x3d809f6d	0.06280408
25	0xbb9c6c03	-0.004773618
26	0x3e68ebba	0.22746173
27	0x3dd46ccd	0.103723146
28	0x3e468a68	0.19388735
29	0x3e9a2f67	0.3011429
30	0x3e939c9e	0.28830427
31	0x3e39f190	0.18158555
32	0xbd8a44f4	-0.06751433
33	0xbd558a9b	-0.052134138
34	0xbdf0bbef	-0.117545955
35	0xbdd96033	-0.10614052
36	0x3e29c064	0.16577297
37	0x3e76b77d	0.24093433
38	0xbe0dd43f	-0.13850497
39	0xbd7fd1d8	-0.062455982
40	0x3cc1dfa0	0.023666203
41	0x3cc0af76	0.023521166
42	0x3d22074e	0.039557748
43	0x3c2b741f	0.010464697
44	0x3e0b1cde	0.1358523
45	0x3e248231	0.16065289
46	0x3dffb8d5	0.12486426
47	0x3e206e49	0.1566707
48	0x3e148d90	0.14507127
49	0x3e03a98a	0.12857643
50	0x3e0282ec	0.12745255
51	0x3deb3caf	0.11486184
52	0xbe62c823	-0.22146659
53	0xbe6c2aa0	-0.23063135
54	0xbe46ebe8	-0.19425929
55	0xbe4987c7	-0.19680701
56	0x3c2bb097	0.010479114
57	0x3d215ae2	0.039393313
58	0x3cf9ed7e	0.030508753
59	0x3cc350df	0.023842273
60	0x3e07e82b	0.13272159
61	0x3dd32dc5	0.10311464
62	0x3e0365c8	0.12831795
63	0x3e040d92	0.12895802
64	0x3e520ea6	0.205134
65	0x3cdbe64d	0.026843214
66	0x3df54ead	0.11977897
67	0xbe059284	-0.13044173
68	0xbe2ddb44	-0.16978174
69	0xbd14023c	-0.036134943
70	0xbd21d9f3	-0.039514493
71	0x3db18653	0.086681984
72	0xbc6574dc	-0.014004912
73	0xbd9dc3d0	-0.07703364
74	0xbe2e7b2a	-0.17039171
75	0xbe002cff	-0.12517165
76	0x3e061f52	0.13097885
77	0x3e0731c0	0.13202572
78	0x3e082f9f	0.13299416
79	0x3e10ec84	0.14152724
80	0x3e21912b	0.15778033
81	0x3d3848bd	0.044991244
82	0xbcdf44c6	-0.027254473
83	0xbe194dc3	-0.1497107
84	0x3e457cc7	0.1928588
85	0x3e61fdf3	0.2206953
86	0x3e66085b	0.22464125
87	0x3e1a0e08	0.15044415
88	0x3d9ee897	0.07759207
89	0x3def1022	0.11672999
90	0x3e112b0c	0.14176577
91	0x3dff25f1	0.124584086
92	0x3eb22bf3	0.34799156
93	0x3ea46cfc	0.32114398
94	0x3e156216	0.14588198
95	0x3e038aec	0.12845963
96	0xbecb3c73	-0.39694557
97	0xbe99714d	-0.29969254
98	0xbea2921c	-0.31752098
99	0xbe9f7782	-0.31145865
100	0xba53bc5e	-0.000807708
101	0xbd5e1960	-0.05422342
102	0xbd2b52ee	-0.041827135
103	0xbc3513a1	-0.011052043
104	0xbd63a27e	-0.055574887
105	0xbd0024e3	-0.031285178
106	0x3df8c9a8	0.12147838
107	0x3db77089	0.08957011
108	0xbdddabcb	-0.108237825
109	0x3d950bf3	0.0727767
110	0xbe243a61	-0.16037895
111	0xbd12e137	-0.035859313
112	0x3dd21540	0.10257959
113	0x3e324fde	0.1741328
114	0x3dff1ee6	0.12457065
115	0x3e547b64	0.20750195
116	0x3e53660c	0.20644397
117	0x3e3892fc	0.1802482
118	0x3e50a3b3	0.20374946
119	0x3e4bea0e	0.19913504
120	0x3bbfe754	0.005856434
121	0x3bfc9e54	0.007709304
122	0x3aac50b0	0.0013146605
123	0x3d849a16	0.06474702
124	0xbd4777fa	-0.048698403
125	0x3de27b2c	0.110586494
126	0x3d25f30f	0.040515002
127	0xbd213db5	-0.03936549
