output/models/220628_1226_ggcnn2_met_ruis_epoch_20_batch-per-epoch_500/epoch_04_iou_0.54_statedict.pt (torch, 274205 bytes, 20 tensors)

features.0.weight f4 [16, 1, 11, 11]
-0.031526867 0.050003566 -0.04571728 -0.042781226 0.051674146 -0.024724858 -0.01663393 0.055462908
0.04931611 -0.0073083257 0.013647871 -0.025760124 -0.052336987 0.018830042 0.036288258 0.06341902
0.005253044 -0.004150438 -0.0353199 0.046797346 -0.0012907432 -0.03636522 -0.035791013 0.0044061514
0.0478823 0.05616681 -0.035450175 -0.015102746 0.04054827 0.019467209 0.053196773 0.028167218
0.05700167 0.006444682 0.025123723 0.050428268 -0.012074976 -0.011106644 0.001006539 0.016507888
0.021792026 0.052294753 0.07547408 0.053152468 0.05412871 0.03065553 -0.018478626 -0.022213133
0.0531898 -0.030686159 -0.023812627 -0.027582953 0.028257309 -0.00080680585 -0.027413843 -0.006859192
-0.03431928 0.0068039643 -0.018511465 0.05291387 0.04918652 0.04814895 0.042561937 0.03431376
0.021665484 -0.028856842 0.04822315 0.0033423894 0.028503222 -0.022602348 -0.013393383 0.053795274
-0.027838275 0.041395247 0.0403849 -0.020039164 0.0037242696 -0.033009734 -0.012232361 0.046941057
0.033636503 -0.017517915 0.0635633 -0.024806093 0.055447984 -0.030057615 0.02303299 0.06201912
-0.04367897 0.037006818 0.009271994 -0.0067051067 0.020767601 -0.024156513 -0.020408932 -0.015465712
-0.0028436105 0.014189596 0.048671164 0.045175754 0.0003327473 -0.011645061 0.063878134 -0.022392077
-0.01360819 0.05394202 0.040391177 0.019373542 0.0518686 -0.027749704 -0.032231092 -0.015083366
-0.044268053 -0.0409445 0.019228823 0.06815439 0.0032716326 0.041958176 0.0075561157 0.028415417
0.029038062 0.027797705 -0.048258536 -0.010967434 0.027354429 -0.012285433 0.03433503 0.019033127
-0.012129699 0.0567006 -0.004236122 -0.02546345 0.014710881 -0.034087993 -0.0043245465 0.0031466433
-0.04940482 -0.004301556 -0.011758006 0.0022195962 0.042230047 0.049666367 -0.027277911 -0.055497956
0.029988334 0.018752152 -0.0048370934 0.039069254 -0.041678585 -0.012741777 -0.014148099 -0.031647753
0.047315333 0.017785845 -0.0474282 0.021942547 0.028329054 -0.03484363 0.01367749 -0.034094874
-0.007921589 0.031456847 0.014692052 0.0025092538 -0.044865843 0.045272976 0.03252276 -0.041163307
0.05066571 0.004499724 -0.0325617 0.04068098 -0.04448075 -0.0024101362 -0.0077069737 0.0116071245
0.0032221943 0.020526618 0.0073087933 -0.026639216 0.035640284 0.0074340175 0.03189401 0.041258983
0.024988944 0.012304341 -0.029524203 -0.052165747 -0.02302563 -0.006621398 0.023108583 0.043521002
-0.04788911 0.018014716 0.03840718 -0.011367591 0.032275148 0.03839612 0.039775882 0.003485318
-0.030525487 0.006739214 -0.05273995 0.048740186 0.052073162 -0.043721866 -0.0002346054 0.020052947
-0.025592856 0.0028177556 0.051216714 0.003988857 0.009531746 -0.009169444 -0.03993642 0.029390788
-0.04516873 -0.03693548 -0.0023797036 0.0011315104 -0.037551202 0.051022563 -0.044864155 0.042948008
-0.026889654 -0.009759662 -0.010253407 -0.024825009 -0.018887946 -0.009329508 -0.038604133 0.025701476
-0.00011997437 0.045004867 0.009197556 -0.044418696 0.0015529294 0.039915044 0.054186516 0.049080964
0.012202377 0.048999365 0.02610777 0.036754716 0.04376474 -0.006935069 0.0504423 0.007926114
-0.04249885 -0.02009981 -0.020302225 0.04641321 -0.042241838 -0.007919766 0.032150894 0.028626565
00000000: 5122 01bd 8ad0 4c3d 0b42 3bbd 5e3b 2fbd
00000010: 45a8 533d c98b cabc e143 88bc 132d 633d
00000020: b0ff 493d ae7a efbb 529b 5f3c e506 d3bc
00000030: 4f5f 56bd 7641 9a3c ffa2 143d d5e1 813d
00000040: ba21 ac3b 6600 88bb 99ab 10bd 93ae 3f3d
00000050: 282e a9ba b2f3 14bd 9999 12bd 7a61 903b
00000060: 3b20 443d 2b0f 663d 3434 11bd 8271 77bc
00000070: f115 263d b279 9f3c dce4 593d f0be e63c
00000080: 957a 693d e92d d33b 44d0 cd3c df8d 4e3d
00000090: 1fd6 45bc a4f8 35bc d8ed 833a 8d3b 873c
000000a0: 3185 b23c 0633 563d 2892 9a3d 67b6 593d
000000b0: 11b6 5d3d 4e21 fb3c 7d60 97bc 51f8 b5bc
000000c0: 8cdd 593d 8a61 fbbc b312 c3bc a5f5 e1bc
000000d0: df7b e73c d37f 53ba ff92 e0bc 13c3 e0bb
000000e0: 6092 0cbd caf3 de3b 5ba5 97bc 37bc 583d
000000f0: ce77 493d d537 453d 6d55 2e3d 968c 0c3d
00000100: d07b b13c 2f65 ecbc a385 453d fd0b 5b3b
00000110: 977f e93c 8f28 b9bc eb6f 5bbc 6f58 5c3d
00000120: 180d e4bc 108e 293d a36a 253d 2c29 a4bc
00000130: e012 743b 3735 07bd 3e6a 48bc 4445 403d
00000140: 6ec6 093d bb81 8fbc 7a2d 823d 2636 cbbc
00000150: 6d1d 633d 633b f6bc aeaf bc3c c307 7e3d
00000160: b8e8 32bd 7694 173d 90e9 173c 83b6 dbbb
00000170: d120 aa3c e1e3 c5bc a230 a7bc e663 7dbc
00000180: de5b 3abb 7b7b 683c 6a5b 473d 360a 393d
00000190: 9674 ae39 edca 3ebc 8ad2 823d 976f b7bc
000001a0: e3f4 5ebc 4ff2 5c3d 3871 253d 43b5 9e3c
000001b0: 2b74 543d 5953 e3bc c004 04bd 3920 77bc
000001c0: 6b52 35bd 6cb5 27bd c485 9d3c 8794 8b3d
000001d0: e368 563b 56dc 2b3d 4b99 f73b 73c7 e83c
000001e0: 3be1 ed3c 03b8 e33c beaa 45bd c1b0 33bc
000001f0: 6516 e03c d748 49bc e3a2 0c3d 5ceb 9b3c
00000200: a5bb 46bc e33e 683d 2bcf 8abb ba98 d0bc
00000210: e805 713c da9f 0bbd edb4 8dbb ea37 4e3b
00000220: b55c 4abd 11f4 8cbb a7a4 40bc a576 113b
00000230: 6af9 2c3d f66e 4b3d ed75 dfbc d351 63bd
00000240: 18aa f53c 1d9e 993c 7b80 9ebb 1507 203d
00000250: 2ab7 2abd e3c2 50bc 6ecd 67bc 13a1 01bd
00000260: b9cd 413d 9fb3 913c 1244 42bd dbc0 b33c
00000270: 5512 e83c 32b8 0ebd 8d17 603c 11a7 0bbd
00000280: 8dc9 01bc e5d8 003d efb6 703c 4b72 243b
00000290: 3fc5 37bd 2870 393d 9636 053d db9a 28bd
000002a0: d986 4f3d 6c72 933b 6b5f 05bd 19a1 263d
000002b0: 7231 36bd 60f3 1dbb c88a fcbb cf2b 3e3c
000002c0: 732b 533b 7027 a83c 9a7e ef3b 7c3a dabc
000002d0: 8cfb 113d 0f99 f33b 4ba3 023d 2eff 283d
000002e0: 9db5 cc3c 2698 493c bedc f1bc c0ab 55bd
000002f0: 3fa0 bcbc 50f8 d8bb 364e bd3c 1443 323d
00000300: 5f27 44bd 9993 933c d950 1d3d 223f 3abc
00000310: f232 043d 4045 1d3d 09ec 223d ef69 643b
00000320: 9610 fabc a0d4 dc3b d905 58bd caa3 473d
00000330: ab4a 553d b315 33bd 6800 76b9 1446 a43c
00000340: 1ca8 d1bc 18aa 383b 9ec8 513d f5b4 823b
00000350: 0a2b 1c3c 703b 16bc 5f94 23bd f3c4 f03c
00000360: d902 39bd a849 17bd cdf4 1bbb 304f 943a
00000370: 4acf 19bd 09fd 503d 7ac3 37bd 40ea 2f3d
00000380: b147 dcbc fde6 1fbc e8fd 27bc d15d cbbc
00000390: e5ba 9abc cbda 18bc 5e1f 1ebd e78b d23c
000003a0: c09a fbb8 0657 383d 59b1 163c 61f0 35bd
000003b0: aa8b cb3a f57d 233d aef2 5d3d 1f09 493d
000003c0: 7bec 473c 8fb3 483d f6df d53c 1d8c 163d
000003d0: a842 333d 933f e3bb 969c 4e3d 88dc 013c
000003e0: 4613 2ebd 5ba8 a4bc da50 a6bc c71b 3e3d
000003f0: c705 2dbd e8c1 01bc a8b0 033d 4282 ea3c

features.0.bias f4 [16]
0.0858465 -0.055342577 -0.07686669 0.12593803 -0.037324864 -0.13533442 0.1516947 -0.1440096
-0.08654368 0.017643519 -0.054934 0.04630003 -0.1317249 0.14287661 0.012331474 0.06208113
00000000: 4ad0 af3d e6ae 62bd 486c 9dbd e6f5 003e
00000010: f5e1 18bd 1b95 0abe db55 1b3e 4177 13be
00000020: d03d b1bd 2489 903c 7902 61bd 1aa5 3d3d
00000030: e4e2 06be 3f4e 123e f309 4a3c c848 7e3d

features.2.weight f4 [16, 16, 5, 5]
0.06337037 -0.029725473 0.05699508 0.0007576511 -0.03504532 -0.04843386 -0.007631406 0.05328203
0.019099375 -0.015199245 0.067801565 0.019959439 0.05549995 -0.03646028 0.06512201 0.007701334
0.0077890265 -0.085043274 -0.08853462 0.013563178 0.014913549 -0.07853368 -0.041419905 -0.0154760415
0.03875606 -0.024126625 0.021421542 -0.020615343 -0.046164155 -0.03276125 -0.04272429 0.051668685
0.06741201 0.07030578 0.018854298 -0.09116031 -0.0003933024 -0.021858374 -0.03205602 -0.07602409
-0.085713476 -0.08574175 0.027984345 0.063564174 -0.00028039614 -0.017684447 -0.062149048 -0.0871066
0.046107713 -0.009084206 -0.0676445 -0.0066843303 -0.032639794 0.042962328 -0.00094373524 -0.076126665
-0.085311495 -0.04152208 0.06525372 -0.00037071854 0.006008705 -0.07695274 -0.0007742506 -0.027389795
-0.07290913 -0.028274002 0.04124684 -0.07794323 -0.07954616 -0.058849223 -0.022445403 -0.06419616
-0.0039567323 -0.053370636 0.023259848 -0.09405615 -0.07662943 -0.073337555 0.0578888 -0.07180248
0.008733083 -0.0043727895 0.054977756 0.047627505 0.059889995 -0.080664545 -0.017572263 0.0016777724
0.012252179 0.053769305 -0.06943457 -0.020268671 0.0063061444 -0.07402495 0.073355235 -0.074628316
-0.023615565 -0.030416343 -0.052603744 -0.059561107 0.029178657 0.0054364805 0.06872485 -0.09443878
-0.06173923 0.015210835 -0.023386808 -0.0056391982 -0.04233728 0.042347096 0.0437587 0.019981045
0.013170857 -0.045187432 -0.071242556 -0.018503543 -0.021191517 0.015325022 0.056032285 -0.06384363
0.058607522 0.0043014167 -0.048529044 0.020246461 -0.058818072 -0.07185343 0.02586352 0.121349625
0.008965335 0.018494636 0.059889376 -0.08094147 -0.03046396 -0.0069108456 0.016359689 -0.08205662
-0.059798367 0.020020649 0.045374103 0.004521686 0.010447161 -0.02358173 0.019074494 -0.009897521
-0.07114936 0.06666831 0.06943595 0.047375415 0.08024466 0.064319 0.068487845 0.008447057
0.07236619 -0.045777198 -0.0075355433 0.0015010807 -0.03454891 -0.054540887 -0.032557037 -0.0016549556
-0.07456895 -0.08090618 0.009322534 -0.052030016 0.019954048 -0.004675644 -0.058149576 -0.026538434
-0.02025206 0.0024512243 0.0374219 0.05940345 0.040413577 -0.002864438 -0.016356586 0.014263108
-0.0508841 -0.04195055 -0.009307712 -0.081430435 -0.036303923 0.0061632097 0.08105515 -0.06188249
0.07807284 0.039754257 -0.050045114 -0.0017043725 0.0073848814 0.025724798 0.061626077 -0.04776271
-0.06262972 -0.0034332275 -0.07736422 -0.057434507 -0.0061585456 -0.042249322 -0.047403194 -0.0036873266
-0.07566955 -0.08638953 -0.047549777 -0.0731155 -0.09133315 0.0051248297 0.08464534 0.057088174
-0.07846333 -0.0073196613 -0.022390328 -0.014321228 0.0690945 -0.07014813 -0.075982705 -0.040311716
-0.06458745 0.05405622 -0.036811784 0.029674241 0.004811423 -0.050075576 -0.06921408 -0.021685224
-0.052047703 -0.03351706 -0.033039138 0.052357 -0.038574282 0.04361606 -0.09913867 -0.073570274
0.05724308 -0.073226795 -0.013214451 -0.06084959 -0.08934225 0.0072002495 -0.03605905 -0.024197059
-0.002405897 0.02748443 -0.080252476 -0.011373577 -0.037231848 -0.051909417 0.044603933 -0.06978276
0.023883328 0.038897056 -0.036773164 -0.054498274 -0.062265087 -0.050359625 0.027640589 -0.06849788
00000000: 53c8 813d d682 f3bc ac73 693d 1b9d 463a
00000010: ae8b 0fbd 9562 46bd e010 fabb 423e 5a3d
00000020: 4b76 9c3c 4106 79bc 8cdb 8a3d fa81 a33c
00000030: ea53 633d 6057 15bd b05e 853d 795b fc3b
00000040: 173b ff3b 2b2b aebd a451 b5bd 1738 5e3c
00000050: f557 743c 44d6 a0bd eba7 29bd 398f 7dbc
00000060: adbe 1e3d 33a5 c5bc 3b7c af3c 82e1 a8bc
00000070: a016 3dbd a930 06bd aaff 2ebd 8ba2 533d
00000080: 4f0f 8a3d 7afc 8f3d 5474 9a3c 42b2 babd
00000090: 2834 ceb9 5510 b3bc 2c4d 03bd 85b2 9bbd
000000a0: 8c8a afbd 5f99 afbd 6d3f e53c ef2d 823d
000000b0: 2202 93b9 f9de 90bc 0090 7ebd f264 b2bd
000000c0: 71db 3c3d ecd5 14bc 3389 8abd 3a08 dbbb
000000d0: 4eb1 05bd 44f9 2f3d 0065 77ba 4ce8 9bbd
000000e0: cbb7 aebd 0e13 2abd bea3 853d 005d c2b9
000000f0: ace4 c43b 6699 9dbd 14f7 4aba 9060 e0bc
00000100: 6251 95bd e19e e7bc 72f2 283d b3a0 9fbd
00000110: 19e9 a2bd e20b 71bd 6cdf b7bc 4779 83bd
00000120: 7aa7 81bb 2b9b 5abd 708b be3c 83a0 c0bd
00000130: e4ef 9cbd 0032 96bd ce1c 6d3d 2e0d 93bd
00000140: 3415 0f3c 9e49 8fbb 5b30 613d 0f15 433d
00000150: 364f 753d 7433 a5bd b5f3 8fbc b3e8 db3a
00000160: 5dbd 483c 343d 5c3d b633 8ebd 7c0a a6bc
00000170: c6a3 ce3b 659a 97bd 453b 963d bbd6 98bd
00000180: 6e75 c1bc b22b f9bc 0677 57bd 59f6 73bd
00000190: 1408 ef3c 8124 b23b 9dbf 8c3d 1e69 c1bd
000001a0: 46e2 7cbd de36 793c b195 bfbc 06c9 b8bb
000001b0: db69 2dbd 2674 2d3d 533c 333d 4aaf a33c
000001c0: 94ca 573c 7516 39bd 9ee7 91bd be94 97bc
000001d0: d599 adbc cd15 7b3c 1c82 653d 73c0 82bd
000001e0: 710e 703d e6f2 8c3b 64c6 46bd e8db a53c
000001f0: 38eb 70bd e427 93bd bcdf d33c 2786 f83d
00000200: 57e3 123c 1082 973c 904e 753d a4c4 a5bd
00000210: 8e8f f9bc 6074 e2bb c104 863c 4d0d a8bd
00000220: 22ef 74bd 5802 a43c 32da 393d a72a 943b
00000230: 922a 2b3c 792e c1bc 1d42 9c3c 3629 22bc
00000240: c1b6 91bd 6589 883d 6f34 8e3d b90c 423d
00000250: 5057 a43d aeb9 833d 5b43 8c3d 8665 0a3c
00000260: ba34 943d df80 3bbd b8ec f6bb e9bf c43a
00000270: 2883 0dbd 4466 5fbd 875a 05bd 18eb d8ba
00000280: 9bb7 98bd 24b2 a5bd 8bbd 183c 6d1d 55bd
00000290: ac76 a33c 2536 99bb 402e 6ebd 2167 d9bc
000002a0: a6e7 a5bc b8a4 203b b547 193d 0851 733d
000002b0: b588 253d 4cb9 3bbb 3ffe 85bc d0af 693c
000002c0: d96b 50bd 57d4 2bbd 607f 18bc 00c5 a6bd
000002d0: 6cb3 14bd c0f4 c93b 3e00 a63d 7e78 7dbd
000002e0: a7e4 9f3d 5cd5 223d 1bfc 4cbd 4065 dfba
000002f0: e0fc f13b d0bc d23c a06b 7c3d d5a2 43bd
00000300: 0344 80bd 0000 61bb 2271 9ebd 7240 6bbd
00000310: a0cd c9bb a00d 2dbd da29 42bd 13a7 71bb
00000320: a3f8 9abd feec b0bd 8ec3 42bd 94bd 95bd
00000330: e00c bbbd 30ee a73b 895a ad3d 4ad5 693d
00000340: 62b1 a0bd c5d9 efbb ec6b b7bc 95a3 6abc
00000350: 6b81 8d3d d3a9 8fbd d29c 9bbd e61d 25bd
00000360: 6d46 84bd 0e6a 5d3d f4c7 16bd 6517 f33c
00000370: 24a9 9d3b 0c1c 4dbd 1dc0 8dbd 36a5 b1bc
00000380: f92f 55bd 2f49 09bd 0c54 07bd 4b74 563d
00000390: 1100 1ebd c1a6 323d 3709 cbbd 03ac 96bd
000003a0: b877 6a3d eef7 95bd 6d81 58bc 6b3d 79bd
000003b0: 12f9 b6bd 12f0 eb3b a8b2 13bd e938 c6bc
000003c0: 41ac 1dbb 0727 e13c 695b a4bd 3d58 3abc
000003d0: 6c80 18bd f89e 54bd 9db2 363d 44ea 8ebd
000003e0: f8a6 c33c 8552 1f3d 759f 16bd 9539 5fbd
000003f0: ad09 7fbd e545 4ebd 846e e23c 9e48 8cbd

features.2.bias f4 [16]
-0.03342424 0.010899024 0.09515972 0.003699635 -0.033990037 0.05124736 -0.017277788 -0.05111301
0.006275533 0.064191505 0.0021696743 0.028692512 -0.040863402 0.061504327 0.033763446 -0.008460966
00000000: dbe7 08bd d291 323c 19e3 c23d 9375 723b
00000010: 2339 0bbd c0e8 513d 268a 8dbc e05b 51bd
00000020: fca2 cd3b d676 833d 1831 0e3b 8f0c eb3c
00000030: 6260 27bd f6eb 7b3d 8a4b 0a3d dd9f 0abc

features.5.weight f4 [16, 16, 5, 5]
-0.024942357 0.04206398 0.050747797 -0.07014187 0.011627272 -0.01425197 -0.071868576 0.029177055
0.0834856 0.022431746 -0.06414997 0.02530916 0.038767785 -0.03467435 0.04864967 0.058663726
-0.060900502 -0.07800583 0.012120552 -0.038228337 -0.07969642 0.07551162 0.0287612 0.029842414
-0.0041560754 -0.01614768 -0.095011435 -0.012146216 -0.051604692 0.06407509 0.020256497 -0.03744152
0.00063493534 -0.08860425 -0.06996445 -0.0430125 -0.07336416 -0.1049866 -0.080807194 -0.015078641
-0.04325057 0.053670343 0.03917212 -0.07633629 -0.008535141 0.07945726 0.029864922 -0.046069447
-0.015187015 -0.028610786 -0.08069541 -0.09421285 0.059903093 -0.09881023 -0.039639298 -0.042206045
0.023288427 -0.05944371 0.031929225 -0.042689845 -0.049400616 -0.026641957 0.0075042597 -0.10341281
-0.088985786 0.016620217 -0.032732874 0.001146302 -0.10222298 -0.007047016 -0.0059076617 0.02746401
0.0057057226 -0.06255813 0.0420409 0.06018266 0.037168562 0.030864425 0.024021223 0.07875836
-0.01955539 -0.0357347 -0.024324343 -0.047122728 0.01705417 -0.032102138 0.030747049 -0.05670145
-0.027689703 0.06047952 -0.08242357 0.025447115 0.010973372 0.016059011 0.055241376 0.037026547
0.0591591 0.022601172 0.026489519 -0.07180625 -0.05978813 0.023330405 -0.08487607 0.015518725
-0.07988994 -0.06289637 -0.008351438 -0.03862382 -0.009207174 -0.021154009 -0.07531595 -0.057293728
-0.06301163 -0.01814843 -0.07876521 0.069729745 0.047686696 0.049150914 0.05823025 -0.086000204
0.045037344 -0.0095874 0.011577666 0.0005187392 -0.067406714 -0.053875584 -0.054677412 -0.015380712
-0.023214955 0.0427425 0.014725745 -0.013283384 -0.020342045 0.060164977 -0.082274005 -0.08222325
0.0020727434 -0.0020329254 0.011340461 -0.0022208418 -0.024337234 -0.063853756 0.06133268 -0.031664845
0.055483986 0.0072258334 -0.05495947 0.07149707 -0.0043837694 -0.021139016 0.0036139563 0.06415342
0.070937425 0.03243389 0.0766508 -0.003308706 0.0800748 0.055417597 0.019805819 0.0022629723
0.02786117 0.032575235 0.056997225 -0.030952651 -0.017849833 -0.0681871 0.008070432 0.024954364
0.083373204 -0.07506498 -0.01145152 0.031374834 0.020347409 -0.0753168 0.0056122616 0.02926895
-0.025320973 -0.021867365 -0.06726065 0.051865354 0.0839466 -0.04789301 0.024665512 -0.007463455
-0.050078202 0.0069225803 -0.046689972 0.07550566 0.014186129 -0.08513838 0.06517327 -0.050136533
0.07576321 -0.0043745562 -0.029544935 -0.03461162 -0.048021726 0.076754436 -0.007297665 -0.04565382
0.020539984 0.04700531 -0.02538377 -0.015399441 0.017969169 0.06651984 -0.067238964 0.0047928914
-0.020283759 -0.061049737 -0.080895014 -0.08149252 -0.031940807 -0.0042591467 -0.07227407 -0.0069640502
0.025753558 0.06674364 -0.068247154 -0.027226917 0.012510307 0.03006772 -0.011488065 -0.051181406
0.012286931 -0.05358631 0.010880752 -0.012453824 0.034494907 -0.08702758 -0.025139168 -0.086329654
0.02638808 -0.043817468 -0.09612136 -0.08619523 -0.068777815 -0.063302204 -0.08330341 0.023273025
-0.061308242 -0.08068351 0.04661379 -0.09001385 -0.07003915 0.06821221 0.03465142 0.015715495
0.058424443 0.0052577076 -0.014175907 0.018180288 0.043605417 0.06053521 -0.030721623 0.024908647
00000000: ea53 ccbc 484b 2c3d ecdc 4f3d 8aa6 8fbd
00000010: 5080 3e3c 1881 69bc d52f 93bd b804 ef3c
00000020: 80fa aa3d c8c2 b73c 0f61 83bd 2855 cf3c
00000030: f8ca 1e3d b106 0ebd e044 473d 6049 703d
00000040: ce72 79bd 85c1 9fbd 4895 463c 5195 1cbd
00000050: e037 a3bd d6a5 9a3d 9c9c eb3c 1478 f43c
00000060: b02f 88bb 2448 84bc 5b95 c2bd ec00 47bc
00000070: 715f 53bd cd39 833d f4f0 a53c 475c 19bd
00000080: ca71 263a 2576 b5bd 8649 8fbd e02d 30bd
00000090: f33f 96bd 3703 d7bd 3e7e a5bd 670c 77bc
000000a0: 8227 31bd 6fd5 5b3d f272 203d 3356 9cbd
000000b0: fad6 0bbc 7dba a23d 48a7 f43c 51b3 3cbd
000000c0: f5d2 78bc 2b61 eabc a343 a5bd abf2 c0bd
000000d0: f25c 753d 055d cabd d15c 22bd 3fe0 2cbd
000000e0: 5fc7 be3c 3f7b 73bd 38c8 023d 8cdb 2ebd
000000f0: 4d58 4abd 3c40 dabc 4be6 f53b 18ca d3bd
00000100: 2e3e b6bd 1f27 883c e812 06bd 833f 963a
00000110: 485a d1bd a8ea e6bb 0f95 c1bb 34fc e03c
00000120: 12f7 ba3b 7a1e 80bd 1433 2c3d 1882 763d
00000130: 103e 183d 64d7 fc3c 28c8 c43c 104c a13d
00000140: a032 a0bc 8c5e 12bd d843 c7bc c303 41bd
00000150: 30b5 8b3c 887d 03bd 3ce1 fb3c c83f 68bd
00000160: 84d5 e2bc 60b9 773d b0cd a8bd 7876 d03c
00000170: a8c9 333c 308e 833c c844 623d 26a9 173d
00000180: d050 723d 1826 b93c 8c00 d93c 280f 93bd
00000190: 66e4 74bd 681f bf3c 81d3 adbd 4042 7e3c
000001a0: 569d a3bd d0cf 80bd 78d4 08bc 0334 1ebd
000001b0: b0d9 16bc 2c4b adbc 403f 9abd d4ac 6abd
000001c0: 3e0c 81bd 04ac 94bc a84f a1bd 78ce 8e3d
000001d0: 2053 433d 7852 493d d882 6e3d e020 b0bd
000001e0: 1479 383d 7814 1dbc 40b0 3d3c 00fc 073a
000001f0: 880c 8abd a5ac 5cbd 6cf5 5fbd 62ff 7bbc
00000200: 4a2d bebc c212 2f3d 4044 713c 8da2 59bc
00000210: 5ca4 a6bc 8d6f 763d 467f a8bd aa64 a8bd
00000220: ddd6 073b d43a 05bb 57cd 393c 8b8b 11bb
00000230: e15e c7bc c2c5 82bd fa37 7b3d ffb2 01bd
00000240: 2d43 633d afc6 ec3b 2e1d 61bd 0e6d 923d
00000250: b9a5 8fbb bb2b adbc 20d8 6c3b de62 833d
00000260: a447 913d 66d9 043d 18fb 9c3d e0d6 58bb
00000270: 42fe a33d 90fd 623d d03f a23c 604e 143b
00000280: 1c3d e43c 9c6d 053d ec75 693d 6a90 fdbc
00000290: d039 92bc aea5 8bbd d839 043c 186d cc3c
000002a0: 92bf aa3d abbb 99bd 289f 3bbc e682 003d
000002b0: 9caf a63c b23f 9abd 10e7 b73b 70c5 ef3c
000002c0: ee6d cfbc 3023 b3bc f4bf 89bd c470 543d
000002d0: 32ec ab3d 762b 44bd 540f ca3c 0090 f4bb
000002e0: cd1e 4dbd d0d6 e23b fc3d 3fbd b6a2 9a3d
000002f0: f06c 683c 085d aebd 9079 853d f75b 4dbd
00000300: be29 9b3d 7058 8fbb 3808 f2bc eac4 0dbd
00000310: 6eb2 44bd 6e31 9d3d 4021 efbb 80ff 3abd
00000320: 7843 a83c a488 403d a0f1 cfbc f04d 7cbc
00000330: 1434 933c 8e3b 883d 95b4 89bd b00d 9d3b
00000340: 202a a6bc 4a0f 7abd 49ac a5bd 8de5 a6bd
00000350: 5dd4 02bd 5090 8bbb 6d04 94bd b032 e4bb
00000360: 20f9 d23c e4b0 883d 2ac5 8bbd fc0a dfbc
00000370: 08f8 4c3c 9450 f63c 7038 3cbc 98a3 51bd
00000380: 204f 493c 527d 5bbd 2e45 323c 200b 4cbc
00000390: 884a 0d3d 843b b2bd a8f0 cdbc 9acd b0bd
000003a0: d12b d83c f279 33bd 47db c4bd 2087 b0bd
000003b0: 62db 8cbd 96a4 81bd fa9a aabd 12a7 be3c
000003c0: 5a1e 7bbd 653d a5bd 1aee 3e3d 2e59 b8bd
000003d0: b070 8fbd d8b2 8b3d a6ee 0d3d c8bd 803c
000003e0: 784e 6f3d d948 ac3b 1042 68bc d4ee 943c
000003f0: 989b 323d c5f3 773d eaab fbbc 380d cc3c

features.5.bias f4 [16]
-0.05732829 -0.027375272 -0.06819404 -0.034813408 0.0063230647 -0.051880766 -0.0033057677 0.011137824
-0.0054827565 -0.0024300392 -0.025449947 0.012833873 -0.074421294 -0.05690035 -0.029467115 0.0077686855
00000000: 12d1 6abd 1b42 e0bc 51a9 8bbd 8198 0ebd
00000010: b631 cf3b ed80 54bd 94a5 58bb 6b7b 363c
00000020: b2a8 b3bb 4b41 1fbb 687c d0bc 2a45 523c
00000030: 316a 98bd 5710 69bd 0565 f1bc 7590 fe3b

features.7.weight f4 [16, 16, 5, 5]
0.034721646 -0.015671596 0.007853649 -0.037169673 -0.021517932 0.0957697 0.045973964 0.041310675
0.0776676 0.011394024 0.059280347 -0.02755651 0.064136244 0.07135244 -0.009417221 0.042208865
-0.043905962 0.00019387947 0.1007975 0.0092144925 0.031327143 -0.057914007 -0.054467216 0.025103694
0.07953967 -0.071663156 -0.045688253 0.06650942 0.0796573 -0.035833355 -0.059268672 0.039218914
-0.02506867 -0.0045523616 0.07821265 0.051883228 0.023863921 0.007689364 0.020994531 -0.028164823
-0.07397392 0.07012673 -0.015835764 0.06956292 0.064635806 0.03631932 -0.065202974 -0.028878495
-0.07730457 -0.015224131 -0.069351554 0.014688486 0.005689965 0.036590733 -0.021897646 0.039830495
0.077108465 0.011548068 -0.07252931 -0.052247375 0.0046095876 -0.07293519 -0.027135009 -0.06379162
0.027631292 0.056568872 0.05058055 0.061426055 -0.0071315705 -0.02972124 0.01536828 0.020032931
-0.07212776 0.012277714 -0.057511352 -0.023139257 0.048123542 0.052040763 0.014093021 -0.087870665
0.0046196007 -0.06507424 -0.055183 -0.0011377636 0.044964503 0.053820692 0.00165814 -0.028701797
0.05345005 0.020624638 -0.08841209 -0.06256751 0.051426545 -0.010485188 -0.06589474 -0.0006328786
-0.009297723 0.034931183 -0.0686744 0.06594627 -0.050844688 0.065981366 0.04025276 -0.079706945
-0.055184573 0.06720953 0.009840046 -0.0267468 0.057778332 -0.011221095 0.052618366 -0.04484837
0.07287179 -0.030361993 0.014793811 0.00078957895 -0.02658996 0.06936937 0.017088383 -0.022114096
-0.05385827 -0.06098661 -0.032577403 0.038651217 0.0684462 -0.05104081 0.09369265 0.06047442
-0.019664362 0.0053074895 -0.042921975 -0.019108292 -0.062764645 0.048747618 -0.05865383 0.063166715
0.007422013 0.106679015 -0.052217066 -0.042735215 0.03659011 0.052840035 0.048309192 -0.06335551
-0.011954212 -0.052660495 -0.05225479 -0.07482913 0.012518807 -0.03155443 0.048182532 -0.01793759
0.075323455 -0.05655565 -0.020836877 -0.044705838 -0.08994029 0.027687041 -0.05278823 0.070825286
-0.093811326 0.071423605 0.024010822 -0.011951283 -0.019938428 0.06967893 -0.07337772 -0.022746399
0.048849285 0.051053926 0.039471053 -0.08495285 -0.0007344014 -0.088191554 -0.01984582 -0.08091308
-0.08699374 0.0019500171 0.058549635 0.05254555 0.042123683 0.0054693474 0.03354511 -0.038059026
0.020379381 0.045822084 -0.026176877 0.055169795 0.005199202 -0.08398631 0.0057160486 -0.058010977
-0.03667879 -0.034289837 -0.03021019 -0.08016967 -0.07129177 0.11337267 -0.08329194 0.035572518
-0.030294882 0.0029585224 0.02993755 -0.06724292 -0.00090153277 -0.085742146 0.07718427 -0.07588512
-0.08430343 -0.029158063 -0.018813644 -0.0034952709 0.07534591 0.058818165 0.03713971 -0.0829351
-0.0025038181 0.005267938 -0.06501234 -0.0021557936 -0.0122172 -0.058542006 -0.05559576 0.025530906
0.07820547 -0.0010523346 0.07473734 -0.07907982 -0.08872831 0.05278837 -0.0013946453 -0.047418904
-0.042813685 -0.024226982 -0.08490475 -0.00912175 0.05955646 0.060742736 -0.06303528 -0.054689195
-0.06888926 -0.005788606 -0.04197207 0.053599816 0.036481384 -0.007221913 0.013607578 -0.0872051
-0.06757174 0.039374627 0.046385285 -0.04972432 0.0019668555 -0.058379155 -0.0018384211 -0.05696041
00000000: 4938 0e3d b861 80bc 97ac 003c 3a3f 18bd
00000010: 6046 b0bc e822 c43d 324f 3c3d 6235 293d
00000020: 3110 9f3d 00ae 3a3c f3cf 723d 31be e1bc
00000030: dd59 833d 3a21 923d b04a 1abc 34e3 2c3d
00000040: bdd6 33bd 204c 4b39 eb6e ce3d 62f8 163c
00000050: e450 003d 3d37 6dbd 0419 5fbd 43a6 cd3c
00000060: b2e5 a23d 22c4 92bd 9b23 3bbd 1736 883d
00000070: 5e23 a33d ffc5 12bd b5c3 72bd 03a4 203d
00000080: d05c cdbc fa2b 95bb f42d a03d 8283 543d
00000090: 457e c33c 0ff7 fb3b b9fc ab3c eab9 e6bc
000000a0: a37f 97bd 9a9e 8f3d 01ba 81bc 0177 8e3d
000000b0: c75f 843d 91c3 143d 2389 85bd 9892 ecbc
000000c0: dc51 9ebd a26e 79bc 3008 8ebd faa7 703c
000000d0: e372 ba3b 2ae0 153d b162 b3bc 4d25 233d
000000e0: 0beb 9d3d 1c34 3d3c 3f8a 94bd 5801 56bd
000000f0: 060c 973b 0b5f 95bd 3d4a debc 2ea5 82bd
00000100: 055b e23c c3b4 673d 8d2d 4f3d e399 7b3d
00000110: f3af e9bb f579 f3bc 3dcb 7b3c 1a1c a43c
00000120: b8b7 93bd 7728 493c 0691 6bbd 8a8e bdbc
00000130: 311d 453d b228 553d 6ae6 663c 89f5 b3bd
00000140: 0560 973b a545 85bd 9207 62bd 0321 95ba
00000150: b32c 383d 1673 5c3d f255 d93a 0820 ebbc
00000160: 71ee 5a3d 00f5 a83c 6611 b5bd 6523 80bd
00000170: a4a4 523d 11ca 2bbc d2f3 86bd c4e7 25ba
00000180: 7a55 18bc 0014 0f3d 2aa5 8cbd d70e 873d
00000190: 8542 50bd 3d21 873d 14e0 243d 653d a3bd
000001a0: 3809 62bd 26a5 893d 2538 213c 1b1c dbbc
000001b0: f9a8 6c3d afd8 37bc 5b86 573d edb2 37bd
000001c0: ce3d 953d b7b9 f8bc be61 723c bffb 4e3a
000001d0: 30d3 d9bc 8711 8e3d f0fc 8b3c 9f28 b5bc
000001e0: 7d9a 5cbd 18cd 79bd e26f 05bd bd50 1e3d
000001f0: 852d 8c3d 2b10 51bd efe1 bf3d 07b4 773d
00000200: 2817 a1bc 73ea ad3b f4ce 2fbd fe88 9cbc
00000210: c08a 80bd 95ab 473d 003f 70bd 8d5d 813d
00000220: 5c34 f33b 877a da3d 90e1 55bd 1f0b 2fbd
00000230: 83df 153d cb6e 583d dcdf 453d 89c0 81bd
00000240: 99db 43bc 88b2 57bd 1e09 56bd 0440 99bd
00000250: af1b 4d3c 383f 01bd 0c5b 453d daf1 92bc
00000260: 2f43 9a3d e6a6 67bd 19b2 aabc 781d 37bd
00000270: 9d32 b8bd efcf e23c 7938 58bd d90c 913d
00000280: 2720 c0bd 8a46 923d 58b2 c43c 50cf 43bc
00000290: ea55 a3bc d4b3 8e3d 0f47 96bd a856 babc
000002a0: 3016 483d ec1d 513d 66ac 213d c3fb adbd
000002b0: d884 40ba c69d b4bd b393 a2bc c2b5 a5bd
000002c0: c629 b2bd b797 ff3a bed1 6f3d 013a 573d
000002d0: e289 2c3d 3638 b33b 9966 093d c8e3 1bbd
000002e0: a9f2 a63c f0af 3b3d e470 d6bc b9f9 613d
000002f0: 115e aa3b 0401 acbd b14d bb3b eb9c 6dbd
00000300: 803c 16bd 8073 0cbd 5c7b f7bc ff2f a4bd
00000310: 6b01 92bd ee2f e83d f794 aabd 7db4 113d
00000320: f92c f8bc c5e3 413b 983f f53c a8b6 89bd
00000330: d754 6cba 9499 afbd c912 9e3d a869 9bbd
00000340: 47a7 acbd e4dc eebc 121f 9abc ea10 65bb
00000350: f54e 9a3d 51eb 703d cf1f 183d e1d9 a9bd
00000360: 1917 24bb ab9e ac3b 3125 85bd 3748 0dbb
00000370: a72a 48bc bec9 6fbd 61b8 63bd 3126 d13c
00000380: 312a a03d 7dee 89ba e40f 993d 9af4 a1bd
00000390: 30b7 b5bd 9e38 583d 88cc b6ba 533a 42bd
000003a0: 675d 2fbd aa77 c6bc 8be2 adbd 6473 15bc
000003b0: 79f1 733d 60cd 783d a418 81bd c701 60bd
000003c0: d015 8dbd 59ae bdbb e8ea 2bbd 7b8b 5b3d
000003d0: 816d 153d cca5 ecbb 52f2 5e3c 9698 b2bd
000003e0: 0d63 8abd 4a47 213d 7ffe 3d3d bbab 4bbd
000003f0: 5ce6 003b fb1e 6fbd 2df7 f0ba 524f 69bd

features.7.bias f4 [16]
0.0064126262 -0.041667722 -0.023093613 -0.015142777 -0.06619716 -0.01365416 -0.0572467 -0.026505409
0.020290287 -0.05516871 -0.0021862185 0.013872076 0.026978571 -0.031231247 0.031018471 -0.06762904
00000000: 0221 d23b c6ab 2abd d12e bdbc 6919 78bc
00000010: 6092 87bd b3b5 5fbc 847b 6abd df21 d9bc
00000020: d137 a63c 96f8 61bd a946 0fbb b447 633c
00000030: 2a02 dd3c acd8 ffbc 731a fe3c 1881 8abd

features.10.weight f4 [32, 16, 5, 5]
-0.007647724 -0.053374145 -0.010316881 -0.0049064606 0.010705542 0.025874197 0.003271697 -0.039371293
-0.048367962 -0.046244986 -0.09108283 -0.036357258 -0.0549072 -0.0070321877 0.008540858 -3.637838e-05
-0.08333974 -0.034449905 -0.03518102 0.0055333017 -0.050539017 -0.023572989 -0.048203684 -0.051376555
-0.010011512 -0.04807886 0.0085776085 0.0399136 -0.016638603 0.06404408 -0.07236 -0.07806076
-0.020020394 -0.06579126 -0.019976728 0.01729429 -0.0832431 0.10596335 0.069292195 0.1966162
-0.009423646 -0.06599295 0.0060751117 -0.010456552 0.051329836 -0.013766142 -0.08166025 -0.05734354
-0.016787894 0.013779049 -0.010934668 -0.016930657 -0.093468204 -0.08369595 -0.09795601 -0.054282468
-0.047809318 0.0062241075 -0.08023521 0.021538895 0.054245222 0.054230608 -0.040867865 -0.108151086
0.0005973194 0.033855196 -0.052586563 -0.06501999 -0.08656873 -0.04123692 -0.03546781 -0.09170344
-0.032103468 -0.07678294 -0.020440707 -0.06803382 0.05066797 -0.03573048 0.0084936535 -0.0114166355
-0.073999725 0.006146229 -0.08928218 -0.09767492 -0.06318319 -0.014367974 -0.08012181 -0.033557285
0.016751314 0.02511715 0.042258844 -0.021815233 -0.017945986 -0.030829158 -0.011670352 -0.011977374
0.036498383 -0.02863739 -0.06420707 -0.0798951 0.05425362 0.04614038 -0.04970661 -0.004567619
0.022990426 -0.021886753 -0.011836534 0.07792235 -0.028257508 -0.036792897 -0.058891363 -0.030321203
-0.007862301 0.06515911 -0.055482194 0.026919065 -0.02447113 -0.006337111 0.011111712 0.0023669582
-0.02283226 0.052499756 -0.015313665 0.075169474 -0.042544533 -0.017438373 0.0118968235 -0.016614992
0.037487917 0.045272905 -0.004430746 -0.08904954 -0.039326217 -0.029212974 -0.0232967 -0.033579405
-0.010081082 -0.060273156 -0.061205804 0.02926502 -0.01905024 0.03837819 -0.084915 0.0033620377
-0.01801676 0.041002415 0.011161371 0.020212384 -0.03602338 -0.042407718 -0.04176568 0.0447238
-0.027061343 0.024483383 -0.040883143 0.03037944 0.039118465 -0.022763591 -0.02858718 0.006838683
-0.06062997 -0.03934997 0.0058660894 -0.011655551 0.0027861255 -0.01404151 -0.061707262 -0.0073540737
-0.0317321 -0.074382976 -0.0045360727 -0.06900698 0.009228078 -0.027190188 -0.030907873 -0.014914529
-0.00828109 0.059983805 -0.05080407 0.041188173 -0.018270232 -0.031302173 0.05130778 -0.061078247
-0.072952904 -0.033421155 -0.04711694 0.059421014 -0.04276215 0.023108635 -0.012994867 0.023790015
0.016010953 -0.01186282 -0.047488138 0.0043846443 0.0017755926 0.00836604 -0.06117786 -0.0015693867
0.0320952 0.040653203 -0.037688293 -0.029492727 0.0008080046 -0.01415361 -0.038565073 -0.03243783
-0.09650102 -0.0006832316 0.029022153 0.03574464 -0.06951262 -0.048142795 -0.0016316456 0.04436786
0.045826264 0.0049557243 -0.016557947 -0.0010305446 0.07396929 0.058104422 0.09390126 -0.017476244
-0.027976092 -0.028469067 0.027805395 -0.044067897 -0.034685206 -0.043890398 0.020606615 -0.059496954
-0.010755219 0.02054602 -0.005456008 -0.030356698 0.017513141 -0.026876196 0.06086085 -0.053127684
0.0054014623 0.011770859 -0.058834687 0.068186335 0.042952478 -0.055128258 -0.008391656 0.025214903
0.012327611 -0.05549988 -0.09674935 -0.010021957 0.020669293 0.14865729 0.18041219 -0.10677375
00000000: c299 fabb d99e 5abd 2308 29bc 60c6 a0bb
00000010: 4c66 2f3c 20f6 d33c f869 563b cb43 21bd
00000020: 7c1d 46bd 626b 3dbd a389 babd 59eb 14bd
00000030: 5fe6 60bd 446e e6bb f4ee 0b3c fd94 18b8
00000040: 07ae aabd 581b 0dbd f919 10bd b350 b53b
00000050: 0002 4fbd 241c c1bc 3a71 45bd 3970 52bd
00000060: 5307 24bc 57ee 44bd 1989 0c3c 717c 233d
00000070: ae4d 88bc 8b29 833d 7b31 94bd 52de 9fbd
00000080: cf01 a4bc 91bd 86bd 3ca6 a3bc c1ac 8d3c
00000090: 5c7b aabd 5003 d93d 11e9 8d3d c255 493e
000000a0: a365 1abc 5027 87bd bb11 c73b f551 2bbc
000000b0: 3c3f 523d 628b 61bc 7d3d a7bd 0fe1 6abd
000000c0: c486 89bc 85c1 613c 5227 33bc 29b2 8abc
000000d0: 426c bfbd c868 abbd 299d c8bd 4b57 5ebd
000000e0: b4d3 43bd 99f3 cb3b 5c52 a4bd 5672 b03c
000000f0: 3d30 5e3d ea20 5e3d 1065 27bd 517e ddbd
00000100: 6d95 1c3a bfab 0a3d 0265 57bd 3329 85bd
00000110: f24a b1bd 0be8 28bd b246 11bd 03cf bbbd
00000120: ed7e 03bd 6040 9dbd 4573 a7bc 5155 8bbd
00000130: 3889 4f3d 205a 12bd f728 0b3c d70c 3bbc
00000140: 2b8d 97bd 4e66 c93b 93d9 b6bd ca09 c8bd
00000150: 3066 81bd a767 6bbc e716 a4bd 5d73 09bd
00000160: 0d3a 893c 7bc2 cd3c 9c17 2d3d dcb5 b2bc
00000170: 7603 93bc 6e8d fcbc 0135 3fbc bf3c 44bc
00000180: 547f 153d f698 eabc ff7e 83bd 0ba0 a3bd
00000190: 0b39 5e3d b2fd 3c3d 2999 4bbd f7ab 95bb
000001a0: 6b56 bc3c d94b b3bc 06ee 41bc c195 9f3d
000001b0: 4a7c e7bc 26b4 16bd 1238 71bd 2c64 f8bc
000001c0: e1d0 00bc 2472 853d 4c41 63bd 5f85 dc3c
000001d0: ae77 c8bc 8aa7 cfbb e60d 363c f81e 1b3b
000001e0: b80a bbbc fc09 573d 2be6 7abc 74f2 993d
000001f0: 2d43 2ebd ebda 8ebc e5ea 423c 2a1c 88bc
00000200: ee8c 193d 1570 393d cb2f 91bb 9b5f b6bd
00000210: 8714 21bd 0c50 efbc b9d8 bebc 8f8a 09bd
00000220: 1f2b 25bc fce0 76bd f0b2 7abd 32bd ef3c
00000230: 400f 9cbc 7332 1d3d eae7 adbd a255 5c3b
00000240: e297 93bc 26f2 273d 2fde 363c 7194 a53c
00000250: 408d 13bd b7b3 2dbd 7d12 2bbd 4e30 373d
00000260: c0af ddbc 6091 c83c 1575 27bd 4ede f83c
00000270: af3a 203d b67a babc a92f eabc 0817 e03b
00000280: 2257 78bd 6f2d 21bd 5338 c03b edf6 3ebc
00000290: 6e97 363b 5d0e 66bc c1c0 7cbd 71fa f0bb
000002a0: 85f9 01bd 1a56 98bd 56a3 94bb 8853 8dbd
000002b0: 5d31 173c f5bd debc 8232 fdbc 125c 74bc
000002c0: 69ad 07bc 94b1 753d ee17 50bd eeb4 283d
000002d0: 74ab 95bc b536 00bd 1b28 523d 2f2d 7abd
000002e0: 5568 95bd 9fe4 08bd b1fd 40bd 7363 733d
000002f0: 5d27 2fbd 524e bd3c 6ce8 54bc 47e3 c23c
00000300: 6729 833c 465c 42bc ec82 42bd 10ad 8f3b
00000310: 00bb e83a b711 093c a395 7abd e1b3 cdba
00000320: 4276 033d f983 263d 0a5f 1abd bb9a f1bc
00000330: 45d0 533a 8be4 67bc 69f6 1dbd 88dd 04bd
00000340: 54a2 c5bd e61a 33ba debf ed3c f968 123d
00000350: a25c 8ebd 6131 45bd f1dc d5ba 13bb 353d
00000360: 52b4 3b3d a163 a23b 88a4 87bc 5713 87ba
00000370: 367d 973d e7fe 6d3d 4e4f c03d 572a 8fbc
00000380: 1e2e e5bc f637 e9bc 24c8 e33c 8a80 34bd
00000390: 1312 0ebd 6bc6 33bd 34cf a83c 14b3 73bd
000003a0: a836 30bc 2050 a83c 50c8 b2bb 9cae f8bc
000003b0: b877 8f3c 782b dcbc 3a49 793d 6a9c 59bd
000003c0: c0fe b03b 90da 403c a4fc 70bd 47a5 8b3d
000003d0: f0ee 2f3d 2bce 61bd 287d 09bc 7c8f ce3c
000003e0: c0f9 493c d853 63bd 8624 c6bd 2233 24bc
000003f0: a652 a93c 9e39 183e f9bd 383e 32ac dabd

features.10.bias f4 [32]
-0.058956075 0.0073703397 0.02635459 0.008306983 -0.0024779844 -0.04207532 0.04944591 -0.03037062
-0.05466866 -0.020933552 0.063960835 -0.006456494 0.018551357 -0.042817075 0.0438413 0.048134614
0.011518189 -0.031045021 -0.062229026 -0.036396466 0.028981844 0.03899014 -0.028542006 0.02911181
0.06510673 -0.044188637 0.04105752 -0.004908868 0.02506163 0.004477378 -0.057091556 0.02161572
00000000: ed7b 71bd e482 f13b 95e5 d73c 031a 083c
00000010: ae65 22bb 2c57 2cbd cb87 4a3d cecb f8bc
00000020: 3fec 5fbd d77c abbc e6fd 823d ff90 d3bb
00000030: 04f9 973c f560 2fbd ef92 333d cd28 453d
00000040: c9b6 3c3c 2152 febc dde3 7ebd 7614 15bd
00000050: 556b ed3c 20b4 1f3d edd0 e9bc e47b ee3c
00000060: ad56 853d 25ff 34bd ee2b 283d 92da a0bb
00000070: 0c4e cd3c f8b6 923b d6d8 69bd 7313 b13c

features.12.weight f4 [32, 32, 5, 5]
0.025181454 -0.05601757 0.00038492307 0.036875185 -0.027986553 0.009490732 0.03755329 0.070907585
0.058665525 0.004577916 -0.0063804258 0.043990087 -0.053139057 -0.007391935 -0.040055603 -0.05237797
0.00725521 0.023215264 0.004127864 0.021523016 0.03920725 0.04290353 0.035903364 -0.06411033
0.040003728 -0.036863506 -0.04194926 -0.054170225 -0.043775953 -0.023524197 -0.05405107 -0.0389928
0.020560693 -0.0054801083 0.015677933 -0.014163237 -0.00036776674 0.0039676023 -0.0058462634 -0.047787156
-0.00599696 0.0035638656 -0.057755347 -0.031853165 -0.04055616 -0.04797703 0.045875378 -0.06353143
-0.062483363 0.04133059 -0.010176562 -0.007454995 0.03840504 0.0006686801 -0.031006685 -0.060978968
0.049178664 0.03136244 -0.059674133 -0.03266501 -0.0034469066 -0.016791563 -0.043337334 -0.06592897
-0.0443656 0.045950033 0.00083216047 0.04605414 0.030800141 0.029907225 0.02116297 0.03304408
0.039113455 0.010399242 0.031661198 0.031331606 0.039472442 -0.06302462 -0.06812674 -0.02845888
-0.055580698 -0.06390799 -0.008606114 -0.0075486978 -0.036028553 0.009195182 -0.112000816 -0.048114806
-0.019942483 -0.027950592 -0.07494692 -0.033030003 0.04829842 -0.050130345 -0.015879186 0.010373249
-0.08151128 -0.023939628 -0.08545616 0.0056407466 -0.033079375 -0.07015064 -0.069326706 -0.043051865
-0.06410154 0.013292262 -0.06695311 -0.06602103 0.031273406 0.043394838 -0.048591547 0.0376664
0.03398907 -0.12231604 -0.029404517 -0.10338386 0.0031859635 0.07084896 -0.11778073 -0.05925566
-0.020276044 0.0352822 0.12986308 -0.11549316 -0.011926059 -0.034106806 0.004342374 0.021105833
0.003763583 -0.008327712 -0.007948169 -0.06893447 -0.06633391 0.022677198 0.027304698 0.010688101
0.01133859 -0.05123024 -0.031191567 -0.055087067 0.033049177 0.005549248 0.009241565 0.018944068
0.015080639 -0.010694456 -0.019427475 -0.044436216 -0.049028292 0.005509462 0.04165597 4.4745328e-05
-0.06279206 -0.065504536 -0.08118038 -0.044921935 -0.016728638 -0.038070284 0.014964419 -0.0009887245
0.009508552 -0.09780698 -0.016135057 -0.12370959 -0.076070115 -0.03323588 0.06791942 0.0024820927
-0.055466607 0.010379736 0.00021210147 -0.047366064 -0.061848354 -0.041234236 0.03488829 0.019196915
0.014922535 -0.00067317946 0.051284466 -0.03135404 0.009379166 -0.045505498 0.0028931028 -0.023106191
0.048979074 0.04628079 -0.045556065 0.03213654 -0.011621686 0.02900236 0.02878978 -0.054349747
-0.05721505 -0.04438547 0.0028343843 -0.009234212 0.024501728 -0.0028026642 -0.055151887 0.03048716
-0.041920397 -0.06462917 -0.041969217 -0.0738361 -0.045453515 -0.0052015735 -0.04027637 -0.05220956
-0.07507003 -0.012909827 -0.10788632 -0.009462083 -0.11410397 -0.0880651 -0.09502373 -0.034720574
-0.02926948 -0.02338396 -0.10901949 -0.03406904 -0.04335179 -0.07724197 -0.021482954 -0.06829514
-0.031760104 0.016053144 0.022493433 0.0030966331 -0.030507188 0.058098394 0.054463994 0.05136973
-0.049145322 -0.012994979 -0.02419271 0.03234202 0.017223146 -0.04840378 -0.004654812 -0.03497947
-0.053916194 0.0038071387 0.052062854 -0.05134554 -0.011835482 -0.018295556 0.045614805 -0.04553893
0.002268467 -0.023449812 0.0017359848 -0.026478104 0.02831399 -0.011951275 -0.005827742 0.026569502
00000000: 5649 ce3c ae72 65bd 80cf c939 6f0a 173d
00000010: 0e44 e5bc 047f 1b3c 7bd1 193d ff37 913d
00000020: 434b 703d 5802 963b e412 d1bb f32e 343d
00000030: 57a8 59bd 0c38 f2bb 5811 24bd 488a 56bd
00000040: 1dbd ed3b f02d be3c 0843 873b 0951 b03c
00000050: c897 203d 9dbb 2f3d 680f 133d 474c 83bd
00000060: f3da 233d 30fe 16bd fdd2 2bbd 99e1 5dbd
00000070: 6a4e 33bd d1b5 c0bc a864 5dbd eab6 1fbd
00000080: e66e a83c 7b92 b3bb 026f 803c ec0c 68bc
00000090: d1d0 c0b9 a902 823b 0392 bfbb 77bc 43bd
000000a0: 2682 c4bb be8f 693b df90 6cbd 7778 02bd
000000b0: 371e 26bd 9083 44bd d2e7 3b3d c41c 82bd
000000c0: 8eee 7fbd 444a 293d 98bb 26bc 0849 f4bb
000000d0: 9a4e 1d3d 5d4a 2f3a bb01 febc 15c5 79bd
000000e0: 916f 493d e775 003d dd6c 74bd bfcb 05bd
000000f0: 7fe5 61bb 768e 89bc 7d82 31bd c505 87bd
00000100: b4b8 35bd 1a36 3c3d 5825 5a3a 44a3 3c3d
00000110: 9450 fc3c ffff f43c f75d ad3c 3b59 073d
00000120: 6e35 203d 9561 2a3c 2caf 013d 9255 003d
00000130: dbad 213d 0d13 81bd 0886 8bbd 9922 e9bc
00000140: 96a8 63bd 31e2 82bd a900 0dbc 115b f7bb
00000150: ad92 13bd 63a7 163c af60 e5bd 0814 45bd
00000160: 6b5e a3bc a4f8 e4bc c57d 99bd 784a 07bd
00000170: 90d4 453d 7a55 4dbd 1115 82bc 8ff4 293c
00000180: 63ef a6bd 0a1d c4bc a403 afbd 03d6 b83b
00000190: 3d7e 07bd 24ab 8fbd 29fb 8dbd 2757 30bd
000001a0: ab47 83bd cac7 593c b61e 89bd 0936 87bd
000001b0: 8b18 003d c9be 313d ee07 47bd 1548 1a3d
000001c0: 2038 0b3d d580 fabd bee1 f0bc ebba d3bd
000001d0: 99cb 503b 4219 913d 0637 f1bd 10b6 72bd
000001e0: f219 a6bc 1184 103d d4fa 043e ae87 ecbd
000001f0: 8465 43bc 94b3 0bbd 794a 8e3b 24e6 ac3c
00000200: 72a6 763b f570 08bc 0939 02bc 842d 8dbd
00000210: 13da 87bd 88c5 b93c 1aae df3c 251d 2f3c
00000220: 7ec5 393c cdd6 51bd 7585 ffbc faa2 61bd
00000230: 935e 073d 77d6 b53b ef69 173c 9730 9b3c
00000240: c914 773c cd37 2fbc 5e26 9fbc c002 36bd
00000250: e4d1 48bd b888 b43b 739f 2a3d eeac 3b38
00000260: 2099 80bd 3e27 86bd e641 a6bd 1000 38bd
00000270: 7f0a 89bc 96ef 1bbd 532d 753c 1798 81ba
00000280: c2c9 1b3c 074f c8bd ab2d 84bc 745b fdbd
00000290: a6ca 9bbd 5922 08bd 5619 8b3d 9baa 223b
000002a0: f430 63bd c50f 2a3c 8e67 5e39 eb02 42bd
000002b0: b354 7dbd 3be5 28bd 06e7 0e3d d942 9d3c
000002c0: a67d 743c 4f78 30ba a90f 523d 186d 00bd
000002d0: 13ab 193c f963 3abd 369a 3d3b 3249 bdbc
000002e0: 489e 483d ed90 3d3d ff98 3abd 9ba1 033d
000002f0: e268 3ebc 5b96 ed3c 8bd8 eb3c d79d 5ebd
00000300: 545a 6abd 8acd 35bd 14c1 393b 184b 17bc
00000310: d9b7 c83c e7ac 37bb f2e6 61bd 35c0 f93c
00000320: b9b4 2bbd 4c5c 84bd eae7 2bbd 6237 97bd
00000330: 772d 3abd f671 aabb d6f8 24bd b1d9 55bd
00000340: 51be 99bd bd83 53bc 81f3 dcbd da06 1bbc
00000350: 58af e9bd 7a5b b4bd cd9b c2bd 2937 0ebd
00000360: 8cc6 efbc b88f bfbc 9c45 dfbd fa8b 0bbd
00000370: a691 31bd 0a31 9ebd 05fd afbc 53de 8bbd
00000380: e216 02bd e281 833c 2644 b83c e2f0 4a3b
00000390: 36ea f9bc 95f8 6d3d a315 5f3d 1169 523d
000003a0: 9b4c 49bd e4e8 54bc ca2f c6bc 1179 043d
000003b0: 8e17 8d3c 0b43 46bd 6587 98bb a246 0fbd
000003c0: 3ad7 5cbd 3081 793b dc3f 553d b34f 52bd
000003d0: 9ce9 41bc 90e0 95bc 97d6 3a3d 0787 3abd
000003e0: 90aa 143b d219 c0bc fc89 e33a 9ce8 d8bc
000003f0: bef2 e73c 48cf 43bc a5f6 bebb 49a8 d93c

features.12.bias f4 [32]
0.0031659245 0.061376356 -0.013611369 0.022707187 0.05629384 0.08962618 0.024834888 0.04147449
0.07376887 0.021025365 0.06972186 0.04371363 0.016391663 0.08190904 0.04069855 0.072094515
0.06492005 0.06462 0.031176822 -0.0062850663 -0.05947384 -0.015144868 0.11250616 0.03396967
0.10475002 0.003425972 0.032345008 0.08716815 0.047994588 0.0840778 -0.04072489 -0.013294392
00000000: 667b 4f3b c665 7b3d 3802 5fbc 6c04 ba3c
00000010: 5f94 663d ee8d b73d 8972 cb3c 28e1 293d
00000020: 2214 973d 633d ac3c 56ca 8e3d 100d 333d
00000030: cf47 863c edbf a73d 86b3 263d 4aa6 933d
00000040: cef4 843d 7e57 843d 8966 ff3c f5f2 cdbb
00000050: d79a 73bd 2e22 78bc a169 e63d c823 0b3d
00000060: 2e87 d63d 4686 603b 337c 043d 3785 b23d
00000070: f995 443d fb30 ac3d 24cf 26bd b9d0 59bc

features.15.weight f4 [16, 32, 3, 3]
0.09129078 0.08457034 0.021081354 -0.051167578 -0.03594614 0.018359432 0.081965506 0.10839394
-0.06359486 -0.066723764 0.011719351 0.08699581 -0.08204038 0.058831453 0.062029168 0.08387775
-0.08116319 -0.032231815 0.0025302786 -0.06881696 -0.008859369 0.088802494 0.10413477 0.04955054
-0.122100234 0.0049396325 0.07217802 -0.107550494 -0.10640057 -0.020967148 0.0460084 0.033801932
-0.12279638 -0.0916523 0.029227016 -0.013039875 0.030897105 0.07420215 0.06841899 0.098641835
-0.010370857 -0.10218707 -0.020640804 0.0372824 0.007805233 -0.025436014 -0.0531308 -0.043250367
-0.06607165 -0.0694178 0.08845122 0.04867964 0.082158595 -0.065798014 0.050270908 0.07004633
-0.109085724 -0.090885796 -0.09368103 0.052547064 0.101231754 -0.039830755 -0.023830405 -0.09361146
0.038968243 -0.10656699 -0.1204157 -0.07311278 -0.04175776 -0.086104445 0.07505402 0.006523713
0.08447182 -0.11032903 0.04150427 0.06866315 0.061116435 0.015931474 -0.065435894 -0.068682455
0.08854172 -0.10958935 -0.025401624 -0.047077015 0.11061798 0.061488103 -0.049938135 0.016732171
-0.11221172 -0.1074922 -0.07054189 -0.0064396393 0.07024691 -0.045613278 0.033586185 0.06805568
-0.105220884 0.08117662 0.090738796 -0.11608336 0.039019246 0.056922145 -0.042084794 -0.08025313
-0.116697304 -0.07436906 0.0054539107 0.008331731 -0.08527995 0.1065525 -0.086005524 0.09054039
0.09959788 0.10962696 0.05539659 -0.06206776 0.09224385 -0.037601605 -0.09834652 -0.008277018
0.018319506 -0.0131749455 -0.039276127 0.044348955 0.049673513 -0.042522877 -0.05817395 -0.071928665
0.030461034 0.07496927 0.03636844 0.01480764 -0.08132024 -0.1162386 -0.0015377193 -0.010433596
-0.051241137 0.017161038 0.06847107 -0.10744439 -0.012545088 0.07237026 -0.12405256 -0.02143669
-0.12766337 -0.012940305 -0.05589333 -0.083632536 0.07530653 -0.11224627 0.09061523 -0.04360219
0.06159277 0.0296161 -0.008970845 0.06820953 -0.046355344 0.073057696 0.061215922 -0.061097898
-0.067976065 -0.06286664 -0.12796265 -0.09273077 0.0016638894 0.015075834 0.033453427 0.091232724
0.032645244 -0.10588749 -0.08568865 0.08876952 -0.06601656 -0.088808596 0.058116667 -0.05019618
-0.108854845 0.0945305 -0.045077488 -0.014110133 -0.057090547 0.10717427 -0.0014629439 -0.10748277
-0.04012744 0.047810458 0.013337143 0.0025516152 -0.0944156 -0.05097745 0.02834209 -0.09244146
0.04646516 -0.12188389 0.04366281 -0.07238825 -0.0017252027 -0.03742163 -0.09962096 -0.11490802
0.06244665 -0.019956108 -0.014495819 0.0889272 0.086784214 0.08899423 0.09856918 -0.05767257
-0.119761966 -0.07108283 -0.10949352 -0.019622063 0.073944636 -0.012520374 -0.09529164 -0.14072637
0.08976642 0.053161893 -0.048415344 -0.09886443 -0.00073467876 -0.035309475 -0.0110741975 0.011616731
-0.13071184 -0.04679705 0.024160914 0.051968127 -0.10227166 0.0081369085 -0.13317163 0.06845705
0.0242152 -0.009020353 0.022996718 0.058889072 0.04057364 -0.012018565 -0.018876323 -0.10622527
0.09659396 0.0042283796 -0.080005236 0.018262934 -0.0109083 -0.037661083 -0.03013913 -0.05288619
0.028932482 -0.08478403 -0.09033292 -0.046722412 -0.12839809 -0.078979254 -0.064489156 -0.082739316
00000000: a9f6 ba3d 3733 ad3d ceb2 ac3c 1895 51bd
00000010: 423c 13bd 8566 963c 88dd a73d a4fd dd3d
00000020: 063e 82bd 78a6 88bd 8502 403c dc2a b23d
00000030: c904 a8bd 40f9 703d 4c12 7e3d 19c8 ab3d
00000040: e338 a6bd 8205 04bd 08d3 253b e8ef 8cbd
00000050: e326 11bc 15de b53d 9c44 d53d 82f5 4a3d
00000060: b00f fabd a4dc a13b 12d2 933d 6f43 dcbd
00000070: 8be8 d9bd 4cc3 abbc 4e73 3c3d e573 0a3d
00000080: ab7c fbbd 33b4 bbbd 7f6d ef3c 33a5 55bc
00000090: ed1b fd3c 4cf7 973d 411f 8c3d bb04 ca3d
000000a0: 87ea 29bc 7447 d1bd e716 a9bc 6eb5 183d
000000b0: 0ac3 ff3b 305f d0bc af9f 59bd 4c27 31bd
000000c0: 9350 87bd eb2a 8ebd ea25 b53d 4d64 473d
000000d0: c442 a83d 1cc1 86bd dee8 4d3d 7374 8f3d
000000e0: 5668 dfbd 5522 babd d7db bfbd 973b 573d
000000f0: 9852 cf3d 9325 23bd fb37 c3bc 5db7 bfbd
00000100: 2a9d 1f3d cb3f dabd 829c f6bd 27bc 95bd
00000110: 2f0a 2bbd 8757 b0bd ecb5 993d dfc4 d53b
00000120: 90ff ac3d 30f4 e1bd 6200 2a3d 449f 8c3d
00000130: 3a55 7a3d b982 823c 4103 86bd 63a9 8cbd
00000140: 5c55 b53d 6270 e0bd 1117 d0bc d4d3 40bd
00000150: ae8b e23d f3da 7b3d ee8b 4cbd e811 893c
00000160: 42cf e5bd df24 dcbd 4478 90bd 9c03 d3bb
00000170: 9ddd 8f3d fdd4 3abd ab91 093d c760 8b3d
00000180: 0c7e d7bd ee3f a63d 43d5 b93d 1dbd edbd
00000190: a5d2 1f3d 3227 693d 1b61 2cbd c15b a4bd
000001a0: fffe eebd ce4e 98bd b8b6 b23b d081 083c
000001b0: 41a7 aebd 3238 da3d aa23 b0bd 3d6d b93d
000001c0: f9f9 cb3d 1984 e03d 89e7 623d c33a 7ebd
000001d0: 58ea bc3d 2404 1abd e669 c9bd 549c 07bc
000001e0: ca12 963c badb 57bc 01e0 20bd 40a7 353d
000001f0: 7476 4b3d 782c 2ebd cf47 6ebd 564f 93bd
00000200: 6b89 f93c 7d89 993d 13f7 143d be9b 723c
00000210: 3a8b a6bd 810e eebd 4c8d c9ba acf1 2abc
00000220: 3ae2 51bd 4e95 8c3c 8f3a 8c3d ce0b dcbd
00000230: ea89 4dbc dc36 943d 450f febd ff9b afbc
00000240: 30ba 02be 9303 54bc 68f0 64bd 8947 abbd
00000250: 4f3a 9a3d 5fe1 e5bd 7a94 b93d 3698 32bd
00000260: b348 7c3d 779d f23c 73fa 12bc 70b1 8b3d
00000270: 1adf 3dbd 469f 953d 8cbd 7a3d ca41 7abd
00000280: 0937 8bbd 3ac0 80bd a408 03be a1e9 bdbd
00000290: dd16 da3a a100 773c 7606 093d 39d8 ba3d
000002a0: 05b7 053d 8adb d8bd 887d afbd cbcc b53d
000002b0: b133 87bd 48e1 b5bd be0b 6e3d 829a 4dbd
000002c0: 4aef debd 3599 c13d 2ca3 38bd 302e 67bc
000002d0: c7d7 69bd 2f7e db3d 40c0 bfba ed1f dcbd
000002e0: ac5c 24bd e6d4 433d 0884 5a3c 0039 273b
000002f0: f75c c1bd bbcd 50bd ac2d e83c f351 bdbd
00000300: 4052 3e3d 439e f9bd c6d7 323d 4a40 94bd
00000310: 3220 e2ba 6c47 19bd 1306 ccbd e554 ebbd
00000320: 0fc8 7f3d fe7a a3bc df7f 6dbc 771f b63d
00000330: ecbb b13d 9b42 b63d a3de c93d 133a 6cbd
00000340: c345 f5bd e093 91bd 233e e0bd 73be a0bc
00000350: 4970 973d 4122 4dbc 4328 c3bd 931a 10be
00000360: 75d7 b73d 49c0 593d 2b4f 46bd 6f79 cabd
00000370: 7597 40ba aba0 10bd 8d70 35bc 1a54 3e3c
00000380: 53d9 05be 43ae 3fbd 1ced c53c 88dc 543d
00000390: ce73 d1bd ab50 053c 255e 08be 3633 8c3d
000003a0: f55e c63c 1aca 13bc 9d63 bc3c ab35 713d
000003b0: 8c30 263d 84e9 44bc 85a2 9abc a28c d9bd
000003c0: 0ed3 c53d 388e 8a3b c9d9 a3bd 269c 953c
000003d0: bab8 32bc 8242 1abd 56e6 f6bc 319f 58bd
000003e0: d003 ed3c 40a3 adbd 7700 b9bd 0060 3fbd
000003f0: ca7a 03be e0bf a1bd e412 84bd 3b73 a9bd

features.15.bias f4 [16]
-0.05878515 0.08386377 0.06566315 -0.030366862 0.11340105 -0.05555392 0.1057848 -0.012424998
0.08245248 0.044906523 -0.08338432 0.05225496 -0.005226812 0.025657764 0.023889558 -0.1029581
00000000: b3c8 70bd c5c0 ab3d 677a 863d edc3 f8bc
00000010: cf3e e83d 828c 63bd b4a5 d83d 3892 4bbc
00000020: d9dc a83d e7ef 373d 66c5 aabd 4c09 563d
00000030: ad45 abbb 3b30 d23c 09b4 c33c b2db d2bd
