output/models/220625_1659_ggcnn2_met_ruis_rotate_1/epoch_04_iou_0.57_statedict.pt (torch, 274205 bytes, 20 tensors)

features.0.weight f4 [16, 1, 11, 11]
00000000: c453 6cbb 31b0 d73c d3c0 05bd 3baf b73c
00000010: d5cf ce3c b4c6 0b3c efad 89bc c36d 29bc
00000020: a08d de3c 715d 34bb 6758 7c3c 4f59 54bd
00000030: 5e1d 66bc 464c e43b 3753 f8bb bb84 813d
00000040: fc73 023d e5eb 1a3d c4ee a83c ddbc 24bd
00000050: e9c2 13bc 5636 4dbd cb64 26bd eccf 1a3d
00000060: 8932 b2bc 7d28 643c fdf7 1ebd e740 863d
00000070: 1f6c 003c a07b 5fbc afbd f0bc 0874 193d
00000080: f32a 453c 85a4 8c3c 7a52 093d 5567 f43b
00000090: 393e ddbc e6ad 29bc 0a12 b2bc e519 1bbd
000000a0: b2b4 20bd 3f0d 133d 216f f63c 5ec1 53bd
000000b0: 82a5 553d 24a7 9a3b 8651 d23c c9ec b83c
000000c0: 3559 ae3d f3e6 993c 8ec6 bcbc b9a0 9e3c
000000d0: 72e8 a53c 9373 0d3d 625f a3bc 195c 823c
000000e0: f63a 9abc d8df 373d c571 ce3d 754a a73c
000000f0: c28d b73d feec a43d 5108 ae3c b4ea 843d
00000100: 4c0d 993d 8112 243d 9568 03bd ec74 a63d
00000110: 5575 e53c 8068 d13c ebbb 503d 65c7 453d
00000120: 159e dc3d d6fb 603d a684 873d 0360 8b3d
00000130: f74c 343c e255 433d f88f c1bc 3537 4b3c
00000140: 88f1 273d bb04 883d dc5a 933d 1a77 673d
00000150: 4814 013d d9cc 283d 08f5 25bd 7662 07bc
00000160: eca8 fabb b919 9b3c 6cd3 3d3d 9073 a93d
00000170: d6a2 253d 9d0f d83b 5fc4 143d bf8f e4ba
00000180: 95b9 a6bc 449c 88bd 9d73 b9ba 414a 6b39
00000190: bab3 e6bc f8ca 8c3c ca59 afb9 fb6f b43c
000001a0: 4365 19bd 12cb 38bc 8a2b cf3b ca54 983c
000001b0: 0f7d 4f3a 527b 0cbd 3c3c ae3c 8ae9 e3bc
000001c0: d4b4 8abb 33fe dfbc e6e5 32bc 084e b83c
000001d0: 07a3 463d 3c87 2c3b 23a9 63bd 4533 133c
000001e0: 96ad 8c3b 11a5 c83c 6e50 aebc bb95 073d
000001f0: f213 833d 6a91 743d 23b3 5ebc c561 2dbb
00000200: ea03 99bc 7ca1 20bd 7e5c 4bbd 3614 6bbc
00000210: 2808 b0bc 65ae 58bc f4fc 1b3d ca0f 593d
00000220: 6c91 bfbc 7223 0c3d e894 05bd 3f20 1f3d
00000230: 8cbf 99bc 46ac 1a3d 42c2 7dbd 8536 293d
00000240: 55db 103d e1f4 f93c 339f 483d 45f8 b3bb
00000250: ad1f 4ebd d02e 0abc b572 103d 621c 63bd
00000260: e74b 15bd 1bd1 24bc 970b 58bb 315a 3b3d
00000270: 1e94 a9bc 56b7 243d 50e8 2dbd fbf0 523c
00000280: 4111 0f3d e7f4 513d 9256 023a a5c1 843b
00000290: 1df1 59ba 89ff 80bd 1111 60bd ccfb 0cbc
000002a0: 9737 d73c 80d4 023d 0397 0d3d 0931 6bbc
000002b0: f1fb 92b8 0a03 273d f057 0c3d 4c40 d83c
000002c0: 9660 7bbd f706 5dbd 1b83 32bd 0a55 14bd
000002d0: d4e2 6e3d 74eb 3b3d 6c50 243d 637b 01bc
000002e0: 7390 f0bb f171 0abd 9765 9a3c 63a0 0c3d
000002f0: 2004 e53c 4055 0cbd 09af 05bd 00fa ee3c
00000300: 8ed9 9bbb 2431 073d 5537 fd3c 5884 efbc
00000310: 0288 993a 21cb fc3c b113 34bd 1ff1 993c
00000320: 8c60 67bc 6d68 6d3d 337c c63c 9c61 963b
00000330: 8f06 82bc bb3c 93bc 3f86 09bb f4a1 b4bc
00000340: 2eff 743c e5ff 05bc be76 cebb 4c11 013d
00000350: 7de2 babc b2bc 06bb 4d31 b1bc de03 0bbd
00000360: c955 d43b 9218 32bb 5af8 1d3d e214 a43c
00000370: 7b0c 5c3d 80c9 273d a2e0 453b 87f6 2ebb
00000380: 6e7c d8bc 11c1 083d bd12 063d bb5f 723d
00000390: 1175 973b 9777 593d 1326 3ebd 9935 76bc
000003a0: cba3 b63c 18c4 173d eb93 45bd 5a21 86bc
000003b0: bb1a b83c 413e 813d ea31 aa3c 18f9 2e3d
000003c0: dc69 423d 9472 debc 330e 1cbd 140c 40bd
000003d0: 9d6f 13bd 26c2 c3bd b77f 9abd 6c55 a5bd
000003e0: 6064 c0bc 417d 843c b300 343d c65a 4d3d
000003f0: c243 533d bc9b cabd 3d90 f3bd 7dc3 07be
-0.003606067 0.026329132 -0.032654595 0.022422424 0.025245586 0.008531261 -0.01680657 -0.010341111
0.027167141 -0.0027521516 0.015401936 -0.051842984 -0.014045088 0.0069671003 -0.0075782794 0.063241445
0.031848893 0.037822623 0.020621665 -0.040219177 -0.009018638 -0.050100647 -0.040623467 0.037795946
-0.021752613 0.013925669 -0.03881072 0.06555348 0.007838278 -0.013640314 -0.029387323 0.03746417
0.012034166 0.017168293 0.03352592 0.007458607 -0.02700721 -0.010356402 -0.021737117 -0.03786649
-0.039234824 0.035901304 0.030082287 -0.05169808 0.052159794 0.0047196317 0.025673639 0.022573845
0.08513109 0.018786883 -0.023043897 0.019363748 0.02025244 0.03453405 -0.019942943 0.015913056
-0.018826943 0.04489121 0.100802936 0.020421246 0.08962585 0.08053015 0.0212442 0.064900786
0.07473239 0.04005671 -0.03208216 0.0812777 0.02801005 0.025562525 0.050960463 0.04828586
0.10772339 0.05492767 0.066170976 0.06805422 0.011004678 0.047689326 -0.02362822 0.012403299
0.041001827 0.06641527 0.071950644 0.05651007 0.031513482 0.041210983 -0.040516883 -0.008263221
-0.0076495316 0.018933164 0.046344206 0.08273995 0.040438496 0.006593658 0.036320087 -0.0017437859
-0.020352164 -0.0667043 -0.0014148835 0.00022439008 -0.028161872 0.017186627 -0.000334455 0.022026053
-0.037450086 -0.0112788845 0.006322329 0.018595118 0.00079150585 -0.034297295 0.021268956 -0.027821321
-0.004232982 -0.027342891 -0.01091907 0.022498146 0.04849532 0.0026325723 -0.055581223 0.008984392
0.004293154 0.024492772 -0.021278586 0.03310178 0.06400289 0.05970899 -0.013592514 -0.002645598
-0.018678624 -0.039216504 -0.049648754 -0.01434808 -0.021488264 -0.013225173 0.03808303 0.052993573
-0.023384772 0.03421349 -0.03261271 0.03884911 -0.018768094 0.03776195 -0.061952837 0.04131176
0.03536542 0.030512275 0.04897995 -0.0054922425 -0.050323177 -0.0084340125 0.035265643 -0.05544699
-0.03644934 -0.01005962 -0.0032965892 0.04574031 -0.02070051 0.040213905 -0.04245788 0.012874837
0.034928564 0.051258948 0.00049720064 0.0040514045 -0.0008313822 -0.062987395 -0.054703776 -0.008604955
0.026271624 0.031940937 0.034567844 -0.014354953 -7.00875e-05 0.040774383 0.03426355 0.026397847
-0.06137141 -0.05396172 -0.043582063 -0.036213912 0.05832179 0.045878842 0.04011576 -0.007902953
-0.0073414384 -0.03380007 0.01884727 0.034332644 0.027956069 -0.03426099 -0.03263763 0.029171944
-0.004756159 0.03300585 0.030910173 -0.029237911 0.0011713507 0.030858578 -0.04396409 0.018791733
-0.01412214 0.057960916 0.024229145 0.0045892727 -0.015872268 -0.017973294 -0.0020984558 -0.022049882
0.014953418 -0.008178686 -0.0063007763 0.031510636 -0.022813076 -0.0020559249 -0.021629954 -0.033939235
0.006479953 -0.002717529 0.038566925 0.020029489 0.05372284 0.04096365 0.0030193706 -0.0026697235
-0.02642652 0.033387247 0.032732714 0.059173327 0.0046221097 0.053092565 -0.04642303 -0.015027427
0.0222949 0.037052244 -0.04823677 -0.016373325 0.022473684 0.06310702 0.020775754 0.042718023
0.047464237 -0.027154244 -0.03809948 -0.04688652 -0.035995115 -0.09558515 -0.07543891 -0.080729336
-0.023485363 0.016173007 0.04394598 0.050135396 0.05157829 -0.09892985 -0.11892746 -0.13258167

features.0.bias f4 [16]
00000000: 9fb2 883e 045e bb3d 25f1 34bd 4a98 513e
00000010: bd69 acbd e1e9 b3bd df1e dfbd 129c 5e3d
00000020: d5a8 0bbe fbc3 673d 7ba0 02be bb02 dfbd
00000030: 2946 f2bd a819 27be 9191 07be bb28 51be
0.26698777 0.091487914 -0.044175286 0.2046825 -0.084186055 -0.08784843 -0.1089456 0.05434806
-0.13638623 0.056583386 -0.12756531 -0.10889193 -0.11829788 -0.16318381 -0.13239123 -0.20425694

features.2.weight f4 [16, 16, 5, 5]
00000000: 5bf7 d9bc a2bd 903c 7bd4 64bd 1cc3 043c
00000010: da82 06bc bdba 5abd 6281 9fbd 7557 113d
00000020: 37f1 603c a6eb 9abd a3c2 b3bd 9064 243d
00000030: c3aa 22bd 3ef8 693d 7d7b 8b3d 664d da3c
00000040: b346 603b 832d d23d 4cbb 4c3d aa60 a03d
00000050: 46e4 a13d f273 0c3d 1ead 5d3d 8c81 7cbc
00000060: 8397 c83d c929 b23d 7a58 4f3d 103f 75bd
00000070: 1525 67bc 3686 b9bc 0876 633d a4a7 83bd
00000080: 5b66 98bd 3239 393c ddd6 15bd 5149 51bd
00000090: 902f edbc 615d a83c 893e 153c 561c 02bc
000000a0: 7133 03bd 3efd 9ebb d422 8abd f72a 563d
000000b0: 577a 993d 524c 1dbd e675 3f3d 7b37 ad3d
000000c0: 7933 933c 985c 913d fd63 3a3d 496e 103d
000000d0: e7e2 c0bd 76ae 86bd a0f6 1bbe 9b15 c33d
000000e0: 6d74 9e3c c65a 35bd f75d 3bbe 89dd fdbd
000000f0: 13e7 e33d eb4a 25bc cc74 ccbd e776 88bd
00000100: 4e1c 8abd 9759 963d 2a71 8a3c 0b53 e8bd
00000110: 9c5b eabd 9d4a 2dbe b62f da3d d988 d43c
00000120: 09ae 6cbd f5d1 81bd 8919 90bd 1b27 60bd
00000130: bbdf 843d a6e9 9c3c 9e83 74bc 965e 193d
00000140: 4eaa 2a3c 872e c73d a31e e2bb d7be adbd
00000150: c3df 3fbd afe6 663d 555d 273c 8e2e 5ebc
00000160: 9a6d 153d 3d30 92bd 3374 963d 8862 5bbd
00000170: 1a37 8f3d d09f 3fbd 91f9 80bd 4d56 ca3c
00000180: cfee 553d 0199 c9bb 7b65 32bd 1ca9 073b
00000190: 088d fe3c 5dd1 9e3d 0986 04bc a371 e83c
000001a0: 1a70 30bd fed5 1a3d 7912 833d aecd ddbc
000001b0: aea0 bebc 1a81 233d a492 85bc 776f 83bc
000001c0: 3cd6 663d 236d 4bbd da2f 8bbd 4b58 f0bb
000001d0: 775d f339 0789 22bd ce01 95bd 7265 80bc
000001e0: 7403 463d 58b0 313d b4fd 69bd 02bb de3c
000001f0: ab94 0bbd 63eb 67bd 3125 47bd c127 4bbc
00000200: 826a e93c 1941 913d 6a65 20bd 294a 8c3c
00000210: 7e71 f7bc 8a39 273d b6e8 51bc afe3 90bd
00000220: 4fbc 51bd 304e 9a3d ffdf 803d 7165 153d
00000230: 036c 95bd f122 9abd a5fc 7e3c dc9f 8f3d
00000240: 55ab 05bd 3cd7 cebc 284a e33b fd21 b7bb
00000250: a623 36bd f93f 743d 944b 5c3c 3a50 79bd
00000260: cfba 6a3c 1941 443d b0ff 43bd 5e2f 0a3b
00000270: 3988 afbd 7b79 763d 672b bebd 2f44 1f3d
00000280: 3134 473b d6c3 94bb 952b ea3b e554 b7bd
00000290: 1349 bd3c 9047 94bd 5b1c 383b 3abc ff3c
000002a0: edc6 b4bd bdb3 463d d86a f8bc 5f73 25bc
000002b0: b8cc 5fbd 9c7a a6bc 53e8 d73b 5bef 6abd
000002c0: 096d 0d3c 19c2 25bc 3806 6e3c 4290 68bc
000002d0: 62e9 b73d 9d7f ee3c 8c6a 93bd dd38 dbbc
000002e0: a38c 82bc 08c7 4ebb 2ff7 223d 9399 333d
000002f0: 4941 cfbd 278f cbbd 5221 3dbb a0a7 ea3c
00000300: 0068 93bd 12c4 86bd 0c39 7b3d 8496 dbbc
00000310: 172a ba3d e7d2 f23d 7416 74bc f5bf be3d
00000320: 6292 89bc ed40 a9bc 1b08 acbd 7e11 ffbc
00000330: 1ae1 85bd 2501 a23d b6c3 07bc e163 9dbd
00000340: 3482 26bd 75e2 56bd 825c 173a 7118 43bd
00000350: 31c7 3d3d 106c 2a3d 664f 223d d57b 0a3d
00000360: 6269 f0bc 2ebb b5bd 38ab d1bc 69d4 5c3d
00000370: 50b4 923d fb69 5fbd e3e3 61bd af67 e5bb
00000380: 2ef9 8dbc 00f1 bc3d bf76 8f3d 030d 853d
00000390: 7436 633d b30b cb3c df79 133d 5f1a b13d
000003a0: feed 2fbd 90f2 67bd 37b5 1fbc 4fd2 86bd
000003b0: e821 953d aac8 f0bc 864b 4bbd ff0d a03d
000003c0: f516 acbd 45fb 7bbd 637b 27bd 8589 a3bd
000003d0: a390 503d 0399 9dbd 72b8 36bd e154 84bd
000003e0: 313d c5bc 774b 32bd a07d 633c c55a adbc
000003f0: 6dcf afbd 0dd6 ffbd c33a e6bd d2b8 35bd
-0.026607206 0.017668549 -0.0558667 0.008103158 -0.008209908 -0.053400744 -0.0778835 0.035483796
0.013729385 -0.075644776 -0.087773584 0.040134966 -0.039713632 0.057121508 0.06810663 0.026648235
0.0034221828 0.10262587 0.049983308 0.07830937 0.07904868 0.03429026 0.054120176 -0.015411746
0.097945236 0.08699376 0.050621487 -0.059874594 -0.014107962 -0.022647005 0.055532485 -0.06428459
-0.07441398 0.01130514 -0.036581863 -0.05109531 -0.028953344 0.020552339 0.009109148 -0.007941326
-0.03203148 -0.004851966 -0.06744924 0.05228707 0.074940376 -0.038402863 0.046743296 0.08457848
0.01796888 0.07097739 0.045505513 0.035261426 -0.09418278 -0.065762445 -0.15230799 0.09525605
0.019342626 -0.04427602 -0.18297563 -0.1239577 0.11128058 -0.010088663 -0.09983215 -0.06663304
-0.0674368 0.07341307 0.016899664 -0.11343964 -0.11443254 -0.16922994 0.106536314 0.02594416
-0.05778316 -0.06338874 -0.070361204 -0.054724794 0.06487986 0.019154381 -0.014923958 0.03744372
0.01041658 0.09725671 -0.006900625 -0.084836654 -0.046844255 0.05637234 0.010215123 -0.013560904
0.036481477 -0.07138107 0.07346382 -0.053560764 0.06992932 -0.04678327 -0.06297601 0.024699355
0.0522297 -0.0061522727 -0.04355381 0.0020700162 0.031073108 0.077547766 -0.008088597 0.028374499
-0.04307566 0.037801735 0.06400008 -0.027075615 -0.023269977 0.039918043 -0.016305275 -0.016044362
0.056356654 -0.049664628 -0.06796236 -0.007334744 0.00046418209 -0.03968146 -0.07275735 -0.015673373
0.048343137 0.043381065 -0.057126716 0.027188782 -0.034077328 -0.056620967 -0.048619453 -0.012399615
0.02849317 0.070924945 -0.039159216 0.017125206 -0.030205484 0.040826358 -0.01281183 -0.07074677
-0.051204976 0.07534444 0.06292724 0.036473695 -0.07295992 -0.07526196 0.015563165 0.07012913
-0.032634098 -0.025249116 0.0069363303 -0.0055887685 -0.04446759 0.05963132 0.013445754 -0.060867526
0.014326765 0.047913644 -0.047851264 0.0021085362 -0.08570904 0.060174447 -0.09285622 0.038883384
0.0030396099 -0.004539947 0.0071463087 -0.08951739 0.023106134 -0.07240212 0.0028093073 0.031217683
-0.088270046 0.048511256 -0.030324385 -0.010098307 -0.054638594 -0.020322137 0.0065889745 -0.057357173
0.008631953 -0.010117077 0.01452785 -0.01419455 0.08980061 0.029113585 -0.071980566 -0.026760513
-0.015936201 -0.0031551737 0.039786514 0.04384763 -0.10119874 -0.099394135 -0.0028858972 0.028644383
-0.07197571 -0.06580366 0.0613337 -0.02680517 0.09090059 0.11856633 -0.014897931 0.09313957
-0.016793434 -0.020660842 -0.083999835 -0.03113627 -0.06537075 0.079103746 -0.008286407 -0.07685066
-0.040651515 -0.05246206 0.00057739776 -0.04763073 0.04633254 0.041606963 0.0396265 0.0338095
-0.029347125 -0.08873592 -0.025594339 0.053913508 0.07163298 -0.05454443 -0.05514897 -0.0070008854
-0.017330732 0.092256546 0.07005071 0.064966224 0.055471852 0.024785852 0.036004897 0.08647608
-0.042951576 -0.05662781 -0.009747795 -0.06583082 0.07281858 -0.02939256 -0.04963257 0.078151695
-0.08402816 -0.061518926 -0.040889155 -0.07985214 0.050919186 -0.076952 -0.044609495 -0.06461502
-0.02407703 -0.043529 0.013884932 -0.021161446 -0.08584485 -0.12491999 -0.11241677 -0.04436571

features.2.bias f4 [16]
00000000: 3911 e3bb 25f7 2f3c 19bb 953c 8c03 2bbd
00000010: dac8 5abd 4c32 c3bc b5a3 8dbc 14f0 1fbc
00000020: 713b d9bb d51b cd3c e8cd 68bd 799b e5bc
00000030: 9255 743c f9a4 65bd 96a8 883b bde1 0cbc
-0.0069295433 0.010740076 0.018277692 -0.04175143 -0.053414203 -0.023827694 -0.017289976 -0.009761829
-0.0066294004 0.025037685 -0.056836993 -0.028028237 0.01491298 -0.056065533 0.0041704876 -0.008598742

features.5.weight f4 [16, 16, 5, 5]
00000000: f524 47bd a9dc e5ba bd43 0a3d bbfc edbc
00000010: 50e7 acbd da87 863d 5891 12bc 24c4 d03c
00000020: 50b7 6d3d 76a3 44bc 9b40 3f3d 4e29 d0bb
00000030: 5a74 34bd 16f4 013c a3d8 7fbd b2bd ddbb
00000040: 2031 b53c 4261 9b3d 15b3 24bd e68a 803d
00000050: 0911 873c 9e03 ad3b 4e32 a13a 95c7 c73c
00000060: f8f9 24bc 4a6f 8cbd 48b1 65bd bbae 82bd
00000070: 5168 d3bc 76c1 b9bd 2b36 8c3d 550e 1b3d
00000080: 0ec9 e9bc d8de 8b3d 6557 883d a3a2 b3bd
00000090: fc60 2cbd 46fc 423d 5598 43bd 75da 39bd
000000a0: 0fbc 813d 1934 68bd f107 1ebd b6ed 3b3d
000000b0: 85c4 073d b4ba 8b3c c5dd 3d3d d18a 223c
000000c0: 14f0 513d c23d 30bd 2f22 6c3c c433 b6bc
000000d0: 807c 6f3c 5a7a 0cbd 95f6 b4bd a05d 8abd
000000e0: 0efd 96bd e3aa b93c 57e3 8f3d 26f3 75bd
000000f0: c24c aa3d a4ad b4bb 30c4 7c3d cdfb 55bd
00000100: 361f c1bd 9a9c ea3c 0cab 273d ca78 623d
00000110: c827 1f3d 2baf 97bd e06c 2abd 2f01 383d
00000120: 8328 80bd ccf4 9e3d 24e8 9dbc 4489 9dbd
00000130: 9f05 d6bd 2f30 fa3c e81d 67bd c65f 91bd
00000140: 269d 2abc 0cda ffbc 3302 443c 6f61 143d
00000150: 258a 60bc 649d 3abd 9f5a ac3d 5c4a 633b
00000160: 9bf1 8a3d bf9e 60bd ba81 02bc e8de 1ebc
00000170: bb30 573d edd2 903b e875 eb3c 9b62 a03d
00000180: c838 00bd d633 b43d 6d04 a8bb 985a a3bd
00000190: c919 75bd a2da 65bd 7260 c9bc 3c66 bcbc
000001a0: 3d50 da3d 71c8 12bd c6cc 833d ec4c 793d
000001b0: 4573 88bc a146 dc3d 6847 92bd 8a5b a7bd
000001c0: 3541 98bd ca73 143c 3655 5b3d 04ed 72bd
000001d0: 5e9b a13c dd53 a7bb 908f b1bd 1fba 3d3d
000001e0: 421c 133c 04a8 81bb 48bc 86bc 0700 443c
000001f0: 1f6b 653d 539b 56bd 24c4 af3c 7818 a0bd
00000200: 1849 973b 237a b0bd 3fb4 79bd 84d5 9cbd
00000210: b504 4c3d 8eea f9bc 9092 4b3d c17b 62bc
00000220: 4f31 9dbd cdf6 15bd b0b9 f2bc d935 6dbb
00000230: e097 ea3a 8149 48bd 7d5f 4b3d d949 b33d
00000240: eb1d 523d d999 98bd 1127 fa3c ba4b 223d
00000250: 3661 17bd aa5d 093c 936b 4ebc 6f74 53bd
00000260: 8a85 21bd 633a 20be 5ca9 b7bc d635 273e
00000270: ab73 063e d0d9 0b3c 4dd4 183e e55e 89bc
00000280: 099a 823d af38 3d3e f593 af3d d933 513d
00000290: 33cb 8f3d de1c 023e 36c2 e03c b4f2 2b3d
000002a0: 7204 65bc 0ec9 bcbc e3be 823d f957 8cbc
000002b0: f25c f1bb 76df 05be 509a c8bd c6c1 f9bc
000002c0: 2c35 793d 8811 87bd aa33 8dbd 3dd7 d7bc
000002d0: 8f0f 4f3d e86e 70bd 373c 0e3c 71d4 cfbb
000002e0: 4d19 563d abcc 0e3d fc8a 4fbd 64a0 3e3d
000002f0: 864a 94bd 74ab 6dbd 2fa8 19bd 62b5 cfbc
00000300: f063 94bd be2e 96bd 62e3 31bb 7b57 b93c
00000310: 94d0 ea3d b101 f13c d481 593d 0818 843d
00000320: e3ec cc3c d8d5 303d e527 a7bd 39d0 31bd
00000330: c7dd 8cbd 870f 42bc 6e1a 03bd cdac af3d
00000340: a123 95bd 24f5 90bd 1ddd 823d 467d febc
00000350: 81e6 b1bd 5245 6c3c b2dd a1bd ade6 65bd
00000360: 4a96 66bc 0128 d2bc 9a32 883d ac31 f23c
00000370: 5a5f da3c 1bdc 89bd d5db 86bd 3272 293c
00000380: b4a8 8b3c 22e1 3f3d fe7e 89bc be4d 11bd
00000390: 24b5 dbbd 7f2c 333d 9ced eb3c 5978 f23c
000003a0: 7bb1 78bb e052 893d 6e4f b03d fd2d 86bd
000003b0: 3d78 433d 3ade 9a3d 45fa a73d 03f6 603d
000003c0: e23a 403d 10cb b5bd b855 28bc aa61 9fbd
000003d0: ae7a a5bd 9e16 233c 2dc9 ca3d 927e dd3c
000003e0: 8402 023e e56d 5c3d 618e 44bb a15c b8bc
000003f0: 1a88 b73c b8e3 cebc c1e3 a0bd 101f c7bc
-0.04861923 -0.0017537075 0.033756007 -0.029051175 -0.08442557 0.065688804 -0.008945785 0.025484152
0.05803615 -0.012001863 0.046692472 -0.00635258 -0.044056274 0.00793173 -0.06246246 -0.006766998
0.022118151 0.0758691 -0.04020985 0.06276493 0.016487615 0.005279972 0.0012298317 0.02438716
-0.010069363 -0.06857164 -0.05607727 -0.063809834 -0.025806578 -0.09070103 0.06846269 0.037855465
-0.028538253 0.068296134 0.06657294 -0.08771255 -0.04208468 0.047603868 -0.047752697 -0.045374352
0.063346975 -0.05669031 -0.038581792 0.045880996 0.0331464 0.0170568 0.046354074 0.009920792
0.051254347 -0.043027647 0.014412447 -0.02224148 0.014617085 -0.03429637 -0.08836094 -0.06756139
-0.07372485 0.022664493 0.070257835 -0.060046338 0.08315422 -0.0055138636 0.061710536 -0.05224209
-0.09429781 0.028639127 0.040934607 0.055290975 0.038856298 -0.074064575 -0.041607738 0.044923004
-0.06257727 0.07761535 -0.019275732 -0.07692197 -0.10450291 0.030540554 -0.056425005 -0.070983455
-0.010413444 -0.031231903 0.011963415 0.036225732 -0.013704811 -0.045560256 0.08415722 0.0034681773
0.06784364 -0.054838892 -0.0079655 -0.0096967 0.052536707 0.0044196756 0.028742746 0.078313075
-0.03130415 0.087989494 -0.0051274807 -0.07976264 -0.059839044 -0.056116708 -0.024582122 -0.022997968
0.106598355 -0.035835687 0.06435542 0.060864374 -0.016656527 0.10755659 -0.07142526 -0.081717566
-0.07434312 0.009060809 0.05354806 -0.059308067 0.019727405 -0.005106433 -0.086699605 0.046320077
0.008978905 -0.0039567966 -0.016447201 0.011962897 0.05601036 -0.052394222 0.021455832 -0.07817167
0.0046168678 -0.08617046 -0.06096291 -0.076579124 0.049809176 -0.030507352 0.04970032 -0.013823451
-0.076754205 -0.03661232 -0.029629558 -0.0036195426 0.0017898045 -0.048898224 0.04965161 0.0875432
0.051298063 -0.07451219 0.030536206 0.039623 -0.036957942 0.008384148 -0.01259889 -0.05162471
-0.039433993 -0.15647273 -0.022419624 0.1632913 0.13130061 0.008535817 0.14924736 -0.016768882
0.06377036 0.18478654 0.085731424 0.051074836 0.07021179 0.12706324 0.027436357 0.041979507
-0.013978111 -0.02304509 0.06384065 -0.017131792 -0.0073658163 -0.13073525 -0.09795058 -0.030487906
0.060841724 -0.06595141 -0.0689462 -0.02634775 0.050551947 -0.05869952 0.0086813485 -0.0063424637
0.052270222 0.034863155 -0.050669655 0.04653968 -0.07240777 -0.05802484 -0.037513908 -0.025355045
-0.07245624 -0.07333134 -0.0027143587 0.022624722 0.11465564 0.029419752 0.05310233 0.06449896
0.0250153 0.043172687 -0.08161906 -0.043411467 -0.06878238 -0.011844522 -0.032007627 0.08577881
-0.07282186 -0.07078007 0.0638983 -0.031065594 -0.08686543 0.014420824 -0.07903613 -0.056128193
-0.014073918 -0.025653841 0.066502765 0.029564701 0.026656795 -0.06731435 -0.065848984 0.010342168
0.017048217 0.046845563 -0.016784187 -0.03547453 -0.10727909 0.043743607 0.028799824 0.029598402
-0.0037947583 0.0670526 0.086089 -0.0655174 0.04772209 0.075619176 0.08202032 0.054922115
0.046931155 -0.08876622 -0.010274343 -0.077823 -0.0808004 0.009954123 0.099016525 0.027037892
0.12696272 0.05381574 -0.002999209 -0.022505106 0.022403765 -0.02525507 -0.078559406 -0.024306804

features.5.bias f4 [16]
00000000: 7072 4bbd 1c0c 73bc b470 81bb 5670 7f3b
00000010: 67b6 c1bd 88e6 fbbc 060a 613c 7c50 6cbb
00000020: 4865 a8bc 775e 9ebd 6d82 67bd 4928 99bd
00000030: 62e6 0cbc 9656 88bd db7f 96bc 9260 3ebc
-0.049669683 -0.01483443 -0.003950203 0.003897687 -0.094586186 -0.030749574 0.0137353 -0.0036058715
-0.020556107 -0.077328615 -0.056520868 -0.07478387 -0.008599849 -0.0665714 -0.018371513 -0.011619704

features.7.weight f4 [16, 16, 5, 5]
00000000: a97a 82bc 6a4e e4bd f754 d2bd 63b9 9d3c
00000010: 7f20 08be 869f 5abd eaa8 8fbd 402f b5bd
00000020: 5957 dfbd 48f7 25bd 0be7 953d acb4 ea3c
00000030: a121 0b3d 2992 113d 54d3 b73c 7abf ee3c
00000040: 995a d53c 0762 b2bd 91f1 cd3d db26 cabc
00000050: 76a9 653d 4f20 eb3c 9115 e4bd 79c4 233d
00000060: 5b3c 2d3d d536 0dbd 6941 18bd 61a8 03bd
00000070: bf41 91bd 9f34 9c3d 1fe9 ebbc 6324 95bc
00000080: 0eba e7bc eaa3 93bd ca3c 293d 74f9 07bd
00000090: 2326 50bd d5e4 babd 0175 87bd 7fa1 7ebd
000000a0: ac7f 39bd f933 51bc 55d0 343d 0e01 a3bd
000000b0: 74ba 95bd 582c 49b8 7c10 51bd efbb abbd
000000c0: 894e 6abb f2ca 233d 97e2 59bb 4ab6 09bc
000000d0: 952a 553b a2bb e63c 11c9 bebd 102c 0c3c
000000e0: 655c 0fbd ecc2 de3d 2773 1abd e5c1 09be
000000f0: cae8 443d fe14 e6bc 1c6c 53bd 8622 6abd
00000100: 38ef c7bd 600b 4fbc 8184 27bc 347d a6bc
00000110: 74b4 16bd 5cfa 1fbe ade7 7dbd 68a7 923d
00000120: 00e9 2cbd 454d b8bd d147 25be 3cef dd3d
00000130: 88d1 173c 98d5 983d 178f 19bd 8ca1 2f3d
00000140: 2cc3 93bd 622a ab3d 421b 5f3d 8234 10bd
00000150: 2b1b 833b 28d9 3cbc 0029 4a3d 119d d0bc
00000160: abf8 b4bc e5b5 32bd 186f 5f3c 20e9 a2b9
00000170: 0546 b53d acfc 80bd 2eff fd3c c2f1 03bd
00000180: f658 143d 9f2a dabb aebc 16bd f56c 8abd
00000190: 0681 eebd c6b3 a1bc d682 2fbd 3b56 803d
000001a0: c4e1 0a3d 588c 91bd 29a2 16be c94a 7fbd
000001b0: b51f 5c3d efba 9a3c bfce 58bd 1c9f c0bd
000001c0: 21e2 a6bd 7b18 10bd 6701 e4bc 3211 b8bd
000001d0: 1d21 aebd ec75 3a3d d06a efbc 04cd 543d
000001e0: 9651 01be 0656 48bd 18ab b8bc b2c2 c23c
000001f0: cf00 bf3d d0de 18be ef5a 883c 9928 a9bc
00000200: 4ed8 32bb bdc8 67bb aab4 01bd 0959 623b
00000210: 66dd 383d 8e83 8fbd 5ab9 52bd aa5a b7bd
00000220: c587 a13c ea43 74bd 17f9 d838 32fd 94bd
00000230: a390 9e3c a579 ffba 8781 54bd 0d5e 55bc
00000240: 685f 94bd c927 15bd fd36 f0bd 94b1 123b
00000250: b4ec 75bd 0731 09be 1f9c 073d aa1f b6bd
00000260: f7dc 3bbd fc5d 1f3d acb7 fc3d 5736 053e
00000270: af1f e2bc eee5 d73d b6b8 bd3c e492 603c
00000280: eaea 2fbd 7949 d3bd 0e12 5a3d c991 76bd
00000290: 91fc a6bd 1ca5 cf3d 3616 70bd c696 853d
000002a0: 2553 8abd 27dc 573c 3f00 123e 6f96 0bbe
000002b0: 651c da3d 3016 763d 8b48 05bd 3e3c cd3d
000002c0: 6f84 e5bc d740 5abd a971 c2bd a1d0 03bd
000002d0: 02c9 4b3c ec6e a53d 7679 8cbd 7529 2fbe
000002e0: 5973 a6bd 2025 f33b dff8 0abd cd51 96bd
000002f0: a9f0 0fbe 90ff 55bd 3462 133d 3ce5 843d
00000300: 3ebd 46bd 898a b9bd e23d 64bd 635e 60ba
00000310: 13b7 9d3d 71ce a53d 16a3 d1bc 7d06 a6bd
00000320: 2f33 013d 9869 e63d 662b 973c 1ebc 17be
00000330: 3199 b5bd 00a3 cd3d a481 603d a56b 623d
00000340: 67d8 97bd 122e 52be cb9a 053e 3070 e63d
00000350: f4b4 a2bd 3335 ac3a e217 04be 2e9a 163e
00000360: 92f9 033b 206c 823c e881 cbbd 47bd 1cbe
00000370: 5dba 2f3e 8173 d53d 5950 b93a 2e48 edbd
00000380: 0ee8 68bc 585c d23c d170 bd3d 0795 8c3d
00000390: f0e5 093e 4d92 733d 5576 ab3d 8312 ea3c
000003a0: 1748 8d3d e612 9d3b 1090 003d 29b9 08bd
000003b0: 79be 4fbd 00ff 87bd e421 55bd f7e3 8f3c
000003c0: a404 b83c 9a74 a4bd 58a8 543c 3d62 7ebc
000003d0: f054 e2b9 e0e0 90bc 0664 973d 608f 623c
000003e0: be24 19bd 9b76 cd3d 5acf afbd d174 343c
000003f0: 2ca4 463d fcf2 153d c0f8 d23c e6c3 89bc
-0.01592763 -0.11147769 -0.10270112 0.019253438 -0.13293646 -0.05337479 -0.0701464 -0.08846903
-0.10905332 -0.04051903 0.073194586 0.028650604 0.033967618 0.03553978 0.022439636 0.029144038
0.026044177 -0.087101035 0.10055841 -0.02467673 0.056069814 0.02870193 -0.11136926 0.039982293
0.042293888 -0.03447612 -0.037171755 -0.032143 -0.07092618 0.07627224 -0.028797684 -0.018205827
-0.02828696 -0.072089985 0.04131774 -0.03319688 -0.05081762 -0.091256775 -0.066141136 -0.062165733
-0.045287773 -0.012768739 0.044143993 -0.079591855 -0.07310954 -4.7963433e-05 -0.05104111 -0.08385455
-0.0035752377 0.039988466 -0.003324663 -0.0084052775 0.0032526602 0.028165642 -0.09315694 0.008555427
-0.035000224 0.10877022 -0.037707474 -0.13452871 0.048073567 -0.028086182 -0.051616773 -0.05716183
-0.09762424 -0.012636989 -0.0102244625 -0.020323373 -0.036793187 -0.15622848 -0.06198852 0.071608365
-0.042214394 -0.08999113 -0.16140677 0.10836646 0.009266265 0.07462615 -0.037489977 0.042878672
-0.072149605 0.08357693 0.054469354 -0.035206325 0.0040010414 -0.011526383 0.049355507 -0.02546552
-0.02209123 -0.0436305 0.013637327 -0.0003107274 0.08851246 -0.06298193 0.031005468 -0.03221298
0.036217652 -0.006657913 -0.036801033 -0.06759063 -0.11645703 -0.019739043 -0.042849384 0.06266447
0.033906713 -0.071068466 -0.14710297 -0.06232718 0.053741176 0.018887965 -0.052931543 -0.09405348
-0.081485994 -0.035179596 -0.0278327 -0.08987655 -0.085024096 0.045522615 -0.029225737 0.05195333
-0.12628779 -0.048910163 -0.022542521 0.023774479 0.09326326 -0.14928746 0.016644923 -0.020649241
-0.0027289572 -0.0035367452 -0.031666435 0.0034537932 0.045133017 -0.07007514 -0.051446296 -0.0895284
0.01971806 -0.05963508 0.00010346079 -0.07274856 0.019356078 -0.0019491209 -0.05188134 -0.013022912
-0.0724476 -0.036414895 -0.11729238 0.0022383677 -0.06004019 -0.13397609 0.033107873 -0.08892758
-0.045865025 0.03890799 0.1233972 0.1300901 -0.027602999 0.105419025 0.023159366 0.013706896
-0.04294864 -0.10316748 0.053239875 -0.060197625 -0.08153642 0.10138914 -0.058614932 0.065228984
-0.0675414 0.013175047 0.14257906 -0.13631605 0.10649947 0.060079753 -0.032539885 0.10021256
-0.02801725 -0.053284492 -0.09494335 -0.032181386 0.012438061 0.08077797 -0.06859104 -0.17105658
-0.081274696 0.007420197 -0.03392875 -0.07339821 -0.14056648 -0.052245677 0.035982326 0.064890355
-0.04852032 -0.090596266 -0.05572308 -0.00085589866 0.07700934 0.08096016 -0.02559046 -0.08106706
0.031542953 0.11250609 0.018453311 -0.14817855 -0.088671096 0.100408554 0.054811135 0.05527844
-0.07414322 -0.20525387 0.1304733 0.11251867 -0.0794467 0.0013138413 -0.12899736 0.14707252
0.002013777 0.015920699 -0.09936887 -0.15306579 0.17160936 0.10422421 0.0014138325 -0.11586033
-0.014215482 0.025678799 0.09250034 0.06864362 0.1346662 0.059465695 0.083721794 0.02857328
0.06898516 0.0047935126 0.03138739 -0.033379707 -0.05071876 -0.06640434 -0.052034274 0.017564757
0.02246315 -0.080300525 0.012979589 -0.0155263515 -0.00043169362 -0.017685354 0.07392125 0.013828129
-0.037388556 0.10032388 -0.08584471 0.011014179 0.04849641 0.03660868 0.025753379 -0.016817044

features.7.bias f4 [16]
00000000: c43b 69bd 1cf0 c0bb dc7b 883c 69ec 78bd
00000010: 4da3 83bd 1c69 743d 1a79 9c3c 1ec6 933c
00000020: d5d1 04bd ba6b bebc 63ab f53b fe11 a63a
00000030: a73f 29bd 1ebd 3dbd 951e e03a f61b 063a
-0.056941763 -0.0058879983 0.016660623 -0.060772333 -0.064276315 0.059670553 0.019100714 0.018038806
-0.032426674 -0.023244727 0.0074972375 0.0012670157 -0.04132047 -0.046322934 0.0017098958 0.0005115861

features.10.weight f4 [32, 16, 5, 5]
00000000: b26d 083e 86ff 8d3e 2a9f 01be 0550 9dbd
00000010: 4305 aabd 1b25 ee3c 75fa 713e bb1f 38be
00000020: fe8c 9abd beed 5a39 5855 0e3d a4e8 ff3d
00000030: fac9 d3bd 50f2 1dbe 10fc 9cbd 0b62 323e
00000040: 3c2b 2c3e 5f27 3cbe b218 47be d234 eebd
00000050: 08ed 583e a097 8c3e f674 3ebe e903 66be
00000060: 8a75 6abd d62c 19bd a6e3 213d fdb4 793d
00000070: 5ca7 b7bc 373a 153b 63a7 f7bc 3828 8ebd
00000080: d55f 48bd b2da 3dbd b82e 9abd c6e3 08bd
00000090: 0d31 edba e95b 87bc e2ca 9dbc 530e 38bd
000000a0: 1dad 75bd e74b 09bd ef28 86bd 0c33 8abd
000000b0: e7da 49bd e2d4 21bd 7d63 c2bc 6fb8 023d
000000c0: 76fe bebd dc35 bcbd 1201 263c 98be a0bd
000000d0: 8b77 a0bc 0edf fa3b 94ac cf3b fb8f 273d
000000e0: 49a6 8e3d 09b0 56bc f97a 693c b752 edbd
000000f0: 0e0d fe3d bee1 953d 4acd f7bb ccd9 39bc
00000100: 9047 c6bd fd49 f03d f917 bb3d e1cd 4b3d
00000110: 30f3 4abd d198 f9bd bd5f a33d 9129 ebbc
00000120: 658a a7bd 5419 9ebc 316e 37bd 84c0 35bc
00000130: 550b 55bb 36e0 913d c6ea 95bc a29e fabc
00000140: f9b8 5e3d acd4 29bc 4d88 5cbc 9f6c 143d
00000150: a240 17bc 77e8 49bd 5452 0f3d 33ed ff3c
00000160: b1c9 933d 4403 383d 1d08 d9bc 45d1 7bbc
00000170: 24fc 2dbd fc40 2bbc a3f1 c03c 727d 7a3c
00000180: 8e6a d83c df2b 42bd 2432 413d 061c dbbc
00000190: 52c0 083b 2557 59bd 8a63 c53c c546 42bc
000001a0: 13df a23c fda7 093d 534e 6dba 0343 73bd
000001b0: 072c 6f3d b803 8a3d 92a4 5bbd 8c2f d3bc
000001c0: 530f 083d 978e ad3c 8d10 663d b421 3abd
000001d0: bd2e fdbc f96b 5a3d 455e e63c 3787 1c3c
000001e0: 1207 893d 43c2 303d be53 ccbb 36ef 563d
000001f0: ecb0 c6bc 48a0 cf3d 4821 1abc 5842 a4bd
00000200: 3511 c1bd 99e4 623b ac3a 6c3d 9f94 1c3b
00000210: f18f fe3b 5b21 9fbd f2d5 2dbd 853b 063e
00000220: edc9 a4bc b9f5 02bd 4bfd 86bc 8a75 02bd
00000230: 51b3 b73d 8eb6 d83c c95b 26ba dccd c0bc
00000240: 935f 66bd 33e6 d53d 9804 a9bc edff a1bd
00000250: 4f4b 89bc 4a75 94bc db4b 2f3d 942d 7cbd
00000260: 7062 88bc 0c47 adbd b6be 51bc a590 3b3d
00000270: c4c1 1dbc 8e3f 1bbc ed1e 15bd 7ffe 2abd
00000280: 644d 863d 5e2a ab3d a7a0 a8bd 517a 30bc
00000290: f4fb f6bc db7e 93bb bd5c bd3c 7b5e 18bc
000002a0: be27 81bc 97d0 01bd 2543 6cbc 3ccc 613d
000002b0: 6ff3 79bc 3451 63bd 2f4d 9cbb 56bf 9f3d
000002c0: 198c bb3d 168f 423d 38bb d93d d059 c23d
000002d0: 66fb 873d d94e 813d 33ca 0bbd 4b4f 163d
000002e0: 80c4 62bc 5c6c 6a3d 02ee e83c 65b0 8b3c
000002f0: 1944 9f3d 0f2c 953d 745d 4fbd 1e4e 783b
00000300: df44 fe3c 8cf4 2fbd 10a0 16bc 24b7 ffbc
00000310: 730a 4c3d d9a2 a4bd 8577 053d bc06 cb3c
00000320: 5894 6abe 088d 67bd 9326 603d 2fdd 813e
00000330: 0503 4c3d af79 06be a5af 70bd 2623 0f3d
00000340: 588d 003e 841c 523d 425b f4bd 7d14 f3bc
00000350: b1ec de3d 53e0 103e 1ace 853d 7942 15be
00000360: 1715 5e3c db14 ac3c ec6e 3b3d 69ff 613a
00000370: 0f35 8fbd 6da6 723b eaf3 c13c 44ca 013e
00000380: c216 453d 4e40 1d3c ff0d 303c 9700 92bd
00000390: d98b a83b 8391 fe3c f7f9 443d 827e e7bb
000003a0: 2474 173d c75b 9cbc b2b6 863c bc3d 793d
000003b0: c56e 4d3d 04fc 5d3d eb38 acbc ae90 073d
000003c0: 76c4 6abd 3fba 343d 0757 5d3b 74a9 0a3d
000003d0: 4d6a a9bd a9b1 13bd d452 d6bc acf6 69bd
000003e0: 552c 913c fa71 1a3c 652b 3ebd d5ba 6bbd
000003f0: 006c 133d 900c 253d b8d0 233e 53fd a63c
0.13323095 0.2773401 -0.12658373 -0.07681278 -0.08301785 0.029070428 0.23630698 -0.17980854
-0.075464234 0.00020878666 0.03474936 0.124955446 -0.10341258 -0.15424466 -0.076652646 0.17420213
0.16813368 -0.18374394 -0.19443014 -0.116311684 0.2118417 0.2745943 -0.18599305 -0.22462429
-0.057241 -0.037396275 0.039523743 0.06096362 -0.02241867 0.0022770294 -0.030231183 -0.06941265
-0.048919518 -0.046351142 -0.07528442 -0.033420347 -0.0018096283 -0.016523318 -0.019261781 -0.044935536
-0.059979547 -0.03351965 -0.06550776 -0.06748018 -0.049281027 -0.03950966 -0.02372908 0.03191417
-0.09325878 -0.0918996 0.010132091 -0.07848853 -0.019588253 0.0076559847 0.0063377116 0.040908795
0.0696531 -0.0131034935 0.01425051 -0.11588042 0.12404834 0.073184475 -0.007562314 -0.011343431
-0.09681618 0.11732862 0.09135432 0.04975689 -0.049548328 -0.121873505 0.07977245 -0.028706344
-0.081806935 -0.019299187 -0.04478282 -0.011093263 -0.0032507975 0.07122843 -0.018300425 -0.03059322
0.054375622 -0.010365646 -0.013460231 0.0362364 -0.009231718 -0.04929396 0.034990624 0.031241035
0.07216204 0.04492499 -0.026493127 -0.015369718 -0.04247679 -0.010452505 0.023552721 0.015288698
0.026417997 -0.04740512 0.04716696 -0.026746761 0.0020866585 -0.053061623 0.024095315 -0.011857693
0.01988176 0.03360747 -0.0009052504 -0.05939008 0.058391597 0.067389905 -0.053623743 -0.025779508
0.03321774 0.021186156 0.056168128 -0.045442298 -0.030906076 0.053325627 0.028121123 0.009553722
0.06690802 0.043154012 -0.006235569 0.052474223 -0.024254285 0.10137993 -0.009407349 -0.080204666
-0.0942711 0.0034621118 0.05767314 0.0023892296 0.007768624 -0.07770034 -0.042440362 0.13108642
-0.020115817 -0.03197262 -0.016478201 -0.031850375 0.08969749 0.026454236 -0.00063460745 -0.023535661
-0.05624349 0.10444298 -0.020632073 -0.07910142 -0.016759543 -0.018122334 0.04279695 -0.061566904
-0.016648501 -0.08460817 -0.012801817 0.04579224 -0.009628717 -0.009475602 -0.036406446 -0.041746613
0.0655773 0.0835769 -0.08233767 -0.01077135 -0.030149437 -0.0045012063 0.02311551 -0.00929987
-0.01576602 -0.031693067 -0.014420305 0.055126414 -0.015255793 -0.055497363 -0.004769943 0.07800166
0.09157581 0.04749974 0.10631412 0.094897866 0.06639747 0.06313867 -0.03412838 0.036696713
-0.013840795 0.057232246 0.028433803 0.017051885 0.077766605 0.07283794 -0.050626233 0.0037888358
0.0310387 -0.042957827 -0.009193435 -0.031215258 0.049814653 -0.08038873 0.032584686 0.024783485
-0.22908151 -0.056530982 0.054724287 0.25364062 0.049807567 -0.13132356 -0.058761258 0.03494563
0.12553918 0.051296726 -0.119314685 -0.029672856 0.10884989 0.14148073 0.065334514 -0.14576139
0.013554833 0.021006038 0.04576008 0.0008621128 -0.06992542 0.0037025467 0.023675878 0.12674814
0.048117407 0.009597851 0.010745524 -0.07129019 0.0051436243 0.031075245 0.048089948 -0.0070646415
0.036975995 -0.019086732 0.016444538 0.06084989 0.050154466 0.05419542 -0.021023234 0.03309696
-0.057316266 0.04412293 0.0033773796 0.03385301 -0.082722284 -0.0360581 -0.026162542 -0.05712001
0.017721334 0.009426588 -0.046428103 -0.057551224 0.03599167 0.040295184 0.15997589 0.020384466

features.10.bias f4 [32]
00000000: 4a64 83bb e082 44bd 636d 013d a392 403d
00000010: c497 9ebd c4ec 643c db01 5f3d 08eb 8c3d
00000020: b059 95bd e2e9 643c 5006 823b 998c 3dbd
00000030: de3a 103d bee1 cbba 36e2 853d 72aa 453d
00000040: ef01 973c a329 3ebc 3961 0ebd d790 2b3d
00000050: 35b7 23bd b960 193d ffc6 63bd f96a c2bd
00000060: 952a e83c 66a9 9f3c ceae b63b db79 f9bc
00000070: 3998 dcba 1cd6 433d 4077 17bd dead 903b
-0.004009758 -0.047976375 0.03159846 0.047014844 -0.07743791 0.013972465 0.05444513 0.06880766
-0.07292497 0.013971778 0.0039680377 -0.046276662 0.03521239 -0.0015554947 0.06537287 0.048258252
0.01843354 -0.011606607 -0.034760688 0.041886177 -0.03996964 0.037445758 -0.0556097 -0.0949306
0.028340617 0.019489955 0.0055750376 -0.030453613 -0.0016830034 0.047811612 -0.03697896 0.004415258

features.12.weight f4 [32, 32, 5, 5]
00000000: 7063 64bd 06ef 13bd 7498 603d df2c d73c
00000010: e808 e6bc 4293 debd 9d65 f43c a36d 813b
00000020: 4283 183e 2aeb 8fbc 03f5 bbbd 507b 9bbc
00000030: e912 963d 5193 3b3e cd95 c73d 19d7 c8bd
00000040: 0d78 8dbd 933f 283c e5f4 753d f65f 89bc
00000050: 8660 82bc 6aa1 673a bf4f 3a3d dd91 75bc
00000060: 8ba2 b0bc a46b 25be 10aa b5bd bc91 33be
00000070: b84d 95be 2c24 65be faea 8abe 286f 41be
00000080: 9bfb d8bd 805f 71be c468 69be 4c15 86be
00000090: 871c 89be 669b 5fbe 5439 d9bd e21f b8bd
000000a0: 57ff 793d da3c b5bd 849d 48be 7a2f 333c
000000b0: 32ca 023d 8fc2 8fbc 32cd 26bc 9d9a 49bd
000000c0: 4db6 bb3d b3b8 af3c 3c6f 4d3d 5818 823d
000000d0: fe2a 3c3d 9511 b23c 5122 593d 93eb 983d
000000e0: 896e ac3d f56e 5fbd 7b8b a4bd 3405 d43c
000000f0: ec2c f23d 12ac d83d c8ad 16be 06e1 0cbd
00000100: 6028 443d 966b e13d 2b47 8cbd cb75 f0bd
00000110: cd24 adbd baab 7b3d 7331 633d 84e1 c0bd
00000120: 99c8 0bbd b290 ffbb 9324 823c cb8d 08bd
00000130: 6559 b0bd 07b5 42bb 57ed abbd f188 193d
00000140: 4c3e 183d eb16 76bd 780e 4bbc 8435 84bd
00000150: dce0 63bd 9858 823d af4a 8abd 808e 16bd
00000160: 68b0 52bc 833e 1abd e2a1 843c 16e9 a7bb
00000170: 34b2 073e 27e7 003d 30bd 073d c5cb de3c
00000180: 13de 093e 1263 fa3d f233 443d c26a 803d
00000190: 1bc2 05bc e59a 3c3d 5e28 09bc 3423 6d3d
000001a0: 6bf5 64bc c4db 41bd 0f35 c4bc 4480 9abc
000001b0: e422 b5bd e654 4bbd 4c5f 1cbb 26c6 dabc
000001c0: 6386 e6bc fa1e 583b d05e 5abc e22f d9bc
000001d0: fd70 e83c bb98 863d 8d0c ea3c 2a1c f03c
000001e0: e1bf 4fbd 2a77 b6bc dcea 0abd 9318 c73c
000001f0: 5f2c 5d3d e4c4 b3bd 6796 3d3d 3ec4 893d
00000200: 63fe 553d 925a 593b dcb0 eebd e2dc cabd
00000210: 58f7 853c b592 d03d 2ab5 443d 3437 11be
00000220: a617 96bd a0a6 573d d3da b93d eb5d 953d
00000230: 073d 19bd ef48 afbc 9b81 dc3d cabd a73d
00000240: 69ab 193d ddaf 09be 4f11 31bd f7a4 1d3d
00000250: abb7 6b3d 386b 463d a1d7 6c3d 1fab a13c
00000260: 0e6f 133e cd82 363d a54e e03d df6b 983d
00000270: f18c 06bc cdc1 aa3d dcee 81bc 3ef9 f13d
00000280: 21ee cb3d 897f 26b9 d51d 473d 8e20 bc3c
00000290: c1e8 853d a442 3a3d 8198 79bc bcf9 993d
000002a0: a733 383d 1a18 8cba 79ea a63c 73cc 823c
000002b0: 1a7d c23d db9d 70bc 2ca6 dd3d 4c68 293d
000002c0: c7fb 50bc ce51 913c 1865 9d3d 9f8d 2ebb
000002d0: a527 e2bb 922a 05bd 7631 adbc 15d0 46bd
000002e0: ee4c 0cbd b4d0 a9bc 6fac 5e3d bd53 bc3d
000002f0: 9f8a 203d 1bfc 0b3c 7795 e93c 1d2a d2bb
00000300: 7fe2 5d3b b278 243c b0a6 60bc 6e61 063d
00000310: fa5e 07bc e973 b2bc c781 45bc 7069 833d
00000320: 1d54 88bc 1dcd 56be a878 fbbd 96fb 9fbd
00000330: a381 fcbd 4548 ccbd a2a4 b2be 8dd6 8bbe
00000340: d8b9 683c cd90 bebd 768c 8ebe 9f14 38be
00000350: a140 34be c45b 9fbd a21a 95bd d1be 1dbc
00000360: a53f f93c edd5 3f3d 924d d4bd e187 863c
00000370: 22a3 053d 975f 5c3d 26fb 363e 3f57 ac3b
00000380: ea7f 553e 145d cfbc 68cb c23c 88cd 323d
00000390: 2664 92bd 2cd4 843b 9c64 09bd 7f66 dd3c
000003a0: 7464 a73d f2ed 79bc c0e7 3b3a 910c 95bd
000003b0: 8f4f 9a3c 0a54 573b 30a8 14bb 1a4f 103d
000003c0: 92fe 49bd b519 5fba 5f67 003d a540 b83d
000003d0: 5d0a f2bc 01f8 9bbd 1e83 31bd be8a a93d
000003e0: 9255 0b3d a195 be3c 3c86 08bc 8e3d 053d
000003f0: fe04 373c b226 8b3d 9289 12bc db23 423c
-0.055758893 -0.036116622 0.05483289 0.026266513 -0.028080419 -0.10867931 0.02983361 0.0039498373
0.14893821 -0.01756819 -0.09177592 -0.018979698 0.073278256 0.18317915 0.09745369 -0.098066516
-0.069076635 0.0102690635 0.060048003 -0.01676939 -0.015915167 0.0008836003 0.045486208 -0.01498839
-0.021561882 -0.16154343 -0.088703275 -0.17536062 -0.29160857 -0.2237708 -0.27132398 -0.18890059
-0.10594865 -0.23571587 -0.22793871 -0.26188123 -0.26779577 -0.21836624 -0.106066376 -0.08990456
0.061034527 -0.08849497 -0.19591337 0.010936612 0.03193111 -0.017548827 -0.010180758 -0.049219716
0.091656305 0.021450376 0.05015491 0.063522995 0.045939438 0.0217369 0.053011242 0.07466807
0.084195204 -0.054549176 -0.08034416 0.025881387 0.118249744 0.10579695 -0.1471473 -0.034394287
0.047890067 0.110068485 -0.06849512 -0.11741217 -0.08454285 0.061443068 0.05546708 -0.09418014
-0.03412685 -0.0077992314 0.01588658 -0.03333835 -0.08610801 -0.0029709951 -0.08394878 0.037484113
0.037168786 -0.06008045 -0.012393586 -0.0645552 -0.055634364 0.06364554 -0.06752526 -0.036756992
-0.012859441 -0.037657272 0.016190473 -0.0051242216 0.13251573 0.031470444 0.033139408 0.027196774
0.13463621 0.122259274 0.0479011 0.062703624 -0.008163954 0.046046156 -0.008371441 0.0578949
-0.013974528 -0.047328725 -0.023951082 -0.01885999 -0.088445455 -0.049641512 -0.0023860512 -0.026705813
-0.028140252 0.0032977448 -0.013328269 -0.02651209 0.02837419 0.065721 0.028570438 0.029310305
-0.0507201 -0.022273619 -0.033915386 0.02430371 0.053997394 -0.08777788 0.046286013 0.06726883
0.052244555 0.0033165556 -0.11654827 -0.09905411 0.016353294 0.10184232 0.048024334 -0.14181215
-0.07328729 0.05264914 0.090749405 0.07293304 -0.037411716 -0.021397082 0.10766908 0.08190496
0.037516985 -0.13445993 -0.043229397 0.0384874 0.057548206 0.048442096 0.057822827 0.019734917
0.14397833 0.044558335 0.109525 0.0744245 -0.008212314 0.08337746 -0.015860967 0.11815117
0.09957529 -0.00015878504 0.048612434 0.022964742 0.06538535 0.04547371 -0.015234114 0.07518336
0.044971135 -0.0010688335 0.020375477 0.01596663 0.094965175 -0.014686073 0.108227104 0.04135923
-0.012755341 0.017739203 0.07685298 -0.0026634706 -0.0069016987 -0.0325113 -0.021141749 -0.048538286
-0.034253053 -0.0207294 0.054363664 0.09195659 0.0391947 0.008543993 0.028513653 -0.0064137117
0.0033856926 0.010038542 -0.013711616 0.03280776 -0.00826239 -0.021783786 -0.012054867 0.06416595
-0.01664167 -0.20976682 -0.12278873 -0.07811658 -0.12329414 -0.09974722 -0.3489123 -0.27312127
0.014204465 -0.09304962 -0.27841538 -0.17976616 -0.17602779 -0.07781175 -0.072804704 -0.009628014
0.030425856 0.046834875 -0.10366358 0.016422214 0.03262628 0.0538021 0.17869243 0.005259424
0.20849577 -0.025312938 0.023778632 0.04365304 -0.07148008 0.004053613 -0.033543214 0.027026413
0.08173457 -0.0152544845 0.00071680173 -0.072777875 0.018836765 0.0032856488 -0.0022683255 0.035231687
-0.049315043 -0.00085106055 0.031348582 0.08996705 -0.029545957 -0.07615662 -0.043337934 0.08278416
0.034017153 0.023264708 -0.008332785 0.032529406 0.011170624 0.0679449 -0.008943932 0.011849369

features.12.bias f4 [32]
00000000: 6090 37bc 4bc9 3f3d 5642 82bc e512 f13c
00000010: 9600 0d3c 4a65 a23c 8585 cbbc 3313 29bd
00000020: 5e5f 4e3d c450 58bd 6f92 d83d af9b 603d
00000030: ccf9 593d 4cbb 253d 81b2 6dbc 7947 193d
00000040: bdc9 543d f3b6 073e e99a f33d 7c99 883c
00000050: f0bf cbbc 10c1 903d c83e 68bd 1509 993c
00000060: 6544 823d d53e a6bc d507 0dbd 057c 51bd
00000070: a4db 133d 3631 873c 3b6c a33d 920f 4fb8
-0.011203855 0.046822827 -0.015900772 0.029427955 0.008606097 0.019823689 -0.02484394 -0.041278075
0.050383918 -0.0528114 0.10574805 0.05483597 0.05321674 0.040461823 -0.014507891 0.037421677
0.051950205 0.13253383 0.11894781 0.01667475 -0.024871796 0.07068074 -0.056700498 0.018681088
0.063607015 -0.020293633 -0.034431297 -0.051143665 0.036098137 0.016502958 0.07979628 -4.9367147e-05

features.15.weight f4 [16, 32, 3, 3]
00000000: 6490 b43d 47e7 7fbd f22e 04bd 87b0 f03d
00000010: 898f fc3d b4aa 913c eb16 c43a 3f11 b7bc
00000020: 0e39 313d 1423 f33c 7f3a 39bd 815f d43c
00000030: 381f 273d 3394 a93d 80b4 9f3d 09b5 1cbd
00000040: 5125 b5bd f08f 97bc 6b5c 26bd 2e2b adbc
00000050: f909 7c3d 321e 2b3d f559 77bd c5c6 003d
00000060: df27 94bc 4239 0c3d 5971 d5ba 3f70 793d
00000070: 27d0 d9bb 476c d83d a0d4 05bc 0597 ecbc
00000080: 7177 01bd 4b3f 0a3d f8dc 0e3e d363 ee3d
00000090: a5e8 35bd 2224 81bc 78d3 cdbd e3f3 013d
000000a0: 7681 743d 5811 90bd 7218 90bc a982 b73d
000000b0: 18f8 81bd 280c 293e 4e7c 333c c528 093e
000000c0: 8bbf bb3d cb31 86bc 5594 083d 6ff3 bd3d
000000d0: 15ab e03d bb80 41bd c21c 0a3e 1019 b73d
000000e0: 287d 23bd 9384 833c 9a87 b1bb 9553 fb3d
000000f0: 5a2c e53d d51e 98bc ff1c 78bd faaa 15bd
00000100: e2d9 87bd 2a9a 6bbd 70a9 cebd 6d5a 00bd
00000110: e783 663d 13a5 64bc 6f59 003e 462c ec3d
00000120: f0fd d13d f117 34bd d437 59bd 1d40 9b3d
00000130: 1895 0dbd 4a33 9f3d 588c 393d 0315 333d
00000140: 5aa1 8abd 8d47 c13d 7b7f 1d39 aea8 8abd
00000150: 69f8 edbc fab1 abbc 3226 76bd 4779 b33d
00000160: 46d5 fa3d 32a1 05bc 4cdf 9a3d f5c9 92bc
00000170: ad04 d4bb f2bc 86bc 71ad 86bd d031 cebd
00000180: 2623 483d eca9 87bd e2b8 88bd a621 bb3d
00000190: a7cf 9e3c d921 86bd 565d 8d3d aceb 8ebd
000001a0: 3e70 0f3d 4e90 c33d 6077 153c 3119 ec3d
000001b0: 3350 fb3d a88a d43d 96f5 9d3d 674c 0f3e
000001c0: 2e75 19bc 521d 29bd aeab fb3d a384 b1bc
000001d0: 6983 dd3d 1560 5fbd eb5b 2a3c 8d78 fdbd
000001e0: f41d 633d c62c a7bd c276 5cbd 3ead 8bbc
000001f0: c880 f6bd dcfa e9bd d335 c23c 1d28 6e3a
00000200: 63c5 123d 248f 313c 664a 0c3e 98f0 d73d
00000210: ea9f d33d df86 0b3e 5ebf 0abd b17b 493d
00000220: 7217 8fbd eb5c ecbc 917c 643d cf21 723d
00000230: 0009 ecbd 7aef 403c cf68 d4bc 68e4 60bd
00000240: a5d3 e43d 6d63 dc3d 143f 8bbd 709a d83c
00000250: 638c 043e 81fe 763d a8ba 2bbd d15f 09bd
00000260: e9d6 3ebd 9b65 c23d a7d9 913c dcc1 e83b
00000270: 67b9 c83d 5461 9ebd dfdd b23d e353 863c
00000280: c97c 853d 3beb f1bc 7d9e eabd 5b1b 7f3c
00000290: 7a7b 14bd 2024 25bd ceb8 bcbd e6c2 903d
000002a0: b1fd 5e3b 6ed0 ca3d 88ba f23b 30c5 18be
000002b0: 8a28 04be e772 82bd a334 81bd 79d8 a23a
000002c0: 98c7 01be e8a6 54bd b315 15be 5f0a 19be
000002d0: 3352 bd3d 1d26 69bd 20b3 f73d e686 103e
000002e0: 8cf7 b23c d8e2 d23d ca4d 613d 5e71 483c
000002f0: 97a9 0a3d fbee 763d 0ea9 d4bd ce2c bfbc
00000300: 0d5b c1bd 287a 733d 49e5 9bbc 73ff bd3d
00000310: aab1 d03d af91 ba3d a529 c33d 802e c33d
00000320: 35e1 113d a309 253c 8067 a53c 1f2a aabd
00000330: 1db8 fcbc 9f4f f1bc 0be6 783d c480 cfbd
00000340: be81 be3c 4d3d 34bd ff37 20bd 3dd9 84bd
00000350: 1f06 bbbd c4b3 53bd 9889 92bd db87 0dbd
00000360: e185 83bc 663c 13bd acdf 0abd 992f b2bd
00000370: 58b5 113c 4dbb ffbd 81b0 b03d 56f5 5c3d
00000380: bc44 813d 5e4f 6f3d 3801 373d 899f a73d
00000390: cb87 3dbd cabe 3cbc e87a 90bd 592f f93d
000003a0: 5ed8 6d3d 918a 45bd b82a 1b3d eff5 a1bc
000003b0: 6090 933d b1dc 0a3e 202b d43d fee3 ca3d
000003c0: d57f ba3d 8136 143c 64d4 fe3d 47ea 033e
000003d0: fa4d d3bb f22c be3d 70d5 ba3d 5ee8 e43c
000003e0: 60b6 b7bc 4b4b c93d 1cd6 83bd d1cd 7bb9
000003f0: 908f 11bd b8d8 313a 25f6 afbc 0597 b5bd
0.08816603 -0.062476423 -0.032271333 0.1175242 0.12332065 0.017781593 0.0014960443 -0.02234709
0.043267302 0.029679812 -0.0452218 0.025924446 0.040801257 0.0828022 0.077980995 -0.038258586
-0.08845008 -0.018501252 -0.04061548 -0.021138754 0.06153295 0.041776843 -0.060388524 0.03143956
-0.018085418 0.034234293 -0.0016284391 0.06089806 -0.006647128 0.10567527 -0.0081683695 -0.028880605
-0.03160805 0.033751767 0.1395148 0.11640134 -0.04441132 -0.0157643 -0.100501 0.03172673
0.059693776 -0.07034558 -0.017589781 0.08960468 -0.06346148 0.16508543 0.0109549295 0.13394459
0.09167393 -0.016381165 0.033344585 0.09274947 0.10970131 -0.047241908 0.13487533 0.08940327
-0.03991428 0.016054427 -0.0054177763 0.122718014 0.111901 -0.01856939 -0.060574528 -0.03654001
-0.06633355 -0.05752007 -0.100909114 -0.031336237 0.056278136 -0.013955372 0.12534116 0.11531882
0.10253513 -0.043968145 -0.053031757 0.07580588 -0.034566015 0.077734545 0.045299858 0.04372121
-0.067690566 0.09437475 0.00015020177 -0.06770454 -0.029049115 -0.02095889 -0.06009502 0.08763366
0.1224771 -0.008156108 0.07562122 -0.017918566 -0.006470284 -0.016447518 -0.0657605 -0.10068095
0.048861645 -0.06624207 -0.066758886 0.09137277 0.019386126 -0.06549425 0.06902568 -0.069785446
0.035019152 0.09549008 0.0091226995 0.115282424 0.12271156 0.10378009 0.077128574 0.13993989
-0.009366317 -0.041287728 0.12288605 -0.021669691 0.1081608 -0.05453499 0.0103978915 -0.12376509
0.055448487 -0.08162837 -0.053824194 -0.017050382 -0.12036282 -0.11424801 0.023707306 0.0009084957
0.035832774 0.01083735 0.13700256 0.105439365 0.103332356 0.13625668 -0.03387391 0.049190227
-0.06986894 -0.0288529 0.05578286 0.059114274 -0.11525154 0.011775846 -0.025928883 -0.054905325
0.111731805 0.107611515 -0.067991406 0.026440829 0.12944178 0.060301308 -0.041926056 -0.033538643
-0.046591673 0.09492036 0.01780398 0.007103188 0.09800988 -0.077334076 0.08733725 0.016397422
0.065179415 -0.029531112 -0.114560105 0.015570487 -0.03625057 -0.040317655 -0.09214936 0.07068424
0.0034025724 0.09903036 0.00740749 -0.14918971 -0.1290609 -0.06369572 -0.06308868 0.0012424133
-0.12673795 -0.051916987 -0.14559059 -0.14945363 0.09244194 -0.056921113 0.12094712 0.1411396
0.021846555 0.10297173 0.055005826 0.01223406 0.03385314 0.060286503 -0.10383807 -0.023336794
-0.09441195 0.05944267 -0.01903023 0.09277239 0.10190137 0.09109818 0.095294274 0.095303535
0.035615165 0.010073098 0.020190954 -0.08308815 -0.03084951 -0.029456912 0.06076626 -0.10131982
0.023255225 -0.044003773 -0.039115902 -0.064867474 -0.09132027 -0.05168511 -0.0715515 -0.03455339
-0.01605505 -0.035946272 -0.033904716 -0.08700485 0.008893333 -0.12486897 0.086274154 0.053944908
0.06311938 0.0584253 0.044678897 0.08184726 -0.04627208 -0.011520097 -0.070546925 0.12167234
0.058067672 -0.04822785 0.037882537 -0.01977059 0.07205272 0.1356075 0.10359788 0.09906767
0.09106413 0.009046198 0.12442854 0.12882338 -0.0064485045 0.092859164 0.09122741 0.027942833
-0.02242583 0.09828814 -0.064373225 -0.00024013898 -0.035537302 0.0006784308 -0.021479676 -0.08866695

features.15.bias f4 [16]
00000000: a2ff e53d 1df7 bf3c d0c9 cf3d 2a53 a43d
00000010: 07f4 af3d 0a83 2abe dbc7 803d 56dd a23d
00000020: 7ef0 253e dc2c 9abd 3135 e33d b164 343e
00000030: 6620 073e afad c1bd 129d 3e3d 7c40 dd3c
0.11230399 0.023433262 0.101459146 0.08023675 0.085914664 -0.1665155 0.062881194 0.07952373
0.16205022 -0.075280875 0.1109413 0.17616536 0.13195953 -0.09456956 0.046536513 0.027008288
