output/models/220505_2203_ggcnn2_epoch_20_batch-per-epoch_100/epoch_05_iou_0.02_statedict.pt (torch, 274205 bytes, 20 tensors)

features.0.weight f4 [16, 1, 11, 11]
0	0x3c08ce34	0.008349944
1	0xbba151b2	-0.004923069
2	0xbd644c72	-0.055736966
3	0x3d3a29ad	0.0454499
4	0xbc6d4d01	-0.014483691
5	0x3c6bc40f	0.014390006
6	0xbd51e49e	-0.051243417
7	0xbd31cd5f	-0.043408748
8	0x3a98fb45	0.0011671564
9	0xbc450c2e	-0.01202683
10	0x3c5d132f	0.013493343
11	0xbd2cf752	-0.04222805
12	0xbb6b3445	-0.003588931
13	0xbd575d2a	-0.052579083
14	0xbd546213	-0.051851343
15	0xbd1dc35e	-0.038516395
16	0x3c4ab189	0.012371429
17	0x3cc30a70	0.023808688
18	0x3b1d29c4	0.0023981193
19	0xbaa28bf4	-0.0012401328
20	0xbcce02b3	-0.025147771
21	0x3c150229	0.009094753
22	0xbd394e35	-0.0452406
23	0xbc9dab93	-0.019246852
24	0x3c02ceb8	0.007983856
25	0xbbb74b6a	-0.005593707
26	0xbcfe2820	-0.031024992
27	0xbc943b52	-0.018094692
28	0x3d3e4614	0.04645355
29	0x3c22e92c	0.009943288
30	0xbd2d1408	-0.04225543
31	0xbd2ae537	-0.041722503
32	0xbcb84b1a	-0.022496749
33	0xbd467c20	-0.04845822
34	0xbd3d5820	-0.04622662
35	0x3d2dc493	0.042423796
36	0xbcb6042e	-0.02221879
37	0xbd56f00d	-0.052475024
38	0xbcd819c8	-0.026379481
39	0xbbe5791b	-0.0070029623
40	0xbcbc492d	-0.022984112
41	0x3d1f862d	0.03894632
42	0xbc9d6d73	-0.019217229
43	0xbd2712e2	-0.040789492
44	0xbcc3f22a	-0.023919184
45	0xbc4d1b97	-0.012518785
46	0xbcffd039	-0.031227218
47	0x3d1c7006	0.03819277
48	0xbd026a55	-0.031839687
49	0x3d346c31	0.044048492
50	0x3c8c469f	0.017123519
51	0xbd5ab67a	-0.05339668
52	0x3c6567aa	0.014001766
53	0x3c2d3b66	0.010573244
54	0x3d215211	0.039384905
55	0x3d257ba1	0.040401105
56	0xbd2bd174	-0.041947797
57	0x3c2dbe3a	0.010604436
58	0xbcfe72e1	-0.031060638
59	0x3d258b33	0.040415954
60	0x3b2a003d	0.0025940083
61	0xbc3b2e64	-0.011424635
62	0xbd3d1e55	-0.046171505
63	0x3d353677	0.044241395
64	0xbce873fe	-0.028375622
65	0x3b1806e8	0.0023197476
66	0xbcf1136d	-0.029428208
67	0x3d07bb17	0.033137407
68	0x3cf6ce77	0.030127747
69	0x3cc75b64	0.02433557
70	0xbd4ae7c6	-0.049537443
71	0xbc8e20d8	-0.017349645
72	0xbd37f8d0	-0.04491502
73	0x3bd067ff	0.0063600536
74	0xbd463f03	-0.048399936
75	0x3d2286f7	0.039679494
76	0xbd771ec3	-0.06033207
77	0xbd02ab23	-0.03190149
78	0xbd027c65	-0.031856913
79	0x3cd86d11	0.026419194
80	0xbc00a2aa	-0.007851282
81	0xbcb45b9a	-0.022016335
82	0xbce62c85	-0.0280974
83	0xbd6bd511	-0.057576243
84	0xbc220c0d	-0.009890568
85	0xbd3c4313	-0.045962404
86	0xbbf100ae	-0.0073548174
87	0xbd1b5ffb	-0.03793333
88	0x3c9dbc55	0.019254843
89	0xbd293263	-0.04130782
90	0x3d194862	0.037422545
91	0xbba31fc0	-0.00497815
92	0x3d18ef3a	0.03733752
93	0xbd3889e7	-0.04505339
94	0xbcc87102	-0.024467949
95	0x3b08361e	0.002078421
96	0x3ccf9074	0.025337435
97	0xbcb4a373	-0.022050595
98	0x3b07929c	0.0020686751
99	0xbd68a598	-0.056798548
100	0xbd274e97	-0.040846433
101	0xbd4f6064	-0.050629035
102	0xbd703d0b	-0.058651965
103	0xbd4b87c0	-0.04969001
104	0x3caa26d5	0.02077047
105	0xbce87137	-0.028374298
106	0x3cbd44f9	0.023104178
107	0xbc75bec6	-0.014999097
108	0xbd545e52	-0.051847763
109	0xbd0dab5f	-0.03458726
110	0xbca81a74	-0.020520426
111	0xbd633ade	-0.055476062
112	0xbd1682f6	-0.036745988
113	0x3cf2a403	0.029619223
114	0xbcc917df	-0.024547515
115	0xbc2c20fb	-0.01050591
116	0x3c821c90	0.01588276
117	0x3bc27e16	0.005935441
118	0x3c5450d0	0.01295872
119	0x3c9f28de	0.019428667
120	0xbd86776d	-0.065657474
121	0x3c39b74d	0.011335206
122	0x3d241ce8	0.04006663
123	0xbbf93035	-0.0076046237
124	0x3c58f12a	0.013241092
125	0xbbdd6efc	-0.006757615
126	0x3af9e8af	0.0019066537
127	0xb970c8f7	-0.00022963049
128	0x3c255ce4	0.010092948
129	0x3cd9fe3b	0.026610484
130	0xbb7fcab7	-0.003903074
131	0x3d4bcc62	0.04975546
132	0x3d573106	0.052536987
133	0x3d08d669	0.033407602
134	0x3b917285	0.0044387006
135	0x3d085f60	0.03329408
136	0x3cc395af	0.023875086
137	0x3d06a1d8	0.03286919
138	0x3d4a5317	0.049395647
139	0xbd15b224	-0.03654684
140	0xbd3f4ab4	-0.0467021
141	0x3d2dde74	0.042448476
142	0x3cf9d0b5	0.030495027
143	0x3d4d7e80	0.050169468
144	0xbbc171d0	-0.00590346
145	0x3cefe18b	0.029282352
146	0x3d249282	0.040178783
147	0xbcefef8c	-0.02928903
148	0x3d1a925f	0.037737247
149	0x3d2acb1f	0.041697618
150	0x3ccefeda	0.025268007
151	0x3c936e20	0.017996848
152	0x3d244331	0.04010314
153	0x3d53e8b7	0.051735606
154	0x3d49bd93	0.049253058
155	0xbca91156	-0.02063815
156	0x3cdd4e78	0.027014956
157	0x3d516e41	0.051130537
158	0x3c4ab4a8	0.012372173
159	0x3d6b53f6	0.05745312
160	0x3d2cfe9c	0.042235002
161	0xbcbdb72c	-0.023158632
162	0x3bf80612	0.007569083
163	0xbc9af62d	-0.018916214
164	0x3cd90dde	0.02649587
165	0xbc397c16	-0.011321088
166	0x3d099ad5	0.033594925
167	0xbca4deef	-0.020125834
168	0x3d31e219	0.043428514
169	0xbcc040da	-0.023468424
170	0x3a800865	0.0009768127
171	0x3c558188	0.013031371
172	0x3bc471ee	0.005995027
173	0xbd4250ef	-0.047440466
174	0x3cc1a2ed	0.02363726
175	0x3d274416	0.040836416
176	0xbd107308	-0.035265952
177	0x3d2c17ad	0.042014766
178	0xbcdff023	-0.027336186
179	0x3cb53024	0.022117682
180	0xbd23f2bd	-0.040026415
181	0xbd2dc2ca	-0.042422093
182	0xbce19e50	-0.02754131
183	0x3d5ff776	0.054679357
184	0x3d3d7c63	0.046261203
185	0x3b892a6d	0.0041859658
186	0xbc6363f2	-0.013878809
187	0xbcf9ecdf	-0.030508457
188	0xbc5017e8	-0.012701012
189	0xbcbd7ca6	-0.023130726
190	0x3d21f6a5	0.03954186
191	0x3bd6ffd1	0.0065612574
192	0xbccf1669	-0.02527924
193	0x3cc04056	0.023468178
194	0x3d499100	0.04921055
195	0xbba1cea7	-0.004937965
196	0xbd37cc9d	-0.04487287
197	0xbd23c317	-0.039980974
198	0xbd1e77a6	-0.038688324
199	0xbd3c492e	-0.045968227
200	0xbd3657eb	-0.04451744
201	0x3c82e4f9	0.015978323
202	0xbd16b5ae	-0.036794357
203	0x3cd29831	0.025707336
204	0x3c2bbb96	0.010481736
205	0x3d609d18	0.054837316
206	0xbb185102	-0.0023241644
207	0xbcc2f1d2	-0.02379695
208	0x3c91d414	0.017801322
209	0xbb8588ce	-0.0040751463
210	0x3b6bed7e	0.003599971
211	0xbd0ff668	-0.0351471
212	0xbcac9f7e	-0.021072146
213	0x3d658e29	0.056043778
214	0x3cf68158	0.030090973
215	0x3d373047	0.044723775
216	0x3d22bc5a	0.039730407
217	0x3ac44599	0.0014974355
218	0x3d148c13	0.036266398
219	0x3cd5f431	0.026117416
220	0x3baf9b2f	0.0053590755
221	0xbc739dc3	-0.014869156
222	0xbcda7d05	-0.026670942
223	0xbcaa1e20	-0.020766318
224	0x3cc91c31	0.024549576
225	0x3d16a637	0.03677961
226	0x3c941269	0.018075185
227	0x3b33f79c	0.002746082
228	0xbb31ff76	-0.0027160323
229	0xbd405798	-0.046958536
230	0xbc939a71	-0.01801798
231	0x3ce9ab67	0.028524114
232	0x3ce74051	0.02822891
233	0x3ae6710f	0.0017581302
234	0xbcf1b411	-0.029504808
235	0x3ca304bd	0.01989972
236	0x3ce62e55	0.028098265
237	0x3b39bdfc	0.0028342
238	0xbcf0bc30	-0.02938661
239	0xbd1a8ad0	-0.03773004
240	0xbd26cd13	-0.040722918
241	0x3cf7d7a6	0.030254196
242	0xbbb3de7e	-0.0054891696
243	0xba4b8eae	-0.00077650964
244	0x3d029272	0.031877942
245	0x3d0c2eb0	0.034224212
246	0xbc15b99b	-0.00913849
247	0xbcb8c9b0	-0.02255711
248	0x3c845a5b	0.016156366
249	0x3b610d9f	0.0034340394
250	0x3d00ab4d	0.031413365
251	0xbc8c31fd	-0.01711368
252	0xbd38bc1e	-0.045101278
253	0x3cefd8a0	0.0292781
254	0x3ca55e3e	0.02018654
255	0x3d4eba6f	0.050470766

features.0.bias f4 [16]
0	0xbd6bef3f	-0.05760121
1	0x3d8b334f	0.06796896
2	0x3d6c6fa6	0.057723664
3	0x3db9d4f0	0.09073818
4	0xbdaed153	-0.08536019
5	0xbd9a77e4	-0.075423986
6	0x39816b8d	0.0002468493
7	0xbd980a73	-0.07423868
8	0x3bbcb1c6	0.005758497
9	0xbd2585fc	-0.04041098
10	0xbd8188cb	-0.06324919
11	0x3d6b104e	0.057388596
12	0x3d031095	0.031998236
13	0xbcffdd8d	-0.031233573
14	0xbdb23910	-0.0870229
15	0xbd8497bd	-0.06474254

features.2.weight f4 [16, 16, 5, 5]
0	0x3c015bb9	0.007895404
1	0x3c8501ce	0.016236212
2	0x3da6bebc	0.081418484
3	0x3d205b66	0.039149664
4	0x3c69715f	0.014248221
5	0x3c9b57d1	0.018962773
6	0x3dae0e75	0.08498851
7	0x3c2db451	0.010602073
8	0x3c2b9bdd	0.010474172
9	0xbd3d29d7	-0.04618248
10	0x3dbcfd04	0.092279464
11	0x3c68962f	0.014195963
12	0x3d859fd1	0.06524623
13	0xbd9abdae	-0.0755571
14	0x3d478e63	0.048719775
15	0x3ce10b44	0.027471192
16	0xbc1052d7	-0.008808813
17	0x3c8f7344	0.017511018
18	0x3d41fa75	0.047357995
19	0xbd9741ec	-0.073856205
20	0xbd24db3e	-0.04024815
21	0xbd0d63e7	-0.034519102
22	0x3cf82bad	0.030294264
23	0xbd753b7d	-0.059871186
24	0xbcfbd256	-0.030739944
25	0x3d423307	0.047411945
26	0x3be9d313	0.0071357577
27	0xbd5321ed	-0.051546026
28	0xbbb39819	-0.005480778
29	0xbd69304f	-0.056930836
30	0xbc83ac6d	-0.01607343
31	0x3d87e0f7	0.066347055
32	0x3c8d0c47	0.017217768
33	0xbd6ba8a5	-0.05753388
34	0x3d679730	0.056540668
35	0xbd845ad7	-0.06462639
36	0x3d0cb7b9	0.0343549
37	0xbcf2ae68	-0.029624179
38	0xbc166987	-0.009180433
39	0xbd20d8b5	-0.039269168
40	0xbce448ad	-0.027866686
41	0x3d343710	0.043997824
42	0x3b09d683	0.00210324
43	0x3d4dbc4f	0.050228413
44	0xbd0fb6d4	-0.035086468
45	0x3d74b201	0.05974007
46	0x3d24c399	0.0402256
47	0xbb97cbee	-0.0046324646
48	0xbc1d767c	-0.009610768
49	0x3da233cb	0.07920035
50	0x3c31cbfa	0.010851854
51	0x3d3cd215	0.046098787
52	0xbd30f33a	-0.04320071
53	0x3d552deb	0.052045744
54	0xbbb5320b	-0.005529647
55	0x3cd07a21	0.02544886
56	0x3c97d72d	0.018535221
57	0x3d36eb9d	0.044658292
58	0x3d7711d9	0.060319755
59	0xbd1a904b	-0.037735265
60	0xbc7c6f0f	-0.015407338
61	0x3cbf06f4	0.023318745
62	0x3d35c0db	0.044373374
63	0xbd3c3c1c	-0.045955762
64	0xbd1c4c24	-0.03815855
65	0xbb4f7ec2	-0.0031661247
66	0xbb264aa6	-0.0025374084
67	0x3be21ef6	0.0069006635
68	0xbd536016	-0.051605307
69	0x3db6be82	0.08923055
70	0x3d7acf1c	0.06123267
71	0xbd903bb0	-0.070426345
72	0x3d5d83dc	0.05408083
73	0xbce6d8eb	-0.028179606
74	0x3b9cd211	0.004785784
75	0x3d02d0f1	0.031937543
76	0xbd41f5b1	-0.04735345
77	0xbc3585f6	-0.011079302
78	0xbd1cbe06	-0.038267158
79	0x3d16ca56	0.036814056
80	0x3c98f74a	0.018672604
81	0x3d1e3c38	0.038631648
82	0x3d6c2ff2	0.05766291
83	0xbd0bcbcf	-0.034129914
84	0x3c88c6d7	0.016696377
85	0xbc9e0fd0	-0.01929465
86	0x3d92cb2b	0.071676575
87	0xbc20d90a	-0.009817371
88	0xbd844cea	-0.06459983
89	0x3b6cfe8d	0.0036162466
90	0x3c343add	0.011000362
91	0x3d04310a	0.03227333
92	0x3c876259	0.016526388
93	0xbbcf492d	-0.006325862
94	0x3cc52e2b	0.024069866
95	0x3c0511b4	0.008121897
96	0x3d964be2	0.07338692
97	0xbd3f8162	-0.04675425
98	0x3dba382b	0.090927444
99	0x3c816848	0.015796795
100	0x3d107420	0.035266995
101	0x3d3c6388	0.045993358
102	0xbc36ec68	-0.011164762
103	0x3d1a9d36	0.037747584
104	0xbd15593f	-0.036462065
105	0x3d196b4a	0.037455834
106	0xbdae3ee2	-0.08508088
107	0xbd5df3a2	-0.054187424
108	0x3d510cd8	0.05103764
109	0xbc8252d8	-0.015908644
110	0x3d6de588	0.058080226
111	0x3d1b6620	0.03793919
112	0xbcdfb87e	-0.027309652
113	0x3d77141c	0.060321912
114	0xbd3b2d69	-0.045697603
115	0x3d9f1342	0.07767345
116	0xbd8d24e7	-0.06891804
117	0xbd5cd374	-0.053912595
118	0x3d1afe9e	0.037840478
119	0xbc8ef4c8	-0.017450705
120	0x3c92e868	0.017933086
121	0xbd7abb24	-0.061213627
122	0xbd7b6738	-0.061377734
123	0x3bba76d0	0.005690433
124	0x3d371e34	0.04470654
125	0xbd5b8f25	-0.05360331
126	0x3d687350	0.056750596
127	0xbbc36b8e	-0.0059637493
128	0x3d7a270f	0.061072405
129	0x3aee1fa2	0.0018167386
130	0x3cc96d37	0.02458821
131	0x3d6b689a	0.057472803
132	0x3d3be810	0.04587561
133	0xbce74171	-0.028229447
134	0x3d7c35b1	0.06157464
135	0x3b6dc40f	0.003628019
136	0xbdbb036a	-0.091315106
137	0xbd07da86	-0.033167385
138	0xbd865c05	-0.0656052
139	0x3c5b2494	0.01337542
140	0xbcad3c19	-0.02114682
141	0x3c101803	0.008794787
142	0x3c1d248a	0.009591231
143	0xbd80b0c2	-0.06283714
144	0xbd27bc7a	-0.04095123
145	0x3d86daf5	0.065847315
146	0xbdc52839	-0.096268125
147	0xbcb78e3c	-0.02240669
148	0x3d784657	0.060613956
149	0x3cdca3de	0.026933607
150	0xbda8f4b0	-0.082497954
151	0xbcfa0d85	-0.030524025
152	0xbc48d5f9	-0.012258046
153	0x3b2dea02	0.0026537185
154	0x3ba042ed	0.0048907907
155	0xbc8d12f2	-0.017220948
156	0xbccf0ef5	-0.025275687
157	0xbd5f813e	-0.054566614
158	0x3d8ad12c	0.067781776
159	0xbdbcf8d8	-0.09227151
160	0x3ca8d170	0.02060768
161	0xbc1287a8	-0.008943476
162	0x3ca0fcec	0.019651853
163	0x3da37eff	0.07983207
164	0x3cbcc4ed	0.02304312
165	0x3cff7468	0.031183437
166	0x3d89df17	0.06732004
167	0x399a5f64	0.0002944424
168	0xbd3f5882	-0.046715267
169	0xbd823ce7	-0.063592725
170	0xbd6c9887	-0.05776265
171	0xbd8fb543	-0.07016995
172	0x3ba10cc6	0.004914853
173	0x3d0fab43	0.035075437
174	0xbda6d67d	-0.08146379
175	0x3d0cf778	0.034415692
176	0x3c4482cb	0.011994074
177	0xbcbae91e	-0.022816237
178	0xbdb545ff	-0.08851241
179	0xbdc7d593	-0.09757533
180	0x3d48877b	0.04895733
181	0xbd80995b	-0.0627925
182	0x3d354767	0.044257548
183	0x3d815cca	0.06316526
184	0xbce445ed	-0.027865374
185	0x3c90d0b1	0.017677637
186	0x3d2ee8d3	0.042702507
187	0x3d67672b	0.056494873
188	0xbd75650f	-0.05991083
189	0x3d2790c2	0.040909536
190	0x3ca37e07	0.019957555
191	0x3d5c1b84	0.05373718
192	0xbd15cd5e	-0.036572807
193	0x3d952114	0.072817
194	0x3d600044	0.054687753
195	0xbd4a5ba6	-0.04940381
196	0xbdac80f8	-0.08423036
197	0xb99e19fa	-0.00030155462
198	0xbcebf466	-0.028803062
199	0x3d68b2d5	0.056811173
200	0xbd015bdd	-0.03158175
201	0xbd3c6495	-0.04599436
202	0xbadce194	-0.0016851895
203	0xbc478dc5	-0.012179797
204	0x3c8e4810	0.017368346
205	0xbd15ce40	-0.03657365
206	0xbd9fd286	-0.07803826
207	0x3c86da3a	0.01646148
208	0xbcd0dc18	-0.025495574
209	0x3d776e34	0.060407832
210	0xbd5af0da	-0.05345235
211	0x3da2be0b	0.07946404
212	0xbd44c198	-0.048036188
213	0xbcf9e7bf	-0.030506013
214	0xbc9c57cc	-0.019084834
215	0xbd91e5df	-0.071239226
216	0x3d8c84f0	0.06861293
217	0xbd964894	-0.07338062
218	0xbd84ea1e	-0.06489967
219	0xbae22b94	-0.0017255419
220	0xbc244d10	-0.010028139
221	0x3ce904af	0.028444616
222	0x3c17038a	0.009217152
223	0x3ca8e6d8	0.020617887
224	0x3d5bb7e0	0.053642154
225	0xbcc33a94	-0.023831643
226	0xbc97c49c	-0.018526368
227	0xbd38acf8	-0.04508683
228	0xbd92a8d3	-0.07161107
229	0x3dac2e16	0.08407228
230	0x3cd75e24	0.026290007
231	0x3d8d6949	0.06904847
232	0x3cb7214e	0.022354748
233	0x3d211b5c	0.039332733
234	0x3af5b053	0.0018744565
235	0xba8b92f3	-0.0010648653
236	0xbd832266	-0.06403045
237	0xbd3ec284	-0.046572223
238	0x3dba21e8	0.09088498
239	0x3d707c8c	0.058712527
240	0x3b1b8b65	0.0023734209
241	0xbd6a5287	-0.05720761
242	0x3cf8dc11	0.030378373
243	0x3d82623a	0.063663915
244	0xbd0080a6	-0.03137269
245	0x3c5f75f5	0.013638963
246	0xbd9c0fa3	-0.0762017
247	0x3d9220f1	0.07135189
248	0xbd90f0ad	-0.07077155
249	0x3d0d8bc8	0.034557134
250	0x3d805cf5	0.0626773
251	0xbdc947c5	-0.09828142
252	0x3cbd436a	0.023103435
253	0xbd1002c9	-0.035158906
254	0xbcd2b541	-0.025721194
255	0xbd5ccafb	-0.053904515

features.2.bias f4 [16]
0	0xbb6fb5e9	-0.0036576933
1	0xbd980b95	-0.07424084
2	0xbd6587be	-0.056037657
3	0x3d63756b	0.0555319
4	0x3c91655b	0.017748525
5	0x3b1818d6	0.0023208163
6	0xbd61deb4	-0.055144027
7	0xbbfd9ed1	-0.0077398797
8	0x3cb91e35	0.022597412
9	0x3bfc2a1c	0.0076954495
10	0x3d803dc0	0.06261778
11	0xbd89b99d	-0.06724856
12	0xbca664f1	-0.020311804
13	0xbcd8ae3c	-0.026450269
14	0xbd75cacc	-0.060007855
15	0x3c4730cc	0.01215763

features.5.weight f4 [16, 16, 5, 5]
0	0xbe0966d5	-0.13418134
1	0x3d1923cd	0.037387658
2	0x3cfb5292	0.030679021
3	0xbd4f8a5a	-0.05066905
4	0xbca0bd97	-0.019621653
5	0xbdeffd3a	-0.11718221
6	0x3d06f2af	0.032946285
7	0xbd6dd2aa	-0.058062233
8	0xbde16aff	-0.11006736
9	0x3d727cf2	0.05920119
10	0x3c98c74b	0.018649718
11	0xbde73ae3	-0.112905286
12	0xbdb3c486	-0.08777718
13	0xbc2be785	-0.01049221
14	0xbbbf8c5e	-0.0058455905
15	0xbcb0e2a4	-0.021592446
16	0xbdd5e7ec	-0.10444626
17	0xbcab2e70	-0.020896167
18	0x3d79e20f	0.061006602
19	0x3d935b1f	0.07195114
20	0xbd6d5aa6	-0.057947777
21	0xbdad743c	-0.084694356
22	0xbd04a0c0	-0.032379866
23	0x3d46be18	0.04852113
24	0x3ce02b79	0.02736448
25	0x3d16bfdc	0.036804065
26	0xbd844a05	-0.064594306
27	0x3d36e3b0	0.044650733
28	0x3d8555fe	0.06510542
29	0xbd542e2f	-0.051801857
30	0x3d6ee0f8	0.058320016
31	0x3d85c628	0.06531936
32	0xbda2a068	-0.07940751
33	0x3d535034	0.05159016
34	0xbdad8e45	-0.084744014
35	0x3c3c81c0	0.011505544
36	0xbc0c6001	-0.008567811
37	0x3d9654fc	0.07340428
38	0x3d1c8fec	0.038223192
39	0x3cb01338	0.02149354
40	0xbd5c8c86	-0.05384495
41	0x3d93f376	0.07224171
42	0xbd4671de	-0.048448436
43	0xbd959df7	-0.0730552
44	0xbb0d15e0	-0.002152793
45	0x3d137202	0.0359974
46	0x3d686dc7	0.056745317
47	0xbb7353de	-0.0037128846
48	0xbd207a25	-0.039178986
49	0x3d6cc600	0.057806015
50	0xbd932580	-0.07184887
51	0xbd5886d2	-0.05286295
52	0x3d16a4e1	0.036778335
53	0x3d85888c	0.06520185
54	0xbc59307d	-0.013256189
55	0xbd96c746	-0.07362227
56	0xbdb298b0	-0.08720529
57	0x3d065cc0	0.032803297
58	0x3d633c82	0.055477627
59	0x3ce4c04a	0.027923722
60	0xbbdf0fed	-0.0068073184
61	0xbd0168f9	-0.03159425
62	0x3af32f11	0.0018553456
63	0x3ce2b082	0.027672056
64	0x3d3e3c91	0.04644448
65	0x3d84b931	0.06480635
66	0x3b267310	0.0025398172
67	0x3d96a8f7	0.07356446
68	0xbdb7ebe3	-0.08980539
69	0xbd824917	-0.06361597
70	0xbcd7f624	-0.026362486
71	0x3d02659e	0.03183519
72	0x3d616138	0.055024356
73	0xbc8f75d1	-0.017512234
74	0x3d1d314b	0.038377088
75	0xbd059bbb	-0.03261922
76	0xba6887d3	-0.0008870337
77	0xbd1e58b5	-0.038658816
78	0xbdbcc674	-0.092175394
79	0x3d653e51	0.055967633
80	0xbe0dd932	-0.13852385
81	0xbd6bf304	-0.057604805
82	0x3cdbfd0a	0.026854057
83	0xbd79e52f	-0.061009582
84	0x3c3d68c0	0.011560619
85	0xbcdfbba9	-0.027311163
86	0xbd1844de	-0.037175052
87	0x3d8435fd	0.0645561
88	0x3dc78011	0.097412236
89	0x3dbfe85d	0.09370492
90	0xb8cde826	-9.818403e-05
91	0x3cdeea63	0.027211374
92	0x3dc8095a	0.09767409
93	0xbd500d4b	-0.050793927
94	0xbd4e26a7	-0.05032983
95	0xbdc9b001	-0.09848023
96	0xbd72c59c	-0.059270486
97	0x3d9c67df	0.07636999
98	0x3ce7648f	0.028246192
99	0xbd80f157	-0.06296032
100	0xbe0c3692	-0.13692692
101	0xbca22586	-0.019793283
102	0x3da82ed9	0.082120605
103	0xbd9be7e7	-0.07612591
104	0x3d236590	0.03989178
105	0xbdc7da44	-0.09758428
106	0xbd04a2df	-0.03238189
107	0x3dae597a	0.0851316
108	0x3d397185	0.045274276
109	0xbd06cd6f	-0.03291076
110	0xbda28e4a	-0.07937296
111	0xbba00d29	-0.0048843813
112	0x3deb4b5d	0.11488984
113	0x3db9c2ec	0.090703815
114	0xbd6138f5	-0.05498596
115	0x3ceb1526	0.028696608
116	0xbc938a9c	-0.01801043
117	0x3d8de5e0	0.06928611
118	0xbd6216ca	-0.055197515
119	0xbc7ea856	-0.015543064
120	0xbd9da071	-0.076966174
121	0xbc04d569	-0.008107522
122	0x3cd1bc6c	0.025602542
123	0x3d80fdad	0.06298385
124	0xbd6444ef	-0.055729803
125	0xbdb45e79	-0.08807082
126	0x3d5b8a46	0.053598665
127	0x3d10f24d	0.035387326
128	0xbd9496f5	-0.07255355
129	0x3d3a89b5	0.045541484
130	0xba19c683	-0.00058660674
131	0xbcc8d182	-0.024513964
132	0xbb92b4cc	-0.004477119
133	0xbcc8f725	-0.02453191
134	0xbdc79f72	-0.09747209
135	0xbd5e986d	-0.054344583
136	0x3d890de6	0.06692104
137	0xbd9fe96b	-0.07808193
138	0x3cf19672	0.029490683
139	0x3d2890f8	0.041153878
140	0xbd0d8193	-0.0345474
141	0x3c64f6b4	0.013974834
142	0xbda4699c	-0.08027956
143	0x3d183824	0.037162915
144	0xbceb3040	-0.02870953
145	0xbdc445b5	-0.09583608
146	0xbbb1182d	-0.0054044933
147	0xbb7e4b17	-0.0038802081
148	0x3ca43b4b	0.020047804
149	0x3c9f10f5	0.019417265
150	0xba708b68	-0.00091760466
151	0x3d7b9134	0.061417773
152	0x3d7e0b32	0.062022395
153	0x3d183c28	0.037166744
154	0xbc4262ab	-0.011864345
155	0xbc5a0538	-0.013306908
156	0x3d70e544	0.058812395
157	0xbd717b25	-0.05895533
158	0x3c00235c	0.00782093
159	0xbc8a919b	-0.016915133
160	0xbd08f6da	-0.03343854
161	0x3d036cc1	0.032086138
162	0x3a874b05	0.001032204
163	0xbd18f2e5	-0.037341017
164	0xbd855211	-0.065097935
165	0x3d121216	0.03566178
166	0x3da52ee4	0.08065584
167	0x3d95f06e	0.07321249
168	0x3d47643b	0.04867957
169	0xbc99c841	-0.018772246
170	0x3be8db60	0.0071062297
171	0x3dab7fb6	0.08373968
172	0x3b8f516b	0.0043737195
173	0xbcf066ab	-0.02934583
174	0xbd3335f9	-0.043752644
175	0x3cfe48a9	0.031040506
176	0x3d94f239	0.07272763
177	0xbc1750e2	-0.009235593
178	0x3cd43782	0.025905374
179	0xbd706eee	-0.05869954
180	0xbdcb1d7d	-0.09917734
181	0x3ca03d1f	0.019560395
182	0xbad7bad5	-0.0016458879
183	0x3b75b10d	0.0037489564
184	0xbb31d558	-0.002713522
185	0x3d62c8cb	0.055367272
186	0x3d560eae	0.052260093
187	0xbd13550a	-0.03596977
188	0x3d5f7309	0.054553065
189	0x3bb4a7a5	0.005513149
190	0x3c4c3807	0.01246453
191	0xbceed741	-0.029155375
192	0xb99facde	-0.0003045564
193	0xbbd9b018	-0.0066433065
194	0xbccc112d	-0.024910534
195	0xbd4fac53	-0.05070145
196	0xbceea660	-0.029132068
197	0x3c8dbe13	0.017302549
198	0x3d8af81a	0.06785603
199	0xbd918949	-0.07106263
200	0x3b15bb6b	0.0022847306
201	0xbb02e3d0	-0.0019972213
202	0xbd0766cf	-0.03305703
203	0xbdb1b70b	-0.08677491
204	0xbd325c6b	-0.043545168
205	0xbd4ec3e9	-0.050479803
206	0x3d7d2feb	0.061813276
207	0x3bdca3c5	0.00673339
208	0xbdb7eb07	-0.08980375
209	0xbcd02d97	-0.025412364
210	0xbd7d6c9d	-0.06187116
211	0xbcd4e577	-0.025988324
212	0xbd7488a3	-0.05970062
213	0xbcc5a80c	-0.024127983
214	0x3d1cd318	0.038287252
215	0xbcf6e0f7	-0.030136568
216	0x3d99e555	0.07514445
217	0x3d38eaa2	0.04514564
218	0xbd664b62	-0.056224234
219	0x3c95fda6	0.018309426
220	0xbc08bc05	-0.008345609
221	0x3cf4b6d7	0.029872341
222	0x3ca19ac7	0.019727124
223	0xbcd189fd	-0.025578493
224	0x3cf0c0ce	0.029388811
225	0xbd93e920	-0.072221994
226	0x3d1158f4	0.035485223
227	0xbbeab389	-0.0071625155
228	0x3d9df8c9	0.07713468
229	0x3beb0bd8	0.0071730427
230	0xbc093926	-0.008375442
231	0x3ca727ff	0.020404814
232	0x3d1b267a	0.03787849
233	0xbcb3785f	-0.021907983
234	0x3da4f215	0.08053986
235	0xbd603a48	-0.05474308
236	0x3da0f0b1	0.07858408
237	0x3d82e75f	0.06391787
238	0x3d2a11d5	0.041520912
239	0xbdac8b44	-0.08425
240	0x3d19f2a9	0.037584934
241	0xbd3e9fe4	-0.046539202
242	0xbb094bed	-0.0020949796
243	0x3d2c3f26	0.04205241
244	0x3c888462	0.016664688
245	0x3d0ee230	0.034883678
246	0x3da2d565	0.07950858
247	0x3c9d2e3e	0.019187089
248	0x3d4cf7ee	0.05004113
249	0xbcda32c5	-0.026635537
250	0xbe133f24	-0.14379555
251	0xbdfd6273	-0.12372293
252	0xbace1de1	-0.0015725457
253	0xbdccb583	-0.09995558
254	0xbda6bc02	-0.081413284
255	0xbdfff285	-0.12497429

features.5.bias f4 [16]
0	0x3cb39d25	0.021925518
1	0x3c3aa107	0.011390931
2	0xbb356bca	-0.0027682655
3	0xbd4b18f1	-0.049584333
4	0x3c9fe4e6	0.019518327
5	0xbd3195ef	-0.04335588
6	0x3c82f606	0.015986454
7	0xbd26ef00	-0.040755272
8	0x3cf6db59	0.03013389
9	0x3d4d2222	0.05008138
10	0xbcedae9f	-0.02901393
11	0x3d15d26b	0.036577623
12	0x3b419c12	0.0029542488
13	0x3d0e2232	0.03470058
14	0xbcfb4004	-0.030670173
15	0xbc619d96	-0.013770482

features.7.weight f4 [16, 16, 5, 5]
0	0xbd21380f	-0.039360102
1	0xbda4a572	-0.08039369
2	0xbd228d1b	-0.03968535
3	0xbd8cd422	-0.068763986
4	0x3d3e886a	0.046516813
5	0xbd43835b	-0.047732692
6	0xbdda8f4f	-0.10671865
7	0x3c303ed3	0.010757166
8	0xbba19bcc	-0.0049319025
9	0xbc6acb00	-0.0143306255
10	0xbd39e380	-0.045382977
11	0x3c113fcd	0.008865309
12	0xbb96803f	-0.004592925
13	0x3b9dc51a	0.004814756
14	0x3d8b0b39	0.0678925
15	0xbd934699	-0.071912
16	0xbda24b47	-0.07924514
17	0xbd9e601d	-0.07733176
18	0xbdb6651e	-0.08906005
19	0xbd9d82fd	-0.07691
20	0x3c8ca3f4	0.017168023
21	0xbc147c6d	-0.009062869
22	0x3d0637ad	0.03276794
23	0xbd983cda	-0.074334815
24	0x3d7d38db	0.0618218
25	0x3cedfc80	0.029051065
26	0x3e3f7dd5	0.18700345
27	0x3d87c4ce	0.066293344
28	0xbc5e8efd	-0.013583896
29	0x3de2384f	0.11045896
30	0x3ce0d612	0.027445827
31	0x3e3c4358	0.18385065
32	0x3e3f6ffc	0.18695062
33	0x3d9a4e34	0.07534447
34	0x3e136895	0.14395364
35	0x3dc64848	0.09681755
36	0x3e6b5ea4	0.22985321
37	0x3e11331a	0.1417965
38	0x3dc1652a	0.09443124
39	0x3dd1621f	0.10223793
40	0xbd4a9611	-0.04945952
41	0x3daa195d	0.08305619
42	0x3dff3125	0.124605455
43	0xbc3abc6c	-0.011397462
44	0x3d632ae4	0.055460826
45	0x3d138d6c	0.036023542
46	0x3d162915	0.036660273
47	0x3d918aed	0.07106576
48	0xbd5290a1	-0.05140746
49	0xbc6d21e8	-0.014473416
50	0xbda43cbb	-0.08019396
51	0x3d623ba0	0.055232644
52	0xbca1ffea	-0.01977535
53	0xbda3f7ee	-0.08006273
54	0xbd27c253	-0.040956806
55	0xbd14317a	-0.036179997
56	0x3d6c8914	0.057747915
57	0x3d622d23	0.055218827
58	0xbd252f27	-0.04032817
59	0x3d4d75d2	0.05016119
60	0xbdaa7b39	-0.08324284
61	0x3d87d752	0.06632866
62	0xbdb03d2e	-0.08605419
63	0xbc25dba3	-0.010123166
64	0xbdb9e0b7	-0.09076064
65	0x3bdeda66	0.0068009375
66	0x3d5d6f8b	0.054061454
67	0xbd2fd1d5	-0.04292472
68	0xbd37c456	-0.044864975
69	0x3d83ad9d	0.064295985
70	0x3d99da3a	0.075123265
71	0xbd70e407	-0.058811214
72	0x3d4fcd27	0.050732758
73	0x3cc6aec5	0.024253258
74	0xbdb38a16	-0.08766572
75	0x3d3e9de8	0.04653731
76	0xbd8ba13f	-0.068178646
77	0xbd0984e8	-0.033574015
78	0x3d160066	0.036621474
79	0xbb9cc5e6	-0.0047843335
80	0x3d4ef010	0.05052191
81	0x3c397bd0	0.011321023
82	0xbd123cd4	-0.03570254
83	0x3d11a92e	0.035561733
84	0xbc1d8628	-0.009614505
85	0x3cae889a	0.021305371
86	0xbd4c5ff3	-0.04989619
87	0xbcef4230	-0.029206365
88	0x3da06aac	0.07832846
89	0x3daa493c	0.083147496
90	0xbd7f1172	-0.062272497
91	0xbd594577	-0.053044762
92	0x3d9fcdf2	0.07802953
93	0xbd51d882	-0.05123187
94	0xbd0f56a1	-0.034994725
95	0x3d476718	0.048682302
96	0xbd5e779e	-0.054313295
97	0xbc162c38	-0.009165816
98	0xbd476a85	-0.04868557
99	0xb98a8f00	-0.00026427954
100	0x3c9a0e41	0.018805625
101	0x3d97c0f7	0.07409852
102	0x3d2320c6	0.039826177
103	0xbd6c729a	-0.05772648
104	0xbcbd1aaa	-0.023084003
105	0xbd226bdc	-0.039653644
106	0x3cbc1ddb	0.022963455
107	0x3c235627	0.009969271
108	0x3cac6d60	0.021048248
109	0xbda96c78	-0.08272642
110	0x3bf05bc4	0.007335158
111	0xbd48170e	-0.04885011
112	0xbd8336bd	-0.06406925
113	0xbc5e73ea	-0.013577441
114	0xbbdd3ebf	-0.0067518647
115	0x3d2c6606	0.042089485
116	0x3d026ff7	0.03184506
117	0x3d97507e	0.073883995
118	0x3d727360	0.05919206
119	0x3d42dfbc	0.04757665
120	0xbd612eb2	-0.054976173
121	0xbcc1fdf6	-0.023680668
122	0x3d2e96fb	0.042624455
123	0xbd5a7925	-0.05333819
124	0x3b8c8c86	0.0042892126
125	0xbd62eb45	-0.05540015
126	0x3d9ecb97	0.077536754
127	0x3dcd695f	0.100298636
128	0xbd858a4b	-0.06520518
129	0x3c79ebbc	0.015253957
130	0x3d123279	0.035692666
131	0xbd894ef1	-0.0670451
132	0x3de11c66	0.10991745
133	0x3da13d4e	0.07873021
134	0x3c7c4f09	0.015399703
135	0x3c8e8538	0.017397508
136	0x3d4560c0	0.04818797
137	0xbdaeaef7	-0.08529466
138	0xbd849dac	-0.06475386
139	0xbdae8337	-0.08521121
140	0x3db17619	0.086651035
141	0xbdaa625b	-0.08319541
142	0xbd399bd2	-0.045314617
143	0x3da2b851	0.07945312
144	0x3d5efcf8	0.05444047
145	0x3d867860	0.065659285
146	0x3c90a83c	0.017658345
147	0xbda04841	-0.07826281
148	0x3d77cce2	0.060498126
149	0x3d462718	0.048377126
150	0x3d55347b	0.052052002
151	0xbd5634a2	-0.05229629
152	0x3d8979e5	0.06712703
153	0xbce832e7	-0.028344585
154	0xbd7b6c12	-0.06138236
155	0xbdd210fd	-0.102571465
156	0xbcadbb57	-0.021207495
157	0xbd50b9f4	-0.05095859
158	0xbd5869ed	-0.052835394
159	0xbddab955	-0.106798805
160	0xbd99d8a3	-0.07512023
161	0x3c8ad83f	0.016948817
162	0xbdce1702	-0.10062982
163	0xbd8ec097	-0.06970327
164	0x3d05e8fb	0.03269289
165	0xbc84b9b8	-0.016201839
166	0xbdca9e96	-0.09893529
167	0x3cb2eaaa	0.021840412
168	0xbc218636	-0.009858659
169	0xbda877c3	-0.08225968
170	0xbd3f310c	-0.046677634
171	0x3c3414c9	0.010991284
172	0xbd366920	-0.04453385
173	0x3cb59451	0.02216545
174	0x3c714b08	0.0147273615
175	0xbd41a790	-0.04727894
176	0x3acd89e2	0.0015681351
177	0x3c2f96b9	0.010717087
178	0x3e149820	0.14511156
179	0x3e5cf729	0.21578659
180	0x3cfb4ec8	0.030677214
181	0x3d946ce0	0.07247329
182	0x3dbe1d19	0.09282894
183	0x3e0ea73c	0.13930982
184	0x3e3bda55	0.18345006
185	0xbd35c54c	-0.04437761
186	0xbd0c63bf	-0.034274813
187	0x3ccfb5a3	0.025355166
188	0xbbfa7c4f	-0.0076442133
189	0xbd864602	-0.06556322
190	0x3c9068b0	0.017628044
191	0xbbaf44ba	-0.005348769
192	0x3cf0086d	0.029300893
193	0x3bfa26c9	0.007634018
194	0x3d326d94	0.043561533
195	0xbda3e96b	-0.08003505
196	0xbd1e7789	-0.038688216
197	0x3d3a76ae	0.045523338
198	0x3daa762c	0.08323321
199	0x3a128f80	0.0005590841
200	0xbb29c225	-0.0025903073
201	0x3d1ce962	0.03830851
202	0x3d31f991	0.043450896
203	0xbddc9511	-0.1077062
204	0xbc75e357	-0.015007815
205	0xbd779713	-0.06044681
206	0x3d6b0bf7	0.057384457
207	0xbccfa675	-0.025347928
208	0x3b46b1ba	0.0030318336
209	0xbde458d9	-0.11149759
210	0xbd00b549	-0.031422887
211	0xbacbfefa	-0.001556366
212	0xbd0cc79c	-0.03437005
213	0xbd8358bf	-0.06413411
214	0x3d285f2d	0.04110639
215	0xbce2573b	-0.027629485
216	0xbb01a352	-0.0019781184
217	0xbdd93172	-0.10605134
218	0x3d279084	0.040909305
219	0xbb6c229a	-0.0036031366
220	0xbda71299	-0.08157844
221	0x3c3483d5	0.011017759
222	0xbc8ec82f	-0.01742944
223	0xbddbedd4	-0.107387215
224	0xbd032e10	-0.03202635
225	0x3ca02768	0.01955004
226	0x3c68e247	0.014214105
227	0x3d1ee6af	0.038794216
228	0x3d80af20	0.062834024
229	0x3d7f59e0	0.06234157
230	0xbbffc79b	-0.0078057772
231	0xbc83c9e9	-0.01608749
232	0xbd911b2b	-0.0708526
233	0xbc9127a5	-0.0177191
234	0x3d3f58b6	0.04671546
235	0x3bc06981	0.005871952
236	0xbd152b63	-0.03641833
237	0x3cde93ee	0.027170148
238	0xbdd8be18	-0.105831325
239	0x3d01a825	0.031654496
240	0x3c9e8511	0.01935056
241	0xbd7cfca3	-0.06176437
242	0xbd09311e	-0.033494107
243	0x3c2efb36	0.010680011
244	0xbdf4f4a8	-0.11960727
245	0xbdb6ea95	-0.08931462
246	0x3cbdaad8	0.023152754
247	0xbdafa615	-0.085765995
248	0xbc2743c1	-0.010209025
249	0xbdeb6dea	-0.11495574
250	0xbd365a1e	-0.044519536
251	0x3cba5973	0.02274773
252	0xbd9f185e	-0.077683195
253	0x3aca2377	0.0015421946
254	0xbd98e2c8	-0.0746513
255	0x3d258141	0.04040647

features.7.bias f4 [16]
0	0x3c128766	0.008943414
1	0xbd512545	-0.051060934
2	0x3c8306d1	0.015994461
3	0x3d0f3e58	0.034971565
4	0xbd6d139e	-0.057880037
5	0x3c01b053	0.007915574
6	0x3d26cc28	0.040722042
7	0xbd0008da	-0.03125844
8	0xbd5a1914	-0.053246573
9	0x3d268ab3	0.040659618
10	0xbb2a029b	-0.0025941494
11	0xbc1815a1	-0.0092825005
12	0x3ca4def9	0.020125853
13	0x3d5fa325	0.054598946
14	0x3d671198	0.056413263
15	0x3d18e474	0.037327245

features.10.weight f4 [32, 16, 5, 5]
0	0x3d8026d5	0.062574066
1	0xbc45bba0	-0.012068659
2	0x3d5e63f6	0.05429455
3	0xbc3b5044	-0.011432711
4	0xbd66ca19	-0.05634508
5	0xbcace8de	-0.021107133
6	0xbd331bb0	-0.043727577
7	0xbcc7f658	-0.024409458
8	0xbd00d180	-0.031449795
9	0xbd601d72	-0.05471558
10	0x3d942c0b	0.07234963
11	0xbc1fbf04	-0.0097501315
12	0x3d81b3c1	0.063331135
13	0x3cb68598	0.0222805
14	0xbce08583	-0.027407413
15	0x3d652d9b	0.055951696
16	0x3d0518e5	0.032494444
17	0x3c8f35ea	0.017481763
18	0xbc113987	-0.008863813
19	0x3c26e127	0.010185516
20	0x3ca39398	0.01996784
21	0xbc497938	-0.012296967
22	0xbcae6f6d	-0.021293366
23	0x3d5446fa	0.0518255
24	0x3b42d94b	0.0029731567
25	0x3bce58d0	0.0062972084
26	0xbd2f2b83	-0.042766105
27	0xbd840802	-0.0644684
28	0x3cf732b4	0.030175544
29	0x3bf10e70	0.0073564574
30	0x3b5e49e0	0.0033918545
31	0xbd46becb	-0.048521798
32	0xba42f980	-0.0007437691
33	0xbd889e03	-0.06670763
34	0x3d82e4eb	0.06391319
35	0x3d0d9674	0.03456731
36	0xbd888db2	-0.06667651
37	0x3c988650	0.018618733
38	0x3d17096e	0.036874227
39	0x3d47f17a	0.048814274
40	0xbcb19bba	-0.021680702
41	0x3cc8343c	0.02443897
42	0x3d2ccc20	0.042186856
43	0x3c9738e8	0.018459752
44	0x3d0d51ec	0.034501955
45	0xbccd5b60	-0.025067985
46	0xbd35e3c8	-0.044406682
47	0x3c63a410	0.013894096
48	0x3d896443	0.067085765
49	0xbbf63790	-0.007513948
50	0xbd67c524	-0.056584492
51	0x3d6ad239	0.05732939
52	0xbcd0e9a0	-0.025502026
53	0xbd01461d	-0.031561006
54	0x3d5ef752	0.05443508
55	0x3d4fa654	0.050695732
56	0xbc66373f	-0.014051258
57	0x3c0c513a	0.008564288
58	0xbb0647fe	-0.0020489688
59	0xbd9917a8	-0.07475215
60	0x3d35df05	0.04440214
61	0xbc256755	-0.010095437
62	0x3d67d899	0.056603048
63	0xbcc64be3	-0.024206107
64	0xbb6e05ac	-0.0036319299
65	0x3d18e5c2	0.03732849
66	0xbcc43d0c	-0.02395489
67	0xbd922f11	-0.071378835
68	0x3d520bec	0.0512809
69	0xbd958586	-0.07300858
70	0x3d129720	0.035788655
71	0x3c9b7544	0.018976815
72	0xbd41b712	-0.04729373
73	0xbd510f13	-0.051039767
74	0x3c3ac7fb	0.011400218
75	0xbc7812fb	-0.015141244
76	0x3ceb250b	0.028704187
77	0xbd2e3241	-0.042528395
78	0x3d06ae0c	0.032880828
79	0x3cee7250	0.029107243
80	0xbd82e336	-0.06390993
81	0xbc3af041	-0.01140982
82	0xbcfd1db3	-0.03089795
83	0x3ca4e08a	0.0201266
84	0xbb8b9320	-0.004259482
85	0x3c351a21	0.011053593
86	0x3bbd2b49	0.0057729823
87	0xbd676709	-0.056494746
88	0xbd41aa61	-0.047281627
89	0xbcf503c2	-0.029909018
90	0x3d4fb33d	0.050708044
91	0xbd154f33	-0.036452483
92	0x3cd07691	0.025447162
93	0x3b962a96	0.0045827134
94	0xbd7abcf1	-0.061215345
95	0xbd0af7da	-0.033927776
96	0xbd8ce44f	-0.06879484
97	0xbc4be714	-0.01244523
98	0x3d780c32	0.060558505
99	0xbcc7ac1f	-0.024374066
100	0xbd49feae	-0.049315147
101	0x3d066c25	0.03281798
102	0x3c3834cf	0.011243059
103	0xbce001c2	-0.027344588
104	0x3c158ab8	0.009127311
105	0xb9c8f463	-0.00038329055
106	0x3d079fb8	0.033111304
107	0xbd7cd083	-0.06172229
108	0x3c3300e4	0.010925505
109	0xbd926dde	-0.07149862
110	0xbce4b348	-0.02791752
111	0x3d58d3e5	0.052936453
112	0xbcd822f0	-0.026383847
113	0xbc9e62c2	-0.0193342
114	0xbd25cd6f	-0.04047912
115	0xbd1e6649	-0.038671765
116	0xbd41c34e	-0.047305398
117	0xbd044635	-0.032293517
118	0x3d0a90e7	0.033829596
119	0xbcc4f88c	-0.024044298
120	0xbd197581	-0.037465576
121	0x3d32220c	0.0434895
122	0xbd5238b2	-0.0513236
123	0x3d6ae952	0.057351418
124	0x3cdacd58	0.026709244
125	0xbd8b59fa	-0.06804271
126	0x3c3eb170	0.011638984
127	0x3d334a84	0.043772236
128	0x3ce05b66	0.027387332
129	0x3d432460	0.04764211
130	0xbd089476	-0.03334471
131	0xbd675337	-0.056475844
132	0x3d25623a	0.04037688
133	0xbd6a9600	-0.057271957
134	0xbd01651b	-0.031590562
135	0xbcc25734	-0.023723222
136	0x3d909449	0.07059533
137	0x3cfadd71	0.03062317
138	0xbc213347	-0.009838886
139	0x3d69b512	0.057057448
140	0x3cfbbdb4	0.030730106
141	0xbcd81eb0	-0.02638182
142	0x3cb5a5e8	0.022173837
143	0xbd43bac4	-0.047785535
144	0x3c602a8d	0.01368202
145	0x3c632668	0.013864137
146	0x3d0eb80a	0.034843482
147	0x3c94721c	0.018120818
148	0xbd4edd53	-0.05050404
149	0x3cdb401c	0.026763968
150	0x3cee75c5	0.029108891
151	0xbd8edb47	-0.069754176
152	0xbc611179	-0.013737076
153	0xbd8ec154	-0.06970468
154	0x3cc36a66	0.023854446
155	0x3d13f261	0.036119822
156	0x3d6780ed	0.056519438
157	0xbd4705c9	-0.0485895
158	0xbd754915	-0.05988415
159	0xbd8abe8a	-0.06774624
160	0x3c9d5bf2	0.019208882
161	0xbce87bd6	-0.028379362
162	0xbd7f8720	-0.062384725
163	0x3d1c44ba	0.03815148
164	0xbd06dcf8	-0.032925576
165	0x3ca7c33b	0.020478835
166	0xbd0d69da	-0.034524776
167	0x3d527598	0.051381677
168	0x3c3b8ade	0.011446683
169	0x3b15b5a5	0.0022843864
170	0xbcbfbd14	-0.02340559
171	0x3d18ba14	0.037286833
172	0x3d500ab1	0.050791446
173	0x3d428571	0.04749054
174	0xbb9b12fc	-0.0047324877
175	0x3c9f6cd7	0.019461079
176	0x3d13c4c1	0.03607631
177	0x3c8d0beb	0.017217597
178	0xbd2461d7	-0.04013237
179	0xbd096378	-0.033542126
180	0xbd51e31b	-0.051241975
181	0xbd63721d	-0.05552875
182	0xbc63d53a	-0.013905818
183	0xbd508329	-0.050906334
184	0xbd8bc846	-0.068253085
185	0xbd90be80	-0.07067585
186	0xbd39e6e2	-0.045386203
187	0xb9b75d90	-0.0003497419
188	0xbd9291cc	-0.07156715
189	0x3cdf177e	0.027232882
190	0x3997ad00	0.0002892986
191	0x3c64f058	0.013973318
192	0x3cf3365c	0.029689007
193	0xbd56bfbf	-0.052428957
194	0x3c86a3ca	0.016435523
195	0xbb51e960	-0.0032029971
196	0x3b862580	0.004093826
197	0x3d7f40be	0.062317602
198	0xbd601902	-0.05471135
199	0xbd64f4f6	-0.055897675
200	0xbd89f3bf	-0.06735944
201	0xbd16909d	-0.036759008
202	0xbd8c642d	-0.068550445
203	0xbd80e145	-0.06292967
204	0x3d45dc6c	0.048305914
205	0x3ce840b4	0.028351165
206	0x3d86f81b	0.06590291
207	0x3b74b2c0	0.0037337989
208	0xbd1499b1	-0.036279384
209	0xbd5b050e	-0.053471617
210	0x3d134612	0.035955496
211	0xbd59c031	-0.053161804
212	0xbd288f4a	-0.041152276
213	0x3d2f9634	0.042867854
214	0x3c9c9c37	0.019117458
215	0xbc1db0b0	-0.009624645
216	0xbd80d4c4	-0.06290582
217	0xbc10fce4	-0.008849356
218	0xbcf6b7c6	-0.030116927
219	0xba2caa50	-0.0006586658
220	0x3c04e040	0.008110106
221	0xbd424b24	-0.04743494
222	0xbd77458e	-0.060369067
223	0x3c81d5a4	0.015848942
224	0x3d2fceca	0.04292182
225	0xbba8eb8c	-0.0051550325
226	0x3d32c53b	0.043645125
227	0x3cd021af	0.025406687
228	0x3c8f8027	0.017517162
229	0x3d0c3f76	0.03424021
230	0x3ce7b537	0.028284652
231	0xbd443d65	-0.047910113
232	0x3bb73316	0.0055908067
233	0x3d72749b	0.059193235
234	0x3c6b0844	0.014345232
235	0xbd82cb59	-0.06386442
236	0xbd8cddcc	-0.06878242
237	0xbd9cc530	-0.07654798
238	0xbd128cde	-0.035778873
239	0x3d80c3e5	0.06287364
240	0xbcc60028	-0.024169996
241	0xbd3fee98	-0.0468584
242	0xbd8718d1	-0.0659653
243	0x3b806965	0.003918814
244	0xbb398773	-0.0028309494
245	0xbd2057c8	-0.039146215
246	0xbd1e7b53	-0.03869183
247	0xbd453980	-0.04815054
248	0x3d4bc57c	0.049748883
249	0xbcfcf9d7	-0.030880852
250	0xbd93eeb3	-0.07223263
251	0xbd708c9c	-0.058727846
252	0x3d53d804	0.05171968
253	0x3d3b9fbd	0.045806635
254	0xbd7bb940	-0.061455965
255	0xbd676f33	-0.056502532

features.10.bias f4 [32]
0	0xbd3100c7	-0.043213632
1	0xbcaba175	-0.020951012
2	0x3d09c3f5	0.033634145
3	0x3bca707a	0.006177959
4	0xbc7319f4	-0.014837731
5	0xbb22290e	-0.0024743709
6	0x3c0e1c76	0.008673778
7	0x3d7541ef	0.059877332
8	0x3d829ef8	0.06377977
9	0xbca64e75	-0.020301083
10	0x3d880efe	0.066434845
11	0xbd38ba1d	-0.045099366
12	0x3d51681b	0.051124673
13	0x3c9aa365	0.01887674
14	0xba85a113	-0.0010195099
15	0xbd1427d3	-0.03617079
16	0xbd1d7c37	-0.03844854
17	0xbd156a0a	-0.03647808
18	0xbd3eefe7	-0.046615507
19	0x3c46ac00	0.012125969
20	0xbc933ee5	-0.017974326
21	0x3d8052df	0.062658064
22	0x3d1284ed	0.0357713
23	0xbd3b6fa9	-0.045760784
24	0xbd24d628	-0.040243298
25	0x3b05a33e	0.002039149
26	0x3d903f64	0.07043341
27	0x3d1029ef	0.03519624
28	0xbbf92832	-0.0076036686
29	0x3ccc0990	0.024906904
30	0x3d07b8fb	0.033135395
31	0x3cfafe79	0.03063892

features.12.weight f4 [32, 32, 5, 5]
0	0x3d4b884d	0.049690533
1	0x3d54202d	0.051788498
2	0xbd5d4a46	-0.05402591
3	0x3c3c9054	0.01150902
4	0x3b9b9e98	0.0047491305
5	0xbcc9d006	-0.024635326
6	0xbc327024	-0.010890994
7	0x3bc3fa18	0.005980741
8	0x3d05a009	0.032623325
9	0x3cb597c6	0.022167098
10	0x3cf77c7e	0.03021073
11	0xbd166d00	-0.036725044
12	0xbc6f2526	-0.014596259
13	0xbc1943c4	-0.0093545355
14	0x3c8adeba	0.016951907
15	0xbca44bc5	-0.020055661
16	0x3bd530a5	0.006506043
17	0x3d4c29ec	0.049844667
18	0x3d1d0469	0.038334284
19	0x3bede380	0.007259786
20	0x3d861bb4	0.06548253
21	0xbcf3b711	-0.029750379
22	0x3d1f6a91	0.03891999
23	0xbd2f71b5	-0.04283305
24	0xbd1c7fa6	-0.038207673
25	0x3c996deb	0.01872917
26	0x3bf129f7	0.007359739
27	0xbd7b70ca	-0.06138686
28	0x3d426994	0.04746397
29	0x3b2f4101	0.0026741626
30	0x3c84a99d	0.01619416
31	0x3d0f2074	0.03494306
32	0xbc57e132	-0.013176249
33	0xbd0156fc	-0.031577095
34	0xbd79b1a4	-0.060960427
35	0xbcf0d195	-0.029396812
36	0x3da4aca2	0.080407396
37	0x3d3959e6	0.04525175
38	0x3b255181	0.0025225582
39	0x3c6e0f16	0.014529964
40	0x3d13ded3	0.036101174
41	0xbca00c74	-0.019537188
42	0x3be460d3	0.00696955
43	0x3cbaff16	0.022826713
44	0xbc83e165	-0.016098687
45	0x3db4aac7	0.08821636
46	0x3d35e7e8	0.044410616
47	0x3c7df748	0.015500851
48	0xbbe4a5be	-0.006977766
49	0x3c61b391	0.013775722
50	0xbcabc4b5	-0.02096782
51	0xbc9fd75f	-0.019511877
52	0xbd909a7e	-0.07060717
53	0xbd789b6b	-0.060695093
54	0xbd10de48	-0.035368234
55	0x3bf3401c	0.007423414
56	0x3baf78c8	0.0053549744
57	0x3d4b6127	0.0496532
58	0xbd34c9c5	-0.044137735
59	0x3c7ca01b	0.0154190315
60	0x3ce4b2d2	0.0279173
61	0x3d63501a	0.055496313
62	0xbc4690dd	-0.012119499
63	0x3bd74c8a	0.0065704035
64	0xbd86b888	-0.06578165
65	0xbd6adae5	-0.05733766
66	0xbd3384bd	-0.04382776
67	0xbd3dcd59	-0.046338413
68	0xbc787a69	-0.015165904
69	0xbd6aa295	-0.057283957
70	0xbcaecef6	-0.021338921
71	0xba04c359	-0.00050645095
72	0xbd18369e	-0.037161462
73	0xbc3e064c	-0.011598181
74	0xbd3c8601	-0.046026234
75	0x3e191fc4	0.14953524
76	0x3df138d4	0.11778417
77	0x3e0ed27f	0.13947485
78	0x3bba52d9	0.0056861457
79	0x3d477d31	0.048703376
80	0x3e06fc49	0.13182177
81	0x3df4dfe2	0.11956765
82	0x3d02c52e	0.031926326
83	0x3b33fe38	0.0027464759
84	0xbcf4f087	-0.029899849
85	0x3e0ac454	0.13551456
86	0x3e0cc648	0.13747513
87	0x3cb6c2c6	0.022309672
88	0xbd0c7f54	-0.034301117
89	0x3cbf589e	0.023357686
90	0x3cd96f53	0.026542341
91	0xbc1fc12d	-0.009750647
92	0x3d850bdd	0.06496403
93	0xbd2a3c3b	-0.041561347
94	0xbbcc196d	-0.006228617
95	0x3c844b7a	0.016149271
96	0x3dc36bac	0.09542021
97	0x3d65e44c	0.056125924
98	0x3c93aa07	0.018025411
99	0xbd6fe7e5	-0.05857076
100	0xbd38a7f1	-0.045082036
101	0xbd0baa82	-0.034098156
102	0xbd03ebfa	-0.032207467
103	0xbd4b8f98	-0.04969749
104	0x3d0c7830	0.034294307
105	0x3a9e76f1	0.0012089891
106	0xbd629e92	-0.055327006
107	0xbd05e022	-0.032684453
108	0x3c7d76e1	0.0154702375
109	0xbc943d0d	-0.018095518
110	0xbd74674f	-0.059668835
111	0xbd060b9a	-0.032725908
112	0xbcdd4308	-0.027009502
113	0xbcbc498e	-0.022984292
114	0x3ca6b28d	0.020348812
115	0xbd111c9d	-0.03542768
116	0x3c74315e	0.014904348
117	0xbc8fc8ed	-0.017551864
118	0x3c6348e5	0.01387236
119	0xbd11384b	-0.035454076
120	0x3d01adc5	0.03165986
121	0xbd05e011	-0.03268439
122	0x3d91c807	0.0711823
123	0x3d9b0fab	0.07571348
124	0x3d42c09d	0.04754697
125	0x3c80cd55	0.01572291
126	0xbbd761be	-0.006572931
127	0x3c686193	0.01418342
128	0x3c5a249d	0.013314393
129	0x3cc14037	0.02359019
130	0x3d2617ac	0.04054992
131	0xbda252a4	-0.07925919
132	0xbd7ec206	-0.062196754
133	0xbdae075b	-0.08497497
134	0xbd2e6181	-0.042573456
135	0x3cff14c0	0.031137824
136	0x3c9d3f02	0.019195084
137	0xbc9957d4	-0.018718638
138	0x3cc42106	0.023941528
139	0xbd501564	-0.05080165
140	0xbbfb5d30	-0.007671021
141	0xbd13e8dc	-0.036110744
142	0x3d1fc524	0.039006367
143	0x3c9df682	0.019282583
144	0xbc0ebb4c	-0.008711647
145	0x3b33a136	0.0027409322
146	0x3d2fba60	0.04290235
147	0xbd8be60a	-0.06830986
148	0xbd406a40	-0.046976328
149	0x3cbf2420	0.023332655
150	0xbc1e73b6	-0.009671142
151	0xbd656d8a	-0.056012668
152	0xba4a4125	-0.0007715396
153	0x3bac1bbe	0.0052523306
154	0xbde36381	-0.11102963
155	0xbcae5749	-0.021281855
156	0x3c11efa4	0.008907232
157	0xbc997899	-0.018734263
158	0xbd09f68c	-0.03368239
159	0xbd1c5e14	-0.038175657
160	0x3d82cae0	0.063863516
161	0x3d05e1a3	0.032685887
162	0x3c93d328	0.018045023
163	0xbd417d94	-0.0472389
164	0xbd223bd9	-0.039607856
165	0x3da39a82	0.079884544
166	0x3ce22769	0.027606683
167	0x3ccbae14	0.02486328
168	0xbd24fba9	-0.040279064
169	0xbd8f7801	-0.07005311
170	0x3d90d063	0.070709966
171	0xbb34f390	-0.0027610995
172	0x3b876064	0.0041313637
173	0xbd7db61e	-0.06194126
174	0xbc115a50	-0.00887163
175	0xbd292311	-0.041293208
176	0x3a923577	0.001115485
177	0xbd668cc2	-0.05628658
178	0xbce30229	-0.027710991
179	0x3a8c7d0e	0.0010718422
180	0xbc157b00	-0.009123564
181	0xbd2a7353	-0.041613888
182	0xbc97f1ae	-0.018547859
183	0xbdb20c94	-0.08693805
184	0xbd27c776	-0.040961705
185	0xbd5ef709	-0.05443481
186	0xbd3255c6	-0.04353883
187	0xbc4243a3	-0.011856946
188	0x3b82a9ef	0.003987543
189	0x3bc2a144	0.0059396345
190	0xbb9405d8	-0.004517298
191	0xbc3a1b64	-0.0113590695
192	0xbd7af5b1	-0.061269466
193	0xbabf154b	-0.0014578489
194	0xbd018092	-0.031616755
195	0xba114dc8	-0.00055429013
196	0xbd8928d8	-0.066972435
197	0xbdba4677	-0.09095471
198	0xbc70553a	-0.014668757
199	0xbd77c526	-0.06049075
200	0x3d4e04d2	0.050297566
201	0x3d3846f3	0.044989537
202	0x3d166b22	0.036723264
203	0xbcea8b65	-0.028630922
204	0xbcabf1a9	-0.020989256
205	0x3d215b70	0.039393842
206	0xbc6ec12f	-0.014572426
207	0x3b50162e	0.0031751501
208	0xbd68c9e5	-0.056833167
209	0xbda35356	-0.079748794
210	0x3cfc24a6	0.030779194
211	0x3d685fa1	0.056731824
212	0x3d36a6e5	0.044592757
213	0xbd2712ba	-0.040789343
214	0x3c8177d9	0.015804218
215	0xbadc4465	-0.0016805051
216	0x3d2177c5	0.03942086
217	0xbd748870	-0.05970043
218	0xbb3e9176	-0.00290784
219	0xbcce00b2	-0.025146816
220	0xbd0da56d	-0.03458159
221	0xb819dfd6	-3.6686506e-05
222	0xbd18ac0d	-0.037273455
223	0xbd683935	-0.056695182
224	0xbd2668e4	-0.040627375
225	0xbc3620f5	-0.011116256
226	0x3ab6ece8	0.0013956102
227	0xbd54f7c8	-0.051994115
228	0x3d47c532	0.048772044
229	0x3d1e6f56	0.038680397
230	0x39cfccbb	0.00039634653
231	0x3cb19eb9	0.02168213
232	0x3bba5b24	0.0056871343
233	0x3cb3716e	0.021904673
234	0xbd47530a	-0.048663177
235	0x3aa30b02	0.0012439194
236	0x3c9e8508	0.019350544
237	0xbd3ce734	-0.04611893
238	0xbd3219e7	-0.043481734
239	0xbd5e34fd	-0.054249752
240	0xbd6fbe90	-0.058531344
241	0xbd783485	-0.06059696
242	0x3d5a3b28	0.053279072
243	0xbd567aa2	-0.052363046
244	0x3cc69d92	0.024245057
245	0x3cbf5ea5	0.02336056
246	0xbba32baf	-0.0049795727
247	0xbc4d5a49	-0.012533733
248	0xbcf844a7	-0.030306173
249	0xbd00f706	-0.03148558
250	0x3c22eaac	0.009943645
251	0x3d02b5f7	0.031911816
252	0xbca3a6cf	-0.019977001
253	0xbd304d11	-0.043042246
254	0xbd8442d9	-0.06458063
255	0x3d4f35aa	0.050588287

features.12.bias f4 [32]
0	0x3d246c9c	0.04014264
1	0x3c9eee5e	0.019400772
2	0x3cde0991	0.027104171
3	0x3d3ae3d0	0.045627415
4	0x3cb29626	0.021800112
5	0x3d09b363	0.033618342
6	0xbd0c9976	-0.03432604
7	0x3d3b02b1	0.045656864
8	0xbd01cd12	-0.03168971
9	0x3d23cd2a	0.03999058
10	0x3d265dc4	0.040616766
11	0x3c87690a	0.016529579
12	0x3b960fcf	0.0045795212
13	0x3d37e4a3	0.04489578
14	0x3d8e1abe	0.069386944
15	0x3b9870d2	0.004652121
16	0x3d09dd44	0.03365828
17	0x3ca179f3	0.01971147
18	0x3d10aee2	0.03532303
19	0x3cf283e4	0.029603906
20	0x3d692fe9	0.056930456
21	0x3cb433e3	0.021997398
22	0x3bb555af	0.005533896
23	0x3d563b6d	0.052302767
24	0x3bbc145e	0.0057397326
25	0x3cf61e89	0.030043857
26	0x3d0d62d6	0.034518085
27	0x3c2c3ac0	0.010512054
28	0x3d6a526d	0.057207514
29	0x3d22e5b2	0.039769836
30	0x3d0671b7	0.03282329
31	0x3b6c77b1	0.0036082084
