output/models/220429_1839_ggcnn_epoch_40/epoch_20_iou_0.68_statedict.pt (torch, 255529 bytes, 16 tensors)

conv1.weight f4 [32, 1, 9, 9]
-0.053153984 -0.17108484 -0.18886296 -0.07911131 -0.16281025 -0.16088526 -0.16972406 -0.17809942
-0.16623452 -0.025773693 -0.14495601 -0.22019634 -0.00962113 -0.07940365 -0.16160445 -0.17244469
-0.098834015 -0.13504836 0.0105669 -0.05015229 -0.16426471 -0.056895975 -0.039560307 -0.078323364
-0.07240855 -0.15080169 -0.10892868 0.08228003 0.010626315 -0.10088695 0.052534267 -0.048545625
-0.054158736 -0.112492286 -0.14483845 -0.15994371 0.07631999 -0.027343253 -0.0926944 0.07367287
0.0059477747 -0.04626802 -0.021229113 -0.072117925 -0.13242944 0.1798383 0.09878124 -0.044216216
0.11469246 -0.000115283954 0.014835172 0.009334197 -0.0037893539 -0.027679676 0.20045927 0.09668095
0.07619442 0.18509276 0.09273319 0.07623885 0.05964686 -0.022780139 -0.04382268 0.25950983
0.21986139 0.1256213 0.22126095 0.16733001 0.11412287 0.12897673 0.016607428 -0.0055150003
0.34737095 0.29368755 0.17300466 0.31354418 0.23209032 0.17307003 0.18888552 0.13128681
0.043220762 -0.014200929 -0.05134714 -0.028388832 0.0146945445 -0.024122747 -0.021278463 -0.053376924
-0.056540772 -0.14391035 -0.042348437 -0.022773106 -0.010857929 0.013226927 -0.017615613 -0.0066687744
-0.05530661 -0.1361941 -0.091777526 0.022062602 0.035146676 -0.015540625 0.022919644 0.041102663
0.012864339 -0.098476484 -0.04400899 -0.09705929 0.010785096 0.0477315 0.017526519 0.07821884
0.018635498 -0.027815884 -0.067373246 -0.07113745 -0.11600649 0.086301126 0.09208487 0.061150882
0.09740283 0.06948948 0.032247186 -0.0038148542 -0.061926525 -0.04373144 0.119479746 0.07253134
0.13708653 0.09192008 0.095876046 0.08990353 -0.0073002344 0.0057045054 -0.043070033 0.15359733
0.19785471 0.10338993 0.18092687 0.10118888 0.12239156 0.03560099 0.032511353 0.004277783
0.16021149 0.23236972 0.20235771 0.20542257 0.17749245 0.15291828 0.07341336 0.060779814
0.08968264 0.24871121 0.23171583 0.15680489 0.21437782 0.17440227 0.17654984 0.12409337
0.09877934 0.07891635 0.009785733 0.02063034 0.041547924 0.028794283 0.00035485506 0.0044616577
0.028362798 -0.03981469 0.039057527 0.006301826 0.018309385 -0.022415286 -0.00710521 -0.039050937
-0.02874528 0.010077183 -0.051612098 0.0150088295 0.01970248 -0.032257702 0.032764412 0.018800355
-0.018848956 -0.0018998841 0.03276874 0.015547357 -0.021818671 0.029363252 0.022814022 0.005693624
-0.04438526 -0.002577745 -0.039499756 -0.021842292 0.014047393 0.011760861 0.023050968 -0.036143646
0.041420925 0.010437232 -0.02047828 0.016891368 0.02656959 -0.03492152 0.004068616 -0.010987022
-0.014916923 -0.03961353 -0.0009805927 0.012125911 0.035382632 -0.012559032 0.0071095773 -0.034104813
-0.033179305 0.00022033253 0.03246392 -0.012298701 0.03695346 -0.048154842 -0.015195223 -0.03751572
0.006065614 -0.027925646 -0.02611572 0.025514696 0.0011146009 0.020707129 0.042024735 -0.045955423
0.023110043 0.003399253 -0.049835622 0.010798163 0.0113969 0.019060079 -0.01449261 -0.041208338
-0.045862313 0.034228064 -0.016789459 -0.033051185 0.021075036 -0.031203179 0.00527985 -0.04447836
0.010432153 0.039001476 -0.001526446 -0.015083056 0.024430651 -0.024719182 0.037017424 0.016019287
00000000: feb7 59bd dd30 2fbe 4b65 41be 1c05 a2bd
00000010: bbb7 26be 1bbf 24be 25cc 2dbe b25f 36be
00000020: 6239 2abe 5a23 d3bc 596f 14be 267b 61be
00000030: f2a1 1dbc 619e a2bd a37b 25be 5795 30be
00000040: 7d69 cabd 1e4a 0abe ca20 2d3c 7d6c 4dbd
00000050: 0235 28be c10b 69bd fd09 22bd 0068 a0bd
00000060: ef4a 94bd c26b 1abe 0016 dfbd 6f82 a83d
00000070: ff19 2e3c d19d cebd 2c2e 573d c7d7 46bd
00000080: 8dd5 5dbd 5b62 e6bd 8850 14be 49c8 23be
00000090: a84d 9c3d f5fe dfbc 90d6 bdbd cde1 963d
000000a0: 8de5 c23b 8983 3dbd ade8 adbc 90b2 93bd
000000b0: 959b 07be 8827 383e d24d ca3d 101c 35bd
000000c0: e1e3 ea3d 9ac4 f1b8 390f 733c 76ee 183c
000000d0: cf56 78bb 7dc0 e2bc 3245 4d3e a900 c63d
000000e0: d20b 9c3d f588 3d3e e6ea bd3d 1d23 9c3d
000000f0: 4450 743d 6a9d babc 697f 33bd 79de 843e
00000100: 5823 613e dfa2 003e 3b92 623e 8f58 2b3e
00000110: 40b9 e93d 7a12 043e 4d0c 883c 2db7 b4bb
00000120: 9bda b13e 375e 963e 2228 313e dd88 a03e
00000130: 16a9 6d3e 4539 313e 356b 413e 0d70 063e
00000140: 4108 313d 03ab 68bc 6151 52bd b28f e8bc
00000150: 63c1 703c 119d c5bc 2c50 aebc c3a1 5abd
00000160: 4c97 67bd 3c5d 13be 8e75 2dbd aa8e babc
00000170: 74e5 31bc c1b5 583c 9e4e 90bc bc85 dabb
00000180: 2f89 62bd 7776 0bbe dbf5 bbbd a1bc b43c
00000190: f6f5 0f3d 1b9e 7ebc fac1 bb3c 445b 283d
000001a0: f3c4 523c 0aae c9bd c542 34bd 05c7 c6bd
000001b0: f9b3 303c 1b82 433d c693 8f3c 3331 a03d
000001c0: 79a9 983c 23de e3bc fcfa 89bd 83b0 91bd
000001d0: d094 edbd a5be b03d fe96 bc3d 5979 7a3d
000001e0: 237b c73d 8050 8e3d a015 043d a202 7abb
000001f0: aba6 7dbd bd1f 33bd ccb1 f43d 508b 943d
00000200: 6960 0c3e 9840 bc3d a95a c43d 581f b83d
00000210: ce36 efbb dcec ba3b 346a 30bd 9e48 1d3e
00000220: 6d9a 4a3e 1abe d33d e544 393e 1e3c cf3d
00000230: 6da8 fa3d 58d2 113d a02a 053d a52c 8c3b
00000240: 7b0e 243e 54f2 6d3e dc36 4f3e 4b5a 523e
00000250: 95c0 353e 9c96 1c3e be59 963d 41f4 783d
00000260: 88ab b73d 27ae 7e3e ea46 6d3e 7691 203e
00000270: dc85 5b3e 8296 323e 7bc9 343e aa24 fe3d
00000280: d34c ca3d e59e a13d 5754 203c f500 a93c
00000290: 282e 2a3d fde1 eb3c d70b ba39 1933 923b
000002a0: 1959 e83c ba14 23bd c9fa 1f3d 8c7f ce3b
000002b0: 90fd 953c 43a0 b7bc d2d2 e8bb e0f3 1fbd
000002c0: 397b ebbc c51a 253c 3567 53bd 98e7 753c
000002d0: 1867 a13c a720 04bd fa33 063d 3403 9a3c
000002e0: 2069 9abc 8805 f9ba 8438 063d 57ba 7e3c
000002f0: 12bd b2bc 348b f03c 79e4 ba3c 9491 ba3b
00000300: 52cd 35bd 62ef 28bb 7fca 21bd 9bee b2bc
00000310: 0927 663c a0b0 403c 62d5 bc3c 5c0b 14bd
00000320: fda8 293d ed00 2b3c 11c2 a7bc c45f 8a3c
00000330: 78a8 d93c de09 0fbd 0652 853b e902 34bc
00000340: 1c66 74bc cc41 22bd 3b87 80ba c2ab 463c
00000350: 61ed 103d 66c4 4dbc 75f7 e83b 7db1 0bbd
00000360: 06e7 07bd 1009 6739 e3f8 043d 7e80 49bc
00000370: 835c 173d 033e 45bd 62f5 78bc 15aa 19bd
00000380: 0fc2 c63b 53c4 e4bc a2f0 d5bc 3204 d13c
00000390: cd17 923a ffa1 a93c 2122 2c3d c13b 3cbd
000003a0: 4651 bd3c 00c6 5e3b 7020 4cbd c7ea 303c
000003b0: 10ba 3a3c e223 9c3c 6972 6dbc 13ca 28bd
000003c0: 1fda 3bbd ba32 0c3d 0c8a 89bc ae60 07bd
000003d0: 8ea5 ac3c cf9d ffbc 9802 ad3b f12e 36bd
000003e0: 9feb 2a3c 03c0 1f3d 0713 c8ba ec1e 77bc
000003f0: ca22 c83c e27f cabc 959f 173d e13a 833c

conv1.bias f4 [32]
-0.08283584 -0.16510092 -0.07598562 -0.1863583 -0.35239917 -0.012230719 -0.044269804 0.123045094
0.03685094 -0.35841954 0.08396851 -0.16175342 -0.07582236 -0.022518927 -0.09293541 -0.08174798
-0.2680768 0.07414338 0.033045404 0.067987695 0.006581381 0.07798001 0.023375649 -0.07592195
0.21787328 -0.16508469 0.109092355 -0.13140331 0.086310774 -0.0016104277 -0.05002221 0.038997475
00000000: d6a5 a9bd 3710 29be 599e 9bbd b6d4 3ebe
00000010: aa6d b4be 5b63 48bc 4154 35bd 11ff fb3d
00000020: 03f1 163d c482 b7be aff7 ab3d b0a2 25be
00000030: c148 9bbd 9d79 b8bc ec54 bebd 7c6b a7bd
00000040: 5d41 89be 7cd8 973d 9e5a 073d 223d 8b3d
00000050: a0a8 d73b fcb3 9f3d 4a7e bf3c f87c 9bbd
00000060: 2c1a 5f3e f60b 29be d06b df3d 978e 06be
00000070: b4c3 b03d fd14 d3ba 17e4 4cbd d1bb 1f3d

conv2.weight f4 [16, 32, 5, 5]
0.12988381 0.07552222 0.023702543 -0.0075139315 0.1588693 0.118781246 -0.023389922 -0.10057288
-0.15652403 -0.11971842 0.20604505 0.0140968375 0.014019888 -0.08331674 -0.17270228 0.045268927
-0.022063667 0.08658279 -0.01343736 -0.072696775 0.0048523843 0.015401164 0.1450756 0.12749918
0.19733188 -0.47668508 -0.45447168 -0.542493 -0.4776609 -0.14644136 -0.19991033 -0.29047862
-0.42233595 -0.44155023 -0.20871466 0.03001104 0.04572327 -0.1283505 -0.363302 -0.22016938
0.1911861 0.08417421 -0.020840956 -0.21328697 -0.16546437 0.17219111 0.24802849 0.24745695
0.1531714 0.18981545 0.03771381 0.055480115 0.045614004 0.030878969 0.00792186 -0.0036830977
0.027100928 0.03253617 -0.026722409 0.03417769 0.017531477 0.033241376 0.048408464 0.0133314505
0.05088588 0.032006823 -0.041165024 0.01459904 -0.06624052 0.05088096 0.051729694 0.008337773
0.022796936 0.06510023 0.03968572 -0.04525545 0.014134353 0.0131351985 0.01654687 -0.03132052
0.011005077 0.007480502 0.05434747 -0.053299386 -0.016166875 0.0038605835 0.029635875 0.025502004
0.0038200691 -0.004136656 -0.054995053 0.026849497 -0.045521032 0.056356207 -0.040905602 -0.042342875
-0.009504957 0.045252897 0.02757041 0.0614195 0.021766776 0.0051010055 0.027012255 0.112231016
0.13465251 -0.070808046 -0.00964038 -0.011075739 0.07200996 0.053789485 -0.14718363 -0.08240464
-0.14760649 -0.10668516 0.0381968 -0.1293584 -0.05490587 -0.12587126 -0.051882368 0.015967323
-0.14258195 -0.031474687 -0.123335615 -0.09464978 0.08906927 0.14073841 0.04847779 0.033684514
0.0147095425 0.040703394 0.107974395 0.082932994 -0.0007148154 -0.104478166 -0.12616497 0.0373556
-0.0029273538 0.01673586 0.031294778 0.051109664 -0.025840657 -0.059187036 -0.033476353 -0.072130464
-0.018286508 0.011611092 0.03801448 -0.007068665 0.07267974 0.045791455 -0.060453005 -0.019194122
-0.06823542 0.024021015 -0.006131582 0.008340469 0.06584396 -0.017666372 0.06878429 -0.044047806
-0.06444243 0.063228436 0.05255209 0.045131072 -0.033518102 -0.068689354 0.021840103 -0.023518853
-0.0026043206 0.056430455 -0.0015688464 -0.060585544 0.0039912835 -0.059538923 0.04568802 -0.16163248
-0.21133181 -0.2569023 -0.2944699 -0.40335667 -0.077089384 -0.040044107 -0.11417581 -0.2005785
-0.34775823 0.072516896 0.0374319 -0.10163906 -0.06677633 -0.20787126 0.075686894 0.11546766
-0.071047015 -0.037724692 -0.22069901 0.049680755 0.113917604 0.055158563 -0.020593256 -0.22366118
-0.35176554 -0.28100783 -0.078434736 -0.06012195 -0.055754494 -0.053794205 -0.029333103 -0.058197852
-0.0195246 0.06876823 0.113814175 0.08250006 0.18095881 0.087588705 0.08478955 0.15722439
0.052236848 0.11728717 0.10740678 0.13672721 0.051149514 0.15580483 0.09574883 0.24242075
0.27826327 -0.46423522 -0.47393104 -0.42951104 -0.26294973 -0.24536166 -0.43086442 -0.49106058
-0.46239832 -0.30609465 -0.23185547 -0.22869125 -0.19278027 -0.18270259 -0.17710137 -0.15953499
-0.14820924 -0.17566189 -0.25685513 -0.21665432 -0.19418006 0.047922287 0.017922377 0.03352737
0.10984977 -0.018157186 -0.43749815 -0.34820288 -0.31064335 -0.45414662 -0.41902676 -0.21473417
00000000: 4300 053e 65ab 9a3d d62b c23c 6d37 f6bb
00000010: a2ae 223e 9543 f33d 399c bfbc 27f9 cdbd
00000020: d647 20be ee2e f5bd 79fd 523e 6cf6 663c
00000030: acb3 653c f8a1 aabd ded8 30be e96b 393d
00000040: ddbe b4bc 5152 b13d 5f28 5cbc 0ce2 94bd
00000050: c000 9f3b 2a55 7c3c b38e 143e 258f 023e
00000060: 5e11 4a3e 1110 f4be 83b0 e8be d2e0 0abf
00000070: f88f f4be b9f4 15be 4bb5 4cbe 9db9 94be
00000080: 6b3c d8be df12 e2be 4cb9 55be b6d9 f53c
00000090: 5348 3b3d 506e 03be b802 babe 1574 61be
000000a0: 4ac6 433e 8763 ac3d a7ba aabc e667 5abe
000000b0: 7e6f 29be de52 303e 2efb 7d3e 5b65 7d3e
000000c0: f7d8 1c3e fb5e 423e cc79 1a3d 1e3f 633d
000000d0: c0d5 3a3d e4f5 fc3c b0ca 013c 2060 71bb
000000e0: c402 de3c a644 053d f4e8 dabc e8fd 0b3d
000000f0: 2c9e 8f3c 1c28 083d f447 463d 286c 5a3c
00000100: b66d 503d 9619 033d a89c 28bd d030 6f3c
00000110: 1ca9 87bd 8e68 503d 84e2 533d 289b 083c
00000120: a4c0 ba3c 4553 853d 7e8d 223d c75d 39bd
00000130: c693 673c 0435 573c 4d8d 873c f249 00bd
00000140: a34e 343c 001f f53b 749b 5e3d 7550 5abd
00000150: 6570 84bc d801 7d3b efc6 f23c 94e9 d03c
00000160: 205a 7a3b c98c 87bb 7e42 61bd 7af3 db3c
00000170: 4374 3abd c4d5 663d a28c 27bd b96f 2dbd
00000180: aeba 1bbc 1a5b 393d 57db e13c 0393 7b3d
00000190: 3d50 b23c 5626 a73b ce48 dd3c 60d9 e53d
000001a0: 59e2 093e cf03 91bd aff2 1dbc 0477 35bc
000001b0: f579 933d 5d52 5c3d 4eb7 16be c4c3 a8bd
000001c0: 2826 17be c07d dabd 3f74 1c3d 8776 04be
000001d0: fae4 60bd 65e4 00be 9b82 54bd e7cd 823c
000001e0: 0101 12be 9aeb 00bd 6297 fcbd bed7 c1bd
000001f0: f369 b63d bb1d 103e a690 463d c6f8 093d
00000200: 4b00 713c 9ab8 263d ae21 dd3d c6d8 a93d
00000210: 7362 3bba a6f8 d5bd 6431 01be 3002 193d
00000220: d9d8 3fbb a419 893c f42e 003d 5e58 513d
00000230: c9af d3bc 1b6e 72bd 801e 09bd 23b9 93bd
00000240: 96cd 95bc 733c 3e3c 12b5 1b3d 43a0 e7bb
00000250: 1ed9 943d d28f 3b3d 929d 77bd fe3c 9dbc
00000260: 03bf 8bbd b8c7 c43c 70eb c8bb 76a6 083c
00000270: 33d9 863d 11b9 90bc c7de 8c3d 796b 34bd
00000280: 65fa 83bd e97d 813d dc40 573d 5cdb 383d
00000290: 474a 09bd 01ad 8cbd 04ea b23c 9caa c0bc
000002a0: 40ad 2abb 9f23 673d c0a1 cdba 8c28 78bd
000002b0: 50c9 823b 16df 73bd 5c23 3b3d fc82 25be
000002c0: 5e67 58be b388 83be c2c4 96be c484 cebe
000002d0: 0ae1 9dbd 4a05 24bd 02d5 e9bd 7364 4dbe
000002e0: 5e0d b2be bd83 943d 3152 193d 2428 d0bd
000002f0: 07c2 88bd 34dc 54be bb01 9b3d 4f7a ec3d
00000300: 1981 91bd 3585 1abd ecfe 61be 0c7e 4b3d
00000310: a24d e93d f2ed 613d 30b3 a8bc 7007 65be
00000320: 9d1a b4be 42e0 8fbe 64a2 a0bd 6f42 76bd
00000330: d35e 64bd 5057 5cbd fa4b f0bc df60 6ebd
00000340: 0ef2 9fbc 5cd6 8c3d 6817 e93d cbf5 a83d
00000350: 444d 393e b561 b33d 25a6 ad3d 6eff 203e
00000360: 4ef6 553d 4134 f03d 16f8 db3d 3802 0c3e
00000370: 2782 513d 4d8b 1f3e f617 c43d 253d 783e
00000380: 8678 8e3e 3db0 edbe 17a7 f2be dfe8 dbbe
00000390: 59a1 86be 1640 7bbe 439a dcbe 4b6c fbbe
000003a0: 79bf ecbe 70b8 9cbe 856b 6dbe 0a2e 6abe
000003b0: 3168 45be 6316 3bbe 105a 35be 245d 23be
000003c0: 2ac4 17be b6e0 33be 8482 83be a1da 5dbe
000003d0: 23d7 46be 294a 443d f3d1 923c ff53 093d
000003e0: ebf8 e03d 61be 94bc c2ff dfbe a647 b2be
000003f0: a50c 9fbe e885 e8be ad8a d6be 46e3 5bbe

conv2.bias f4 [16]
0.016421828 0.07520353 0.03063461 0.24827138 -0.04243257 -0.19648817 0.1051201 0.4220899
-0.054641847 0.01564888 0.007443085 0.06285137 0.014342564 0.13074325 0.09334867 0.0147239575
00000000: 1287 863c 4f04 9a3d 6ff5 fa3c da3a 7e3e
00000010: c6cd 2dbd 3234 49be 3549 d73d 2b1c d83e
00000020: 21d0 5fbd 1432 803c 1fe5 f33b 38b8 803d
00000030: 13fd 6a3c 8fe1 053e 962d bf3d c13c 713c

conv3.weight f4 [8, 16, 3, 3]
-0.12892587 0.18060654 -0.15627953 0.19665122 0.13629177 -0.026965031 -0.0754453 -0.037726842
-0.0152689 -0.04517955 -0.11378599 0.018304778 -0.12580466 -0.01760608 0.059810113 0.04660194
0.0428554 0.035382874 -0.01681425 0.14530785 0.21432224 -0.019063367 0.04780627 0.02998407
-0.23903705 -0.22102144 0.13134402 -0.15630844 -0.0834324 -0.15452854 -0.28091487 0.210954
0.09057343 0.011169028 0.18437205 0.2052285 -0.26121846 -0.5003592 0.025446549 -0.19414791
-0.2809406 -0.18263923 0.14934836 -0.14326027 0.121628545 -0.2331131 -0.1444249 0.08108922
-0.10842408 -0.092217006 -0.10117662 0.19907388 0.14526275 -0.0052542235 -0.3620526 -0.12876374
-0.076829925 -0.24016397 0.01708279 0.016169177 -0.21203306 0.20845445 0.04672396 -0.3280197
-0.15085603 -0.054058544 -0.06963088 0.1784084 -0.06198253 0.0032969357 -0.008454093 0.00564913
0.076156214 0.16058584 0.06790145 0.08063023 0.16081865 0.086861774 -0.051574692 0.03431122
-0.039777577 0.118874624 -0.04784429 -0.079330266 -0.106595024 -0.09376627 0.02854991 -0.13236839
-0.08400484 -0.08848333 0.15834685 0.16222538 0.11784981 -0.1239207 0.13376518 -0.08688694
-0.031832978 0.10385798 -0.006826386 0.054711174 0.1439786 -0.20202297 0.31179944 0.14020717
0.3008837 -0.1442432 0.010305945 -0.05887974 0.038284108 0.14755757 -0.08886918 0.050791457
-0.07438706 0.10557188 0.1353011 -0.064112686 -0.05873873 -0.119826086 -0.14194259 0.20124473
-0.21621545 0.16457084 0.052784525 -0.20814319 0.19542475 0.026011951 0.09013133 0.20283625
-0.118899025 -0.022752253 -0.04035338 0.06866571 0.10133062 0.32451874 0.0808584 0.04686424
0.09362291 0.062786534 0.09512083 -0.050803985 0.16204824 -0.09253751 -0.001029763 0.12717232
-0.017013714 0.07014918 -0.06957686 0.06919826 -0.11924336 -0.04881279 -0.0013030524 0.01988965
-0.028124161 -0.032282185 -0.022019038 0.043910068 -0.0303062 -0.20628032 0.10365318 0.08028021
-0.012047257 -0.1462172 -0.17936145 0.13476945 0.0070471 -0.15543677 -0.035796583 -0.085967466
0.12159398 0.1190827 -0.15538627 -0.086958885 -0.15750572 -0.13312069 -0.13118081 0.057091165
0.030091742 -0.13814996 0.12748997 -0.07912253 0.111249074 -0.12605394 -0.17998478 -0.19544727
-0.09541863 -0.11287956 -0.12650687 -0.12639108 -0.1119034 -0.16328493 0.012151276 -0.016158614
0.11551476 -0.17658779 0.03478853 0.09376273 -0.037875433 -0.10569745 -0.031131357 0.08024806
0.014849194 0.018607596 -0.19596115 -0.17380653 0.009579452 -0.014446641 -0.05710036 0.0024080724
-0.16289936 -0.12092545 -0.15399957 -0.07061249 0.013627021 -0.14096507 -0.10600071 -0.08486393
0.056396738 -0.05729413 0.06288089 0.09021135 -0.04090391 0.12025927 0.091446355 -0.079123974
0.04163651 0.08982085 -0.035024107 -0.13944685 -0.064607665 0.061504066 -0.06291338 0.028319135
-0.013891265 -0.026038349 -0.07675707 0.0029045343 -0.109204076 -0.11501634 -0.060333908 0.14084841
-0.0067442507 -0.04191363 0.12047489 0.08488621 0.16345252 -0.13179146 -0.036643684 -0.10931362
-0.14159179 0.026903942 0.025234165 -0.077450365 -0.12666361 -0.059393227 -0.04482188 -0.067602396
00000000: 2505 04be ecf0 383e be07 20be f05e 493e
00000010: 1290 0b3e c5e5 dcbc 1183 9abd 7687 1abd
00000020: 692a 7abc 310e 39bd a108 e9bd e7f3 953c
00000030: f0d2 00be a03a 90bc 73fb 743d ade1 3e3d
00000040: 2589 2f3d a2ed 103d 0abe 89bc 95cb 143e
00000050: 4a77 5b3e c72a 9cbc 82d0 433d 27a1 f53c
00000060: 21c6 74be 7253 62be 0c7f 063e 520f 20be
00000070: 9bde aabd bb3c 1ebe 13d4 8fbe 5304 583e
00000080: 907e b93d 4cfe 363c 07cc 3c3e 6b27 523e
00000090: 6dbe 85be 8a17 00bf 4875 d03c b6ce 46be
000000a0: 72d7 8fbe c705 3bbe c7ee 183e d2b2 12be
000000b0: 6318 f93d 33b5 6ebe 1fe4 13be 1b12 a63d
000000c0: 720d debd 45dc bcbd b035 cfbd 06da 4b3e
000000d0: c2bf 143e 9f2b acbb f55e b9be a4da 03be
000000e0: 0259 9dbd 8bed 75be 35f1 8b3c 3975 843c
000000f0: 321f 59be 1575 553e a061 3f3d 33f2 a7be
00000100: 017a 1abe 7e6c 5dbd a39a 8ebd b1b0 363e
00000110: 65e1 7dbd 6711 583b 0983 0abc 561c b93b
00000120: caf7 9b3d 9d70 243e ea0f 8b3d 7621 a53d
00000130: a5ad 243e 96e4 b13d fc3f 53bd ec89 0c3d
00000140: d0ed 22bd 8a74 f33d 60f8 43bd e877 a2bd
00000150: 7e4e dabd 8808 c0bd 80e1 e93c 948b 07be
00000160: bb0a acbd c036 b5bd ad25 223e 691e 263e
00000170: 3e5b f13d 23ca fdbd bdf9 083e c8f1 b1bd
00000180: 4c63 02bd 7eb3 d43d e0af dfbb d318 603d
00000190: 206f 133e 1cdf 4ebe 2da4 9f3e 7892 0f3e
000001a0: 6e0d 9a3e 7db4 13be 44da 283c e22b 71bd
000001b0: cccf 1c3d 5519 173e 0b01 b6bd b40a 503d
000001c0: 3e58 98bd 1236 d83d 5f8c 0a3e 834d 83bd
000001d0: 0698 70bd 6167 f5bd 6659 11be 1913 4e3e
000001e0: 9567 5dbe 4285 283e 9634 583d 7d23 55be
000001f0: 6d1d 483e 0417 d53c c696 b83d 4eb4 4f3e
00000200: 5581 f3bd ef62 babc 9649 25bd 9ca0 8c3d
00000210: 6e86 cf3d 5227 a63e 1799 a53d b8f4 3f3d
00000220: 5ebd bf3d 3a96 803d b6ce c23d d717 50bd
00000230: f9ef 253e 4e84 bdbd 1df9 86ba 7639 023e
00000240: 5860 8bbc 60aa 8f3d 507e 8ebd d1b7 8d3d
00000250: dd35 f4bd ecef 47bd 2fcb aaba 9fef a23c
00000260: a464 e6bc 533a 04bd 4561 b4bc 0bdb 333d
00000270: b544 f8bc 263b 53be 1e48 d43d f369 a43d
00000280: dc61 45bc f6b9 15be 87aa 37be 0101 0a3e
00000290: 5ceb e63b d12a 1fbe 709f 12bd b60f b0bd
000002a0: 4406 f93d a1e1 f33d 941d 1fbe 8017 b2bd
000002b0: 2e49 21be ca50 08be 4354 06be 6dd8 693d
000002c0: f582 f63c 2f77 0dbe bb8c 023e fe0a a2bd
000002d0: 8ed6 e33d 4914 01be ee4d 38be 5423 48be
000002e0: d86a c3bd 662d e7bd 048b 01be aa6c 01be
000002f0: 9c2d e5bd 2a34 27be 2516 473c 125f 84bc
00000300: 0193 ec3d 6ed3 34be 6b7e 0e3d ad06 c03d
00000310: 4523 1bbd e877 d8bd 3007 ffbc 1859 a43d
00000320: 094a 733c f56e 983c 0aaa 48be 57fa 31be
00000330: 22f3 1c3c 9bb1 6cbc 11e2 69bd c0d0 1d3b
00000340: 17cf 26be c3a7 f7bd 10b2 1dbe 489d 90bd
00000350: de43 5f3c 2659 10be e616 d9bd 24cd adbd
00000360: 4400 673d 40ad 6abd b2c7 803d bac0 b83d
00000370: dc8a 27bd 7e4a f63d 3a48 bb3d c00b a2bd
00000380: 0c8b 2a3d fef3 b73d 7075 0fbd 28cb 0ebe
00000390: 0651 84bd b0eb 7b3d bbd8 80bd 88fd e73c
000003a0: 3098 63bc 604e d5bc d032 9dbd 005a 3e3b
000003b0: 63a6 dfbd b08d ebbd b020 77bd 913a 103e
000003c0: e0fe dcbb a0ad 2bbd 8abb f63d d2d8 ad3d
000003d0: 1960 273e 57f4 06be b017 16bd d2df dfbd
000003e0: 70fd 10be a865 dc3c e1b7 ce3c 4c9e 9ebd
000003f0: 1bb4 01be 5046 73bd 2697 37bd 2073 8abd

conv3.bias f4 [8]
-0.20895445 -0.1261747 -0.03960285 0.078339115 -0.049767528 -0.18436652 -0.09337366 0.66597146
00000000: 28f8 55be f133 01be 9936 22bd 4270 a03d
00000010: 09d9 4bbd 94ca 3cbe b13a bfbd 1b7d 2a3f

convt1.weight f4 [8, 8, 3, 3]
0.008023411 0.120109536 0.08092561 0.056620453 -0.07013776 -0.14508305 0.0657821 -0.015753089
-0.026647925 -0.15431815 0.022018949 -0.112968415 -0.18834983 -0.0075616227 -0.10372922 -0.084754854
-0.09100215 -0.07678239 0.46159208 -0.028249329 0.025347413 0.060256682 -0.13773307 -0.061764974
0.19264139 -0.023892 -0.13040918 0.09384521 -0.09031942 -0.09422891 0.22784917 -0.036011755
-0.23060364 -0.064116545 -0.02772458 -0.1377103 0.1348502 -0.3184132 -0.14344867 0.06372074
-0.36240742 -0.04435562 0.09695423 0.12180671 -0.14515424 -0.12387393 0.24915905 -0.4690526
0.04671151 -0.11838245 -0.022045556 -0.7936491 -0.08148726 -0.11911405 -0.06095601 0.13420929
0.021962056 0.1582432 -0.05746618 -0.010126653 -0.012990072 0.43136346 -0.16107763 -0.38242897
-0.101257496 -0.46475875 0.090924494 -0.08508835 -0.14255223 -0.3432348 0.018203165 -0.37708938
0.11296064 0.018707864 0.0794335 0.0482084 -0.19650763 -0.1755734 -0.07815425 0.062022686
-0.08027333 -0.106422834 0.094349094 -0.13338354 -0.009832249 0.14845848 -0.13259333 -0.06814887
0.09060505 0.20822527 -0.05904438 0.095034614 0.058307372 -0.13838503 -0.15231244 -0.15984716
-0.071236506 0.060691494 0.14995307 0.19014022 -0.12806025 0.16418537 -0.07800077 -0.031425785
0.10503504 0.13201268 0.065559655 -0.18346778 0.044220194 -0.1340246 -0.08336262 -0.14941725
-0.16518314 0.036726013 0.14686024 -0.10224532 -0.121519275 0.13349365 -0.062269438 0.058555588
0.13871604 0.00083094777 -0.016786015 -0.06248783 0.16528527 -0.13281068 0.13446075 -0.03337224
-0.13281946 -0.0074556917 0.056038897 0.15634064 -0.06880314 0.041755527 -0.16223335 -0.002233517
0.1221644 0.112044066 -0.040788908 -0.0120159425 0.028475134 0.1297527 -0.041049287 0.099672586
-0.18579261 0.07747138 -0.019223185 0.1731079 0.04529873 0.016070565 0.04040851 0.2732572
-0.11409194 0.12674353 -0.2247145 -0.10009542 -0.2512405 -0.037245132 0.08724207 0.19657792
0.0899435 -0.013552464 -0.16108716 0.027904514 0.03883887 0.08513453 -0.2661616 0.15715884
0.14597246 -0.016429435 0.17348062 0.0020480491 0.009697066 -0.045398418 -0.20350812 -0.12860951
0.13186234 0.042614922 0.09746166 0.046513565 0.023005346 0.14454691 0.022471828 -0.23637944
-0.024707172 -0.50246483 0.19550198 -0.11460443 0.18053941 -0.3513588 -0.07641633 -0.43447685
-0.047372907 0.06542436 -0.20497766 -0.21973358 -0.1867121 -0.31966248 -0.15340005 0.025336942
-0.21283217 0.1881335 -0.49684924 -0.17854188 -0.0029023571 -0.009894972 0.009829442 -0.13748021
-0.16481782 -0.04466721 0.18833719 0.17103085 0.107755676 0.07411137 0.2319822 0.28663924
-0.39438614 0.0454481 -0.36781922 0.11335806 0.10525521 0.54856545 -0.1806267 0.038410567
-0.2627115 0.06731602 0.42479208 0.13993216 -0.10440615 -0.42574257 -0.24288872 -0.98686284
-0.59059095 -0.08462081 -1.2206025 0.22994816 0.0334971 0.14337517 -0.074750915 0.07228943
-0.03687804 0.22799179 0.25609684 0.11341846 0.1680456 -0.006065058 -0.32991728 0.12454647
-0.19795488 -0.13294078 -0.7146678 -0.05366317 -0.5541439 -0.5614448 -0.24469525 -0.20675498
00000000: a074 033c fdfb f53d 54bc a53d d9ea 673d
00000010: 63a4 8fbd a790 14be c4b8 863d 9f0c 81bc
00000020: c04c dabc 9405 1ebe 1561 b43c fc5b e7bd
00000030: c7de 40be 7dc7 f7bb fc6f d4bd f493 adbd
00000040: 565f babd 1640 9dbd cc55 ec3e 236b e7bc
00000050: 61a5 cf3c b6cf 763d e609 0dbe 45fd 7cbd
00000060: c943 453e 28b9 c3bc fc89 05be eb31 c03d
00000070: 63f9 b8bd 16fb c0bd 4b51 693e 1081 13bd
00000080: 5c23 6cbe 894f 83bd a91e e3bc ee03 0dbe
00000090: 2c16 0a3e 0e07 a3be 35e4 12be 0580 823d
000000a0: 778d b9be 3dae 35bd f08f c63d cc75 f93d
000000b0: 50a3 14be 9db1 fdbd 8d23 7f3e aa27 f0be
000000c0: 9154 3f3d 7f72 f2bd e298 b4bc 962c 4bbf
000000d0: cbe2 a6bd 11f2 f3bd 02ad 79bd 296e 093e
000000e0: c5e9 b33c 810a 223e a861 6bbd 43ea 25bc
000000f0: 50d4 54bc acdb dc3e 89f1 24be bbcd c3be
00000100: 1760 cfbd dcf4 edbe 9f36 ba3d cd42 aebd
00000110: 36f9 11be 79bc afbe ce1e 953c dc11 c1be
00000120: e857 e73d 3c41 993c 08ae a23d 2c76 453d
00000130: 4c39 49be 83c9 33be 560f a0bd 800b 7e3d
00000140: 5866 a4bd 37f4 d9bd 193a c13d b295 08be
00000150: 7117 21bc 8005 183e 8cc6 07be a291 8bbd
00000160: 248f b93d 0139 553e 85d8 71bd 82a1 c23d
00000170: b6d3 6e3d ceb4 0dbe cbf7 1bbe f9ae 23be
00000180: 72e4 91bd a597 783d 4c8d 193e 1eb4 423e
00000190: 3a22 03be 3620 283e debe 9fbd 53b8 00bd
000001a0: 9c1c d73d 552e 073e 2444 863d fade 3bbe
000001b0: 3c20 353d bf3d 09be 05ba aabd d600 19be
000001c0: c525 29be 046e 163d 8862 163e ff65 d1bd
000001d0: 19df f8bd 8fb2 083e 3d0e 7fbd fcd7 6f3d
000001e0: 940b 0e3e f6d3 593a d382 89bc 3df3 7fbd
000001f0: 8b40 293e 86ff 07be 14b0 093e 54b1 08bd
00000200: d301 08be e04e f4bb 0b89 653d c317 203e
00000210: a9e8 8cbd d807 2b3d 8020 26be 3260 12bb
00000220: 5431 fa3d 5c77 e53d 4512 27bd 84de 44bc
00000230: af44 e93c e4dd 043e 4c23 28bd 2421 cc3d
00000240: 6b40 3ebe 51a9 9e3d f179 9dbc 3343 313e
00000250: 298b 393d 6ba6 833c 6583 253d 5ee8 8b3e
00000260: 09a9 e9bd 0ec9 013e 8f1b 66be d4fe ccbd
00000270: 98a2 80be 5a8e 18bd f8ab b23d b94b 493e
00000280: 4c34 b83d 270b 5ebc 08f4 24be 0298 e43c
00000290: 8215 1f3d 035b ae3d 5546 88be 3fee 203e
000002a0: ce79 153e 0697 86bc e7a4 313e 9038 063b
000002b0: 71e0 1e3c b1f3 39bd 6f64 50be 36b2 03be
000002c0: ec06 073e fc8c 2e3d fb99 c73d 0285 3e3d
000002d0: b575 bc3c 1b04 143e d716 b83c 740d 72be
000002e0: b266 cabc 89a1 00bf ac31 483e bab5 eabd
000002f0: 53df 383e 4de5 b3be 2a80 9cbd c073 debe
00000300: 180a 42bd 35fd 853d aae5 51be d701 61be
00000310: 7531 3fbe cdaa a3be e714 1dbe 6b8f cf3c
00000320: adf0 59be 11a6 403e 0663 febe afd3 36be
00000330: 7935 3ebb 851e 22bc ab0b 213c 9dc7 0cbe
00000340: 01c6 28be f7f4 36bd 77db 403e b622 2f3e
00000350: 02af dc3d b4c7 973d be8c 6d3e 61c2 923e
00000360: fbec c9be c927 3a3d cd52 bcbe 4528 e83d
00000370: 0b90 d73d c96e 0c3f 35f6 38be 6654 1d3d
00000380: 1f82 86be fbdc 893d 597e d93e 604a 0f3e
00000390: e4d2 d5bd eefa d9be d2b7 78be 0ba3 7cbf
000003a0: f830 17bf ad4d adbd b43c 9cbf 8877 6b3e
000003b0: 4134 093d f1d0 123e 0217 99bd 7b0c 943d
000003c0: 6d0d 17bd ae76 693e 201f 833e f047 e83d
000003d0: 2514 2c3e 65bd c6bb ebea a8be 3812 ff3d
000003e0: afb4 4abe a121 08be 78f4 36bf eacd 5bbd
000003f0: 60dc 0dbf d9ba 0fbf 6491 7abe 94b7 53be

convt1.bias f4 [8]
-0.04224811 0.07152963 0.014189971 -0.021004342 0.12297011 0.16197237 0.0076664984 0.023057153
00000000: 5b0c 2dbd 207e 923d 0d7d 683c 4c11 acbc
00000010: c1d7 fb3d 16dc 253e 4037 fb3b 5be2 bc3c

convt2.weight f4 [8, 16, 5, 5]
-0.18110238 0.08564107 -0.19089718 0.05268051 -0.073034115 -0.0754339 -0.1806185 -0.18879147
-0.028768038 -0.09702761 0.057429075 0.0730555 -0.14695527 -0.06939968 -0.13251236 -0.042181697
-0.008151379 0.085934564 -0.17103611 -0.14112125 -0.15147209 -0.009015765 -0.26049894 0.020034667
-0.40979043 0.02768866 0.04185514 0.056695256 0.2530342 -0.013642424 -0.021067834 -0.48772642
-0.28917775 -0.002553509 -0.19956732 -0.032987002 0.004901928 -0.08168408 -0.20119885 0.04300438
0.06486105 -0.22497697 -0.19720045 0.019592779 -0.43159887 0.0137829855 -0.31723797 -0.18695948
-0.3889417 -0.23525666 -0.14328423 -0.16757776 0.08761097 -0.07772733 0.1650992 0.0046526333
-0.056988884 0.04761237 -0.081170544 -0.016487373 0.028310424 -0.14569047 0.10948592 0.036707517
0.10264011 -0.011703883 -0.3321068 -0.12987539 -0.0130347675 -0.075549476 -0.16083664 -0.27210307
-0.08487716 -0.20725922 0.082440495 -0.045573566 -0.006117233 0.03095273 0.115364954 0.023429645
-0.055718295 -0.46693826 0.05004833 0.0951616 -0.035894282 0.017082475 -0.1937516 -0.040988646
0.005315523 -0.041124847 0.005014344 -0.17641862 -0.035408918 -0.23323472 0.077267416 0.081749365
-0.062422693 -0.054686695 0.11491723 -0.043447766 -0.105053805 -0.21011968 -0.010336692 0.08627889
0.054349303 -0.06917322 -0.2083655 -0.04806948 -0.19852662 -0.015405424 -0.111069985 -0.016630959
-0.059258915 -0.2468808 -0.0508414 -0.15874225 -0.18708135 -0.01743934 -0.12434259 -0.005274817
-0.06559616 -0.28783348 0.01835126 -0.049739234 0.06620857 -0.03913691 -0.40000004 -0.24365643
-0.3297532 0.08237008 -0.44574705 -0.22289419 -0.39453116 -0.19246094 -0.46153134 -0.0041603153
-0.035125416 0.0532117 -0.26205724 0.07989317 0.08280037 0.085950725 -0.103748634 0.090394
-0.0013776374 -0.017253276 -0.054374646 0.12139814 -0.22088526 -0.069519155 0.12569319 0.20540662
-0.15008079 0.045760617 -0.020702736 -0.06393344 0.009470575 -0.06938678 0.060268957 -0.028102698
-0.1480747 -0.29625535 0.04391992 -0.060638536 -0.09277144 -0.10604821 8.557947e-05 -0.0020612269
-0.08688855 0.06778322 -0.08617691 -0.36106107 -0.37754098 0.01913704 -0.13646638 0.1982771
-0.1850246 -0.08082191 -0.3762379 -0.20102395 0.06073468 0.053814255 0.0065738596 -0.10268659
-0.14473397 -0.054813698 0.09568204 -0.12208473 -0.03542436 0.06854634 0.048899703 0.07117731
-0.026004182 -0.0794992 -0.0059034284 -0.18946016 -0.12734635 -0.09745839 -0.400425 -0.09078493
0.07028125 -0.02512021 -0.15912792 -0.20963465 -0.02820196 -0.1316326 -0.19208552 -0.13991393
0.08405813 -0.078748174 -0.09129386 0.010521826 -0.04657005 -0.045214735 -0.022884348 -0.028951226
-0.14000884 -0.17151427 -0.054118574 -0.019060625 0.22651751 0.13501236 0.18346952 -0.05193793
0.060139883 0.24152379 0.15078652 0.17252378 0.0029042354 -0.0631425 0.12886523 -0.30655426
-0.013354444 -0.052744057 -0.37366012 0.00016763185 0.012782218 -0.07814301 -0.010199888 -0.11527058
-0.15316372 -0.21477205 -0.004568085 -0.02739109 -0.27263013 -0.08591323 -0.12006519 -0.026303831
-0.085339025 -0.038297273 -0.10717806 -0.08659157 -0.04758326 -0.18536653 0.016135005 -0.18398397
00000000: e772 39be 9664 af3d 8d7a 43be 85c7 573d
00000010: e992 95bd 177d 9abd 0ef4 38be 8d52 41be
00000020: f3aa ebbc 69b6 c6bd c03a 6b3d 1f9e 953d
00000030: 717b 16be 6b21 8ebd 52b1 07be b7c6 2cbd
00000040: 5d8d 05bc 76fe af3d 1724 2fbe 1782 10be
00000050: 801b 1bbe dcb6 13bc 1e60 85be be1f a43c
00000060: 0dd0 d1be 54d3 e23c 4c70 2b3d 4939 683d
00000070: b38d 813e 7984 5fbc 7396 acbc 47b7 f9be
00000080: 1b0f 94be c658 27bb 605b 4cbe 611d 07bd
00000090: 5aa0 a03b fc49 a7bd 1207 4ebe 5c25 303d
000000a0: dfd5 843d 5d60 66be eaee 49be 0981 a03c
000000b0: 87fa dcbe 08d2 613c 046d a2be 4e72 3fbe
000000c0: 5e23 c7be 1fe7 70be 1ab9 12be 8199 2bbe
000000d0: 616d b33d 822f 9fbd c40f 293e 1e75 983b
000000e0: 2d6d 69bd 3005 433d be3c a6bd 8710 87bc
000000f0: 43eb e73c e22f 15be 273a e03d 9f5a 163d
00000100: fa34 d23d a5c1 3fbc e709 aabe 0efe 04be
00000110: c78f 55bc afb9 9abd 5cb2 24be 1851 8bbe
00000120: 14d4 adbd c33b 54be 90d6 a83d 59ab 3abd
00000130: 1273 c8bb 9490 fd3c 7644 ec3d 87ef bf3c
00000140: de38 64bd 8812 efbe 7aff 4c3d 16e4 c23d
00000150: e205 13bd 8cf0 8b3c d266 46be b6e3 27bd
00000160: d72d ae3b 8772 28bd 5e4f a43b 15a7 34be
00000170: f108 11bd 15d5 6ebe 613e 9e3d 366c a73d
00000180: f0ae 7fbd 28ff 5fbd ba59 eb3d 49f6 31bd
00000190: 7326 d7bd 9d29 57be 3b5b 29bc fdb2 b03d
000001a0: 609d 5e3d b0aa 8dbd c45d 55be 81e4 44bd
000001b0: 904a 4bbe 0867 7cbc a978 e3bd a63d 88bc
000001c0: 7ab9 72bd 52ce 7cbe 123f 50bd 548d 22be
000001d0: 4192 3fbe f2dc 8ebc 54a7 febd 5fd8 acbb
000001e0: 4857 86bd e95e 93be 6255 963c 5ebb 4bbd
000001f0: 5c98 873d 064e 20bd cecc ccbe 1281 79be
00000200: 69d5 a8be a5b1 a83d f538 e4be 603e 64be
00000210: fdff c9be 7b14 45be d64d ecbe 4153 88bb
00000220: abdf 0fbd 83f4 593d 5e2c 86be 089f a33d
00000230: 3e93 a93d ef06 b03d 2a7a d4bd 7d20 b93d
00000240: d791 b4ba be56 8dbc f3b7 5ebd 979f f83d
00000250: bf2f 62be 0f60 8ebd b7b5 003e 1d56 523e
00000260: c7ae 19be 7c6f 3b3d c998 a9bc 89ef 82bd
00000270: 782a 1b3c a81a 8ebd 95dc 763d a137 e6bc
00000280: e5a0 17be c8ae 97be 60e5 333d 1d60 78bd
00000290: f4fe bdbd ce2f d9bd 2179 b338 a615 07bb
000002a0: a0f2 b1bd eed1 8a3d 857d b0bd ffdc b8be
000002b0: 0d4d c1be 48c5 9c3c d8bd 0bbe 2709 4b3e
000002c0: 1777 3dbe f585 a5bd 41a2 c0be 39d9 4dbe
000002d0: eec4 783d 566c 5c3d 8869 d73b 594d d2bd
000002e0: 2435 14be 5484 60bd f2f4 c33d 8f07 fabd
000002f0: 2219 11bd 0662 8c3d 0e4b 483d 69c5 913d
00000300: b906 d5bc 7ad0 a2bd 8c71 c1bb d801 42be
00000310: 1567 02be 4498 c7bd 8104 cdbe 73ed b9bd
00000320: 9eef 8f3d e6c8 cdbc 6ef2 22be 77aa 56be
00000330: cc07 e7bc b2ca 06be 11b2 44be 9945 0fbe
00000340: ab26 ac3d b946 a1bd 46f8 babd bd63 2c3c
00000350: 3dc0 3ebd 1633 39bd f577 bbbc 1f2b edbc
00000360: 7a5e 0fbe 70a1 2fbe 70ab 5dbd 0725 9cbc
00000370: 35f4 673e ae40 0a3e 6fdf 3b3e debc 54bd
00000380: 3d55 763d 0352 773e c867 1a3e 13aa 303e
00000390: fc54 3e3b db50 81bd 3ff5 033e aef4 9cbe
000003a0: 99cc 5abc 270a 58bd 6150 bfbe 55c6 2f39
000003b0: 826c 513c 7109 a0bd 6e1d 27bc fb12 ecbd
000003c0: f3d6 1cbe 34ed 5bbe e0af 95bb 4763 e0bc
000003d0: 2d96 8bbe 47f3 afbd bde4 f5bd 227b d7bc
000003e0: 3ac6 aebd 9add 1cbd 2c80 dbbd ec56 b1bd
000003f0: aae6 42bd b9d0 3dbe 8f2d 843c 4b66 3cbe

convt2.bias f4 [16]
0.04128462 0.021815581 0.06611723 0.06059123 -0.015666509 0.090534315 0.053440943 0.08267564
0.075630315 0.08875557 0.02925951 0.061025415 0.05721552 0.10443222 0.07990901 0.025409084
00000000: 101a 293d 97b6 b23c 7868 873d 822e 783d
00000010: 0d57 80bc 0e6a b93d e4e4 5a3d d951 a93d
00000020: 11e4 9a3d 7bc5 b53d a4b1 ef3c c9f5 793d
00000030: d25a 6a3d 8fe0 d53d 56a7 a33d b626 d03c

convt3.weight f4 [16, 32, 9, 9]
0.01925792 -0.036071047 0.112389095 -0.012152628 -0.028835878 0.077185296 -0.021704387 -0.011685642
0.16992204 -0.015014322 -0.04519431 -0.0461593 -0.006525194 -0.049145095 -0.055798594 -0.034184497
-0.0071214368 0.004018928 -0.038668163 0.10191066 0.03675532 -0.03312846 0.23193388 0.12569055
-0.043248847 0.15003611 0.19724055 -0.033765927 -0.034449235 0.20109345 -0.021372894 -0.035208683
-0.08561274 -0.019633353 0.039007556 -0.2764401 -0.051345926 -0.004117778 -0.042076863 -0.02558222
-0.04460792 -0.04132557 -0.036745198 -0.025906315 -0.041704103 -0.0365054 -0.004351247 0.16689584
-0.0117365215 0.012095076 0.24797036 -0.005391723 0.1798173 0.35536882 -0.037279975 -0.013539389
0.005706756 0.0053827963 -0.07936554 0.063497834 0.019639798 -0.011855914 -0.10581261 0.011472852
-0.039477166 0.0031770042 -0.043326348 -0.056696076 -0.07233527 -0.049968634 -0.047858577 -0.010226053
-0.02830411 -0.042919904 0.019763943 -0.025438523 -0.0824424 0.15356302 -0.019306323 -0.11573167
0.28706348 -0.0137594165 0.02153917 0.021181338 0.014753946 -0.019305531 0.03074778 -0.006345583
-0.0060634958 -0.030025005 -0.022817329 0.021582237 0.014207693 -0.03323735 -0.037542734 -0.019971449
0.015191951 -0.033210836 -0.029272191 -0.04506976 -0.023813186 -0.02616073 0.0041279458 -0.012272616
0.013115363 -0.050820753 -0.052853342 -0.028035207 -0.001838856 0.025584359 0.041291412 -0.012289463
-0.012702278 -0.0053021503 -0.03926296 -0.0068398486 -0.040453944 0.0066118417 0.004965515 0.0040076184
-0.020622296 0.0182753 -0.004016226 -0.00855321 -0.04545373 -0.0053469446 -0.0044257287 0.039722428
0.011392019 0.0010899098 -0.028206361 -0.014693875 -0.01157538 -0.029918326 -0.011988772 -0.019978002
0.020029336 -0.012203969 -0.012246095 0.015143431 -0.0017234565 -0.028450832 -0.00083628285 -0.039427962
0.011209461 -0.00038157415 0.01058332 -0.0077550304 -0.0023393163 -0.0053855577 -0.0069205277 -0.008477314
-0.013216307 -0.00936768 -0.0014645117 0.013031974 0.00012546418 -0.012896138 -0.023184037 -0.018824313
-0.006768028 -0.007602715 0.008930911 -0.081135914 -0.012537599 -0.026719613 -0.04038261 0.0041592405
0.018922511 -0.34466845 -0.039976537 -0.051627476 0.01479747 -0.07205602 -0.22623293 0.0050435737
-0.04320322 0.11667473 0.023240643 -0.070430435 -0.018189315 -0.015118906 -0.17455998 0.02192601
0.016444024 -0.058983415 -0.023577811 0.018420082 -0.08900406 -0.050272007 0.028745105 -0.0044776783
0.02126495 -0.032768793 -0.07957378 -0.0034222805 -0.33101663 -0.0070931427 -0.1875297 -0.018708684
-0.051082503 0.19140133 -0.037872024 -0.0491757 -0.06244714 -0.013317759 -0.014846242 -0.028002443
-0.027915873 0.14853437 -0.01449656 -0.042814862 -0.066249005 -0.054255664 0.015609051 -0.047848314
-0.00035363034 0.14410971 -0.036587954 -0.016075253 -0.11284783 -0.03444235 -0.014930875 -0.01888193
-0.04108631 -0.113346376 -0.042518534 -0.03215153 0.022347989 -0.02837205 -0.07219154 0.049672134
0.01175208 -0.018129244 0.018893683 0.012950476 0.004903877 -0.008982168 -0.03702201 -0.022951024
0.017139742 -0.053172268 -0.22965617 -0.10007778 -0.14099507 -0.055435326 -0.11320774 -0.029253606
-0.032734714 -0.24575558 -0.15828533 -0.084229164 -0.057145093 -0.06913181 -0.06349356 -0.07381962
00000000: c9c2 9d3c 3cbf 13bd 412c e63d d11b 47bc
00000010: 3839 ecbc 5313 9e3d 66cd b1bc 2375 3fbc
00000020: 0b00 2e3e a1fe 75bc ab1d 39bd 8911 3dbd
00000030: 4bd1 d5bb 5e4c 49bd 118d 64bd 0b05 0cbd
00000040: f15a e9bb 36b1 833b 8262 1ebd 89b6 d03d
00000050: bf8c 163d b5b1 07bd 1380 6d3e 06b5 003e
00000060: b425 31bd 11a3 193e 6df9 493e 244e 0abd
00000070: a41a 0dbd 71eb 4d3e 3516 afbc fb36 10bd
00000080: bb55 afbd 20d6 a0bc 63c6 1f3d 8f89 8dbe
00000090: 1b50 52bd 6dee 86bb ca58 2cbd ce91 d1bc
000000a0: cbb6 36bd 0045 29bd 2282 16bd 7b39 d4bc
000000b0: ecd1 2abd b086 15bd e894 8ebb bee6 2a3e
000000c0: 8a4a 40bc 6d2a 463c f1eb 7d3e 0dad b0bb
000000d0: 0722 383e e7f2 b53e e3b2 18bd 50d4 5dbc
000000e0: bdff ba3b 2b62 b03b 668a a2bd 270b 823d
000000f0: a4e3 a03c 4f3f 42bc 48b4 d8bd a1f8 3b3c
00000100: cfb2 21bd 4935 503b f876 31bd 253a 68bd
00000110: 8424 94bd e9ab 4cbd 5b07 44bd 2d8b 27bc
00000120: 05de e7bc c8cc 2fbd fee7 a13c 7364 d0bc
00000130: 90d7 a8bd a03f 1d3e 4b28 9ebc ba04 edbd
00000140: fcf9 923e 2d6f 61bc ea72 b03c 7c84 ad3c
00000150: 89ba 713c a226 9ebc c5e2 fb3c 9cee cfbb
00000160: 4ab0 c6bb 00f7 f5bc 68eb babc 3bcd b03c
00000170: 62c7 683c e323 08bd 69c6 19bd 2a9b a3bc
00000180: a9e7 783c 1608 08bd 3ccc efbc 129b 38bd
00000190: df13 c3bc 074f d6bc b843 873b 1513 49bc
000001a0: d2e1 563c 6c29 50bd bf7c 58bd 17aa e5bc
000001b0: c505 f1ba 4a96 d13c 2f21 293d be59 49bc
000001c0: 371d 50bc a9bd adbb 33d2 20bd cf20 e0bb
000001d0: 09b3 25bd 26a8 d83b c2b5 a23b 5752 833b
000001e0: 17f0 a8bc 15b6 953c 8c9a 83bb c322 0cbc
000001f0: b12d 3abd 6c35 afbb b405 91bb fcb3 223d
00000200: 97a5 3a3c 4edb 8e3a 0711 e7bc 94be 70bc
00000210: aaa6 3dbc 4717 f5bc 8e6c 44bc e8a8 a3bc
00000220: 9014 a43c 28f3 47bc d8a3 48bc 271c 783c
00000230: 9be5 e1ba b811 e9bc fe39 5bba 377f 21bd
00000240: e3a7 373c 040e c8b9 a965 2d3c e91d febb
00000250: 374f 19bb 5579 b0bb 98c5 e2bb 6fe4 0abc
00000260: 3689 58bc e67a 19bc dcf4 bfba 1084 553c
00000270: 098f 0339 534a 53bc 73ec bdbc 7235 9abc
00000280: 55c6 ddbb 3220 f9bb f552 123c 962a a6bd
00000290: 806a 4dbc 17e3 dabc 3c68 25bd 3d4a 883b
000002a0: 6203 9b3c 6278 b0be 70be 23bd 5577 53bd
000002b0: 1671 723c 1b92 93bd 9ba9 67be 9044 a53b
000002c0: dcf5 30bd 29f3 ee3d 2963 be3c d53d 90bd
000002d0: c201 95bc 4ab5 77bc dabf 32be 2d9e b33c
000002e0: 9eb5 863c 9898 71bd 4126 c1bc b6e5 963c
000002f0: c347 b6bd 05ea 4dbd db7a eb3c 7db9 92bb
00000300: d533 ae3c 9238 06bd 94f7 a2bd 5748 60bb
00000310: 037b a9be 986d e8bb c907 40be f442 99bc
00000320: e33b 51bd b6fe 433e b21f 1bbd 756c 49bd
00000330: 93c8 7fbd bb32 5abc a73d 73bc 6165 e5bc
00000340: d4af e4bc 6519 183e fb82 6dbc a35e 2fbd
00000350: 8fad 87bd 303b 5ebd 1bbd 7f3c 98fc 43bd
00000360: 7667 b9b9 7f91 133e 40dd 15bd 40b0 83bc
00000370: c31c e7bd 6c13 0dbd a1a0 74bc 47ae 9abc
00000380: 1e4a 28bd 2522 e8bd ea27 2ebd 53b1 03bd
00000390: 2113 b73c 806c e8bc 28d9 93bd 0275 4b3d
000003a0: cc8b 403c c883 94bc edc6 9a3c 3c2e 543c
000003b0: b4b0 a03b f129 13bc 64a4 17bd c903 bcbc
000003c0: a568 8c3c 2acb 59bd fd2a 6bbe 94f5 ccbd
000003d0: 0361 10be 2710 63bd 76d9 e7bd 42a5 efbc
000003e0: d614 06bd 5aa7 7bbe 8d15 22be 5780 acbd
000003f0: f910 6abd fa94 8dbd e908 82bd be2e 97bd

convt3.bias f4 [32]
-0.06253251 0.12575409 -0.039870776 0.10011814 0.2081686 0.15097575 -0.16691417 0.036200274
0.16564251 0.18173198 0.14749247 0.0082343025 0.028737964 0.068908826 -0.022016797 0.02761166
0.18576479 -0.072096884 0.13769896 -0.23706831 -0.23272337 0.08169501 -0.019807935 0.11046813
0.118751965 0.108350344 -0.20739315 -0.07316613 0.11736923 -0.043459672 -0.24289748 0.07014625
00000000: 0b11 80bd aec5 003e 8a4f 23bd bd0a cd3d
00000010: 262a 553e 6399 1a3e 8ceb 2abe bd46 143d
00000020: 319e 293e f317 3a3e 4408 173e 2be9 063c
00000030: e16b eb3c 1220 8d3d 925c b4bc d931 e23c
00000040: 2039 3e3e 88a7 93bd f500 0d3e 09c2 72be
00000050: 094f 6ebe b74f a73d 4044 a2bc 1d3d e23d
00000060: 3b34 f33d c9e6 dd3d df5e 54be 20d8 95bd
00000070: 475f f03d c502 32bd 1eba 78be d6a8 8f3d

pos_output.weight f4 [1, 32, 2, 2]
0.14549874 0.11735798 0.11381623 0.16037607 -0.038916897 0.2016704 -0.054011673 -0.10328442
-0.32906088 -0.29025075 -0.27108857 -0.19267257 0.06445369 -0.052570943 0.06089725 0.03332195
0.02843794 -0.028870955 0.014663311 0.12263783 0.13057788 0.31827977 0.2901998 0.25445133
-0.035329875 0.024209421 -0.13843118 0.025053406 -0.1670531 -0.13381718 -0.05194655 -0.0488144
0.04190943 0.11681761 -0.17403442 0.14129123 0.0643075 -0.06439617 0.0030335404 -0.08973625
0.08986205 0.1890777 0.028881183 0.18632267 0.2338061 0.36801127 0.24843404 0.3643126
-0.065901555 -0.04117194 0.113983795 0.09184425 -0.0922951 -0.032138743 -0.24368426 -0.1376284
0.19640812 0.16166614 0.057062738 -0.0068593966 0.21172267 0.2591273 0.081275456 0.1816351
0.074921064 -0.08761603 0.09433865 -0.16811195 -0.34418035 -0.32278028 -0.33023167 -0.38743213
-0.013986967 -0.18264039 0.16275756 0.044540897 -0.029422356 -0.024491722 -0.03706523 -0.005191672
-0.020237667 -0.033925027 0.0140154045 0.015530164 0.038413357 0.0237868 0.062417973 0.0253168
0.32733196 0.36640427 0.36604166 0.3257373 0.38820755 0.31830052 0.36157832 0.2625969
0.03521231 0.017067095 0.20526749 0.15229031 0.26669976 0.31259447 0.27927473 0.23973058
0.16827433 0.13997613 0.117217876 0.08786689 0.31178188 0.13982026 0.3620236 0.25451007
-0.008857123 0.0005725503 -0.03137374 -0.10725829 -0.21592526 -0.18741708 -0.20682116 -0.1331563
0.12345612 0.014328219 0.03484854 -0.01542902 0.24365751 0.29061309 0.18159296 0.2004074
00000000: 9ffd 143e 6159 f03d 7c18 e93d a039 243e
00000010: 5367 1fbd af82 4e3e 583b 5dbd c886 d3bd
00000020: ab7a a8be bf9b 94be 1fcc 8abe f54b 45be
00000030: 4c00 843d a154 57bd 656f 793d 997c 083d
00000040: aff6 e83c c882 ecbc 623e 703c 8b29 fb3d
00000050: 35b6 053e 91f5 a23e 1195 943e 7247 823e
00000060: 0fb6 10bd d652 c63c e7c0 0dbe cd3c cd3c
00000070: f80f 2bbe 5f07 09be e8c5 54bd 9cf1 47bd
00000080: 39a9 2b3d 123e ef3d 1436 32be a6ae 103e
00000090: a7b3 833d 24e2 83bd 5dce 463b a4c7 b7bd
000000a0: 9809 b83d 969d 413e 3b98 ec3c 5fcb 3e3e
000000b0: de6a 6f3e f96b bc3e 7e65 7e3e 2e87 ba3e
000000c0: 65f7 86bd e8a3 28bd 5670 e93d d718 bc3d
000000d0: 3705 bdbd eaa3 03bd 5e88 79be 76ee 0cbe
000000e0: 361f 493e cf8b 253e 9eba 693d cac4 e0bb
000000f0: d4cd 583e 55ac 843e bf73 a63d 8dfe 393e
00000100: 3770 993d 0870 b3bd 9f34 c13d 8a25 2cbe
00000110: 6838 b0be 7543 a5be 2014 a9be 815d c6be
00000120: 9729 65bc 1506 3bbe eba9 263e 8470 363d
00000130: 2707 f1bc dda2 c8bc b6d1 17bd e71e aabb
00000140: 77c9 a5bc f8f4 0abd dea0 653c 3b72 7e3c
00000150: 5357 1d3d 89dc c23c fda9 7f3d 2e65 cf3c
00000160: 0e98 a73e 5799 bb3e d069 bb3e 0ac7 a63e
00000170: 24c3 c63e 49f8 a23e cb20 b93e 1a73 863e
00000180: c83a 103d 4bd0 8b3c a431 523e fef1 1b3e
00000190: df8c 883e 620c a03e 19fd 8e3e ef7b 753e
000001a0: 1b50 2c3e e755 0f3e ed0f f03d 8ef3 b33d
000001b0: e0a1 9f3e 0b2d 0f3e 285b b93e 254f 823e
000001c0: 771d 11bc 3317 163a c081 00bd 3caa dbbd
000001d0: 831b 5dbe 43ea 3fbe edc8 53be 205a 08be
000001e0: 90d6 fc3d e8c0 6a3c 58bd 0e3d 00ca 7cbc
000001f0: 5b81 793e 3dcb 943e 81f3 393e 9937 4d3e

cos_output.weight f4 [1, 32, 2, 2]
0.1626918 0.20345864 0.2162389 0.34147215 0.16865495 0.27727473 0.03434164 0.009824178
0.13205186 0.18052867 -0.14478792 -0.07755402 -0.16531695 -0.28215778 -0.27422658 -0.02970907
0.26720262 0.057244163 0.102278665 0.29283148 -0.17130095 -0.12390541 0.00792011 -0.26595482
-0.35580656 -0.42344487 -0.11997255 -0.18000054 0.16082342 -0.050436605 0.105454154 -0.24828908
0.25799137 0.25045338 0.027550597 -0.08982068 0.17840505 0.29250294 0.28313318 0.06731474
-0.46117523 -0.64697933 -0.19376527 -0.38889822 -0.14983602 -0.17759952 -0.16860628 -0.22565635
0.1954277 0.10309061 0.0055846483 0.038085204 0.12968332 0.02667048 0.3627721 0.23257613
0.21772815 -0.0784569 0.10280171 0.24938779 -0.30880293 -0.20796828 -0.22266029 -0.19390331
0.06829098 0.21547255 0.19714963 0.24726318 0.00033992188 0.020814043 -0.019201886 -0.033816863
0.05212486 0.2221337 -0.16154782 0.15311621 -0.105748445 -0.032812763 -0.3205518 -0.12675565
-0.0894747 -0.25199485 -0.17673275 -0.18142298 -0.13466898 -0.1413057 -0.26657325 -0.29354402
-0.24095961 -0.23056744 -0.0070544295 -0.14246558 -0.2653245 -0.018651275 -0.067783795 -0.18790586
-0.52074045 -0.37319306 -0.79435813 -0.64245176 -0.57262534 -0.57494193 -0.56397927 -0.39251265
-0.089770354 -0.14989042 -0.06855883 -0.15954381 -0.52443296 -0.33571523 -0.5966712 -0.54459953
0.17844202 -0.07156596 0.2570743 0.096511416 0.10016532 0.0028309906 0.07853532 0.021824168
-0.30101734 -0.13405113 -0.38985658 -0.22827198 -0.47675234 -0.5641353 -0.3854055 -0.27112326
00000000: ae98 263e 7657 503e bb6d 5d3e 70d5 ae3e
00000010: e2b3 2c3e f4f6 8d3e d2a9 0c3d 97f5 203c
00000020: 9a38 073e 82dc 383e 4943 14be a4d4 9ebd
00000030: d948 29be fc76 90be 6d67 8cbe 7060 f3bc
00000040: c8ce 883e db78 6a3d 7a77 d13d 02ee 953e
00000050: 8469 2fbe 1fc2 fdbd 59c3 013c 3b2b 88be
00000060: 472c b6be c4cd d8be 2bb4 f5bd 1052 38be
00000070: e5ae 243e 9d96 4ebd 59f8 d73d 7e3f 7ebe
00000080: 7217 843e 6d3b 803e cab1 e13c e8f3 b7bd
00000090: d0af 363e f2c2 953e d5f6 903e 4fdc 893d
000000a0: 291f ecbe 70a0 25bf 676a 46be ab1d c7be
000000b0: 9d6e 19be a6dc 35be 20a7 2cbe 7512 67be
000000c0: 331e 483e 2b21 d33d 6dff b63b 3bff 1b3d
000000d0: b4cb 043e 0d7c da3c 44bd b93e 7028 6e3e
000000e0: 21f4 5e3e 03ae a0bd b489 d23d 835f 7f3e
000000f0: 6b1b 9ebe a3f5 54be 0f01 64be 978e 46be
00000100: 24dc 8b3d d6a4 5c3e 98e1 493e 8f32 7d3e
00000110: 8b37 b239 3682 aa3c 464d 9dbc 8d83 0abd
00000120: e180 553d 0477 633e cb6c 25be 7fca 1c3e
00000130: a492 d8bd ad66 06bd 5e1f a4be 3ccc 01be
00000140: 833e b7bd 7805 81be 6ef9 34be f2c6 39be
00000150: aae6 09be 71b2 10be 4a7c 88be 674b 96be
00000160: 1ebe 76be df19 6cbe d828 e7bb 7fe2 11be
00000170: 9dd8 87be 8fca 98bc 3bd2 8abd 656a 40be
00000180: 3f4f 05bf 2913 bfbe 0e5b 4bbf b877 24bf
00000190: 9397 12bf 652f 13bf f260 10bf 6bf7 c8be
000001a0: 85d9 b7bd e07c 19be 9268 8cbd 745f 23be
000001b0: 3d41 06bf dee2 abbe 72bf 18bf e06a 0bbf
000001c0: 81b9 363e 2d91 92bd 3e9f 833e c7a7 c53d
000001d0: 7a23 cd3d 2488 393b 20d7 a03d 99c8 b23c
000001e0: f21e 9abe b344 09be 489b c7be 21c0 69be
000001f0: e218 f4be 2c6b 10bf df53 c5be abd0 8abe

sin_output.weight f4 [1, 32, 2, 2]
0.17442177 0.14226374 0.2668718 0.17440933 0.108743414 0.0016625046 -0.1658321 -0.06901115
-0.0036891364 0.015210586 -0.0024587833 -0.04946747 -0.28775647 -0.35890105 -0.120695665 -0.26836967
-0.16676947 -0.15383509 -0.01141757 0.1469365 0.087821625 -0.055544812 0.012760092 0.019428667
0.06517417 0.098405205 -0.0740448 -0.08646862 0.02018391 -0.014623527 0.05173117 -0.06266509
0.04261028 -0.009020415 0.0039231223 0.119258694 0.017143281 -0.15402456 0.0922486 -0.14371058
0.13987702 0.13358526 0.112528816 0.01811157 -0.0736772 -0.07232314 -0.037247542 -0.048829686
-0.13458918 -0.13468672 -0.22284007 -0.17162728 0.06568197 0.14351234 0.0014486859 0.09635678
0.15183206 0.055823456 0.053428613 -0.052770924 -0.11087991 -0.13208309 0.008077407 0.06225357
0.15016338 -0.10979323 0.12748934 -0.022658547 -0.09706845 -0.03921038 -0.07549291 -0.113316916
-0.059646014 0.12038185 0.12968783 -0.1593987 -0.009526547 -0.03614402 0.03527783 0.023534937
0.0038515746 0.054664187 0.01257422 0.027259003 0.37784702 0.42965004 0.35030484 0.3263825
-0.36831003 -0.36920562 -0.3583736 -0.36353362 -0.090262264 -0.08980145 -0.039454646 -0.023439143
-0.0771227 -0.08376925 -0.003981412 -0.085230894 0.07397802 0.025367104 0.12224456 0.120471
-0.006044963 -0.043914124 -0.037602212 0.033454124 -0.58693075 -0.29273137 -0.34567422 -0.34108976
-0.16417974 0.08328763 -0.049518406 0.1310358 0.09249897 0.054761507 0.046700742 0.06713856
0.11589415 0.07216055 0.07497024 0.061740585 0.4693718 0.5239512 0.5285841 0.5375013
00000000: 9f9b 323e 96ad 113e 6ca3 883e 5c98 323e
00000010: deb4 de3d 66e8 d93a e4cf 29be b855 8dbd
00000020: 70c5 71bb d235 793c 8a23 21bb 679e 4abd
00000030: d154 93be e1c1 b7be 4a2f f7bd c067 89be
00000040: 9ec5 2abe f286 1dbe c210 3bbc 8676 163e
00000050: d3db b33d f582 63bd b40f 513c de28 9f3c
00000060: 097a 853d ab88 c93d cda4 97bd 7616 b1bd
00000070: ba58 a53c 8597 6fbc 10e4 533d 8e56 80bd
00000080: 1e88 2e3d 5dca 13bc 898d 803b e73d f43d
00000090: 1170 8c3c 9db8 1dbe d6ec bc3d de28 13be
000000a0: ec3b 0f3e 93ca 083e 8275 e63d b75e 943c
000000b0: 12e4 96bd 281e 94bd e190 18bd a301 48bd
000000c0: bfd1 09be 51eb 09be 3030 64be 10bf 2fbe
000000d0: 4584 863d e6f4 123e d5e1 bd3a b456 c53d
000000e0: dd79 1b3e 23a7 643d f6d7 5a3d 5326 58bd
000000f0: 0215 e3bd ca40 07be 1a57 043c 99fd 7e3d
00000100: 6ec4 193e 46db e0bd 918c 023e 6b9e b9bc
00000110: d3cb c6bd 109b 20bd 079c 9abd b312 e8bd
00000120: 614f 74bd c28a f63d e3cc 043e 6a39 23be
00000130: 3c15 1cbc c00b 14bd 7c7f 103d 57cc c03c
00000140: b36a 7c3b 8ee7 5f3d 1a04 4e3c 464e df3c
00000150: 2a75 c13e 17fb db3e 285b b33e 9b1b a73e
00000160: 2293 bcbe 8508 bdbe bf7c b7be 1421 babe
00000170: 6cdb b8bd d3e9 b7bd 329b 21bd 7203 c0bc
00000180: 82f2 9dbd 368f abbd 8176 82bb 898d aebd
00000190: ca81 973d acce cf3c 5b5b fa3d 80b9 f63d
000001a0: d314 c6bb 4cdf 33bd c704 1abd 3107 093d
000001b0: 1841 16bf e3e0 95be 36fc b0be 51a3 aebe
000001c0: bc1e 28be b492 aa3d d0d3 4abd 402e 063e
000001d0: 1a70 bd3d 9a4d 603d 4749 3f3d f17f 893d
000001e0: ea59 ed3d e9c8 933d ff89 993d b2e3 7c3d
000001f0: 8051 f03e aa21 063f 4a51 073f af99 093f
