output/models/220420_1758_ggcnn2_val0.8/epoch_02_iou_0.63_statedict.pt (torch, 274205 bytes, 20 tensors)

features.0.weight f4 [16, 1, 11, 11]
0.0551701 0.026314154 -0.05069584 0.029703774 -0.008709904 -0.026576992 0.027768945 0.025276754
0.01139691 -0.030268552 -0.02324313 0.040822778 0.051974937 -0.010013472 -0.0512866 -0.008195806
0.011982124 0.019343663 -0.015959341 0.045186672 0.001866249 -0.012415554 0.022147411 -0.043100145
-0.011691767 -0.0045060785 -0.036968112 0.039617978 -0.04937708 -0.0474269 0.015099539 -0.028992785
-0.00391029 0.04694292 -0.052924566 -0.03841379 0.012210657 -0.032249 0.041185472 -0.0022898114
0.030581506 -0.011306679 -0.028174298 -0.05084948 -0.023852674 -0.053749163 -0.012938219 0.039733283
-0.038036443 -0.028747642 0.026952263 0.008011915 0.0017437945 -0.034876168 0.052410256 -0.004576937
-0.0292377 -0.052109774 0.03989811 0.042457487 -0.04812757 0.040350903 -0.0044247126 0.028664107
-0.028996373 -0.04473208 -0.031115545 0.02953411 0.0007515069 0.014635039 0.0079980185 -0.03193252
0.034591954 0.02259449 -0.031873085 0.03851339 0.0437691 0.015747989 -0.029433127 0.022555504
-0.017037401 -0.03582512 0.034654945 0.007332823 0.039065436 0.016757581 0.016825056 -0.05034154
0.010890762 0.0075887116 0.034436874 -0.0059272 0.009006515 -0.03800447 -0.034929216 0.017031541
0.022473233 -0.05403784 -0.000892335 -0.010545398 0.040950242 -0.040953215 -0.02445587 -0.033845954
0.048766676 0.038349763 0.029239243 0.007143223 0.047427393 0.033665944 0.046845656 0.02926233
-0.04946829 -0.0067265257 -0.035647575 0.021214243 -0.050705552 0.0009240945 -0.007615871 -0.008453975
-0.04463228 0.052037954 -0.0039004476 0.026904881 0.04056043 -0.049340338 0.017736822 -0.040009983
-0.018591002 -0.04992487 -0.026208708 0.05009534 -0.0005772546 0.01950131 -0.025653675 0.03897669
0.04944985 -0.049320698 -0.0037420108 0.013944628 0.04322201 -0.049278975 -0.04020307 -0.022907577
0.016256949 0.046741586 0.052374996 -0.013135908 -0.026205575 0.027062034 -0.03890726 0.03036593
0.051194485 0.04028748 -0.047778282 0.03537517 0.014131033 0.018590027 -0.041148182 0.010557318
0.027433975 0.009286794 0.047041144 0.040879574 0.0029323688 -0.03488576 -0.051779207 -0.011846771
0.0051509934 -0.03931389 0.032709423 -0.014657689 0.038372584 -0.022535624 -0.019421253 0.04393818
0.010291904 -0.012143603 -0.00430295 -0.05184114 -0.031352893 0.029850338 0.0047524055 0.031231413
0.04292836 0.010005707 0.03516976 -0.04041894 -0.037675444 0.003958982 0.0025500513 -0.026136396
0.037194137 -0.01739142 0.016501727 -0.03415588 -0.03797567 0.031447 0.028016228 0.044776503
-0.048084915 0.007889434 -0.03942186 -0.029847374 -0.021761337 -0.045356106 -0.01171054 0.0207329
-0.029394016 0.03062135 0.020943854 0.00019739859 -0.05303603 -0.034632623 -0.039702404 -0.031193264
-0.041871987 -0.043610416 0.042722605 0.022064274 -0.01625118 0.0140197 0.034264646 0.018176854
-0.037178736 0.009357931 -0.01508366 -0.017307822 0.020186154 -0.024363596 -0.0285334 0.05415533
-5.5719986e-05 -0.036582366 -0.039550427 0.02122318 -0.04276394 0.023681682 0.018302627 0.0047811796
0.0074247858 0.035767324 -0.018113343 0.041746896 0.030431813 -0.030979045 0.063942105 -0.010298715
-0.011382318 -0.035875127 0.060158957 -0.0016442111 -0.016912265 -0.024349542 -0.011190392 -0.030128337
00000000: 0bfa 613d c890 d73c 71a6 4fbd 5455 f33c
00000010: fcb3 0ebc feb7 d9bc b37b e33c 3211 cf3c
00000020: 1bba 3a3c c1f5 f7bc 6068 bebc c935 273d
00000030: ace3 543d 8c0f 24bc e611 52bd b447 06bc
00000040: ac50 443c 9a76 9e3c 2abd 82bc a915 393d
00000050: ed9c f43a 9c6a 4bbc 7d6e b53c c789 30bd
00000060: d38e 3fbc baa7 93bb e06b 17bd 7646 223d
00000070: 9f3f 4abd b642 42bd 0f64 773c 4782 edbc
00000080: e421 80bb 3847 403d 6ec7 58bd c757 1dbd
00000090: 350f 483c 8717 04bd 19b2 283d a910 16bb
000000a0: 1186 fa3c a63f 39bc c9cd e6bc 8b47 50bd
000000b0: af66 c3bc 1528 5cbd d3fa 53bc 5ebf 223d
000000c0: 1acc 1bbd 2d80 ebbc feca dc3c 6844 033c
000000d0: 0990 e43a 50da 0ebd 23ac 563d 21fa 95bb
000000e0: e783 efbc 0f71 55bd 336c 233d e7e7 2d3d
000000f0: 6a21 45bd fd46 253d 2efd 90bb fdd0 ea3c
00000100: cd89 edbc fc38 37bd 07e6 febc 85f1 f13c
00000110: c600 453a cdc7 6f3c 1f0a 033c adcb 02bd
00000120: 4bb0 0d3d 1418 b93c 5a8d 02bd 37c0 1d3d
00000130: 3a47 333d ed01 813c be1d f1bc 52c6 b83c
00000140: 0592 8bbc 5cbd 12bd 58f2 0d3d 2d48 f03b
00000150: 1403 203d 3247 893c b3d4 893c ee32 4ebd
00000160: 2b6f 323c baaa f83b ae0d 0d3d f538 c2bb
00000170: 1090 133c 93aa 1bbd f011 0fbd bb85 8b3c
00000180: c919 b83c c856 5dbd 97eb 69ba 9bc6 2cbc
00000190: 71bb 273d 8fbe 27bd ad57 c8bc 0ea2 0abd
000001a0: 91bf 473d a414 1d3d 2387 ef3c b311 ea3b
000001b0: 3a43 423d 4de5 093d 3be1 3f3d 8eb7 ef3c
000001c0: 439f 4abd 306a dcbb 3103 12bd 7ec9 ad3c
000001d0: a0b0 4fbd ef3e 723a 8e8e f9bb 8b82 0abc
000001e0: 56d0 36bd c025 553d a79e 7fbb a067 dc3c
000001f0: b222 263d 1819 4abd d04c 913c 82e1 23bd
00000200: 284c 98bc 057e 4cbd a5b3 d6bc c530 4d3d
00000210: e752 17ba 36c1 9f3c a827 d2bc 06a6 1f3d
00000220: ed8b 4a3d 8004 4abd 863c 75bb 0278 643c
00000230: 9009 313d c0d8 49bd f9ab 24bd aca8 bbbc
00000240: 4b2d 853c 1b74 3f3d 2a87 563d fe37 57bc
00000250: 13ad d6bc 33b1 dd3c 385d 1fbd f9c1 f83c
00000260: 4fb1 513d 7c04 253d 29b3 43bd 8ee5 103d
00000270: d985 673c 1d4a 983c ff8a 28bd 9af8 2c3c
00000280: 37bd e03c a327 183c 37ae 403d 5771 273d
00000290: fc2c 403b 5fe4 0ebd 6f16 54bd f618 42bc
000002a0: aac9 a83b 9a07 21bd 51fa 053d ce26 70bc
000002b0: 922c 1d3d a19c b8bc 5219 9fbc 85f8 333d
000002c0: 609f 283c f6f5 46bc c3ff 8cbb 6057 54bd
000002d0: e46b 00bd b288 f43c 11ba 9b3b 05d9 ff3c
000002e0: a6d5 2f3d faee 233c 2b0e 103d 558e 25bd
000002f0: 9151 1abd 59ba 813b c31e 273b ff1b d6bc
00000300: e158 183d 7478 8ebc a12e 873c 09e7 0bbd
00000310: 608c 1bbd 92ce 003d 4a82 e53c 9167 373d
00000320: b0f4 44bd af42 013c d178 21bd 7b82 f4bc
00000330: d544 b2bc 53c7 39bd 91dd 3fbc 0bd8 a93c
00000340: b8cb f0bc a0d9 fa3c 7292 ab3c c8fc 4e39
00000350: 4f3c 59bd f0da 0dbd fd9e 22bd 0489 ffbc
00000360: f681 2bbd d6a0 32bd e6fd 2e3d 23c0 b43c
00000370: 3221 85bc e2b2 653c 1659 0c3d a0e7 943c
00000380: bb48 18bd 0252 193c 7521 77bc 22c9 8dbc
00000390: 6f5d a53c 2a96 c7bc e0be e9bc fbd1 5d3d
000003a0: e1b4 69b8 64d7 15bd a1ff 21bd 3cdc ad3c
000003b0: 3e29 2fbd 1600 c23c 64ef 953c 71ab 9c3b
000003c0: 9e4b f33b c280 123d 6f62 94bc cbfe 2a3d
000003d0: 234c f93c c4c7 fdbc 14f4 823d f1bb 28bc
000003e0: e77c 3abc ccf1 12bd 3d69 763d 9282 d7ba
000003f0: 978b 8abc b178 c7bc e857 37bc b4cf f6bc

features.0.bias f4 [16]
-0.049848095 -0.032085907 0.098763615 0.089260325 0.011857848 -0.054068815 -0.04960477 -0.057390988
-0.003666886 -0.07406629 0.056193575 -0.09909523 -0.06592062 -0.01977606 -0.020445567 -0.20508529
00000000: 842d 4cbd 836c 03bd 9444 ca3d 1ece b63d
00000010: 6b47 423c 4377 5dbd 5f2e 4bbd d012 6bbd
00000020: 2350 70bb 11b0 97bd 3c2b 663d 71f2 cabd
00000030: 6401 87bd 6701 a2bc 767d a7bc e101 52be

features.2.weight f4 [16, 16, 5, 5]
0.09928208 -0.0008554084 -0.054385412 -0.0083150575 -0.06233432 0.016249595 0.098384865 0.06084901
0.075451784 -0.06801631 0.022228183 0.098916404 0.032642286 0.10214078 0.010041803 0.08322036
-0.01341438 0.029221412 0.09464142 -0.078472376 0.108164474 -0.048359543 0.09988088 0.037555225
0.066308424 -0.0021264849 -0.06694305 -0.045222133 0.0067372173 0.010274128 0.016167453 0.05400402
-0.08298179 -0.05265588 0.07097596 0.042322524 -0.0039942153 0.009834609 0.0037734006 -0.038616255
-0.056736857 -0.06648535 0.065671295 -0.030885147 -0.039575957 0.048101425 -0.01582684 -0.02823866
0.05699963 0.055428717 -0.049630564 -0.0604861 -0.06568683 -0.013691837 -0.031290755 0.0514392
-0.063592136 -0.0937145 -0.04995795 -0.020690782 -0.08246835 -0.08708235 0.04383267 -0.094527744
0.05208577 0.07315312 0.029371584 -0.045559064 -0.0892962 -0.09555296 0.04973429 0.00586889
-0.0063542863 -0.033105932 -0.00085378153 0.06315662 -0.035931397 -0.075189635 -0.011306542 0.07529024
-0.053487062 -0.053650063 -0.042310122 -0.07656958 0.034071937 0.06471241 -0.026818167 -0.061387084
-0.04901698 0.07298111 0.071776174 -0.03750449 -0.06527388 0.027662246 -0.05349427 0.046639364
0.047771923 0.035764977 -0.044613007 -0.026379516 -0.03174635 -0.057235233 -0.053031977 -0.096233316
-0.057117306 -0.09060786 0.059820343 0.024436526 0.041054644 0.05823419 -0.031182034 0.06131361
-0.06535291 0.0670613 -0.06627896 -0.009061146 0.00035069048 0.009603525 -0.019802092 0.05737848
-0.021263216 0.019569317 -0.07821418 -0.019239059 -0.031324625 -0.018575376 -0.03202713 -0.043327224
0.020462846 -0.014532886 0.071118 0.043485977 -0.08458531 0.023187192 0.06964722 0.06559849
0.0158258 -0.022768004 -0.0035847372 0.033564877 -0.03575918 -0.028844727 0.052826893 0.022880653
0.028219266 0.015063732 0.056218423 -0.024566822 -0.062730685 -0.052948523 -0.011571184 -0.015485998
-0.058584355 0.009379221 -0.06710359 0.040541463 -0.051107768 0.047845557 -0.07160776 0.053257305
0.037251066 0.043948486 -0.028816245 0.050009567 0.020038387 0.053870913 -0.038425542 -0.010318846
0.04630428 0.058081098 -0.0874464 0.059675287 -0.08113075 0.02710161 -0.09453882 -0.022581177
-0.052449696 -0.05023352 -0.004850141 0.025703225 0.06128816 -0.08238941 -0.025762437 -0.0662141
0.07202141 0.0084007345 -0.032612596 0.073897645 0.050021607 -0.072627455 0.0036540271 -0.042647857
0.018902767 0.02004146 0.06792577 -0.045084123 -0.016029887 0.027255397 -0.04814984 0.057503216
-0.045736533 -0.0037550994 -0.08651296 -0.08866061 0.03774738 -0.06665057 -0.0875879 0.011137322
0.050205775 -0.032366797 0.021936068 -0.028171463 -0.05960187 -0.036944576 -0.10173155 -0.044764936
-0.009673965 0.05997278 -0.043760624 -0.037690204 -0.07118915 -0.038830973 -0.005920738 -0.10271591
0.0077689867 -0.08905182 0.06023249 -0.09334585 0.01092083 0.06201224 1.9874571e-05 -0.037668232
-0.06606849 -0.021108717 0.06720671 -0.035413377 -0.020701947 -0.07170152 0.026722465 -0.042049486
0.051907133 0.060274642 0.043244235 -0.03200497 -0.020245045 -0.10029399 0.03682606 0.013185783
0.043767344 0.025123538 -0.02343721 -0.04248879 -0.069701634 0.054736633 -0.06894707 -0.030400198
00000000: 6754 cb3d 7c3d 60ba 3dc3 5ebd e13b 08bc
00000010: 4652 7fbd df1d 853c 017e c93d d03c 793d
00000020: 7786 9a3d 234c 8bbd e117 b63c af94 ca3d
00000030: ebb3 053d 2f2f d13d 6086 243c 706f aa3d
00000040: fdc7 5bbc be61 ef3c 5cd3 c13d 20b6 a0bd
00000050: 5685 dd3d a814 46bd 598e cc3d 82d3 193d
00000060: b6cc 873d 7f5c 0bbb 7019 89bd d83a 39bd
00000070: e0c3 dc3b d154 283c 9b71 843c 5233 5d3d
00000080: 5bf2 a9bd b1ad 57bd d85b 913d 625a 2d3d
00000090: e8e1 82bb 5721 213c 284b 773b 142c 1ebd
000000a0: e864 68bd 7929 88bd ac7e 863d d902 fdbc
000000b0: 661a 22bd 0006 453d 4aa7 81bc c354 e7bc
000000c0: 7278 693d 3909 633d 6b49 4bbd 46c0 77bd
000000d0: d186 86bd ba53 60bc bc2a 00bd e9b1 523d
000000e0: 983c 82bd 63ed bfbd b5a0 4cbd b77f a9bc
000000f0: 2be5 a8bd 3b58 b2bd e389 333d c397 c1bd
00000100: e357 553d 4ed1 953d ad9c f03c 249c 3abd
00000110: ede0 b6bd 45b1 c3bd 2fb6 4b3d d14f c03b
00000120: 9e37 d0bb 169a 07bd 4fd0 5fba 4258 813d
00000130: cd2c 13bd 06fd 99bd 133f 39bc c531 9a3d
00000140: 4015 5bbd 2bc0 5bbd 614d 2dbd 83d0 9cbd
00000150: 048f 0b3d f187 843d c6b1 dbbc 0671 7bbd
00000160: 07c6 48bd 1f77 953d 63ff 923d 4f9e 19bd
00000170: 50ae 85bd ef9b e23c cf1c 5bbd eb08 3f3d
00000180: 7eac 433d 4c7e 123d 21bc 36bd db19 d8bc
00000190: 7608 02bd 7e6f 6abd 0f38 59bd f915 c5bd
000001a0: d6f3 69bd 9d90 b9bd 2d06 753d 1c2f c83c
000001b0: ea28 283d f986 6e3d 7771 ffbc fb23 7b3d
000001c0: bfd7 85bd 6f57 893d 43bd 87bd 3375 14bc
000001d0: e1dc b739 1a58 1d3c ff37 a2bc b205 6b3d
000001e0: 3230 aebc d54f a03c c22e a0bd 3b9b 9dbc
000001f0: 404e 00bd 632b 98bc e12e 03bd e377 31bd
00000200: b3a1 a73c 581b 6ebc 50a6 913d 5a1e 323d
00000210: 103b adbd 11f3 bd3c 34a3 8e3d 8058 863d
00000220: 1ca5 813c f783 babc e9ed 6abb 537b 093d
00000230: 3878 12bd c74b ecbc 0361 583d 3570 bb3c
00000240: 172c e73c dfcd 763c 4a45 663d 5c40 c9bc
00000250: f278 80bd 8de0 58bd 1095 3dbc fcb8 7dbc
00000260: 26f6 6fbd 4eab 193c 9b6d 89bd ce0e 263d
00000270: 6156 51bd b4f9 433d 17a7 92bd 5524 5a3d
00000280: 9394 183d 5403 343d 0c10 ecbc d5d6 4c3d
00000290: 8b27 a43c bfa7 5c3d 1a64 1dbd 6110 29bc
000002a0: 8fa9 3d3d 72e6 6d3d 1917 b3bd 136e 743d
000002b0: e127 a6bd 3204 de3c 929d c1bd 29fc b8bc
000002c0: 7ed5 56bd aac1 4dbd eeed 9ebb 928f d23c
000002d0: 4b09 7b3d c7bb a8bd bf0b d3bc 429b 87bd
000002e0: f67f 933d 3ca3 093c c994 05bd a657 973d
000002f0: 75e3 4c3d b4bd 94bd 6778 6f3b 85af 2ebd
00000300: fad9 9a3c fd2d a43c ab1c 8b3d 21aa 38bd
00000310: 1c51 83bc b646 df3c c438 45bd 7e88 6b3d
00000320: 3b56 3bbd 1d18 76bb b52d b1bd b293 b5bd
00000330: ff9c 1a3d 1880 88bd 4961 b3bd 5079 363c
00000340: 92a4 4d3d 0c93 04bd 45b3 b33c d7c7 e6bc
00000350: 1721 74bd 3253 17bd a258 d0bd 705b 37bd
00000360: 8d7f 1ebc 05a6 753d 573e 33bd 0b61 1abd
00000370: 9ecb 91bd 3a0d 1fbd c002 c2bb b85c d2bd
00000380: fc92 fe3b cd60 b6bd 58b6 763d 1c2c bfbd
00000390: 48ed 323c 8c00 7e3d 51b8 a637 014a 1abd
000003a0: eb4e 87bd 30ec acbc aca3 893d 9e0d 11bd
000003b0: 2197 a9bc 3fd8 92bd 12e9 da3c 153c 2cbd
000003c0: 939c 543d 8be2 763d de20 313d a517 03bd
000003d0: f0d8 a5bc ef66 cdbd ecd6 163d 2f09 583c
000003e0: 6345 333d e1cf cd3c 64ff bfbc ba08 2ebd
000003f0: bbbf 8ebd 8533 603d 1f34 8dbd d609 f9bc

features.2.bias f4 [16]
-0.062204823 -0.03406297 0.017856983 -0.0054913866 0.00088946155 -0.1365121 -0.017475542 -0.052097406
0.033855226 0.078038946 -0.05062191 0.014087792 -0.018339965 -0.026396433 -0.028453501 0.0106229335
00000000: 7cca 7ebd 9d85 0bbd cf48 923c 17f1 b3bb
00000010: c12a 693a d4c9 0bbe de28 8fbc 1764 55bd
00000020: c7ab 0a3d e2d2 9f3d eb58 4fbd 7bd0 663c
00000030: b23d 96bc 553d d8bc 5117 e9bc d00b 2e3c

features.5.weight f4 [16, 16, 5, 5]
-0.0074543385 0.019640284 -0.07728697 0.057684045 0.002268819 -0.0073010656 0.04295893 0.027256837
-0.011244672 0.042060208 -0.09064547 0.037281875 -0.0078376 -0.06599179 -0.026235184 0.069212414
-0.0510334 -0.05321229 0.021200212 0.023005307 -0.02140186 -0.07336809 0.008980821 0.0320213
-0.04685634 -0.106973045 -0.07926078 -0.028244289 -0.09665337 -0.014286602 -0.087807 -0.11188494
-0.018587887 -0.08575344 -0.06067473 -0.030422386 -0.049666822 0.042059794 -0.10031121 -0.092797786
-0.0094568925 0.01434519 0.0327066 0.078737564 -0.08356574 -0.03582376 -0.040368352 -0.026768869
-0.07710643 -0.001871578 0.033317428 0.023449333 -0.0011140304 0.08904214 -0.041202992 -0.011940326
-0.023821248 0.053500943 0.049907014 0.06176089 -0.03890926 0.04498768 -0.04594711 0.10086987
0.022443691 -0.10508992 -0.048096348 0.016736293 0.015534131 -0.0923608 0.010000509 0.0034376676
-0.048158742 -0.012466966 -0.16178937 0.039577357 0.11246189 -0.041029893 0.059789144 0.04442329
0.0020259148 -0.04070288 0.03344183 0.042045295 0.004519876 0.09736609 0.039928075 0.045465637
0.0011873693 -0.10122675 0.020280715 -0.052595664 -0.09498483 -0.13680494 -0.18620615 -0.080425784
-0.13635078 -0.16291362 -0.14422132 -0.17482102 0.0056727594 -0.053597875 0.008736215 0.03942015
-0.062140718 -0.0076178247 -0.08530078 -0.10510422 -0.06573394 -0.088348635 0.039794046 -0.004463457
0.09753288 0.082579575 -0.0097510265 0.023630789 -0.11799906 -0.10751056 0.03482026 0.010699943
-0.019812552 -0.10000975 0.0061289594 -0.11420688 -0.1126023 -0.16000913 -0.09215725 -0.09273192
-0.06887508 -0.019106269 -0.1730679 -0.12648949 -0.039160617 -0.034599937 -0.094039485 0.015177229
-0.019821648 -0.14321445 -0.030952126 -0.12116462 -0.045388125 0.018104421 -0.07635138 0.0065829996
0.0571748 -0.009972609 0.038852476 0.06074879 -0.03381798 -0.083559655 -0.06480654 0.058750354
0.0755259 -0.05330833 -0.06988655 0.0026654308 0.026103787 -0.05066397 -0.025750043 0.05076691
0.08514296 -0.007589205 0.10516443 0.072749615 -0.062121045 -0.07930139 -0.048636813 -0.008826636
-0.06099858 -0.053095337 -0.008210274 -0.08025405 0.111796804 -0.06561392 -0.036471464 -0.0054006204
0.015609615 -0.03111971 0.02377411 0.044342443 0.031206213 0.052811444 -0.016529234 0.021221844
-0.0056674033 0.026813336 -0.009288505 0.03359541 -0.0044932547 -0.044412065 0.05071135 0.060453936
-0.08486764 0.03423817 0.062416144 -0.014250256 -0.08451601 -0.08178765 0.012186907 0.031130128
-0.009656588 0.026929853 0.06459854 -0.02653309 -0.032006893 0.00044771994 0.030222442 0.102068834
0.08200444 -0.02796123 -0.022133827 0.09182228 0.014501273 0.10784285 0.047409143 -0.102446884
-0.08249545 -0.13219917 -0.1083966 -0.17054518 -0.13255791 -0.044992693 -0.116867214 0.024884814
-0.16173685 0.0038025784 -0.07020581 -0.008524725 0.01222485 -0.02583995 0.098139346 0.04859592
0.027501736 0.013592595 -0.05527934 0.001258734 0.040005192 0.049836803 -0.046278153 -0.104988165
-0.02416333 -0.095258795 -0.1001977 -0.113936655 -0.1131392 -0.13673131 -0.13560769 -0.06847617
-0.039710466 -0.015692003 0.0729888 -0.04054726 -0.012292815 0.067610346 -0.049804363 0.012568957
00000000: 8643 f4bb a9e4 a03c a248 9ebd 1b46 6c3d
00000010: 77b0 143b c73d efbb b4f5 2f3d bb49 df3c
00000020: 933b 38bc 5347 2c3d 55a4 b9bd e1b4 183d
00000030: 4769 00bc b426 87bd 2beb d6bc 3dbf 8d3d
00000040: 6608 51bd 21f5 59bd 11ac ad3c a075 bc3c
00000050: f452 afbc 0242 96bd 4b24 133c c428 033d
00000060: 6fec 3fbd af14 dbbd 7a53 a2bd 9160 e7bc
00000070: 34f2 c5bd 5a12 6abc 28d4 b3bd ee23 e5bd
00000080: a045 98bc 809f afbd 1186 78bd 5e38 f9bc
00000090: 706f 4bbd e446 2c3d f76f cdbd c40c bebd
000000a0: 15f1 1abc 1608 6b3c 5bf7 053d 2941 a13d
000000b0: 8424 abbd efbb 12bd 4959 25bd 634a dbbc
000000c0: fae9 9dbd bd4f f5ba db77 083d d118 c03c
000000d0: a804 92ba ba5b b63d 78c4 28bd 5ba1 43bc
000000e0: c724 c3bc ce23 5b3d 4c6b 4c3d fdf8 7c3d
000000f0: 515f 1fbd 0045 383d 0933 3cbd dd94 ce3d
00000100: d5db b73c 6239 d7bd ad00 45bd 8d1a 893c
00000110: de82 7e3c a927 bdbd 2dd9 233c 7e4a 613b
00000120: 1a42 45bd 3f42 4cbc 1dac 25be de1b 223d
00000130: 6b52 e63d f60e 28bd 76e5 743d 32f5 353d
00000140: 36c5 043b 10b8 26bd 4dfa 083d b037 2c3d
00000150: 781b 943b df67 c73d 9f8b 233d 2d3a 3a3d
00000160: 81a1 9b3a f84f cfbd be23 a63c 8d6e 57bd
00000170: 6887 c2bd 9816 0cbe d3ac 3ebe 46b6 a4bd
00000180: 8a9f 0bbe d4d2 26be c1ae 13be 4804 33be
00000190: 8ee2 b93b 7289 5bbd 5722 0f3c 0677 213d
000001a0: 4487 7ebd f29e f9bb 2db2 aebd e240 d7bd
000001b0: 849f 86bd 21f0 b4bd 15ff 223d 3142 92bb
000001c0: 52bf c73d 7b1f a93d c5c2 1fbc 5b95 c13c
000001d0: 7ea9 f1bd 7f2e dcbd b09f 0e3d d04e 2f3c
000001e0: ef4d a2bc e9d1 ccbd 70d5 c83b 4ce5 e9bd
000001f0: 099c e6bd 6fd9 23be f1bc bcbd 3cea bdbd
00000200: 610e 8dbd c084 9cbc b638 31be 7686 01be
00000210: e266 20bd aab8 0dbd c697 c0bd eaa9 783c
00000220: 0261 a2bc cfa6 12be 508f fdbc 2825 f8bd
00000230: e6e8 39bd b94f 943c 1d5e 9cbd 34b6 d73b
00000240: 2030 6a3d 2764 23bc c623 1f3d b9d3 783d
00000250: b984 0abd 5321 abbd 4bb9 84bd 36a4 703d
00000260: 53ad 9a3d d659 5abd ae20 8fbd 82ae 2e3b
00000270: 9cd7 d53c 0685 4fbd c1f1 d2bc f7f0 4f3d
00000280: 6f5f ae3d deae f8bb 7360 d73d c0fd 943d
00000290: a372 7ebd c468 a2bd 6537 47bd 989d 10bc
000002a0: a6d9 79bd 7f7a 59bd 6384 06bc 3c5c a4bd
000002b0: b9f5 e43d 9760 86bd 1a63 15bd b0f7 b0bb
000002c0: 78bf 7f3c c3ee febc ecc1 c23c 6ca0 353d
000002d0: 2ca4 ff3c d050 583d 5168 87bc 6fd9 ad3c
000002e0: a0b5 b9bb a4a7 db3c d02e 18bc 579b 093d
000002f0: 273c 93bb 6de9 35bd b4b6 4f3d 8c9e 773d
00000300: 16cf adbd 533d 0c3d 12a8 7f3d e879 69bc
00000310: bb16 adbd 4980 a7bd 98ab 473c 9c04 ff3c
00000320: aa36 1ebc ff9b dc3c 3d4c 843d ec5b d9bc
00000330: a919 03bd f4bb ea39 0e95 f73c 7709 d13d
00000340: f2f1 a73d f30e e5bc 0052 b5bc 520d bc3d
00000350: bf96 6d3c b6dc dc3d 1730 423d accf d1bd
00000360: 60f3 a8bd 385f 07be 09ff ddbd 65a3 2ebe
00000370: 43bd 07be 424a 38bd 1458 efbd 3ddb cb3c
00000380: 589e 25be ae34 793b 10c8 8fbd 4aab 0bbc
00000390: bd4a 483c 4eae d3bc 48fd c83d 840c 473d
000003a0: 524b e13c 7ab3 5e3c 976c 62bd 1bfc a43a
000003b0: 7cdc 233d ad21 4c3d 298e 3dbd 0904 d7bd
000003c0: 2df2 c5bc 0b17 c3bd 7434 cdbd 9f57 e9bd
000003d0: 86b5 e7bd 4b03 0cbe bedc 0abe 3c3d 8cbd
000003e0: 71a7 22bd 848c 80bc 277b 953d e214 26bd
000003f0: ce67 49bc 4b77 8a3d a9ff 4bbd 07ee 4d3c

features.5.bias f4 [16]
0.038687095 0.006884675 0.016945932 0.043453716 0.027624568 -0.07836537 -0.035567008 -0.08140381
0.03258255 -0.0938879 -0.062857114 0.03491062 0.027656969 -0.029979734 -0.06765619 -0.006611896
00000000: 5c76 1e3d d798 e13b 32d2 8a3c 86fc 313d
00000010: eb4c e23c 067e a0bd b6ae 11bd 0ab7 a6bd
00000020: 4875 053d 4d48 c0bd 3bbb 80bd 70fe 0e3d
00000030: de90 e23c 0f98 f5bc 548f 8abd 9ba8 d8bb

features.7.weight f4 [16, 16, 5, 5]
-0.10124467 0.077455856 -0.038047835 0.031264428 0.028639136 -0.0042787883 0.0810242 -0.05390303
0.07429775 0.05432885 -0.116766155 -0.0033302172 -0.10031839 -0.09529556 -0.0144447135 0.072893634
0.085688144 0.16063204 0.0726415 0.10330831 0.38928947 0.33160698 0.5006475 0.5521743
0.45342475 0.048001725 0.07238761 0.15978122 0.06812892 0.22586966 0.025657775 0.026458595
0.19340873 0.08880318 0.10293568 -0.0048793633 0.04346493 0.08568194 0.13576785 0.20169213
0.07817837 0.11689937 0.1487258 0.056729756 0.14569299 -0.044715796 0.11931739 0.15426831
0.06895407 0.10804186 -0.008438168 -0.042855535 -0.046627197 -0.093654834 0.019960234 -0.04812215
0.01273787 -0.06449186 0.0059285015 0.07627968 0.18502843 0.14731798 0.14516513 0.19329731
0.19146158 0.034923855 0.092397355 0.06717019 0.07889058 0.17929442 -0.012180511 -0.040774625
0.07046701 -0.049754433 0.08239884 0.20730248 0.29599655 0.27014312 0.24409223 0.258069
0.11821993 -0.0019650587 0.0055444352 -0.01952314 0.0882584 -0.040277828 -0.081246845 -0.06918014
-0.14513616 0.00038371023 -0.013669309 -0.039401874 0.015083154 -0.05117561 0.023449345 -0.09298251
-0.06257308 -0.05575772 -0.07323232 -0.0487911 -0.046894923 -0.066533424 -0.15004702 -0.1669156
-0.03182229 0.06518107 0.04691159 -0.06946528 -0.1281313 -0.093453534 -0.041988358 -0.04983142
-0.020924484 -0.0064106197 -0.045989208 0.11374258 0.17448476 0.1180148 0.034783144 0.10923064
0.174143 0.23674852 0.18047823 0.11746095 0.1481281 0.035085183 -0.04841029 -0.07007129
-0.09721809 0.051192917 -0.08659913 -0.04145039 0.021880966 -0.055442467 -0.07587615 -0.019870613
-0.0023689491 -0.021756824 0.062045846 0.052384913 0.057977982 -0.09890203 0.018939694 0.01279919
0.035637002 0.06643235 -0.06837492 0.00754547 0.054751743 -0.06572468 -0.08519233 -0.013803408
-0.06266606 -0.07289881 0.044965662 -0.055919986 -0.06251225 0.06418133 -0.05379244 0.033991523
0.0064207297 -0.034612436 -0.018652486 -0.06412328 -0.03980267 0.099489614 0.061505657 0.0046959994
-0.036022417 0.07286839 0.013956792 -0.018822847 0.01387029 0.05533141 -0.003045538 -0.057363044
0.07655492 0.03837872 -0.06029742 0.0048039844 0.06901223 -0.05558954 -0.044483975 0.04823947
-0.040386815 0.06506054 0.009632348 -0.03466044 -0.035809774 0.019390317 -0.010879805 0.05678525
-0.026448619 -0.06610931 -0.04648167 0.06282872 -0.07696494 -0.026529746 -0.049999002 -0.06529674
-0.0029508509 0.034606703 0.047729693 -0.019313952 0.0471594 -0.073229745 -0.13920532 -0.071218885
-0.089305535 0.04293869 -0.08098829 -0.10386632 0.007501489 -0.15355003 0.11836553 0.017327596
-0.14975786 -0.07033672 -0.00012079339 -0.017252134 -0.0001891658 -0.14271194 0.027024135 -0.14966594
-0.028563593 -0.012145048 0.016406018 -0.060051046 0.08488374 0.016768742 -0.034132876 -0.07761635
0.0060420195 -0.060659233 -0.10100525 0.059676066 -0.10255374 -0.14917628 -0.041823238 -0.028350499
0.08275927 -0.16520227 -0.118945934 -0.0428512 -0.123938575 -0.0088872695 -0.14394481 -0.20905797
-0.14842628 -0.07274596 -0.034427408 -0.085808165 -0.058181692 -0.02606312 0.056241658 0.022178356
00000000: 5e59 cfbd 2da1 9e3d 0cd8 1bbd 210f 003d
00000010: 9f9c ea3c 1435 8cbb 04f0 a53d 6cc9 5cbd
00000020: 6b29 983d ee87 5e3d 1823 efbd c63f 5abb
00000030: ba73 cdbd 522a c3bd 85a9 6cbc 4249 953d
00000040: 447d af3d ba7c 243e 11c5 943d 4f93 d33d
00000050: f350 c73e 64c8 a93e 6f2a 003f 4c5b 0d3f
00000060: 4a27 e83e 759d 443d f53f 943d b09d 233e
00000070: 2d87 8b3d 604a 673e 4130 d23c b2bf d83c
00000080: f00c 463e 71de b53d f1cf d23d 11e3 9fbb
00000090: 4808 323d 037a af3d ba06 0b3e 6288 4e3e
000000a0: fb1b a03d f068 ef3d 934b 183e 765d 683d
000000b0: 8b30 153e e927 37bd ad5c f43d 83f8 1d3e
000000c0: cb37 8d3d 0d45 dd3d 3e40 0abc 4989 2fbd
000000d0: 29fc 3ebd 1bce bfbd a583 a33c bb1b 45bd
000000e0: 80b2 503c 4f14 84bd e043 c23b 8538 9c3d
000000f0: 1878 3d3e 86da 163e 2ba6 143e bbef 453e
00000100: 810e 443e 510c 0f3d d33a bd3d 8690 893d
00000110: 6291 a13d f598 373e c490 47bc 4b03 27bd
00000120: 0251 903d 4ecb 4bbd b9c0 a83d 1a47 543e
00000130: dc8c 973e 3350 8a3e 50f3 793e 9f21 843e
00000140: 4a1d f23d 37c8 00bb 18ae b53b feee 9fbc
00000150: d2c0 b43d 5dfa 24bd bf64 a6bd 51ae 8dbd
00000160: 939e 14be b72c c939 3df5 5fbc dc63 21bd
00000170: 551f 773c 849d 51bd d718 c03c 9d6d bebd
00000180: 5126 80bd 3562 64bd d4fa 95bd 2dd9 47bd
00000190: e414 40bd ad42 88bd eda5 19be eceb 2abe
000001a0: 1758 02bd a77d 853d 5e26 403d d043 8ebd
000001b0: da34 03be 9164 bfbd fcfb 2bbd 081c 4cbd
000001c0: d369 abbc 2d10 d2bb 2e5f 3cbd dff1 e83d
000001d0: 22ac 323e beb1 f13d c578 0e3d 50b4 df3d
000001e0: 8b52 323e 346e 723e 49cf 383e 5e8f f03d
000001f0: e5ae 173e 7bb5 0f3d de49 46bd 8981 8fbd
00000200: 471a c7bd aaaf 513d e25a b1bd e2c7 29bd
00000210: b63f b33c a417 63bd f464 9bbd b2c7 a2bc
00000220: 5f40 1bbb 5e3b b2bc c923 7e3d 9091 563d
00000230: 527a 6d3d 268d cabd 6b27 9b3c b2b3 513c
00000240: 1bf8 113d af0d 883d 2608 8cbd fd3f f73b
00000250: 5d43 603d a99a 86bd 5179 aebd b027 62bc
00000260: 1057 80bd f94b 95bd ea2d 383d 5b0c 65bd
00000270: 6c06 80bd 8071 833d 7655 5cbd b23a 0b3d
00000280: fc64 d23b c5c5 0dbd 19cd 98bc 1153 83bd
00000290: 2008 23bd 36c1 cb3d 5bed 7b3d e6e0 993b
000002a0: 3e8c 13bd 063c 953d 07ab 643c 5f32 9abc
000002b0: 3640 633c 30a3 623d a697 47bb 83f5 6abd
000002c0: d3c8 9c3d 0133 1d3d 6dfa 76bd be6a 9d3b
000002d0: 4956 8d3d dcb1 63bd d434 36bd c096 453d
000002e0: a56c 25bd 763e 853d ffd0 1d3c 1bf8 0dbd
000002f0: 45ad 12bd 71d8 9e3c 3641 32bc a697 683d
00000300: c6aa d8bc 5164 87bd 9063 3ebd 58ac 803d
00000310: cb9f 9dbd e954 d9bc c1cb 4cbd 4cba 85bd
00000320: 1063 41bb c2bf 0d3d 3680 433d 4b38 9ebc
00000330: 372a 413d 7af9 95bd d78b 0ebe 35db 91bd
00000340: d2e5 b6bd 7be0 2f3d 30dd a5bd ddb7 d4bd
00000350: 0dcf f53b 383c 1dbe a169 f23d 9af2 8d3c
00000360: 205a 19be b30c 90bd 7552 fdb8 5954 8dbc
00000370: cf5a 46b9 1423 12be b861 dd3c 0742 19be
00000380: 32fe e9bc 06fc 46bc ea65 863c 16f8 75bd
00000390: 87d7 ad3d 9a5e 893c eace 0bbd 52f5 9ebd
000003a0: 22fc c53b d175 78bd d7db cebd e46e 743d
000003b0: b207 d2bd abc1 18be d84e 2bbd 4e3f e8bc
000003c0: b17d a93d c92a 29be ed99 f3bd bd84 2fbd
000003d0: 82d3 fdbd e99b 11bc 4566 13be 4b13 56be
000003e0: 0ffd 17be d5fb 94bd c103 0dbd 31bc afbd
000003f0: ed4f 6ebd 5382 d5bc a75d 663d 62af b53c

features.7.bias f4 [16]
-0.018979542 -0.014686278 0.026476694 -0.042337768 -0.049249202 -0.032652054 -0.00046346066 -0.020290442
0.12987287 0.017653273 -0.013852738 0.08387623 0.08469082 0.038729746 -0.021981446 -0.066833645
00000000: fc7a 9bbc b79e 70bc a7e5 d83c 5e6a 2dbd
00000010: 88b9 49bd 29be 05bd a3fc f2b9 2438 a6bc
00000020: 65fd 043e 999d 903c 98f6 62bc 4dc7 ab3d
00000030: 6172 ad3d 15a3 1e3d 6f12 b4bc 14e0 88bd

features.10.weight f4 [32, 16, 5, 5]
-0.21936204 -0.24546772 -0.16616234 0.031484142 -0.017209247 -0.070658684 -0.026227154 0.034258585
0.03185219 -0.014507379 -0.07140742 -0.09457106 -0.04729826 -0.12896678 -0.03293463 -0.014882045
-0.03709619 -0.06474083 0.005704005 -0.06998476 0.011668624 -0.1139517 -0.005123071 -0.005777834
-0.107801564 -0.014254878 -0.10689075 0.008334277 0.01598386 -0.059588395 -0.00039051403 -0.09817466
-0.0052233916 0.013781962 -0.094341405 -0.07727872 -0.032425437 -0.049405307 -0.06470861 -0.038089633
-0.10883312 0.012346868 -0.055395436 -0.05945264 -0.08808086 -0.002072436 -0.09203029 -0.03284992
0.00842795 -0.10755026 -0.25108773 -0.18211459 -0.112685435 -0.046570662 -0.082849786 -0.15055715
-0.11251503 -0.107334316 -0.0537238 -0.027628524 -0.14938429 -0.009196432 0.0513974 0.003819634
0.07560781 -0.012573123 0.021640178 0.14636305 0.12011464 0.17330748 -0.039024416 -0.0013489403
0.12946117 0.2192854 0.24497533 0.008944705 -0.0015856532 -0.031922728 0.04367473 -0.15835917
0.018066809 0.03333031 -0.09992345 0.040561583 -0.07495461 -0.03412986 0.051475476 0.022992069
0.07387363 -0.07540247 -0.035967544 -0.033889327 -0.043008253 0.103697285 -0.00993781 -0.003119166
0.03689752 0.15305972 0.07326165 -0.08609706 0.10521648 0.08446308 0.1601076 0.035444584
-0.04254717 0.08860727 0.11815377 0.10572102 -0.08079726 -0.055216037 -0.0032896958 -0.095426165
0.10163878 -0.03899061 -0.044215728 0.0015150936 0.019078052 0.07635033 -0.07746796 0.047891367
0.0005694532 0.021182975 0.10324168 -0.060749207 -0.045856103 0.043122537 -0.066472076 -0.06498206
0.05580521 0.021418504 0.029645504 -0.068766974 0.060832266 0.03220784 -0.0018060545 0.006979097
-0.003610364 0.032568473 0.057853207 0.07529945 0.010843783 0.019668197 -0.049252875 0.019285012
-0.032823768 -0.031204674 -0.0137508875 -0.084776975 0.0036164455 -0.03795511 -0.06335059 0.005408896
-0.053987756 -0.0072984635 -0.013508526 -0.025863526 0.04604408 0.023651462 -0.038049918 0.09014549
0.03050562 -0.069695346 -0.0076856418 -0.04507966 0.09191645 -0.04368981 -0.02410181 -0.042318396
-0.01694993 0.024351483 0.0477712 0.0055608437 -0.04457693 -0.091532275 -0.056739718 0.09417605
-0.021628246 -0.026794394 0.053131796 -0.038305458 0.039506983 -0.083633505 -0.035539027 -0.024469828
-0.018889697 0.1274621 0.09498634 0.04242173 -0.053307604 0.05780841 0.14851652 -0.054529402
-0.014150592 0.0010684286 -0.014597591 0.10988131 -0.03786211 0.055490047 -0.0101597775 -0.015820175
-0.11105513 -0.10983373 -0.05842899 -0.088289335 -0.08224104 -0.09255872 -0.026093874 -0.05711777
-0.024653308 0.027744966 -0.057622444 -0.0029625262 -0.022118688 0.09926018 0.02701603 0.047754884
0.053159077 0.010384223 0.10209731 0.03133217 0.057416312 -0.03674844 0.023609543 0.004788283
0.06549676 -0.10969489 -0.080025844 -0.09118406 -0.031339977 -0.12140426 -0.12121631 -0.05616195
-0.018814236 -0.027348839 -0.07917094 -0.011732138 0.032510776 0.0064656 0.0037337183 -0.028763931
0.01277787 0.042492203 -0.00773336 0.0226204 0.067848906 -0.048045024 0.09721473 -0.009431288
0.12576663 0.033153072 0.028685436 -0.07195485 -0.007723992 0.0709503 0.0185894 0.026107445
00000000: 71a0 60be e45b 7bbe 7626 2abe 84f5 003d
00000010: 68fa 8cbc 80b5 90bd 54da d6bc bb52 0c3d
00000020: 7177 023d 5cb0 6dbc 0e3e 92bd 79ae c1bd
00000030: d2bb 41bd de0f 04be 76e6 06bd d2d3 73bc
00000040: 2df2 17bd d796 84bd a9e8 ba3b 2b54 8fbd
00000050: c22d 3f3c 825f e9bd 6fdf a7bb fc53 bdbb
00000060: 11c7 dcbd 4b8d 69bc 8ae9 dabd 7e8c 083c
00000070: 95f0 823c f612 74bd e8bd ccb9 cc0f c9bd
00000080: fc28 abbb bdcd 613c 1136 c1bd 4e44 9ebd
00000090: 89d0 04bd 385d 4abd f385 84bd e003 1cbd
000000a0: e6e3 debd 854a 4a3c 53e6 62bd 9d84 73bd
000000b0: bd63 b4bd b5d1 07bb 607a bcbd a38d 06bd
000000c0: 6215 0a3c 5043 dcbd 928e 80be 3f7c 3abe
000000d0: 9fc7 e6bd e1c0 3ebd 26ad a9bd a72b 1abe
000000e0: 486e e6bd 18d2 dbbd 7d0d 5cbd 3755 e2bc
000000f0: 32f8 18be a2ac 16bc 1586 523d d352 7a3b
00000100: 44d8 9a3d 80ff 4dbc be46 b13c 32e0 153e
00000110: aafe f53d 8477 313e 11d8 1fbd edce b0ba
00000120: 7891 043e 5a8c 603e d0da 7a3e d08c 123c
00000130: b1d5 cfba 68c1 02bd 46e4 323d e828 22be
00000140: d800 943c 5d85 083d aaa4 ccbd e723 263d
00000150: cd81 99bd c1cb 0bbd f3d7 523d dd59 bc3c
00000160: 0f4b 973d 9c6c 9abd b452 13bd 89cf 0abd
00000170: 6c29 30bd 3e5f d43d 32d2 22bc ec6a 4cbb
00000180: db21 173d b0bb 1c3e 340a 963d a853 b0bd
00000190: bd7b d73d fbfa ac3d 3ff3 233e 572e 113d
000001a0: f145 2ebd ba77 b53d 9bfa f13d 4384 d83d
000001b0: 0979 a5bd 362a 62bd f097 57bb cb6e c3bd
000001c0: fe27 d03d 9eb4 1fbd 8d1b 35bd 1b96 c63a
000001d0: 9349 9c3c 905d 9c3d 86a7 9ebd bd29 443d
000001e0: 5b47 153a eb87 ad3c 6070 d33d 29d4 78bd
000001f0: 9cd3 3bbd 42a1 303d 8322 88bd 5015 85bd
00000200: 0194 643d dc75 af3c 21db f23c b3d5 8cbd
00000210: 412b 793d 5eec 033d 22b9 ecba e9b0 e43b
00000220: db9b 6cbb 8566 053d 7cf7 6c3d 9936 9a3d
00000230: 1faa 313c 331f a13c 62bd 49bd 9afb 9d3c
00000240: 3772 06bd f2a0 ffbc 674b 61bc 8d9f adbd
00000250: e301 6d3b d176 1bbd f4bd 81bd 1c3d b13b
00000260: 4422 5dbd f327 efbb dd52 5dbc bfdf d3bc
00000270: b898 3c3d b6c0 c13c 3bda 1bbd 339e b83d
00000280: ece6 f93c 6fbc 8ebd d6d7 fbbb 73a5 38bd
00000290: b13e bc3d 16f4 32bd 2971 c5bc 0e56 2dbd
000002a0: 94da 8abc c37c c73c bcab 433d bd37 b63b
000002b0: 4d96 36bd 4675 bbbd e867 68bd 5fdf c03d
000002c0: b82d b1bc eb7f dbbc baa0 593d 2fe6 1cbd
000002d0: 13d2 213d 0b48 abbd 5f91 11bd f374 c8bc
000002e0: 91be 9abc 6d85 023e 3388 c23d 68c2 2d3d
000002f0: 1359 5abd 83c8 6c3d b714 183e 395a 5fbd
00000300: e2d7 67bc 840a 8c3a bc2a 6fbc 7409 e13d
00000310: 4d15 1bbd 8849 633d 3275 26bc 5099 81bc
00000320: df70 e3bd 82f0 e0bd 3d53 6fbd 0ad1 b4bd
00000330: fe6d a8bd 6d8f bdbd d2c2 d5bc 53f4 69bd
00000340: bcf5 c9bc 6949 e33c 8305 6cbd f126 42bb
00000350: 4032 b5bc ec48 cb3d b950 dd3c a09a 433d
00000360: 55bd 593d 9722 2a3c 6518 d13d 2956 003d
00000370: 5e2d 6b3d 8885 16bd cd68 c13c 07e7 9c3b
00000380: 2a23 863d b7a7 e0bd 97e4 a3bd b5be babd
00000390: 595e 00bd cca2 f8bd 4240 f8bd 130a 66bd
000003a0: 5020 9abc ac0a e0bc 6024 a2bd 2738 40bc
000003b0: 052a 053d 62dd d33b 66b1 743b 56a2 ebbc
000003c0: 455a 513c 4e0c 2e3d 2068 fdbb 6b4e b93c
000003d0: 5ef4 8a3d dcca 44bd 8418 c73d b085 1abc
000003e0: f8c8 003e 84cb 073d b8fd ea3c 105d 93bd
000003f0: 8b19 fdbb 644e 913d cc48 983c 48df d53c

features.10.bias f4 [32]
-0.032986727 0.04423665 0.04994028 0.036140844 -0.047493774 0.027892651 0.07139262 0.02910975
-0.039160587 0.011673893 -0.029134596 -0.05505479 0.036758948 0.0412214 -0.050374158 -0.095762186
-0.071110226 0.0023298878 0.050726574 0.03562343 -0.035180844 0.037997644 0.0018534362 -0.0012521364
0.03588431 0.009175713 -0.008176605 -0.049941 0.037435133 0.05787568 0.0019879173 2.5804075e-05
00000000: 171d 07bd 7d31 353d 2e8e 4c3d 6c08 143d
00000010: d588 42bd 217f e43c 4b36 923d 9277 ee3c
00000020: da66 20bd db43 3f3c adab eebc 2281 61bd
00000030: 8d90 163d c5d7 283d 2255 4ebd f71e c4bd
00000040: 3da2 91bd 08b1 183b abc6 4f3d e0e9 113d
00000050: ca19 10bd 6ba3 1b3d 00ef f23a ba1e a4ba
00000060: 6dfb 123d bb55 163c 2bf7 05bc ef8e 4cbd
00000070: 9555 193d 0d0f 6d3d b847 023b d475 d837

features.12.weight f4 [32, 32, 5, 5]
-0.04682494 -0.05267259 -0.022003656 -0.049971208 0.034945 -0.052083768 -0.04639996 0.025989985
-0.0075180763 -0.0072532333 -0.080175444 -0.06898763 0.036347102 0.024387997 -0.004668258 -0.044252
0.008399224 -0.03829942 0.0164054 0.007273618 0.022316867 -0.01587214 -0.051742658 -0.017834354
-0.021623503 -0.057882134 -0.012178278 0.02656187 0.035509825 -0.0075691408 -0.049381703 -0.016709246
0.023463406 0.028502995 -0.025799409 0.027018055 0.0029570786 0.052368145 0.05587405 -0.039381865
0.024820117 0.02061062 -0.019231401 -0.04772121 -0.052631944 0.0014345262 -0.043103587 0.019906513
-0.0012990312 -0.03238115 0.0074895145 -0.06795648 0.0015778694 -0.022971526 -0.048163243 -0.029032722
-0.05025826 -0.046921812 -0.06053008 0.03996653 -0.0015675056 0.02019553 -0.06410723 -0.026433779
-0.058857974 0.02251404 0.039777815 -0.05802056 0.008960263 0.0051493715 0.050086856 0.037398834
-0.005845929 -0.013041377 -0.029390631 0.01491062 -0.0015655266 -0.045938183 0.04306682 -0.034841053
-0.0018043218 -0.039624352 0.0396068 -0.021722987 -0.05042672 -0.03888718 0.007793887 -0.007530666
-0.067037866 0.016836023 -0.04836553 0.026790213 0.014930164 0.005708359 -0.0031643198 -0.042380553
-0.06405852 -0.027319966 0.018127907 0.014031466 0.01662708 0.027144635 -0.03858352 -0.0021405162
-0.016810132 -0.015169709 0.049927488 0.052204847 -0.00097215385 -0.06293637 0.0285732 -0.020705402
0.033369336 -0.03238737 0.0044803973 -0.03381654 0.00047741015 -0.0077340608 0.007671873 0.041096777
0.027783565 0.01664732 -0.038003918 -0.029464258 -0.013747545 0.05472899 0.051003046 -0.04684314
-0.04566658 0.0071694017 -0.057626355 -0.00052967033 0.01644728 -0.045389585 -0.032445937 -0.021114876
-0.05671669 0.034074314 0.01720226 -0.028120322 -0.010785507 0.015978815 -0.011035871 0.03256913
0.027772073 -0.04518162 -0.00069479714 0.03759019 -0.043959066 0.047648404 -0.012275442 -0.04771586
0.03730706 0.028454853 0.06010644 0.02318069 0.019525837 0.013529807 0.03957093 -0.03731631
0.04937781 -0.024759013 -0.040580954 -0.01523244 -0.047970407 -0.037105277 -0.04591996 -0.048456743
-0.0052156677 -0.066297665 -0.063954875 0.014725391 0.022437915 -0.028951587 0.020263033 -0.05856578
-0.052638605 -0.046851452 0.042160925 -0.02019529 -0.06234488 0.01759194 0.014148995 -0.0068401718
-0.00022847898 -0.014172162 0.047270056 -0.06102652 -0.031474426 -0.024541717 -0.022697091 0.03861313
-0.013084437 0.037555017 -0.021029592 -0.041007675 -0.017896961 0.046507604 0.02673806 -0.061330467
-0.04427994 0.026650274 -0.007971403 0.030325938 0.015844025 -0.019036377 0.045495093 -0.009185074
0.05845336 0.043323465 0.04042138 -0.05615508 -0.036163457 0.006542665 0.01885419 0.036678005
-0.008888549 0.0009302131 0.012307768 0.040376265 0.018711235 -0.013981202 0.011159819 -0.0070240395
-0.05374965 -0.014177043 -0.022169666 -0.033248063 -0.02530052 0.0021152925 -0.038575996 -0.017382424
0.048135087 0.023443742 -0.025693795 0.021942882 -0.04122367 -0.00033264712 -0.027999809 -0.0055503696
0.015097856 0.046801586 -0.05002729 0.041199658 -0.045959536 0.013317345 -0.06853828 -0.024377666
-0.040873032 -0.053225253 -0.02728274 -0.063572384 -0.06622894 -0.019848803 -0.022922486 -0.03876296
00000000: 82cb 3fbd 37bf 57bd 0341 b4bc 9cae 4cbd
00000010: 7d22 0f3d ca55 55bd e20d 3ebd f3e8 d43c
00000020: 325a f6bb 88ac edbb 0633 a4bd 6349 8dbd
00000030: b3e0 143d 56c9 c73c 30f8 98bb 9641 35bd
00000040: e69c 093c dadf 1cbd 9e64 863c 8857 ee3b
00000050: ddd1 b63c 4a06 82bc 1cf0 53bd 5a19 92bc
00000060: c623 b1bc d115 6dbd 6687 47bc 4798 d93c
00000070: c072 113d 8e06 f8bb 7844 4abd d4e1 88bc
00000080: 5436 c03c 1d7f e93c 4859 d3bc f854 dd3c
00000090: 8ccb 413b fb7f 563d 30dc 643d e14e 21bd
000000a0: 8f53 cb3c 9ad7 a83c 2c8b 9dbc 5177 43bd
000000b0: 9894 57bd b606 bc3a 638d 30bd fc12 a33c
000000c0: 4144 aaba 19a2 04bd 9a6a f53b c42c 8bbd
000000d0: 83d0 ce3a c82e bcbc d246 45bd 08d6 edbc
000000e0: 9bdb 4dbd 1631 40bd 64ee 77bd f2b3 233d
000000f0: c374 cdba 1971 a53c a74a 83bd a78b d8bc
00000100: 0f15 71bd 5d6f b83c 10ee 223d f7a6 6dbd
00000110: 11ce 123c 0fbc a83b e027 4d3d 852f 193d
00000120: 358f bfbb 80ab 55bc 9fc4 f0bc ac4b 743c
00000130: 5b32 cdba ad29 3cbd d566 303d 7eb5 0ebd
00000140: fe7e ecba 254d 22bd bd3a 223d 68f4 b1bc
00000150: 408c 4ebd 2a48 1fbd dd63 ff3b cec3 f6bb
00000160: 264b 89bd b3eb 893c ef1a 46bd 2677 db3c
00000170: a69d 743c 300d bb3b 7a60 4fbb 3b97 2dbd
00000180: 1d31 83bd 1fce dfbc fa80 943c 3ce4 653c
00000190: 8435 883c 6d5e de3c c109 1ebd e747 0cbb
000001a0: 67b5 89bc 5f8a 78bc c480 4c3d c0d4 553d
000001b0: 24d8 7eba c9e4 80bd 5812 ea3c 609e a9bc
000001c0: 49ae 083d 9ea8 04bd 4cd0 923b 3683 0abd
000001d0: e84c fa39 016e fdbb 5664 fb3b 1855 283d
000001e0: 5c9a e33c f65f 883c ffa9 1bbd 075f f1bc
000001f0: 623d 61bc 812b 603d 92e8 503d 98de 3fbd
00000200: e10c 3bbd 4ded ea3b 9d09 6cbd 93d9 0aba
00000210: 72bc 863c 6eea 39bd 08e6 04bd 1bf9 acbc
00000220: c34f 68bd 8291 0b3d c1eb 8c3c 975c e6bc
00000230: b2b5 30bc 01e6 823c cccf 34bc 3567 053d
00000240: 4282 e33c 5d10 39bd 0c23 36ba 2cf8 193d
00000250: 6c0e 34bd f92a 433d ef1e 49bc b571 43bd
00000260: 4acf 183d 271a e93c 2c32 763d 6ee5 bd3c
00000270: a6f4 9f3c 20ac 5d3c 2115 223d fdd8 18bd
00000280: 6340 4a3d 6ad3 cabc 3738 26bd 7c91 79bc
00000290: 9e7c 44bd b4fb 17bd 9116 3cbd 947a 46bd
000002a0: 31e8 aabb 12c7 87bd c6fa 82bd c442 713c
000002b0: b8cf b73c e12b edbc a9fe a53c ace2 6fbd
000002c0: 949b 57bd 4fe7 3fbd efb0 2c3d 9870 a5bc
000002d0: 585d 7fbd f91c 903c 30d1 673c 8523 e0bb
000002e0: dc93 6fb9 5b32 68bc 3f9e 413d f2f6 79bd
000002f0: 54eb 00bd b60b c9bc 40ef b9bc cd28 1e3d
00000300: 1b60 56bc 4ad3 193d 4046 acbc aaf7 27bd
00000310: a69c 92bc c27e 3e3d c709 db3c a835 7bbd
00000320: e25e 35bd ad51 da3c 7d9a 02bc 1a6e f83c
00000330: 54cb 813c 2df2 9bbc 1059 3a3d fe7c 16bc
00000340: ca6c 6f3d f273 313d e490 253d df02 66bd
00000350: 2220 14bd da63 d63b 1a74 9a3c ad3b 163d
00000360: 47a1 11bc 8bd9 733a 85a6 493c 9561 253d
00000370: 4e48 993c 6911 65bc acd7 363c ea29 e6bb
00000380: 9828 5cbd d446 68bc 299d b5bc 1f2f 08bd
00000390: 0943 cfbc b8a0 0a3b dd01 1ebd 9665 8ebc
000003a0: 4c29 453d 170d c03c cb7b d2bc 8fc1 b33c
000003b0: 27da 28bd 2467 aeb9 db5f e5bc e0df b5bb
000003c0: ff5c 773c 05b3 3f3d 6ae9 4cbd f9c0 283d
000003d0: 1140 3cbd fe30 5a3c cc5d 8cbd acb3 c7bc
000003e0: 7b6a 27bd b902 5abd 0e80 dfbc 3d32 82bd
000003f0: 0aa3 87bd f599 a2bc f0c7 bbbc e9c5 1ebd

features.12.bias f4 [32]
-0.026726646 -0.063255854 0.0074956217 0.040717185 -0.07107856 -0.04461877 0.10426609 0.06425354
0.10242316 0.004997107 0.036896378 -0.030247187 -0.03840246 -0.015761787 0.021637106 0.04865671
0.058048993 0.06005961 0.0058261803 0.05772347 -0.047447506 0.14484385 0.024324823 -0.06525259
-0.027523594 -0.06377618 -0.03918481 0.0650335 -0.0062786103 -0.028010089 0.055247694 -0.047231056
00000000: d7f1 dabc 498c 81bd d59d f53b 10c7 263d
00000010: a391 91bd 2cc2 36bd 7689 d53d 5c97 833d
00000020: 3cc3 d13d c6be a33b a820 173d f3c8 f7bc
00000030: e64b 1dbd dd1e 81bc 4d40 b13c 424c 473d
00000040: c8c4 6d3d 1101 763d 8be9 be3b 726f 6c3d
00000050: 5158 42bd f251 143e da44 c73c 26a3 85bd
00000060: 2979 e1bc 169d 82bd 4080 20bd 4930 853d
00000070: cdbc cdbb 6a75 e5bc 684b 623d 5a75 41bd

features.15.weight f4 [16, 32, 3, 3]
-0.0014419492 0.045861337 -0.12876604 -0.016001545 -0.049026005 -0.10094336 -0.10795541 -0.0015971066
-0.07261971 0.08505377 -0.069330364 -0.11725784 -0.019786173 0.060335074 -0.090378284 0.050049324
-0.021086445 -0.11844219 -0.011238522 -0.11346317 0.07988072 0.021663101 -0.07115153 0.036782473
0.045652434 -0.078127414 -0.048898373 -0.15427549 -0.06475405 -0.12622811 -0.17118417 -0.122506
-0.060928505 -0.08169734 -0.1277314 -0.00097634736 -0.056692105 0.0692152 -0.12595734 0.04501313
-0.05387027 -0.0691515 -0.13258022 -0.121189065 -0.15636978 -0.045048106 0.09206167 -0.03865669
-0.07270683 0.054031745 -0.07752822 0.010041782 0.106690295 -0.029221268 0.12278471 0.17883343
0.0017006001 -0.041795313 0.046002883 0.0602677 -0.020206144 0.07760293 -0.040705446 -0.1359063
0.013503648 -0.031176638 0.0418192 -0.115718134 -0.13035361 -0.053786725 -0.10759067 -0.09843365
0.011809861 -0.058972936 -0.02328884 -0.07335142 0.014160736 -0.0037576945 0.023740511 -0.013889255
0.051825237 0.019974504 -0.021278953 -0.0037253133 0.023505917 -0.15429616 -0.19904022 -0.050394844
-0.03425778 -0.16460305 -0.004304928 -0.024315335 -0.025674231 -0.122494474 0.07336859 -0.07434269
-0.026185561 -0.040152967 0.059620313 -0.22004744 -0.13024849 -0.035576906 -0.11135449 -0.069555864
-0.041689955 -0.25449228 -0.025260227 -0.10561563 -0.004890949 0.042564455 -0.0028475167 0.082402065
0.038527466 0.025671018 -0.009100115 0.06271675 0.03531993 -0.09795622 -0.0076123876 0.027036252
-0.011189089 -0.10530525 0.026766995 0.029995607 0.09500661 0.014813607 -0.15721531 -0.07270775
-0.10940211 0.03799353 -0.09017988 0.06721841 -0.13830034 0.0059715826 -0.06680544 0.14270405
0.20752315 0.20477845 0.13094607 -0.00093485106 0.21604522 0.1724426 0.08577737 0.21691197
-0.09264133 0.020501722 -0.012652228 -0.078913845 -0.11307502 0.020392787 -0.112920985 -0.10188017
-0.021365112 0.0014648483 0.01924986 -0.15848628 0.01326305 0.022518486 0.04742329 0.053272154
-0.05677947 0.047665156 -0.13623874 -0.16277298 -0.1808712 -0.028984068 -0.07680021 -0.23222573
-0.20765643 -0.10549781 -0.18722638 0.022910016 0.04083422 0.037218094 0.18679246 0.020580625
0.0045218416 -0.00703247 0.13470286 0.05092694 -0.06958525 -0.034437545 -0.04334314 -0.06750375
0.08839359 -0.029924504 0.106197156 0.0085408315 -0.105473205 0.07269936 0.03921293 0.02747309
-0.059905548 0.04445864 0.0753647 0.11048889 -0.049406186 0.011288748 -0.07251837 0.09945271
0.08056475 -0.08704488 0.06355514 -0.0868617 -0.069494985 -0.02441456 0.10421245 -0.09827611
0.070519134 -0.066668235 -0.016416058 -0.13219616 -0.12719154 -0.08786878 -0.14477631 -0.06673967
-0.14783879 -0.04703188 -0.13383545 -0.01744145 -0.14821725 -0.04135179 -0.12712549 -0.22541027
-0.181461 -0.060897775 -0.13539991 0.011126432 -0.05298372 -0.10985162 0.051775157 -0.10094064
0.038136017 -0.091948904 0.05365371 -0.09709271 0.025319986 0.05267986 -0.043013245 0.059518434
0.10077227 -0.1056363 -0.1054789 -0.010270375 -0.033478152 -0.027881738 0.011514099 -0.06675813
0.10621707 0.02298128 0.099417955 0.0076851156 -0.08116099 -0.21238543 -0.2434478 -0.2072249
00000000: c9ff bcba 19d9 3b3d 3fdb 03be ac15 83bc
00000010: 7ecf 48bd 64bb cebd ba17 ddbd 0156 d1ba
00000020: a4b9 94bd ac30 ae3d 14fd 8dbd e124 f0bd
00000030: 9d16 a2bc e921 773d 4018 b9bd 8500 4d3d
00000040: 7bbd acbc d291 f2bd c721 38bc 615f e8bd
00000050: 8198 a33d d176 b13c e5b7 91bd 38a9 163d
00000060: 0cfe 3a3d 4401 a0bd a949 48bd 65fa 1dbe
00000070: c59d 84bd f141 01be e74a 2fbe 6de4 fabd
00000080: 2b90 79bd ef50 a7bd 05cc 02be 90f1 7fba
00000090: fb35 68bd b3c0 8d3d f6fa 00be b05f 383d
000000a0: 12a7 5cbd 4d9f 8dbd 1cc3 07be f931 f8bd
000000b0: 661f 20be 5d84 38bd d48a bc3d 7a56 1ebd
000000c0: 52e7 94bd 6450 5d3d 1ec7 9ebd 4986 243c
000000d0: 7180 da3d 7161 efbc 8d76 fb3d 1c20 373e
000000e0: ace6 de3a 9031 2bbd 856d 3c3d 44db 763d
000000f0: 5b87 a5bc 49ee 9e3d c1ba 26bd 052b 0bbe
00000100: 683e 5d3c 2666 ffbc 9c4a 2b3d a1fd ecbd
00000110: 6b7b 05be 784f 5cbd 7f58 dcbd 9597 c9bd
00000120: 267e 413c 9b8d 71bd 3dc8 bebc 4539 96bd
00000130: 6f02 683c a743 76bb 767b c23c c28f 63bc
00000140: b346 543d 92a1 a33c 3351 aebc 6324 74bb
00000150: 7b8f c03c d0ff 1dbe 33d1 4bbe d36a 4ebd
00000160: e351 0cbd b48d 28be 5a10 8dbb f430 c7bc
00000170: c452 d2bc 62de fabd 4542 963d fb40 98bd
00000180: 1a83 d6bc 7077 24bd 6e34 743d 1e54 61be
00000190: dc5f 05be 17b9 11bd d30d e4bd 4e73 8ebd
000001a0: 16c3 2abd d04c 82be 89ee cebc 024d d8bd
000001b0: 4144 a0bb 1158 2e3d 679d 3abb 6ac2 a83d
000001c0: face 1d3d 074c d23c a618 15bc a471 803d
000001d0: a2ab 103d 459d c8bd 5671 f9bb 217b dd3c
000001e0: 7152 37bc 47aa d7bd 7546 db3c 59b9 f53c
000001f0: d392 c23d c5b4 723c 0dfd 20be cde7 94bd
00000200: 370e e0bd 1b9f 1b3d 3bb0 b8bd cea9 893d
00000210: 9b9e 0dbe 44ad c33b 4ad1 88bd 0321 123e
00000220: f380 543e 71b1 513e ba16 063e cb10 75ba
00000230: f53a 5d3e cb94 303e 0cac af3d 2c1e 5e3e
00000240: bdba bdbd 3af3 a73c 4a4b 4fbc 959d a1bd
00000250: e093 e7bd c60e a73c 1e43 e7bd 8da6 d0bd
00000260: e305 afbc 2700 c03a e2b1 9d3c 3a4a 22be
00000270: 434d 593c b078 b83c ec3e 423d e733 5a3d
00000280: 9791 68bd 8a3c 433d 2b82 0bbe f6ad 26be
00000290: 4d36 39be ff6f edbc 6e49 9dbd 95cc 6dbe
000002a0: e3a3 54be 3c0f d8bd 46b8 3fbe c9ad bb3c
000002b0: c841 273d 0072 183d 8646 3f3e b398 a83c
000002c0: f52b 943b a270 e6bb 8cef 093e c498 503d
000002d0: b682 8ebd 620e 0dbd 9488 31bd 683f 8abd
000002e0: b307 b53d 3c24 f5bc e57d d93d d8ee 0b3c
000002f0: 5602 d8bd 67e3 943d bd9d 203d 3f0f e13c
00000300: 855f 75bd 431a 363d cf58 9a3d 0048 e23d
00000310: 245e 4abd 71f4 383c 8384 94bd ddad cb3d
00000320: 22ff a43d 9644 b2bd 3229 823d 8ce4 b1bd
00000330: 6353 8ebd 0b01 c8bc 566d d53d fc44 c9bd
00000340: 566c 903d 5b89 88bd f87a 86bc 6e5e 07be
00000350: 803e 02be 8cf4 b3bd 3e40 14be cfae 88bd
00000360: 0d63 17be 80a4 40bd 290c 09be 5fe1 8ebc
00000370: 43c6 17be 7f60 29bd 2f2d 02be f3d1 66be
00000380: ead0 39be f26f 79bd 46a6 0abe a34b 363c
00000390: 7505 59bd e3f9 e0bd 3012 543d f7b9 cebd
000003a0: 8334 1c3d b54f bcbd fec3 5b3d 8bd8 c6bd
000003b0: dc6b cf3c d6c6 573d a82e 30bd 9ac9 733d
000003c0: b161 ce3d d857 d8bd 5205 d8bd 1345 28bc
000003d0: 6320 09bd 3e68 e4bc a2a5 3c3c 7db8 88bd
000003e0: 5688 d93d 3d43 bc3c a49b cb3d 6cd3 fb3b
000003f0: bc37 a6bd 917b 59be 614a 79be c432 54be

features.15.bias f4 [16]
0.09687497 0.073964894 0.15121785 0.08646881 0.15751626 0.034260403 0.023196703 0.03938015
0.039614517 0.093214594 0.040861897 0.079509646 0.062396884 -0.032471027 0.04946643 0.04575622
00000000: 6266 c63d e87a 973d dad8 1a3e 8f16 b13d
00000010: f14b 213e a354 0c3d 0307 be3c 154d 213d
00000020: d542 223d 4be7 be3d ce5e 273d f4d5 a23d
00000030: e093 7f3d 5700 05bd 509d 4a3d e06a 3b3d
