output/models/220420_1758_ggcnn2_val0.8/epoch_31_iou_0.80_statedict.pt (torch, 274205 bytes, 20 tensors)

features.0.weight f4 [16, 1, 11, 11]
00000000: 6ee9 843d 069e 073d 86cc 2bbd 0900 1e3d
00000010: 0e14 0438 54c2 95bc d62c 103d 874d 003d
00000020: ad7e b93b e46d 24bd 382d 0bbd 7ee1 4e3d
00000030: 8bfc 703d 8929 89ba 651e 2cbd 1144 883a
00000040: 88e0 aa3c 3a1b e03c 28f6 18bc e84d 233d
00000050: 0a6a f8bb 62e9 babc 7778 013d a0c2 15bd
00000060: 86ba 5fbb 02b8 813b f8dc e7bc b83a 453d
00000070: c6cb 29bd 342e 27bd 8231 243c 0791 1cbd
00000080: b59a 67bc f837 653d 6b7c 40bd 76b9 fdbc
00000090: 0528 a13c 2ee1 c9bc 74ee 473d b720 a43b
000000a0: fdfa 153d 8782 88bc 596e 1abd 276a 7bbd
000000b0: fd6b 6abc 1ed0 42bd 1463 b4bb c64a 403d
000000c0: f63c fbbc 6060 aebc 93d1 0a3d 4b15 623c
000000d0: 4778 67bb c60f 34bd ac0f 2d3d 5ad7 983b
000000e0: 543c c0bc 467a 38bd 9359 3f3d 23ff 493d
000000f0: 865e 29bd 43ea 3e3d da76 433a 96ad b93c
00000100: a43c 20bd 1c6d 65bd fe0c 84bc 45c2 343d
00000110: 0612 8b3c 620d f93c 42e0 bf3c c02b 8abc
00000120: de39 493d 99cb 133d 7989 f2bc 2e35 163d
00000130: 8ec9 253d 3bf6 fd3c e443 72bc 399c 1e3d
00000140: 2ec1 b7ba d1b7 a8bc 286f 4a3d 4839 b03c
00000150: f115 563d a810 9b3c fc5d 723c 25be 5cbd
00000160: 658b d93c 0a51 b83c 787a 503d fd3f 243c
00000170: d98f c83c c65c bcbc d6ee a7bc f785 fa3c
00000180: 10af cd3c aa57 63bd 9e85 86bb 472b aa3b
00000190: 53f6 633d f387 cbbc 1245 11bc 3127 9abc
000001a0: 7491 813d a865 563d fd0a 2e3d 4855 193c
000001b0: 12ae 3b3d 7f62 f73c 91a5 813d 029f 363d
000001c0: 5d5c 06bd 83d4 193c c5d0 a4bc 1a34 143d
000001d0: 3879 14bd 6a78 6e3c acf9 9fbb 01d9 1abc
000001e0: 48ad 41bd d381 803d 7965 ae3b 667c 173d
000001f0: 31d2 563d a79f 19bd 0fc7 f43c e6c4 e0bc
00000200: e536 28bc a942 2abd 7d1d b0bc 2909 523d
00000210: e6af c23b 28d6 cc3c 98fb 99bc cf01 453d
00000220: 58c0 703d d2b1 22bd bb05 cc3b 2f83 a03c
00000230: 8e2b 483d 5cc1 41bd 5409 2bbd 023b c3bc
00000240: b7b5 5f3c 591c 383d 2476 573d 299b 50bc
00000250: 261f d0bc 451b e93c 22f3 29bd 0577 e73c
00000260: e013 3b3d 2abc 013d 1eb0 44bd b051 053d
00000270: 5474 393c b5e4 8b3c 4287 2fbd 1b94 0f3c
00000280: a582 d43c c44e 803b e906 2f3d 9c21 0b3d
00000290: 6093 d0bb 4fa7 d7bc eed1 3cbd 6e61 cabb
000002a0: 07de 433c 8e38 09bd ae63 183d f877 2cbc
000002b0: 0504 1d3d a45c afbc 5425 a8bc 8537 273d
000002c0: 8244 ce3c 7597 b139 bfaa 053c 8093 1cbd
000002d0: aa14 9ebc 2ab0 243d a888 673c 9f83 133d
000002e0: 7c9d 463d 2cf0 543c be38 133d 14be dbbc
000002f0: 07d0 d4bc d178 833c 3aee 833c ba23 62bc
00000300: fe9a 453d 7cdd e2bb d940 b73c 95e7 e3bc
00000310: 0136 0cbd a7cf 053d 7cec b03c cbe2 153d
00000320: 7077 64bd 23e3 fc3a 4411 3dbd 1d47 18bd
00000330: a741 eebc 52f5 67bd 7e5c b5bc f215 023c
00000340: 356e 36bd b1a1 a63c cc2f 113c 49e2 3bbc
00000350: 35e3 80bd de15 38bd 699e 4dbd 9feb 27bd
00000360: dca3 61bd 0769 62bd 1de6 ee3c 9f2e d73b
00000370: f38d d2bc 440d 463b d71c c33c a7c2 153c
00000380: 6183 3fbd f035 e4b9 b6b4 c5bc 0aa5 f1bc
00000390: 908d 223c 8c45 13bd 277c 2abd 556e 383d
000003a0: 080d 2cbc 0db5 3ebd 4e0f 46bd 2523 3e3c
000003b0: 30a0 58bd c88e 653c c526 aa3b bdcf d5bb
000003c0: a827 a9bb 1d56 b33c bfa2 3abd 2a00 c43c
000003d0: 4b06 c13c 5041 c4bc 266b a23d b746 823c
000003e0: 34e8 143c 95e1 bcbc 8ca1 853d 7019 87ba
000003f0: 150c 97bc cefd 01bd 08d8 48bc d449 bdbc
0.06489836 0.033109687 -0.041943096 0.038574252 3.148993e-05 -0.01828114 0.03519901 0.031323936
0.005660853 -0.040143862 -0.03397867 0.050508015 0.058834594 -0.0010464649 -0.042021174 0.0010396262
0.020859018 0.027356733 -0.009336032 0.03986922 -0.007581 -0.022816364 0.031609025 -0.036562562
-0.0034138276 0.003958703 -0.028303608 0.0481517 -0.0414541 -0.040815547 0.010021569 -0.038224246
-0.014136006 0.05596158 -0.046993654 -0.030972224 0.019672403 -0.024643507 0.04881139 0.0050087827
0.036616314 -0.016663803 -0.037702892 -0.06138053 -0.014307973 -0.047561757 -0.005504975 0.04694631
-0.030668717 -0.02128619 0.03389127 0.013799022 -0.0035319494 -0.043960355 0.042251274 0.004664344
-0.023466267 -0.045038484 0.046716284 0.049315583 -0.04134991 0.046610128 0.000745637 0.02266578
-0.03912033 -0.056012258 -0.016119476 0.044130582 0.016976368 0.03040189 0.023422364 -0.016866565
0.049127452 0.036082838 -0.029606568 0.03667181 0.04047542 0.0310012 -0.014786694 0.038723204
-0.0014019364 -0.020595463 0.049422413 0.021511689 0.05226702 0.01892884 0.014792915 -0.053892273
0.026555726 0.02249958 0.050898045 0.010025022 0.024482654 -0.022993457 -0.020499628 0.030581458
0.02510789 -0.055503525 -0.004105284 0.0051931473 0.055654835 -0.0248451 -0.008866565 -0.018817516
0.06326571 0.05234304 0.042490948 0.009358712 0.045820303 0.030198334 0.063304074 0.044585235
-0.03280293 0.009389046 -0.02011908 0.0361825 -0.036248416 0.014555076 -0.004882058 -0.009451152
-0.047284395 0.06274762 0.005322155 0.03698387 0.052446548 -0.037505772 0.029880075 -0.027437638
-0.010266994 -0.04156748 -0.021498436 0.051278267 0.005941379 0.025004461 -0.018796727 0.048097428
0.058777183 -0.039720364 0.006226269 0.019593803 0.048869662 -0.047303542 -0.041756943 -0.023831848
0.013654164 0.04494891 0.052602902 -0.012732306 -0.025405478 0.028455386 -0.041491635 0.028254995
0.04567325 0.031673588 -0.04801952 0.032548606 0.011319239 0.01707683 -0.0428536 0.008763338
0.025941202 0.0039156396 0.0427312 0.0339676 -0.0063652247 -0.026324896 -0.046098642 -0.0061761653
0.011954791 -0.0335012 0.037204437 -0.01052665 0.03833391 -0.02140648 -0.020525612 0.040824432
0.025179151 0.00033872915 0.008158385 -0.038226604 -0.019296963 0.040207066 0.0141317025 0.036014196
0.048490033 0.012996715 0.035942785 -0.026824035 -0.025978101 0.01604882 0.016104806 -0.013802463
0.048243515 -0.0069233757 0.022369789 -0.027820388 -0.03423119 0.032668736 0.02159714 0.03659324
-0.055777967 0.0019293766 -0.046159044 -0.037177194 -0.02908404 -0.05663044 -0.02213883 0.0079398025
-0.044538695 0.020340772 0.008861493 -0.011467525 -0.06293336 -0.04494273 -0.0501999 -0.04099619
-0.05508791 -0.055275943 0.029162461 0.006566837 -0.025702452 0.003022031 0.023817463 0.009140647
-0.046756152 -0.00043527735 -0.024134021 -0.029497642 0.009921446 -0.035954997 -0.041622307 0.045027096
-0.010501154 -0.046559382 -0.04835444 0.011605059 -0.05288714 0.0140110925 0.00519261 -0.0065250085
-0.005162198 0.021891648 -0.045565363 0.02392586 0.023562571 -0.023956925 0.07930593 0.01590286
0.009088565 -0.023056785 0.06524953 -0.0010307264 -0.018438378 -0.031736188 -0.012258537 -0.023106493

features.0.bias f4 [16]
00000000: 1376 87be d1b2 67be 8a75 1e3f bee8 583d
00000010: 4f13 3bbe cc8c 13be e4b0 80be fc95 30be
00000020: 4e4d 26be 20c0 483d 9f7d bbbd e1c6 d2bd
00000030: 529a 97be 0f6e c1be 2853 7abe de24 2dbf
-0.2645727 -0.22626807 0.618981 0.052956335 -0.18269084 -0.14409178 -0.25134957 -0.17244714
-0.16240427 0.04901135 -0.0915482 -0.102918394 -0.29609925 -0.3777928 -0.24445784 -0.6763438

features.2.weight f4 [16, 16, 5, 5]
00000000: fc41 853d 5399 0fbd 5fa6 b5bd aee9 2ebd
00000010: 7b84 c5bd b5b7 93bc 1b47 833d 8042 d93c
00000020: 8b2d 283d 915c d1bd c0af 44bc f578 843d
00000030: c0ac daba d1c5 8a3d e584 c5bc 09cc 483d
00000040: cff4 42bd 38a0 a6bb 8ed8 763d b48e e6bd
00000050: 637a 973d 700c a9bd f64e 863d c076 503b
00000060: 10ea 033d 950c 0dbb eb26 89bd e855 39bd
00000070: 5aeb db3b 74e7 273c a353 843c 2d24 5d3d
00000080: f1f9 a9bd cdbc 57bd 4d54 913d 344a 2d3d
00000090: dc62 83bb c5e0 203c ad4a 763b 033c 1ebd
000000a0: 1f6a 68bd 082c 88bd 227c 863d ce0c fdbc
000000b0: 4e1f 22bd 0006 453d 4aa7 81bc c354 e7bc
000000c0: 7278 693d 5609 633d e89c 4dbd ab47 79bd
000000d0: 7301 87bd a0b1 5cbc f26a fbbc eb90 4e3d
000000e0: a0d2 83bd 1b1b c1bd c530 4dbd 206e a7bc
000000f0: c453 acbd 1259 b5bd d367 2e3d 812f c3bd
00000100: 5999 533d 9f8b 903d 687d dd3c 9c6c 43bd
00000110: 0490 babd 0d11 c7bd 64b0 3c3d c299 1a3b
00000120: 2430 21bc 4f6b 15bd 92be 8dbb 4258 813d
00000130: cd2c 13bd 06fd 99bd 133f 39bc c531 9a3d
00000140: 4015 5bbd 2bc0 5bbd 614d 2dbd 83d0 9cbd
00000150: 048f 0b3d f71d 833d 71af e0bc 9068 7dbd
00000160: 07c6 48bd 1f77 953d 2e60 913d 4d6d 1cbd
00000170: 0dc2 86bd ef9b e23c cf1c 5bbd 1b96 3b3d
00000180: 8da2 403d 5134 103d 21bc 36bd db19 d8bc
00000190: 7608 02bd 7e6f 6abd 0f38 59bd f915 c5bd
000001a0: d6f3 69bd 9d90 b9bd 2d06 753d 1c2f c83c
000001b0: ea28 283d f986 6e3d 2d7d ffbc 0d20 7b3d
000001c0: 22d9 85bd 6f57 893d 43bd 87bd c586 14bc
000001d0: 39b0 b639 bb53 1d3c f937 a2bc c005 6b3d
000001e0: 97cc adbc d6b7 a03c ea13 a0bd 8f2f 9dbc
000001f0: ce17 00bd 632b 98bc e12e 03bd e377 31bd
00000200: b3a1 a73c 581b 6ebc 50a6 913d 5a1e 323d
00000210: 103b adbd 11f3 bd3c 34a3 8e3d 8058 863d
00000220: 1ca5 813c f783 babc e9ed 6abb 537b 093d
00000230: 3878 12bd c74b ecbc 0361 583d 3570 bb3c
00000240: 172c e73c dfcd 763c 4a45 663d 5c40 c9bc
00000250: f278 80bd 8de0 58bd 1095 3dbc fcb8 7dbc
00000260: 26f6 6fbd 4eab 193c 9b6d 89bd f306 263d
00000270: 365e 51bd e2f1 433d ecaa 92bd ac1c 5a3d
00000280: 9394 183d 5403 343d 0c10 ecbc d5d6 4c3d
00000290: 8b27 a43c bfa7 5c3d 1a64 1dbd 6110 29bc
000002a0: 8fa9 3d3d 72e6 6d3d 1917 b3bd 136e 743d
000002b0: e127 a6bd 3204 de3c 929d c1bd 29fc b8bc
000002c0: 7ed5 56bd aac1 4dbd eeed 9ebb 928f d23c
000002d0: 4b09 7b3d c7bb a8bd bf0b d3bc 429b 87bd
000002e0: f67f 933d 3ca3 093c c994 05bd a657 973d
000002f0: 75e3 4c3d b4bd 94bd 6778 6f3b 85af 2ebd
00000300: fad9 9a3c fd2d a43c ab1c 8b3d 21aa 38bd
00000310: 3b51 83bc b646 df3c c438 45bd 7e88 6b3d
00000320: 9769 3bbd dfde 77bb f536 b1bd 58a1 b5bd
00000330: 3581 1a3d 2b8c 88bd ac6c b3bd 8f12 363c
00000340: f489 4d3d fead 04bd 6c4e b33c 9037 e7bc
00000350: 0154 74bd f483 17bd 5b71 d0bd db60 37bd
00000360: 5da8 1ebc 49a1 753d c541 33bd 7764 1abd
00000370: 95d3 91bd ca1f 1fbd 646f c2bb 2760 d2bd
00000380: e75a fe3b 390c f8bd 1da5 e63c c270 00be
00000390: 4865 adbc b315 f53c 8b44 03bd 29d8 8ebd
000003a0: 9f05 c9bd 91e6 59bd 29cf 0f3d 2333 8abd
000003b0: 2b31 58bd 9e8e d4bd 4bda afbb d3d9 97bd
000003c0: 1987 a23c 1ef9 e63c 22cf 363c e343 83bd
000003d0: 4464 56bd 4089 07be e395 9b3b f3d1 9abc
000003e0: 365c 3f3c 1a70 e4bb 64ff bfbc ba08 2ebd
000003f0: bbbf 8ebd 8533 603d 1f34 8dbd d609 f9bc
0.06506726 -0.03505833 -0.088696234 -0.042703323 -0.09644409 -0.018031934 0.06410047 0.026520967
0.04105906 -0.10222734 -0.012004793 0.06468383 -0.0016683564 0.06776012 -0.02411122 0.049022708
-0.04759675 -0.0050850175 0.060265116 -0.11257687 0.0739639 -0.082543254 0.06558029 0.0031809062
0.03220564 -0.0021522392 -0.06696876 -0.045247942 0.0067114057 0.010248054 0.016153162 0.053989578
-0.08299626 -0.05267029 0.07096157 0.042307094 -0.0040095877 0.009819214 0.0037581131 -0.03863145
-0.05674183 -0.06649023 0.06566645 -0.030889895 -0.039580636 0.048101425 -0.01582684 -0.02823866
0.05699963 0.055428825 -0.050198466 -0.060859364 -0.06592073 -0.0134700835 -0.030690644 0.050431173
-0.06436658 -0.09428998 -0.05009534 -0.020438254 -0.084144145 -0.088548794 0.042579483 -0.09530545
0.051659916 0.070578806 0.027037337 -0.047711 -0.091095 -0.09720049 0.046066657 0.0023590182
-0.009838138 -0.03647929 -0.0043256963 0.06315662 -0.035931397 -0.075189635 -0.011306542 0.07529024
-0.053487062 -0.053650063 -0.042310122 -0.07656958 0.034071937 0.064022 -0.027427407 -0.061867297
-0.04901698 0.07298111 0.07098423 -0.038190175 -0.06579981 0.027662246 -0.05349427 0.04579745
0.04703002 0.035206143 -0.044613007 -0.026379516 -0.03174635 -0.057235233 -0.053031977 -0.096233316
-0.057117306 -0.09060786 0.059820343 0.024436526 0.041054644 0.05823419 -0.031187618 0.061309863
-0.065355554 0.0670613 -0.06627896 -0.009065335 0.0003484504 0.009602482 -0.01980208 0.05737853
-0.02121572 0.01961891 -0.07816298 -0.019187717 -0.031272702 -0.018575376 -0.03202713 -0.043327224
0.020462846 -0.014532886 0.071118 0.043485977 -0.08458531 0.023187192 0.06964722 0.06559849
0.0158258 -0.022768004 -0.0035847372 0.033564877 -0.03575918 -0.028844727 0.052826893 0.022880653
0.028219266 0.015063732 0.056218423 -0.024566822 -0.062730685 -0.052948523 -0.011571184 -0.015485998
-0.058584355 0.009379221 -0.06710359 0.04053397 -0.051115237 0.0478381 -0.07161507 0.05325
0.037251066 0.043948486 -0.028816245 0.050009567 0.020038387 0.053870913 -0.038425542 -0.010318846
0.04630428 0.058081098 -0.0874464 0.059675287 -0.08113075 0.02710161 -0.09453882 -0.022581177
-0.052449696 -0.05023352 -0.004850141 0.025703225 0.06128816 -0.08238941 -0.025762437 -0.0662141
0.07202141 0.0084007345 -0.032612596 0.073897645 0.050021607 -0.072627455 0.0036540271 -0.042647857
0.018902767 0.02004146 0.06792577 -0.045084123 -0.016029945 0.027255397 -0.04814984 0.057503216
-0.045754995 -0.003782205 -0.0865306 -0.088686645 0.037720878 -0.0666736 -0.08760962 0.011112823
0.05018039 -0.032392494 0.02188798 -0.028224736 -0.059650425 -0.036991075 -0.10177871 -0.044770103
-0.009683696 0.059968267 -0.043763895 -0.037693467 -0.07120434 -0.038848676 -0.005933689 -0.10272246
0.0077623012 -0.12111706 0.028154904 -0.12543014 -0.021166459 0.029917574 -0.03204779 -0.06974823
-0.09815525 -0.0531984 0.035109673 -0.06748035 -0.052781265 -0.103787646 -0.0053665987 -0.074145935
0.01983981 0.02819496 0.011157783 -0.06409433 -0.052341715 -0.1323595 0.0047480925 -0.01889894
0.0116797 -0.0069713714 -0.02343721 -0.04248879 -0.069701634 0.054736633 -0.06894707 -0.030400198

features.2.bias f4 [16]
00000000: 875e c0bd 9d85 0bbd db57 c2bc 69e5 d0bc
00000010: 2d3b 51bd 1a86 12be 0878 33bd b5bf 2ebd
00000020: 6dfe 663d 0776 11bc eb58 4fbd 5f1d b5bc
00000030: 16c4 21be 7ff8 dbbd 1daa 06be fcab b9bb
-0.0939303 -0.03406297 -0.023723533 -0.025500016 -0.051081825 -0.14308968 -0.043815643 -0.042663295
0.056394983 -0.008878238 -0.05062191 -0.022108732 -0.15797457 -0.10740756 -0.1315083 -0.005666254

features.5.weight f4 [16, 16, 5, 5]
00000000: 0bcb e7bb 4534 a43c cd6e 9dbd 891f 6e3d
00000010: e4c1 313b 625a efbb 9ff4 2f3d bb49 df3c
00000020: 933b 38bc 5347 2c3d 55a4 b9bd e1b4 183d
00000030: 4769 00bc b426 87bd 2beb d6bc 3dbf 8d3d
00000040: 6608 51bd 21f5 59bd 11ac ad3c a075 bc3c
00000050: f452 afbc 0242 96bd 4b24 133c c428 033d
00000060: 6fec 3fbd af14 dbbd 7a53 a2bd 9160 e7bc
00000070: 34f2 c5bd 5a12 6abc 28d4 b3bd ee23 e5bd
00000080: a045 98bc 809f afbd 1186 78bd 5e38 f9bc
00000090: 706f 4bbd e446 2c3d f76f cdbd c40c bebd
000000a0: 15f1 1abc 1608 6b3c 5bf7 053d 2941 a13d
000000b0: 8424 abbd efbb 12bd 4959 25bd 634a dbbc
000000c0: fae9 9dbd bd4f f5ba 5427 853d d68c 443d
000000d0: ab61 8c3e a26c b63e 7102 643e fe13 5ebc
000000e0: a2a5 dabc 5c0f 863d 77ff 073d eb84 843d
000000f0: 12bd dcbc 5c28 5e3d 48a6 12bd 706b bf3d
00000100: ba04 8e3c 1d58 69be 6dfe 17be 7ce9 a8bd
00000110: bccc aa3c b600 51be f0d8 ffbc 6fcd 22bd
00000120: 94fc b4bd 2ae4 033d dbf2 5ebe eaec 153c
00000130: f3dd a63d 18fa 96bd cbbc b43c 2e10 6d39
00000140: ef4a 063b a580 2bbd a2ca f13c 17af 033d
00000150: f3b2 36bc f5b5 d43d 368b de3c 0c5a 143d
00000160: 01ae 1a3c 40a0 bebd 83ca 59be b6e4 9bbe
00000170: 2238 adbe ee52 b4be 6713 c8be 209c 99be
00000180: 6c37 c1be 1799 cbbe 443d b5be db19 c1be
00000190: bbe3 87bc 9151 b1bd cd9d b3bc 56ea 2b3c
000001a0: 3886 babd 53c8 10bc 1baa d4bd 6277 f4bd
000001b0: dab5 9ebd 6236 cebd 7773 163d 4ad4 a6bc
000001c0: 6542 bf3d e929 b83d 6894 b43a 5071 023d
000001d0: bc14 0abe 0b91 00be 6843 8f3c b0f3 f3bb
000001e0: cbc2 fd3b 6145 b6bd 3b2d 973c 614d ccbd
000001f0: a942 cbbd dbd8 30be 88e7 d7bd e471 d9bd
00000200: e3ac aabd 8bd4 0bbd 90ca 3bbe 8b35 0cbe
00000210: a89b 49bd cb7e 3abd af6d d7bd a54f 2e3c
00000220: ec37 c8bc 280a 16be c02f 0bbd adca fdbd
00000230: dddb 3abd c124 8d3c 1201 9ebd d194 d53b
00000240: 8730 6a3d 2764 23bc c623 1f3d b9d3 783d
00000250: b984 0abd 5321 abbd 4bb9 84bd 36a4 703d
00000260: 02a7 9b3d 93ad 5cbd a19b 92bd 82ae 2e3b
00000270: 9cd7 d53c 17bb 4dbd 6bc7 d5bc fac4 4c3d
00000280: 6f5f ae3d deae f8bb 95e1 d73d eab6 943d
00000290: 8b2d 7fbd c468 a2bd 6537 47bd 01b8 0cbc
000002a0: bc10 7abd 54a8 59bd 6384 06bc 3c5c a4bd
000002b0: 4356 e53d 9760 86bd 1a63 15bd b0f7 b0bb
000002c0: 78bf 7f3c c3ee febc ecc1 c23c 6ca0 353d
000002d0: 2ca4 ff3c d050 583d 5168 87bc 6fd9 ad3c
000002e0: a0b5 b9bb a4a7 db3c d02e 18bc 579b 093d
000002f0: 273c 93bb 6de9 35bd b4b6 4f3d 8c9e 773d
00000300: 16cf adbd 533d 0c3d 12a8 7f3d e879 69bc
00000310: bb16 adbd 4980 a7bd 98ab 473c 9c04 ff3c
00000320: abb1 07bd 3368 aabc 5e78 443c ca58 b2bd
00000330: a1a2 b7bd b1da 2fbd 9f61 bfbc 7117 283d
00000340: a6f0 b33c 30ba a5bd 2554 b4bd 0926 e53c
00000350: 6cba 37bd 9381 463d 19d1 5fbc aeae 41be
00000360: 113b 27be b4cb 57be 8e2d 40be 11f4 7fbe
00000370: 7476 6abe 5d4f 10be b88f 5abe 0173 94bd
00000380: 835e 85be 28ef 813b d116 88bd 7a1e 8e3a
00000390: 88a7 af3c 162e dbbb 0069 eb3d e47f 8e3d
000003a0: f1be 613d f2c6 283d 2888 8ebc 179f 673d
000003b0: 4176 cb3d 1648 ea3d 055f 863c d394 13bd
000003c0: ef7b 0abf de66 28bf d815 22bf 3aeb 2abf
000003d0: e21d 25bf d22b 9dbe 931e bebe be1f 8abe
000003e0: 7696 8dbe adc2 82be 277b 953d e214 26bd
000003f0: ce67 49bc 4b77 8a3d a9ff 4bbd 07ee 4d3c
-0.007073765 0.020044455 -0.07687149 0.058135543 0.0027123624 -0.0073044756 0.0429579 0.027256837
-0.011244672 0.042060208 -0.09064547 0.037281875 -0.0078376 -0.06599179 -0.026235184 0.069212414
-0.0510334 -0.05321229 0.021200212 0.023005307 -0.02140186 -0.07336809 0.008980821 0.0320213
-0.04685634 -0.106973045 -0.07926078 -0.028244289 -0.09665337 -0.014286602 -0.087807 -0.11188494
-0.018587887 -0.08575344 -0.06067473 -0.030422386 -0.049666822 0.042059794 -0.10031121 -0.092797786
-0.0094568925 0.01434519 0.0327066 0.078737564 -0.08356574 -0.03582376 -0.040368352 -0.026768869
-0.07710643 -0.001871578 0.06501642 0.047985874 0.27418265 0.35629755 0.22266556 -0.013554571
-0.026690308 0.06545898 0.033202615 0.064706646 -0.026945625 0.05423771 -0.03580311 0.09346664
0.017336238 -0.22787519 -0.1484315 -0.082476586 0.020849578 -0.20410427 -0.031231374 -0.039746698
-0.08837238 0.032200016 -0.2177233 0.009150723 0.08147802 -0.0737192 0.02206268 0.00022608109
0.0020491441 -0.04187073 0.029515568 0.0321494 -0.011151063 0.10386268 0.02716599 0.036218688
0.0094409 -0.09307909 -0.21268658 -0.3044793 -0.33831888 -0.3521952 -0.39077303 -0.30001926
-0.37737596 -0.39765236 -0.35398304 -0.3771504 -0.016588083 -0.08658136 -0.021925831 0.010492882
-0.091076314 -0.0088368235 -0.103840075 -0.11936833 -0.07749529 -0.100689664 0.03673121 -0.0203649
0.093388356 0.08992369 0.0013777139 0.031846344 -0.13484472 -0.1255533 0.017488196 -0.0074448213
0.0077441684 -0.08899952 0.018454185 -0.09975696 -0.09924824 -0.17270224 -0.10542208 -0.10617426
-0.08333757 -0.034138244 -0.1833899 -0.136923 -0.04922071 -0.045531075 -0.10518967 0.010639106
-0.024440728 -0.14652312 -0.033981085 -0.12392173 -0.045619834 0.01722944 -0.07715048 0.0065179844
0.057175186 -0.009972609 0.038852476 0.06074879 -0.03381798 -0.083559655 -0.06480654 0.058750354
0.076002136 -0.05387647 -0.0715859 0.0026654308 0.026103787 -0.05022725 -0.026096066 0.04999254
0.08514296 -0.007589205 0.10541073 0.072614506 -0.062299293 -0.07930139 -0.048636813 -0.008588792
-0.061051115 -0.053139046 -0.008210274 -0.08025405 0.11198094 -0.06561392 -0.036471464 -0.0054006204
0.015609615 -0.03111971 0.02377411 0.044342443 0.031206213 0.052811444 -0.016529234 0.021221844
-0.0056674033 0.026813336 -0.009288505 0.03359541 -0.0044932547 -0.044412065 0.05071135 0.060453936
-0.08486764 0.03423817 0.062416144 -0.014250256 -0.08451601 -0.08178765 0.012186907 0.031130128
-0.03312842 -0.02080164 0.011991588 -0.087083414 -0.08966566 -0.04293317 -0.023361979 0.04103798
0.021965336 -0.08092153 -0.08805112 0.027972238 -0.04485552 0.048463415 -0.013660693 -0.18914291
-0.16331126 -0.210738 -0.18767378 -0.24995448 -0.22896749 -0.14092775 -0.21343887 -0.07248498
-0.2604867 0.003965277 -0.06644977 0.0010842823 0.02144219 -0.0066888435 0.114946365 0.06957987
0.055113737 0.041205354 -0.017398909 0.056548204 0.099346645 0.114395306 0.01640273 -0.0360306
-0.5409536 -0.6578196 -0.6331458 -0.6676518 -0.6449872 -0.30697495 -0.371327 -0.26977342
-0.27653855 -0.2553915 0.0729888 -0.04054726 -0.012292815 0.067610346 -0.049804363 0.012568957

features.5.bias f4 [16]
00000000: 2939 8c3c 2e79 43bd c3f2 bebd 9b20 1dbd
00000010: 2462 3a3d 657d 58be ab61 1cbe 7bf9 ecbd
00000020: b4f2 64be 2c23 6d3e dd98 11be ce7b 0cbd
00000030: 1b9b d9bd de4e 8cbd 386f c1bd f50e 44bd
0.0171171 -0.047722988 -0.09323647 -0.038361173 0.04550375 -0.21141584 -0.15271632 -0.11571022
-0.22358209 0.23157948 -0.14218469 -0.034297757 -0.10625287 -0.0685098 -0.094450414 -0.047865827

features.7.weight f4 [16, 16, 5, 5]
00000000: c164 14be b350 283d e2c6 c1bd ecd5 a3bc
00000010: a768 aabc b06d 49bd acc3 863d ec7e debd
00000020: 7f7b 0c3d e2eb 813c 77fb a4be 59d8 46be
00000030: 489d 90be 9005 87be 7489 34be b5f3 b9bd
00000040: 1dc5 97bd 1755 993b d23f a3bd 2c49 3dbd
00000050: 3828 863e 202f 4d3e af09 bc3e 9a90 d43e
00000060: 88ac 9e3e cb81 683d 1635 a23d c5e6 3f3e
00000070: 3049 8b3d 3991 843e daa2 033d a536 083d
00000080: e3b8 633e 9b15 b33d 923b 133e 1a6f 293b
00000090: d615 5a3d b673 033e 4aa8 093e 202e 8b3e
000000a0: a720 a63d fb42 f73d 437c 3d3e 4639 803d
000000b0: 66a5 393e c853 8dbd 9f94 c33d bc7f 1f3e
000000c0: d5fa 393e 200b 9f3e 0430 44bd 3375 acbd
000000d0: 323b cebd 2b31 1abe 294f 67bc 87eb 41bd
000000e0: a3e1 393c f72f 92bd 9454 79bc b7b7 8d3d
000000f0: 1f79 4d3e 8312 313e 1b61 393e 13fa 633e
00000100: 820f 6b3e f8eb 1a3d a68c 913d 1812 8a3d
00000110: 7522 963d bbbc 293e 7811 91bc 767f 5ebd
00000120: 477b 853d 1033 64bd 699b a33d 8371 e83d
00000130: f622 4e3e aca9 2d3e 0272 0d3e 38db 163e
00000140: 5e41 7fbe 4d22 cbbe b9a1 c5be aede ddbe
00000150: ed95 abbe b3a4 523d c765 1c3d 06ee 0dbe
00000160: be44 8abe 4446 1bbe 66b9 f2bc bde0 57bd
00000170: ec13 62bd 1e8c d7bd cc3e a6bc ec77 813c
00000180: 6d28 5ebb a3c5 43be dec6 6cbe b0b8 6dbe
00000190: eec0 65be e27d 94be f2dc afbe 514b b3be
000001a0: 382e 7abe 0b19 b93d 2298 aabd 2062 96bd
000001b0: 5747 1dbe 2d5d 45be d760 d7bd 0a45 2abe
000001c0: 6afb cfbd 9492 56bd 2492 04be cb1e 38bc
000001d0: e7ac 7bbd aa22 a9bd 9e1e 08be 812f e7bd
000001e0: 6d74 a53d bd72 773d 0d77 923d 492f afbc
000001f0: 07e7 a6bd cd36 17bc 38df 2ebc 8268 0ebd
00000200: feac b4bd 9dc2 833d aae8 3abe af69 bfbd
00000210: ffe8 a0bc a094 0dbe 6d16 48be f02f 1e3d
00000220: 7d18 813d 0005 493d f2a0 e63d 58a6 bc3d
00000230: 1652 20bd 9992 99be dfe7 0d3e 19a1 9f3d
00000240: d6f4 ac3d f3d2 08bd 0b9b 9fbe b84c f73c
00000250: 8c4a 9d3d 578d 74bd b126 37be 14ca 9bbd
00000260: 86fb d2bd 294a 81bd 0a9b 7a3d a44e 7cbd
00000270: b585 82bd bdea 5e3d a4f3 2dbd 7b5e cc3c
00000280: b073 8abc 45ce 48bd 5991 0ebd a835 7fbd
00000290: 95fd 31bd f5a8 203d c500 d3bb b714 d4bd
000002a0: 794e c5bd 6e52 d3ba 76a8 83bc 16ba 60bd
000002b0: 6561 5ebd a8e7 0e3d 08f6 cebc aae6 4bbe
000002c0: 460c 833d 70d4 45bd 237c fbbd 1e88 9dbd
000002d0: 2fe9 29bd ba2f 1cbe f80a e4bd ab8a acbc
000002e0: 0aaa 04be e5e9 a3bc 4009 153b 7376 90bd
000002f0: 30e8 f8bd 380a dbbd b79b 28bb df71 803d
00000300: 4efd 00bc 5bb9 1ebd 77c1 07bc 9b31 98bd
00000310: 1294 5dbd 5d89 06be 9901 8d3d ddbe 3bbc
00000320: f034 37be ccd3 26be 9c4b 83be 6708 5cbe
00000330: fa6b 1bbe 7ed1 61be 81a4 a8be 4cca b0be
00000340: 0a30 5abe 14de ebbd c0ef 94bd 2a13 9cbe
00000350: b248 01be 9fef cdbc 48d7 d5bd 072e 023e
00000360: 2860 1bbd d37d f4bd 559c 613e 0dd8 1dbe
00000370: 3c45 2f3e 8584 ec3c 2a61 a93d c424 c73c
00000380: 19a5 05bc 62e1 aebc 6f20 fe3b b9ec 9cbd
00000390: d1a8 533d a343 18bd 7dad 61bd 18c2 e5bd
000003a0: d118 5bbd 3df6 1fbe e5c9 59be 3462 0a3e
000003b0: e317 09bd 859f debd d064 06bc 964f 5bbc
000003c0: 0f04 163e ee59 d3bd a37b 96bc 8e29 a33d
000003d0: 8aea 8ebc 7524 8fbd 1f63 3dbe b96e 6bbe
000003e0: 464c 58be 46e8 5cbe fb88 acbd f5b3 95bd
000003f0: 0b96 52be 4b32 0abe a1d3 d33b b798 26bd
-0.1449156 0.041092586 -0.09461762 -0.019999467 -0.020801855 -0.04917687 0.0658029 -0.10864052
0.034297463 0.015859548 -0.32223102 -0.19418468 -0.28244996 -0.2637143 -0.17630559 -0.090796866
-0.07410643 0.004679333 -0.07971157 -0.04621236 0.2620256 0.20037508 0.36726138 0.41516572
0.30991006 0.056764405 0.079202816 0.18740375 0.06801069 0.25892046 0.03213773 0.033255238
0.22238497 0.08744355 0.14378193 0.0025853575 0.05324348 0.12837109 0.13443103 0.27183628
0.08111697 0.120733224 0.18504433 0.06260924 0.18129501 -0.06900746 0.095498316 0.1557607
0.18162091 0.31063175 -0.047897354 -0.084207915 -0.10069884 -0.15057819 -0.014117994 -0.047343757
0.0113453 -0.07138055 -0.015217919 0.069198065 0.20065735 0.17292218 0.18103449 0.22263364
0.22955135 0.037822694 0.07106905 0.06741732 0.07330791 0.16575901 -0.017708525 -0.054320775
0.06517654 -0.05571276 0.079886265 0.11349776 0.20130524 0.16959256 0.13813022 0.14732063
-0.2492728 -0.39674607 -0.38599947 -0.43333954 -0.33512822 0.0514266 0.038183 -0.1386033
-0.2700557 -0.15163523 -0.02962942 -0.05270456 -0.05519478 -0.10524772 -0.020293616 0.015804254
-0.0033898607 -0.19118361 -0.23122737 -0.23214984 -0.22436878 -0.2900229 -0.34348255 -0.350184
-0.24431694 0.0903798 -0.08329798 -0.073429346 -0.15359245 -0.19273825 -0.105165176 -0.16627899
-0.10155375 -0.05238588 -0.12946373 -0.01123781 -0.06144419 -0.08258565 -0.1329293 -0.112883575
0.08078847 0.060412157 0.071516134 -0.021384852 -0.08149534 -0.009229374 -0.010673337 -0.034767635
-0.08822058 0.06433604 -0.18252817 -0.093463294 -0.019642351 -0.13826227 -0.19539805 0.038619936
0.06303499 0.049077034 0.11261167 0.09211415 -0.039140783 -0.29994658 0.13857983 0.07794399
0.08445136 -0.0334043 -0.31172976 0.03018795 0.07680234 -0.059705105 -0.17885853 -0.07606903
-0.103018805 -0.06312973 0.061183013 -0.061598435 -0.06373159 0.054423083 -0.042468682 0.024947396
-0.016900867 -0.04902484 -0.034806583 -0.06230703 -0.043454725 0.03922363 -0.0064393007 -0.103555135
-0.09634108 -0.0016122588 -0.01607154 -0.054864965 -0.0542921 0.034888893 -0.025263801 -0.1991221
0.06398825 -0.0482983 -0.122795366 -0.07691978 -0.041482147 -0.15252581 -0.111349046 -0.021062216
-0.1295549 -0.02000899 0.002274111 -0.070538424 -0.12153661 -0.106953084 -0.002572758 0.06271719
-0.007872893 -0.038750987 -0.008285872 -0.074313365 -0.05409629 -0.13138337 0.0688507 -0.01145908
-0.17891288 -0.16291732 -0.25643623 -0.2148758 -0.15177909 -0.22052571 -0.32938007 -0.3452934
-0.21307388 -0.115169674 -0.07272291 -0.3048337 -0.12625387 -0.025138674 -0.10441452 0.1271287
-0.0379335 -0.119380616 0.22032292 -0.15414448 0.17116255 0.028871784 0.08270486 0.024309523
-0.008157038 -0.021347705 0.007755331 -0.07662339 0.051674668 -0.03717388 -0.055097092 -0.11218661
-0.053490464 -0.15621276 -0.21268423 0.13514024 -0.033470046 -0.1087027 -0.0082027465 -0.013385674
0.14649986 -0.10319887 -0.018369501 0.0796691 -0.017445821 -0.069893755 -0.18494843 -0.22991456
-0.21122846 -0.2157298 -0.084245645 -0.07309715 -0.2056505 -0.13495748 0.006464437 -0.040672984

features.7.bias f4 [16]
00000000: 09fa 91bd ae3c afbd b125 a3bb 5aef 54be
00000010: 6526 79bc f1bd b7bd 3a39 91bd 6ddd dabb
00000020: b7c2 b73c 3fd0 2dbe 24f5 62be 34f2 66bd
00000030: 5db0 a8bc 40be 8bbe 6078 d9ba 955c 0dbe
-0.071277685 -0.085564956 -0.0049788584 -0.2079443 -0.015206908 -0.08971775 -0.07090993 -0.006679228
0.022431714 -0.16973971 -0.22163826 -0.056383327 -0.020591909 -0.27293587 -0.0016591661 -0.13804848

features.10.weight f4 [32, 16, 5, 5]
00000000: 5962 60bd 49ce 92bd 2307 1fbd c54d 033e
00000010: 1d96 323e bceb 7cbd a96d 593d a158 b03d
00000020: 15ee 893d 1a46 ae3d a365 5a3d 7096 d33d
00000030: 9be0 db3d b91c 82bd 141e 133e 0978 5339
00000040: 45fe 0e3e f4ed 853d dcb3 b0bc 4c56 5abd
00000050: 0d56 0bbf 9a13 b2be 98e1 41be e025 14be
00000060: caa6 16be 8fa4 5ebd 4572 5e3d 2a57 1f3e
00000070: e196 443e 2bf5 7f3e 9e5a 69be 150e a4be
00000080: f4bb 31bd adc3 f93d 9e11 573e f5f7 15bc
00000090: 9dcb 22be 2a81 8ebe c759 cbbd 4c6a 793c
000000a0: 0f4d d3bd 34f5 15be 749b 2fbe b9de 00be
000000b0: 039a 18be 2b3e 053d 8da3 87bd d311 403c
000000c0: 0c2b 7b3b 7eca 0abe b935 e7be 678a b9be
000000d0: 46c4 7dbe 81d7 19be b45d 29be 2afb 89be
000000e0: 6e19 56be 3474 15be 0bde 75bd 678b 27bd
000000f0: 1f13 80be b6d6 86bd 7bf7 a03d 0c04 a43d
00000100: a8b3 003e d421 68bd 7154 513d 6362 893e
00000110: 1b53 953e 7d03 a23e c99b 3ebd 87b0 983d
00000120: 21ee 903e 5857 d13e e33a dc3e 8964 feba
00000130: dcc1 b43d 63fc 14bd c11d 743d 037f ffbc
00000140: 9058 62be 67f6 173b 719b 69be 9b87 2e3d
00000150: 8d6d b9bb f734 d8be b62f 5abe 8f32 76be
00000160: 76be 8a3d 2891 7e3b c530 24be dbb2 9ebe
00000170: e911 c2be 8e2e 073e c8a0 803d ba18 3bbd
00000180: 7011 cebd 5242 99bc 78b9 b33d daa0 2bbd
00000190: ff43 da3d 4e91 323e 3441 7f3d 0c5a e93d
000001a0: 298c 52bd 5297 363d b621 7b3e 0a66 ad3c
000001b0: 030e 77be ff70 bbbe 1199 b038 f068 f43b
000001c0: dbe6 76bd 2baf 1cbe 99b9 9abe 6131 683b
000001d0: 595f 063e 6421 8e3b ca33 fdbd 19e7 773b
000001e0: ee2a 34bd 9c8b 3c3c 13eb 8ebe 1032 933c
000001f0: 84c3 8b3d 3281 1fbe 95b0 39bd be6c ebbd
00000200: 7d82 38bd 0fbe 61bc 6fd2 803c 1369 903d
00000210: 8952 833e b262 873d a192 b93d dcd4 04be
00000220: bdcc 44bd 4923 823c 3f99 983a 419e f33d
00000230: 4a1c 6bbd d4ee 04be e871 44be 952f 33be
00000240: f43f a8bc 8fee ae3b f1de 563e 0ec1 1f3c
00000250: cc12 cabd 28d9 54bd 9a53 5abe 7d1d a3bd
00000260: da9b e2bd 07c4 f3bd e5a2 d2bc d736 e6bd
00000270: ed02 65bc 3dd8 c6bc 0dbc 37be 3892 a1b9
00000280: a5c7 b0bc ca10 d6bd 5d61 d6bc 25c2 16be
00000290: 3863 513d 00aa f4bd 67de 97bd aaa8 bbbd
000002a0: f8c2 0fbe 6f51 d63b f12f 8dbc f0f0 10bd
000002b0: 395b aebd fc15 2bbe 600f dcbd c543 863d
000002c0: da51 123e 9bdf 73bc 79bc a03b 629f 46bd
000002d0: d115 ce3d 821a 5e3e 6269 003e 9abc 61bd
000002e0: 8ba9 b5bc 8322 713e 691f 993e 69cf de3d
000002f0: f310 acbe 7e9b 9abe bf24 aa3e 5e9c 8e3e
00000300: 34f6 633e b913 143c f5dd 8abe 0af0 f43d
00000310: 5f15 613d df35 623e 5900 f63d d550 b33c
00000320: f966 23bd a307 babc 41be 493d c930 343b
00000330: eafc d0bc 184c 97bd da1b 243d 3832 5b3d
00000340: f268 b53d 26c5 d63d ce3b 1abd c757 973d
00000350: 2428 ad3d b09f 4f3e 333c cd3d 095d f73d
00000360: d45c 433e 4b57 1d3e 5cd3 5f3e 4b15 f43d
00000370: 331a 923d afad 1b3c d253 f63c 64b3 edbc
00000380: ba7d da3c ef8f 4bbd 9bc5 12be af2b 8fbe
00000390: 092a d2bd 1546 09be 4710 adbd 1c0e a33d
000003a0: ac10 f73d 6fa8 bfbd 9d08 eebd 3bc1 90be
000003b0: 4c85 02bf d9b6 5cbe c9bf e43c 0611 ac3c
000003c0: aab8 4b3d d3b9 893d e414 383e e577 413d
000003d0: f932 f93d 0bd8 383d b705 3b3e c12a 633d
000003e0: eba8 483e 4ca9 b53d aa27 4dbc 93f2 97be
000003f0: 8f42 81be b954 ebbc 940e 9d3b 9fc4 cbbd
-0.05478129 -0.07168252 -0.038825165 0.12822635 0.17440076 -0.06174825 0.053083096 0.086106546
0.06734864 0.085094646 0.053319585 0.10331428 0.107361995 -0.06353135 0.14366943 0.00020167245
0.13964184 0.065395266 -0.021570139 -0.053304955 -0.5442818 -0.3478058 -0.18933713 -0.14467573
-0.14712062 -0.054356154 0.054308195 0.15560594 0.1919818 0.24995868 -0.22788474 -0.32041994
-0.043392137 0.12195525 0.21002814 -0.009153356 -0.15897985 -0.2783292 -0.09929233 0.015223097
-0.10317432 -0.14644319 -0.17149144 -0.12584962 -0.14902501 0.03252999 -0.06622992 0.011723
0.0038325218 -0.13553807 -0.45158175 -0.36238405 -0.24781904 -0.15023614 -0.16539651 -0.26949435
-0.20908138 -0.14595109 -0.06002621 -0.04090443 -0.25014588 -0.065839216 0.07859703 0.080085844
0.12568533 -0.056672886 0.05110592 0.26832876 0.29164967 0.31643286 -0.046535287 0.07455545
0.28306678 0.4088695 0.43013677 -0.0019408624 0.08826038 -0.036373507 0.059598688 -0.031188494
-0.22104096 0.0023187639 -0.22813202 0.042609792 -0.0056588114 -0.4222791 -0.21307263 -0.24042724
0.06774609 0.0038843844 -0.16034229 -0.3099583 -0.3790429 0.13201353 0.062806666 -0.045677878
-0.1006192 -0.018708382 0.0877561 -0.041901447 0.106575005 0.17438242 0.062318042 0.11394128
-0.0514032 0.044577904 0.24524578 0.02116682 -0.24126439 -0.36609647 8.420845e-05 0.0074587986
-0.060278755 -0.15301196 -0.30219725 0.0035429823 0.1312231 0.0043374766 -0.123633936 0.0037826954
-0.043986253 0.011507895 -0.27913722 0.017968208 0.06824401 -0.15576628 -0.045334417 -0.1149535
-0.04504632 -0.013778224 0.015725343 0.07051291 0.25648907 0.066106215 0.0906117 -0.12971824
-0.048046816 0.015885966 0.0011642351 0.11895419 -0.057400025 -0.1298173 -0.19184077 -0.1749862
-0.020538308 0.005338497 0.20983483 0.009750618 -0.098668665 -0.05196491 -0.21320954 -0.07964609
-0.110648826 -0.119026236 -0.02571244 -0.112409286 -0.013977748 -0.024273032 -0.1794283 -0.00030817254
-0.021579573 -0.10452421 -0.026169473 -0.14722498 0.051120013 -0.119464874 -0.07415467 -0.091630295
-0.14039218 0.0065404694 -0.017234774 -0.035386026 -0.08513493 -0.16707605 -0.1074512 0.06555895
0.14289036 -0.014884855 0.00490528 -0.048491843 0.10062755 0.216898 0.125402 -0.055111505
-0.022175571 0.23548321 0.29906777 0.10879404 -0.3360668 -0.30196756 0.3323116 0.27853674
0.22261888 0.009037905 -0.27122465 0.11959846 0.05495202 0.22090863 0.12011785 0.02188913
-0.039893124 -0.02270872 0.049253706 0.0027494899 -0.025511224 -0.073875606 0.040065624 0.05351469
0.08857907 0.10486822 -0.03765469 0.07389789 0.08454922 0.2027576 0.10021248 0.12078292
0.1907838 0.15365331 0.21857971 0.11918124 0.07133903 0.009501859 0.030069266 -0.029016204
0.02667128 -0.049697813 -0.14333193 -0.27963015 -0.10261924 -0.1340564 -0.0845037 0.079616755
0.12063727 -0.09358298 -0.116227366 -0.28272423 -0.50984645 -0.21554126 0.027923482 0.021004211
0.049736656 0.06724896 0.17976719 0.04723348 0.121679254 0.04512791 0.18263899 0.055460695
0.19595687 0.088701814 -0.012521664 -0.29677257 -0.25246093 -0.028726922 0.0047929976 -0.09949612

features.10.bias f4 [32]
00000000: 34f5 eabd 8e55 97bd 747d 003e a2a9 2fbb
00000010: bc79 72bc c930 1a3d 5653 1c3e 08b6 cebd
00000020: 9464 39bc 9743 c1bc a2a3 b5bc 7f42 ecbd
00000030: 1a9b 323d 767a 8bbb f603 5fbe 8c27 91be
00000040: 99e3 14be 5d95 063e 1b3f 5a3d d7c9 eabc
00000050: 9525 553c ed07 6ebc 0123 1e3e dd5a 333d
00000060: 53af 893d 43fd 37be 6d68 cabd 4e56 54bd
00000070: 1d4e babd e54b 053e 113a 923c bb0f f73c
-0.1147255 -0.07389365 0.12547857 -0.002680399 -0.014799532 0.03764418 0.15266165 -0.100933135
-0.011315484 -0.0235918 -0.022172753 -0.115361206 0.043604948 -0.004256542 -0.21778855 -0.28350484
-0.14539947 0.13142915 0.05328284 -0.028660698 0.013009449 -0.014528257 0.1544304 0.043787826
0.067228936 -0.17967705 -0.09883199 -0.05184012 -0.0909693 0.13017233 0.017849954 0.030158868

features.12.weight f4 [32, 32, 5, 5]
00000000: 0f2b 90bd 479d 99bd b178 08be ca21 97bd
00000010: 5b7a 173c cc43 cebd 0a65 ccbd 80fb ecbd
00000020: 213f ffbc 5f37 09bd 11b1 06be 5b00 febd
00000030: b7b7 eabd 7833 70bc 4d59 34bd 0570 cfbd
00000040: 1c66 0ebd 5b7e 12be eeb2 b2bb 0f57 51bd
00000050: f2ca e4bc 3388 26bd 3faa 04be 8e9c 95bd
00000060: bfbb 96bd 8732 a9bd a519 09bd 5620 fd3c
00000070: 06b7 27bd a7ee 4cbd 7883 88bd 48be c6bd
00000080: 29e4 5fbb 33ac 73bd 7254 5abd 4521 1f3d
00000090: 9a69 02bd 0d08 3d3d 13fc 37bc 367d 87bd
000000a0: 7271 443d defc 5cbc 3045 b6bc e73b a6bd
000000b0: 4c4e ccbd ff7e 2f3d 3297 7dbd b406 953c
000000c0: 01dc 99bc 0d21 5abd 68ea 08bd 5053 08be
000000d0: f8c0 06bd a1d1 42bd 4935 85bd b870 9bbd
000000e0: 7a21 96bd 28db 9ebd 18e8 acbd 9e76 4d3c
000000f0: 1eba 2abd 2af7 0a3d f45d c5bd cc1a 5abd
00000100: 72ea aebd 680c a3ba b957 4d3d 5d8a b3bd
00000110: c649 12bd df44 c2bc c3db ac3c 6cea d73c
00000120: 5fa3 12bd 102a 88bd 5720 71bd f5d6 9a3c
00000130: 55ab 3eba 299c 46bd 1a26 9c3c 48ed 13bd
00000140: b477 883b eee3 16bd 489b 1d3d d117 2abd
00000150: 40b7 53bd cc2d 0bbd 911d 303c 44dd c6bc
00000160: f717 92bd 030e 62bb 9e00 3abd 4db8 de3c
00000170: c901 5a3c 4c95 113c f543 80bb 405d 1abd
00000180: 5b1d 80bd 60e9 cfbc 6cb9 bf3b 3a35 603c
00000190: 91b4 863c aaea d43c 48a9 27bd c13d 9cbc
000001a0: 67b5 89bc e335 80bc 8201 443d ff6b 2f3d
000001b0: 2923 f0bc 300d 9fbd f302 bd3c 14fa 17bd
000001c0: 18e8 eaba d461 9abd df4f d2bc 267a 0abd
000001d0: bdb1 b6ba f067 0cbc 4488 673a 1855 283d
000001e0: a061 0e3d f927 9e3c e5b3 11bd 505b 03bd
000001f0: 2096 36bc 0a3e 833d 3466 543d f3c6 0abe
00000200: 418e e8bd 2cee 133c 863a 78bd 33a4 17bc
00000210: 7d41 b0bd b8e8 05be f706 77bd c91c 0bbd
00000220: 41a0 abbd d396 1fbd 7ae0 8fbd 302f 86bd
00000230: e9f1 a03c 375e 053d 0637 83bd 603c d93c
00000240: 71fe 093d e8e8 3ebc 9dd6 c63c a189 0cbd
00000250: 2046 b4bd 8fb8 1a3c 2997 4cbc 5ed2 ecbc
00000260: 2569 2fbc 0f47 413d ba84 1a3d b170 d03c
00000270: 55da 0f3d 146d ffbc cd4f 5d3d 41ce 7fbd
00000280: 9e79 d03c c746 c2bc 3ce6 b7bd 9646 aabb
00000290: 661c a4bd 9021 bbbd 7e06 60bd dec4 12be
000002a0: e2f1 7eba 48d4 cbbd c141 fcbd 72ac f9bb
000002b0: 02cd a4bc 847b 89bc cd6e 29bc dbd6 8fbd
000002c0: 91f3 52bd a54b 85bd 4de1 f3bb 18df 57bd
000002d0: 1066 4bbd 2a3f 963b d6ab 4bbb f20d 52bd
000002e0: bbc1 74bd 12e2 95bd 857a 2abd 588d f7bd
000002f0: b3cf cdbd 005c e7bd 2667 283b 22d6 2bbd
00000300: 2e66 c7bd aa40 f8bc 841c 1bbe 6a23 b1bc
00000310: 31b2 abbd cb82 61bc c66f 2bbd 1168 1fbe
00000320: e25e 35bd ad51 da3c 7d9a 02bc 1a6e f83c
00000330: 54cb 813c 2df2 9bbc 1059 3a3d fe7c 16bc
00000340: ca6c 6f3d f273 313d e490 253d df02 66bd
00000350: 2220 14bd da63 d63b 1a74 9a3c ad3b 163d
00000360: 47a1 11bc 8bd9 733a 85a6 493c 9561 253d
00000370: 4e48 993c 6911 65bc acd7 363c ea29 e6bb
00000380: 9828 5cbd 6d71 adbd 4968 b9bd 6f49 88bd
00000390: aeb4 cdbc c74e f73a 1177 dfbd df78 b3bd
000003a0: 6c1f 963c 4ddf 17bb e135 4cbd ede3 3cbd
000003b0: dc1f f6bd 4ff5 1fbd 8428 82bd 97bc b7bc
000003c0: 7e44 48bd 8170 e4bc 6650 bcbd 893b 0a3c
000003d0: 8273 45bd 78d5 07bd 344d 02be 7981 95bd
000003e0: 28a8 94bd 4d7b 73bd 9bfa efbc ebbc 87bd
000003f0: 7675 afbd f784 43bd 988a 52bd 8101 23bd
-0.07039463 -0.075007014 -0.1332729 -0.073794916 0.00924548 -0.10071525 -0.09980209 -0.11571407
-0.031158032 -0.03350007 -0.13153483 -0.124024116 -0.11460822 -0.014660709 -0.044030476 -0.10128788
-0.034765348 -0.14306013 -0.005453459 -0.051108416 -0.027928803 -0.040657233 -0.12955569 -0.07305251
-0.073600285 -0.082615905 -0.033471722 0.030899208 -0.04094603 -0.050032284 -0.06665701 -0.09704262
-0.0034163094 -0.059490394 -0.05330319 0.038850088 -0.03183899 0.046150256 -0.011229533 -0.06615679
0.047959752 -0.013488023 -0.022249788 -0.08116894 -0.099758714 0.042845722 -0.06191177 0.018191673
-0.018781664 -0.053254176 -0.033426672 -0.13313031 -0.032898873 -0.0475632 -0.06504304 -0.07589859
-0.07330604 -0.077566445 -0.08442706 0.012540488 -0.0416814 0.03392712 -0.09637061 -0.05324821
-0.08540811 -0.001243961 0.050132487 -0.08766625 -0.035714887 -0.02371448 0.021100884 0.026356898
-0.035800334 -0.06648648 -0.058868732 0.018901328 -0.0007273455 -0.04848877 0.019061137 -0.03611496
0.0041646603 -0.036838464 0.038478166 -0.04152662 -0.051688433 -0.033979222 0.010749237 -0.02427543
-0.07133477 -0.0034493215 -0.045410745 0.02718749 0.01330609 0.008885693 -0.003914351 -0.037686586
-0.06255599 -0.025379837 0.0058509614 0.013684565 0.016443523 0.025990803 -0.040932924 -0.019072415
-0.016810132 -0.015650695 0.047853 0.042827602 -0.02931364 -0.07766187 0.023072695 -0.037103727
-0.0017921953 -0.075381905 -0.025672851 -0.033807896 -0.0013938468 -0.0085697025 0.0008832256 0.041096777
0.03476107 0.01930617 -0.03557195 -0.032069504 -0.011144191 0.064083174 0.05185528 -0.13552456
-0.11355258 0.009028953 -0.060602687 -0.009255457 -0.08606241 -0.13077056 -0.060309377 -0.033963
-0.083801754 -0.038962197 -0.070252374 -0.06551969 0.019646602 0.032560553 -0.06406979 0.026518047
0.03368992 -0.011652209 0.024272257 -0.03431094 -0.08802438 0.009443416 -0.012487211 -0.028908905
-0.010706221 0.047186907 0.037724234 0.02544436 0.035120327 -0.031179942 0.054031182 -0.06245256
0.025448617 -0.02371539 -0.089794606 -0.005196403 -0.08013229 -0.09137261 -0.05469369 -0.14332911
-0.00097253744 -0.09952599 -0.12317229 -0.007619434 -0.020117287 -0.01678253 -0.010341358 -0.07023402
-0.051501814 -0.06508569 -0.0074426294 -0.052702993 -0.04965788 0.0045851665 -0.0031077764 -0.05128283
-0.05975507 -0.0731851 -0.04162075 -0.12087506 -0.10049381 -0.112968445 0.0025696247 -0.04195226
-0.09736286 -0.030304272 -0.15147597 -0.021623332 -0.08383597 -0.013764094 -0.041854642 -0.15567042
-0.04427994 0.026650274 -0.007971403 0.030325938 0.015844025 -0.019036377 0.045495093 -0.009185074
0.05845336 0.043323465 0.04042138 -0.05615508 -0.036163457 0.006542665 0.01885419 0.036678005
-0.008888549 0.0009302131 0.012307768 0.040376265 0.018711235 -0.013981202 0.011159819 -0.0070240395
-0.05374965 -0.084689 -0.09053094 -0.06654631 -0.025110569 0.0018868082 -0.10911382 -0.08763289
0.01832553 -0.002317387 -0.04985607 -0.046115804 -0.120177954 -0.039052304 -0.06355384 -0.022428794
-0.048893444 -0.027885677 -0.09195022 0.008437046 -0.04820586 -0.033162564 -0.12724763 -0.073000856
-0.07258636 -0.05944376 -0.029294303 -0.0662783 -0.08567326 -0.047734227 -0.051401705 -0.039796356

features.12.bias f4 [32]
00000000: c38a a6bd 2526 e7bd d796 0c3d 0985 c13c
00000010: f9d7 64be 6b6d 64bd 54c7 1d3e 80f4 de3d
00000020: 02b6 573e 082b 103e 2b82 81bc 9b00 c3bb
00000030: 6f23 c1bd 2dd2 6fbe d81d a93c 1c25 463d
00000040: c84b 8d3d a0b2 bf3d 7a08 5abe d932 833d
00000050: 4e43 00be 8d93 0b3e a449 a1bd c329 cabd
00000060: 3f60 59bd b3de aebd 2738 10be c7b6 973d
00000070: 7d64 f83b e914 efbe a6b8 523d 9dec edbd
-0.081319354 -0.11286572 0.03432354 0.023623006 -0.22348012 -0.05576841 0.15408069 0.108864784
0.21065524 0.14078915 -0.01580914 -0.005951 -0.094305865 -0.2342002 0.020644113 0.048375234
0.0689922 0.09360242 -0.21292296 0.06406183 -0.12525675 0.13630505 -0.07875374 -0.09871247
-0.053070303 -0.0853857 -0.1408392 0.07407909 0.0075803385 -0.4669564 0.051445626 -0.11617396

features.15.weight f4 [16, 32, 3, 3]
00000000: 8378 323c 0a87 7e3d 0870 e2bd 3d68 36bb
00000010: fb8e 09bd 97a5 aabd 2098 c0bd b8d8 613c
00000020: 7252 5bbd c843 103e 180c 5dbd d805 ebbd
00000030: fc75 263d 6b2d aa3d bad6 a6bd 7e0a d03d
00000040: 148b fcba f1ef e4bd 3296 73bd 73aa 01be
00000050: ccf3 5a3d ba1c 26be f5f3 58be 43b3 e8bd
00000060: 63ae a0be 2098 c4be 0590 b6be 6261 5bbe
00000070: fdf2 85bd bc23 67be f474 0cbe de91 8cbd
00000080: d93b 27be 2f5a 72b9 df4c afbd c9ec 37be
00000090: d3f8 dabc 62c4 043e 3207 403d c0dd 6b3d
000000a0: 77ee 2cbc 245c c83d 0e74 22be 34fb fbbd
000000b0: 3c20 eabc e6ba 33be d395 b4bc 3306 19be
000000c0: 953d 3ebe da81 40bd ca5c 35be 2479 01be
000000d0: e41b aebc 94d7 1fbe ccc7 023e e4a6 4c3e
000000e0: 5246 043d 1158 80bd 602e 3b3d 7a56 963d
000000f0: c791 99bd b643 443d a339 59bd a82b a9be
00000100: 3cd2 6ebe 09c8 c4be f7a9 1e3d 0220 29be
00000110: dad1 92be 6087 8d3d 173d debc 21ee f9bd
00000120: bad8 09be 048c f0bd 121c 20bd 1052 82be
00000130: af5d b8bd ec1b 96bd e32e 48be 309e 2bbe
00000140: a24d 9cbd 9345 8bbe d5f4 45be 36d8 2dbe
00000150: 15e4 cfbd 28fd 2ebe a505 64be 0b68 79bd
00000160: 9045 443d 1fce d3bd 5376 17bc 0dea dabd
00000170: 76b3 76be c54c d9bd 9664 a13c cda1 85be
00000180: bb72 01bd b018 d7bd 9d4a 09be 3eb1 a7be
00000190: 42e0 b3bd b6dd 96bd 5d3e 3fbe 9439 efba
000001a0: c480 66bd 64c8 c7be af6c d3bc c994 3bbe
000001b0: e354 09bd a584 833b 2278 7dbd d60d 473d
000001c0: 8ea9 0abc 8537 30bd e921 43bd 261b ff3b
000001d0: 16df 29bd 306f 31bd 08ee 6e3b 3a10 9abd
000001e0: 2501 9f3d 7cc9 34bd 549c 1cba 32aa 103e
000001f0: 7345 423e 1664 313d 11cd 19bf 30b6 dfbe
00000200: b027 ecbe 4060 42be 800f 79be 12bd b6bd
00000210: 9613 1bbd 7487 313e 0f33 9f3d e159 a63d
00000220: 0ff1 0a3e b352 0f3e 99c5 6d3d 5c5d a9bd
00000230: 2f77 123e 9515 f43d f56b d13c b737 2b3e
00000240: b9c5 6c3d 9596 723e caee 5d3e 484a 42be
00000250: f516 32be 6fdd 21bd d19d f8be 722c e3be
00000260: a720 c0be bbf1 0e3c 6b3f 8a3b dce1 47be
00000270: fbd5 773d 07f5 613d 131b 863d fbdc 1f3e
00000280: f19c 233d a95a 0c3e 1c4a 2ebe 577b 08be
00000290: 9ee5 17be 8b72 0bbd fd10 efbc a706 43be
000002a0: 4d4d 5fbe d48a 99bd ab50 2dbe 67a6 10bd
000002b0: 573b 8ebc 7900 98bb e00b 103e 7696 c1bc
000002c0: 9730 abbc daab d6bc 89b7 f43d 07b4 673d
000002d0: b682 8ebd 620e 0dbd 9488 31bd 683f 8abd
000002e0: b307 b53d 3c24 f5bc e57d d93d d8ee 0b3c
000002f0: 5602 d8bd 3fc6 4c3e 0054 ed3d 85ec 743d
00000300: 868a 193d b993 ba3d 0b89 9d3d 486f 643e
00000310: 560e 553c 3e1a e23c e6b7 12be 0c1e 033d
00000320: 1e34 50bd a4ad 09be c487 c73b 0509 66be
00000330: 003b 05be 56f1 dbbd 1fb9 93bd b167 a3bd
00000340: 1588 bd3d bef0 2cbd 45f1 f13a 9e4d e3bd
00000350: 8d8d d5bd d684 96bd 4012 03be 1d3f 49bd
00000360: 4cbe 1dbe e56d 18bd b84a 4bbe b2ae b23c
00000370: 88da b7bd 2a4c 88bd 3a1a bcbd 5679 33be
00000380: 56f2 67be 2387 99bd 9f37 1bbe ab60 21bb
00000390: f7d0 87bd 563e 00be 4fa2 1f3d 16ba e9bd
000003a0: 0195 bc3c bfb0 d5bd a0c5 343d f802 d2bd
000003b0: 87ed c43c 4d5f 3a3d 4c06 40bd 2470 703d
000003c0: 3ae6 c33d 63e0 dcbd 55ab d7bd 3880 20be
000003d0: e3cb 2ebe 9e8c 2ebe 112e 6dbc 3b6b cbbd
000003e0: 162f 5b3d 5e77 ba3d 1aba 143e fa3b a63c
000003f0: 57af adbe 3428 56be 4623 89be d279 d4be
0.01089299 0.062140502 -0.110565245 -0.0027833127 -0.033583622 -0.08332365 -0.094040155 0.01378458
-0.053545423 0.14088356 -0.05396661 -0.11475724 0.040639862 0.08309444 -0.081464246 0.10158251
-0.0019267523 -0.11178578 -0.05946941 -0.12662677 0.05345516 -0.16221896 -0.21186812 -0.113623165
-0.31383047 -0.38397312 -0.35656753 -0.21423867 -0.06540487 -0.22572225 -0.13716489 -0.068637595
-0.16331424 -0.00023112514 -0.08559584 -0.1796142 -0.026729977 0.12965539 0.046881862 0.057584524
-0.010554901 0.097831994 -0.15864584 -0.123037726 -0.028579824 -0.17551765 -0.022044098 -0.14943771
-0.18578179 -0.046998836 -0.17711177 -0.12643868 -0.021253534 -0.1560958 0.12771529 0.19985539
0.032293625 -0.06266797 0.045698524 0.07340713 -0.07498508 0.047916137 -0.053033482 -0.3304112
-0.23322386 -0.38433865 0.03873631 -0.16516116 -0.2867573 0.06910586 -0.02712874 -0.122036226
-0.13461581 -0.11745456 -0.03908927 -0.25453234 -0.09002244 -0.073295444 -0.19549136 -0.16759562
-0.07631995 -0.27201518 -0.19331677 -0.16977009 -0.10150925 -0.17088759 -0.22267778 -0.06089024
0.047917902 -0.10342049 -0.009244519 -0.10689173 -0.24091896 -0.10610346 0.019701283 -0.26100007
-0.031603556 -0.10502756 -0.13407369 -0.32752413 -0.08783008 -0.07366507 -0.18676133 -0.0018251413
-0.056275144 -0.39020073 -0.02580866 -0.18318476 -0.03352822 0.004013615 -0.061882146 0.04859718
-0.008463277 -0.043021698 -0.04763976 0.007785219 -0.041472517 -0.043318927 0.0036457796 -0.07522626
0.0776389 -0.044137463 -0.00059742224 0.14127424 0.18971805 0.04330834 -0.6007853 -0.43693686
-0.4612403 -0.18982029 -0.24322319 -0.08922781 -0.037860475 0.17336828 0.077734105 0.08122612
0.13568519 0.13996391 0.058049772 -0.0826976 0.14303277 0.11918179 0.025564173 0.16720472
0.05780575 0.23690255 0.21673122 -0.18973649 -0.1739157 -0.039517816 -0.48557904 -0.44369847
-0.37524912 0.008724625 0.004218986 -0.19519752 0.060506802 0.055165317 0.06548133 0.15611641
0.039944593 0.13706459 -0.17020458 -0.133283 -0.14833686 -0.034044784 -0.029182905 -0.19045506
-0.21806832 -0.074971825 -0.16925304 -0.035314944 -0.01736228 -0.004638728 0.1406703 -0.023631316
-0.020897193 -0.026204992 0.11949069 0.05656817 -0.06958525 -0.034437545 -0.04334314 -0.06750375
0.08839359 -0.029924504 0.106197156 0.0085408315 -0.105473205 0.199975 0.11588287 0.059795875
0.037485622 0.09110207 0.076921545 0.22308075 0.013003906 0.027600404 -0.14327964 0.032011077
-0.050830953 -0.13445145 0.0060891826 -0.22464378 -0.13010788 -0.107393906 -0.072130434 -0.07978762
0.09254471 -0.042221777 0.0018458745 -0.11098789 -0.10427389 -0.07349555 -0.1279993 -0.049132455
-0.15404624 -0.03721418 -0.19852722 0.021811817 -0.089772284 -0.06655152 -0.0918469 -0.17526755
-0.22651038 -0.074964784 -0.15157937 -0.002462427 -0.06631654 -0.1252378 0.03897315 -0.11412446
0.02302027 -0.10434102 0.044133782 -0.102544725 0.024039043 0.045501042 -0.046881005 0.058700696
0.095653966 -0.10784986 -0.10530726 -0.15673912 -0.17069964 -0.17045829 -0.014476315 -0.09932562
0.0535117 0.09104799 0.14524117 0.02029227 -0.33922836 -0.20913774 -0.26784724 -0.41499192

features.15.bias f4 [16]
00000000: a941 943e 907f 683e 0474 cd3d 3b36 963d
00000010: 0a36 843e b49d 803e a5fa 113e 8328 7d3e
00000020: 0156 2b3e ff9b a13d 6715 143e 9cb7 913d
00000030: 64ae 9f3d 05fe 50be 06b6 983e c14d fb3d
0.28956345 0.22704911 0.10031894 0.073345624 0.2582248 0.25120318 0.1425577 0.24722485
0.16732027 0.07891082 0.1446129 0.07115099 0.07796934 -0.20409401 0.29826373 0.1227069
