output/models/220626_1658_ggcnn2_met_ruis_epoch_100/epoch_20_iou_0.59_statedict.pt (torch, 274205 bytes, 20 tensors)

features.0.weight f4 [16, 1, 11, 11]
0.020969402 -0.0058922214 -0.0062905536 0.020990428 0.074594796 -0.00016275351 -0.05243219 -0.006267684
0.069455884 -0.010160904 0.0018734403 -0.070209004 -0.032594196 -0.09536099 -0.019405594 0.008934043
0.0057632346 -0.0024057077 0.04266796 0.022032563 0.010354726 -0.07321158 -0.016161019 -0.10857932
-0.093007766 -0.014411259 0.026784535 -0.025879974 0.0042729205 0.06970359 -0.009802603 -0.093660824
-0.06680598 -0.100221336 -0.07932902 -0.021474307 0.06768731 0.048622556 0.011220395 -0.052818436
-0.03408162 -0.070933476 -0.04469629 -0.019022597 -0.0774942 -0.039485693 0.04050618 0.052823666
-0.074365124 -0.026946306 -0.029976927 0.046387114 -0.010127872 -0.008835532 0.030702548 -0.038443558
0.024466895 -0.032293867 0.002729869 0.01782265 0.017401017 0.12621003 0.061298236 0.041911326
-0.058091428 -0.082630806 -0.05752767 -0.0998924 -0.04923465 -0.00535665 0.009621888 -0.018522825
0.015815767 0.005730839 -0.016916016 -0.01427522 -0.08789134 -0.055784896 -0.07883114 -0.022865457
-0.017434359 -0.07758555 -0.10186078 -0.03864418 -0.09344335 -0.0033816623 0.004608361 -0.06893057
0.011088637 0.07987225 0.05005033 -0.0102888765 -0.04802683 -0.032512095 -0.03383195 0.02071736
0.105096936 0.091119796 0.07783791 0.06430391 0.0011538564 -0.016090844 0.017472092 0.07097753
0.084067196 0.06733189 0.09872493 0.10798573 0.078653134 0.0024225728 0.09989702 0.027234033
-0.012556834 0.078409374 0.15770295 0.12459201 0.0728566 0.043870937 0.07306474 0.005710871
0.026169559 -0.0021264933 -0.07344024 -0.056914598 0.020695874 -0.0010284587 0.06454651 0.054994263
-0.035094738 0.011770022 -0.015159891 0.031758778 -0.006630349 0.010837863 -0.040523987 0.049566787
0.006959778 0.01623752 0.048830487 0.00066313666 0.04259482 -0.034831826 -0.0472169 -0.08020723
-0.016605366 -0.03595256 -0.046349976 0.016256813 -0.04361197 0.047539037 -0.013621391 -0.005482832
0.037640028 0.034084648 -0.05665323 -0.06727353 -0.019302135 0.018029368 0.025751455 0.0113061825
0.04967664 -0.047506176 -0.039867174 -0.014024024 0.06456126 -0.060509652 -0.021398494 -0.060738515
0.042012073 0.015802374 0.018693829 -0.03903519 0.04321405 -0.02391742 0.03443361 0.062343247
0.002854304 -0.040715918 -0.06482648 0.025785778 0.015820703 0.067346 0.06937957 -0.031942133
0.021097466 0.019655189 0.038464356 -0.046637822 -0.047461282 -0.022130467 0.026598254 0.024636753
0.010441422 0.06396029 -0.031050822 0.013136847 0.017175874 0.02427505 -0.036983438 -0.018011447
-0.023151256 -0.02822712 0.02195122 -0.03267092 0.041455414 -0.010424802 -0.03348935 0.04160466
-0.022814754 0.017793668 -0.06751502 -0.06151916 -0.005340549 0.024903212 0.0057128957 0.0074678035
-0.0049199713 -0.022380417 -0.0062042917 0.063974135 0.008370671 -0.0494546 -0.05414828 0.008383141
0.020212086 0.015955968 0.038378112 -0.033385385 0.0626988 -0.020275148 0.04460237 0.023190605
0.011971687 -0.0016560601 -0.031622596 -0.06115797 0.038398013 0.043751072 0.040812157 0.062143672
-0.00092417165 -0.009424662 0.03538533 0.02493672 0.018504852 -0.008567715 -0.01294996 0.0013476404
-0.006161973 -0.042746108 -0.04614697 0.029762136 -0.032874804 -0.041408326 -0.030033465 0.029701503
00000000: 06c8 ab3c 8913 c1bb fd20 cebb 1ef4 ab3c
00000010: 28c5 983d d0a8 2ab9 23c3 56bd 2561 cdbb
00000020: e33e 8e3d ec79 26bc 3a8e f53a bdc9 8fbd
00000030: 7e81 05bd 9f4c c3bd 7bf8 9ebc 1860 123c
00000040: 84d9 bc3b 14a9 1dbb 99c4 2e3d a27d b43c
00000050: dea6 293c f4ef 95bd 1d64 84bc d65e debd
00000060: db7a bebd 341d 6cbc 3e6b db3c 3d02 d4bc
00000070: db03 8c3b c1c0 8e3d 199b 20bc 3fd1 bfbd
00000080: 93d1 88bd d840 cdbd 4177 a2bd e3ea afbc
00000090: a59f 8a3d 7228 473d bfd5 373c 2558 58bd
000000a0: 2b99 0bbd 9245 91bd 7513 37bd 47d5 9bbc
000000b0: 47b5 9ebd c0bb 21bd cfe9 253d a15d 583d
000000c0: be4c 98bd 80be dcbc 2c92 f5bc 6a00 3e3d
000000d0: 60ef 25bc e8c2 10bc e983 fb3c fe76 1dbd
000000e0: cc6e c83c 9346 04bd 9ae7 323b ce00 923c
000000f0: 948c 8e3c 343d 013e dc13 7b3d 36ab 2b3d
00000100: 47f1 6dbd 573a a9bd 22a2 6bbd 6394 ccbd
00000110: 46aa 49bd d686 afbb 20a5 1d3c 2ebd 97bc
00000120: 1190 813c c3c9 bb3b 7593 8abc 9de2 69bc
00000130: 6000 b4bd b47e 64bd 3972 a1bd 5750 bbbc
00000140: 80d2 8ebc 2ce5 9ebd 629c d0bd 5c49 1ebd
00000150: 3a5f bfbd e19e 5dbb bc01 973b 782b 8dbd
00000160: 1dad 353c 1094 a33d 9301 4d3d ad92 28bc
00000170: c8b7 44bd 672b 05bd 5f93 0abd 74b7 a93c
00000180: 103d d73d 049d ba3d 7b69 9f3d c5b1 833d
00000190: ff3c 973a f2d0 83bc a221 8f3c ab5c 913d
000001a0: 6c2b ac3d 4de5 893d 4c30 ca3d 9f27 dd3d
000001b0: e514 a13d 07c4 1e3b cf96 cc3d e819 df3c
000001c0: 2ebb 4dbc 1895 a03d e27c 213e 192a ff3d
000001d0: d735 953d 03b2 333d f7a2 953d 4222 bb3b
000001e0: 8b61 d63c a35c 0bbb d667 96bd 481f 69bd
000001f0: 658a a93c 59cd 86ba f630 843d aa41 613d
00000200: 80bf 0fbd 0dd7 403c 3161 78bc 7e15 023d
00000210: 6643 d9bb 4b91 313c 7bfc 25bd 8b06 4b3d
00000220: d90e e43b 8c04 853c 7a02 483d 59d6 2d3a
00000230: e877 2e3d d1ab 0ebd 8266 41bd b043 a4bd
00000240: fa07 88bc fe42 13bd 79d9 3dbd 022d 853c
00000250: 77a2 32bd 4bb8 423d 412c 5fbc 54a9 b3bb
00000260: 6e2c 1a3d 589c 0b3d 380d 68bd b4c6 89bd
00000270: 831f 9ebc 53b2 933c b7f4 d23c 913d 393c
00000280: bc79 4b3d d695 42bd c34b 23bd 05c5 65bc
00000290: b238 843d f8d8 77bd e54b afbc f3c8 78bd
000002a0: da14 2c3d fb73 813c cd23 993c 5de3 1fbd
000002b0: 3701 313d 77ee c3bc 420a 0d3d a25b 7f3d
000002c0: 460f 3b3b bcc5 26bd bfc3 84bd b23c d33c
000002d0: 6b9a 813c b3ec 893d e016 8e3d c1d5 02bd
000002e0: 98d4 ac3c eb03 a13c cd8c 1d3d 4d07 3fbd
000002f0: c366 42bd f44a b5bc 95e4 d93c 04d3 c93c
00000300: 8012 2b3c 9dfd 823d 4b5e febc ee3b 573c
00000310: 6bb4 8c3c 78dc c63c f27b 17bd be8c 93bc
00000320: b4a7 bdbc 903c e7bc 0cd3 b33c f1d1 05bd
00000330: 27cd 293d cacc 2abc 212c 09bd a669 2a3d
00000340: 02e6 babc 07c4 913c 5145 8abd 84fb 7bbd
00000350: c6ff aebb d201 cc3c 3e33 bb3b 7ab4 f43b
00000360: b637 a1bb 2357 b7bc 5f4d cbbb df04 833d
00000370: 2425 093c e890 4abd 96ca 5dbd 7159 093c
00000380: d193 a53c 17b6 823c 5e32 1d3d 1dbf 08bd
00000390: 3a68 803d 1118 a6bc fab0 363d 39fa bd3c
000003a0: e524 443c 2810 d9ba b286 01bd c880 7abd
000003b0: 3c47 1d3d 5334 333d a62a 273d 5d8a 7e3d
000003c0: 1c44 72ba e669 1abc 35f0 103d 1848 cc3c
000003d0: 7d97 973c 9a5f 0cbc 122c 54bc 4fa3 b03a
000003e0: 60ea c9bb 8b16 2fbd 9b04 3dbd b9cf f33c
000003f0: bba7 06bd c79b 29bd be08 f6bc 9150 f33c

features.0.bias f4 [16]
-0.14140408 -0.18639457 -0.12584119 0.08257519 0.15219149 -0.10386733 0.32081392 -0.06393535
0.17729911 -0.23022203 -0.17622092 -0.35974205 0.39752945 0.4922959 0.3201548 -0.49426246
00000000: 3bcc 10be 38de 3ebe 83dc 00be 2e1d a93d
00000010: 16d8 1b3e 65b8 d4bd b941 a43e 89f0 82bd
00000020: e68d 353e 53bf 6bbe 4273 34be 1c30 b8be
00000030: fb88 cb3e 350e fc3e 54eb a33e f80f fdbe

features.2.weight f4 [16, 16, 5, 5]
0.0056724413 0.08173108 0.027008018 -0.06973414 -0.00034517594 0.069042526 0.042780563 -0.043681107
-0.092776224 -0.036658652 -0.041892637 -0.015551323 -0.1351894 -0.1427983 -0.048348915 -0.053106934
0.036971632 -0.09283894 0.042263504 0.043463852 -0.07021803 -0.015078743 -0.0035615747 0.112140514
0.10970651 -0.050402705 0.008260399 0.07949465 -0.012185981 -0.038682982 0.09846951 -0.044194985
-0.038192064 -0.061813746 -0.043811303 0.00031299682 -0.022744913 -0.062418412 -0.013706881 0.02265316
0.09718471 0.03790372 -0.07259541 -0.072243266 0.07496094 -0.029137623 -0.06410395 0.076531574
0.06604285 -0.007694414 0.020743255 0.035080414 0.033643425 0.07182965 0.012310794 0.014011574
0.06438294 0.04638877 0.046303347 -0.011394411 -0.03208571 0.023414178 -0.080229044 0.08639391
-0.044803176 -0.061865453 -0.032735623 0.06309652 0.024053283 -0.0358783 -0.081949756 -0.04406434
0.035030313 -0.07047219 -0.07459108 0.0072865803 0.045437656 0.09052644 -0.0028048279 0.028671164
0.09797149 0.07069599 0.04819142 0.014364887 0.07517227 0.017976608 0.025670439 0.055716187
0.06862394 0.043084983 -0.019346153 -0.03297501 -0.032032844 -0.042553544 0.0887346 -0.028718406
-0.046932407 -0.0036373013 0.037873268 -0.030226588 -0.058522925 0.022253191 -0.046971306 0.029262083
-0.013586627 -0.13461047 -0.123034865 0.015154778 -0.13306123 -0.044862203 -0.007725932 0.012421902
-0.08292755 -0.0027719284 -0.117379926 -0.023200862 -0.010146303 -0.08646657 -0.115589656 -0.10219452
-0.029179038 -0.10365808 0.011323164 -0.049233645 -0.0085322885 -0.02229255 0.09932461 -0.021957988
0.023684371 0.020748103 -0.009102016 -0.010819097 -0.0061496617 -0.059571825 -0.014259669 0.097598754
-0.042865068 -0.016780846 0.037939057 0.04019076 0.07709256 0.045308266 -0.06491446 0.060867097
0.09426365 0.061731495 0.0018397316 -0.0018085799 0.069320366 0.04548494 0.003938035 -0.008158588
-0.013949583 -0.0062421793 0.0141856065 0.08845244 0.045216464 -0.12782319 -0.108646795 0.045089267
0.080711074 0.018487616 -0.08999516 0.100505576 0.14728515 -0.02871191 -0.02077647 0.0035439103
0.109307215 0.059131313 0.107730515 -0.09750204 -0.080480486 0.069797896 -0.034075882 0.06803786
0.11994388 0.052818853 -0.038934052 -0.09153605 -0.033022154 -0.048838414 -0.002879071 -0.0130034685
0.0064703845 -0.110966526 -0.029961959 0.021763204 -0.07202935 -0.0072736274 0.107119344 0.103871465
0.06787324 -0.01003437 -0.10615772 -0.07214368 0.09159322 0.010330256 -0.10268621 0.0016958906
-0.025151223 -0.054996293 0.02426957 0.106417306 -0.001937069 -0.026661381 -0.1338332 0.05547848
-0.025818115 -0.12671778 -0.087701105 -0.03493126 0.01263101 -0.15050973 -0.1611328 0.11509025
0.13150264 0.028297173 0.03643782 0.13340051 0.06646062 0.13170788 -0.018126268 -0.026434276
0.12705351 -0.10340296 -0.0548934 0.01945197 0.06380283 -0.049156696 -0.05642436 0.036464117
-0.097814076 -0.019225553 -0.093447894 -0.05345347 0.053220462 -0.0007268324 0.071148664 0.023899714
-0.014811283 0.08103238 -0.07269157 0.0035873025 -0.0057267398 0.033861585 0.08773832 -0.011389062
0.02836226 -0.0009556096 -0.010335035 -0.0035380758 -0.042580135 0.04222323 -0.06331331 -0.0014638646
00000000: e3df b93b a062 a73d eb3f dd3c c6d0 8ebd
00000010: bbf8 b4b9 2b66 8d3d ac3a 2f3d f6ea 32bd
00000020: 7601 bebd 6227 16bd 9d97 2bbd faca 7ebc
00000030: 176f 0abe b839 12be 8309 46bd a886 59bd
00000040: 916f 173d 5822 bebd 7f1c 2d3d 2707 323d
00000050: 78ce 8fbd d50c 77bc 4f69 69bb eda9 e53d
00000060: cfad e03d 1173 4ebd a056 073c 17ce a23d
00000070: b5a7 47bc 0c72 1ebd 62aa c93d cd05 35bd
00000080: 486f 1cbd 6930 7dbd 7b73 33bd b919 a439
00000090: 8a53 babc 73aa 7fbd d392 60bc 1f93 b93c
000000a0: c708 c73d ee40 1b3d e7ac 94bd 47f4 93bd
000000b0: 1f85 993d 06b2 eebc ef48 83bd 96bc 9c3d
000000c0: 7941 873d 6c21 fcbb c2ed a93c 7bb0 0f3d
000000d0: b0cd 093d 6c1b 933d 36b3 493c cd90 653c
000000e0: 34db 833d 2702 3e3d 94a8 3d3d a0af 3abc
000000f0: 4e6c 03bd 17cf bf3c 204f a4bd 4aef b03d
00000100: 8983 37bd a166 7dbd ca15 06bd c038 813d
00000110: 640b c53c 20f5 12bd 46d5 a7bd cf7c 34bd
00000120: f27b 0f3d b953 90bd 35c3 98bd 44c4 ee3b
00000130: d61c 3a3d ed65 b93d 34d1 37bb cadf ea3c
00000140: 47a5 c83d 0fc9 903d 5e64 453d b45a 6b3c
00000150: ebf3 993d ae43 933c d04a d23c a836 643d
00000160: b58a 8c3d e179 303d d37b 9ebc ce10 07bd
00000170: df34 03bd a04c 2ebd 7cba b53d dd42 ebbc
00000180: 323c 40bd ca5f 6ebb 0021 1b3d c09d f7bc
00000190: bcb5 6fbd 534c b63c fc64 40bd 09b7 ef3c
000001a0: 729a 5ebc 54d7 09be b4f9 fbbd bf4b 783c
000001b0: 3441 08be 6ec1 37bd d129 fdbb 3c85 4b3c
000001c0: ebd5 a9bd 3ea9 35bb e364 f0bd bc0f bebc
000001d0: ae3c 26bc 6315 b1bd 45ba ecbd 5c4b d1bd
000001e0: e108 efbc b04a d4bd cb84 393c 38a9 49bd
000001f0: 03cb 0bbc de9e b6bc b36a cb3d 3de1 b3bc
00000200: ba05 c23c edf7 a93c 9f20 15bc 9542 31bc
00000210: 1a83 c9bb 9601 74bd 63a1 69bc dbe1 c73d
00000220: 4893 2fbd fc77 89bc fc65 1b3d 119f 243d
00000230: b4e2 9d3d 2995 393d dff1 84bd c74f 793d
00000240: 4d0d c13d 2ada 7c3d 2623 f13a df0d edba
00000250: d6f7 8d3d 6b4e 3a3d a20a 813b 99ab 05bc
00000260: cb8c 64bc 328b ccbb bf6a 683c 8e26 b53d
00000270: e634 393d 15e4 02be 3682 debd 86af 383d
00000280: d94b a53d 5773 973c 624f b8bd ded5 cd3d
00000290: ebd1 163e 3d35 ebbc 6a33 aabc f340 683b
000002a0: 76dc df3d ad33 723d d1a1 dc3d 26af c7bd
000002b0: f4d2 a4bd 33f2 8e3d 2793 0bbd 6f57 8b3d
000002c0: 23a5 f53d 9558 583d 5079 1fbd 4177 bbbd
000002d0: 3d42 07bd ca0a 48bd ccae 3cbb 800c 55bc
000002e0: 8505 d43b 6b42 e3bd c872 f5bc bf48 b23c
000002f0: 2084 93bd 9c57 eebb 6361 db3d 90ba d43d
00000300: 2001 8b3d 3367 24bc 3869 d9bd 11c0 93bd
00000310: 3a95 bb3d 3c40 293c 264d d2bd a548 de3a
00000320: f009 cebc cb43 61bd fad0 c63c 51f1 d93d
00000330: 40e5 fdba f868 dabc 920b 09be 673d 633d
00000340: 8380 d3bc 4ec2 01be a39c b3bd 1514 0fbd
00000350: 4cf2 4e3c 391f 1abe ffff 24be 70b4 eb3d
00000360: a1a8 063e 79cf e73c d33f 153d 259a 083e
00000370: 811c 883d 6ede 063e 8a7d 94bc b28c d8bc
00000380: 511a 023e eec4 d3bd e7d7 60bd bd59 9f3c
00000390: 0fab 823d 8858 49bd 3b1d 67bd 665b 153d
000003a0: bf52 c8bd e87e 9dbc 9c61 bfbd 07f2 5abd
000003b0: b3fd 593d e688 3eba 64b6 913d 55c9 c33c
000003c0: 06ab 72bc 4ef4 a53d 51df 94bd f318 6b3b
000003d0: 60a7 bbbb 72b2 0a3d 26b0 b33d 3099 3abc
000003e0: f857 e83c e081 7aba 4754 29bc 10df 67bb
000003f0: 8268 2ebd 44f2 2c3d 69aa 81bd 25df bfba

features.2.bias f4 [16]
0.18322922 -0.07645442 -0.016441666 -0.04441164 0.053115137 -0.011873209 -0.037238058 0.044802394
-0.036858194 0.027815541 -0.044358313 -0.17813666 -0.07894741 0.023874983 -0.02923058 0.092991225
00000000: 71a0 3b3e 2394 9cbd acb0 86bc fbe8 35bd
00000010: 428f 593d d987 42bc ef86 18bd b782 373d
00000020: 9ef8 16bd 6bdd e33c 10b1 35bd 7569 36be
00000030: 2eaf a1bd 7895 c33c f874 efbc 2f72 be3d

features.5.weight f4 [16, 16, 5, 5]
-0.19616866 -0.21094124 -0.19196929 -0.13302426 -0.14658016 -0.2158656 -0.22776484 -0.19668865
-0.19376153 -0.16834317 -0.2739213 -0.257552 -0.242213 -0.23570627 -0.2415445 -0.18538298
-0.24858285 -0.3109223 -0.21192858 -0.26771727 -0.15268078 -0.31109414 -0.21161903 -0.109795004
-0.23256771 0.07741516 0.075610176 0.063526444 0.07031515 -0.05345999 0.06530617 -0.035650793
0.05281973 -0.00039089646 0.036562573 -0.015950914 -0.009805113 0.036610246 0.053474322 -0.0032478906
0.041141734 0.07444244 0.008061999 -0.04507403 0.047442578 0.028307825 -0.007149433 -0.058008283
0.081318036 0.08448366 -0.072985224 0.07641573 0.028226502 -0.054859947 0.029645309 0.016217483
-0.01026547 0.040314253 -0.020107232 -0.018277554 0.036957525 0.056743383 -0.011447117 -0.05506182
0.039472222 -0.069387436 0.012479945 -0.06633494 -0.030931534 -0.047960706 -0.022497052 -0.05322253
-0.029428769 -0.07765205 -0.060281333 -0.05073039 -0.06529035 -0.04584639 -0.037898507 0.064702235
-0.032213252 0.023800312 0.0725524 0.05261903 0.013656142 0.027575541 -0.0133155435 -0.09003565
0.06301263 -0.02826058 0.019632965 -0.06377015 0.043799806 0.08017683 -0.021885388 -0.04443448
0.026706392 -0.020187877 0.042622615 0.047218725 0.07595041 -0.066447265 0.012525367 -0.08067218
-0.03707329 -0.032386675 -0.06312419 -0.06906099 -0.14765768 -0.077994436 -0.12312056 -0.025090616
0.034054 -0.03409122 0.0011912066 -0.10042126 -0.03180377 -0.022659479 -0.051429108 0.0682443
0.05381639 -0.08083386 -0.016049178 -0.0128338 0.0023 -0.04776081 -0.07947916 -0.047386635
0.03065238 0.042330995 -0.015136483 0.021282556 -0.018092023 0.06609638 -0.033288095 -0.046346694
0.07288691 0.024416612 0.08822907 -0.039943308 0.06708132 -0.025979865 -0.03376245 -0.08541726
0.051034164 -0.032226212 -0.00713326 -0.040327236 0.006941822 0.03629996 0.0016115678 -0.013410726
-0.022118535 0.018015927 0.06541707 -0.08973166 -0.053911492 -0.055160232 -0.0034240123 0.02749171
-0.049776793 -0.0686521 0.061632752 0.0025877415 -0.07571935 0.10646036 0.007380709 0.07289812
0.03873432 0.10731844 0.10733061 -0.060392283 -0.007418343 0.07749914 -0.045302883 0.017280031
-0.032533485 0.061217107 -0.0748384 0.04019512 -0.0019064399 0.04589698 0.06185501 -0.019111523
0.012335739 -0.036688738 -0.098210454 0.05866411 -0.012400606 0.03532014 0.039044518 -0.09448253
0.012439277 0.045520578 0.03188656 -0.085087664 -0.020057036 -0.03213953 -0.07159626 -0.0279905
0.030684303 0.001276756 -0.07428708 0.0535068 -0.020277262 -0.046019126 0.070153385 -0.041077085
-0.058353838 0.06006905 0.067445226 0.017952723 0.042775374 0.03034824 -0.050619096 -0.009762126
0.057191823 -0.0059396103 -0.032322712 -0.013233835 0.056948695 0.0380414 -0.07135032 -0.0047702775
0.047086038 -0.0520755 0.030323295 0.00069572986 0.02884476 -0.047055036 -0.02629181 -0.101438954
-0.0009966941 0.019138519 -0.013932964 0.037969172 -0.05685341 -0.024563216 0.034631185 -0.03714725
-0.047709413 0.005738423 0.018672962 0.009622565 -0.038649976 -0.10941225 0.02863652 -0.048718233
-0.0042145657 -0.018434428 -0.040270388 -0.017330762 -0.009721051 0.019699145 -0.02645724 -0.044463176
00000000: 70e0 48be fb00 58be 9993 44be 8337 08be
00000010: 1c19 16be df0b 5dbe 303b 69be c068 49be
00000020: 6c69 46be 2762 2cbe 6a3f 8cbe dbdd 83be
00000030: af06 78be fc5c 71be 7157 77be 09d5 3dbe
00000040: 818c 7ebe 3531 9fbe ce03 59be 3d12 89be
00000050: 5a58 1cbe bb47 9fbe a9b2 58be 34dc e0bd
00000060: 3b26 6ebe d78b 9e3d 82d9 9a3d 271a 823d
00000070: 6401 903d ddf8 5abd 3ebf 853d 9106 12bd
00000080: 8059 583d 3cf1 ccb9 a3c2 153d 7eab 82bc
00000090: a0a5 20bc a0f4 153d e407 5b3d 90da 54bb
000000a0: 3c84 283d 4775 983d 7a16 043c 8c9f 38bd
000000b0: 2653 423d d0e5 e73c ca45 eabb 189a 6dbd
000000c0: 128a a63d c505 ad3d 4779 95bd da7f 9c3d
000000d0: 443b e73c d3b4 60bd b8da f23c 87da 843c
000000e0: 8030 28bc 8f20 253d ecb7 a4bc cfba 95bc
000000f0: c660 173d c06b 683d b08c 3bbc 8188 61bd
00000100: a0ad 213d 001b 8ebd af78 4c3c 9dda 87bd
00000110: 2164 fdbc 7272 44bd bd4b b8bc deff 59bd
00000120: 9a14 f1bc 0a08 9fbd 8fe9 76bd abca 4fbd
00000130: f2b6 85bd 6dc9 3bbd 773b 1bbd 9b82 843d
00000140: 0bf2 03bd dff8 c23c 5a96 943d 0d87 573d
00000150: 03be 5f3c 1ae6 e13c 7029 5abc 9c64 b8bd
00000160: c40c 813d bb82 e7bc 50d5 a03c ed99 82bd
00000170: 6d67 333d c033 a43d fc48 b3bc ee00 36bd
00000180: 5dc7 da3c 0c61 a5bc 0d95 2e3d 6c68 413d
00000190: e38b 9b3d 8115 88bd 3237 4d3c 7537 a5bd
000001a0: 2ada 17bd e4a7 04bd 4147 81bd d96f 8dbd
000001b0: 9333 17be 8cbb 9fbd a226 fcbd d68a cdbc
000001c0: 357c 0b3d 3ca3 0bbd 4322 9c3a a9a9 cdbd
000001d0: ac44 02bd 5fa0 b9bc 54a7 52bd abc3 8b3d
000001e0: 936e 5c3d 398c a5bd 9179 83bc dc44 52bc
000001f0: 99bb 163b d7a0 43bd f8c5 a2bd 7d18 42bd
00000200: b31a fb3c 4463 2d3d 03ff 77bc c158 ae3c
00000210: b935 94bc 8a5d 873d 1959 08bd 08d6 3dbd
00000220: bb45 953d 5905 c83c 71b1 b43d 989b 23bd
00000230: ee61 893d bad3 d4bc 7f4a 0abd 3fef aebd
00000240: 3309 513d a2ff 03bd 1fbe e9bb 2c2e 25bd
00000250: 3978 e33b 44af 143d 3e3b d33a a9b8 5bbc
00000260: ee31 b5bc 2396 933c 63f9 853d 3cc5 b7bd
00000270: 4cd2 5cbd b2ef 61bd 6565 60bb 4b36 e13c
00000280: c0e2 4bbd 7999 8cbd a072 7c3d 1997 293b
00000290: bf12 9bbd e407 da3d e0d9 f13b 9c4b 953d
000002a0: e1a7 1e3d c5c9 db3d 27d0 db3d e65d 77bd
000002b0: 9215 f3bb deb7 9e3d 848f 39bd da8e 8d3c
000002c0: d541 05bd cabe 7a3d e044 99bd a3a3 243d
000002d0: 82e1 f9ba 79fe 3b3d ae5b 7d3d c58f 9cbc
000002e0: d71b 4a3c ee46 16bd 9022 c9bd c749 703d
000002f0: e92b 4bbc daab 103d 25ed 1f3d 0f80 c1bd
00000300: 1cce 4b3c c973 3a3d 7b9b 023d 7142 aebd
00000310: a74e a4bc bda4 03bd 0fa1 92bd 554c e5bc
00000320: a65d fb3c d358 a73a d323 98bd f229 5b3d
00000330: 801c a6bc 8d7e 3cbd 94ac 8f3d 7240 28bd
00000340: 6f04 6fbd f70a 763d b920 8a3d 9711 933c
00000350: 3b35 2f3d df9c f83c f855 4fbd 53f1 1fbc
00000360: f941 6a3d 10a1 c2bb d264 04bd bad2 58bc
00000370: 0943 693d 4dd1 1b3d 1e20 92bd fd4f 9cbb
00000380: 4add 403d 1f4d 55bd 8f68 f83c a461 363a
00000390: d94b ec3c c8bc 40bd ec61 d7bc 3abf cfbd
000003a0: 81a3 82ba 62c8 9c3c 1647 64bc 9085 1b3d
000003b0: 1fdf 68bd cc38 c9bc 6ed9 0d3d b727 18bd
000003c0: f26a 43bd 6209 bc3b 0af8 983c f6a7 1d3c
000003d0: 704f 1ebd 8813 e0bd 2397 ea3c c58c 47bd
000003e0: 571a 8abb cc03 97bc 90f2 24bd 3ef9 8dbc
000003f0: 0b45 1fbc 1a60 a13c dbbc d8bc 051f 36bd

features.5.bias f4 [16]
0.017622987 0.06398562 -0.02959012 -0.028540485 -0.025650324 -0.079524465 -0.0505222 -0.04628072
-0.021863725 -0.06261027 -0.0847558 -0.1262397 -0.113388814 -0.074174814 -0.13378525 -0.048651017
00000000: 155e 903c e50a 833d fb66 f2bc bccd e9bc
00000010: a120 d2bc b9dd a2bd 5ef0 4ebd da90 3dbd
00000020: 8e1b b3bc d039 80bd 7394 adbd fb44 01be
00000030: 6538 e8bd f7e8 97bd 00ff 08be 4a46 47bd

features.7.weight f4 [16, 16, 5, 5]
-0.42890918 -0.33878446 -0.15363425 -0.11883144 -0.054048404 -0.209718 -0.16329029 -0.11394769
-0.15077165 -0.13446859 -0.22120662 -0.1912971 -0.07495561 -0.15153293 -0.020942044 -0.21369077
-0.10615546 -0.11000505 -0.16474116 -0.047628947 -0.16146916 -0.17960462 0.021779452 0.110987954
0.10222945 0.2153786 0.04172402 0.15994757 0.10599115 0.19159317 0.19304328 0.025250021
0.113031685 0.09629318 0.079558894 0.05795393 -0.038587466 -0.011400053 -0.038814455 0.010851124
-0.27270538 -0.37896433 -0.18276158 -0.065944344 -0.15305567 -0.08687666 -0.22014222 -0.10411993
-0.12259381 -0.068171576 -0.1684274 -0.3884704 0.101315916 -0.06654416 0.00069905136 -0.4407387
-0.3265682 0.22224051 -0.014414024 0.13514121 -0.3221618 -0.28379282 0.18681836 0.02058274
0.034593776 -0.09931639 0.04370982 0.15743728 0.060443606 -0.060217224 0.13515238 0.026241284
0.1433806 0.05078219 -0.10817305 -0.14108732 -0.15084462 -0.03398168 -0.049051236 -0.23320095
-0.15322864 -0.1530257 -0.16894022 0.1155221 -0.15049769 -0.078857765 -0.19251293 -0.07788598
0.07917069 0.045888953 -0.3097651 -0.28632528 -0.06996388 0.004444337 -0.18802024 -0.2093541
-0.155689 -0.004046957 -0.056439426 -0.27496257 -0.041352253 0.016154766 0.12079745 0.10228626
0.17283429 -0.017503267 -0.14303257 0.015131255 0.08058265 0.03841491 -0.15132412 -0.15746492
-0.06532784 -0.0142243635 0.038739193 -0.12370601 -0.08200419 -0.048472587 -0.047304217 -0.03890094
-0.11766122 -0.08776489 0.05797815 -0.019881882 -0.06885721 -0.2666761 -0.099907264 -0.18570615
-0.021287756 0.0012404068 -0.1538879 -0.1135926 -0.15174066 -0.059849564 0.006483766 -0.28589174
-0.20908763 -0.14448066 -0.02737334 0.018538855 -0.14026746 -0.05021225 0.079572365 0.14587228
0.16125034 0.021580748 0.024125366 0.08241 0.101790465 0.18108779 0.014984245 -0.012476391
0.045008626 -0.116891414 -0.13574362 0.021705046 0.10053238 0.09303254 0.06780044 0.10785623
0.095783636 0.1459909 0.20724697 0.14040701 0.095916346 0.016776692 -0.13192503 -0.052926917
-0.082113944 -0.099556975 0.18527561 0.036247954 0.1698943 0.20473018 0.20284274 -0.11179191
-0.020333609 -0.08068714 0.08757822 0.064578615 -0.08606062 -0.026807865 0.068720885 -0.016085934
0.104392625 -0.100089245 -0.11949173 -0.11300958 -0.026152497 0.041612685 -0.15281244 -0.053603172
-0.067132674 0.06626783 0.05556262 -0.17161708 -0.024555102 -0.09175012 0.064542204 -0.048760463
-0.00018581351 -0.0867334 0.05683038 -0.013605926 0.08723696 0.049837075 -0.032481134 -0.0096234055
-0.0503299 -0.013618959 -0.023564829 0.038126916 0.10787225 -0.042109527 0.015920939 -0.03132949
-0.04620547 0.08157261 -0.0608215 -0.075802855 -0.05780949 0.029231006 -0.0434551 0.03646555
-0.0614963 -0.029480161 -0.06600008 0.08155626 0.060757935 0.07062389 -0.023783512 0.034127396
-0.027735552 0.09948623 -0.01340066 -0.0022493524 -0.015110031 0.044774562 -0.020671822 0.05460355
-0.14921129 -0.04599549 0.044795394 0.01246363 -0.10447841 0.05526345 -0.05916454 0.022913255
-0.1188004 -0.010486126 0.046978377 -0.016541595 -0.09502631 0.113732465 0.025715327 0.00943148
00000000: fc99 dbbe 2875 adbe 4c52 1dbe e65d f3bd
00000010: dc61 5dbd 51c0 56be 9235 27be 685d e9bd
00000020: e263 1abe 22b2 09be fd83 62be 63e3 43be
00000030: 5482 99bd 732b 1bbe a68e abbc c1d1 5abe
00000040: 0968 d9bd 544a e1bd e8b1 28be 9216 43bd
00000050: 2c58 25be 46ea 37be d26a b23c a74d e33d
00000060: ad5d d13d 358c 5c3e cee6 2a3d 4cc9 233e
00000070: e311 d93d 0031 443e 23ad 453e 22d9 ce3c
00000080: 287d e73d 5c35 c53d c6ef a23d 1a61 6d3d
00000090: e40d 1ebd 4ac7 3abc e8fb 1ebd eac8 313c
000000a0: 0aa0 8bbe 9d07 c2be da25 3bbe d40d 87bd
000000b0: a0ba 1cbe 64ec b1bd f66c 61be d43c d5bd
000000c0: 7712 fbbd 8a9d 8bbd 3b78 2cbe 98e5 c6be
000000d0: b87e cf3d 4e48 88bd 8b40 373a 81a8 e1be
000000e0: f233 a7be 0493 633e cc28 6cbc 7562 0a3e
000000f0: 64f2 a4be 4b4d 91be 504d 3f3e 229d a83c
00000100: 34b2 0d3d 6466 cbbd 1109 333d 3d37 213e
00000110: b793 773d 56a6 76bd 6365 0a3e f6f7 d63c
00000120: 5dd2 123e fc00 503d d589 ddbd 3279 10be
00000130: 0377 1abe 6030 0bbd f3e9 48bd 3bcc 6ebe
00000140: f8e7 1cbe c5b2 1cbe aafe 2cbe da96 ec3d
00000150: 111c 1abe 2e80 a1bd 1c22 45be af82 9fbd
00000160: 3e24 a23d 0ef6 3b3d 8899 9ebe 3a99 92be
00000170: 3949 8fbd cda1 913b 6188 40be ec60 56be
00000180: f06c 1fbe 569c 84bb 072d 67bd e5c7 8cbe
00000190: fb60 29bd 0057 843c a764 f73d 757b d13d
000001a0: 79fb 303e 0363 8fbc 2177 12be 15e9 773c
000001b0: 8408 a53d f458 1d3d b6f4 1abe 7c3e 21be
000001c0: 9aca 85bd 4e0d 69bc fdac 1e3d 9459 fdbd
000001d0: d0f1 a7bd 318b 46bd 11c2 41bd 9856 1fbd
000001e0: 5ef8 f0bd 14be b3bd 7f7a 6d3d 54df a2bc
000001f0: 0205 8dbd c589 88be 2e9c ccbd c129 3ebe
00000200: a963 aebc 2595 a23a ca94 1dbe 3da3 e8bd
00000210: e761 1bbe d124 75bd c575 d43b 6760 92be
00000220: 111b 56be bdf2 13be 0e3e e0bc ccde 973c
00000230: 46a2 0fbe 5cab 4dbd d6f6 a23d 8b5f 153e
00000240: cf1e 253e 1cca b03c 8fa2 c53c 93c6 a83d
00000250: 8577 d03d 146f 393e 7b80 753c c769 4cbc
00000260: f75a 383d c464 efbd 6000 0bbe c8ce b13c
00000270: ece3 cd3d d887 be3d f5da 8a3d bae3 dc3d
00000280: 362a c43d a37e 153e 8d38 543e dbc6 0f3e
00000290: ca6f c43d 466f 893c 5b17 07be e5c9 58bd
000002a0: 5b2b a8bd 87e4 cbbd e4b8 3d3e bc78 143d
000002b0: c5f8 2d3e caa4 513e 02b6 4f3e 28f3 e4bd
000002c0: ab92 a6bc 4d3f a5bd 365c b33d cb41 843d
000002d0: 8d40 b0bd 2b9c dbbc 89bd 8c3d a6c6 83bc
000002e0: cdcb d53d 97fb ccbd 15b8 f4bd 9171 e7bd
000002f0: c33d d6bc 1072 2a3d dd7a 1cbe 008f 5bbd
00000300: db7c 89bd 6eb7 873d a195 633d 63bc 2fbe
00000310: c827 c9bc 7de7 bbbd b42e 843d 0db9 47bd
00000320: efd6 42b9 48a1 b1bd f9c6 683d 64eb 5ebc
00000330: 4ba9 b23d f621 4c3d f00a 05bd 7dab 1dbc
00000340: ba26 4ebd 0e22 5fbc 070b c1bc f82a 1c3d
00000350: 20ec dc3d 0a7b 2cbd a16c 823c 5a53 00bd
00000360: f241 3dbd 8a0f a73d f71f 79bd 873e 9bbd
00000370: a5c9 6cbd dd75 ef3c fafd 31bd e75c 153d
00000380: 8be3 7bbd 6180 f1bc 0d2b 87bd f806 a73d
00000390: 50dd 783d 42a3 903d a4d5 c2bc 2bc9 0b3d
000003a0: ab35 e3bc 70bf cb3d 718e 5bbc df69 13bb
000003b0: 1090 77bc 8865 373d f457 a9bc f9a7 5f3d
000003c0: d8ca 18be c465 3cbd 607b 373d 4134 4c3c
000003d0: c7f8 d5bd ed5b 623d 8456 72bd 94b4 bb3c
000003e0: a04d f3bd 00ce 2bbc 666c 403d 3d82 87bc
000003f0: 279d c2bd 91ec e83d f3a8 d23c 7f86 1a3c

features.7.bias f4 [16]
-0.05213478 -0.17079547 0.0027115552 -0.022823269 -0.11887332 -0.065059625 -0.152846 -0.033206362
-0.102984115 0.06779528 -0.08637997 -0.065305 -0.21575983 -0.010083991 -0.18441783 -0.008505959
00000000: 478b 55bd 02e5 2ebe 59b4 313b ddf7 babc
00000010: db73 f3bd fb3d 85bd a983 1cbe 6503 08bd
00000020: 56e9 d2bd 40d8 8a3d fbe7 b0bd a1be 85bd
00000030: 25f0 5cbe 5337 25bc 07d8 3cbe 945c 0bbc

features.10.weight f4 [32, 16, 5, 5]
-0.114178106 -0.13736267 -0.25245136 -0.0138259 -0.054962013 0.068018414 -0.10180066 -0.15679084
-0.05941606 -0.07023329 -0.17516059 -0.1693684 -0.14974827 -0.18566383 -0.02803488 -0.12866955
-0.15545058 -0.022220174 -0.07982472 0.014224826 -0.0581317 -0.092787296 -0.06306136 -0.037170887
-0.05156648 0.06801525 -0.02886037 0.024892922 0.065288976 0.04360267 0.09597465 0.04597637
0.046918012 0.055861264 -0.043488376 -0.0050592055 -0.04764682 -0.070007406 -0.047496993 -0.010549659
-0.08875723 -0.0010115219 -0.003739312 -0.061889768 -0.047705352 -0.0786927 -0.05561258 -0.008420862
0.012510505 0.03379015 -0.043992613 0.063884735 -0.056256615 -0.09908699 -0.14187494 -0.11753109
0.080761455 0.022821113 -0.076664604 -0.11720948 -0.1732784 -0.0073064757 0.0042593037 -0.07318515
-0.01794038 0.039592236 0.078313574 0.0034748241 -0.10442629 -0.02331718 -0.012880066 0.00803381
-0.01395162 0.04345817 0.08874888 0.055203322 -0.04603106 -0.04243292 -0.0033057916 -0.1015189
-0.10129588 -0.12292381 -0.10199101 -0.1925562 -0.088615544 -0.21393007 -0.15783975 -0.17143668
-0.11429656 -0.08550422 -0.10814906 -0.09078347 -0.0451581 -0.041767556 -0.10702225 0.0145456195
-0.04697465 0.0072311494 -0.09053408 -0.005859614 -0.03668445 -0.016584478 0.036886018 -0.03723441
0.059459995 0.036619026 -0.07754558 -0.057853945 -0.0515904 0.06893334 -0.021318441 0.047200907
0.026086759 -0.07781671 0.008198733 -0.045863096 0.041742917 -0.059211686 0.0515526 0.0304013
-0.074252844 -0.08051726 0.036391903 -0.03253623 -0.061608016 0.19115512 -0.04570609 -0.08398547
-0.17780316 -0.06136667 0.088831484 -0.08012868 -0.15874815 -0.040435523 -0.058973912 0.035640553
-0.087236226 -0.13438305 -0.05139105 -0.05907912 0.0767608 -0.0031901617 -0.08401455 -0.02608872
-0.025900407 -0.004650119 -0.09764145 -0.13783227 -0.09534981 -0.13479169 -0.061869975 -0.06188855
0.08126089 -0.04753454 -0.13949749 -0.036595047 -0.12853846 -0.06779858 -0.04023361 -0.039523557
-0.186719 -0.23656632 -0.23987556 -0.25443244 -0.21998993 -0.048130978 0.04535693 -0.10465361
-0.21415822 -0.047344357 0.04373368 -0.006277221 0.103151195 0.01910481 -0.0008293173 0.02049424
0.000993437 -0.023901576 -0.037406866 0.019310363 0.029786183 -0.0096988 0.011818211 -0.03329931
-0.029804552 0.005364895 -0.033452224 0.06664307 0.05522669 0.002746839 0.039050348 -0.049044866
-0.01534798 -0.013765752 0.0013186199 -0.06819716 -0.019000825 -0.061971433 0.044088803 -0.04225021
0.0028405932 -0.072579846 -0.022008542 0.061104614 -0.015467958 -0.06649477 -0.01520228 -0.11404429
0.057492677 0.0017355009 -0.03084215 -0.07908136 -0.113057785 0.024028674 0.012895812 -0.08503457
0.043718483 -0.038763314 0.024787392 0.0265378 -0.09454501 -0.0684815 -0.043842375 0.061206054
-0.0026711137 -0.055310547 -0.013905918 -0.083428934 -0.068621986 -0.14593355 -0.035498247 0.009781278
-0.047875367 -0.10290445 -0.11200538 -0.0883416 0.029785842 -0.066640034 -0.13604513 -0.08558185
0.00547992 -0.072166145 -0.0026371228 -0.091000795 -0.11661851 -0.10093627 -0.03637391 0.027552953
-0.14901455 -0.1334827 -0.120489895 -0.16490188 -0.06714604 -0.118730664 -0.15082467 -0.10793334
00000000: 36d6 e9bd cda8 0cbe 4e41 81be 0786 62bc
00000010: d91f 61bd 3d4d 8b3d dd7c d0bd c78d 20be
00000020: 415e 73bd 79d6 8fbd 4c5d 33be e96e 2dbe
00000030: 9c57 19be a91e 3ebe 68a9 e5bc f3c1 03be
00000040: 702e 1fbe 1507 b6bc 257b a3bd 3f0f 693c
00000050: 811b 6ebd 4407 bebd 5026 81bd 8040 18bd
00000060: 6037 53bd 944b 8b3d 956c ecbc 3eec cb3c
00000070: 3ab6 853d b798 323d 5b8e c43d b851 3c3d
00000080: 1a2d 403d c8ce 643d de20 32bd b1c7 a5bb
00000090: 5029 43bd 0b60 8fbd 358c 42bd 7ad8 2cbc
000000a0: 5ac6 b5bd 0b95 84ba 3f0f 75bb 2080 7dbd
000000b0: b066 43bd a329 a1bd 04ca 63bd a8f7 09bc
000000c0: dcf8 4c3c 8a67 0a3d 9931 34bd 00d6 823d
000000d0: 566d 66bd 1fee cabd aa47 11be 24b4 f0bd
000000e0: 4366 a53d 58f3 ba3c 5502 9dbd 860b f0bd
000000f0: e56f 31be 296b efbb a191 8b3b 19e2 95bd
00000100: b4f7 92bc 782b 223d de62 a03d e0b9 633b
00000110: 73dd d5bd ac03 bfbc ea06 53bc 3ea0 033c
00000120: 5695 64bc 3201 323d f9c1 b53d e11c 623d
00000130: 118b 3cbd 24ce 2dbd fba5 58bb 24e9 cfbd
00000140: 3774 cfbd 7abf fbbd aae0 d0bd 742d 45be
00000150: 117c b5bd 7c10 5bbe bea0 21be 198d 2fbe
00000160: 5114 eabd d61c afbd 417d ddbd afec b9bd
00000170: b3f7 38bd 7514 2bbd 7b2e dbbd c050 6e3c
00000180: 7e68 40bd 47f3 ec3b ef69 b9bd 0102 c0bb
00000190: 6f42 16bd 2cdc 87bc cb15 173d 1c83 18bd
000001a0: 538c 733d d5fd 153d 38d0 9ebd 42f8 6cbd
000001b0: 7550 53bd ec2c 8d3d 03a4 aebc bd55 413d
000001c0: e6b3 d53c 5e5e 9fbd fb53 063c f1da 3bbd
000001d0: 9ffa 2a3d f487 72bd d228 533d 260c f93c
000001e0: e011 98bd 3ce6 a4bd ad0f 153d b644 05bd
000001f0: b058 7cbd 2bbe 433e 4f36 3bbd 9300 acbd
00000200: 0812 36be 9e5b 7bbd 48ed b53d 811a a4bd
00000210: e08e 22be b89f 25bd a18e 71bd d4fb 113d
00000220: e8a8 b2bd b69b 09be 6c7f 52bd f3fc 71bd
00000230: c434 9d3d 0812 51bb d20f acbd 03b8 d5bc
00000240: 172d d4bc 0760 98bb 3ef8 c7bd e723 0dbe
00000250: c346 c3bd d506 0abe 5f6b 7dbd d97e 7dbd
00000260: 1c6c a63d 94b3 42bd 6ed8 0ebe b0e4 15bd
00000270: 969f 03be fbd9 8abd ffcb 24bd 74e3 21bd
00000280: 4433 3fbe 713e 72be f0a1 75be f844 82be
00000290: 0a45 61be fd24 45bd 30c8 393d a254 d6bd
000002a0: 4b4c 5bbe 28ec 41bd 1622 333d 25b1 cdbb
000002b0: ef40 d33d b181 9c3c 8b66 59ba 89e3 a73c
000002c0: 3736 823a 3dcd c3bc f137 19bd c430 9e3c
000002d0: 2702 f43c b7e7 1ebc 2ba1 413c db64 08bd
000002e0: ad28 f4bc 00cc af3b 3305 09bd 297c 883d
000002f0: 6235 623d 5004 343b 42f3 1f3d 45e3 48bd
00000300: 1876 7bbc c089 61bc 8bd5 ac3a f4aa 8bbd
00000310: 9ea7 9bbc c2d5 7dbd 7696 343d 8e0e 2dbd
00000320: 3f29 3a3b bea4 94bd 424b b4bc d548 7a3d
00000330: 516d 7dbc 692e 88bd fc12 79bc 0d90 e9bd
00000340: 717d 6b3d bf79 e33a ada8 fcbc 68f5 a1bd
00000350: d78a e7bd c8d7 c43c f548 533c 9b26 aebd
00000360: 2712 333d 48c6 1ebd ee0e cb3c cd65 d93c
00000370: d0a0 c1bd 0740 8cbd 1094 33bd 33b3 7a3d
00000380: da0d 2fbb 508d 62bd a6d5 63bc cadc aabd
00000390: af89 8cbd 9b6f 15be 9c66 11bd a741 203c
000003a0: f618 44bd 91bf d2bd 1463 e5bd 71ec b4bd
000003b0: 7001 f43c 927a 88bd 6a4f 0bbe 8945 afbd
000003c0: e790 b33b d8cb 93bd 94d3 2cbb a05e babd
000003d0: afd5 eebd adb7 cebd cffc 14bd bbb6 e13c
000003e0: 4597 18be b0af 08be 68c3 f6bd 0adc 28be
000003f0: dd83 89bd 1029 f3bd c871 1abe 280c ddbd

features.10.bias f4 [32]
-0.032351296 -0.27801293 -0.046058044 0.058248505 -0.012122637 0.07576774 0.06656728 -0.0690818
0.06190749 -0.047706217 -0.013329349 0.097625144 0.05876828 0.050109822 0.043268535 -0.09029435
0.085888684 0.08707084 -0.118919194 -0.24013291 0.02967444 -0.02453948 -0.017686095 -0.06329477
0.011599525 0.041365594 -0.36543947 -0.019205485 -0.09048367 -0.106862076 0.028144715 0.052091017
00000000: cb82 04bd b657 8ebe 5ca7 3cbd fc95 6e3d
00000010: 069e 46bc 1e2c 9b3d 6d54 883d c27a 8dbd
00000020: b592 7d3d 9867 43bd 5863 5abc b1ef c73d
00000030: 02b7 703d f53f 4d3d 593a 313d 3fec b8bd
00000040: 68e6 af3d 3252 b23d e88b f3bd 67e5 75be
00000050: d017 f33c 0507 c9bc 6ee2 90bc b0a0 81bd
00000060: ef0b 3e3c f86e 293d e21a bbbe d254 9dbc
00000070: 814f b9bd 81da dabd bf8f e63c 645d 553d

features.12.weight f4 [32, 32, 5, 5]
0.12501533 0.055644143 0.009811437 -0.0048380815 -0.042796858 0.09837579 -0.008695079 0.036571864
0.04156823 -0.034557413 0.1119031 0.16189353 0.06014559 -0.024208944 0.0403657 0.04582416
0.012601034 0.115141705 0.10759236 -0.03911625 -0.025680048 0.044692654 0.083673716 0.019124983
0.0016172105 0.18059386 0.2918893 -0.040845428 -0.19804966 -0.029724281 0.09664612 0.12880611
-0.036684938 -0.072019525 -0.12167116 0.2520421 -0.001181667 -0.25364393 0.019872438 0.09235985
0.03183389 -0.03924461 -0.36562228 -0.22309025 -0.094317496 -0.04546294 -0.15161891 -0.33703545
-0.10233704 -0.11490269 -0.022969468 -0.06827126 -0.043674145 -0.053846978 -0.07446767 -0.031222552
-0.04403702 0.017450003 0.05231112 -0.008999077 -0.0109936865 -0.16947222 -0.07479313 0.02579567
0.04587851 -0.1202201 -0.08809012 0.0679571 -0.02049879 0.03714747 -0.12984121 -0.07953241
0.02664 -0.09292521 -0.09361698 -0.106358595 0.038752176 0.022417756 0.059643444 0.16720943
-0.13660505 0.10174433 0.09648817 0.13063599 0.1510269 -0.22833498 -0.183284 -0.1553199
0.009800889 0.049259685 -0.15588449 0.01871564 0.06848371 0.17446935 0.08087092 -0.07508522
-0.08222153 -0.07907865 0.12107132 0.09782327 0.14023866 0.04649778 -0.16856709 -0.007897961
-0.006358197 0.038008187 0.10855434 -0.1686811 -0.050362196 0.037265897 0.13148 0.12924181
-0.12445688 -0.07793812 0.034534354 0.07650143 0.009576287 -0.14679158 -0.0939709 0.06324452
0.042753827 -0.028881509 -0.107982874 -0.02718082 0.06284078 -0.050567195 0.15280433 -0.002260622
-0.24571447 0.07100849 -0.16466321 0.22724648 0.2540745 -0.054178152 0.08762549 0.0012323108
0.050020516 0.20616676 0.16174635 0.2346538 0.018602986 -0.022154974 0.06970794 -0.16153708
0.069256425 0.13118038 0.024303973 0.047896795 0.0063247425 -0.009876739 0.1528268 0.08742782
0.023070127 0.07600264 -0.009890626 0.26238608 0.1620052 0.0052739247 0.090126954 -0.02506723
0.16763096 0.03755029 -0.10891047 -0.037665855 0.0012328197 0.054324158 0.0064297067 -0.16816379
-0.09050354 -0.05424282 -0.035868052 -0.06814711 -0.17786853 -0.14492832 -0.15399854 -0.06414921
-0.06097344 -0.065435745 -0.04891822 0.09968289 -0.25021535 -0.12291202 0.08037433 -0.004388464
0.037618 -0.33816344 -0.27951497 0.022111436 0.08205391 0.00036149117 -0.08682825 -0.013160642
0.24027997 0.14130352 0.10283893 -0.14290549 -0.0543467 0.22655511 0.13610062 0.0435238
0.11780625 -0.054688513 -0.07635597 -0.011333657 -0.003025314 0.17292231 -0.115020804 -0.039095573
-0.03836353 -0.023147492 0.21673511 -0.035643436 -0.060478855 -0.11312095 -0.026221145 0.20614327
0.07928086 0.054219715 -0.092523046 -0.006232003 0.23813143 0.010578734 -0.009655432 -0.019998195
-0.04875129 -0.04778241 0.24312341 0.14116439 -0.042893708 -0.054632217 -0.07834223 0.13267452
-0.0054670894 0.100421146 -0.12983176 -0.14299582 0.016669143 -0.062259424 -0.020040704 -0.010194409
0.005417457 -0.11532447 0.046741594 0.028241435 0.003081558 -0.11678529 -0.0031215919 0.00932986
0.004194825 -0.023670038 0.04802471 0.32478347 -0.39398268 -0.18410733 -0.08135136 -0.0014217374
00000000: 0504 003e 1deb 633d 26c0 203c c588 9ebb
00000010: c24b 2fbd 3f79 c93d ce75 0ebc 61cc 153d
00000020: 7343 2a3d 138c 0dbd 742d e53d 6bc7 253e
00000030: 395b 763d d651 c6bc 8156 253d 1db2 3b3d
00000040: 9174 4e3c 6acf eb3d 6259 dc3d 5c38 20bd
00000050: f75e d2bc a50f 373d 205d ab3d ffab 9c3c
00000060: 94f8 d33a 99ed 383e 8472 953e 894d 27bd
00000070: 88cd 4abe 5680 f3bc 67ee c53d c0e5 033e
00000080: f242 16bd f97e 93bd bb2e f9bd aa0b 813e
00000090: 2ae2 9aba 9edd 81be 86cb a23c 2927 bd3d
000000a0: 4164 023d f5be 20bd d832 bbbe c571 64be
000000b0: 8829 c1bd 5937 3abd fd41 1bbe e98f acbe
000000c0: 1596 d1bd 1a52 ebbd 772a bcbc cdd1 8bbd
000000d0: a9e3 32bd a68e 5cbd 8182 98bd 70c6 ffbc
000000e0: 2a60 34bd 4ff3 8e3c 2f44 563d dd70 13bc
000000f0: dd1e 34bc 208a 2dbe 242d 99bd 7151 d33c
00000100: 1beb 3b3d f535 f6bd 9868 b4bd 182d 8b3d
00000110: 14ed a7bc f227 183d 18f5 04be e3e1 a2bd
00000120: 213c da3c 934f bebd 42ba bfbd 89d2 d9bd
00000130: 9aba 1e3d 71a5 b73c af4c 743d f338 2b3e
00000140: 32e2 0bbe 555f d03d 979b c53d 71c5 053e
00000150: cca6 1a3e a5d0 69be cdae 3bbe 2e0c 1fbe
00000160: e893 203c 86c4 493d 2fa0 1fbe 8b51 993c
00000170: 3041 8c3d 18a8 323e a79f a53d 48c6 99bd
00000180: c363 a8bd fdf3 a1bd 3df4 f73d 9157 c83d
00000190: b99a 0f3e 7574 3e3d da9c 2cbe 7366 01bc
000001a0: 6c58 d0bb 79ae 1b3d bd51 de3d bdba 2cbe
000001b0: 9748 4ebd 20a4 183d b1a2 063e f757 043e
000001c0: 40e3 febd 059e 9fbd e573 0d3d c8ac 9c3d
000001d0: dce5 1c3c 8850 16be d173 c0bd 5886 813d
000001e0: a31e 2f3d ea98 ecbc 2026 ddbd 50aa debc
000001f0: abb2 803d 8c1f 4fbd bd78 1c3e f226 14bb
00000200: 939c 7bbe e66c 913d 799d 28be 4db3 683e
00000210: 0e16 823e e9e9 5dbd fe74 b33d 7d85 a13a
00000220: 50e2 4c3d 611d 533e d6a0 253e 1649 703e
00000230: 4a65 983c 597e b5bc 09c3 8e3d fa69 25be
00000240: 50d6 8d3d 2654 063e 2019 c73c 6e2f 443d
00000250: c93f cf3b 0cd2 21bc a17e 1c3e 5b0d b33d
00000260: 90fd bc3c 46a7 9b3d 4b0c 22bc 7857 863e
00000270: b1e4 253e e3d0 ac3b 7b94 b83d cb59 cdbc
00000280: 73a7 2b3e 55ce 193d 740c dfbd 8347 1abd
00000290: 9196 a13a 0283 5e3d 4ab0 d23b 2133 2cbe
000002a0: ec59 b9bd b82d 5ebd 61ea 12bd b690 8bbd
000002b0: 2b23 36be 1768 14be cbb1 1dbe a960 83bd
000002c0: 49bf 79bd 2d03 86bd 795e 48bd 8b26 cc3d
000002d0: 3a1c 80be 4cb9 fbbd 4c9b a43d 1bcd 8fbb
000002e0: 5515 1a3d c223 adbe 961c 8fbe 0b23 b53c
000002f0: e10b a83d 8686 bd39 02d3 b1bd bc9f 57bc
00000300: f40b 763e dfb1 103e 389d d23d d155 12be
00000310: a59a 5ebd 10fe 673e f65d 0b3e 0346 323d
00000320: 6744 f13d 1001 60bd 8560 9cbd ceb0 39bc
00000330: 5944 46bb 8c12 313e 0790 ebbd ae22 20bd
00000340: 1423 1dbd cf9f bdbc cfef 5d3e dafe 11bd
00000350: adb8 77bd f5ab e7bd bacd d6bc 3917 533e
00000360: 015e a23d 7e15 5e3d b97c bdbd d535 ccbb
00000370: bad8 733e 6d52 2d3c d131 1ebc 41d3 a3bc
00000380: 6faf 47bd 7db7 43bd 58f5 783e 668d 103e
00000390: 50b1 2fbd 08c6 5fbd e471 a0bd d4db 073e
000003a0: 4525 b3bb 9aa9 cd3d 9ef2 04be 7f6d 12be
000003b0: ba8d 883c bd03 7fbd 672c a4bc 7306 27bc
000003c0: ec84 b13b 3c2f ecbd 1d74 3f3d 955a e73c
000003d0: f7f3 493b 202d efbd 9f93 4cbb 45dc 183c
000003e0: be74 893b abe7 c1bc 8fb5 443d 054a a63e
000003f0: 19b8 c9be a286 3cbe 8b9b a6bd 9759 baba

features.12.bias f4 [32]
0.018754423 0.14079459 0.12170331 -0.028636292 0.0342013 0.1825688 -0.016758367 -0.107161514
-0.057519585 -0.046269562 -0.060536545 0.07872131 -0.050514676 0.03774581 0.07128336 0.01611708
0.14998169 0.021709777 -0.092658535 -0.093396835 -0.084451646 0.17868495 0.028068837 -0.08125802
0.09495965 -0.05677044 0.115379736 -0.053885598 -0.017948631 0.13393517 -0.017692668 0.009536191
00000000: e0a2 993c 752c 103e 963f f93d a896 eabc
00000010: aa16 0c3d 51f3 3a3e d848 89bc 7f77 dbbd
00000020: a899 6bbd 2785 3dbd 2bf5 77bd a338 a13d
00000030: 7ae8 4ebd 5a9b 1a3d 03fd 913d f707 843c
00000040: cd94 193e b4d8 b13c c2c3 bdbd d746 bfbd
00000050: fcf4 acbd 30f9 363e 9ef0 e53c 9b6a a6bd
00000060: 347a c23d 1f88 68bd 364c ec3d 25b7 5cbd
00000070: 0209 93bc 4d26 093e 37f0 90bc af3d 1c3c

features.15.weight f4 [16, 32, 3, 3]
0.007238448 -0.057040777 -0.04677487 0.008623922 0.039602898 0.045293428 -0.060301058 0.021552451
-0.04175932 -0.075956106 -0.007188747 0.10632537 -0.02007123 0.12311345 -0.0026860714 0.08504523
-0.07690532 0.094702184 0.10753236 -0.016978182 0.10960676 -0.07750662 0.108720966 -0.06436185
-0.09078579 -0.10710745 -0.19471389 0.14856064 0.16896936 0.07833427 -0.1420014 0.042694047
0.037741892 -0.23665 0.0052527995 -0.13147931 0.046031967 0.0058786185 0.014463945 -0.038902856
0.042856608 -0.13771178 -0.07033532 -0.034988053 -0.029558385 0.08805155 -0.05484791 0.067705825
0.05151454 0.059535686 0.13645573 0.090313174 0.07633378 0.118440084 -0.109756485 -0.00586113
-0.09638517 0.037997473 -0.0382323 0.06401256 -0.017852105 0.16966473 -0.024503602 0.010128671
0.047944654 -0.018747067 -0.11491731 0.032572296 0.0030622906 0.07266123 -0.007799505 -0.014182288
-0.008975302 0.05031423 0.078193985 0.08810966 -0.11280826 -0.048641317 0.08632014 0.07156903
0.025230603 -0.052700773 0.048588715 -0.13357063 0.016017765 0.02721551 -0.03221557 -0.06534349
-0.06709461 -0.10071665 0.0062272046 -0.0049254326 -0.038375273 -0.069029376 0.039103214 -0.005597154
-0.022711214 0.12477403 -0.05497084 0.055737562 -0.09863771 -0.086235344 -0.033931527 -0.09198801
0.10080188 -0.05731859 -0.0071706595 0.02777308 -0.031786706 0.12599884 0.062039714 0.052258316
-0.029978713 -0.06932051 0.0042683906 -0.014079344 0.0239104 -0.09628598 -0.07709673 -0.03592011
-0.15148564 -0.018744214 -0.10784568 -0.04274597 -0.13317874 -0.03761754 -0.037225302 -0.043201186
-0.02409353 -0.035793535 -0.035342753 -0.048470184 -0.0813766 -0.016396064 -0.03153866 -0.026836364
-0.058731604 -0.026941145 -0.111135945 -0.018441373 -0.072986946 -0.07307777 -0.023411417 -0.095922686
-0.104269445 -0.13136095 -0.05136507 0.019694878 -0.011073057 0.024048585 -0.046305843 -0.00021001547
-0.028520748 -0.11527653 0.05203857 -0.09332885 0.12827294 0.022605868 -0.047671773 -0.006104198
0.008761697 -0.13069777 0.055836257 0.008895197 -0.04470853 0.016232755 -0.015171621 -0.057646148
0.07435472 0.077683285 0.0369141 0.121823534 0.07774575 -0.03909987 0.0052357335 -0.09149774
0.041996524 -0.024503734 0.042884883 -0.20183404 0.04114707 -0.07070018 0.022846095 -0.0711664
-0.08304034 0.04064655 -0.013813716 -0.13390143 -0.07267621 -0.12769432 0.025647053 0.05492263
0.10829115 0.0010192493 -0.10741358 0.08128228 -0.0046732198 0.029419491 -0.0326393 -0.05606754
-0.023383394 0.03769939 0.07230713 0.037598267 -0.118067145 0.095794104 -0.067605376 -0.029397275
-0.03911312 -0.014986247 -0.045000184 -0.07375566 0.0888299 0.04924286 -0.007877829 -0.105721004
-0.043703787 0.057722855 -0.008295469 0.024232194 -0.096997455 -0.02448194 -0.08683875 -0.047662247
-0.12818329 0.034997974 -0.042790808 -0.096985996 -0.02704959 -0.067341946 0.026893213 0.02574778
0.0071484987 -0.0962763 -0.12261644 0.00889011 -0.049645383 0.047217533 -0.076437466 0.00951225
-0.024189794 -0.008484005 -0.07335708 -0.044352334 0.061881285 -0.16079168 -0.051847033 0.103660874
0.09617477 0.027735954 -0.019673191 -0.017931137 0.07006437 -0.067727745 -0.13955323 0.08131906
00000000: 8130 ed3b 97a3 69bd 0297 3fbd 5a4b 0d3c
00000010: a636 223d 9a85 393d 3efe 76bd c48e b03c
00000020: d20b 2bbd e08e 9bbd 958f ebbb 1ec1 d93d
00000030: 6c6c a4bc e822 fc3d cd08 30bb 322c ae3d
00000040: 8980 9dbd 38f3 c13d ed39 dc3d d415 8bbc
00000050: 8279 e03d cabb 9ebd 19a9 de3d 25d0 83bd
00000060: e6ed b9bd 275b dbbd 1463 47be 4820 183e
00000070: 4e06 2d3e b86d a03d d168 11be f4df 2e3d
00000080: 3e97 1a3d 6154 72be ad1f ac3b 83a2 06be
00000090: 048c 3c3d 6da1 c03b 2ffa 6c3c 9a58 1fbd
000000a0: 698a 2f3d 5104 0dbe f70b 90bd a24f 0fbd
000000b0: 6d24 f2bc 5f54 b43d 34a8 60bd 5aa9 8a3d
000000c0: e900 533d b1db 733d 0dbb 0b3e 1df6 b83d
000000d0: e354 9c3d b790 f23d 02c8 e0bd b90e c0bb
000000e0: 9765 c5bd 3da3 1b3d 7999 1cbd 0419 833d
000000f0: 943e 92bc 97bc 2d3e c7bb c8bc baf2 253c
00000100: 9d61 443d 7393 99bc c459 ebbd 876a 053d
00000110: b6b0 483b 69cf 943d fd92 ffbb d45c 68bc
00000120: 250d 13bc 4b16 4e3d 2b24 a03d d672 b43d
00000130: 0408 e7bd 1e3c 47bd 9dc8 b03d c992 923d
00000140: 69b0 ce3c c4dc 57bd f604 473d bdc6 08be
00000150: b037 833c 10f3 de3c 79f4 03bd cfd2 85bd
00000160: e668 89bd 8844 cebd 940d cc3b 8665 a1bb
00000170: 642f 1dbd 465f 8dbd b12a 203d 5568 b7bb
00000180: de0c babc 8789 ff3d 1b29 61bd 124d 643d
00000190: 9102 cabd 289c b0bd c9fb 0abd 3664 bcbd
000001a0: 3771 ce3d e6c6 6abd daf7 eabb 5f84 e33c
000001b0: c732 02bd d705 013e 5b1d 7e3d d10c 563d
000001c0: eb95 f5bc e9f7 8dbd dbdd 8b3b 0dad 66bc
000001d0: bedf c33c 9531 c5bd e4e4 9dbd f720 13bd
000001e0: 0d1f 1bbe 778d 99bc 32de dcbd 6616 2fbd
000001f0: 0260 08be da14 1abd 8f79 18bd baf3 30bd
00000200: cb5f c5bc 3e9c 12bd 90c3 10bd ac88 46bd
00000210: c6a8 a6bd 0a51 86bc af2e 01bd efd7 dbbc
00000220: 8d90 70bd adb3 dcbc 3e9b e3bd 5d12 97bc
00000230: 2e7a 95bd cca9 95bd 4dc9 bfbc 1d73 c4bd
00000240: 388b d5bd 7c83 06be 2e64 52bd 2757 a13c
00000250: c46b 35bc 8a01 c53c 32ab 3dbd 9937 5cb9
00000260: 58a4 e9bc 1a16 ecbd 6526 553d 3223 bfbd
00000270: fb59 033e f12f b93c 7a43 43bd b905 c8bb
00000280: 398d 0f3c a3d5 05be 8fb4 643d 29bd 113c
00000290: 4b20 37bd 8efa 843c 6492 78bc 5e1e 6cbd
000002a0: 4a47 983d 6a18 9f3d 3d33 173d 9e7e f93d
000002b0: 2a39 9f3d 2f27 20bd 8490 ab3b 2b63 bbbd
000002c0: 8c04 2c3d 0ebc c8bc 0fa8 2f3d 95ad 4ebe
000002d0: d489 283d 42cb 90bd bc27 bb3c b1bf 91bd
000002e0: 0e11 aabd ff7c 263d ed52 62bc 751d 09be
000002f0: 44d7 94bd 4dc2 02be c519 d23c 8df6 603d
00000300: c0c7 dd3d 5598 853a a7fb dbbd 5377 a63d
00000310: cf21 99bb 2501 f13c c9b0 05bd 14a7 65bd
00000320: 888e bfbc ad6a 1a3d c315 943d a400 1a3d
00000330: 30cd f1bd b32f c43d b074 8abd 8ed2 f0bc
00000340: 1435 20bd e088 75bc 1d52 38bd 350d 97bd
00000350: 73ec b53d e2b2 493d 0212 01bc 4184 d8bd
00000360: be02 33bd cd6e 6c3d b8e9 07bc 9882 c63c
00000370: 9aa6 c6bd 598e c8bc 84d8 b1bd 7d39 43bd
00000380: 7b42 03be 095a 0f3d 6a45 2fbd 98a0 c6bd
00000390: 1a97 ddbc 93ea 89bd 284f dc3c 02ed d23c
000003a0: f43d ea3b 822c c5bd 541e fbbd d3a7 113c
000003b0: f558 4bbd 2c67 413d 3f8b 9cbd 45d9 1b3c
000003c0: ad29 c6bc 7f00 0bbc 3d3c 96bd cbaa 35bd
000003d0: 3b77 7d3d 93a6 24be 8e5d 54bd 274c d43d
000003e0: 47f7 c43d 8336 e33c ac29 a1bc 52e4 92bc
000003f0: e97d 8f3d d8b4 8abd 0be7 0ebe 9b8a a63d

features.15.bias f4 [16]
0.27148885 0.19016519 -0.009290736 0.117885105 0.060143135 0.0565404 -0.011999073 0.15366265
-0.08107553 -0.16912857 -0.042769577 0.06268341 0.30631477 0.19522214 0.10537826 0.19082959
00000000: 9600 8b3e aaba 423e 2c38 18bc bf6d f13d
00000010: a658 763d e896 673d c397 44bc be59 1d3e
00000020: ed0a a6bd 0a30 2dbe 272f 2fbd 2960 803d
00000030: 4ad5 9c3e 50e8 473e 8fd0 d73d d568 433e
