output/models/220626_1658_ggcnn2_met_ruis_epoch_100/epoch_30_iou_0.62_statedict.pt (torch, 274205 bytes, 20 tensors)

features.0.weight f4 [16, 1, 11, 11]
000000 a3 bc 51 3c 2c 45 32 bc 8b 55 8e bb 0a 3f c9 3c
       0.012801322 -0.01088075 -0.0043436936 0.024566192
000010 34 d1 ae 3d cf d9 c1 3b c3 de 41 bd 12 c3 29 bb
       0.08535996 0.0059158574 -0.047331583 -0.0025903624
000020 e1 68 8f 3d 9c ba 52 bc df f3 0b bb 2e ba 9e bd
       0.07002426 -0.012861874 -0.0021355075 -0.07750355
000030 c0 d2 1a bd dd 65 c7 bd e2 83 c2 bc 58 b8 43 3c
       -0.037798643 -0.09736226 -0.023744527 0.011945806
000040 b7 b3 06 3c b5 53 ed 39 47 cb 38 3d 20 50 af 3c
       0.008221558 0.0004526653 0.045115735 0.021400511
000050 be 2a ea 3b 08 44 9f bd cf 1c c7 bc bb 0a f0 bd
       0.0071462085 -0.07776648 -0.02430573 -0.11720797
000060 18 a9 cd bd fc 1b c7 bc 8d 54 e1 3c 39 e8 d0 bc
       -0.10042018 -0.024305336 0.027506137 -0.025501357
000070 15 dd 57 3b 10 e1 8c 3d 6a d4 5b bc 2f ca cc bd
       0.0032938172 0.06878865 -0.013417343 -0.09999501
000080 7c dc 92 bd bc fc d7 bd cd 2c b2 bd b6 13 d5 bc
       -0.0717096 -0.10546252 -0.08699951 -0.026010375
000090 09 dc 88 3d c8 84 80 3d a1 86 bf 3c 64 d8 38 bd
       0.066825934 0.06275326 0.023379626 -0.04512824
0000a0 8d 81 dc bc 93 4b 8b bd 55 70 3b bd d1 c9 a6 bc
       -0.026917243 -0.06801524 -0.045761425 -0.020359905
0000b0 88 8b 8f bd 78 0f 11 bd 9e 71 45 3d 3d 59 8a 3d
       -0.07009035 -0.035415143 0.048204057 0.06755302
0000c0 9e 27 3e bd 2b 7e 80 bb b1 ac 65 bc f9 d7 82 3d
       -0.0464245 -0.0039212904 -0.014018224 0.0638885
0000d0 a1 e4 9f 3b 95 a5 92 38 6f 38 1c 3d d1 f0 06 bd
       0.0048795496 6.9926646e-05 0.038139757 -0.032944504
0000e0 38 65 e2 3c 06 54 be bc 59 2c 9b 3c 90 32 2d 3d
       0.027636155 -0.023233425 0.018942045 0.04228455
0000f0 8e 8c 0a 3d cd cc 0b 3e 9e 0b 92 3d ad 3a 4e 3d
       0.03382545 0.13652344 0.07131122 0.050348926
000100 73 80 5d bd 81 77 9e bd de 7c 79 bd 17 8e d8 bd
       -0.054077577 -0.07737637 -0.0609101 -0.105739765
000110 6e ac 42 bd 74 21 ea 3a c1 7c bb 3c 42 46 32 bc
       -0.047527723 0.0017862753 0.022886636 -0.010881009
000120 44 f2 a0 3c 4b 34 9c 3b 35 33 a3 bc 0b 2e 94 bc
       0.019646771 0.004766976 -0.019921878 -0.018088361
000130 0d 7c ad bd b8 e6 94 bd 09 38 cc bd ff f7 1e bd
       -0.084709264 -0.072705686 -0.09971625 -0.038810726
000140 40 5d 05 bd af ed b2 bd b4 d1 e4 bd 98 db 45 bd
       -0.032559633 -0.08736741 -0.1117281 -0.048305124
000150 1e 34 d8 bd 9a 09 78 bc 2f 46 c5 bb 52 4d 93 bd
       -0.105568156 -0.015139008 -0.0060203294 -0.07192482
000160 7e 39 bc 3c 21 26 b4 3d 04 ca 73 3d e5 54 49 bb
       0.022976633 0.08796335 0.05951883 -0.0030720767
000170 d7 23 01 bd 92 19 3c bc 72 e1 3e bc d0 26 4c 3d
       -0.03152832 -0.011480706 -0.01165043 0.049841702
000180 a1 93 0b 3e c9 70 f4 3d 8d 72 d8 3d 05 f2 60 3d
       0.13630535 0.119355746 0.10568724 0.054918308
000190 5f 09 46 bc 26 3d c7 bc 9f 0f 25 3c 5b 4d 9f 3d
       -0.012087195 -0.02432115 0.010074525 0.07778426
0001a0 58 f0 c3 3d 39 eb 9e 3d 90 34 eb 3d 98 0e 02 3e
       0.09567326 0.07759709 0.11484635 0.1270088
0001b0 8a 80 c3 3d 8d e9 97 3c 85 c4 97 3d 9d 87 e0 ba
       0.09546001 0.018543983 0.0741053 -0.001713026
0001c0 73 e0 02 bd 7a 54 7f 3d 37 a0 22 3e 72 a6 02 3e
       -0.031952333 0.062336423 0.1588143 0.12758806
0001d0 0a d1 94 3d 28 c5 39 3d 4b a0 95 3d 24 b5 2d 3c
       0.072664335 0.04535404 0.07305964 0.010602269
0001e0 a8 93 0f 3d 5d 87 90 3b 8b 22 8b bd fa de 5d bd
       0.035052925 0.004410668 -0.06793698 -0.054167725
0001f0 db bc ce 3c 29 4a a6 bb c2 b4 83 3d a6 a1 59 3d
       0.025236538 -0.0050747585 0.06430961 0.053132676
000200 13 ce 22 bd 18 4c bc 3a 3b 42 d9 bc 3f b0 64 3c
       -0.03974731 0.001436594 -0.026520839 0.013958036
000210 0a 1e 04 ba 49 60 82 3c f9 d9 1a bd b5 3a 5b 3d
       -0.00050398766 0.015915053 -0.03780553 0.053522784
000220 c7 26 49 3b 2c b1 85 3c e7 3f 40 3d 20 70 59 bb
       0.003069328 0.016319834 0.046935942 -0.0033178404
000230 35 de 04 3d 5e 66 3b bd ad ae 84 bd 9b d4 99 bd
       0.032438476 -0.04575192 -0.06478629 -0.075112544
000240 af 64 4b bc 07 50 09 bd 50 61 2f bd 07 c0 50 3c
       -0.012414142 -0.033523586 -0.042817414 0.012741095
000250 7e 67 2d bd 01 04 3d 3d 87 92 8d bc 80 bf 81 bc
       -0.042335026 0.046146397 -0.017281784 -0.015838385
000260 02 8e d6 3c c9 cd 86 3c b7 d5 58 bd 21 6a 81 bd
       0.026190761 0.016455548 -0.05293819 -0.063190706
000270 00 64 88 bc 7e e7 ab 3c 5b 37 ad 3c 78 9f 4a 3c
       -0.016649246 0.020984408 0.02114456 0.012367122
000280 02 0a 49 3d 4f 99 4f bd dd 09 50 bd 67 75 d6 bc
       0.04908181 -0.050683316 -0.050790656 -0.026179029
000290 b9 87 3e 3d fc ec 68 bd c3 8f 92 bc 84 4b 70 bd
       0.046516154 -0.05686663 -0.017890817 -0.058665767
0002a0 f4 db 39 3d 0f b8 3d 3c c4 78 9e 3c 59 c0 20 bd
       0.04537578 0.0115795275 0.019344695 -0.039245937
0002b0 34 64 25 3d 37 fb 0d bd 33 8f b5 3c 90 14 34 3d
       0.040378764 -0.034663405 0.02216301 0.043964922
0002c0 0b ba e3 3b 17 5d 16 bd de 14 81 bd 36 2c ef 3c
       0.0069496683 -0.03670987 -0.06302808 0.029195886
0002d0 77 d0 3c 3c a6 5d 8b 3d 9c c1 8d 3d 68 c5 0e bd
       0.011524311 0.068049714 0.06921694 -0.03485623
0002e0 66 73 28 3c 5d b0 f5 3b 33 0f a9 3c 8d 34 2f bd
       0.010281419 0.007497831 0.02063713 -0.042774726
0002f0 0e 9a 30 bd 9b 1c a6 bc 69 ad f4 3c ef bd a4 3c
       -0.043115668 -0.020277312 0.029867845 0.020110099
000300 d7 52 31 3c ac bf 81 3d 61 d4 0c bd b7 dc fb 3a
       0.010822973 0.06335387 -0.034382228 0.0019215558
000310 0c a7 93 3b c6 a6 d0 3b 3b 1e 06 bd 78 cb 69 bc
       0.0045059975 0.006367537 -0.032743674 -0.014269702
000320 ed 6a b6 bc 3f 93 d1 bc b2 91 83 3c 90 e2 05 bd
       -0.022267783 -0.025582908 0.016060684 -0.03268677
000330 79 23 25 3d 5c 36 6e bc 35 31 36 bd b8 39 f1 3c
       0.040317032 -0.0145393275 -0.04448052 0.029446468
000340 8c 6e 28 bd c0 72 b5 3c c9 0a 82 bd 4a c3 76 bd
       -0.04112105 0.022149444 -0.06349713 -0.060244836
000350 09 f5 19 bb 73 4d 9e 3c a0 59 b9 3b e6 4a cd 3b
       -0.0023492 0.01932404 0.005656436 0.006265032
000360 b2 be 15 bc ef b0 0b bd 55 d4 9b bc e7 52 3b 3d
       -0.009139704 -0.034104284 -0.019022146 0.04573336
000370 58 d8 56 3c 84 ef 39 bd ec 31 59 bd f8 57 55 3c
       0.013113104 -0.045394436 -0.053026125 0.013021462
000380 a3 3b 80 3c 78 97 81 3c 11 e6 15 3d 4d e9 1f bd
       0.015653437 0.015819296 0.03659636 -0.039040852
000390 6d b3 49 3d e3 e1 09 bd 28 86 da 3c 40 4e df 3c
       0.04924338 -0.033662688 0.026675299 0.027258992
0003a0 e6 74 81 3c 57 29 e1 38 97 ac d0 bc e3 88 84 bd
       0.015802812 0.00010736536 -0.025472922 -0.064714216
0003b0 8d 1f 1e 3d 48 d0 28 3d 91 41 08 3d 9a 11 41 3d
       0.038604308 0.041214257 0.033265654 0.047135927
0003c0 b0 cf 81 bc c8 22 e8 bc 38 b2 10 3d de ce cb 3c
       -0.015846103 -0.028336897 0.035326213 0.024878915
0003d0 63 15 97 3c ca 90 0b bc d8 48 52 bc e9 02 bf 3a
       0.018442815 -0.008518407 -0.01283475 0.0014573011
0003e0 43 40 c5 bb a1 55 2e bd ca 39 3c bd 4a 41 f5 3c
       -0.0060196235 -0.04256213 -0.04595355 0.029938359
0003f0 2e 04 06 bd 9b de 29 bd d3 92 f6 bc ec cd f2 3c
       -0.03271883 -0.04147206 -0.030099308 0.029639207

features.0.bias f4 [16]
000000 83 28 6c be 25 56 67 be 22 11 01 be e4 ed cf 3d
       -0.23062329 -0.22591455 -0.12604192 0.10152796
000010 ef a2 29 3e eb ac 05 be 16 3f 38 3e bc c7 82 be
       0.1656606 -0.13054244 0.17992815 -0.2554301
000020 9e 2d 26 3e 31 4e a4 be 22 1f 35 be 94 5c ed be
       0.16228339 -0.32090905 -0.17687657 -0.46359694
000030 4e 09 e0 3e 65 da 1a 3f ea 5e 4e 3e a5 9c 1d bf
       0.437571 0.60489494 0.20153394 -0.61567146

features.2.weight f4 [16, 16, 5, 5]
000000 b4 40 ca 3c fe 63 b3 3d 19 d2 06 3d 70 16 87 bd
       0.024689056 0.08759306 0.03291521 -0.065960765
000010 b9 b0 9a 3b 0b bc ad 3d 17 58 42 3d 6c 49 20 bd
       0.004720774 0.08483132 0.04744729 -0.03913252
000020 90 5d ba bd 48 3f 0f bd 00 d2 bc bc b4 a3 0f bc
       -0.09099877 -0.03497246 -0.023049355 -0.008767057
000030 38 b9 07 be 95 4d 16 be 3d b3 47 bd 9a aa ac 38
       -0.13254249 -0.14678033 -0.04875492 8.233376e-05
000040 05 ff 98 3d 3f 2e 80 bd a4 71 87 3d 1c 7c 96 3d
       0.07470516 -0.06258821 0.06613472 0.07347891
000050 91 e6 fc bc 08 fc 53 3c 04 b4 72 3c 91 fa 00 3e
       -0.030871661 0.012938507 0.014813427 0.12595583
000060 18 b0 01 3e 6b 7f e4 bc 31 55 ca 3c de 22 c2 3d
       0.1266483 -0.027892789 0.024698826 0.09479307
000070 7e 56 a7 3a 1a cb ad bc b0 eb f7 3d 99 b3 dd bc
       0.0012766866 -0.02121501 0.12105501 -0.027063178
000080 12 7a ba bc bc a2 45 bd e3 35 d1 bc 8f e0 b9 3c
       -0.022763286 -0.0482509 -0.02553839 0.022690086
000090 f7 51 c5 bb 80 c2 3f bd b8 58 d0 38 f9 9d 28 3d
       -0.006021734 -0.04681635 9.934738e-05 0.04116628
0000a0 08 9a f5 3d be cd 5e 3d cc 1d 6a bd 71 e6 6e bd
       0.1199227 0.05439543 -0.057157323 -0.058325235
0000b0 02 1b c0 3d 92 29 be bb eb 93 41 bd 5b a7 bb 3d
       0.09380151 -0.0058032954 -0.047260206 0.0916278
0000c0 71 44 a3 3d 51 c2 39 3c 04 ee a9 3c 7b b0 0f 3d
       0.079720385 0.011337833 0.020743378 0.035080414
0000d0 cf ce 09 3d d6 1a 93 3d 73 ac 49 3c cd 90 65 3c
       0.033644494 0.07182853 0.0123091815 0.014011574
0000e0 34 db 83 3d 99 19 3e 3d 94 a8 3d 3d b6 7e 3a bc
       0.06438294 0.04641113 0.046303347 -0.011382749
0000f0 4e 6c 03 bd 17 cf bf 3c 2d 4f a4 bd 1d ef b0 3d
       -0.03208571 0.023414178 -0.08022914 0.08639357
000100 5a 83 37 bd a1 66 7d bd ca 15 06 bd f2 38 81 3d
       -0.044803 -0.061865453 -0.032735623 0.063096896
000110 5f 0a c5 3c 31 f4 12 bd 46 d5 a7 bd cf 7c 34 bd
       0.024052797 -0.03587741 -0.081949756 -0.04406434
000120 a5 93 0f 3d 30 53 90 bd 62 a8 98 bd ec e0 37 bb
       0.035052914 -0.07047117 -0.074539915 -0.0028057648
000130 4a d0 13 3d cc b6 a8 3d 8a c2 1f bc 39 39 bc 3c
       0.03608731 0.08237991 -0.009750972 0.022976505
000140 78 6f ba 3d 2a 4c 86 3d 22 25 2a 3d 3b ce 02 3c
       0.09103292 0.06557496 0.04153932 0.0079837395
000150 22 7d 91 3d f5 f5 76 3c ec a3 bf 3c bc e3 53 3d
       0.07103945 0.015073289 0.023393594 0.051730856
000160 8d b8 83 3d 71 52 28 3d 18 d8 bb bc 5a ad 15 bd
       0.06431685 0.041094247 -0.02293019 -0.036542274
000170 af 5f 0a bd af 28 36 bd ba 4b b6 3d eb 44 04 bd
       -0.033782657 -0.044472393 0.089011624 -0.032292288
000180 a2 60 4b bd 84 f7 41 bb bd 2a 25 3d c5 6b df bc
       -0.049652703 -0.0029596994 0.04032396 -0.027273068
000190 bb 9e 6d bd 6f 95 b8 3c e3 64 32 bd 8f a5 d9 3c
       -0.058012705 0.022532193 -0.043553244 0.026568202
0001a0 62 83 2c bc e6 1b 0b be a6 de ff bd d3 98 83 3c
       -0.010529371 -0.13584861 -0.12493639 0.016064083
0001b0 e1 5f 0c be 1b 18 2e bd 6b 8a c7 bb c3 60 3e 3c
       -0.1370845 -0.042503458 -0.0060894988 0.0116197495
0001c0 e1 38 a8 bd 59 9e ad bb fe af e7 bd c6 c6 c4 bc
       -0.08213974 -0.0052984175 -0.11312865 -0.024020564
0001d0 7f cd 65 bc 3b 5a b5 bd c5 a9 fc bd d1 0f d5 bd
       -0.014026045 -0.08855101 -0.123370685 -0.10403407
0001e0 79 c2 09 bd 43 89 df bd 0a 8f 0e 3c 74 49 68 bd
       -0.03363273 -0.109148525 0.008701095 -0.056710675
0001f0 37 62 36 bc 4a 24 5a bd 4a 3d 8b 3d 04 e7 5e bd
       -0.011131815 -0.053257264 0.06798799 -0.054419532
000200 95 e7 1d bc cf e6 5e bc f4 da 30 bd 86 f2 38 bd
       -0.009637733 -0.013604834 -0.04317756 -0.045153163
000210 37 28 2a bd 0e 8e c3 bd 44 bf 50 bd 93 b5 7b 3d
       -0.041542258 -0.09548579 -0.050963655 0.06145246
000220 37 40 a3 bd 59 3d 5d bd 70 ec 80 b9 50 c5 80 3a
       -0.079712324 -0.054013584 -0.00024590222 0.0009824429
000230 3e 64 1e 3d 39 ae c4 3b cf eb d6 bd 99 df a5 3c
       0.038669817 0.0060022143 -0.10494196 0.020248221
000240 9f 9e 57 3d e7 99 a3 3c 1b d8 26 bd d9 a5 38 bd
       0.052641507 0.019970847 -0.040733438 -0.04508004
000250 a6 ff d1 3c 49 e7 89 3a e8 58 0c bb 0c d0 e8 bc
       0.025634598 0.0010521199 -0.0021415297 -0.028419517
000260 76 f8 c2 bc cd 8a 00 bc 48 fc d4 3c 07 91 c3 3d
       -0.023800116 -0.007845593 0.025999203 0.09549146
000270 93 d6 b0 3c b7 7d 22 be 53 9c 01 be 99 06 54 3d
       0.021586692 -0.15868269 -0.12657289 0.051764105
000280 a4 d2 a1 3d ca ff 91 3a 28 ea eb bd ef c0 9d 3d
       0.07901505 0.0011138853 -0.11519271 0.07702815
000290 9c de 1f 3e 65 d4 02 bd d4 a8 06 bd 7d b3 2e bc
       0.15612262 -0.031940836 -0.03287585 -0.0106629105
0002a0 49 bd ae 3d 91 64 80 3d 73 46 05 3e 10 76 bf bd
       0.08532197 0.062691815 0.13015155 -0.093486905
0002b0 01 86 be bd f3 e3 09 3d be 0f 51 bd a2 4a d5 3d
       -0.09302903 0.033664655 -0.051040404 0.10414626
0002c0 56 e6 fb 3d ac 74 1c 3d b8 79 86 bd 05 f9 da bd
       0.122997925 0.038197204 -0.06566185 -0.10692028
0002d0 b0 5f 29 bc 8a 0b 6c bd 66 f6 bf bc f1 00 2f bd
       -0.010337755 -0.057628192 -0.023432922 -0.042725507
0002e0 01 19 41 bc 74 fb a7 bd 85 3a 13 bd cd b2 93 3b
       -0.011785747 -0.08202258 -0.03594448 0.0045073987
0002f0 8a 14 c6 bd f8 8f 9c bc 5f 89 11 3e e4 63 e0 3d
       -0.09671886 -0.019111618 0.14212559 0.109565526
000300 9e 74 66 3d 7c 71 19 bd 57 ac 01 be 05 03 11 bd
       0.05626356 -0.037461743 -0.12663399 -0.03540327
000310 a4 54 cb 3d 5d c5 1f bb 31 61 04 be eb 55 88 bc
       0.09928253 -0.0024379112 -0.129277 -0.016642531
000320 3e cf 23 bd 97 b4 84 bd fd 97 64 3d 5c 1d 09 3e
       -0.039992563 -0.06479757 0.05580901 0.13390106
000330 02 43 a4 b9 2b 2a a3 bc a3 d4 25 be e1 d5 38 3d
       -0.00031330442 -0.019917568 -0.16194396 0.045125846
000340 3f 0c c0 bb 63 df cb bd 11 5b 91 bd 80 77 96 bd
       -0.005860835 -0.09954717 -0.07097448 -0.073470116
000350 24 99 25 bd 42 b3 27 be 6c be 16 be 66 bf 09 3e
       -0.04042925 -0.16376975 -0.14721078 0.13451919
000360 b1 98 e2 3d 03 fd 5e bb a1 d3 26 3d 5b b6 2d 3e
       0.1106428 -0.0034025318 0.04072917 0.16964094
000370 8a 0e b1 3d e6 c6 f8 3d 9a 12 4f bd 82 93 4a bd
       0.08645351 0.12147312 -0.05055485 -0.04945708
000380 c8 0e 16 3e 26 24 c3 bd 79 a5 39 bd c6 b4 fb 3c
       0.14654076 -0.09528379 -0.045323823 0.030725848
000390 39 c4 9f 3d 86 4c 07 bd b5 fa 63 bd 99 87 21 3d
       0.078010984 -0.033031963 -0.055659015 0.039435957
0003a0 e9 b6 be bd 9f 8a 47 bc 63 1d ac bd 7e ea 1e bd
       -0.09312231 -0.012179046 -0.084040426 -0.038797848
0003b0 95 5d 90 3d 53 99 8a 3c cc a5 ba 3d 21 a6 3f 3d
       0.07049099 0.016918814 0.091136545 0.046789292
0003c0 94 7f e0 ba 91 72 c5 3d 85 c6 66 bd 04 18 b0 3c
       -0.0017127865 0.096409924 -0.056341667 0.021495827
0003d0 56 11 5f 3c a6 d2 82 3d 20 31 f5 3d d3 26 b9 3c
       0.013614973 0.06387834 0.119722605 0.02260152
0003e0 c7 ad 7e 3d 47 03 09 3d 7a 9c 29 bc e1 b2 6e bb
       0.062177446 0.03345039 -0.010352248 -0.0036422538
0003f0 69 9a 2e bd 75 be 2c 3d 66 b7 81 bd cb 25 d3 ba
       -0.042627726 0.04217382 -0.063338086 -0.0016109286

features.2.bias f4 [16]
000000 20 88 4d 3e 4a af a5 bd 7e a2 87 bc fb e8 35 bd
       0.20071459 -0.08090074 -0.016556975 -0.04441164
000010 13 ad 69 3d 8d 6d 21 bd 04 a4 96 bd a2 b9 36 3d
       0.057049822 -0.039411116 -0.07355502 0.044610627
000020 eb 12 78 bd b9 30 16 39 10 b1 35 bd 73 4c 78 be
       -0.060564917 0.00014323265 -0.044358313 -0.24247913
000030 2e af a1 bd dc b8 c0 3c a4 72 04 bd 9d 96 cb 3d
       -0.07894741 0.023525648 -0.032335892 0.099408366

features.5.weight f4 [16, 16, 5, 5]
000000 f0 42 c7 be e5 0e bf be c5 27 a2 be cd c1 68 be
       -0.38918257 -0.3731605 -0.31670967 -0.22730179
000010 58 79 48 be 3b 04 b7 be 3b 12 c9 be e4 d9 b6 be
       -0.19577539 -0.35745415 -0.3927172 -0.35713112
000020 8c ad c9 be 02 77 9b be 3b c1 db be b5 ff dc be
       -0.39390218 -0.30364233 -0.4292086 -0.4316384
000030 b9 62 e2 be 80 62 aa be 5f bd b4 be d2 af 9f be
       -0.44215944 -0.33278275 -0.3530073 -0.31188828
000040 73 c8 06 bf 4f 20 0a bf 85 e4 c1 be da 6c a2 be
       -0.5264961 -0.5395555 -0.3786966 -0.31723672
000050 c9 99 95 be e8 f2 d9 be 88 86 da be 64 cf 9f be
       -0.2921889 -0.42568135 -0.42680764 -0.31212914
000060 63 53 9c be d7 8b 9e 3d 82 d9 9a 3d 27 1a 82 3d
       -0.3053237 0.07741516 0.075610176 0.063526444
000070 64 01 90 3d dd f8 5a bd 3e bf 85 3d 91 06 12 bd
       0.07031515 -0.05345999 0.06530617 -0.035650793
000080 80 59 58 3d 3c f1 cc b9 a3 c2 15 3d 7e ab 82 bc
       0.05281973 -0.00039089646 0.036562573 -0.015950914
000090 a0 a5 20 bc a0 f4 15 3d e4 07 5b 3d 90 da 54 bb
       -0.009805113 0.036610246 0.053474322 -0.0032478906
0000a0 3c 84 28 3d 47 75 98 3d 7a 16 04 3c 8c 9f 38 bd
       0.041141734 0.07444244 0.008061999 -0.04507403
0000b0 26 53 42 3d d0 e5 e7 3c ca 45 ea bb 18 9a 6d bd
       0.047442578 0.028307825 -0.007149433 -0.058008283
0000c0 12 8a a6 3d c5 05 ad 3d 47 79 95 bd da 7f 9c 3d
       0.081318036 0.08448366 -0.072985224 0.07641573
0000d0 44 3b e7 3c d3 b4 60 bd b8 da f2 3c 87 da 84 3c
       0.028226502 -0.054859947 0.029645309 0.016217483
0000e0 80 30 28 bc 8f 20 25 3d ec b7 a4 bc cf ba 95 bc
       -0.01026547 0.040314253 -0.020107232 -0.018277554
0000f0 c6 60 17 3d c0 6b 68 3d b0 8c 3b bc 81 88 61 bd
       0.036957525 0.056743383 -0.011447117 -0.05506182
000100 a0 ad 21 3d 00 1b 8e bd af 78 4c 3c 9d da 87 bd
       0.039472222 -0.069387436 0.012479945 -0.06633494
000110 21 64 fd bc 72 72 44 bd bd 4b b8 bc de ff 59 bd
       -0.030931534 -0.047960706 -0.022497052 -0.05322253
000120 9a 14 f1 bc 0a 08 9f bd 8f e9 76 bd ab ca 4f bd
       -0.029428769 -0.07765205 -0.060281333 -0.05073039
000130 f2 b6 85 bd 6d c9 3b bd 77 3b 1b bd 9b 82 84 3d
       -0.06529035 -0.04584639 -0.037898507 0.064702235
000140 0b f2 03 bd df f8 c2 3c 5a 96 94 3d 0d 87 57 3d
       -0.032213252 0.023800312 0.0725524 0.05261903
000150 03 be 5f 3c 1a e6 e1 3c 70 29 5a bc 9c 64 b8 bd
       0.013656142 0.027575541 -0.0133155435 -0.09003565
000160 c4 0c 81 3d bb 82 e7 bc 50 d5 a0 3c ed 99 82 bd
       0.06301263 -0.02826058 0.019632965 -0.06377015
000170 6d 67 33 3d c0 33 a4 3d fc 48 b3 bc ee 00 36 bd
       0.043799806 0.08017683 -0.021885388 -0.04443448
000180 5d c7 da 3c 0c 61 a5 bc 0d 95 2e 3d 6c 68 41 3d
       0.026706392 -0.020187877 0.042622615 0.047218725
000190 03 5a 32 3e 6d 1b 81 3d 4f b1 27 3d 3f 93 c3 3c
       0.17417149 0.06304059 0.04094058 0.023873923
0001a0 08 ef 9b 3d 95 57 2b 3d ad c8 86 3d 13 de 89 bc
       0.07613951 0.04183157 0.065812446 -0.016829526
0001b0 7f 45 bb bc 63 20 fa 3b e8 ba 1b be 7f f7 43 bd
       -0.022860287 0.0076332553 -0.15208018 -0.047843453
0001c0 a5 e4 a1 3c d6 7b 83 bd 28 76 38 bd 57 69 8e bc
       0.019762347 -0.06420104 -0.045034558 -0.017384214
0001d0 00 18 07 3d e0 f2 98 bc 45 2c ba bc 4d b3 d6 3d
       0.032981873 -0.0186705 -0.022726187 0.10483418
0001e0 20 8c 0b 3e ac 00 c5 ba 65 73 e4 bb 77 a7 35 3d
       0.13627672 -0.0015030107 -0.006971764 0.04434916
0001f0 9f 48 82 3d d7 a0 43 bd f8 c5 a2 bd 7d 18 42 bd
       0.063615076 -0.04776081 -0.07947916 -0.047386635
000200 b3 1a fb 3c 44 63 2d 3d 03 ff 77 bc c1 58 ae 3c
       0.03065238 0.042330995 -0.015136483 0.021282556
000210 b9 35 94 bc 8a 5d 87 3d 19 59 08 bd 08 d6 3d bd
       -0.018092023 0.06609638 -0.033288095 -0.046346694
000220 bb 45 95 3d 59 05 c8 3c 71 b1 b4 3d 98 9b 23 bd
       0.07288691 0.024416612 0.08822907 -0.039943308
000230 ee 61 89 3d ba d3 d4 bc 7f 4a 0a bd 3f ef ae bd
       0.06708132 -0.025979865 -0.03376245 -0.08541726
000240 33 09 51 3d a2 ff 03 bd 1f be e9 bb 2c 2e 25 bd
       0.051034164 -0.032226212 -0.00713326 -0.040327236
000250 39 78 e3 3b 44 af 14 3d d9 cc a3 ba bf 58 5b bc
       0.006941822 0.03629996 -0.0012496962 -0.013387858
000260 80 0f 46 bd 3b aa 1f bc 6a 09 2c 3d 82 e6 ad bd
       -0.048354626 -0.009745176 0.042001165 -0.084912315
000270 6b 1d 1a bd d7 38 62 bd 96 5a 70 bb c3 c9 da 3c
       -0.03762571 -0.055229988 -0.0036675087 0.026707536
000280 28 b7 4b bd 19 e6 75 bd a0 72 7c 3d 71 77 2a 3b
       -0.04973522 -0.06003389 0.061632752 0.0026011134
000290 e5 0b 9b bd 0e 67 d9 3d f6 34 8b 3c b5 4d 95 3d
       -0.07570628 0.10615359 0.016993027 0.07290212
0002a0 0c b9 1e 3d 6c d0 db 3d 79 10 df 3d 66 d1 3f bd
       0.038750693 0.10733113 0.10891814 -0.046830557
0002b0 84 ce f2 bb 3f bf 9e 3d be 3e 39 bd da 8e 8d 3c
       -0.0074098725 0.07751321 -0.04522585 0.017280031
0002c0 d5 41 05 bd ca be 7a 3d e0 44 99 bd a3 a3 24 3d
       -0.032533485 0.061217107 -0.0748384 0.04019512
0002d0 82 e1 f9 ba 79 fe 3b 3d ae 5b 7d 3d c5 8f 9c bc
       -0.0019064399 0.04589698 0.06185501 -0.019111523
0002e0 d7 1b 4a 3c ee 46 16 bd 90 22 c9 bd c7 49 70 3d
       0.012335739 -0.036688738 -0.098210454 0.05866411
0002f0 e9 2b 4b bc da ab 10 3d 25 ed 1f 3d 0f 80 c1 bd
       -0.012400606 0.03532014 0.039044518 -0.09448253
000300 1c ce 4b 3c c9 73 3a 3d 7b 9b 02 3d 71 42 ae bd
       0.012439277 0.045520578 0.03188656 -0.085087664
000310 a7 4e a4 bc bd a4 03 bd 0f a1 92 bd 55 4c e5 bc
       -0.020057036 -0.03213953 -0.07159626 -0.0279905
000320 a6 5d fb 3c d3 58 a7 3a d3 23 98 bd f2 29 5b 3d
       0.030684303 0.001276756 -0.07428708 0.0535068
000330 80 1c a6 bc 8d 7e 3c bd 94 ac 8f 3d 72 40 28 bd
       -0.020277262 -0.046019126 0.070153385 -0.041077085
000340 6f 04 6f bd f7 0a 76 3d b9 20 8a 3d 97 11 93 3c
       -0.058353838 0.06006905 0.067445226 0.017952723
000350 3b 35 2f 3d df 9c f8 3c 43 53 4f bd 53 f1 1f bc
       0.042775374 0.03034824 -0.050616514 -0.009762126
000360 f9 41 6a 3d 10 a1 c2 bb d2 64 04 bd ba d2 58 bc
       0.057191823 -0.0059396103 -0.032322712 -0.013233835
000370 09 43 69 3d 4d d1 1b 3d 1e 20 92 bd fd 4f 9c bb
       0.056948695 0.0380414 -0.07135032 -0.0047702775
000380 4a dd 40 3d 1f 4d 55 bd 8f 68 f8 3c a4 61 36 3a
       0.047086038 -0.0520755 0.030323295 0.00069572986
000390 d9 4b ec 3c c8 bc 40 bd ec 61 d7 bc 3a bf cf bd
       0.02884476 -0.047055036 -0.02629181 -0.101438954
0003a0 81 a3 82 ba 62 c8 9c 3c 16 47 64 bc 90 85 1b 3d
       -0.0009966941 0.019138519 -0.013932964 0.037969172
0003b0 1f df 68 bd cc 38 c9 bc 6e d9 0d 3d b7 27 18 bd
       -0.05685341 -0.024563216 0.034631185 -0.03714725
0003c0 f2 6a 43 bd 62 09 bc 3b 0a f8 98 3c f6 a7 1d 3c
       -0.047709413 0.005738423 0.018672962 0.009622565
0003d0 70 4f 1e bd 88 13 e0 bd 23 97 ea 3c c5 8c 47 bd
       -0.038649976 -0.10941225 0.02863652 -0.048718233
0003e0 57 1a 8a bb cc 03 97 bc 90 f2 24 bd 3e f9 8d bc
       -0.0042145657 -0.018434428 -0.040270388 -0.017330762
0003f0 0b 45 1f bc 1a 60 a1 3c db bc d8 bc 05 1f 36 bd
       -0.009721051 0.019699145 -0.02645724 -0.044463176

features.5.bias f4 [16]
000000 94 a8 08 3d 54 bd aa 3d 6f d1 31 bd ad b1 20 bd
       0.033363894 0.08336893 -0.043412622 -0.039231945
000010 a5 b3 32 bd c6 5c ba bd cc 7e 0f be 6a 39 4c bd
       -0.043628354 -0.090997264 -0.14013213 -0.04985944
000020 b2 ce 41 bd 01 9e 8c bd 72 32 ba bd 02 9b 21 be
       -0.04731626 -0.06866074 -0.09091653 -0.15781787
000030 65 38 e8 bd d6 8e bd bd 57 5a 2f be 23 60 07 be
       -0.113388814 -0.092557594 -0.17124306 -0.13220267

features.7.weight f4 [16, 16, 5, 5]
000000 0c 14 17 bf 07 a8 03 bf 79 ae 8d be 93 f3 5e be
       -0.59014964 -0.51428264 -0.27672175 -0.21772604
000010 f0 41 b3 bd 3c 43 b3 be 99 8e b1 be fd b6 82 be
       -0.08752811 -0.35012233 -0.34679106 -0.25530234
000020 17 1f 76 be 76 59 60 be 46 e7 7e be 07 c7 53 be
       -0.24035297 -0.21909127 -0.24892911 -0.20681392
000030 80 4b 60 bd 74 3e d6 bd 21 d0 90 bc a5 c5 5d be
       -0.054759502 -0.10461131 -0.017677369 -0.21657427
000040 f0 3c 7b bd a5 b3 e7 bc 90 58 cf bd 91 52 ba bc
       -0.06133741 -0.028283903 -0.10124314 -0.022744449
000050 3d 37 35 be 1b a6 18 be d1 de 77 3d 10 97 14 3e
       -0.17696853 -0.14907114 0.06051523 0.14510751
000060 a6 b6 19 3e 47 c2 8e 3e 24 a6 96 3d b3 04 27 3e
       0.15011081 0.27882597 0.073559076 0.16310386
000070 68 a8 d3 3d ce 1a 34 3e c9 68 87 3e f2 f7 79 3d
       0.10334855 0.1758835 0.26447132 0.061027475
000080 a0 e8 eb 3d f5 6b ba 3d b0 24 70 3d 8c 0a ea 3d
       0.11518979 0.091026224 0.058628738 0.11427793
000090 ab d4 02 bd 84 6d 3c bd a0 e9 95 bd 18 f3 01 bd
       -0.031941097 -0.04600288 -0.07319951 -0.031725973
0000a0 85 c4 55 be f2 f3 c1 be 39 4a 6f be 98 ba e4 bd
       -0.20875748 -0.37881428 -0.23368157 -0.111684024
0000b0 32 d5 42 be b3 ef f3 bd e5 f3 a7 be 1b 7d 72 be
       -0.1902664 -0.119109534 -0.32803264 -0.23680536
0000c0 98 f1 6c be 53 a2 17 be 8a a1 16 be e7 e5 f2 be
       -0.23139036 -0.14808016 -0.1471006 -0.47441027
0000d0 b2 75 ac 3d 17 73 d7 bd 55 79 7a 3d a7 78 f1 be
       0.08420886 -0.105199985 0.061150867 -0.47162363
0000e0 ab 6f bd be 27 95 5b 3e 4d 17 5f bc 4c 93 70 3e
       -0.36999258 0.21443616 -0.013616395 0.2349369
0000f0 36 8c cf be 5e e4 99 be 9c 18 47 3e 1c 8e 21 3d
       -0.4053666 -0.30057043 0.19442981 0.039442167
000100 54 21 c1 3d 47 bb f2 bd 4e 7a 8d 3d 8d 0a 2e 3e
       0.09430185 -0.118521266 0.069080934 0.16996212
000110 9d 3b 80 3d 15 c3 59 bd be bb 12 3e 90 ff 25 3d
       0.0626137 -0.05316456 0.1432943 0.040526927
000120 19 50 09 3e 30 de 3d 3c 16 b2 29 be f1 8c 85 3d
       0.13409461 0.011588618 -0.1657184 0.06521023
000130 44 26 0d 3c 0c 95 df bc 9c a3 22 be f9 6c 88 be
       0.00861508 -0.02729275 -0.15882725 -0.2664564
000140 a4 98 9f 3c c7 10 f4 3b 0b 4b 07 be 21 b3 9c 3d
       0.019481964 0.007448289 -0.1321222 0.076513536
000150 64 6c 34 be 32 e4 cd 3d 3a 6f ca 3b ad 75 b3 3c
       -0.17619473 0.100532904 0.00617781 0.021906698
000160 63 ef 00 3e 9f a2 d4 3d 0a 9f 72 be c9 5d 40 be
       0.12591319 0.1038258 -0.23693481 -0.18785776
000170 11 69 bf 3a 49 f1 04 3d c7 91 17 be 79 b1 4a be
       0.0014603456 0.03245667 -0.14801703 -0.19794263
000180 d9 9f f3 bd df 0d 15 bc de 19 e0 bd a7 ac 9f be
       -0.11895723 -0.009097545 -0.10942434 -0.3118641
000190 68 f9 38 bd 6d 1c 83 3c 0f 65 f7 3d 89 7a d1 3d
       -0.045159727 0.016004765 0.12079822 0.1022845
0001a0 79 fb 30 3e eb 98 8b bc e5 21 0e be 15 e9 77 3c
       0.17283429 -0.01704069 -0.13880117 0.015131255
0001b0 5b 08 a5 3d f4 58 1d 3d a4 81 17 be b3 6f 2c be
       0.08058234 0.03841491 -0.14795548 -0.16839485
0001c0 9a ca 85 bd 4e 0d 69 bc fd ac 1e 3d ef b0 ff bd
       -0.06532784 -0.0142243635 0.038739193 -0.12484919
0001d0 1f f8 b7 bd 31 8b 46 bd 11 c2 41 bd 98 56 1f bd
       -0.08982872 -0.048472587 -0.047304217 -0.03890094
0001e0 6a 4e fa bd a8 ee ce bd ac c6 07 3d 54 df a2 bc
       -0.122219875 -0.10104114 0.033148453 -0.019881882
0001f0 02 05 8d bd d6 3c 83 be 80 1d 98 bd 14 85 44 be
       -0.06885721 -0.25632352 -0.07427502 -0.1919139
000200 09 2a 6d bd 59 24 49 bc d8 67 14 be 05 6d a5 bd
       -0.057901416 -0.012276732 -0.14492738 -0.080774345
000210 2a 9a 12 be 15 50 98 bd ff 4b 67 3c 19 58 8e be
       -0.14316621 -0.074371494 0.01411724 -0.27801588
000220 6b 13 2c be fa ff e4 bd 11 18 eb bb 8e e5 81 3d
       -0.16804282 -0.11181636 -0.0071745 0.06342612
000230 50 c7 19 be 31 51 a3 bc 39 52 06 3e 8a 57 43 3e
       -0.15017438 -0.019936176 0.13117303 0.19076362
000240 4f 8c 67 3e 71 bc 90 39 f4 99 43 3d 94 79 05 3e
       0.22612117 0.0002760622 0.047754243 0.1303466
000250 93 56 14 3e da 50 78 3e 5d d0 c9 bd 5f 04 eb bd
       0.1448615 0.24249592 -0.09854195 -0.11475443
000260 81 fd 4c bd a2 b6 58 be 71 bd 73 be cd 0e 64 bd
       -0.050046448 -0.21163419 -0.23802735 -0.055678178
000270 a1 5d 84 3d 38 17 ca 3d d8 d9 b7 3d 11 3b 09 3e
       0.06463171 0.0986771 0.08977097 0.13401438
000280 1a fa e4 ba 9d 73 a4 3d 0c e3 28 3e 72 46 ee 3d
       -0.0017469556 0.08029864 0.16492862 0.1163453
000290 7e 36 a8 3d 98 a5 bc 3d 8d 04 57 bd e1 be 29 3d
       0.082135186 0.09211272 -0.052494574 0.041441802
0002a0 32 df 21 3d f2 49 46 3d 46 50 20 3e cd 32 98 3b
       0.039519496 0.048410363 0.15655622 0.004644728
0002b0 a9 ca 02 3e 02 4e 1c 3e ad e4 13 3e 28 f3 e4 bd
       0.12772621 0.15264133 0.14442702 -0.11179191
0002c0 ab 92 a6 bc 4d 3f a5 bd 85 5e b3 3d cb 41 84 3d
       -0.020333609 -0.08068714 0.087582625 0.064578615
0002d0 8d 40 b0 bd 2b 9c db bc 89 bd 8c 3d a6 c6 83 bc
       -0.08606062 -0.026807865 0.068720885 -0.016085934
0002e0 cd cb d5 3d 97 fb cc bd 15 b8 f4 bd 91 71 e7 bd
       0.104392625 -0.100089245 -0.11949173 -0.11300958
0002f0 d9 13 d6 bc 10 72 2a 3d dd 7a 1c be 00 8f 5b bd
       -0.026132511 0.041612685 -0.15281244 -0.053603172
000300 db 7c 89 bd 6e b7 87 3d a1 95 63 3d 40 c5 2d be
       -0.067132674 0.06626783 0.05556262 -0.16969776
000310 c8 27 c9 bc 7d e7 bb bd b4 2e 84 3d 0d b9 47 bd
       -0.024555102 -0.09175012 0.064542204 -0.048760463
000320 ef d6 42 b9 48 a1 b1 bd f9 c6 68 3d 64 eb 5e bc
       -0.00018581351 -0.0867334 0.05683038 -0.013605926
000330 4b a9 b2 3d f6 21 4c 3d f0 0a 05 bd 7d ab 1d bc
       0.08723696 0.049837075 -0.032481134 -0.0096234055
000340 ba 26 4e bd 0e 22 5f bc 07 0b c1 bc f8 2a 1c 3d
       -0.0503299 -0.013618959 -0.023564829 0.038126916
000350 20 ec dc 3d 0a 7b 2c bd a1 6c 82 3c 5a 53 00 bd
       0.10787225 -0.042109527 0.015920939 -0.03132949
000360 f2 41 3d bd 8a 0f a7 3d f7 1f 79 bd 87 3e 9b bd
       -0.04620547 0.08157261 -0.0608215 -0.075802855
000370 a5 c9 6c bd dd 75 ef 3c fa fd 31 bd e7 5c 15 3d
       -0.05780949 0.029231006 -0.0434551 0.03646555
000380 8b e3 7b bd 17 35 f5 bc fe c7 87 bd fa 61 a6 3d
       -0.0614963 -0.029932542 -0.06629942 0.08124156
000390 d8 56 76 3d 2d 79 8f 3d 2a 1f ca bc 06 e7 07 3d
       0.060141414 0.07005534 -0.024673063 0.033179305
0003a0 aa 87 e5 bc 50 6c cb 3d da a3 5a bc 18 df 79 bb
       -0.028018791 0.09932768 -0.013344729 -0.003812736
0003b0 ef f1 84 bc 52 ca 33 3d fe 1b b1 bc 66 ab 59 3d
       -0.016228644 0.04389412 -0.021619793 0.053141974
0003c0 9b 78 1a be 25 20 48 bd f9 9d 27 3d e4 b8 20 3c
       -0.1508507 -0.04885878 0.04092214 0.009809706
0003d0 61 a1 d9 bd c7 50 4e 3d 46 2b 79 bd d2 d3 ac 3c
       -0.10626484 0.050370004 -0.060832284 0.021097098
0003e0 cd c7 f6 bd 89 c6 4c bc 8b 8a 40 3d 94 60 87 bc
       -0.12049828 -0.012498506 0.047007125 -0.016525544
0003f0 01 88 c2 bd 88 f8 e8 3d 93 b1 d2 3c 5c 87 3d 3c
       -0.09498597 0.113755286 0.02571944 0.011567917

features.7.bias f4 [16]
000000 41 cb 9a bd 10 f4 2d be 9c 0d 45 3a ee 00 0d bc
       -0.07558299 -0.16987634 0.00075169816 -0.008606179
000010 22 f3 f3 bd 8d 42 b3 bd 1f 02 0f be ea df 98 bd
       -0.11911608 -0.08752928 -0.13965653 -0.07464583
000020 ff fd 9b bd f5 7c 85 3d f6 f9 93 bd 54 4a 89 bd
       -0.07616805 0.06517974 -0.07225411 -0.0670363
000030 f3 c6 8f be 2e ff 0d bd ce 77 91 be a8 e8 4c bc
       -0.28081474 -0.034667186 -0.28411716 -0.012506641

features.10.weight f4 [32, 16, 5, 5]
000000 94 45 89 be 0e f5 88 be 64 08 36 be 1c 10 a9 3b
       -0.26810896 -0.26749462 -0.17776638 0.005159391
000010 be aa 46 bd 67 e9 1d 3c e9 65 1f be 8e 2b 12 be
       -0.048502676 0.009638167 -0.1556622 -0.14274427
000020 fe e1 36 bd 21 44 42 be a6 91 35 be ec 22 f6 bd
       -0.044649117 -0.18971302 -0.17731342 -0.120183796
000030 b5 7d 1b bb 8b 89 81 be ce 0d 35 be 39 a6 96 be
       -0.002372605 -0.2530025 -0.17681047 -0.29423693
000040 ea bd b2 be b8 55 6a bd 61 86 17 be 93 53 39 be
       -0.34910518 -0.057210654 -0.14797355 -0.18098287
000050 9a e1 5c bd 7f c2 69 bd 78 67 fd bb 31 cb df bd
       -0.053926088 -0.05707025 -0.0077332817 -0.109274276
000060 32 7c d0 3c 81 02 dc 3d 22 e9 6d 3c c0 da 96 3d
       0.025449846 0.10742665 0.014520915 0.07365942
000070 20 92 91 3d 79 08 c4 3d db 38 97 3d 44 ab dc 3c
       0.07107949 0.095719285 0.07383891 0.026937135
000080 c7 3f 18 3d 6f d6 6e 3c 55 c4 a7 bd e4 bf 7f bd
       0.037170198 0.014577492 -0.08191744 -0.06243886
000090 ad 11 ce bc d2 54 3f bd c0 b9 39 bd e4 ea 8e bb
       -0.025154913 -0.04671175 -0.04534316 -0.0043614972
0000a0 7d 8d d0 bd a0 d9 bf 3a 1d 01 ec bb d4 bd e6 bc
       -0.10183237 0.0014637001 -0.007202281 -0.028166689
0000b0 2d e7 42 3a 34 13 bf bd 3e 39 36 bd d9 40 ec 3a
       0.00074349606 -0.093298346 -0.044488184 0.0018024697
0000c0 fa 4c ca 38 a4 2a 47 3c 7e 7f 32 bd b0 d5 98 3d
       9.6464486e-05 0.012156162 -0.043578617 0.07462633
0000d0 08 c6 96 3d 39 b8 31 bd dc 76 34 be 6c 3c c8 bd
       0.0736199 -0.04338858 -0.17623466 -0.097771496
0000e0 cf 04 fc bc e9 78 e5 3d 3a 73 61 bb 18 40 00 be
       -0.030764012 0.112047024 -0.0034400956 -0.1252445
0000f0 df 51 cd bd b3 21 f2 bd d1 4e 7e bd bd c3 68 be
       -0.10025381 -0.11822834 -0.062086884 -0.22730918
000100 d8 c4 13 be 83 9a f7 bc e7 92 b4 3a b7 32 9b bd
       -0.14430559 -0.030225044 0.001377669 -0.075780325
000110 46 d0 b9 be df a6 ab be 73 86 17 bd 80 89 12 3b
       -0.36291713 -0.3352575 -0.036993455 0.0022359788
000120 66 ac 43 3d 33 d3 f9 3d 75 4c 73 3e 40 ac 0f 3e
       0.047771834 0.12198486 0.23759635 0.14030552
000130 7d b7 a9 3c 3e 73 c5 3d 17 0b e1 3d 4d 48 f7 bd
       0.020717377 0.09641121 0.10988443 -0.12074337
000140 cc 0e 0e 3e 87 7e 98 bd fc f5 87 3d b7 2b 65 be
       0.13872832 -0.07446008 0.06638715 -0.22379957
000150 70 96 10 be 8b 29 2f be 2d 9c 04 bc 08 dc 09 3d
       -0.14119887 -0.17105691 -0.008093876 0.033657104
000160 a9 67 14 3d c7 da 20 3d ad dc db bd e9 30 cb bd
       0.03623167 0.039271142 -0.1073545 -0.09921438
000170 d3 a8 71 3d 64 be cf bd 3f 51 67 be 0f b8 a6 3c
       0.058998894 -0.10143736 -0.22589587 0.020351438
000180 4d e7 cc bd d1 69 7a bd ad 63 0a be ef fd e0 3d
       -0.100050546 -0.06113607 -0.13514586 0.10985934
000190 6f 42 16 bd 2c dc 87 bc cb 15 17 3d 1c 83 18 bd
       -0.03668445 -0.016584478 0.036886018 -0.03723441
0001a0 53 8c 73 3d d5 fd 15 3d 38 d0 9e bd 42 f8 6c bd
       0.059459995 0.036619026 -0.07754558 -0.057853945
0001b0 75 50 53 bd ec 2c 8d 3d 03 a4 ae bc bd 55 41 3d
       -0.0515904 0.06893334 -0.021318441 0.047200907
0001c0 e6 b3 d5 3c 5e 5e 9f bd fb 53 06 3c f1 da 3b bd
       0.026086759 -0.07781671 0.008198733 -0.045863096
0001d0 9f fa 2a 3d f4 87 72 bd d2 28 53 3d 26 0c f9 3c
       0.041742917 -0.059211686 0.0515526 0.0304013
0001e0 e0 11 98 bd 3c e6 a4 bd ad 0f 15 3d b6 44 05 bd
       -0.074252844 -0.08051726 0.036391903 -0.03253623
0001f0 b0 58 7c bd 46 b4 d7 3d 7e 8f 7a be 0d 20 aa bd
       -0.061608016 0.10532431 -0.244688 -0.083068945
000200 83 56 04 be 71 4e db 3d 14 33 d6 3c e5 de 8c be
       -0.12923627 0.10708321 0.026147403 -0.27513805
000210 c4 d9 85 be 08 13 14 3d e7 4c 36 3e 13 a0 8f 3d
       -0.26142704 0.036150962 0.17802773 0.070129536
000220 4d da 9f be ed 42 9b be a0 fb e0 3d 6b 2e 8e 3e
       -0.31221238 -0.30324498 0.10985494 0.2776979
000230 36 fc c5 3d e5 9c 93 bd a7 ca 04 be ac c0 98 3d
       0.09667246 -0.0720766 -0.1296793 0.07458624
000240 36 88 84 3e ae 49 ae bd 0a 7c 28 be 93 0a 19 be
       0.2588517 -0.08510147 -0.16453567 -0.1494544
000250 89 0c 1d be a2 38 10 bb 2d 0e d2 3d c7 7e a6 be
       -0.15336813 -0.0022006412 0.1025661 -0.32518598
000260 2f da 2b bd 1d fa 0c bd b0 38 95 be e8 7a bb 3e
       -0.041956123 -0.034418214 -0.29144812 0.36617208
000270 b2 11 ee bd 8b 23 86 be 2d b0 51 3b 6b e7 19 be
       -0.11624469 -0.26198992 0.0031995878 -0.15029685
000280 b1 71 48 3e e8 3e 0b 3d 59 e0 3f be a9 19 6c be
       0.1957462 0.03399554 -0.18737926 -0.23056664
000290 02 25 ba be ab 2a 94 3d 87 f8 20 3e 8f 22 f0 3d
       -0.3635636 0.07234701 0.15719806 0.117253415
0002a0 97 48 50 3d f5 57 a6 bc 1f 91 d0 3d f9 29 a9 3d
       0.050850477 -0.020305613 0.1018393 0.08259959
0002b0 e6 50 56 3e fc 86 6a 3e 88 68 bb 3e a9 9d 17 3d
       0.20929298 0.22903055 0.3660319 0.03701559
0002c0 79 6d 81 3c 6a 62 18 be 3c db bd 3c c6 30 d4 bc
       0.015799271 -0.14881292 0.023175828 -0.025902163
0002d0 eb 30 8c 3d ea 17 08 3d 3d cb f9 bd 3f d8 e2 3c
       0.06845268 0.03322593 -0.12196968 0.027691005
0002e0 e3 32 70 3d a4 51 3c 3d b8 fb b6 bb b2 45 bb bd
       0.05864228 0.045976296 -0.0055842064 -0.09144153
0002f0 19 f1 ef 3d 1e c6 56 3d 44 b1 b3 3d b1 6a 6e bd
       0.117159076 0.052435033 0.08774045 -0.058207218
000300 3f 22 26 be 92 94 b4 bd 4b ea c5 bd 2f 3c 20 bd
       -0.16224001 -0.088174 -0.096638285 -0.039119896
000310 88 f1 d1 3b c9 86 44 be ac c9 c6 3d b6 38 10 3e
       0.0064069666 -0.19192041 0.097064346 0.14084134
000320 78 5a ca 3d e5 e5 36 be 81 ac 77 bb 02 00 4b 3d
       0.09880537 -0.17861135 -0.003779203 0.049560554
000330 79 bd 7c be 0d c9 01 3e 40 76 c6 bd a1 7f db bd
       -0.24681653 0.12674351 -0.09690523 -0.10717703
000340 c5 7a 59 3d 27 4e 00 be 65 1b 49 3e 83 38 92 bd
       0.053095598 -0.12529813 0.19639356 -0.07139685
000350 4e d5 d3 bd 6b 7c 40 3d 77 64 97 bd c3 96 ed 3d
       -0.10343419 0.046993654 -0.07392209 0.11601021
000360 9a 9a c5 3d ba c4 26 3d e3 11 6d 3d 54 c6 8b bd
       0.096486285 0.040714957 0.057878386 -0.068249375
000370 de 78 bb bc 10 06 af bb a0 37 3c 3d b0 d8 32 3e
       -0.022884782 -0.005341299 0.045951486 0.17465472
000380 cf ee 69 3d 7b 84 93 bc ee 40 d9 bc 50 06 c8 bd
       0.05711251 -0.018007508 -0.026520219 -0.09766829
000390 d5 32 e1 3c b0 21 63 bd 63 6a 32 bd 3d d7 d8 bc
       0.027490059 -0.05545205 -0.04355849 -0.026469821
0003a0 2b 45 9b bd ae 4d a0 bb 9b 88 07 bc af 0b 3a be
       -0.07581552 -0.0048920726 -0.008272315 -0.1816852
0003b0 31 fd 4c bd ff 78 c4 bd 0e 0b e4 bc ae de 39 3d
       -0.05004615 -0.09593391 -0.027837303 0.04537838
0003c0 76 2a 15 be b6 d6 66 be 3f 2d 8b bd eb d9 1e 3c
       -0.14566979 -0.22542843 -0.067957394 0.00969551
0003d0 f7 94 6c 3d 3e 5d 8d be a4 cf 90 be f4 a2 ae bd
       0.05775925 -0.276102 -0.28283417 -0.085271746
0003e0 d9 95 ad bd b1 17 63 3d c2 72 7f be 56 b8 69 be
       -0.08475847 0.055442516 -0.2494612 -0.22824225
0003f0 6d 17 db bd f2 49 9d bd c8 9f c2 bd 1b c9 59 be
       -0.106978275 -0.076801196 -0.09503132 -0.21268122

features.10.bias f4 [32]
000000 82 49 0a bd 25 17 bf be 66 f0 89 bd 97 e2 b4 3d
       -0.03376151 -0.37322345 -0.067353055 0.08832281
000010 4e 06 de bc c7 da 99 3d 62 c0 58 3d 6c 2c 97 bd
       -0.027102616 0.075124316 0.052917846 -0.0738152
000020 ef 6b a6 3d 1a 3f 87 bd 35 a9 13 bc 01 d7 00 3e
       0.081260554 -0.066038325 -0.00901251 0.12582017
000030 2c dd 82 3d 02 77 37 3d 97 5f d3 3d 31 76 14 be
       0.063898414 0.04479123 0.10320967 -0.14498211
000040 56 eb c1 3d 50 b9 cc 3d 02 50 3b be f9 ea 77 be
       0.09468715 0.09996283 -0.1829224 -0.24210729
000050 0d d7 e8 3c 2e 1c 81 bd b2 b2 29 bd d9 e0 91 bd
       0.028422857 -0.06304203 -0.041430183 -0.071229644
000060 d8 53 08 3d e1 76 67 3d 66 ff d4 be 16 72 24 bd
       0.033283085 0.056509856 -0.41601104 -0.040147863
000070 9a 06 f5 bd 97 9e a2 bd 53 92 c9 bc 01 07 49 3d
       -0.1196415 -0.07940405 -0.024605906 0.049078945

features.12.weight f4 [32, 32, 5, 5]
000000 92 00 08 3e 1b 45 3c 3d f7 cc 2b be 5d f9 37 bc
       0.13281468 0.04596434 -0.16777407 -0.011228886
000010 41 e0 e5 bd 9b 4b 2d 3e 76 00 1d bd ea 4a f1 be
       -0.11224414 0.16923372 -0.038330518 -0.47127467
000020 7b e7 2e bd 13 5c 3d be 63 c9 39 be d9 62 39 3d
       -0.042701226 -0.18492155 -0.18143229 0.045260284
000030 5b 34 4c 3d da 5c 47 bd cc fb a7 bb f9 ad 5e be
       0.049854618 -0.048672535 -0.005126452 -0.21746053
000040 28 a5 b5 bd 22 60 15 bd 0b a6 b7 3d 81 d5 f3 bd
       -0.08869392 -0.036468633 0.08967217 -0.11905957
000050 41 11 c5 bc 2c d9 41 bd 00 82 c7 3c 9a 5e 96 bd
       -0.024056079 -0.047326252 0.024353981 -0.073422626
000060 5f 34 01 bc f2 2d 97 3e 3e 87 cd 3e 82 46 00 bd
       -0.007886021 0.2952724 0.40142244 -0.03131724
000070 8e 6e 53 be 36 3e 60 bd e4 34 c2 3d fd 1e 2f 3e
       -0.20647642 -0.05474683 0.09482744 0.17101665
000080 75 66 1c bd 14 40 b8 3c e3 c6 ba bd bc 06 c7 bd
       -0.03818365 0.022491492 -0.09119966 -0.09718081
000090 0e f8 13 bb 33 b9 60 be 2a 6f 54 3d d4 9c 6f 3e
       -0.0022578272 -0.21945648 0.051863827 0.23399669
0000a0 1c c0 57 bd 72 c3 af bd dc 47 dd be 73 a9 7f be
       -0.052673444 -0.085822 -0.43218887 -0.24966983
0000b0 ca 2d 10 bd ae e7 98 bc e8 bb 10 be a8 75 a8 be
       -0.035199918 -0.018665161 -0.1413418 -0.32902265
0000c0 79 3f 56 bd 20 92 f8 bd 81 9a 89 3d fd fc d9 3d
       -0.052306626 -0.12137246 0.067189224 0.10643957
0000d0 6a 1b 25 bd 4f e1 16 bd 13 55 b1 bd ea 37 fd bc
       -0.040309347 -0.036835965 -0.08658805 -0.030910451
0000e0 75 d4 19 3d 98 0d de 3d 0f 35 34 3e a2 8a 19 bc
       0.03755613 0.108424366 0.17598365 -0.009371432
0000f0 92 d7 56 be 92 e3 d3 be 8e 15 dc bd 60 f0 50 3e
       -0.20980671 -0.4138456 -0.10746299 0.20404196
000100 af 3a 29 3e 69 e2 bb be e0 47 a5 bd f8 be 83 3c
       0.16526292 -0.36696175 -0.0807035 0.016082272
000110 d7 6f 96 3d 96 9e 50 3d ee 3a 60 be b0 a9 e3 bc
       0.073455505 0.05093249 -0.2189748 -0.027790874
000120 d9 d1 ba 3d 81 d1 0b 3c 38 34 91 bc 87 cc 32 bd
       0.091220565 0.008533836 -0.017725095 -0.043652084
000130 c7 23 e3 3d e8 d7 c7 3d 02 4e f8 3d 47 0a 89 3e
       0.11090808 0.09757978 0.12124254 0.26765653
000140 80 da 75 be 28 af b4 bc 5e 33 a7 3d 47 90 d6 3d
       -0.24009132 -0.022056177 0.081640944 0.104767375
000150 72 7d 33 3e f8 43 21 be 07 0a 59 be 41 77 45 be
       0.17528322 -0.15748584 -0.21195231 -0.19283773
000160 ce d6 be 3c 4d 6c 80 3d 99 8d 54 be 93 91 67 3c
       0.023295786 0.06270657 -0.2075714 0.014133829
000170 70 2c d1 3d 00 72 83 3e 42 c5 07 3e dc af 40 bd
       0.10213554 0.25672913 0.13258842 -0.047042713
000180 54 7b b2 bd 5c 69 94 bd 14 9e 3a 3e 7b 5f 46 3e
       -0.08714929 -0.07246658 0.18224365 0.1937236
000190 1b 7f 13 3e 27 83 96 3c 1e 35 25 be 4a 03 9a 3d
       0.14403956 0.018373085 -0.16133544 0.075201586
0001a0 15 c9 22 3e 56 4c 07 3d e1 ae 58 bb be fb 58 be
       0.15897019 0.033031784 -0.003306322 -0.21189782
0001b0 06 4c 61 3d 9b 7a 07 3e b7 0b 2d 3e 39 3a 09 3d
       0.055004142 0.13230364 0.16899 0.03350279
0001c0 44 a6 2f be 7d eb b3 3c 7e d9 ee 3d ea 6b 16 3e
       -0.17153269 0.021962876 0.11662577 0.14689603
0001d0 4e d6 6d bd 37 da 38 be 51 68 86 bd bb 4d 03 3e
       -0.058065705 -0.18051992 -0.065628655 0.1282262
0001e0 04 83 a8 3d 14 aa ac bd 43 9e 09 be de 7b 5a 3b
       0.08228114 -0.08430877 -0.13439278 0.003333799
0001f0 64 6d fb 3d 82 ca 93 bd ab 69 17 3e cb 2f 85 3c
       0.12276724 -0.0721636 0.14786403 0.016258141
000200 74 9a 8c be f8 2b 5c 3e e8 d0 67 be d4 fa b6 3d
       -0.27461588 0.21501148 -0.22638285 0.089345604
000210 f0 d1 78 3e 2a 5d a9 bd e8 7b 27 3e a3 2e c8 3d
       0.24298835 -0.08269723 0.1635586 0.0977452
000220 db 51 eb 3d 07 83 84 3e c5 5f 35 3e 83 88 77 3e
       0.11490222 0.25881216 0.17712314 0.24173169
000230 37 2e dc 3d 5a 28 2e 3d 4c 05 ae 3d f1 a3 95 be
       0.10751002 0.04251895 0.08497104 -0.2922664
000240 a0 3b 39 3c 70 36 13 3e 83 d5 85 3c e3 66 ba ba
       0.01130572 0.14376235 0.016337162 -0.0014221336
000250 bb b1 bb bd 0f af 1d bc 42 bd 47 3e 4e 79 02 3e
       -0.09164759 -0.009624257 0.1950579 0.12741587
000260 32 57 48 3d 70 20 d2 3d 31 ef b9 bc d8 29 a3 3e
       0.04891128 0.10260093 -0.022697063 0.31867862
000270 23 a7 48 3e d5 ac c9 3a 08 31 9e 3d 51 84 39 bd
       0.19595008 0.0015386591 0.07724196 -0.045292202
000280 f7 4a 55 3e 8e 34 70 3d 2b e3 07 be e8 5c 7d bd
       0.20829378 0.05864387 -0.13270251 -0.06185618
000290 80 e0 74 3c 33 c0 75 3d ba 4d 17 bc c9 6a 2a be
       0.014946103 0.05999775 -0.00923484 -0.16642298
0002a0 4f 9e 83 bd ce 16 d5 bc eb 02 82 bd 98 f2 ea bd
       -0.06426679 -0.02601185 -0.06348213 -0.11472052
0002b0 b7 b4 5c be 72 32 24 be de 12 42 be 20 8f 9e bd
       -0.21553312 -0.16034868 -0.1895251 -0.07742143
0002c0 58 46 a8 bd 64 28 94 bd 4a e4 2b bd e8 6c 07 3e
       -0.08216542 -0.072342664 -0.04196576 0.13225138
0002d0 ca e0 92 be ca 2a 01 be 2e 15 08 3e ab 32 2c 3d
       -0.28687125 -0.12613979 0.1328933 0.04204051
0002e0 63 17 b0 3d 4e 97 ea be 79 97 a0 be ff 37 d7 3d
       0.08598211 -0.4581856 -0.31365564 0.10508727
0002f0 bf 9b 0f 3e 53 87 7e 3d 72 af 3e be 0e b1 2e bd
       0.14024256 0.062140774 -0.18621615 -0.04264932
000300 bd 99 8d 3e 81 25 f8 3d b5 c7 c1 3d e4 16 3b be
       0.27656356 0.12116528 0.09461919 -0.18270451
000310 da a5 f7 bc a7 91 91 3e af ef d6 3d a5 26 9d bb
       -0.030230451 0.28431436 0.10494935 -0.0047958666
000320 e6 43 34 3e 4e c6 ad bd 51 38 f7 bd 0e fe 00 3c
       0.17604026 -0.08485089 -0.120712884 0.007873071
000330 7e 04 95 3d 68 de 48 3e 85 3d 23 be db ea 79 bd
       0.072762474 0.19616091 -0.15941437 -0.06101499
000340 56 4b d4 bc 59 3b bc 3c 5c bf 7c 3e c7 51 00 bd
       -0.02591483 0.022977518 0.24682373 -0.03132799
000350 3e 86 eb bd 14 9b 21 be 80 81 44 bb c8 21 53 3e
       -0.11500214 -0.15781814 -0.0029984415 0.20618355
000360 8b 21 a4 3d 64 72 cc bb f6 87 0d be b1 92 da bb
       0.0801421 -0.0062392224 -0.13821396 -0.006670319
000370 13 69 b2 3e 2e 5b ab 3d cf e1 15 3c 19 fe 85 3c
       0.3484579 0.083670005 0.009148075 0.016356515
000380 a9 94 c8 ba 7b 4d 4c bb 43 4d 85 3e 07 97 79 3e
       -0.0015303093 -0.0031174112 0.2603551 0.24374019
000390 5f 49 ab 3d 37 fc 61 3d ba ef 55 be a0 f3 21 3e
       0.08363604 0.05517217 -0.2089223 0.15815592
0003a0 d9 04 e7 3d 79 b4 6e 3e 37 82 39 be 38 b9 9a be
       0.112802215 0.23311032 -0.1811608 -0.30219436
0003b0 e0 0c 57 bd f0 a9 b7 3c 95 fc 86 bd d3 69 bf bd
       -0.052502513 0.0224199 -0.06591145 -0.09346356
0003c0 b1 51 ee bd 32 e8 6f be 86 32 7f 3b 82 59 16 3d
       -0.11636675 -0.23428419 0.0038940026 0.036706455
0003d0 26 61 94 3d 32 cc 07 be 79 da e0 bd fe d3 cc bd
       0.07245092 -0.13261488 -0.1097917 -0.10001372
0003e0 15 eb f9 bd 87 78 1d be 84 fc fe 3d 10 31 d0 3e
       -0.122030415 -0.15378009 0.12450507 0.40662432
0003f0 ae 9a f5 be b3 c6 0c be 61 de c6 bc f3 85 cf bc
       -0.47969574 -0.13747673 -0.02427596 -0.025332427

features.12.bias f4 [32]
000000 76 e4 57 3d c6 a3 27 3e f9 b9 30 3e c0 06 53 bc
       0.05270811 0.16371068 0.17258443 -0.012880027
000010 e6 aa fb 3d 78 eb 48 3e 75 05 19 bd 63 f1 2c be
       0.12288456 0.19621074 -0.03735872 -0.16888957
000020 6d 3f 8a bd 95 d6 04 be a8 87 7d bd d6 34 50 3d
       -0.06750379 -0.12972482 -0.06189695 0.05083164
000030 df 93 7a bd a0 bb 8f 3d 74 d4 a3 3d 73 31 3d bd
       -0.061176177 0.070182085 0.079995066 -0.046189737
000040 fe 11 27 3e 30 4f 47 3d 7f 20 cf bd 24 bf 92 bd
       0.16315457 0.048659503 -0.1011362 -0.071653634
000050 e6 5a 10 be 61 34 46 3e 4e f1 3f 3d c8 3d ca bd
       -0.14097175 0.19355918 0.046860985 -0.09875065
000060 20 93 e3 3d 62 3f 6c bd 69 20 09 3d 25 b7 5c bd
       0.11112046 -0.057677634 0.033478174 -0.053885598
000070 6c 7f 4d bd 8c 1c 1c 3e 04 5f 47 bd 69 bd 17 bc
       -0.050170347 0.15245265 -0.0486746 -0.0092614675
