output/models/220425_0730_ggcnn2_rotate0.4/epoch_34_iou_0.80_statedict.pt (torch, 274205 bytes, 20 tensors)

features.0.weight f4 [16, 1, 11, 11]
0.016077364 -0.056227136 -0.02300445 -0.027846338 -0.033098172 -0.011339702 -0.015456391 -0.0047799996
0.0065396763 -0.03885655 0.035798114 -0.053664953 -0.04796618 0.009680392 -0.0038539139 0.037361957
-0.025321553 0.0444 0.039873194 -0.0027305083 0.01635586 -0.01779565 -0.0063959076 0.016794253
0.05219996 -0.04448297 0.017008113 -0.02284318 -0.035485953 0.045181386 -0.02580097 0.04695629
0.044371042 0.050692033 0.04497236 0.032405406 -0.046236727 0.046605363 0.016667746 0.03555001
0.012027687 -0.04488266 0.043418568 0.04350444 -0.0047855657 0.0061912173 0.015004778 -0.030931849
-0.023681624 -0.007125471 0.039050467 -0.028573213 -0.023893734 0.011616182 0.009023919 -0.022756303
-0.018606137 0.0010818284 0.02714305 -0.032597758 -0.052024983 0.047583047 -0.03316193 -0.02114003
-0.02384195 -0.037601437 0.022450296 0.02318823 -0.02839485 -0.03780878 0.022123175 -0.012830015
-0.02678213 -0.020771386 0.050173767 -0.034746252 0.03536657 0.0015539423 0.002121964 -0.03836137
-0.012205554 0.034331486 0.006498051 -0.048117485 -0.007868226 0.01030778 0.052664757 0.036245223
-0.039121184 0.041708186 -0.025317388 0.040206145 0.05026916 -0.007980672 0.039109427 0.034855444
-0.048544344 -0.03186119 -0.03411574 0.00081669836 -0.027891088 -0.015543438 0.05703434 -0.01811587
-0.039385073 0.037168637 -0.0021195177 0.030795112 -0.029993892 0.004814782 -0.051342446 0.005024429
0.009686442 0.012520374 -0.028270172 0.041671433 0.018640174 0.04886117 -0.048818044 -0.027074995
-0.028226092 0.020453414 0.044250544 -0.049786128 -0.03853069 -0.027468106 0.029498423 0.013819644
0.009007071 -0.05151054 -0.019281387 0.030258436 0.03710409 0.009700789 0.022392541 -0.032862864
0.037594825 0.018257786 -0.018426895 -0.006669662 -0.033876244 -0.0063735237 0.023854196 -0.033099525
0.019902429 -0.016322426 0.027061522 -0.031363968 -0.0071967263 0.0041374536 0.043234885 -0.026024818
0.049345758 0.022884551 -0.026167538 0.007801474 0.0028134657 0.01534995 0.03952958 -0.019335337
-0.01301939 0.012094334 -0.029722087 -0.005033315 -0.042174492 -0.011027802 -0.061697457 0.04512437
0.030847576 0.04207674 -0.028202934 -0.035339866 0.04190263 -0.014053306 -0.023015656 0.050034504
0.034025975 -0.029475465 -0.040519286 0.0061649214 -0.0067997836 0.011156631 0.034537498 0.015342038
-0.03957823 0.05351448 0.046948202 -0.04778676 -0.026273742 -0.01647015 0.048198123 -0.0067311674
-0.039675143 -0.02018974 0.04242775 -0.044565655 0.007816638 0.005276429 0.021907259 -0.035144575
-0.004535126 0.005479245 -0.03424456 0.042927217 -0.041235063 0.006083353 0.030729486 0.06045327
0.05802183 0.02359681 -0.005238064 0.024249239 -0.01628307 -0.018976433 0.013270235 -0.0030412984
-0.03018875 -0.018331474 -0.0038862552 0.014673269 -0.03689415 -0.04262681 -0.034303773 0.017155915
0.014406706 -0.010563217 -0.035183426 0.012471382 0.028593196 -0.018245703 0.03691852 -0.00873302
0.04640703 0.010484829 -0.0018134245 -0.01414856 -0.02487899 -0.046783667 0.02474672 -0.027823966
-0.0549154 0.009990191 -0.06777581 -0.05429981 -0.080144264 -0.058179364 0.0052150805 -0.07033519
-0.042639524 -0.022338938 -0.03893019 0.032922857 0.022866843 -0.019492695 -0.06522564 -0.06540198
00000000: adb4 833c 6d4e 66bd d473 bcbc 011e e4bc
00000010: f391 07bd 28ca 39bc cd3c 7dbc 8ba1 9cbb
00000020: c84a d63b 0c28 1fbd 0ba1 123d c8cf 5bbd
00000030: 2f78 44bd 829a 1e3c f291 7cbb da08 193d
00000040: 256f cfbc c6dc 353d 1352 233d 54f2 32bb
00000050: b9fc 853c 2fc8 91bc c394 d1bb 1a94 893c
00000060: a0cf 553d c633 36bd 9954 8b3c 9f21 bbbc
00000070: b859 11bd 1e10 393d 8e5c d3bc 3d55 403d
00000080: 69be 353d 73a2 4f3d f034 383d 88bb 043d
00000090: b962 3dbd 44e5 3e3d cc8a 883c e39c 113d
000000a0: c70f 453c e1d6 37bd abd7 313d b631 323d
000000b0: 3cd0 9cbb b2df ca3b 9ad6 753c ca64 fdbc
000000c0: f7ff c1bc c87c e9bb 62f3 1f3d 5f12 eabc
000000d0: cbbc c3bc cc51 3e3c 0fd9 133c 6d6b babc
000000e0: e66b 98bc 23cc 8d3a 1a5b de3c 3a85 05bd
000000f0: 2618 55bd 71e6 423d ced4 07bd db2d adbc
00000100: 3150 c3bc f703 1abd afe9 b73c 3ef5 bd3c
00000110: 519c e8bc 61dd 1abd a93b b53c fc34 52bc
00000120: 3366 dbbc c128 aabc 0283 4d3d 1652 0ebd
00000130: 89dc 103d a7ad cb3a a610 0b3b d020 1dbd
00000140: cef9 47bc 2c9f 0c3d 9aed d43b d716 45bd
00000150: bbe9 00bc f6e1 283c 00b7 573d df75 143d
00000160: 893d 20bd 34d6 2a3d 6966 cfbc 33af 243d
00000170: 09e7 4d3d 5dc1 02bc 3531 203d 95c4 0e3d
00000180: 6fd6 46bd e180 02bd f2bc 0bbd b317 563a
00000190: da7b e4bc e7a9 7ebc d79c 693d bc67 94bc
000001a0: 3e52 21bd 243e 183d 9be7 0abb 0846 fc3c
000001b0: c0b5 f5bc 52c5 9d3b 754c 52bd f7a3 a43b
000001c0: e2b3 1e3c 4122 4d3c d996 e7bc aaaf 2a3d
000001d0: 47b3 983c a622 483d 6ef5 47bd 61cc ddbc
000001e0: 683a e7bc eb8d a73c 0f40 353d 8aec 4bbd
000001f0: 5bd2 1dbd cb04 e1bc ada6 f13c ca6b 623c
00000200: 6592 133c b7fc 52bd 00f4 9dbc 8ae0 f73c
00000210: 75fa 173d 0ff0 1e3c 9070 b73c 369b 06bd
00000220: 08fd 193d 5a91 953c 00f4 96bc 2e8d dabb
00000230: d1c1 0abd fed8 d0bb e069 c33c 5e93 07bd
00000240: 6b0a a33c 9cb6 85bc 20b0 dd3c 8177 00bd
00000250: 84d2 ebbb 7a93 873b 1017 313d 0032 d5bc
00000260: c71e 4a3d 6278 bb3c 4e5d d6bc 82a3 ff3b
00000270: 1f62 383b 5b7e 7b3c c5e9 213d 2465 9ebc
00000280: 484f 55bc 5027 463c bc7b f3bc 82ee a4bb
00000290: 29bf 2cbd f4ad 34bc 79b6 7cbd 55d4 383d
000002a0: 0eb4 fc3c a958 2c3d d709 e7bc 89c0 10bd
000002b0: 18a2 2b3d d63f 66bc 548b bcbc fbf0 4c3d
000002c0: d25e 0b3d 8876 f1bc 8df7 25bd 1c03 ca3b
000002d0: b8d0 debb 4dca 363c 3177 0d3d 2c5d 7b3c
000002e0: c81c 22bd 0032 5b3d c24c 403d 0dbc 43bd
000002f0: 083c d7bc 68ec 86bc 656b 453d 2091 dcbb
00000300: 6782 22bd f464 a5bc b8c8 2d3d 7a8a 36bd
00000310: 5b11 003c e5e5 ac3b da76 b33c c2f3 0fbd
00000320: 659b 94bb 3d8b b33b 0644 0cbd 73d4 2f3d
00000330: 19e6 28bd dd56 c73b 67bc fb3c d99d 773d
00000340: 4ca8 6d3d 194e c13c 11a4 abbb 57a6 c63c
00000350: 1364 85bc 7774 9bbc 666b 593c 8550 47bb
00000360: 664e f7bc e32b 96bc 8bb0 7ebb 2768 703c
00000370: 521e 17bd 7399 2ebd 1d82 0cbd 908a 8c3c
00000380: 1b0a 6c3c 5811 2dbc 7f1c 10bd c454 4c3c
00000390: 473c ea3c 0378 95bc e037 173d f114 0fbc
000003a0: 4c15 3e3d 8fc8 2b3c 6eb0 edba 5dcf 67bc
000003b0: 06cf cbbc 3ba0 3fbd a2b9 ca3c 16ef e3bc
000003c0: f8ee 60bd e6ad 233c 0bce 8abd 7a69 5ebd
000003d0: ad22 a4bd 7c4d 6ebd 44e3 aa3b e50b 90bd
000003e0: c8a6 2ebd 2600 b7bc 4375 1fbd 1eda 063d
000003f0: 3f53 bb3c 25af 9fbc 0595 85bd 79f1 85bd

features.0.bias f4 [16]
-0.07165643 -0.1405882 -0.29703987 -0.31612572 0.12026335 -0.23153517 -0.13781048 -0.14245608
0.04624377 -0.3170178 -0.21528228 -0.14922349 -0.26650697 -0.2379474 -0.28859273 0.06714233
00000000: 9bc0 92bd 5af6 0fbe 9c15 98be 3bdb a1be
00000010: a24c f63d 8e17 6dbe 311e 0dbe 02e0 11be
00000020: 1b6a 3d3d 2850 a2be f572 5cbe 0bce 18be
00000030: 9a73 88be 7ca8 73be 6dc2 93be eb81 893d

features.2.weight f4 [16, 16, 5, 5]
-0.0394229 0.091890104 -0.07597112 -0.11078311 -0.107590035 -0.05505354 -0.03341436 0.023583261
-0.033731163 -0.05167047 -0.106162176 -0.0362714 0.04375904 -0.19418281 -0.13266607 -0.058452226
-0.10044895 -0.002492448 -0.04959801 -0.012077258 -0.016307507 0.028417658 0.035288725 -0.09353622
-0.07045868 0.020722589 -0.15011698 0.038169265 -0.08081683 -0.051572114 -0.017519759 -0.0018525132
0.042608134 0.03284351 -0.045720927 0.037473954 0.010686551 -0.039088055 -0.07417056 -0.021828134
0.10306875 0.045333005 -0.013337533 -0.113313474 -0.015733304 0.08619638 -0.016539238 0.004121109
-0.10946908 0.043903343 0.01813554 0.09908202 0.058065783 0.06850292 0.15134068 0.04868549
0.15226257 -0.059021227 0.045121837 0.03717585 -0.0399336 0.0959575 0.068621226 0.049133286
0.15018454 -0.12697703 -0.0023324112 -0.1814793 -0.085528985 -0.06339445 -0.10470042 -0.092422575
-0.13709314 -0.07278924 -0.12032124 -0.18727088 -0.22573233 -0.43386197 -0.3151095 -0.18177752
-0.04613276 -0.01695696 -0.28116074 -0.3350422 -0.13402711 0.041911095 0.14401983 0.03675813
-0.0439488 -0.1616212 0.099859774 0.19155513 0.104428895 0.020522187 0.13169037 -0.020957476
0.06354176 0.12229003 0.22058919 0.21389608 0.08431731 0.07427307 -0.044232868 -0.24086025
-0.16789287 0.11684037 0.02143492 0.056691173 -0.27064016 -0.33688557 0.11716276 0.13679153
0.10420139 -0.17330463 -0.19132939 0.1352738 0.12229795 0.11448747 -0.15284772 -0.3908869
0.118427604 0.03821614 0.016868275 -0.11808253 -0.26165327 -0.003984857 0.10370028 0.07319428
-0.06299725 0.006191898 0.0668083 -0.03794793 0.05681257 -0.038216315 -0.051948443 0.0054739607
0.061831653 -0.026597774 -0.07609366 -0.00072076527 0.009848862 -0.0059232973 0.010710549 -0.022701146
-0.07667547 0.00930374 0.020537429 0.029702047 -0.1373819 -0.094602756 0.01890571 -0.015946245
-0.10373447 -0.19033395 -0.054038513 -0.066687234 -0.06619941 0.00091459276 -0.042121377 -0.13037317
0.015357825 0.06527619 0.042766765 -0.038977474 -0.06815977 0.065758675 0.06533448 -0.0036139023
0.00416402 -0.12793332 0.04067584 -0.02539359 0.076720595 -0.11593075 -0.0014059222 0.009402946
-0.104428105 -0.09861353 -0.1828789 -0.14527342 -0.020763226 -0.14714733 -0.27122128 -0.35239816
-0.32239273 0.005118833 -0.05751123 -0.15058249 -0.38626692 -0.37878895 0.017874278 -0.04653898
-0.06432063 -0.060692657 -0.10575515 0.09308657 0.0004621573 0.049268086 -0.018357271 -0.12226667
0.028730934 0.04852516 0.04876515 -0.027313229 0.034024406 -0.07520715 0.05943581 -0.0040400783
-0.010385433 0.16015412 0.013862087 0.0874573 0.09986624 -0.050728276 0.16781296 -0.13667022
0.053084668 -0.079374366 -0.06352948 -0.007828234 -0.14660655 -0.10056362 -0.053488385 0.00994064
0.11009956 0.042664222 -0.041719794 -0.08674527 -0.1744471 -0.33252332 -0.11215821 -0.0064851176
0.0049496726 -0.24835134 -0.2471779 -0.0026812854 -0.06414782 0.0052424506 -0.15720661 -0.1066697
0.081873864 -0.01751985 0.0971597 -0.155635 -0.010606811 0.08359818 -0.008595934 0.053617634
-0.09806167 0.022570776 -0.09781192 -0.020646563 -0.063265346 -0.023355577 -0.029083204 -0.006687241
00000000: e879 21bd e130 bc3d bf96 9bbd 41e2 e2bd
00000010: 2a58 dcbd d27f 61bd 7fdd 08bd af31 c13c
00000020: b029 0abd 6aa4 53bd 8e6b d9bd 5291 14bd
00000030: ae3c 333d dcd7 46be 9dd9 07be 9a6b 6fbd
00000040: 2eb8 cdbd 5758 23bb 4827 4bbd b1df 45bc
00000050: 5297 85bc 26cc e83c e98a 103d eb8f bfbd
00000060: a44c 90bd 6bc2 a93c 44b8 19be 6057 1c3d
00000070: 4b83 a5bd 483d 53bd 9985 8fbc 07d0 f2ba
00000080: de85 2e3d eb86 063d de45 3bbd 4a7e 193d
00000090: a516 2f3c cc1a 20bd bce6 97bd ead0 b2bc
000000a0: b515 d33d 1aaf 393d ab85 5abc e510 e8bd
000000b0: 21e3 80bc ba87 b03d 4c7d 87bc 5e0a 873b
000000c0: 5331 e0bd fed3 333d fc90 943c 84eb ca3d
000000d0: 63d6 6d3d 424b 8c3d 0df9 1a3e 706a 473d
000000e0: b8ea 1b3e 3ec0 71bd add1 383d b445 183d
000000f0: 6a91 23bd 5e85 c43d 4989 8c3d fc3f 493d
00000100: fac9 193e 4406 02be 5edb 18bb b6d5 39be
00000110: d229 afbd f3d4 81bd 2c6d d6bd 0c48 bdbd
00000120: 2562 0cbe 8612 95bd fb6a f6bd f0c3 3fbe
00000130: 6026 67be 2823 debe 0856 a1be e323 3abe
00000140: b4f5 3cbd 53e9 8abc 4df4 8fbe a78a abbe
00000150: 673e 09be f8aa 2b3d ef79 133e b18f 163d
00000160: a803 34bd 0780 25be 4883 cc3d 0727 443e
00000170: d1de d53d 251e a83c d7d9 063e 03af abbc
00000180: 2f22 823d 3273 fa3d 22e2 613e 9307 5b3e
00000190: 8eae ac3d 7b1c 983d 862d 35bd 12a4 76be
000001a0: 1cec 2bbe 014a ef3d 4998 af3c 0135 683d
000001b0: 5991 8abe 447c acbe 07f3 ef3d 1413 0c3e
000001c0: 8a67 d53d c576 31be daeb 43be 3785 0a3e
000001d0: 5977 fa3d 6878 ea3d 1d84 1cbe 5422 c8be
000001e0: 2c8a f23d 8788 1c3d 562f 8a3c 41d5 f1bd
000001f0: 6bf7 85be 6793 82bb d060 d43d e2e6 953d
00000200: b404 81bd 68e5 ca3b cad2 883d 4a6f 1bbd
00000210: 4cb4 683d b688 1cbd e4c7 54bd e95e b33b
00000220: 3043 7d3d 93e3 d9bc fed6 9bbd bdf1 3cba
00000230: 1f5d 213c 3818 c2bb 4c7b 2f3c c1f7 b9bc
00000240: 0708 9dbd b76e 183c 1c3e a83c b551 f33c
00000250: d7ad 0cbe 17bf c1bd 26e0 9a3c b3a1 82bc
00000260: bd72 d4bd e7e6 42be 7d57 5dbd 5193 88bd
00000270: 8e93 87bd 48c1 6f3a 7787 2cbd 8b80 05be
00000280: 639f 7b3c 86af 853d 342c 2f3d d8a6 1fbd
00000290: 5997 8bbd 7cac 863d 15ce 853d 38d7 6cbb
000002a0: 5572 883b f400 03be b69b 263d 3806 d0bc
000002b0: b01f 9d3d 1a6d edbd ec46 b8ba d00e 1a3c
000002c0: 67de d5bd e4f5 c9bd 9b44 3bbe 8ec2 14be
000002d0: a417 aabc caad 16be 84dd 8abe 886d b4be
000002e0: a910 a5be e2bb a73b e590 6bbd 4c32 1abe
000002f0: c7c4 c5be a0f0 c1be 146d 923c a89f 3ebd
00000300: 89ba 83bd dd98 78bd 2896 d8bd 2ca4 be3d
00000310: b44d f239 55cd 493d fd61 96bc f366 fabd
00000320: 235d eb3c 51c2 463d f7bd 473d febf dfbc
00000330: 2d5d 0b3d 3506 9abd f772 733d a262 84bb
00000340: aa27 2abc 71ff 233e cf1d 633c d01c b33d
00000350: ac86 cc3d 74c8 4fbd 29d7 2b3e 47f3 0bbe
00000360: 4f6f 593d 078f a2bd be1b 82bd fe41 00bc
00000370: 0720 16be 4df4 cdbd a316 5bbd 11de 223c
00000380: e17b e13d aec0 2e3d 60e2 2abd 81a7 b1bd
00000390: 43a2 32be 7f40 aabe 34b3 e5bd 1c81 d4bb
000003a0: dd30 a23b d04f 7ebe 341c 7dbe 81b8 2fbb
000003b0: ef5f 83bd ddc8 ab3b c5fa 20be a575 dabd
000003c0: 7cad a73d ca85 8fbc aafb c63d c85e 1fbe
000003d0: 31c8 2dbc 8635 ab3d f6d5 0cbc 2a9e 5b3d
000003e0: 8fd4 c8bd 59e6 b83c 9e51 c8bd fb22 a9bc
000003f0: 4391 81bd 3254 bfbc e63f eebc a520 dbbb

features.2.bias f4 [16]
0.045143023 -0.06292373 -0.0038979214 -0.03907064 -0.07175925 -0.05342251 0.012607798 -0.01985055
0.036864452 -0.15617141 -0.036337826 -0.016518308 -0.028560957 0.01195019 0.053161398 -0.24931775
00000000: e4e7 383d 28de 80bd 4574 7fbb 8908 20bd
00000010: 83f6 92bd 90d1 5abd f090 4e3c 9f9d a2bc
00000020: 2eff 163d 66eb 1fbe f9d6 14bd 6751 87bc
00000030: abf8 e9bc bbca 433c c4bf 593d 274d 7fbe

features.5.weight f4 [16, 16, 5, 5]
-0.054494552 -0.029637666 0.044381097 -0.06993093 -0.10838225 -0.055177093 -0.022166735 -0.029620638
-0.06628703 -0.036472823 -0.018588597 -0.03600671 0.05120885 0.0005050474 -0.043796614 0.070968136
0.059691183 0.058773477 -0.08097954 0.02963342 0.061460033 0.082470186 0.025213558 -0.061666824
-0.042282965 0.084599145 -0.08246921 0.021319404 0.01913371 -0.08590318 -0.08038681 0.0051538274
0.008956279 -0.05560371 0.07737023 0.00049577275 0.00012615073 -0.016392574 -0.06782361 -0.07523468
-0.069793545 0.06515175 0.0642677 -0.04922433 -0.079152286 0.031656586 -0.00074563717 -0.014861583
-0.07944494 0.052548572 0.086214 0.0060284766 -0.06844848 0.026047528 0.038257238 0.0066154655
-0.01368498 -0.051078837 0.024716504 0.055234477 0.05793323 0.027354807 -0.03130849 0.040426735
-0.06584654 0.07764582 -0.0030893655 0.04119136 -0.06858813 -0.036291853 -0.03470586 0.0008447436
-0.048297316 -0.03133931 0.05605205 0.032822873 -0.028488023 -0.07282028 0.01620467 0.07548766
0.013995613 -0.005322911 0.06208527 -0.036807675 -0.04129531 -0.060274065 0.005128436 0.0057387576
-0.025428217 0.07915144 0.011986482 -0.06341345 0.07442488 0.027551979 0.027785942 -0.074341126
0.0030719042 0.013702884 -0.06887659 -0.04928944 0.03219825 -0.045209274 -0.00025130785 0.007067293
0.04110782 0.035234332 -0.097336225 0.0046557393 -0.025570065 -0.04961589 -0.05095202 -0.059047524
-0.031811472 -0.01248769 0.04160434 0.0020870457 0.0006335162 -0.06753671 -0.07877602 -0.04440362
0.087378524 -0.0593779 -0.07506889 0.070509054 -0.030470178 -0.017325306 0.044091243 -0.07428566
-0.015487235 -0.0014019469 -0.08775995 -0.04704033 0.06777721 -0.11108401 -0.05686837 0.06328101
0.012258691 -0.006232238 -0.05383638 0.042458933 -0.0069828574 -0.03286922 -0.06600674 -0.12563011
-0.09350239 -0.058818825 -0.020177202 -0.0599015 -0.090958044 -0.035843305 -0.049701933 0.021396082
-0.035222456 -0.07854644 0.045168426 -0.1152398 -0.040949002 -0.11823425 -0.04103126 0.028769493
-0.09379619 0.012968436 -0.06189244 1.0351898e-05 -0.12156274 0.02511452 -0.006371398 -0.03053665
-0.106796086 -0.05448574 -0.007733064 0.03826333 -0.13033454 -0.077923656 -0.07413131 0.020810006
0.009135413 0.0052969065 -0.12774643 -0.03372496 -0.120252945 -0.04153725 -0.014991278 -0.054592635
-0.09424551 -0.104633 -0.055991855 -0.078647986 0.008655939 -0.100815974 -0.09114168 0.034821577
-0.08059994 -0.11366745 -0.0180702 -0.09490182 -0.06549228 0.0017758216 -0.040662646 -0.010192675
-0.043190442 0.035793 -0.025066804 -0.1393703 -0.05068042 -0.082329914 -0.047138996 -0.110239275
-0.09898338 -0.012265729 -0.03797579 0.044246577 -0.13322519 0.0012387228 -0.004874755 -0.01826553
-0.023401683 -0.029695762 -0.03692205 -0.009792795 -0.03446133 -0.013437757 -0.031425923 0.052269142
-0.081962384 -0.012121826 -0.022108875 0.040466417 -0.065238476 -0.008390836 0.074894086 -0.064554654
0.07463977 0.082687944 0.023713395 -0.06678951 -0.0681701 0.053445388 -0.06386389 -0.0541226
-0.06222853 -0.07545537 -0.036868677 -0.013320595 0.07049188 0.0020493865 0.042349994 -0.076675735
-0.033746917 0.071317405 0.0049282163 -0.050623063 -0.07360114 -0.07529515 0.07863367 0.07337333
00000000: ae35 5fbd b1ca f2bc f4c8 353d f337 8fbd
00000010: 83f7 ddbd 6001 62bd 0397 b5bc fba6 f2bc
00000020: 7fc1 87bd 8764 15bd 1d47 98bc c67b 13bd
00000030: 5fc0 513d 2865 043a 1464 33bd be57 913d
00000040: be7e 743d 75bc 703d 9ad8 a5bd c9c1 f23c
00000050: 84bd 7b3d 21e6 a83d aa8c ce3c 5a96 7cbd
00000060: e730 2dbd 5142 ad3d 9ee5 a8bd 08a6 ae3c
00000070: 4cbe 9c3c 02ee afbd d7a1 a4bd 70e1 a83b
00000080: 5bbd 123c b7c0 63bd 4874 9e3d bff6 013a
00000090: 5447 0439 b849 86bc 1be7 8abd a414 9abd
000000a0: ebef 8ebd 486e 853d c99e 833d 739f 49bd
000000b0: 981a a2bd 56aa 013d dd76 43ba ff7d 73bc
000000c0: 07b4 a2bd 2c3d 573d f790 b03d 878a c53b
000000d0: b72e 8cbd a061 d53c 9fb3 1c3d 8cc6 d83b
000000e0: f736 60bc 0b38 51bd 447a ca3c 8c3d 623d
000000f0: 654b 6d3d 3017 e03c 553d 00bd 8196 253d
00000100: 8dda 86bd c604 9f3d f476 4abb 46b8 283d
00000110: ef77 8cbd c4a6 14bd bb27 0ebd c971 5d3a
00000120: 68d3 45bd a65d 00bd d696 653d 4771 063d
00000130: b75f e9bc cd22 95bd a8bf 843c 4699 9a3d
00000140: db4d 653c d06b aebb 204d 7e3d a5c3 16bd
00000150: 4525 29bd f0e1 76bd 700c a83b 300c bc3b
00000160: d64e d0bc 261a a23d f362 443c e9de 81bd
00000170: 126c 983d b0b4 e13c 589f e33c 2940 98bd
00000180: 0052 493b 1082 603c 2b0f 8dbd b9e3 49bd
00000190: 50e2 033d 5c2d 39bd f8c1 83b9 c094 e73b
000001a0: ac60 283d e051 103d 3758 c7bd 2c8f 983b
000001b0: 5078 d1bc 083a 4bbd 11b3 50bd d1db 71bd
000001c0: bf4c 02bd 2b99 4cbc 5069 2a3d d1c6 083b
000001d0: 8d12 263a b050 8abd 5255 a1bd 92e0 35bd
000001e0: 83f3 b23d 3e36 73bd b8bd 99bd 0d67 903d
000001f0: 989c f9bc cded 8dbc 0599 343d 1523 98bd
00000200: 2cbe 7dbc 88c1 b7ba 7dbb b3bd 5cad 40bd
00000210: c7ce 8a3d 0380 e3bd cfee 68bd 7999 813d
00000220: add8 483c cd37 ccbb 8983 5cbd 6be9 2d3d
00000230: 74d0 e4bb e0a1 06bd 8b2e 87bd 2ea5 00be
00000240: 2e7e bfbd 02ec 70bd a94a a5bc 465b 75bd
00000250: 3648 babd 6ed0 12bd 4194 4bbd d646 af3c
00000260: 6c45 10bd f5dc a0bd 8702 393d d802 ecbd
00000270: 24ba 27bd cc24 f2bd 6510 28bd 00ae eb3c
00000280: 3818 c0bd 9079 543c ed82 7dbd 10ad 2d37
00000290: e3f5 f8bd f7bc cd3c 29c7 d0bb ff27 fabc
000002a0: e8b7 dabd 702c 5fbd a465 fdbb 02ba 1c3d
000002b0: 6b76 05be 7096 9fbd 28d2 97bd bf79 aa3c
000002c0: b3ac 153c ac91 ad3b f6cf 02be 2f23 0abd
000002d0: 2d47 f6bd f722 2abd fa9d 75bc 879c 5fbd
000002e0: ca03 c1bd d449 d6bd b757 65bd 3212 a1bd
000002f0: a4d1 0d3c 9b78 cebd 7da8 babd 12a1 0e3d
00000300: 9511 a5bd 7bca e8bd f507 94bc e35b c2bd
00000310: d120 86bd afc2 e83a e08d 26bd 2dff 26bc
00000320: 76e8 30bd ae9b 123d e658 cdbc 17b7 0ebe
00000330: 4696 4fbd 969c a8bd d214 41bd 21c5 e1bd
00000340: ccb7 cabd 32f6 48bc 818c 1bbd e63b 353d
00000350: 2f6c 08be a45c a23a 69bc 9fbb 98a1 95bc
00000360: e3b4 bfbc 8744 f3bc 933b 17bd f671 20bc
00000370: 5327 0dbd 0a2a 5cbc 78b8 00bd 2b18 563d
00000380: e5db a7bd a09a 46bc ac1d b5bc 1dc0 253d
00000390: c09b 85bd b879 09bc 1262 993d 3b35 84bd
000003a0: bcdc 983d 4c58 a93d 9842 c23c f0c8 88bd
000003b0: c49c 8bbd 8de9 5a3d 12cb 82bd a9af 5dbd
000003c0: 58e3 7ebd 5888 9abd 9c03 17bd a03e 5abc
000003d0: 0c5e 903d 004f 063b 3077 2d3d 2b08 9dbd
000003e0: 353a 0abd dc0e 923d e07c a13b 215a 4fbd
000003f0: 32bc 96bd 5834 9abd b10a a13d c244 963d

features.5.bias f4 [16]
-0.105765015 0.05104876 -0.045613475 0.015145231 -0.032405425 0.111299515 -0.26556876 -0.07850446
-0.034934018 0.0812449 -0.08244551 -0.027908169 0.015961686 0.0051913853 0.02193858 -0.11495688
00000000: 549b d8bd 8118 513d 32d5 3abd b423 783c
00000010: 8dbb 04bd 00f1 e33d a1f8 87be f2c6 a0bd
00000020: f916 0fbd ba63 a63d 31d9 a8bd ac9f e4bc
00000030: 15c2 823c 7f1c aa3b 89b8 b33c 836e ebbd

features.7.weight f4 [16, 16, 5, 5]
-0.07296261 -0.0074462118 0.017952459 0.008365194 0.0065268707 -0.07746857 -0.072155334 -0.073784724
-0.073430926 -0.0026840945 -0.06576212 0.010850636 -0.050665785 -0.09759042 0.112452224 0.0102694575
-0.026325723 -0.047910318 -0.09236416 0.023383437 -0.070264526 -0.03510437 -0.1186904 -0.02466169
0.063214004 -0.1219637 -0.19194286 -0.19400114 -0.27072707 -0.19211468 -0.01944545 -0.14159393
-0.19336393 -0.3522246 -0.33798105 -0.04258454 0.014394983 -0.051388614 -0.28103662 -0.37548757
-0.030530347 -0.11799428 -0.13285145 -0.1629067 -0.27057657 0.065678716 0.057118554 0.06377717
-0.092605986 -0.0739737 0.01995977 0.08548508 0.041863732 -0.038740393 -0.08995333 0.038410295
0.055741075 0.082495265 -0.07375918 -0.05855658 0.022517638 -0.041793074 0.080421165 -0.01392704
-0.1015459 0.039094537 0.0048795696 -0.055179533 0.016816566 -0.074776866 -0.10445325 -0.10046199
-0.117328964 -0.052119628 -0.07195619 0.020328628 -0.04101034 0.104992256 0.16139545 0.031974044
-0.04691988 0.10243774 0.06282685 0.012570525 -0.029509207 0.069881655 0.112190165 -0.06279477
-0.025741432 0.011553814 0.03515643 0.080496475 0.00077100215 -0.103643045 -0.05042917 -0.22578475
-0.22777697 -0.16863428 -0.27031446 -0.19231379 -0.029618513 -0.024376431 0.18220581 0.014827816
0.23748599 -0.18527916 -0.06347728 0.31162742 0.06847966 0.14989668 -0.17981672 0.0001758357
0.036748707 -0.036034893 0.10578284 -0.16150066 0.14380877 -0.2704775 -0.12561965 -0.11598785
-0.16626972 0.12759405 -0.18620461 -0.06898485 -0.031970967 0.0810036 0.07123848 0.16469081
0.08740965 0.093469396 0.0981634 0.12105446 0.1464428 -0.02134692 0.096838936 -0.063553855
-0.0037143617 -0.09640657 -0.0603314 0.086961925 -0.064983 -0.15801263 0.011657066 -0.062311154
0.13603245 -0.057716288 -0.10368539 -0.035957944 0.0775441 0.3103408 0.1833364 0.14836617
0.1384004 0.09790961 0.22756998 0.24183124 0.21172696 0.048312724 0.22522902 0.289111
0.14692743 -0.052640732 0.057462867 0.24495585 0.33730793 0.098104484 -0.10177168 0.24743383
0.27751872 0.088355914 0.12210457 -0.15164873 0.2056463 0.24685831 -0.07168289 0.1698369
-0.10933666 -0.18916921 -0.058185786 0.21897362 -0.0070595997 0.027097536 -0.17487854 0.013562406
0.22151512 -0.09680861 -0.08609654 -0.039624628 0.08915269 0.033202123 -0.16136587 0.116054796
0.07657513 0.049243383 -0.103648394 0.17985585 0.28424639 0.17007832 -0.111016236 0.03089863
-0.082081266 0.08125012 0.06277492 -0.00049828726 -0.022318622 0.062342785 -0.050698917 0.01745055
0.0742668 -0.037183084 -0.00454314 -0.048269007 0.07820473 -0.005923361 -0.023868086 -0.05613255
-0.07291843 0.05641485 0.070921496 -0.039824586 0.022234892 -0.06290646 0.02330653 0.0709083
0.019965421 -0.25232938 -0.18647154 -0.32480156 -0.39520994 -0.24398771 -0.36879465 -0.4143473
-0.36807874 -0.5348058 -0.3900386 -0.2289517 -0.28670588 -0.16133244 -0.06935056 0.0126154525
0.025233002 -0.013299808 -0.03972678 -0.014695654 -0.076809324 0.35244524 0.4679601 0.40946853
0.39561844 0.22048594 -0.07403506 -0.0075297803 -0.16157578 -0.10766658 -0.0321614 -0.02617907
00000000: 6c6d 95bd 5aff f3bb 0911 933c 2b0e 093c
00000010: 5cdf d53b d7a7 9ebd 2dc6 93bd 721c 97bd
00000020: f462 96bd a2e7 2fbb 4aae 86bd dec6 313c
00000030: ed86 4fbd 7cdd c7bd 5a4d e63d 3a41 283c
00000040: 0ba9 d7bc 9c3d 44bd 6c29 bdbd 9f8e bf3c
00000050: d9e6 8fbd 9ac9 0fbd f413 f3bd 5007 cabc
00000060: 5876 813d 1bc8 f9bd ab8c 44be 3ca8 46be
00000070: bd9c 8abe b6b9 44be 104c 9fbc 00fe 10be
00000080: 3201 46be c856 b4be da0b adbe 206d 2ebd
00000090: efd8 6b3c de7c 52bd 08e4 8fbe e83f c0be
000000a0: c71a fabc fca6 f1bd 360a 08be 04d1 26be
000000b0: 0389 8abe 9082 863d 25f5 693d 9b9d 823d
000000c0: 35a8 bdbd 867f 97bd ac82 a33c cd12 af3d
000000d0: 4e79 2b3d 3fae 1ebd 7439 b8bd 1d54 1d3d
000000e0: c150 643d 47f3 a83d 0e0f 97bd 06d9 6fbd
000000f0: e976 b83c 372f 2bbd dab3 a43d 3d2e 64bc
00000100: 4cf7 cfbd 9821 203d cce4 9f3b ef03 62bd
00000110: e5c2 893c 9d24 99bd 96eb d5bd 04bf cdbd
00000120: 2b4a f0bd 647b 55bd c45d 93bd 3988 a63c
00000130: 75fa 27bd 2e06 d73d d944 253e 37f7 023d
00000140: 0f2f 40bd e1ca d13d 5dab 803d 9af4 4d3c
00000150: 4bbd f1bc 1d1e 8f3d f5c3 e53d 8b9a 80bd
00000160: b2df d2bc 354c 3d3c 3000 103d 56db a43d
00000170: 141d 4a3a ce42 d4bd d18e 4ebd 1e34 67be
00000180: 5e3e 69be 77ae 2cbe a866 8abe e8ed 44be
00000190: 86a2 f2bc 15b1 c7bc 2994 3a3e 5ef0 723c
000001a0: 872f 733e d2b9 3dbe 6000 82bd a18d 9f3e
000001b0: 103f 8c3d 847e 193e e021 38be 8960 3839
000001c0: d085 163d 5399 13bd aca4 d83d 6e60 25be
000001d0: 9b42 133e 077c 8abe 70a2 00be 0a8b edbd
000001e0: 9c42 2abe 04a8 023e 6cac 3ebe ee47 8dbd
000001f0: fdf3 02bd 37e5 a53d 7be5 913d b5a4 283e
00000200: d503 b33d e26c bf3d e509 c93d 67eb f73d
00000210: 1af5 153e bcdf aebc 7e53 c63d 8628 82bd
00000220: a66c 73bb cf70 c5bd 0f1e 77bd 1819 b23d
00000230: cf15 85bd 10ce 21be 47fd 3e3c fb39 7fbd
00000240: 174c 0b3e ea67 6cbd 0159 d4bd a348 13bd
00000250: 71cf 9e3d fde4 9e3e 8abc 3b3e 4ded 173e
00000260: d6b8 0d3e d584 c83d 1b08 693e 9ca2 773e
00000270: f4ce 583e 90e3 453d 70a2 663e 5b06 943e
00000280: 2574 163e cf9d 57bd 2f5e 6b3d b5d5 7a3e
00000290: a0b3 ac3e 01eb c83d ac6d d0bd 4b5f 7d3e
000002a0: ef16 8e3e f2f3 b43d f611 fa3d ce49 1bbe
000002b0: f294 523e 6dc8 7c3e 7bce 92bd b9e9 2d3e
000002c0: e6eb dfbd 93b5 41be 3854 6ebd 9f3a 603e
000002d0: 3754 e7bb a7fb dd3c 5c13 33be db34 5e3c
000002e0: dcd4 623e 9843 c6bd 6253 b0bd 6f4d 22bd
000002f0: af95 b63d f3fe 073d 183d 25be 23ae ed3d
00000300: 6cd3 9c3d 6eb3 493d 9c45 d4bd 222c 383e
00000310: be88 913e 0329 2e3e 7b5c e3bd 201f fd3c
00000320: 391a a8bd 7766 a63d 2390 803d 7e9f 02ba
00000330: 8bd5 b6bc 265b 7f3d aba9 4fbd 75f4 8e3c
00000340: 3119 983d 4a4d 18bd 9fde 94bb b9b5 45bd
00000350: cd29 a03d c118 c2bb 0187 c3bc 3feb 65bd
00000360: 4256 95bd 4213 673d 4a3f 913d 1b1f 23bd
00000370: f325 b63c 1ad5 80bd 56ed be3c 5f38 913d
00000380: 868e a33c 5131 81be 65f2 3ebe 644c a6be
00000390: f558 cabe ead7 79be a7d2 bcbe 5425 d4be
000003a0: d174 bcbe 08e9 08bf 24b3 c7be 5072 6abe
000003b0: 1dcb 92be 5534 25be ab07 8ebd 0bb1 4e3c
000003c0: 71b5 ce3c 70e7 59bc 8cb8 22bd 0ac6 70bc
000003d0: 354e 9dbd b473 b43e 7798 ef3e dca5 d13e
000003e0: 808e ca3e 11c7 613e b29f 97bd 60bc f6bb
000003f0: 1f74 25be 4c80 dcbd acbb 03bd 7d75 d6bc

features.7.bias f4 [16]
-0.09391975 -0.102288924 -0.07554713 -0.17325291 -0.029518157 -0.012061427 0.10519187 -0.045139626
-0.2069226 -0.11762227 0.04850219 -0.25033608 -0.03523552 -0.07375657 -0.112587884 -0.20809777
00000000: ff58 c0bd db7c d1bd 74b8 9abd 3669 31be
00000010: 10d0 f1bc 4b9d 45bc d66e d73d 54e4 38bd
00000020: 85e3 53be f2e3 f0bd 3baa 463d 0d2c 80be
00000030: 1f53 10bd af0d 97bd 7a94 e6bd 9517 55be

features.10.weight f4 [32, 16, 5, 5]
-0.42145145 -0.27592745 -0.14029375 -0.22742032 -0.13328563 -0.12642202 0.037604053 -0.14520295
-0.2090609 -0.14741834 -0.32537782 0.0014047881 -0.059580863 -0.08715148 -0.2447961 0.14340442
0.18207231 -0.018990988 0.12322513 0.21766192 -0.11044226 -0.12064202 -0.264002 -0.17853206
0.13512635 -0.10779381 0.06850405 0.21699978 0.030240245 -0.032525104 0.20830417 0.1511799
-0.01780882 0.105232544 -0.005086305 0.26213905 0.1276239 -0.038293764 -0.1068684 -0.34840855
0.15122613 0.04806722 0.05516984 0.0020191749 -0.15537992 0.105758674 -0.29053476 -0.44259924
-0.079441875 0.1541707 0.08184036 0.00436373 -0.10745478 -0.24799101 -0.061566893 0.11374944
0.1067634 -0.035697307 -0.113064766 -0.22054686 0.23508014 0.11590191 0.1088613 -0.074330114
-0.08300243 0.044013623 0.0022599257 -0.037649497 0.0036538346 -0.023252469 -0.08557031 -0.14219029
-0.114963114 -0.07763817 -0.06425753 -0.03927447 0.03451363 -0.052103862 -0.34188044 -0.6511583
-0.34143895 -0.2503535 0.18392159 -0.5728125 -0.8141612 -0.5808848 -0.3382439 0.43901804
-0.1666893 -0.53903264 -0.91647416 -0.48307166 -0.43429813 0.28788963 -0.068023264 -0.08170204
-0.5346953 -0.7021732 -0.25410137 -0.048877627 -0.5210547 -0.19433239 0.09146565 0.21878335
0.09630665 -0.33521757 -0.18547028 0.2478696 0.30113322 0.34977004 0.039662223 -0.023794446
0.20355994 0.36114147 0.57107127 -0.19127198 -0.11139347 -0.06064356 0.25600174 0.4515744
-0.20254436 -0.57068586 -0.3655885 -0.38919687 0.02952936 -0.18272586 0.24802466 0.37507242
0.45498604 0.078627236 0.06332922 0.11727676 0.26829678 0.21890719 0.04046755 -0.116276845
0.23538636 0.15550002 0.050602693 0.01998073 -0.0736511 0.046647288 -0.05201009 0.008128495
0.18631624 0.18500155 0.18071362 -0.0985023 -0.46548316 -0.07558601 -0.24616845 -0.13023047
0.025539996 0.12862216 0.11255348 -0.03496845 -0.07917424 0.0016649368 0.09794134 0.19620952
-0.070185326 -0.058556184 -0.10937598 -0.07824117 0.08285135 -0.14316118 -0.13881655 -0.11746296
-0.3464925 -0.14034483 0.24969721 0.27796558 0.007731941 -0.23341747 -0.3715194 0.22197148
0.24233022 0.2089287 0.10209968 -0.49862677 -0.5236518 -0.08949643 -0.07407244 -0.12326799
0.006406067 -0.4337893 -0.5851654 -0.050373286 -0.22016598 -0.261279 0.12138486 -0.26229355
-0.23915184 -0.29076475 -0.24772352 0.30171806 0.15286207 -0.7739829 -0.6676998 -0.529409
0.09111011 0.12302953 0.07462602 0.23971997 0.24833539 -0.31564826 -0.44427294 -0.38063806
-0.30656937 -0.36875567 -0.086576544 -0.3621735 -0.58376956 -0.2126017 -0.014107045 0.18858065
-0.1909388 -0.44563016 -0.11569625 0.1326966 0.1808289 -0.47575104 -0.47553778 0.22117886
0.47716755 -0.55897063 -0.07215846 -0.13116121 -0.07711454 -0.07832258 -0.40010843 -0.272641
0.115620084 0.16122778 0.10456926 -0.22055201 -0.39382833 0.16062857 0.15730113 0.30056393
-0.023262432 -0.09775819 -0.13496047 0.08952133 0.21424934 0.012457369 0.27042177 -0.044050697
0.049157117 0.21971674 -0.09640933 0.07908791 0.1304904 0.2696108 0.10584607 -0.35479382
00000000: 7cc8 d7be 5d46 8dbe 2aa9 0fbe dfe0 68be
00000010: 077c 08be c674 01be b506 1a3d 15b0 14be
00000020: 1014 56be d5f4 16be ec97 a6be de20 b83a
00000030: 100b 74bd 7a7c b2bd d4ab 7abe 9cd8 123e
00000040: 2a71 3a3e fd92 9bbc 755d fc3d c4e2 5e3e
00000050: 8d2f e2bd 2a13 f7bd 452b 87be 1cd1 36be
00000060: 905e 0a3e 00c3 dcbd da4b 8c3d 3135 5e3e
00000070: 64ba f73c 0b39 05bd b04d 553e e7ce 1a3e
00000080: cde3 91bc 2984 d73d 05ab a6bb 1737 863e
00000090: d7af 023e ecd9 1cbd d2dd dabd 9b62 b2be
000000a0: 06db 1a3e 22e2 443d c5f9 613d 2254 043b
000000b0: ea1b 1fbe 0198 d83d f9c0 94be 5e9c e2be
000000c0: 6cb2 a2bd edde 1d3e eb9b a73d 9ffd 8e3b
000000d0: 4011 dcbd 5bf1 7dbe 912d 7cbd 77f5 e83d
000000e0: c5a6 da3d 5737 12bd 808e e7bd 09d7 61be
000000f0: d9b8 703e fb5d ed3d acf2 de3d 633a 98bd
00000100: 2efd a9bd a147 343d 431b 143b 5c36 1abd
00000110: 2c75 6f3b f67b bebc 7d3f afbd 559a 11be
00000120: c871 ebbd c300 9fbd 7499 83bd 44de 20bd
00000130: 2a5e 0d3d dc6a 55bd f40a afbe 4fb2 26bf
00000140: 16d1 aebe 552e 80be f155 3c3e d7a3 12bf
00000150: de6c 50bf deb4 14bf 4e2e adbe f9c6 e03e
00000160: 9ab0 2abe 0bfe 09bf 0d9e 6abf 2b55 f7be
00000170: 535c debe 4566 933e c84f 8bbd 6653 a7bd
00000180: cbe1 08bf 9fc1 33bf 9319 82be e833 48bd
00000190: d763 05bf 12ff 46be 5852 bb3d be08 603e
000001a0: 6c3c c53d a3a1 abbe eceb 3dbe 87d1 7d3e
000001b0: 222e 9a3e 0f15 b33e db74 223d 92ec c2bc
000001c0: 0472 503e 89e7 b83e ba31 123f cddc 43be
000001d0: 4222 e4bd 6265 78bd a912 833e c234 e73e
000001e0: ca67 4fbe 7818 12bf 6a2e bbbe d044 c7be
000001f0: 8ee7 f13c 7d1c 3bbe 2dfa 7d3e 7e09 c03e
00000200: eef3 e83e 5107 a13d c0b2 813d cc2e f03d
00000210: 325e 893e 3529 603e 4dc1 253d 8e22 eebd
00000220: 1f09 713e 663b 1f3e c544 4f3d a1ae a33c
00000230: 63d6 96bd 3a11 3f3d 8808 55bd 612d 053c
00000240: afc9 3e3e 0c71 3d3e fe0c 393e 93bb c9bd
00000250: cf53 eebe d7cc 9abd 9513 7cbe 235b 05be
00000260: 4139 d13c 87b5 033e 7082 e63d 143b 0fbd
00000270: 1b26 a2bd 023a da3a 7895 c83d 26eb 483e
00000280: 53bd 8fbd 9cd8 6fbd 8400 e0bd e83c a0bd
00000290: f8ad a93d d898 12be ed25 0ebe 6c90 f0bd
000002a0: 7767 b1be 8eb6 0fbe a0b0 7f3e 8151 8e3e
000002b0: 395c fd3b fd04 6fbe ca37 bebe 7e4c 633e
000002c0: 6a25 783e 68f1 553e a319 d13d 024c ffbe
000002d0: 0b0e 06bf e749 b7bd 4bb3 97bd ee73 fcbd
000002e0: fce9 d13b a219 debe 66cd 15bf 3854 4ebd
000002f0: 3173 61be 5cc6 85be a098 f83d 574b 86be
00000300: 38e4 74be 1edf 94be 3cab 7dbe ca7a 9a3e
00000310: e087 1c3e be23 46bf 60ee 2abf 5987 07bf
00000320: f097 ba3d e8f6 fb3d 87d5 983d 2779 753e
00000330: a24b 7e3e a69c a1be be77 e3be fee2 c2be
00000340: a9f6 9cbe 8bcd bcbe 0b4f b1bd ce6e b9be
00000350: ec71 15bf 43b4 59be 3c21 67bc 491b 413e
00000360: 7685 43be a329 e4be 28f2 ecbd 9ee1 073e
00000370: 362b 393e a495 f3be b079 f3be b67c 623e
00000380: 4e4f f43e b318 0fbf d1c7 93bd 204f 06be
00000390: 3aee 9dbd 9767 a0bd 03db ccbe 9a97 8bbe
000003a0: 39ca ec3d e518 253e 6828 d63d 63d8 61be
000003b0: dea3 c9be d17b 243e 8c13 213e 84e3 993e
000003c0: db90 bebc 7235 c8bd 1433 0abe f656 b73d
000003d0: 2e64 5b3e fe19 4c3c b974 8a3e 816e 34bd
000003e0: f958 493d 6dfd 603e 4172 c5bd d8f8 a13d
000003f0: 479f 053e 6d0a 8a3e d3c5 d83d 89a7 b5be

features.10.bias f4 [32]
-0.037961755 -0.2997534 0.0050919484 -0.18461867 -0.08381628 -0.3691426 -0.20766613 -0.026208783
0.0003744333 -0.013542252 0.06942664 0.0066901916 0.10569223 0.050480083 0.08068798 -0.20885012
-0.23801272 0.09653734 -0.03304164 -0.14535847 -0.056772996 -0.085804276 0.06529475 -0.10226201
-0.22572199 -0.108034156 -0.030806 -0.14546122 0.029277628 -0.12857631 -0.008578613 -0.1163991
00000000: c97d 1bbd 4779 99be 5cda a63b ad0c 3dbe
00000010: dfa7 abbd 4200 bdbe 6ea6 54be cdb3 d6bc
00000020: 964f c439 52e0 5dbc 8e2f 8e3d 6539 db3b
00000030: 2b75 d83d 34c4 4e3d bd3f a53d cedc 55be
00000040: 9bb9 73be 5eb5 c53d ac56 07bd dad8 14be
00000050: cd8a 68bd 27ba afbd 41b9 853d bf6e d1bd
00000060: aa23 67be 0341 ddbd dd5c fcbc c9f3 14be
00000070: a3d7 ef3c 82a9 03be 508d 0cbc a762 eebd

features.12.weight f4 [32, 32, 5, 5]
-0.3156306 -0.084574476 -0.23693122 -0.07741162 0.026834099 -0.08579916 -0.599779 -0.27631873
-0.25947568 -0.4211596 -0.37827247 -0.98360234 -0.23220344 -0.05515547 -0.64523625 -0.4018933
-0.30786657 -0.5085676 -0.3318563 -0.37409487 -0.26616973 -0.25730643 -0.11089407 -0.24030076
-0.3904097 -0.13251817 -0.95548105 -0.7450152 -0.30488035 -0.04452991 -0.7979856 -0.19790572
-0.5864373 -0.25296426 -0.5819475 -0.8570959 -0.54812825 0.16698244 -0.1260959 -0.32474804
-0.60008043 -0.4586811 -0.122590244 -0.13162316 0.03605031 -0.3229965 -0.17705481 0.113000326
0.106967956 0.31230876 -0.12622984 -0.0442863 0.066442676 0.0456427 0.16271885 -0.058720194
-0.03298239 0.25229174 0.14752081 0.07571594 -0.06784907 0.05764795 0.25259724 0.13234796
-0.08984486 0.011742666 -0.008483401 0.14699551 0.05611701 -0.22275065 -0.07171206 0.0690074
0.18496507 0.029979179 -0.06252953 -0.012863348 0.18283576 -0.084146716 0.45699212 0.40935627
0.26181635 0.15966417 -0.21998695 0.46160027 0.45965478 0.041596327 0.13928102 0.0761574
-0.4286861 -0.06326177 -0.40069443 -0.26373377 -0.2694575 -0.3658254 0.023487106 -0.02420144
0.17090659 0.03957423 -0.28123742 -0.3695761 0.25808346 0.52498335 0.023062183 0.011639993
0.1683021 -0.05196439 0.051595446 0.21595596 0.14857176 0.08325503 -0.12463015 0.014889552
0.20560169 0.038451474 0.04925555 -0.2668126 -0.42544186 -0.39349955 -0.044553548 -0.35288975
-0.30756676 -0.48010004 -0.37956202 -0.21891084 0.059469435 0.07431076 -0.034094777 0.11276362
-0.13887972 -0.13397421 0.076721825 0.048860174 0.08326305 0.07623372 0.12057914 -0.088926725
-0.15397212 0.023582973 0.042935286 0.0023871623 -0.09366427 -0.15810588 0.027272388 0.26041737
0.14920804 -0.10809736 -0.15111516 0.17877056 0.28515103 0.015308644 0.21611613 -0.054483857
0.2962668 0.16201808 -0.14086471 -0.04272075 -0.33318803 -0.19017969 -0.13875186 -0.2687003
0.032616388 -0.23509328 -0.429825 -0.16523232 -0.12405247 -0.1513729 0.24583353 0.0036120398
0.15041958 0.32738855 0.2209125 0.3554536 0.24917139 0.24434412 0.43961287 0.05693116
0.05751516 -0.027300876 0.008126105 -0.06305573 -0.017547298 -0.063746035 -0.03359774 0.12490325
0.038058586 0.09252957 0.116095245 -0.007029184 0.023323392 0.11861749 0.18281889 0.13192743
-0.038709275 -0.019766161 0.006498595 0.0012744098 -0.043408684 -0.09405835 -0.15264629 -0.057059277
0.28287032 -0.029273614 -0.10016801 0.01659543 0.06079007 -0.04530372 -0.02155129 0.05995217
0.13800997 -0.097076155 -0.21763028 0.09450419 0.11894791 -0.21970686 -0.18859182 0.036287375
0.1299545 0.0888323 -0.32335988 -0.054886993 -0.0019140108 0.037315562 0.030398652 0.21492942
-0.08740004 -0.14016768 -0.1594072 -0.5787637 -0.67682385 -0.27491406 0.08206812 0.1696266
-0.42758897 -0.24212752 -0.00802359 -0.069468565 -0.04330714 0.09955942 -0.56469446 -0.18599169
0.15858902 0.06344519 -0.3319023 -0.15897527 -0.17131053 -0.16418798 -0.21663462 -0.10923908
0.07813929 0.1346245 -0.05107767 -0.21723303 -0.4774543 -0.03094132 -0.024937896 -0.08150695
00000000: 569a a1be 6235 adbd 199e 72be fc89 9ebd
00000010: 2fd3 db3c 78b7 afbd 1e8b 19bf a679 8dbe
00000020: ffd9 84be 3ba2 d7be eeac c1be 5dcd 7bbf
00000030: bdc6 6dbe b4ea 61bd 342e 25bf f5c4 cdbe
00000040: b0a0 9dbe 7c31 02bf 12e9 a9be 5d89 bfbe
00000050: 6647 88be abbd 83be 6e1c e3bd 6711 76be
00000060: c8e3 c7be d8b2 07be 689a 74bf 51b9 3ebf
00000070: 4719 9cbe ff64 36bd c948 4cbf cca7 4abe
00000080: c120 16bf 8884 81be 83fa 14bf a36a 5bbf
00000090: 2252 0cbf 72fd 2a3e 491f 01be 6045 a6be
000000a0: df9e 19bf 40d8 eabe 9810 fbbd 39c8 06be
000000b0: 7da9 133d cc5f a5be db4d 35be b76c e73d
000000c0: 0412 db3d efe6 9f3e 6542 01be 8d65 35bd
000000d0: 1913 883d d7f3 3a3d c59f 263e 9684 70bd
000000e0: 8b18 07bd 622c 813e b20f 173e f510 9b3d
000000f0: 74f4 8abd 4220 6c3d 6d54 813e 3986 073e
00000100: 9500 b8bd 5064 403c f6fd 0abc fe85 163e
00000110: f3da 653d bf18 64be c6dd 92bd c053 8d3d
00000120: 7c67 3d3e e596 f53c 7b0f 80bd cbc0 52bc
00000130: 4c39 3b3e 1d55 acbd dffa e93e 2597 d13e
00000140: cb0c 863e 017f 233e 4244 61be df56 ec3e
00000150: df57 eb3e e960 2a3d af9f 0e3e 69f8 9b3d
00000160: bf7c dbbe 638f 81bd d227 cdbe 1d08 87be
00000170: 55f6 89be 784d bbbe 0868 c03c 1942 c6bc
00000180: 2302 2f3e 9618 223d 5afe 8fbe 1439 bdbe
00000190: 8423 843e 4f65 063f e7ec bc3c abb5 3e3c
000001a0: 6357 2c3e 9dd8 54bd bf55 533d 8f23 5d3e
000001b0: 3223 183e 9d81 aa3d 183e ffbd 4ff3 733c
000001c0: 4089 523e 4b7f 1d3d 30c0 493d a99b 88be
000001d0: 84d3 d9be c678 c9be c87d 36bd f7ad b4be
000001e0: 6479 9dbe accf f5be f455 c2be 2a2a 60be
000001f0: 3996 733d 3d30 983d f7a6 0bbd 9df0 e63d
00000200: 7c36 0ebe 8930 09be 5520 9d3d 9b21 483d
00000210: d185 aa3d 6d20 9c3d 32f2 f63d 371f b6bd
00000220: deaa 1dbe 1431 c13c e9dc 2f3d f071 1c3b
00000230: 0ed3 bfbd 82e6 21be 586a df3c 6d55 853e
00000240: fec9 183e 2662 ddbd efbd 1abe a10f 373e
00000250: 51ff 913e 1bd1 7a3c 8c4d 5d3e 772a 5fbd
00000260: 48b0 973e 11e8 253e d73e 10be f4fb 2ebd
00000270: 9f97 aabe 77be 42be f814 0ebe 1693 89be
00000280: c398 053d 4bbc 70be 0612 dcbe a932 29be
00000290: 390f febd 7f01 1bbe c9bb 7b3e f9b7 6c3b
000002a0: 9707 1a3e 799f a73e e336 623e 04fe b53e
000002b0: c926 7f3e 5835 7a3e f014 e13e a630 693d
000002c0: 0495 6b3d 16a6 dfbc 5b23 053c 5d23 81bd
000002d0: 5abf 8fbc 488d 82bd c99d 09bd 46cd ff3d
000002e0: 52e3 1b3d 2580 bd3d 58c3 ed3d 1255 e6bb
000002f0: b310 bf3c baed f23d e034 3b3e fc17 073e
00000300: 9e8d 1ebd a5ec a1bc 2af2 d43b 190a a73a
00000310: 4ecd 31bd aaa1 c0bd 4f4f 1cbe fdb6 69bd
00000320: 61d4 903e 38cf efbc e324 cdbd 24f3 873c
00000330: 02ff 783d 6590 39bd 558c b0bc 6890 753d
00000340: 7c52 0d3e ddcf c6bd 79da 5ebe 6a8b c13d
00000350: f69a f33d d6fa 60be 371e 41be 12a2 143d
00000360: cb12 053e b5ed b53d 6d8f a5be 2fd1 60bd
00000370: 8cdf faba 34d8 183d 9806 f93c 7516 5c3e
00000380: cbfe b2bd 1e88 0fbe a43b 23be dc29 14bf
00000390: 5444 2dbf 89c1 8cbe 5513 a83d 98b2 2d3e
000003a0: f1ec dabe 47f0 77be 6075 03bc 8945 8ebd
000003b0: d462 31bd cfe5 cb3d d18f 10bf 9b74 3ebe
000003c0: 2965 223e 8def 813d 19ef a9be 6aca 22be
000003d0: 076c 2fbe e520 28be 77d5 5dbe bdb8 dfbd
000003e0: 7e07 a03d 01db 093e d236 51bd 5672 5ebe
000003f0: e474 f4be a778 fdbc 8f4a ccbc 1eed a6bd

features.12.bias f4 [32]
-0.13706192 0.050670594 -0.02727105 -0.13152248 0.12886539 0.00275252 -0.004329418 -0.070540264
0.003153558 0.027252536 -0.2449444 0.09733523 -0.19457905 -0.062207296 -0.07315756 0.08912552
-0.051803097 0.044835534 -0.079124704 0.2146729 0.029213145 -0.22765361 -0.07583415 0.035546284
0.05581095 0.09403074 0.07447352 0.16720574 -0.0029781233 -0.020358577 0.10543415 0.032573402
00000000: f659 0cbe f88b 4f3d 8967 dfbc d4ad 06be
00000010: 4af5 033e 9f63 343b cadd 8dbb 6a77 90bd
00000020: ecab 4e3b b640 df3c b4d2 7abe b157 c73d
00000030: bb3f 47be 14cd 7ebd a1d3 95bd 7187 b63d
00000040: 7c2f 54bd 77a5 373d 220c a2bd 36d3 5b3e
00000050: 6850 ef3c 071e 69be ef4e 9bbd fb98 113d
00000060: 069a 643d 3093 c03d 9385 983d fb37 2b3e
00000070: 9e2c 43bb 08c7 a6bc dced d73d b06b 053d

features.15.weight f4 [16, 32, 3, 3]
-0.13063148 -0.059449434 -0.12628213 -0.012962711 -0.097321786 0.0031977568 -0.06561319 -0.036732655
-0.102844395 -0.042397156 0.05396988 0.026375685 -0.08203006 0.085593134 -0.004939969 0.024249595
-0.07140207 -0.08797472 0.08626463 -0.03476985 -0.17240062 0.15315743 -0.041304477 -0.046863608
0.03846552 -0.008085202 -0.19506086 -0.09984419 0.10697433 -0.06280128 0.041447528 -0.017507602
-0.09329833 0.05692699 -0.10649325 -0.041540097 -0.16010946 0.11632311 -0.026396329 0.05424457
0.109468326 -0.00033479725 -0.105001725 -0.004906038 -0.01809687 -0.04129242 0.03424299 -0.07032357
-0.115653425 -0.012302075 -0.023886254 -0.12793498 0.042755008 -0.12295074 0.043224163 0.058105722
-0.112794995 0.002241877 0.004886099 0.034249686 -0.08650622 -0.03216516 0.06599203 -0.092708796
-0.024664318 -0.04045987 0.06919125 -0.086309016 -0.0060076374 -0.044237673 -0.108338155 0.10659425
0.061682664 -0.0872442 -0.06917649 -0.108102724 0.018520366 -0.11527774 0.01460244 -0.06272769
-0.076935686 -0.024024926 -0.019836478 -0.07683227 -0.053594064 0.03442444 -0.059539992 -0.051126365
-0.036923192 0.04855487 -0.15513207 -0.078725696 0.112099856 -0.07876897 -0.08555926 -0.0656485
-0.1365948 -0.010780599 -0.035805944 -0.1048139 0.07663776 -0.031265963 0.071963795 0.027879933
-0.030424414 -0.1483514 0.0040412624 -0.08313428 -0.11027528 0.02290461 -0.15168649 0.07206437
-0.13552149 -0.11089913 -0.10785852 0.06609187 -0.1406928 0.10158704 -0.019235963 0.06498939
-0.03337312 -0.035297982 0.023173088 0.0573624 0.06816324 -0.048844345 -0.07154546 -0.076632135
-0.006788914 -0.052712146 -0.047830947 -0.034798432 0.12067425 0.010329865 -0.05779407 -0.71970373
-0.289904 -0.64464116 -0.645332 0.095451616 -0.39581838 -0.8551921 -0.22663525 -0.5351838
0.007958503 0.057570126 0.08091937 -0.091756344 0.10454121 0.019570306 -0.07695473 -0.06278654
-0.07320924 0.00989769 -0.092495 -0.0014711397 -0.005358366 -0.08280935 -0.091493934 0.014409857
-0.06347174 -0.050208345 0.032004654 0.00049360376 0.08379157 -0.0010486913 -0.050548702 0.101563744
-0.06083002 -0.00413866 -0.008617016 0.13349532 0.19632977 0.052620772 0.21074256 0.14421123
0.10868983 0.09866331 0.17143355 0.1463779 -0.07122791 -0.011891086 -0.069481686 -0.03165285
0.016646652 -0.09699759 0.01453583 -0.13511294 0.05912499 -0.11414616 0.07111423 -0.21298271
-0.055197075 -0.0964886 -0.03220497 -0.057726346 -0.06879809 -0.15226005 -0.06051084 0.04067133
0.027262338 -0.076064624 -0.050393093 -0.13840756 0.027528264 -0.12522297 -0.0013998713 -0.019790288
-0.11742462 -0.13042341 -0.18275279 0.0025614016 -0.11351008 -0.27994514 -0.09557477 -0.27074885
-0.028473875 -0.07634713 -0.021363307 -0.20241323 -0.009808364 -0.15929194 -0.63687813 -0.35227558
-0.5669388 -0.07278735 0.04370597 -0.060817678 -0.0038414237 -0.112909935 -0.026870972 -0.059571497
0.012108356 -0.118333444 -0.10777828 -0.04925886 -0.09603432 0.0037287946 0.091334976 0.045641545
0.013097897 -0.020631045 0.054605868 0.002921291 -0.12309609 -0.19415677 0.022208797 0.0804723
-0.024578039 -0.25694066 -0.015675934 -0.23207675 -0.542296 -0.40135744 -0.5472156 -0.26848575
00000000: 42c4 05be 4081 73bd 1a50 01be 8d61 54bc
00000010: a550 c7bd 7591 513b 3560 86bd fb74 16bd
00000020: 15a0 d2bd a4a8 2dbd 850f 5d3d d211 d83c
00000030: 60ff a7bd 744b af3d 77df a1bb 16a7 c63c
00000040: 403b 92bd 172c b4bd 83ab b03d d56a 0ebd
00000050: ca89 30be 4dd5 1c3e e22e 29bd 0ef4 3fbd
00000060: 058e 1d3d cc77 04bc 09be 47be 1c7b ccbd
00000070: 5c15 db3d f59d 80bd e2c4 293d 1a6c 8fbc
00000080: 3213 bfbd 472c 693d 2219 dabd f325 2abd
00000090: bcf3 23be d03a ee3d 1d3d d8bc 8e2f 5e3d
000000a0: ee30 e03d ba87 afb9 250b d7bd d4c2 a0bb
000000b0: e33f 94bc 3e22 29bd 6142 0c3d ce05 90bd
000000c0: b4db ecbd a48e 49bc 1bad c3bc 6301 03be
000000d0: e01f 2f3d 99cd fbbd d20b 313d 4400 6e3d
000000e0: 1001 e7bd 74ec 123b 921b a03b 6649 0c3d
000000f0: 2c2a b1bd 9dbf 03bd d426 873d 1cde bdbd
00000100: d30c cabc 40b9 25bd 24b4 8d3d c8c2 b0bd
00000110: b7db c4bb 9032 35bd 65e0 ddbd 164e da3d
00000120: f6a6 7c3d 16ad b2bd 67ac 8dbd f664 ddbd
00000130: 06b8 973c bc16 ecbd 133f 6f3c 6077 80bd
00000140: 7590 9dbd eccf c4bc 1c80 a2bc 3d5a 9dbd
00000150: 7385 5bbd a400 0d3d 35e0 73bd e169 51bd
00000160: c63c 17bd 79e1 463d f1da 1ebe f03a a1bd
00000170: 9c94 e53d a051 a1bd b139 afbd b972 86bd
00000180: 82df 0bbe 1ca1 30bc 41a9 12bd aca8 d6bd
00000190: 42f4 9c3d bd10 00bd c161 933d 7564 e43c
000001a0: 9f3c f9bc 6ee9 17be 916c 843b 4e42 aabd
000001b0: 02d8 e1bd 73a2 bb3c b453 1bbe 7c96 933d
000001c0: 25c6 0abe 151f e3bd ede4 dcbd 2d5b 873d
000001d0: c611 10be de0c d03d bd94 9dbc 2819 853d
000001e0: 41b2 08bd 9e94 10bd 7dd5 bd3c d6f4 6a3d
000001f0: 2b99 8b3d 0211 48bd 6d86 92bd 4ff1 9cbd
00000200: 8a75 debb b1e8 57bd 62ea 43bd cd88 0ebd
00000210: 1024 f73d 983e 293c 7ab9 6cbd 813e 38bf
00000220: 4c6e 94be 3407 25bf 7a34 25bf 237c c33d
00000230: b5a8 cabe dfed 5abf 1213 68be ce01 09bf
00000240: 6264 023c a7ce 6b3d 0eb9 a53d c0ea bbbd
00000250: b419 d63d e851 a03c 719a 9dbd 3b96 80bd
00000260: baee 95bd ec29 223c 056e bdbd 42d3 c0ba
00000270: 3b95 afbb f397 a9bd 2c61 bbbd 5217 6c3c
00000280: 79fd 81bd 44a7 4dbd 5017 033d 3065 013a
00000290: ea9a ab3d 3e74 89ba 280c 4fbd a700 d03d
000002a0: e628 79bd 999d 87bb 622e 0dbc ffb2 083e
000002b0: ac0a 493e e188 573d e6cc 573e 1cac 133e
000002c0: c698 de3d fd0f ca3d 478c 2f3e 17e4 153e
000002d0: f0df 91bd d4d2 42bc 6a4c 8ebd 6ba6 01bd
000002e0: 8f5e 883c aca6 c6bd b127 6e3c 0c5b 0abe
000002f0: 0c2d 723d 76c5 e9bd 56a4 913d 2418 5abe
00000300: 5416 62bd d19b c5bd 5ce9 03bd 7672 6cbd
00000310: 03e6 8cbd 0fea 1bbe 37da 77bd fb96 263d
00000320: 4455 df3c c5c7 9bbd fd68 4ebd b6ba 0dbe
00000330: f482 e13c 733a 00be e37b b7ba 3e1f a2bc
00000340: 527c f0bd b78d 05be 8c23 3bbe 30dd 273b
00000350: f977 e8bd f854 8fbe b4bc c3bd 989f 8abe
00000360: 0b42 e9bc e25b 9cbd 1a02 afbc 6a45 4fbe
00000370: 43b3 20bc 6d1d 23be 720a 23bf 775d b4be
00000380: e722 11bf 8911 95bd 0805 333d f51b 79bd
00000390: 65c0 7bbb 533d e7bd 8320 dcbc 3e01 74bd
000003a0: 2062 463c ce58 f2bd dcba dcbd a9c3 49bd
000003b0: a4ad c4bd cb5e 743b d50d bb3d a1f2 3a3d
000003c0: 9098 563c 7002 a9bc 67aa 5f3d 2173 3f3b
000003d0: ce19 fcbd 08d1 46be 39ef b53c a9ce a43d
000003e0: e257 c9bc ba8d 83be d16a 80bc 87a5 6dbe
000003f0: e9d3 0abf b97e cdbe 5216 0cbf f776 89be

features.15.bias f4 [16]
0.2667269 0.25048965 0.37201977 0.15995887 0.20505601 0.1965295 0.4092328 0.1597814
0.11337404 0.11330395 0.30875844 -0.14298144 -0.026208445 0.10811911 0.253223 0.104744904
00000000: 6e90 883e 2e40 803e 6079 be3e 42cc 233e
00000010: 34fa 513e 073f 493e f686 d13e bc9d 233e
00000020: a630 e83d e70b e83d 9615 9e3e ba69 12be
00000030: 18b3 d6bc 8d6d dd3d 72a6 813e 7f84 d63d
