output/models/220422_2159_ggcnn_rotate0.5/epoch_41_iou_0.78_statedict.pt (torch, 255529 bytes, 16 tensors)

conv1.weight f4 [32, 1, 9, 9]
000000 a5 8d 6f be 76 22 70 be ef 0b 61 be 15 1c 71 be
       -0.23393877 -0.23450646 -0.21977209 -0.23545869
000010 bc f9 18 be 38 e1 0c be d7 e2 28 be 4f f4 1c be
       -0.14939016 -0.13757789 -0.16492783 -0.15327571
000020 1d 23 72 be f8 e5 54 be 2c 26 02 be ba 80 24 be
       -0.23646207 -0.20790851 -0.12709874 -0.1606473
000030 7b 8f 27 be 36 eb 31 be 0e 03 24 be ad 2d 2c be
       -0.16363327 -0.17374882 -0.1601679 -0.16814299
000040 db f8 e3 bd 67 4c 05 be 0d 58 cb bd 4f aa df bd
       -0.1113145 -0.13017426 -0.09928904 -0.10921156
000050 68 45 f5 bd 65 07 71 bd 16 2a ed bd cb d8 30 bd
       -0.11976129 -0.058844943 -0.11580293 -0.0431755
000060 80 01 f9 bd 4f 24 3b bd 98 3b 14 be 0c f7 0b be
       -0.12158489 -0.045688923 -0.14475858 -0.1366846
000070 68 b3 a4 bd b5 88 29 bd 69 fc 57 bd 9e f1 e0 bd
       -0.080420315 -0.04139014 -0.05273095 -0.10983585
000080 4f 77 2e bd b9 a4 a7 bd 7d 85 10 bd 3b 47 06 be
       -0.04259425 -0.08185715 -0.035283554 -0.1311311
000090 59 a8 b5 bd c3 a8 92 bc 0c 8b 77 bd 3e 2e 21 bd
       -0.088700004 -0.017902737 -0.06043534 -0.03935074
0000a0 23 33 14 bd f4 e9 fd bc e6 d3 50 bd af 60 02 bd
       -0.03618158 -0.030995347 -0.050983332 -0.031830486
0000b0 be ae 97 bd 3a 28 2a bd 60 24 21 bc b8 1a 90 bd
       -0.07406376 -0.04154227 -0.009835333 -0.07036346
0000c0 13 bc 00 3c f8 f8 34 bd 68 30 48 bb 6e 63 a2 bc
       0.00785734 -0.044182748 -0.003054643 -0.019822802
0000d0 83 39 97 3c f0 38 ac bd 30 1e b6 bd 40 56 ff 3b
       0.01846004 -0.084092975 -0.088924766 0.007792264
0000e0 9b 99 23 3d 9b 10 0a bd 1a 30 0d 3d d1 d0 0c bd
       0.03994141 -0.033707242 0.0344697 -0.03437883
0000f0 f4 80 b8 bc 0d 24 d7 3c 1f 12 8f bd 8d d7 81 bd
       -0.022522427 0.026262308 -0.06985878 -0.06339941
000100 3a 77 a4 3c de ba 16 bd e7 15 b6 3c 13 67 2a 3d
       0.020076383 -0.036799304 0.02222724 0.041602205
000110 98 76 1b bd a6 9a ed bc b7 71 95 bc 59 2c df 3b
       -0.037954897 -0.029004406 -0.0182427 0.0068107066
000120 0e 56 9b bd 68 4d 12 bc a1 49 3a 3c 99 76 25 bc
       -0.07584773 -0.008929588 0.011370094 -0.010099077
000130 25 89 89 bd 83 c1 b5 3c a0 6c d0 bc 36 60 fc 3b
       -0.06715611 0.022187 -0.025442421 0.007701899
000140 15 77 ab bd 1b f2 bb bc 2c 98 3f 3d 4a 43 dc bc
       -0.083723225 -0.022942593 0.04677598 -0.026887555
000150 60 5b 7d 3c e0 3d 45 bb 17 e8 31 bd 1e 45 05 bd
       0.01546368 -0.0030096695 -0.04343423 -0.03253662
000160 90 2a 0c bc 68 d8 6f bc 67 d8 e2 bc 00 d6 77 39
       -0.00855507 -0.014638998 -0.02769108 0.00023635477
000170 44 e7 c0 3c 3e 47 1d 3d 1d d1 c8 bc d2 ff 22 3d
       0.023547776 0.03839802 -0.024513775 0.03979475
000180 00 fb fe 3b f0 a6 00 bd 2c 80 bb 3c 10 bd 2c 3d
       0.0077813864 -0.031409204 0.022888266 0.04217249
000190 e4 f5 2a bc e0 50 1f bd 20 15 a8 bb 40 8e fd 3a
       -0.010434601 -0.038895488 -0.0051294714 0.0019344762
0001a0 00 50 0f bd f4 0a 41 3c 64 6c 2c bd 86 ec 3e 3d
       -0.034988403 0.011782397 -0.042095557 0.046612285
0001b0 3e 3e 20 3d 0a 78 bb bc 20 c5 8c ba 40 84 27 3d
       0.03912186 -0.022884388 -0.00107399 0.040897608
0001c0 c8 b0 02 3c f2 d6 27 bd 23 5c 91 bc 16 f0 3f bd
       0.007976718 -0.040976472 -0.01774413 -0.046859823
0001d0 64 73 3d 3c ec 71 01 3d ad be e5 bc f4 eb 26 3d
       0.011563156 0.031602785 -0.028045023 0.040752366
0001e0 0c 06 e9 bc cc cd 25 bd 68 c0 8a 3c e8 2c f8 3c
       -0.028445266 -0.040479466 0.01693745 0.03029485
0001f0 48 ec ac 3c ec 80 84 bc f0 7b ed 3c af 74 a9 bc
       0.021108761 -0.016174756 0.028989762 -0.020685522
000200 18 1e 8e bb 8f c4 41 bd 35 0c 3f bd c0 bb 3c 3d
       -0.0043370835 -0.047306594 -0.0466425 0.04607749
000210 90 19 23 bc 94 e0 c2 bc a0 33 40 3c 40 9e 27 bd
       -0.009954825 -0.023788728 0.011731058 -0.040922403
000220 ab 25 92 bc da b1 bd bc 76 49 01 bd 74 47 1d 3d
       -0.017840227 -0.023156095 -0.0315642 0.03839822
000230 00 e7 34 ba d2 16 2b 3d 82 30 a0 bc 7c 2f 8e bc
       -0.0006900877 0.04176981 -0.01955438 -0.017356627
000240 96 74 0c bd 24 a2 21 3c 38 c7 21 3d 18 18 d8 bb
       -0.034290873 0.0098653175 0.03949663 -0.006594669
000250 c0 1f 38 3d 00 b2 22 3d 1c d8 ed bc 48 20 2d bd
       0.044952154 0.039720535 -0.029033713 -0.042267114
000260 f4 56 0d 3c 61 bc ee bc b4 b8 46 bc b4 4d d4 3c
       0.008626688 -0.02914256 -0.012128998 0.025915958
000270 22 2a 32 3d 30 40 37 3b bc fb 53 3c 94 6f fa 3c
       0.043497212 0.0027961843 0.012938436 0.030570783
000280 af 67 30 bd 0f 71 97 bc 83 0c 9d bc 07 72 ff 3c
       -0.04306763 -0.018486528 -0.019171005 0.031182302
000290 af cc 28 3d fa a8 f9 bb db 74 1b bb 13 6e 93 bc
       0.041210826 -0.0076190205 -0.0023720774 -0.017996823
0002a0 6f 57 5f bc dc c8 0b bc 55 de b2 bb 40 f8 81 bc
       -0.013631686 -0.008531775 -0.005458633 -0.015865445
0002b0 f0 15 50 bd 69 c2 a1 3c 1d f8 8e bc ce 74 f5 bb
       -0.05080217 0.019746022 -0.017452294 -0.007490731
0002c0 bf 41 1a ba 53 1b ac 3c 25 1a 43 3b 3e 4e d2 3b
       -0.0005884431 0.021009123 0.0029770222 0.0064180186
0002d0 c6 81 26 3b 09 ed a6 3c e8 ba 32 3d 54 83 33 bd
       0.002540694 0.020376699 0.04363528 -0.043826416
0002e0 6d 54 86 bb 12 ed 40 bb 81 24 ee 3b 3f 14 bb 3b
       -0.00409942 -0.002943818 0.007267535 0.0057092006
0002f0 5a 76 03 bd a7 98 d7 bc dd 87 a2 bb 85 e6 d6 3b
       -0.03209529 -0.026317907 -0.004960044 0.006558242
000300 d0 7c 18 bd 8f f1 1c bd 88 53 29 bc c4 70 c9 3c
       -0.037228405 -0.038316306 -0.010334857 0.024589904
000310 0b 69 03 3d 17 02 24 3d 8a 63 0d bd 4b 25 5e bb
       0.0320826 0.040041056 -0.034518756 -0.003389674
000320 32 91 09 ba 22 19 1e 3b db 08 2a 3b da 7a f5 bb
       -0.0005247771 0.0024123867 0.002594522 -0.0074914517
000330 20 98 ce 3c 63 5c 49 bd 2e a1 6b 3c d5 a3 8b 3c
       0.025219023 -0.049160372 0.01438169 0.017045895
000340 16 05 23 3d 4c 25 25 3d aa a5 74 bc b8 a4 ea bc
       0.039799772 0.040318772 -0.0149320755 -0.028642997
000350 4a db 9d bc e5 5d fd bc 88 b9 5d ba 63 eb db 3c
       -0.019269604 -0.030928561 -0.0008458127 0.02684564
000360 df 88 12 3d 1e b3 8c 3c 2b 07 78 3b 07 67 9a bb
       0.03577506 0.017175253 0.003784607 -0.004711989
000370 7b 4b 62 39 35 43 57 bc 40 e0 04 3d 14 76 a1 3b
       0.00021581158 -0.013138582 0.032440424 0.004927406
000380 e4 c3 27 bc 69 cb 94 bb 08 82 14 bd 8b cd 2c 3c
       -0.010239575 -0.00454085 -0.03625682 0.010547052
000390 00 75 17 bb e9 ed 87 3c 87 f5 82 bc 66 ea cd 3c
       -0.002311051 0.016592937 -0.015986217 0.025136184
0003a0 dd 8d 8a 3c 8a 81 bb 3c d9 df 37 bd e2 86 85 bc
       0.016913349 0.022888917 -0.044891212 -0.016299669
0003b0 7d 94 54 bc a8 58 f3 bc ea 2d 09 3d 5c af 2b 3d
       -0.0129748555 -0.02970536 0.033491053 0.041915283
0003c0 e7 59 5e ba f1 dc 6c bc f9 1c 27 bd 2e 5b 56 3c
       -0.00084820244 -0.014456973 -0.040799115 0.013083262
0003d0 40 dc 42 3c bb f5 c7 3b 95 f2 ca bc 08 f0 91 3c
       0.011893332 0.0061022914 -0.024773875 0.017814651
0003e0 76 3a 85 bc 9b ab 0c bd 9f 5b 02 3d 32 ea ea 3c
       -0.016263228 -0.034343343 0.031825658 0.028676126
0003f0 e4 4d ae 3b db 89 e1 bc 2b be 34 3d a8 90 11 bd
       0.005319344 -0.027531555 0.04412667 -0.035538346

conv1.bias f4 [32]
000000 54 9f b1 be c9 fb a6 bd 0d 6e 7c bd 50 e3 c5 bd
       -0.3469187 -0.08153493 -0.06162839 -0.09662497
000010 90 64 b8 bc 9a cd 0c 3e c7 d7 a1 bd 56 ed 8b bc
       -0.02250889 0.13750306 -0.079024844 -0.017080944
000020 13 19 c3 bd 49 e8 4d 3c 60 bf 20 bf b8 95 dc 3e
       -0.09526267 0.012567588 -0.62792015 0.43082976
000030 26 39 64 bd bd 7b d3 3e 6b 6c b6 bd ea 74 2a 3c
       -0.055718563 0.41305342 -0.08907398 0.010403851
000040 de 0d 6c 3d ac 99 a6 3c 31 ec b3 bd 4a 39 3d be
       0.057630412 0.020336948 -0.08785284 -0.18478885
000050 ea 0f d9 bc 03 3c b7 be 53 37 32 3e e0 38 98 3d
       -0.026496846 -0.35787973 0.17403917 0.07432723
000060 50 ec 89 be fb f7 bc 3c 71 33 e2 bd 4b bc 0a 3d
       -0.26938105 0.023067465 -0.11044968 0.033870976
000070 63 78 bc bd 33 38 3c bc 62 67 13 3f 3a 9b cb bd
       -0.092026494 -0.011488008 0.57579625 -0.099417165

conv2.weight f4 [16, 32, 5, 5]
000000 94 55 8e bd 50 6c 42 3d 66 51 e4 bc 68 b4 96 3c
       -0.069499165 0.047466576 -0.027870845 0.018396571
000010 cc da c4 bc 00 88 0c 3d 24 06 c7 3c 9c 04 da 3c
       -0.024030112 0.034309387 0.02429492 0.026613526
000020 6a 37 18 3d 5f 2c 8b bd a0 a3 a8 3b c0 3d e7 3c
       0.037162222 -0.067955725 0.0051464587 0.028227687
000030 7c 0f 43 bd 6d 8c 82 3d 70 ce 12 bc e8 ce 38 3d
       -0.04762219 0.0637444 -0.008960351 0.045119196
000040 b9 97 1d bd 67 b7 1e bd 8c 1a 9e bc ce e9 d8 bc
       -0.038474772 -0.038749125 -0.019299768 -0.026478674
000050 85 81 13 bd 45 c2 90 3d 68 15 90 bd 82 bb 7e 3d
       -0.03601219 0.07068304 -0.07035333 0.06219054
000060 cc bc e5 3c 82 92 34 bd 2c ef 07 3d 18 c2 3d 3c
       0.028044127 -0.044085033 0.033187076 0.01158192
000070 f1 51 85 bd c8 04 6a 3c 0f 89 82 3d c8 17 71 3c
       -0.0650977 0.0142833665 0.06373798 0.014715143
000080 28 4e a1 bc 00 4c d6 3c c0 55 3d 3d 86 88 46 bd
       -0.019690588 0.026159286 0.046224356 -0.048470043
000090 00 d2 05 bd 40 64 0b 3d e2 87 1e bd ec 9c 55 3d
       -0.032670975 0.034031153 -0.038703807 0.052151605
0000a0 b8 d7 92 3c a8 41 4e 3c b8 9e 38 bd 41 df 82 bd
       0.017925128 0.012588896 -0.04507324 -0.063902386
0000b0 1c a6 a9 3c 94 93 30 bc 42 50 60 3d da 0e 2a 3d
       0.02070909 -0.010777373 0.05476404 0.04151807
0000c0 c2 ff 30 3d 13 8a 8a 3d 38 85 8b 3c 80 ea 47 bd
       0.04321266 0.06764617 0.017031297 -0.04880762
0000d0 86 b0 3d bd f8 9c 35 bd 92 83 7b 3d 18 6b f3 3c
       -0.046310924 -0.04433915 0.061404772 0.029714152
0000e0 c0 bd 13 bb e0 58 8b 3b f2 17 20 bd 10 5f af bb
       -0.002254352 0.004252538 -0.039085336 -0.0053519085
0000f0 c0 1c f4 3b d6 7b ee bc d6 aa 11 3d c0 06 c7 3a
       0.0074497163 -0.029111784 0.035563312 0.0015184507
000100 c0 22 6c 3c 80 a0 e1 bc d0 e4 55 bd ee ce 70 3d
       0.014412582 -0.027542353 -0.052220166 0.058791094
000110 08 99 14 bc cf ba 0d bd cd 3e 8d bd aa d2 18 3d
       -0.009069689 -0.034601983 -0.06896744 0.03731028
000120 fd 11 89 3d 7e a6 28 3d 1e 80 4e bd 2c 22 a6 3c
       0.06692884 0.041174404 -0.05041515 0.020279966
000130 b8 c1 99 bc 00 2e 13 3a 3b 18 8c 3d 40 fa a2 ba
       -0.01876913 0.00056144595 0.06840559 -0.00124342
000140 10 8b 38 bd c8 d1 2e 3d b8 b7 e7 bc 6d 9e 5a bd
       -0.045054495 0.04268053 -0.028285846 -0.053373743
000150 a0 1d b0 bc 5e 17 10 3d 8c d0 2a 3d 1d 12 74 bd
       -0.021498501 0.035178535 0.041702792 -0.059587587
000160 f4 7a 88 bd e6 98 56 3d 2e 0d 69 3d 9a c7 b3 bc
       -0.066640764 0.05239191 0.056897335 -0.021945763
000170 5a bd 2e bd 3b 3c 8d 3d 18 63 72 3c 8a 5d 66 3d
       -0.04266105 0.06896254 0.014794134 0.05624155
000180 6f f4 85 3d b5 d4 85 bd b6 7f 0f bd 20 c6 bb 3c
       0.06540763 -0.06534711 -0.035033904 0.022921622
000190 64 4d 00 bd a5 61 83 bc dc 04 31 bd 37 df b5 3c
       -0.031323805 -0.016037771 -0.043217525 0.022201164
0001a0 1e a6 47 3d 15 e7 7b 3d 46 93 93 bd 03 ce 59 3c
       0.048742406 0.061499674 -0.072058246 0.013293746
0001b0 73 94 47 3d d7 0b e4 3c 00 a7 aa bc c6 d6 f2 3b
       0.048725557 0.027837677 -0.020831585 0.007410857
0001c0 34 9e 7a bc 3c 7b 53 3c e4 9b 4b 3d aa f4 89 bc
       -0.015296508 0.012907799 0.049709216 -0.016840298
0001d0 45 ad 68 3d e6 94 fe bc f0 97 6a 3d cf 5f 95 bd
       0.056805868 -0.03107686 0.057273805 -0.07293665
0001e0 c7 57 60 3d b9 29 68 bd 48 53 6d bd f2 01 cb bc
       0.05477121 -0.056680415 -0.05794075 -0.024781201
0001f0 88 b2 7e bc 30 69 d5 bc 51 7d a1 bd b5 e0 b4 3b
       -0.015545495 -0.026051134 -0.0788523 0.005519951
000200 a9 a1 78 bc 59 38 30 bd a5 ee 30 3c 10 52 cf 3a
       -0.015175262 -0.043022487 0.010799085 0.0015817303
000210 c6 74 19 bd 0d 18 35 3d 40 fe 9c 3c 07 ab 44 bd
       -0.03746488 0.04421239 0.019164205 -0.048014667
000220 8c 92 66 3d c0 9a 9b 3c 12 70 01 3d d2 09 68 3d
       0.0562921 0.018994689 0.03160102 0.05664999
000230 ac 31 e4 bc f5 8c e5 bc 68 11 5a 3d 04 5d 54 bd
       -0.027855717 -0.028021315 0.053239256 -0.05184652
000240 a3 b5 18 bd 9c 61 f1 3c 03 82 6d 3b 37 94 3d 3d
       -0.037282597 0.02946549 0.0036240823 0.046283927
000250 28 99 9e bd 49 1a 19 3d ae 75 8a bd 65 2a 95 bd
       -0.07744056 0.037378583 -0.06760727 -0.07283477
000260 b1 b6 97 3c ac 19 40 bd b8 b4 8c bd 74 ec a8 bd
       0.018519731 -0.046899483 -0.06870407 -0.08248225
000270 d0 55 16 bd 8f e3 a1 bd a8 7d cd bd 12 17 9a bd
       -0.03670293 -0.079047315 -0.10033733 -0.075239316
000280 48 7c 5e bd 48 f9 97 bc 4c e9 11 bc 68 fa 9b 3c
       -0.054317743 -0.018551484 -0.00890572 0.019040301
000290 0f 53 8a 3d eb 91 2b bd 39 3b 91 bd 4f 7b 5c 3c
       0.067541234 -0.041887205 -0.07091374 0.013457133
0002a0 b8 54 81 3d ea 75 6c 3d be 3e 9a bc dd 5a 59 bd
       0.06314987 0.05772964 -0.018828746 -0.05306517
0002b0 ee ac b5 3c 8d a6 04 3d ed b2 ae bc 2b 8c 28 bd
       0.022177186 0.032385398 -0.021325553 -0.0411493
0002c0 78 6b 8b bd 04 b4 ac b9 7f 39 ed bc 6d 0d 92 bd
       -0.068076074 -0.0003294052 -0.02895808 -0.07131467
0002d0 a7 b6 53 3d 61 ed bd bd cc 31 55 bc 86 8f d8 bc
       0.051687863 -0.09273792 -0.013012361 -0.026435625
0002e0 8c 3d 0d bd a1 f5 d3 3c 79 e6 55 bd 09 7f 52 bc
       -0.034482524 0.02587396 -0.05222175 -0.01284767
0002f0 13 cb 96 bd d5 ee 83 bd 81 ee 54 3c 38 69 bb bb
       -0.07362952 -0.06442038 0.012996317 -0.00571933
000300 ba 0f d6 bc 50 24 6b 3d ff 27 9b bd f8 69 9b 3b
       -0.026130546 0.057407677 -0.07575988 0.004742857
000310 85 3b e3 bc d9 59 90 39 39 02 1d 3d 7d 29 a6 bc
       -0.027738342 0.00027532762 0.038332198 -0.020283455
000320 b9 0e 1d bd 12 05 69 3d 92 f5 19 3d 10 7b fb bb
       -0.03834412 0.0568896 0.03758771 -0.0076745823
000330 62 76 f4 bc 40 15 82 3c e2 9d 31 bd b0 11 8d bb
       -0.029841606 0.015879273 -0.04336346 -0.004305087
000340 be 67 3a 3d 94 3d 59 bd 7e 4d 4a 3d 46 6e 7c 3d
       0.045509093 -0.05303724 0.04939031 0.061628602
000350 a8 92 cb 3c 2a 41 0e 3d 3c 6d 80 bc 4e 15 60 3d
       0.024850205 0.034730114 -0.015677087 0.054707818
000360 01 8b 20 3d 07 17 00 bd 6e cf 85 3c 56 8a 4b 3d
       0.039195064 -0.03127196 0.016334262 0.049692474
000370 10 57 63 bc cc 38 7d bc 68 21 ed bc 3a bc 67 bd
       -0.013875738 -0.015455436 -0.028946593 -0.05657599
000380 c0 1a 97 ba f3 b7 53 bc fa 6c 51 3d e2 9f a9 3c
       -0.0011528358 -0.012922275 0.05112932 0.02070612
000390 36 31 95 bc 76 16 a8 bd 92 58 5a 3c 78 20 f1 3c
       -0.018211942 -0.08207409 0.013326781 0.029434428
0003a0 19 e5 4a bd 09 25 db bc 1a 41 3f bd 23 4a 75 bd
       -0.04953489 -0.026751058 -0.046692945 -0.059885155
0003b0 62 88 1c 3d 78 45 b5 3c 69 e7 30 bc 49 fd 25 bd
       0.038216002 0.022127852 -0.01079736 -0.040524755
0003c0 d5 5d 25 bb 1f 0d 39 3d 3a 91 9b bc 75 45 ef 3c
       -0.002523293 0.04517853 -0.018990148 0.029207924
0003d0 86 d9 5d bd ec 7a 85 bd 23 e7 65 bd 53 fe 99 bd
       -0.054162525 -0.06517586 -0.056128632 -0.075192116
0003e0 e1 7c ad bd 19 80 97 bd 21 6e de bc 4e 05 f3 bc
       -0.084710844 -0.073974796 -0.027152123 -0.029665615
0003f0 bb b2 99 bd 43 55 d1 bc 53 07 5e 3d 5e 77 81 bd
       -0.07504793 -0.025553351 0.054206204 -0.063215956

conv2.bias f4 [16]
000000 0c 23 93 bc d8 70 42 3d 0b dd 3c 3c 54 7f a6 bc
       -0.017961048 0.047470897 0.01152731 -0.020324387
000010 f8 4b 90 bc cb be c7 bd 2e 85 89 bd ae 0c 0b 3f
       -0.01761435 -0.09753188 -0.06714855 0.5431622
000020 8b 8f e5 bb 7f 49 5e bd 72 f2 84 bc f7 0f 3d 3d
       -0.007005637 -0.05426931 -0.016228888 0.046157803
000030 e3 ff 64 3c fd d0 f8 ba da fa 46 bd 7c 7f d2 3e
       0.013977024 -0.0018983182 -0.048579074 0.41112888

conv3.weight f4 [8, 16, 3, 3]
000000 e8 d1 bf 3c 78 fd 99 3d ab 9a c0 bd fe a2 42 be
       0.02341552 0.075190485 -0.094045006 -0.19007489
000010 2c 5e 8d bd c6 45 05 3d cc 97 d9 bd 62 fc c5 bd
       -0.069027275 0.032537244 -0.10624656 -0.09667279
000020 e9 56 e8 3c d5 00 37 3e 43 be 00 3d 7d 7f 19 bd
       0.028361754 0.17871411 0.031431448 -0.037475098
000030 a9 97 19 3e 63 5c 8b bd 1a 50 96 3c 1d 34 97 3d
       0.1499926 -0.06804731 0.018348742 0.07382987
000040 1f 8c 61 be a2 cd 23 be 2f eb ce 3d 0f 7b 16 be
       -0.22026108 -0.15996411 0.101034515 -0.1469538
000050 03 3f be bd 4a 28 35 3c ae 46 1f be a6 07 58 3d
       -0.09289362 0.011056969 -0.15554306 0.05274167
000060 95 2a 8c bd 83 41 ad 3d e8 28 f7 bd 31 2c 0a bd
       -0.068440594 0.08459761 -0.12068349 -0.03373355
000070 a5 c1 39 bd b0 e2 25 3e 55 06 54 3d 42 14 1c 3e
       -0.04535069 0.16199756 0.05176385 0.15242103
000080 22 86 23 be 44 22 35 be c3 98 11 3c c0 cb 91 3d
       -0.15969136 -0.17688853 0.008886519 0.0711894
000090 f1 9d 58 bc 4f 9f 5f 3e 0a ee 7a bd 94 35 f1 3c
       -0.01322125 0.21838115 -0.061262168 0.029444493
0000a0 d4 94 bc 3d 92 78 6c bd 43 69 0f be 05 63 0e 3e
       0.09208074 -0.057732172 -0.14004998 0.1390496
0000b0 55 21 00 3e c8 ad aa be 5b 44 3e be a6 26 dc bd
       0.12512715 -0.3333571 -0.18580763 -0.10749559
0000c0 5c 95 a0 3c 6c 1e d5 bd 1a f8 ba 3b ef b8 b0 3d
       0.01960247 -0.10406193 0.0057058455 0.08629023
0000d0 bd c6 8b 3d af ec 19 3e b8 f7 c9 be ef f8 42 be
       0.06825016 0.15031694 -0.39446807 -0.19040273
0000e0 09 e7 fc 3d 6a 49 06 bd a7 54 0d 3e f0 3c 67 3e
       0.12348754 -0.032784857 0.13801824 0.2258184
0000f0 48 63 e0 bd b8 9c 22 3e 9b 87 1f 3e 26 95 12 bf
       -0.109564364 0.15880096 0.15579073 -0.5725883
000100 d1 bc 85 be 69 e5 e3 3d fb 14 76 be 8c be 39 bc
       -0.26120618 0.11127741 -0.24031441 -0.011336934
000110 15 9c 36 3e 4d 89 94 3d 1f 66 9a 3e f3 01 0d 3f
       0.17832978 0.072527505 0.30156037 0.550811
000120 5b 98 92 be c6 88 89 be f5 44 c5 bd f8 4e 5a be
       -0.28631863 -0.26862162 -0.09632293 -0.21319187
000130 fa 10 e2 bd c2 0a 56 3d d8 41 b2 be f1 b6 df 3c
       -0.11038394 0.052256353 -0.3481586 0.027308913
000140 b0 e8 bd bd 99 17 d4 3d b5 ab 3c 3d 9c a8 d9 3b
       -0.09272897 0.103560634 0.04606219 0.0066424143
000150 3c 8a 96 bd 31 24 60 bd 7e 89 ab 3d 8c c9 36 be
       -0.07350585 -0.054722015 0.08375834 -0.17850322
000160 29 88 ac bd 9f 81 2e be 33 2c 67 3c 0b 34 1e be
       -0.08424408 -0.17041634 0.014109659 -0.1544954
000170 9d c1 aa 3b 58 36 ba 3d 1a 90 ca 3d 92 35 3a 3d
       0.005211069 0.090923965 0.098907664 0.045461245
000180 d7 2d bf 3c 2b 98 24 3e 6f ba d2 bd 80 93 ba 3e
       0.023337288 0.16073672 -0.10289466 0.3644066
000190 27 f2 81 bd 8c 98 b0 3d e2 be f7 3d e2 ca 09 3e
       -0.06345015 0.08622846 0.12096955 0.134563
0001a0 6a f2 c1 3d db f4 2c bc a3 a1 3c be 53 a3 c6 3e
       0.09470065 -0.010556425 -0.18421035 0.38796481
0001b0 31 b4 04 3e 05 53 a9 bd 32 cb a3 bd f8 c4 0d bc
       0.12959363 -0.08267788 -0.07997741 -0.008652918
0001c0 63 93 2f 3e 76 ee c8 3d 4d 75 89 bd 85 66 1d 3d
       0.17146067 0.09811108 -0.067118265 0.03842785
0001d0 7e c5 00 3e ee 27 17 be 6e fc bd 3d 10 b4 30 bc
       0.12575337 -0.14761326 0.09276663 -0.010785118
0001e0 2f b5 2e bd 20 c4 b5 bd c9 f6 07 be ed 5b ee 3c
       -0.04265326 -0.088752985 -0.13277735 0.029096568
0001f0 16 d2 55 b9 05 1e 1f 3e 1d fa bf 3d 4a d7 01 be
       -0.00020391526 0.15538795 0.09373877 -0.12679783
000200 46 d2 04 3d ce 2f 8e 3d 09 e1 a2 3d 21 ac 87 3d
       0.032427095 0.06942712 0.07953078 0.06624628
000210 d7 b8 c7 bd b7 d9 1e be ae 47 72 bc 53 93 d7 3e
       -0.09752052 -0.15512739 -0.014787598 0.42104587
000220 29 70 b4 3e ca 5d 38 3e b0 ff 3b 3d 8f a0 b7 bc
       0.3524182 0.18004528 0.04589814 -0.022415427
000230 70 0c b2 bd 60 e5 f0 bb 34 dc b9 bd c9 f1 44 bd
       -0.086937785 -0.0073515624 -0.090752035 -0.048082147
000240 eb 78 9f bb 8a 26 08 3e 7f f6 d4 3a c9 d6 90 3d
       -0.0048667095 0.13295951 0.0016247778 0.07072217
000250 a3 f7 97 bc 19 38 0d be 2f 2e 06 be 94 80 e4 bc
       -0.0185507 -0.13790931 -0.13103555 -0.027893342
000260 a3 aa b9 bc 3f 1c 13 bf 91 1a 99 3d 05 78 50 be
       -0.022664374 -0.57464975 0.0747577 -0.20358284
000270 43 9c 09 be af e4 74 3d 4b ec 62 be 9d d1 90 3d
       -0.13438515 0.059788402 -0.22160451 0.070712306
000280 f4 5d 37 3b 93 77 0b 3d 53 2e 52 3d 56 11 bf 3d
       0.0027979584 0.03404958 0.05131371 0.093294784
000290 dd f8 08 be 97 14 9f 3c 77 70 fc bd 1b 7a 2c be
       -0.13376184 0.019418998 -0.123261385 -0.16843455
0002a0 7e 12 07 3e 60 39 63 bd f1 fd 14 be 60 a1 08 3d
       0.13190648 -0.05547464 -0.14549996 0.033357024
0002b0 8a a8 da 3d c9 9a 14 3e 01 a7 29 3e 74 34 24 be
       0.106766775 0.14512171 0.16567613 -0.16035634
0002c0 60 7a 11 be ff 44 e4 3c bb 9a a2 bd e3 bd ac bd
       -0.14206839 0.027864931 -0.07939669 -0.084346555
0002d0 ec cc 0e 3d 6f 74 09 3e 22 19 77 3c 6b 8c be bd
       0.034863397 0.13423322 0.015081676 -0.09304126
0002e0 6c 22 03 3d 20 28 0a be f0 03 2b bc 0c 1c 87 bd
       0.03201525 -0.13491869 -0.0104379505 -0.065971464
0002f0 20 7f e7 3c ea 21 ce be b7 27 93 3e d2 7d 56 bd
       0.02825886 -0.4026025 0.28741238 -0.052366085
000300 ab 8e 8d 3e bf 5b c0 3e 14 06 eb bc 4a ed 47 be
       0.2764791 0.37569997 -0.028689422 -0.19524112
000310 69 24 f9 3e 2a 71 1f be 07 50 85 be bc 8f b4 bc
       0.4866059 -0.15570512 -0.2603762 -0.022041194
000320 de 57 dd bd 1a d3 18 3c 71 32 30 3d bb 7d 41 3b
       -0.10807775 0.009327674 0.043016855 0.0029524404
000330 1d 2c db bd b3 5d 03 3d cd 77 8b 3e 7c fd e8 be
       -0.10701773 0.03207178 0.27239838 -0.45505893
000340 77 f8 59 be 02 70 79 be 59 74 83 3c 99 5a c8 3d
       -0.21286188 -0.24359134 0.01604669 0.09782905
000350 6a f1 e4 3d 6a 0a d6 3d 47 8b 64 3d a5 5a 88 3e
       0.111788586 0.10451205 0.055796888 0.26631656
000360 cc cf 0c 3d 14 eb 11 be ac ae de be be 91 08 3e
       0.034377858 -0.14249831 -0.4349264 0.13336846
000370 d2 51 cd 3e 8a f7 05 bf 71 12 a1 bd 70 82 17 3f
       0.40101486 -0.5233084 -0.078648455 0.59183407
000380 7a 9d 60 bd 00 82 d4 bb d9 cc 06 3e b8 9a 1f be
       -0.05483768 -0.006485224 0.1316408 -0.15586364
000390 74 b9 21 3d a9 14 be 3d 98 c6 8f 3d 64 13 a8 bd
       0.039483503 0.09281284 0.070203006 -0.082068235
0003a0 9b 2c 8c 3d 56 e5 32 3e 65 5f da 3d 40 57 0b 3c
       0.06844445 0.17470297 0.10662726 0.008504689
0003b0 2a f8 9a 3d 8b 8e 2e 3d ce 5e 26 3d 4a 11 09 3e
       0.07566865 0.04261641 0.040617757 0.13385502
0003c0 80 fe 66 3c be 66 08 3e 0f c6 39 3b 08 6d e5 be
       0.0140987635 0.13320443 0.0028346812 -0.44809747
0003d0 23 e1 68 3e f0 a2 b6 be a7 96 ef be 2f a6 34 bd
       0.22742133 -0.35671186 -0.46794626 -0.044103798
0003e0 94 27 d0 be 45 e5 00 bf d6 bf 02 3e ec 52 2a bc
       -0.40655196 -0.5034984 0.12768492 -0.010395747
0003f0 a0 60 9d bc 09 ff 1b 3e 6f 9b 1f be 3c 34 04 bd
       -0.019211113 0.15234007 -0.15586637 -0.032276377

conv3.bias f4 [8]
000000 ad 4c dd 3e 5a 5c 37 bd 92 2b 22 bd 5e 5e 06 3e
       0.4322256 -0.044765808 -0.039592333 0.13121936
000010 f4 51 8d 3e c3 6c 66 3e 1e 8c 75 3f d0 31 29 3f
       0.27601588 0.22502427 0.95916927 0.6609163

convt1.weight f4 [8, 8, 3, 3]
000000 81 83 a0 be 36 d3 0a bf 47 37 85 3d d1 df 92 be
       -0.3135033 -0.5422853 0.06504684 -0.28686383
000010 cb 4a c7 3c 85 13 82 3e 48 ec e7 bc 89 75 ff bc
       0.024327656 0.25405517 -0.02831091 -0.031183975
000020 2e a0 c4 3e b0 e2 b0 be dd b7 7f be 22 52 2a be
       0.38403457 -0.3454795 -0.24972482 -0.16632894
000030 b2 10 c3 3e 77 32 a2 3d c1 3b b9 be e5 e5 36 be
       0.38098675 0.07919782 -0.361784 -0.17861135
000040 fe 37 53 3e ee b2 4b bd 36 12 57 bd 8b 89 93 be
       0.20626828 -0.049731188 -0.0525076 -0.28815874
000050 b0 b9 b4 3b e5 55 65 bd d0 a2 de be 76 c3 8f 3d
       0.0055152997 -0.05599012 -0.4348359 0.07019703
000060 8a 74 e2 3c ad 11 a3 3e c3 e5 0f bd b9 3d 13 bf
       0.02764346 0.31849423 -0.035131227 -0.57516056
000070 54 0a 88 3e df 2a 7c 3d eb f1 cb be ea e6 05 bd
       0.2657038 0.061564323 -0.39833006 -0.03269092
000080 e6 09 b9 bd 1e 8e be 3d a3 83 84 be 9f 12 c1 3e
       -0.09035091 0.093044505 -0.2588168 0.3770952
000090 a1 d7 01 be 01 d4 5f bd 22 6c 4d 3e 53 22 99 be
       -0.12679912 -0.054645542 0.2006078 -0.29909
0000a0 8e ae 30 be e3 69 af 3e c0 12 6c be 7d 53 d2 bc
       -0.17254087 0.34260473 -0.23054028 -0.025674576
0000b0 da cd 0e 3e 85 14 fb be b5 3e 5c bf 4b 77 03 3e
       0.13945714 -0.49039093 -0.86033183 0.12838475
0000c0 3c 98 0f 3d b9 e4 59 bf f8 eb 68 bd d8 e5 60 bd
       0.03505729 -0.8511463 -0.056865662 -0.054906696
0000d0 fe 81 57 be 71 72 dd 3e b0 63 66 be d3 9f 9f be
       -0.21045682 0.43251374 -0.22498965 -0.31176624
0000e0 20 8e 35 be bc ed 87 be 5f 6c de bd f3 14 17 3d
       -0.17729998 -0.26548564 -0.10860514 0.036885213
0000f0 6d c1 aa 3d 77 ee af 3e 7e a4 65 3c c6 72 48 be
       0.08337674 0.34361622 0.014016269 -0.19575033
000100 e9 89 10 bd 3c 19 5a 3e 10 ae 5d bf 9e 0f 2c bc
       -0.03528777 0.21298689 -0.86593723 -0.01050177
000110 0c 50 3c be c5 90 00 3e 9b e1 92 be d1 70 05 be
       -0.1838991 0.12555225 -0.28687748 -0.13031317
000120 46 f7 89 3c 9c e0 1c 3f 5b 00 8f 3d c6 cf de 3d
       0.016841542 0.61280227 0.0698249 0.108794734
000130 00 65 6c 3e 12 0d f1 bc 5c 9b 69 be cf 8e 42 bb
       0.23085403 -0.029425178 -0.22813171 -0.0029687171
000140 e6 f4 57 be be ef 5e 3e cf c9 bf 3e 00 8a 80 3e
       -0.21089515 0.21771142 0.37458655 0.25105286
000150 9c 8e ed 3d 7d ba d7 3c ae 32 84 bc 1e fb a3 3e
       0.11599466 0.026334042 -0.016137447 0.32027525
000160 8e 65 3a be 9a 7c 50 be ff f4 92 3c 1f 3e 59 3e
       -0.18202803 -0.20360032 0.017939089 0.21215104
000170 46 87 b8 3d 02 5d 63 be 71 a4 2e 3e ab 5d 90 be
       0.09010176 -0.22203448 0.17054917 -0.28196463
000180 0b 35 80 bd e5 1a 50 be cc 93 80 bd 33 ac 06 3e
       -0.06260117 -0.2032276 -0.0627819 0.13151626
000190 b8 8e 16 bf 0b 53 07 be 6f c0 ad 3e ac 12 81 3d
       -0.5881152 -0.13215272 0.33935878 0.063023895
0001a0 e1 7d 3d bd 0a 9e 9e be 0c 9e b0 be d0 35 ae be
       -0.046262626 -0.3097995 -0.3449558 -0.3402543
0001b0 03 b7 a1 be 76 42 09 be 92 c2 6b be 8c 48 cd bd
       -0.3158494 -0.13404259 -0.23023441 -0.10023603
0001c0 66 08 fa be 77 71 e7 be 3e 00 84 3e d9 69 cc bd
       -0.48834532 -0.45203754 0.25781435 -0.09981126
0001d0 48 0a 31 be df 9b 4f be 91 3a 38 3e 02 2b 2d be
       -0.17289078 -0.20274304 0.17991091 -0.16910937
0001e0 2d 36 74 3e a5 9c 25 be 01 9e f2 bd f3 01 4e 3d
       0.23848791 -0.16173036 -0.11846543 0.050294828
0001f0 d0 36 a6 3e 84 c4 37 bf bb f9 60 3e c7 bc 71 3d
       0.32463694 -0.71784234 0.21970265 0.059017923
000200 73 9f af 3e f3 f0 32 3e 5e e9 ae 3e 5d f0 bc 3d
       0.34301338 0.17474727 0.3416242 0.09225533
000210 74 86 21 be 1a 30 a2 be 7e 87 f4 3d 89 16 ea 3d
       -0.15773946 -0.31677324 0.119399056 0.114300795
000220 b5 3d 63 be c3 00 b5 be c1 fb fe 3b f4 9a 27 3d
       -0.22191508 -0.35352144 0.0077814762 0.04091926
000230 11 80 95 3b 49 16 ac be 30 4b d3 bd e3 47 e1 bd
       0.004562386 -0.33610752 -0.10317075 -0.110000394
000240 23 64 87 3d 3b 4d 88 bd c8 00 f1 3c 50 f2 22 3d
       0.066108964 -0.066553555 0.029419318 0.03978187
000250 c6 bc 8d be 55 41 f4 3d 45 b7 8c be 38 8a 8f bd
       -0.27683085 0.119265236 -0.27483574 -0.07008785
000260 df af bb bd 4d 4c 80 be c5 b0 3f be 81 a1 1d 3e
       -0.09164404 -0.25058213 -0.18719776 0.1539364
000270 18 73 a8 3e 68 58 5a 3e 00 67 56 3d fb cc 0c be
       0.3290031 0.21322787 0.052344322 -0.13750069
000280 ac 1e 50 be dd ba 03 3f 17 4e 0a bd 04 ec 99 bd
       -0.203242 0.51457006 -0.03376588 -0.075157195
000290 09 e9 0f be 8e b5 c0 bd 95 2f d2 bd 1f a1 00 bf
       -0.1405374 -0.09409629 -0.10262982 -0.5024585
0002a0 1d cd e3 3d 98 bc 04 be 40 90 d8 3d 06 24 8d bd
       0.11123107 -0.12962568 0.105743885 -0.068916366
0002b0 e9 5a 43 bd 82 04 8b 3e 2a e7 f8 bd ca 73 0a be
       -0.04769412 0.27151877 -0.12153466 -0.13520733
0002c0 68 b3 8f be ed 2a 91 3e c4 69 fc bd 78 77 aa 3e
       -0.28066564 0.28353062 -0.12324861 0.33294272
0002d0 e8 48 de be 6c 3f b9 3d 35 19 d2 bd 95 85 65 be
       -0.43414998 0.090453 -0.10258714 -0.22414239
0002e0 92 35 bc 3d fb 4b 3a be 2e b5 6e be f6 90 7e be
       0.09189905 -0.18193047 -0.23311302 -0.24859986
0002f0 44 82 98 be a8 21 08 bc 08 7e ca 3d 4c 61 9c 3e
       -0.29786885 -0.0083088055 0.0988732 0.30542982
000300 f9 5b cf 3d 29 1e b1 bd 8b da ac 3e 7d 8d 87 3e
       0.10124964 -0.08648331 0.33760485 0.26475134
000310 5e 6c 7a be b4 98 2d be 37 2e 17 be 06 f5 49 bd
       -0.24455401 -0.16952783 -0.14763723 -0.04930594
000320 e9 2b bb bd 2f fe 84 3e 98 bf fe bd 8b c5 87 3e
       -0.091392346 0.25975177 -0.12438887 0.265179
000330 88 ca 44 be 9e c3 1f be ec c4 15 3e aa 49 40 bd
       -0.19217885 -0.15601966 0.14625901 -0.04694525
000340 4d 61 4c 3e d7 92 69 bd bc 3e ab bc 51 4f c6 3c
       0.19958992 -0.057024803 -0.020903938 0.024207743
000350 b5 e3 a2 be bd 40 5e bd 2f e9 b5 be d8 26 44 3d
       -0.31814352 -0.054260958 -0.35529467 0.047888607
000360 13 c7 a9 3d 98 97 87 3e e8 e3 6e be 25 a4 12 bd
       0.082899235 0.26482844 -0.23329127 -0.03580107
000370 e3 94 67 bf cb f9 f1 3d 82 49 9e 3e 98 6f 13 3d
       -0.9046156 0.11815222 0.30915457 0.035995096
000380 30 ee 13 3d 7e 11 20 be 20 10 74 3e 58 d9 ea bc
       0.036115825 -0.15631673 0.23834276 -0.02866809
000390 0c 54 0f be 16 11 b4 bd 44 2b 03 3e 87 51 c8 3c
       -0.13996905 -0.087923214 0.12809473 0.024452938
0003a0 95 d3 c1 bb 9e 7d f1 3d 42 2d 6c bf 29 3d 9f bd
       -0.005915115 0.11791538 -0.9225656 -0.07775337
0003b0 8b 23 60 3d 1e 60 92 bd 96 3a de be 04 c3 98 3d
       0.054721396 -0.07147239 -0.43404073 0.07459071
0003c0 93 f7 49 bd 20 59 98 3d 0b 67 b5 3d 2f c6 22 3e
       -0.04930837 0.07438874 0.088575445 0.15895914
0003d0 62 4d eb bd dd 53 a5 be a7 27 8b be 0d a4 50 3e
       -0.11489369 -0.32290545 -0.2717869 0.2037508
0003e0 39 57 26 3e 6a d1 81 3e ef 62 9d 3b 71 80 56 bd
       0.1624421 0.25355083 0.0048030536 -0.052368585
0003f0 57 1c 2e 3e b2 3b 8f bc 4d 06 1c 3e 20 d2 da bd
       0.17002998 -0.01748452 0.15236779 -0.106846094

convt1.bias f4 [8]
000000 76 bd 21 3e 3e 50 a3 3d 6c 56 1f 3e 93 2d 0c be
       0.1579493 0.07974289 0.15560311 -0.1368926
000010 6c 70 7c 3e 1e 5e bd 3d 14 38 59 3e 0e 94 31 3e
       0.2465226 0.09246467 0.21212798 0.17341635

convt2.weight f4 [8, 16, 5, 5]
000000 c9 a4 64 3d 7e 6d 9d bb 49 b3 92 bf 52 b8 5c be
       0.055821214 -0.0048043123 -1.1460963 -0.21554688
000010 af c1 de 3d 67 55 4a 3d 5d f8 cf be 65 23 a4 be
       0.10876786 0.049397852 -0.40619174 -0.32058254
000020 18 24 f2 bd bc 2c 34 3e 1a 8f 4a 3d 54 b7 47 bf
       -0.118232906 0.1759519 0.04945288 -0.7801411
000030 a7 b8 02 be 73 1f 51 be 8f b1 e0 bd 20 e8 13 bf
       -0.12765752 -0.20422153 -0.109713666 -0.5777607
000040 13 7e 19 3e da b8 57 3d 35 2e d7 be 83 c2 d3 bd
       0.149895 0.052666523 -0.4202744 -0.103398345
000050 76 3d 90 bd 40 d5 be bd 1a 3b ad bf 09 f7 3e be
       -0.07042973 -0.09318018 -1.3533661 -0.18648924
000060 8b 66 18 3e ba f7 33 3e bf b8 a2 3d a8 45 aa be
       0.14882867 0.17574969 0.07945394 -0.33256269
000070 47 3f 18 be 9c f5 65 be 62 e0 b6 bd c2 d7 34 bd
       -0.14867888 -0.22456974 -0.089295164 -0.044151075
000080 6f 03 9c 3d 0c 1a ad 3e 74 5b fb bc 66 94 43 3e
       0.076178424 0.33808935 -0.030683257 0.19099578
000090 77 0c ee 3d 66 36 2d be 02 14 0f 3e 7f 57 f4 bd
       0.11623471 -0.16915283 0.13972476 -0.11930751
0000a0 14 fa 08 be bf d2 10 3e b0 24 89 bd c4 a4 6f bf
       -0.13376647 0.14142893 -0.06696451 -0.9361079
0000b0 b7 e2 81 3d 71 7b 3f 3e 65 b1 15 3d 4b a9 53 be
       0.063420705 0.18699433 0.03654613 -0.20670049
0000c0 f5 fa cd bd e5 c6 42 bb 1c e4 e6 bc ab 82 12 be
       -0.10057632 -0.00297206 -0.028184943 -0.14307658
0000d0 26 50 f8 3d 47 f8 ff be 8f fc 4b 3e 0a 51 11 be
       0.12124662 -0.49994108 0.19920562 -0.1419107
0000e0 10 b2 43 3e 5d 0c 2d bd 89 ad 13 be f3 28 56 3e
       0.19110894 -0.04224812 -0.14421667 0.20914058
0000f0 57 81 6f 3e b9 a5 fe be 4f 3f f5 3d 0c 30 fb be
       0.23389183 -0.4973581 0.11974966 -0.49060094
000100 e8 cb c5 bd a1 79 06 be f3 f6 34 bd 2f 00 ac 3d
       -0.09658033 -0.13132335 -0.04418082 0.083984725
000110 ea b8 4a be 19 73 e2 3d f0 f8 4c be ce 05 57 3e
       -0.19797102 0.110571094 -0.20016837 0.20998308
000120 fb c4 cb 3d 57 0b 9d be c8 9b 0e be 9f 82 23 3e
       0.099496804 -0.30672714 -0.13926613 0.15967797
000130 97 bb 21 3e dc f7 75 3e de b9 83 3d 23 bf a1 3e
       0.15794216 0.24020332 0.06431936 0.31591138
000140 fb 67 bc bb a8 dd 8c 3a 1d 9b 76 3d 9b bf 0f bd
       -0.0057497 0.0010747211 0.06020652 -0.03509484
000150 ed 3f 61 be 16 53 5a be e0 1b 4b be 60 cd 1d bd
       -0.21997042 -0.21320757 -0.19834852 -0.03852594
000160 26 9a 99 bd d7 6c 02 be 4e b5 c0 bc 66 7a 5f be
       -0.075001046 -0.12736832 -0.023523953 -0.21824035
000170 ec f9 d8 bd 60 bf 39 bf a6 4f 6e 3d 92 f1 3e be
       -0.10594544 -0.7255764 0.058181427 -0.1864684
000180 33 4c 06 be 72 0a eb bc 8e bb 50 bd 7f 14 98 3d
       -0.13115005 -0.028691504 -0.050960116 0.07425784
000190 7d 6e 32 be b5 1d dd 3e 94 07 b3 bd af ad 70 bd
       -0.1742496 0.43186727 -0.0874168 -0.058759388
0001a0 d8 8a fb 3d f9 07 38 be e4 d9 1e 3d 65 98 e3 bd
       0.12282342 -0.17971791 0.038782015 -0.11113051
0001b0 d9 11 00 bf 30 f5 5d bd 81 ab cb bd a4 62 8b bc
       -0.50027233 -0.054188907 -0.09944821 -0.017014809
0001c0 8e 63 0b be 82 df e1 be be 1d 42 bd 6e 68 52 be
       -0.13612196 -0.44115835 -0.047391646 -0.2054765
0001d0 67 f2 d1 bd 02 6e 6f be 29 3b a6 bc d8 9c 2f 3d
       -0.10251313 -0.23381808 -0.020291882 0.042874187
0001e0 96 88 76 3e 39 0f da be 67 40 e6 be 98 eb b3 be
       0.24075541 -0.4258974 -0.4497101 -0.3514068
0001f0 e6 66 cf be e5 64 45 3d 4f 0b 18 bd 0b 90 6f bd
       -0.40508193 0.048191924 -0.03712016 -0.05848698
000200 a0 0d 16 bc 93 2c 16 be 56 79 c5 3d 39 38 21 3e
       -0.009158522 -0.14665441 0.096422836 0.15744103
000210 53 ba 44 be 53 b2 45 3d dc ca 83 be d0 2f a3 3c
       -0.19211702 0.048265766 -0.25740707 0.01992026
000220 9d 1a 09 be 18 e1 20 be 9c b5 c9 bd d9 bb bd bd
       -0.13389058 -0.15710866 -0.09849092 -0.09264345
000230 4d db 55 be 89 7a 6c bd bb 52 fc bd cd 09 d0 be
       -0.20884438 -0.057734046 -0.12320467 -0.40632477
000240 bb 9b cd 3c 26 19 ec 3c 1d 27 4a bd 51 cf 72 3d
       0.025098672 0.028820585 -0.049353708 0.059279744
000250 a4 aa f8 3d 6e bf 82 bd 4e 56 3e 3e 4f 11 46 3e
       0.12141922 -0.063841686 0.1858761 0.1934254
000260 2f 4c b2 3c 3c fb 0f be 46 bd 0b be b4 f9 8a 3d
       0.021764843 -0.14060682 -0.13646421 0.06785908
000270 f3 0f a9 3d df b9 c0 ba 7a eb 8f 3d 1f 08 cf bc
       0.08254995 -0.0014703831 0.070273355 -0.025272427
000280 b2 45 32 3b b7 cc 73 bf 2e 46 08 3e 35 43 cd be
       0.0027202186 -0.95234245 0.13308021 -0.40090337
000290 5f 9f a3 bc 3b b9 21 be 3a a0 73 3d b4 85 8a bd
       -0.019973455 -0.15793316 0.059478976 -0.06763783
0002a0 e8 77 e3 3d 77 9c 5d 3d 1b 5c 52 bd c8 db 33 be
       0.11106855 0.054104295 -0.05135737 -0.17564309
0002b0 8d e8 d6 3d 1d ad a0 be 5c d4 ce 3d a7 3d 61 3c
       0.10493574 -0.31382075 0.10099098 0.013747609
0002c0 ce 41 38 3e 47 28 5c 3e 19 ca 5e bf 16 65 89 3e
       0.17993852 0.2149974 -0.87027127 0.26834935
0002d0 48 00 86 3d 69 6d fb 3d a5 6e 48 bf 73 ba a5 3d
       0.065430224 0.12276728 -0.7829383 0.08092203
0002e0 94 de 98 3d e4 46 55 3e 47 1e b8 be 76 24 e6 3d
       0.074643284 0.20827824 -0.359606 0.11237423
0002f0 5f 57 aa be ae 65 b6 be 33 c3 a4 3c e2 7c 1e be
       -0.33269784 -0.3562445 0.02011261 -0.15477327
000300 1a af c2 be b7 8c c1 be 78 49 58 be 1b 6e 61 be
       -0.38024217 -0.3780267 -0.21121776 -0.22014658
000310 6e 1f c4 3d f2 c6 6c be 44 5c 79 be e7 70 41 be
       0.09576307 -0.23122767 -0.24351603 -0.18890725
000320 65 98 e8 bd fb c3 f8 3a 84 2d 16 3d b6 2a 16 bd
       -0.11357192 0.0018979305 0.0366645 -0.036661826
000330 e5 2f d8 3a 59 88 c0 be 01 9b 5f be ee 9a c4 bd
       0.0016493766 -0.37604025 -0.21836473 -0.09599863
000340 3d ee b9 bd 0f ed 10 be 95 d9 fb 3c 8c 0d 93 3d
       -0.090786435 -0.1415293 0.0307434 0.07180318
000350 a9 fb bd bd 90 df 26 bb cc fd 7f 3b 3d 60 cd bd
       -0.09276516 -0.0025462843 0.0039061187 -0.100281216
000360 56 f5 0d be 1f 0b 60 3e fb 77 a5 be f4 56 c3 bb
       -0.1386312 0.21879242 -0.323181 -0.0059612934
000370 f4 0c dd 3d 11 fe fe 3c 10 06 a8 bb 62 b5 31 3d
       0.10793486 0.031127008 -0.005127676 0.04338587
000380 07 5d 28 3c 84 86 31 bd ff 24 60 bd ad 57 d5 bc
       0.010276086 -0.043341175 -0.054722782 -0.026042784
000390 31 4f 4f bd db cf 48 3e 31 4e 44 bd 06 fd c0 bd
       -0.050612632 0.1961054 -0.04792613 -0.094232604
0003a0 38 06 e7 bb 56 ef b5 bd 44 e1 c5 39 fb 10 76 bd
       -0.007050302 -0.0888354 0.00037742604 -0.060074788
0003b0 ea 06 7c bd 3c 7b 09 be 79 37 c2 bd 33 f7 c6 3d
       -0.06153003 -0.13425916 -0.09483237 0.09715118
0003c0 03 f6 ff bd c2 ea de bd 90 01 27 be 81 d1 0c 3d
       -0.12498095 -0.1088462 -0.1630919 0.034379486
0003d0 d0 7c 8a bd 65 14 4a bd 18 ef fb bd c0 68 2f be
       -0.06762087 -0.049335856 -0.12301463 -0.17129803
0003e0 f5 6c b2 3c bb f3 9d be fc 11 cf bd 02 8a 07 3d
       0.02178047 -0.30850014 -0.10110852 0.0330906
0003f0 07 35 1d 3d 20 40 13 3e 92 68 f6 3d ce c2 fa bd
       0.03838065 0.1437993 0.12031664 -0.12244187

convt2.bias f4 [16]
000000 90 0f a8 3d 8a b3 27 bd 73 a5 90 bb 8c 0c f9 3d
       0.08206093 -0.040942706 -0.0044142543 0.12160596
000010 74 85 59 3d e1 1a ee bd 6a b4 f2 bd a9 f9 9a 3d
       0.053105786 -0.116262205 -0.118508175 0.0756715
000020 bb 58 ec 3d 72 50 5a 3e a1 18 0b 3e df da 22 3e
       0.115403615 0.2131975 0.13583614 0.15903805
000030 5b 5c 60 bd 64 5d 4e 3e a7 38 ab 3c b6 ab 16 3e
       -0.054775577 0.20152813 0.020901037 0.1471394

convt3.weight f4 [16, 32, 9, 9]
000000 9f bc fe bb b9 91 a9 3c 1d a2 24 be 60 eb 14 3e
       -0.00777395 0.020699369 -0.16077466 0.14542913
000010 79 57 b9 3d cc 99 53 3c e9 57 9c 3e 16 5f 84 3e
       0.09049887 0.012915086 0.3053582 0.25853795
000020 ae d9 77 3e 68 cc 5b 3d 96 50 af bc ef e8 1d be
       0.24204132 0.053661734 -0.021400731 -0.15420888
000030 64 ef 3d 3e ed 80 03 3e 78 88 bc 3d fb ec 67 3e
       0.18548352 0.1284215 0.09205717 0.22648995
000040 4b 3b 83 3e ab c5 a3 3e 2e 19 92 bd 5c 0e b8 bd
       0.25631174 0.31986746 -0.07133709 -0.08987114
000050 f3 93 03 be a7 54 e5 3b 34 9a 0a 3e b4 64 67 3e
       -0.12849407 0.0069986167 0.13535386 0.22597009
000060 9d 54 46 3e 07 db 62 3e 64 0e 89 3e 4c f4 a3 bd
       0.19368215 0.22153865 0.26768792 -0.0800558
000070 b8 20 a3 3c 5b 10 44 be ee de 4d 3d d3 f4 2b 3d
       0.019913062 -0.19146864 0.05026143 0.04198153
000080 5a 28 31 3e 75 10 80 3e e1 af 93 3e d4 e7 a8 3e
       0.17300549 0.25012556 0.28845122 0.3298937
000090 9b 28 86 3d 34 5b c5 3d 99 3c 29 be 79 00 38 3e
       0.06550714 0.09636536 -0.16527022 0.1796893
0000a0 60 32 18 3e b4 75 40 3e 54 c6 a9 3e d6 76 cd 3e
       0.14862967 0.187949 0.33159125 0.40129727
0000b0 8e 65 c8 3e b8 60 07 be 03 d6 17 bb f5 81 d2 bd
       0.3913998 -0.13220489 -0.0023168332 -0.102786936
0000c0 ee bc 65 3d 6b 46 43 3e fe 0c 80 3e 7b 25 85 3e
       0.05608838 0.19069831 0.25009912 0.26005158
0000d0 62 e6 87 3e 05 e1 cd 3e 01 d6 15 be 28 47 17 be
       0.26542956 0.4021074 -0.14632417 -0.14773238
0000e0 85 ff 37 be f9 53 0e 3e 83 85 d9 3d 97 62 1a 3e
       -0.17968567 0.1389922 0.106211685 0.15076672
0000f0 94 57 6c 3e 65 65 0c 3e dd f6 8f 3e 43 a9 cc 3c
       0.23080283 0.13710554 0.2811803 0.024983054
000100 11 c0 9d 3c a9 fe bf bd e0 42 81 3e f6 0a 55 3e
       0.019256623 -0.093747444 0.25246334 0.20804963
000110 55 ea 28 3e f5 ce a9 3e e2 cb 61 3e d0 64 88 3e
       0.1649564 0.33165708 0.22050431 0.26639414
000120 47 c9 f0 bd 88 2e 75 3c 70 47 c8 bd 5a 09 e7 3d
       -0.117571406 0.014964707 -0.097792506 0.112810805
000130 ac 93 68 3e 4e e3 63 3e aa 3a 47 3e 36 d7 44 3e
       0.22712582 0.22254679 0.19455972 0.19222721
000140 45 ff 6d 3e e1 5b de bc 9f 58 30 bd 2b e6 19 3b
       0.23241909 -0.02714342 -0.043053266 0.0023483138
000150 48 58 64 bc 5d f5 08 3c 4d ea 1c bd ce 11 5b 3c
       -0.0139370635 0.00835928 -0.038309384 0.013370944
000160 41 1a 88 3c a1 54 98 bc 33 61 ce bd 00 d3 c2 3c
       0.016614081 -0.018595042 -0.10077133 0.023782253
000170 2e e0 e5 bc 5b 14 08 be f5 ad 15 bd 67 5d 3c bd
       -0.028060999 -0.13289015 -0.03654285 -0.045987513
000180 68 62 56 be 18 bd 4c bd cb e3 8c bb e1 b8 a9 bc
       -0.20935977 -0.04998502 -0.004299616 -0.02071804
000190 a6 90 ab bd 10 b5 7a bd 90 6b a7 bb c6 9b d3 bd
       -0.08377199 -0.06120783 -0.005109258 -0.10332446
0001a0 b7 12 96 bc 2c 8c 0a bd 0f f9 ce bd 3b df 85 bd
       -0.01831947 -0.033825085 -0.10106098 -0.065367185
0001b0 fd d5 1b 3c 8d 91 70 3c a3 8f 71 3c 42 b1 4b bd
       0.009511468 0.0146831395 0.014743718 -0.049729593
0001c0 12 3c ed bc d5 cd fa 3b 68 23 2f bd 9e 60 b0 3c
       -0.028959308 0.0076539316 -0.042758375 0.021530446
0001d0 f4 1a 96 bc 8c 8b 6a bd b7 1c 5f bc 62 27 bd bc
       -0.0183234 -0.05726199 -0.013617686 -0.023090068
0001e0 d7 9a 3b bd 29 c5 41 bc 62 53 27 bc bf 12 e4 bd
       -0.045801964 -0.011826792 -0.010212751 -0.11136388
0001f0 89 ac 00 3c 08 1d 85 bd 18 98 88 bc 02 4b ae 3d
       0.007853636 -0.06499678 -0.016674086 0.085104
000200 7d 2a 8b bd 2e 74 9f 3c 83 71 cf 3d 95 49 80 bd
       -0.06795213 0.019464578 0.101290725 -0.06264035
000210 9b 90 a2 3a 05 04 bf 3d 43 f9 c7 3b b2 04 a7 3a
       0.0012402715 0.093269385 0.0061027124 0.0012742488
000220 c6 ff 28 bd 17 a6 06 bd f1 c1 0e bd b0 e9 47 bd
       -0.04125955 -0.03287324 -0.034852926 -0.048806846
000230 ae f1 09 bb 2d 81 fb bb d7 dd 57 bd bd bc 22 3c
       -0.0021048593 -0.007675311 -0.052701797 0.009932694
000240 88 66 da ba 7a 71 0d ba d8 18 29 bd 93 24 76 bd
       -0.0016662637 -0.00053956325 -0.04128346 -0.060093474
000250 1d 5a 19 3c 59 cd 72 bc 95 d1 dc 3a 20 6f da 3c
       0.009359864 -0.0148194665 0.0016847128 0.026664317
000260 bb 8a 42 bd f7 0b 71 bc 40 98 5c be bd de 2b bd
       -0.047495585 -0.014712325 -0.21542454 -0.041960467
000270 42 c5 5a 3c b6 2d ea be 89 bd 97 bd c0 42 44 3c
       0.013352694 -0.45738 -0.07409198 0.011978805
000280 e4 8c ac bd 58 0a 38 bd 83 ad 2a 3e 96 1c 39 bd
       -0.0842531 -0.04493174 0.16667752 -0.045193277
000290 92 e7 84 bc e6 5a 31 3e 89 d8 33 be 46 e2 a5 3d
       -0.016223703 0.17319831 -0.1756307 0.08099799
0002a0 d6 d6 12 3d 58 2d 9f bd cc 65 7d bc a9 a4 a6 3e
       0.035849415 -0.077723205 -0.015466165 0.325475
0002b0 79 5b 17 be cb 72 d8 3d 84 b7 b8 3e c9 78 8f bd
       -0.14780988 0.1056877 0.3607751 -0.0700546
0002c0 80 68 a7 3d bf ef aa 3e 95 41 8d bd 22 4e 38 3e
       0.08174229 0.33386037 -0.068972744 0.17998555
0002d0 d7 fd 55 3e 11 5f 23 3e ce 92 1e bd 30 0a 95 3d
       0.20897613 0.15954234 -0.038714223 0.07277334
0002e0 c1 4d 8a 3e 29 4e c8 bd e5 13 f3 3c 96 f8 61 3e
       0.27012447 -0.09780533 0.029672572 0.22067484
0002f0 31 da 81 bd 01 b9 f0 3d cd ae 88 be 74 b6 9c 3d
       -0.06340445 0.11754037 -0.26695862 0.07651988
000300 5c 74 a4 3d 45 db 06 be ed 77 83 3d b6 d3 0d 3e
       0.08030006 -0.13169582 0.064193584 0.13850293
000310 f7 4f 7f 3d 0a 0a 13 3e ac cc dd bd 42 2b 20 bd
       0.06233212 0.14359298 -0.10830054 -0.039103754
000320 86 58 bd 3d 5f 3c 34 3b 66 b7 a9 3c 20 b2 01 3d
       0.092454 0.0027501804 0.020717334 0.031664014
000330 3f df a6 3d bc 21 47 3c a3 24 c5 3d d8 3a cc 3d
       0.081480496 0.012154039 0.096261285 0.09972161
000340 23 4a ca bc 86 cd cf bc 84 fa 87 3d ed aa 9a bd
       -0.024693554 -0.025366556 0.06639579 -0.07552133
000350 4d 82 ec 3c 05 8a 35 3e dd 88 55 3e c8 cd 19 3e
       0.028870726 0.17728432 0.2085299 0.15019906
000360 e9 29 83 bc 3a 3b ea 3d ff 09 26 bc 36 ae 67 bd
       -0.016011195 0.11437078 -0.010134219 -0.056562625
000370 f3 a8 68 3d 16 cb af 3b af 72 d8 bd df 9b 2f 3e
       0.056801748 0.005364786 -0.10568749 0.17149304
000380 e5 39 ae bc 82 2d 4a 3e fe 15 36 3c 08 a1 0a 3d
       -0.02126784 0.19743922 0.011113642 0.033844978
000390 1b 0c 5e 3b 06 02 5f bd 80 a7 dc bc 8a 61 1d 3e
       0.0033881727 -0.05444529 -0.026935339 0.1536924
0003a0 ce 82 8c bd 60 56 c0 3c e9 8a f0 3c df 38 89 3d
       -0.068608865 0.023478687 0.029363113 0.067003004
0003b0 8a 10 82 3c 04 a0 ce 3c 52 64 3d 3d 3f b0 22 3d
       0.015877027 0.025222786 0.04623825 0.039718863
0003c0 89 a1 9c 3a a7 95 4e 3e c5 44 84 3d 5a 2d a5 3c
       0.0011949997 0.20174275 0.06458429 0.020163227
0003d0 5e 7c f2 bd 56 c7 98 3c 3d c3 4e 3c c2 64 e4 be
       -0.118401274 0.018649738 0.012619791 -0.44608122
0003e0 59 a8 26 bc 57 19 bb ba 27 a0 9b be 50 70 62 bc
       -0.010171973 -0.001427452 -0.30395624 -0.013820723
0003f0 50 6f bc bc 71 ce b2 3c 34 dd 01 3d d7 a6 93 bc
       -0.023002297 0.021826955 0.031705096 -0.018023891

convt3.bias f4 [32]
000000 76 cc 05 3c 8c 96 da bd 89 be 74 3c 43 83 99 be
       0.008166423 -0.10673246 0.014938005 -0.29982957
000010 0a 98 b5 3d cc e2 18 be 99 ef f0 3c 6a d9 b5 3c
       0.0886689 -0.14930266 0.029411124 0.022198398
000020 1e e4 0b 3e 95 70 13 3d 60 95 b4 3b 05 81 37 3e
       0.13661239 0.03599604 0.005510971 0.17920311
000030 ed 97 1f 3d af 41 00 3b df a7 80 3d 75 8d ac 3c
       0.038963247 0.00195704 0.06282019 0.021063546
000040 f2 3f a6 3d 30 bb c3 3d 51 df d1 3b a3 cc 87 3c
       0.08117665 0.095571876 0.006404795 0.01657707
000050 42 46 a0 3c c1 45 88 3d e4 fd 96 be e5 d4 97 be
       0.019564752 0.066539295 -0.29490578 -0.29654613
000060 e4 a5 ad bc d9 e5 4b 3e e6 97 6d 3e d0 78 09 3c
       -0.021197267 0.19911899 0.23202476 0.00839062
000070 80 a2 d2 3c 88 91 c1 be 79 e3 07 3e 36 ec ef 3d
       0.025712252 -0.37806344 0.13270368 0.117149755

pos_output.weight f4 [1, 32, 2, 2]
000000 24 00 f4 3c d2 fa d2 3d a9 4e 3f 3e 61 22 8d 3d
       0.029785223 0.103017464 0.1868235 0.06891323
000010 f4 a9 cd bc 98 d9 63 bd e2 47 c8 bd ac d4 d3 bd
       -0.025105454 -0.055627435 -0.097793356 -0.10343298
000020 46 40 09 3e 75 98 df 3d fb d4 1a 3e 1e 33 12 3e
       0.13403425 0.10917751 0.15120308 0.14277312
000030 72 8b 5c bc 09 47 0f bd 51 a1 0c bc 44 3c 2f bc
       -0.013460981 -0.034979854 -0.008583383 -0.010695521
000040 92 66 95 3e 36 fa 7a 3e 0d 7b f7 3d b5 8d b0 3d
       0.29179817 0.2450951 0.12084017 0.086207785
000050 fe b2 8d be 54 11 7d be 8a 72 81 be 54 9c 88 be
       -0.27675623 -0.24713641 -0.252827 -0.2668177
000060 a6 3f 17 3e 77 a2 06 3e 7c 22 01 3e 99 60 de 3d
       0.14770374 0.13147913 0.12610811 0.10858268
000070 3b 7d 23 3e 01 4f 0e 3e 74 31 19 3e 86 a4 1e 3e
       0.1596574 0.13897325 0.14960271 0.15492448
000080 53 69 23 3e 4e 6c ce 3d 7f 41 16 3e ad d4 0b 3e
       0.15958147 0.10079251 0.14673422 0.13655348
000090 48 7c 91 3e 5f e5 72 3e de 74 9e 3e b8 b2 ba 3e
       0.28415132 0.2372031 0.30948538 0.36464477
0000a0 c8 0e 61 3e ac 88 8d 3e 1c 9e 87 3e 0c dd ad 3e
       0.21978295 0.27643335 0.26487815 0.33957708
0000b0 57 d0 6c bb 0e 3f 10 3d e9 9d 96 bd 96 d8 a6 bd
       -0.0036134922 0.035216384 -0.07354338 -0.08146779
0000c0 a3 bc 36 3e 00 1a 2e 3e 47 4f 84 3e 12 22 6a 3e
       0.17845397 0.17002106 0.25841734 0.2286456
0000d0 68 cb 7a 3d d7 b8 93 3d 4c 84 0d 3e 29 1f 23 3e
       0.06122914 0.0721299 0.13819999 0.15929855
0000e0 42 d5 7d 3e fc 85 79 3e 8a 58 1a 3e 73 be 5c 3e
       0.24788383 0.24367517 0.15072837 0.21557026
0000f0 ae 42 98 3d 26 dc 93 3d dc 79 44 3d e3 4c ac 3d
       0.07434593 0.07219724 0.047967777 0.084131025
000100 69 3d ee 3d bd 61 fb 3d 08 1f 28 3e 40 0a 4e 3c
       0.11632807 0.122745015 0.16418087 0.012575686
000110 5e b4 0c 3e c0 3f 90 3c f2 5f 47 bd eb 77 04 bd
       0.1374068 0.017608523 -0.048675485 -0.032340925
000120 62 8b df 3d 19 c4 8d 3b 1a e6 d0 bd b8 f7 ad bd
       0.10915257 0.004326355 -0.102001384 -0.08494514
000130 4f de 0b bc 22 8b 2b bd 70 cf c9 bb 96 cf 3b bd
       -0.008536889 -0.041880734 -0.0061587617 -0.045852266
000140 30 f6 aa 3b 13 13 31 3e 9f c7 4c be ba ef 36 3d
       0.005217336 0.17292432 -0.19998024 0.044662215
000150 67 f7 1f 3e 1d a8 94 3e f2 ee 94 3e f5 57 ce 3e
       0.1562172 0.2903451 0.2908855 0.4030148
000160 32 19 07 3d 35 da 96 3d 32 da bd 3d 39 f3 b8 3d
       0.032983012 0.073658384 0.09270133 0.09030766
000170 54 57 88 3d 50 c3 fc 3d d8 fc 01 3e eb f7 ee 3d
       0.066572815 0.123419404 0.12694108 0.1166838
000180 61 08 db 3e 1a fe ac 3e 9e 1b f8 3e 62 be 9a 3e
       0.4277983 0.33787614 0.4845857 0.30223376
000190 b6 91 70 be 4c 4d a7 be 28 7d bc be 86 36 6e be
       -0.23493084 -0.3267616 -0.36814237 -0.23262987
0001a0 3f 33 5d 3e 89 54 4f 3e cb 27 65 3e 17 55 18 be
       0.2160158 0.20247091 0.22378461 -0.14876209
0001b0 40 b9 f9 3d 7b 59 5a 3d 93 bd 02 3e 69 94 7a 3d
       0.12193537 0.05330799 0.1276763 0.06117669
0001c0 53 35 79 3e ec dc 49 3e 5f c9 59 3e 02 06 17 3e
       0.24336748 0.19713181 0.21268223 0.14748386
0001d0 ad fa e9 3c cd 67 3a 3d 76 66 5d 3d db 48 0a 3d
       0.028561914 0.04550915 0.054052792 0.033760887
0001e0 a5 db 33 be 3f d7 e7 bd e9 79 96 bd ff ee 28 be
       -0.17564256 -0.11320352 -0.07347471 -0.1649742
0001f0 a0 d5 69 bc 18 d9 3d 3e 00 14 8c bd b6 dc 4f 3d
       -0.014272124 0.18539846 -0.06839752 0.050747596
