output/models/220415_1711_ggcnn_val0.6/epoch_00_iou_0.00_statedict.pt (torch, 255529 bytes, 16 tensors)

conv1.weight f4 [32, 1, 9, 9]
00000000: 3250 5a3b e49a 733d 0f35 b0bc 53c3 f9bc
00000010: 2429 763c 024d b53c d1b7 4abc e454 8bbc
00000020: b97a 643d e586 be3c 584d 80bc e254 88bc
00000030: 8df5 d33c 140a d73c ac45 383c 007a 123d
00000040: 9be4 5bbc b971 de3c 43ba 633d e56f 753d
00000050: 3782 2b3c c89f de3c 4928 b73c e2bd e93b
00000060: 6578 a93b 315f 32bb 5244 d63a 70c5 0e3d
00000070: e6ba 563d bda0 7cbc 9466 05bd 4f5e 823b
00000080: 6003 b8bc f973 943c 9921 393c 98bd 8fbc
00000090: e3ed 533d b75e 60bc 3deb c1bc 22dc 433c
000000a0: f6ed dc3a 6971 fc3c 14e9 02bd f0d1 503d
000000b0: 76f4 1d3c 879c d33c 28ac 1e3d 81a6 ab3c
000000c0: 9c95 10bd bb30 013d 44e6 b43c e286 ea3c
000000d0: 0df5 1d3d 924f 03bd 1a99 673c 0c18 dabc
000000e0: ec05 eb3c f118 563d 3f45 2c3d 7cc6 5abc
000000f0: 7e83 07bd 05d2 cabb ae2a d03c 46bb 523d
00000100: 8d70 693d 9fab acbc c0ee 46bc 9b18 e13c
00000110: 55d4 0d3d 74eb a13c 618a 7e3c 734f 1e3d
00000120: 33c3 793d 4e12 bc3c 7a53 203d 2670 9f3b
00000130: 5172 4e3c 8c2a a83b 74ff 543d e9e2 d1bc
00000140: e0df 943c 954d 90bb 571b 84bc 88cd bcbb
00000150: 66e6 bbbc a6f9 043d 6797 ccbc 884d 523c
00000160: 9c51 3a3d 22e1 c3bc 82be 273d b513 c8bc
00000170: 57ea adbc 5635 743c b820 b7bc bc90 21bd
00000180: 8bc7 2f3d 8beb a8bb 2ebe bdbc cf95 2cbc
00000190: 8b57 673c 9324 bfba 3940 d73c a3e6 d83c
000001a0: e1ba aa3c 05a8 ed3c 63a3 563c 797d 13bd
000001b0: f1fd c73c 6d46 833c c3e9 c0bc f681 11bc
000001c0: 9cb6 103d 7026 3abc e96c fd3c ec56 b4bb
000001d0: 8f20 f5bc 1a03 583d 1cbf 7f3c 58d8 0cbd
000001e0: 3afd 223d e7d7 853c fc11 ea3c 0091 a6bc
000001f0: 9793 00bd 12dc 4bbc 4b24 023d 9eec 063b
00000200: 5208 253d 9a2b fbba 373f 50bc 0940 efbc
00000210: 106a dc3b da10 10bd b2ea fa3c 1256 c53c
00000220: 96b7 cdbc 6430 6abb 1a09 e3bb f52c a6bb
00000230: 717d 293d c41f f63c 88a7 033c 8741 36bd
00000240: 98e7 b03c 815c 4d3d 8dcc 663d 7a01 0c3d
00000250: 96fd 113d fb25 b4ba c796 0bbd 7c98 2abb
00000260: ef5c c0bc 50b6 323d 4fd2 93bc e9b8 ff3c
00000270: 1363 a13c 17ef 113d 6496 1e3c 1e66 ea3c
00000280: eec1 1e3d 04a5 f9bc 3da5 803c 6778 43bd
00000290: 05c1 27bd 8322 8cbc 963f 52bd cf5d 19bc
000002a0: c7ad 7fbd 4f41 133a 3538 82bd 6ed0 36bd
000002b0: 1c1c 973c 474c 203c 0119 93bc c982 1f3c
000002c0: 4926 e4bc 1959 d33c a4ca c53b 0620 25bc
000002d0: ff5e 043d 554f 15bd 7088 863b eadd ad3c
000002e0: aa9d 05bd 70d5 3bbd 1947 413c 3c0c 09bd
000002f0: ad1c 873c 910d 2cbc 631b eb3c 8dd1 c9bc
00000300: abd3 fabc 69c7 fb3b 23dd e0bc e2f7 8a3c
00000310: c023 08bd 4582 d13c fac8 033d a4e3 b13b
00000320: 103e 823c ed51 75bc 4ef1 10bd 855a 36bd
00000330: 04cf 083d 1a6e 393c 38d2 3bbd b206 83bb
00000340: 32b3 b1bc 4d5a 85bc 8824 3dbd bd8c 34bb
00000350: 4f2c 47bd 669b 94bc be00 1cbd 3667 66bd
00000360: b2f0 5bbc e00f 8ebc aadd d93c c191 bc3c
00000370: e27f e53c 0a10 d0bc b1c4 5dbc 150e 58bd
00000380: fb81 24bc b10a 30bd 0084 08bd bd10 033b
00000390: 6006 a0bc c0b9 2bbd 32ab 4abd aff3 c2bb
000003a0: 8fb0 013d 769c 7b3c 3d86 84bc 223b f13c
000003b0: 0202 2b3d 4322 0a3c 0362 4bbd dfbf 8bbc
000003c0: eb4e adbc 93fb c2bc f61e 18bd 0200 62bd
000003d0: a233 c1bc e2cf 3cbd d7ab 7b3c db35 7bbd
000003e0: 7ac1 d239 2286 90bb 2e3f 80bc 156a 15bb
000003f0: 1ca9 46bd a886 ea3b 95eb 3a3c 61ee 27bd
0.003331196 0.059473887 -0.021509675 -0.030488646 0.015024457 0.022131447 -0.012372927 -0.017008252
0.0557811 0.023257682 -0.01566188 -0.016642038 0.025873924 0.026249923 0.01124708 0.03576088
-0.013421203 0.027153837 0.055597555 0.059921164 0.010468057 0.027175799 0.022358077 0.0071332315
0.005171823 -0.0027217383 0.0016347265 0.03485626 0.052424334 -0.015419182 -0.03256853 0.0039785276
-0.022462547 0.018121706 0.011299514 -0.01754646 0.05174054 -0.013694457 -0.02367174 0.011954339
0.0016855586 0.030815797 -0.031960562 0.050981462 0.009640804 0.025831474 0.0387384 0.020953419
-0.03529893 0.031540614 0.022082455 0.02862877 0.038563777 -0.032058306 0.014135623 -0.026622795
0.028689347 0.05226988 0.042058226 -0.013352986 -0.033084385 -0.006189587 0.025410976 0.05144813
0.056992102 -0.021077929 -0.012141883 0.027477553 0.034626324 0.019765593 0.015535922 0.038649987
0.060977172 0.022957947 0.03914211 0.004865664 0.012600497 0.005132025 0.05200143 -0.025620895
0.018173158 -0.0044037797 -0.016126318 -0.005761806 -0.022937011 0.032464646 -0.024974538 0.012835868
0.045487985 -0.023911063 0.040953167 -0.02442346 -0.021229906 0.014905294 -0.022354469 -0.03944467
0.04291491 -0.005155032 -0.023161974 -0.010533764 0.014119993 -0.0014583044 0.026275741 0.026477164
0.020841064 0.029010782 0.013100478 -0.036008332 0.02441308 0.016024793 -0.023548966 -0.008881083
0.0353304 -0.011361703 0.030935721 -0.005503526 -0.029922752 0.052737333 0.015609529 -0.03438601
0.039792277 0.016338302 0.028573029 -0.020332813 -0.031390753 -0.012442606 0.031772893 0.0020587812
0.040291138 -0.0019162775 -0.012710384 -0.029205339 0.006726511 -0.03517232 0.03062949 0.024088893
-0.025111955 -0.003573441 -0.006928575 -0.0050712773 0.041379396 0.030044444 0.008035548 -0.044496085
0.021594808 0.050137047 0.05634742 0.034181096 0.03564223 -0.0013744229 -0.03407934 -0.002603083
-0.023481814 0.043630898 -0.018044619 0.031216102 0.019700563 0.035628404 0.009679411 0.028613146
0.038759165 -0.030474193 0.015703792 -0.047722246 -0.040955562 -0.0171063 -0.05133017 -0.009360745
-0.062421586 0.0005617337 -0.06358377 -0.044632368 0.01844602 0.009783811 -0.017956259 0.009735771
-0.027850287 0.025799321 0.0060361195 -0.010078436 0.032317158 -0.03645261 0.00410562 0.021223981
-0.032621063 -0.045857847 0.011796736 -0.033458933 0.016493166 -0.010501281 0.028699582 -0.024636054
-0.03061851 0.0076836837 -0.027449196 0.016963903 -0.03323722 0.025574813 0.032174088 0.005428748
0.015898734 -0.014973146 -0.035386376 -0.04451992 0.03340055 0.011317754 -0.045854777 -0.003998601
-0.021691892 -0.01627841 -0.046177417 -0.0027549707 -0.04862624 -0.018140506 -0.038086645 -0.056250773
-0.013424085 -0.017341554 0.026594955 0.02301872 0.02801508 -0.025398273 -0.013535664 -0.052747805
-0.010040755 -0.042978946 -0.03332901 0.001999899 -0.01953429 -0.041925192 -0.04947967 -0.0059494595
0.03166252 0.015357127 -0.016177291 0.029447142 0.04174996 0.00843102 -0.049654018 -0.017059265
-0.021155795 -0.0238016 -0.0371389 -0.05517579 -0.02358419 -0.04609669 0.015360794 -0.061330657
0.00040198473 -0.004410521 -0.015655126 -0.0022798826 -0.04850112 0.0071571656 0.011408706 -0.04099882

conv1.bias f4 [32]
00000000: d59b d33d dc16 c93d f8fc 23bd c3a7 563d
00000010: 2165 583d 5d5d d03c 3820 32bd 9d1c f03d
00000020: 7b37 c7bd 6e81 923d 024f 363d 9be2 c2bd
00000030: 5a72 b63d c66c e23b b83e f63d eaf2 64bd
00000040: 0b82 24bd 9e98 933c 954b 543d 8609 5f3d
00000050: 7271 ec3d 9315 583d c955 2bbc 2197 743d
00000060: cd83 ec3d e822 f03c 0036 a2bd 229b a6bd
00000070: a748 e1bd 4d0a 333d 9743 9cbd 3b38 dcbd
0.10332457 0.09818813 -0.04003617 0.052406084 0.05283082 0.025435144 -0.043487757 0.117242076
-0.09727379 0.07153593 0.04450894 -0.09515878 0.089085296 0.0069099395 0.120236814 -0.055895723
-0.04016308 0.01801711 0.051829893 0.05445244 0.115450755 0.05275495 -0.0104574645 0.05971444
0.115485765 0.02931352 -0.07920456 -0.08135058 -0.110001855 0.043710995 -0.07630079 -0.107529126

conv2.weight f4 [16, 32, 5, 5]
00000000: 8c74 7e3d 9f1f 743c e1cd d83c 3d40 3e3a
00000010: 31ee 7f3d b99a 6f3d 0d4f 4cbc d353 f6bc
00000020: 20e4 b33c f404 a7bc b178 823d aa2f 0bbc
00000030: 07f2 09bd fa68 5f3d d24e acbc 090d 63bb
00000040: 5dfd 0bbd 3cf0 413d b00f c1bc c76d 39bd
00000050: 0afc 19bd 51b5 02bd df78 8e3d 5b44 583d
00000060: ccad 9d3d 1fbb 823d 66e7 6b3d e705 e13c
00000070: 24ea e0bc 40c6 6c3c c349 94bd 33b9 85bc
00000080: 9672 ef3c 0fbe 8abd f580 833d 0252 863d
00000090: 9d2d 7c3d 2c71 56bd d8f1 833d f3d3 73ba
000000a0: 0060 94bd 68e0 96bd 81a0 6ebd 9189 0dbc
000000b0: d92e c0bc c966 97bd 0f19 d53c 7c90 90bc
000000c0: 137a 3a3d ca9e 7ebd b6c1 07bd 5476 f33b
000000d0: bbfd 82bd 5ec9 3bbb 0b87 57bd bfd3 c33c
000000e0: 728f 50bb 2e46 67bd 538f 623c d7d1 7fbd
000000f0: f131 11bd 44e0 e33b ede4 1ebb 1298 2e3c
00000100: 26b3 97bd f35c 1bbd 123a 97bc 44d3 6f3c
00000110: 8323 07bd 64c4 bb3c d0d0 db3c 37b1 023d
00000120: 28d8 743a 27e8 4cba bc4f b33c 06c0 1f3d
00000130: 6932 19bd ec8b e13b 1778 743d c84a 87bd
00000140: a0a6 3fbc 770f 85bd 121c d23c cc85 953c
00000150: cb28 91bd d58f 203d 2e05 3bbd 9997 463c
00000160: 4a80 0c3d fffa 1c3c 737c 78bd 83cc afbd
00000170: 5a1f 72bc 382b 403c 67f1 17bd b655 b93b
00000180: fb42 c3bc 0110 bc3c e8fa e63b bd44 03bd
00000190: 3e9d e8bc 9994 fabc d673 f4bb 25be 4dbd
000001a0: b9b6 97bc 0a36 5dbd 71f5 873d 1232 ccbb
000001b0: 3404 883c bc9d 9fbc c8eb 183d e886 693c
000001c0: ee0d 62bd 2632 433d 114e 40bc a866 3f3d
000001d0: 2829 5fbc 8309 07bd 2fff 04ba 7fa2 d03c
000001e0: 5b1b ef3a 8fee 313d 2d74 743b ac55 f7bb
000001f0: 2a4e 4d3b 50fc 343d 31cb 8dbc 707b 3cbc
00000200: 0bae 583d d015 d23c 0923 d5bb 66b6 56bd
00000210: 40e8 08bd b747 72bc 38ac a83c 10e3 afbc
00000220: 0a6a 823d 2432 963c 2d38 863d a4db e3bc
00000230: 10a1 ffbc 3201 4bbd 09c7 803d 55ff 96bc
00000240: 9504 3fbd ead4 13bd b94f 0a3d abf4 87bc
00000250: 5252 61bc 4b3e 303b 3e9b 16bd 1bc8 463d
00000260: 1e35 89bd 7586 66bd 3969 673d 3956 ddbc
00000270: a5a8 263c fa8d 8f38 b0da 7bbc 0233 00bc
00000280: 34a5 49bd cafa 6e3d 0b25 0abd 71dc 003d
00000290: 70bf 20bd 1d82 79bd f3a4 6b3c c7b0 b13c
000002a0: da3c 0fba 0d1c 3abd c945 353d 3263 75bc
000002b0: 757b 1cbc addb 72bc 3b49 9ebd 4257 99bd
000002c0: f521 ee3c 35aa 603c 5784 74bd 4839 733b
000002d0: 88e7 2ebd db44 8abd b93a 6a3d 8bef 123c
000002e0: cc31 4d3d 2025 653d 9d3c 89bd 67bd bf3c
000002f0: 9097 00bc abaf dcbc a44e 8ebd fbf0 c1bc
00000300: 3bf2 7cbd 1e96 2e3a a452 cf3c bdbf 433d
00000310: e1f5 0fbd 2db9 d4bc 89df 4a3d 3d93 2dbd
00000320: 6e84 1b3c a1eb 173d c370 e0bc 627a f53c
00000330: 7f3e 2ebd ff0f 66bd 9de6 b63b 1dd4 46bd
00000340: d53c 923c bd57 1c3d 2d18 4ebc 4adb 33bd
00000350: 8b97 233c bb2a c93c e6ae 53bd 0331 1ebd
00000360: fd6f 59bd 1368 023c d1a2 493d 99c9 223d
00000370: 690b 71bc f4ba 16bd 124b 143d 08b6 743a
00000380: 5414 283d 1178 423d 3ace 31bc 8d3e 81bd
00000390: 54aa 34bd db23 553d fd50 193d 385e 50ba
000003a0: dd6f 8a3c 512b 9bbc 5e04 c23c b886 84bd
000003b0: 2cd7 2fbc 8c1c 23bd 7d68 563d 76be 6c3d
000003c0: 29f5 0bbd f771 483c 8bd1 26bd 7024 6d3d
000003d0: 9fa9 5ebd 001a 073b befb 373c 1bd3 693d
000003e0: caf8 d23c 25ca 8cbd 1804 743d 3bdc 46bd
000003f0: 82ab 383d 6240 223c 385b a4bc 49bd 50bd
0.062122867 0.014900117 0.026465358 0.0007257497 0.062483016 0.058497164 -0.012470019 -0.030069267
0.021959364 -0.020388104 0.06370676 -0.008495251 -0.03367808 0.054543473 -0.021033678 -0.003464522
-0.034177173 0.047348246 -0.02356705 -0.045270707 -0.03759388 -0.031911198 0.06956648 0.052799564
0.07699165 0.06383347 0.057593726 0.027468635 -0.027455397 0.014451563 -0.072406314 -0.016323661
0.029229444 -0.06774532 0.06421081 0.065586105 0.061566938 -0.052354023 0.064426124 -0.0009301297
-0.07244873 -0.07367021 -0.058258537 -0.008638755 -0.023459839 -0.073926516 0.026012925 -0.01764702
0.045526575 -0.06216315 -0.03314372 0.0074298773 -0.063960515 -0.002865396 -0.05261902 0.02390468
-0.0031823781 -0.056463413 0.0138281165 -0.06245598 -0.03544802 0.006954225 -0.0024245337 0.010656374
-0.07407217 -0.03793044 -0.018460307 0.014637772 -0.03299285 0.022920795 0.026832968 0.031907286
0.0009340071 -0.0007816576 0.021888606 0.039001487 -0.03740159 0.006883135 0.05968484 -0.0660606
-0.011697441 -0.0649709 0.02564815 0.018252276 -0.07087859 0.03919967 -0.045659237 0.012121105
0.034302033 0.0095813265 -0.06066556 -0.085839294 -0.014777983 0.011729054 -0.037095454 0.0056559695
-0.02383565 0.02295685 0.0070489533 -0.032047976 -0.028395291 -0.030588435 -0.007460098 -0.050230164
-0.018519746 -0.054006614 0.06638611 -0.006231555 0.016603567 -0.019484393 0.037334234 0.014253356
-0.055189066 0.047655247 -0.0117373625 0.04672876 -0.013620652 -0.032968055 -0.0005073426 0.02546811
0.0018242405 0.043440398 0.0037300691 -0.0075480547 0.0031327107 0.044185936 -0.017308803 -0.011504039
0.052900355 0.025645167 -0.0065044207 -0.052420042 -0.033424616 -0.014787606 0.020589933 -0.021470577
0.063678816 0.018334456 0.065536834 -0.027814694 -0.03120473 -0.049561687 0.06287963 -0.018432299
-0.04663523 -0.036091723 0.033767436 -0.016596159 -0.013752537 0.0026892598 -0.036769144 0.04853068
-0.066995844 -0.056280572 0.056496833 -0.027018653 0.010172044 6.8452166e-05 -0.015371963 -0.007824661
-0.049229816 0.05834464 -0.033726733 0.03146023 -0.03924507 -0.0609151 0.014382589 0.02169074
-0.00054640847 -0.045436908 0.044256005 -0.014977263 -0.009550919 -0.014822883 -0.07728811 -0.07487346
0.029068926 0.0137124555 -0.05969652 0.0037113 -0.042701274 -0.067514144 0.05718491 0.008968244
0.050096318 0.05594361 -0.06701014 0.023405744 -0.007848635 -0.026939234 -0.06948593 -0.023674479
-0.061754446 0.00066599424 0.02530796 0.047790278 -0.035146598 -0.025967205 0.049529586 -0.042376745
0.009492023 0.037089948 -0.027397519 0.029965583 -0.04254007 -0.0561676 0.0055816905 -0.04854213
0.017851273 0.03816961 -0.012579006 -0.043910302 0.009984861 0.024556508 -0.051680468 -0.03862096
-0.053085316 0.007959384 0.04922754 0.03974304 -0.014712193 -0.036799386 0.036204405 0.0009334986
0.04103501 0.047477785 -0.010852391 -0.06310759 -0.04410775 0.052036148 0.037430752 -0.000794861
0.016899044 -0.018941553 0.023683723 -0.06471008 -0.010732453 -0.039822146 0.05234574 0.057798825
-0.03416935 0.012234203 -0.04072718 0.057896078 -0.054360982 0.0020614862 0.011229454 0.05708609
0.025753397 -0.068744935 0.059574217 -0.048549872 0.045085438 0.009903045 -0.020063028 -0.050961766

conv2.bias f4 [16]
00000000: 1b3f 74bc 06fd 593b 3def 413c 2006 353d
00000010: 26dc 28bd 4599 c33d e17d 6e3b 73f3 4a3b
00000020: 0c03 403a abc1 98bb 66c0 0f3d 8000 043c
00000030: c17c fabc 764e 01bd 2ed3 cc3b 98a7 733d
-0.014907624 0.0033262386 0.011836824 0.044195294 -0.041225575 0.09550718 0.0036390948 0.003096786
0.0007324673 -0.004661759 0.035095595 0.00805676 -0.030577065 -0.031568967 0.0062507605 0.059486

conv3.weight f4 [8, 16, 3, 3]
00000000: b6ae 41bd eaf1 cabd fffb 113e cead c53d
00000010: 9c51 7f3d de82 903c 0ccb 483d 7afd d33d
00000020: 2a22 f33d eea5 f438 0afc 9ebd 8597 c23d
00000030: 38cd 5fbd 40f2 adbd 33d7 e93d 6701 c9bd
00000040: 347f 573d 4190 453d 7c3b 07be 9f05 d23d
00000050: 5996 a7bd 0678 3bbd 1dab 6cbd 6459 4bbd
00000060: 585d 0cbe 20d9 8fbc 3fc4 28be 5ab7 e4bd
00000070: da12 f83d fa40 02bc 3f5d 62bd f095 03bc
00000080: e371 2c3d 4a11 933d 2004 0ebe 75cc b4bd
00000090: de3f b83d c672 a9bd e76e 88bd fb6c bebd
000000a0: 48aa 0b3e 70ee f6bd 9ddf ff3c 0991 813d
000000b0: 7c2b 0cbe 94f2 09be 8982 f93c 176a 033e
000000c0: a502 f8bd 5552 903c a984 0bbe e2d2 fabd
000000d0: 3a1d de3d 6c6c 92bd d752 003e d8e1 bdbd
000000e0: 8db2 89bc 2604 123e 0b76 9b3d c274 f5bd
000000f0: 851a e43d fcaf 183e f88f 28be 0671 1a3c
00000100: 1298 4cbc 25ee 00be 834b 473d f9db a93d
00000110: 2f1f b3bc ee19 89bd 1722 97bd d16d f73d
00000120: e308 37be 9f51 c53d 3798 043c ce30 153b
00000130: 1e3b 033c aa0f bd3c 6846 a6bc dd5f c63d
00000140: ca40 f4bd da96 1cbb a268 a23d b255 2ebd
00000150: 1f63 1cbe 6a50 043d d24d 47bd a74a 18bc
00000160: ac31 69bd 1183 39bd 8d54 2bbd 17c9 f43d
00000170: 4970 30bc 96d0 893c 435d e0bd 5236 a33d
00000180: 195f efbd 0c96 0abe e26f 1fbe 1517 203e
00000190: 2792 d53d 2bfa e93d 16df ec3d 4121 4abd
000001a0: 7b2a a53c 6411 673d 331d bf3d f89a 42bd
000001b0: b212 cc3d 70ab 1fbe 6450 13be d71b 5c3d
000001c0: e0f7 063e fb2a 233e 40c5 423d 869c fb3d
000001d0: a7cd 893d c54b 90bd 8560 e6bd 9394 9ebd
000001e0: 2d1c 233e 7e81 c83d 1a3c 86bd f8f5 8c3d
000001f0: c21a b73d a0be f83d eabd 05be f753 ef3d
00000200: 1850 d23d d6b4 b4bd 2795 84bd 422d e6bd
00000210: dfb5 01be 275b cdbc 8d39 0b3e 318d a4bc
00000220: e09c 7f3d 5615 a63d b57d 30be e4ce 983b
00000230: 6582 9fbd 9d8f 7dbd e339 8b3c 8bb3 923d
00000240: fb64 05be 466c 1ebe a498 93bd 2d61 073d
00000250: 9d75 6dbe fc22 813d 9e75 1c3c b6f8 91bd
00000260: 684a 9ebd a6c5 07be 44bd a5bd 7ce4 dd3d
00000270: fe3c 4f3d d944 78bc 93e2 6f3d 57c4 4d3d
00000280: d2d7 11be 06d9 19be d470 06bb c3d2 8abc
00000290: f5c0 26be efab 183d 4ebf b0bd 46ac 993c
000002a0: 3663 d43c 5287 ec3c c4ce fd3d ee89 1f3e
000002b0: 0b90 94bd 8106 fc3c 0144 1ebd 8923 02be
000002c0: 1e91 fabd 2170 f5bd 57c7 8bbc cfcd 5f3d
000002d0: ce33 c53d 3cba 16be 0169 fe3d 29f9 a73d
000002e0: 812c dbbc 55c6 adbd ae01 683d e336 e73d
000002f0: b990 17be 8c79 8abb 8873 273e eb1c 10be
00000300: 4893 9f3d a292 dd3d 5b81 9ebd d3fa 9e3d
00000310: 247f f03c c3b8 de3d 1d35 b03d 5fdd 953d
00000320: ab9a ef3d be5e 1d3e 4711 bfbd a943 bd3d
00000330: 14b6 a53d bcf9 6b3d be69 5e3d 4016 83bd
00000340: 9581 1f3c b26b d93d 4e2f 21bd 9673 2b3d
00000350: 447d 57bd 409d 9d3d 7206 8e3d f48b 0e3d
00000360: 79d6 6f3d 527b 2c3d 9ba7 cabb 6963 22bc
00000370: f74b 13bd e014 53bd 0dc8 12be d9cc 803d
00000380: 6f60 fa3d 9ce2 453d c66d 13be 90af 16bc
00000390: e6e8 ce3d 6f04 2fbc fe55 d43d a230 0fbe
000003a0: ad80 253e 3c15 6fbd cedc d9bd dce4 063e
000003b0: 386f 023e d857 d2bd 51d0 85bd a4f3 373e
000003c0: 5d15 a03d cec1 4dbd 492f fcbd c469 1fbe
000003d0: 7284 803d 3a71 a83c 393b d4bd 0561 61bc
000003e0: 7cb2 e93d 0504 da3d 416f 7e3c 5f61 9dbd
000003f0: 674d 0abd 41ef e5bd 90d6 5dbd 9a97 c33d
-0.047285758 -0.09909423 0.14256285 0.09652291 0.06233369 0.017640527 0.049021766 0.10351081
0.11871751 0.000116657335 -0.077629164 0.09501556 -0.05463907 -0.08493471 0.11417999 -0.098147206
0.052611545 0.048233274 -0.13206285 0.102549784 -0.081829734 -0.04576876 -0.057780374 -0.049645796
-0.13707483 -0.017559588 -0.16481112 -0.11167784 0.12112971 -0.007950062 -0.055264708 -0.008031353
0.0421008 0.07181032 -0.13868761 -0.088280596 0.08996557 -0.082738444 -0.06661778 -0.0929813
0.13639176 -0.12057197 0.031234557 0.063264914 -0.13688463 -0.13471442 0.030457752 0.12833439
-0.121098794 0.017617384 -0.13624825 -0.12247254 0.10845418 -0.07149586 0.12531601 -0.09271592
-0.016808772 0.14259395 0.07590874 -0.119851604 0.11137871 0.14910883 -0.1646117 0.009426361
-0.012487428 -0.12590845 0.048655998 0.082939096 -0.021865455 -0.06694399 -0.07379549 0.12081493
-0.17874484 0.096347086 0.0080929315 0.0022764686 0.0080097 0.023078758 -0.020297244 0.09686253
-0.1192642 -0.0023893625 0.079301134 -0.042562194 -0.15272187 0.03230325 -0.0486582 -0.009295142
-0.056932136 -0.04529101 -0.04182868 0.11952417 -0.010768958 0.016823094 -0.10955288 0.07969345
-0.1168806 -0.13533801 -0.15570024 0.15633805 0.10428267 0.11424669 0.11565988 -0.04934812
0.020161858 0.05641307 0.09331741 -0.04751107 0.09964503 -0.15592742 -0.14386135 0.053737488
0.13180494 0.15934364 0.047551394 0.12285714 0.06728678 -0.07045702 -0.112488784 -0.07743182
0.15928717 0.09790324 -0.06554432 0.06882852 0.089406505 0.12145734 -0.13060728 0.11685937
0.10269183 -0.08823554 -0.06473761 -0.11239101 -0.12667035 -0.025067879 0.13596173 -0.020086857
0.062405467 0.08109538 -0.17235453 0.004663335 -0.07788543 -0.06190454 0.016995376 0.07163151
-0.13026802 -0.1547099 -0.07206848 0.03305166 -0.23189397 0.06305501 0.0095495265 -0.07127516
-0.077290356 -0.1325899 -0.0809274 0.108345956 0.050595276 -0.015153133 0.058565687 0.050236072
-0.14242485 -0.15024194 -0.0020514028 -0.016946202 -0.16284545 0.037273344 -0.086302385 0.018758904
0.025926214 0.02887312 0.12392953 0.1557996 -0.072540365 0.03076482 -0.038639072 -0.12708868
-0.1223471 -0.119842775 -0.017062826 0.054639634 0.096290216 -0.1471948 0.12422372 0.082018204
-0.02675462 -0.084850945 0.056642227 0.11289766 -0.14801301 -0.0042259153 0.16352665 -0.14073531
0.077917635 0.108189836 -0.07739516 0.07762685 0.0293575 0.10875084 0.086038806 0.07317614
0.116994224 0.15368173 -0.09329467 0.09241421 0.08091369 0.057611212 0.054300062 -0.06400728
0.009735485 0.106162444 -0.039351754 0.04185828 -0.052609697 0.07696009 0.06934823 0.03480144
0.058554146 0.042109795 -0.006184531 -0.009911397 -0.035961118 -0.05153358 -0.14334126 0.062890716
0.122254245 0.048311815 -0.14397344 -0.009197131 0.101030156 -0.010682209 0.10367964 -0.13983396
0.16162367 -0.05836986 -0.10637818 0.1317324 0.12737739 -0.10270661 -0.06533874 0.17964035
0.07816575 -0.050233655 -0.123137064 -0.1556769 0.06275262 0.020561803 -0.10362858 -0.013756041
0.11410996 0.10645298 0.015529455 -0.07684588 -0.033765223 -0.11227275 -0.0541597 0.095504

conv3.bias f4 [8]
00000000: cb1c 8abd ec9d 233b 5fe8 06bc 13c6 01be
00000010: dcff 7a3d 1f0c b3bc a52f 80bc 4954 50bd
-0.06743773 0.0024965955 -0.0082341125 -0.12673216 0.061279163 -0.021856366 -0.015647719 -0.05086163

convt1.weight f4 [8, 8, 3, 3]
00000000: d56f 243c 905b 29be a937 f43d 3999 acbd
00000010: 45cc 82be b216 0fbe fe5c 55ba 38a5 8e3d
00000020: 1c21 003b 4434 00bd 9dbd 713d d7f5 bbbd
00000030: 0201 dfbc d0f6 283e 4ac4 263e 48f5 d43d
00000040: c189 c93d 52ef 02be 9808 35be 8778 0abe
00000050: ff63 233d e36e 133e 32bf d0bd 0648 97bd
00000060: 1d5f 2f3e 39b3 aebd a4a7 eabc e802 16be
00000070: f33e 0cbe 299c 0fbe c40c 20be 1f93 533d
00000080: 6d78 e13d f212 07bd 8ee1 abbd 4c5e d83d
00000090: 918a eb3d ae85 d63d 052c afbe b2d1 833d
000000a0: db58 143e 487c a6bd 2d2f 91be 78be a7ba
000000b0: 6d77 64be 1174 bf3d d2dd 803e 6351 f83b
000000c0: 9614 e63d a591 0dbe cb71 ef3d 6b1a fe3d
000000d0: 9ad6 013d 7aa6 7fbc b76a 413d 1a5d 3b3d
000000e0: 9362 7a3d ba96 98bd 6f24 c23d 0d0f b73d
000000f0: 6bd3 7bbc 30c6 f1bd 6c16 3bbe e65c f1bb
00000100: f22f 053d 26e4 90bd 873f 04bc 1995 883d
00000110: 6bb0 8b3d 9d22 953d 99f3 023d 9a76 bfbd
00000120: e225 b2bd cf3f 913d 4b2e 99bd b95c f4bd
00000130: da2b 073e d9e8 d43d 7eec 413d 4669 323d
00000140: 067e 393e f106 0f3e 7e5c 533e c1ee 25bd
00000150: dd01 8d3e 1012 c3bc bc0f 5e3c cbee 98bd
00000160: 072a e6bd 41b3 523d 5da8 8b3d 20b9 d9bd
00000170: a323 0f3e b8e4 dbbd a18a 48bd 5045 943c
00000180: 1082 1bbe bd71 043e 0fa5 253e e315 38be
00000190: 80f8 fbbc 2839 41be cd43 34bc c824 a9bd
000001a0: b7b0 433e 71ec 543e c310 ffbd f977 e3bd
000001b0: c5c4 a1bc cba0 f3ba 17d7 31be 8fbd 6a3e
000001c0: cb14 afbc f815 073c e25f 193e f554 24bd
000001d0: 7ae4 533e e0e6 713c 0f52 51ba 542d f73d
000001e0: 381a f9bc d249 e7bd 82b0 69be b32c 41be
000001f0: f573 823c 9015 3fbd 5438 aebc b076 1fbe
00000200: 57f1 b33d d2a3 abbd a566 863d 2d6a 883d
00000210: 34d0 1c3d 1bf2 2bbd dc9f 8dbd bec6 ef3d
00000220: 6338 c0bd 9728 f63c 2e2b 773d 5957 53be
00000230: 78e6 c23d df00 7bbd c414 71bd dd7e eabd
00000240: 53b2 ba3d c024 8e3d daea ec3d b544 913d
00000250: f795 d0bd 7263 003d db9d 823d 9442 083d
00000260: 2dbb 373e e5e3 6f3e 9465 bbbd 214a 3ebe
00000270: c30f e93d 84a6 603d 2ca2 e1bd 68b3 bebd
00000280: 89e2 32be e178 d8bd 09da 123e 3a8c df3c
00000290: ffc2 a4bd edaa 593d 0a5a 563d 5d9f 4f3c
000002a0: 6648 ba3c feee aabd d8f2 68bd d76a f93d
000002b0: dcd9 913e 01a1 ed3c ab99 3ebe 2519 8d3b
000002c0: 4b78 a23d 8ad8 a4bc e2d3 783e 66cd 9dbd
000002d0: 06fe 4fbc b08f 29bd 6e1f 3b3e c7da 933e
000002e0: 11fe 923e 55a8 893e af03 ab3d ffd2 963e
000002f0: 2e0a a53e 143c 8a3d 0a17 513e 3fc4 a93c
00000300: cc68 893d 8134 a2bd e240 63bd c480 06bd
00000310: 1662 ac3e d47b 423e de5c 3ebb f0ca 63bc
00000320: 61e9 273e c238 fb3d 7e26 263e e8ae ebbd
00000330: 1194 38bc 0000 8c3e 5809 523d 55dc c6bb
00000340: a53b b03d 802b 43bd f9f8 8bbd 4799 25bd
00000350: cdf8 4f3e 45ad 883d 0dae 143d 3b76 c5bc
00000360: d4ac 773b 6e4f a0bd 9325 bcbd 7aed 9abc
00000370: 1bc2 cabd 4f06 73be 1ed6 5dbe 3556 62be
00000380: e3cc fbbd e83c c0bd 8ede 0dbe 3e12 47be
00000390: d0ef 85be 308b fa3c b3ae c13d 6c17 d4bd
000003a0: 94c0 28bd 0366 3dbe a748 ecbd e149 51be
000003b0: d190 d8bd 6f70 ccbd 8a2f 5abd cfb2 0abd
000003c0: cfc7 803d 0a30 69bd 4c29 9dbd cb02 843e
000003d0: 0ce1 183d 83fc 0f3e 679a 283e acd1 1e3d
000003e0: 342c 85bd 3b4c 553b cc3d 13bb 2437 6dbe
000003f0: 84b7 763d 96b8 d6bd 5bbe a9be bf55 7dbd
0.010036428 -0.16538835 0.11924679 -0.084276624 -0.2554647 -0.13973501 -0.0008139162 0.06965107
0.0019550985 -0.031299844 0.05901872 -0.091777496 -0.02722216 0.16500401 0.16285816 0.10398346
0.098407276 -0.12786606 -0.1767906 -0.1352254 0.039890286 0.14397769 -0.101927176 -0.07386784
0.17126127 -0.08530278 -0.02864439 -0.14649546 -0.13695888 -0.14024414 -0.1562987 0.051653977
0.110092975 -0.032977052 -0.083926305 0.10564861 0.11501039 0.10474716 -0.34213272 0.064364806
0.1448702 -0.081291735 -0.28356305 -0.0012797853 -0.22311182 0.0934831 0.25169235 0.0075780614
0.11234395 -0.1382509 0.11691626 0.124073826 0.0316988 -0.015603656 0.04722091 0.045743085
0.061129164 -0.07450624 0.094796054 0.089384176 -0.01537023 -0.118053794 -0.18270272 -0.0073658107
0.032516427 -0.07074766 -0.008071787 0.06669063 0.068207584 0.072819926 0.031970594 -0.09348793
-0.08698632 0.07092249 -0.07479533 -0.11931748 0.13200322 0.10395975 0.047344677 0.043557428
0.1811448 0.13967492 0.20640752 -0.040510897 0.27540484 -0.023812324 0.013553556 -0.07467421
-0.11238485 0.05144048 0.06819222 -0.10631013 0.13978438 -0.10736984 -0.04896033 0.018099457
-0.15186334 0.12934013 0.16176246 -0.17977099 -0.030758142 -0.1886946 -0.011002493 -0.082589686
0.1911038 0.2079332 -0.12454369 -0.11106867 -0.019747147 -0.0018587349 -0.17367207 0.22923873
-0.02137222 0.008244984 0.14977983 -0.040120084 0.20692626 0.014764518 -0.0007984945 0.120691925
-0.03040801 -0.11293377 -0.22821239 -0.18864708 0.015924433 -0.046651423 -0.021267094 -0.1557262
0.08786266 -0.083808556 0.06562547 0.066608764 0.038284495 -0.041978937 -0.069152564 0.11707829
-0.09385755 0.030048652 0.060343914 -0.20638789 0.09516615 -0.061280128 -0.058857694 -0.114499785
0.09116044 0.06940603 0.11568232 0.07093183 -0.101848535 0.03134484 0.06377765 0.03326662
0.17942496 0.23426779 -0.09150234 -0.18582965 0.113799594 0.0548463 -0.1101726 -0.09311563
-0.17469229 -0.10569931 0.14340986 0.027288545 -0.08045005 0.053141523 0.05233196 0.0126722725
0.0227396 -0.083463654 -0.05687222 0.12178581 0.28486526 0.029007437 -0.18613307 0.004305976
0.079331 -0.020122785 0.24299577 -0.07705192 -0.012694841 -0.041396797 0.18273708 0.2887785
0.28709462 0.2688624 0.08350312 0.29457852 0.3223433 0.0674974 0.20418945 0.02072346
0.067094415 -0.079201706 -0.0554818 -0.032837644 0.33668584 0.18992549 -0.0029047052 -0.013903365
0.1639762 0.12266685 0.16225621 -0.1150797 -0.0112657705 0.2734375 0.051278442 -0.006068746
0.08605126 -0.047648907 -0.06834597 -0.04042938 0.20309754 0.066736735 0.0362988 -0.024104228
0.0037792223 -0.0782765 -0.09186854 -0.018912066 -0.09900304 -0.23732875 -0.2166371 -0.22103198
-0.122949384 -0.09386617 -0.13854429 -0.19440553 -0.26159525 0.030583948 0.09457149 -0.1035603
-0.04119928 -0.18495946 -0.11537295 -0.20438339 -0.105744965 -0.099823825 -0.053267993 -0.03386193
0.062881105 -0.05693058 -0.076738924 0.2578338 0.037323996 0.1406117 0.1646515 0.038774177
-0.06502572 0.0032546658 -0.0022467254 -0.23165566 0.060233608 -0.10484426 -0.33153042 -0.061849352

convt1.bias f4 [8]
00000000: 305e 96bd 50c0 f3bc c343 c73d a8c1 4c3d
00000010: 07b9 91bb ad9c 06be f510 a73d 80f0 18be
-0.073421836 -0.029754788 0.097297214 0.049989372 -0.004447106 -0.13145705 0.08157531 -0.14935493

convt2.weight f4 [8, 16, 5, 5]
00000000: 1924 b23d 4a8c 9fbc 12bf 813d 508c 883c
00000010: 04be 113e 5722 a03b f8f1 ce3c 6a32 653c
00000020: 06ab debd bc0f cd3d 3a17 17bd daf4 2cbd
00000030: 19ac 7bbd 8f50 2dbd 77db 153e 3c9f 1bbe
00000040: 3d9b 1c3e 7dc8 52be d736 183e 7bf8 52be
00000050: ba83 ac3d e0d1 cbbc 98b3 2b3d 0e38 b63d
00000060: 8e5c 0e3e 607c 583d 68f7 47bd 3b2e 9fbd
00000070: 9b28 853c 6164 843d 52d4 3abd c062 40bd
00000080: 3d4b 56bd 98e4 b8bd 4bac 2d3d fc1e 8f3d
00000090: 82b7 c4bc a168 363d 4d44 f6bc 8e3e 983c
000000a0: 617b 8c3d 1cae 67bd ef8a 5fbd 0983 69bd
000000b0: 1d96 99bd 13b2 0fbd 99da 9fbd c1d0 afbd
000000c0: 4003 3dbd 51c2 983d d7e7 82bd 5acb fd3a
000000d0: 5d13 bfbc 0d45 113d 6ad9 32bd 46c2 a9bc
000000e0: 39e9 73bd 29e8 b83b 9a70 83bd 9d6c 263d
000000f0: 3868 573c 5362 92bc 3d8e c73c 3839 37bd
00000100: 3767 44bd 5593 933d e07f d53c 5d50 6d3d
00000110: 7e2e 80bd ffd4 1cbb 5e07 56bd a867 9f3d
00000120: a476 a03d 4544 8a3d 8bc7 963d 52a7 fcbc
00000130: b74c 4ebd 8955 8c3d bdab 12bd d567 3e3d
00000140: 3392 6f3d 7517 763c 1eb9 42bd 06a9 bbbd
00000150: a2cc b7bd 1f66 2c3d 8b3a b0bc 0ec1 f8bc
00000160: 75f2 00be 9f8c 69bc 6129 a3bc d834 8fbd
00000170: b9ea 163d b0d0 653d adee 4a3d 5b1e 063d
00000180: 9677 853d f862 dc3b f68d 9fbd 73e5 adbd
00000190: f451 26be f969 1c3c 7797 48bd 0d4b 15bd
000001a0: a90e 5c3c cdd0 00be 2598 9e3d 0a38 81be
000001b0: 8769 b7bd 0c49 82bc b027 58bd bfe9 48bd
000001c0: 1564 a33d a210 d53c 0d83 fa3d 85c7 1bbe
000001d0: 8d77 c33d ee61 c5bc fb25 933d b070 a03d
000001e0: 61b2 a3bd aa90 acbd d41e 40bd 06a9 94bd
000001f0: 8365 bf3d 0370 debc 2e48 533d 9670 2fbe
00000200: 6688 8d3d 5b0e dfbd 1a3c b3bd de1e 11be
00000210: 37b9 63be 1dc3 19be d97c 253d c1ba 6b3d
00000220: 9007 2cbd 932b bd3d e21d 9b3d 2e48 85bc
00000230: 375b 90bd e146 02be f27d b6bd 5e54 92bd
00000240: d840 eabd 412d 9bbd efef 623d 9281 7cbe
00000250: c9de 563d cac6 3bbe 54ad 07bc c2df 2abc
00000260: a666 a2bc 2de4 563b da88 863c 7351 4cbd
00000270: 15a2 88bd fe80 02be 7066 ecbd 18f2 e6ba
00000280: f83d c1bc e37a adbd f91a 663d aaa1 c0bd
00000290: 0cff e7bc 9707 a2bd d602 0abd bc63 63bd
000002a0: 931b b33d 873a cc3b 166b 413c dc0c c3bd
000002b0: 8ecd b9bd b06b 9dbd 1a98 2d3c 9980 85bd
000002c0: 54f3 b13d ccc5 bc3d 932b 73bd d30a 5bbd
000002d0: 33a7 5cbd 1060 bbbd 6363 983c 7f46 063d
000002e0: f940 b33c b299 9cbc 95bc 803d 52ef 353d
000002f0: 02db 673d 370a 14bd 2803 81bd 90d3 51bb
00000300: 9c6c d7bd 5cd2 c0bd 0c40 983d 3017 a13d
00000310: 2f32 343b 888c 8cbd a0ef b8bd 4811 d7bc
00000320: fae6 643d b446 003e 3cea 1ebd fe50 813e
00000330: 1a2b fcbc 39d9 f93d 9bf6 4f3d 0601 303d
00000340: da12 183e c500 cb3d a540 00be 3cae 283e
00000350: 9be2 99bd 4e58 bf3d b25f a3bd e8c5 403e
00000360: 979e 07bd 3fa9 6a3e 665c 8638 18f2 1a3e
00000370: 311c 33bd 5d04 823e 8225 79bd 607c 683e
00000380: ec74 28be 75b4 b23d 47f4 b03d 587c 3ebc
00000390: b367 30bc 9fd0 3f3d 8702 e4bd 285f cdbd
000003a0: 0bf9 9fbc ae7e 6abd 0f00 88bd 1c9a 4f3d
000003b0: af54 193c c0cb 84bd 4aef d93c 2230 813d
000003c0: ec34 b83d a43d 8bbd 7465 aabd 999d 86bd
000003d0: 71ea a4bd 1a58 7d3d f0de 803d e69c 98bc
000003e0: a10d 893c dccd 54bd e40c e3bb 331e 50bd
000003f0: 53c6 213c f666 febd b1c0 81bd adca 8dbd
0.08698291 -0.019476075 0.06335272 0.016668469 0.14232641 0.004886906 0.025261864 0.01398907
-0.10872464 0.10012767 -0.036887385 -0.042225696 -0.061443422 -0.042313155 0.146345 -0.15197462
0.15293594 -0.20584293 0.1486467 -0.206026 0.08423562 -0.02488035 0.04191932 0.0889741
0.13902494 0.05285299 -0.04881993 -0.0777249 0.016254714 0.06464458 -0.04561264 -0.046969175
-0.052317847 -0.09027976 0.04240064 0.06988332 -0.024013285 0.044533376 -0.030061865 0.018584516
0.0685947 -0.056562528 -0.054575857 -0.05700973 -0.07499335 -0.035081934 -0.07805366 -0.085847385
-0.046145678 0.07458938 -0.06391876 0.0019362972 -0.023324663 0.035466243 -0.043664373 -0.02072252
-0.05954859 0.00564291 -0.064179614 0.040630925 0.013147406 -0.01786915 0.024359817 -0.044732302
-0.047949996 0.07205836 0.026061952 0.05793797 -0.06258868 -0.0023930667 -0.05225312 0.07783443
0.07835129 0.06751303 0.073622786 -0.030841503 -0.05036613 0.06852252 -0.035808314 0.04648574
0.058489036 0.015020241 -0.047539823 -0.09163098 -0.089745775 0.042089578 -0.02151229 -0.030365493
-0.1259249 -0.014254718 -0.019917192 -0.06992501 0.036844943 0.056107223 0.049544025 0.032743793
0.0651695 0.006725665 -0.07790749 -0.084910296 -0.162422 0.00954675 -0.048972573 -0.036448527
0.01343123 -0.12579651 0.07743863 -0.25238067 -0.089556746 -0.015903972 -0.052772224 -0.049051043
0.079780735 0.026008908 0.12232027 -0.1521283 0.09544287 -0.024094548 0.071849786 0.078339934
-0.079930075 -0.0842603 -0.0469044 -0.07258801 0.09345534 -0.02715302 0.051582508 -0.17132792
0.069107816 -0.1089141 -0.08751698 -0.14171931 -0.22238623 -0.15015836 0.040402267 0.05755115
-0.0419994 0.09236827 0.07574059 -0.01626977 -0.07048648 -0.1272235 -0.08910741 -0.07144998
-0.11438149 -0.07576991 0.0554046 -0.24658802 0.05245856 -0.18337551 -0.008281071 -0.010429325
-0.019824337 0.0032789812 0.016422678 -0.049882364 -0.0667154 -0.12744519 -0.11542976 -0.0017619757
-0.02358912 -0.084707044 0.056178067 -0.09405835 -0.028319858 -0.07911604 -0.03369411 -0.055515036
0.08745494 0.006232563 0.011805316 -0.09523937 -0.090724096 -0.076865554 0.010595346 -0.06518669
0.08688989 0.09217414 -0.059367727 -0.05347712 -0.05387039 -0.09149182 0.018602079 0.032782074
0.021881567 -0.019116256 0.06285969 0.044417687 0.056605347 -0.036142554 -0.0629943 -0.003201697
-0.105187625 -0.09415123 0.07434091 0.07865751 0.0027495732 -0.06862742 -0.0903008 -0.026253358
0.05588434 0.12526971 -0.038797602 0.25257105 -0.030782271 0.12199635 0.05077229 0.042969726
0.14850941 0.09912256 -0.1252466 0.16472715 -0.07513925 0.09343015 -0.07977237 0.18825495
-0.033110227 0.22916125 6.4068285e-05 0.15131414 -0.043728057 0.25393954 -0.060826786 0.22703695
-0.16450852 0.08725826 0.08640342 -0.011626326 -0.010766911 0.046829816 -0.111332946 -0.10027915
-0.019527933 -0.057249717 -0.06640636 0.05068408 0.009358569 -0.06484175 0.02660336 0.06308009
0.08994469 -0.067988664 -0.08320132 -0.06573028 -0.08052529 0.0618516 0.06292522 -0.018629503
0.016730132 -0.051954135 -0.006929027 -0.05081005 0.009873944 -0.12421982 -0.06335581 -0.06923423

convt2.bias f4 [16]
00000000: c882 18bd fa05 643d 0176 983d 788e 863d
00000010: 29ef 753c fcc5 203c a2c0 3b3d 5b37 783d
00000020: 9b56 9fbc 9234 993d 8aee 47bd 68ea 773d
00000030: b0d1 e93c 663f 4f3c 35e2 7d3d 405d 5bbd
-0.037234098 0.055669762 0.074443825 0.065701425 0.0150106335 0.009812828 0.045838006 0.060599666
-0.019450476 0.0748073 -0.048811473 0.06052628 0.02854237 0.012649393 0.061983306 -0.053555727

convt3.weight f4 [16, 32, 9, 9]
00000000: 10bc 42bd a41f 953c e441 ea3b 426b 81bd
00000010: 4215 1c3c d772 0f3b 7f34 bdbc d92c abbc
00000020: a195 bdbb 46e6 393c 84c5 9b3c ea31 953c
00000030: 818f 32bd 7f01 8c3b 1076 1ebd 0132 0dbd
00000040: 0c18 03bd fa94 bcbb 8518 b43b 89f3 313c
00000050: b5cd 5b3c 31dd a2bb d696 cb3c 5156 f6bc
00000060: c269 bc3b d2f2 03bc 5ad6 c23c ef85 80bc
00000070: 3280 b7bc d6b9 2d3b 0224 26bd 729a 02bd
00000080: 9763 c13c a75c 903c 5963 e4bb fa22 adbc
00000090: 930a b33c 56b0 0ebd 8875 12bd ab30 a1bc
000000a0: 0c9c f8bc abdd aaba c7bb 27bd 5ceb 963c
000000b0: ac73 883c 83b6 7e3d dfa9 763c c9c9 b6bc
000000c0: 6c6f 29bc c70d 853b 5936 f7bb de5a c9bc
000000d0: 975e c6bc 6d8c 53bc 4c74 933c 99ec 563d
000000e0: d565 64ba 4908 3b3d 7b34 cdbb f36c 143d
000000f0: f1a2 6b3a 00c4 edbc cd7d 173d 6c98 c33c
00000100: 66e5 3d3d 2599 39bc e8db 04bd 9c64 bb3b
00000110: 9398 84bc 0eea f0bc dfec a6bc 050e 733c
00000120: 5915 953c a209 5e3d c135 223d 5bf9 16bd
00000130: 3022 cbbb 265f 6f3c b905 e23b fc3a 7dbc
00000140: f641 22bc c238 e9bc 0a27 b53c 47d9 a13c
00000150: 6660 42bc 4299 a43a f508 5dbc 83e3 12bd
00000160: 50b7 2e3c 87ee 963b 0c47 19bd 3ea0 bdba
00000170: 8f1e c73b ee0d b4bc 603a 62bb ca0b e63b
00000180: 40f4 783a d10c c03b b22f aa3c 3152 123d
00000190: f2c9 3fbc c0ab 8aba 506e 78bb ffbc 173c
000001a0: 68b9 d1bc 34f4 223c 7fae 013d 2b76 823c
000001b0: a8d7 223c ac8f 413c 4068 34bc 2a2b cfbc
000001c0: ed6b 013d dbd4 583b 408e 49ba c92a 14bd
000001d0: 7217 01bd 0219 03bd 8849 5a3c 6142 79b8
000001e0: 4793 15bd 186b 6f3b 9eaa 0dbd a54e 103d
000001f0: 8895 f0bc 3b95 b0bc 780a a2bb 6ffc 16bd
00000200: a20d 26bd e50a 09bd 953f e33c 8554 ce3c
00000210: a7e7 02bd 44c7 59bc 0d64 903b 2805 323c
00000220: da7d ef3c bd76 f8bb 44a4 e4bc 52a2 0bbd
00000230: 0a75 8fbc cc3d 60bc d857 443c 0584 eb3b
00000240: 3af2 d23c f010 ab3c d59f c73b 9f73 bd3c
00000250: 172b 80bc de7d c2bc 0f0e 203d c5ca e63c
00000260: 9a67 d23c c34f 10bd 1c81 d23b 5740 18bc
00000270: 7f26 f6bc e0fa 1ebb 17ad 413c 7a3a 07bc
00000280: 07ed 193d dca9 783c 6b0d d93c 20ed 85ba
00000290: 57de 653c aa47 053d f0a5 0d3b b5a2 efbb
000002a0: d063 373d baf7 ef3c f0cc 69bc 5247 6f3c
000002b0: 8bbb 923d 5e8f 2d3e 7efc 873c 34f5 f63d
000002c0: d61a d93d 30ad b53c cd04 fc3d f395 433e
000002d0: b706 9cbc 2c2d 533c 5169 0cbd eea6 8c3c
000002e0: 57d4 2d3c fa44 3a3c 8d22 0e3d 66b8 83bc
000002f0: af15 973b 5fe5 76bc 4206 8d3c d2a1 2abd
00000300: 19f7 d63c 7d3f 043d a8e5 cdbc 796a a53d
00000310: 60a4 d53a b48b 35bc 13b7 ff3c 3499 8c3d
00000320: 4cbb 963d d0b2 9fba 7436 2b3d cc25 113e
00000330: 914c 2bbc 70a3 dc3d dfdb a03d 6087 d43b
00000340: ba24 d03c ea21 0bbd 63d2 8c3b 6de6 d83b
00000350: 5fd8 e1bc e678 fb3c 17be e7bc d266 313b
00000360: beb9 c53c 9646 f33c 838d f5bc ed51 323d
00000370: 0050 303c a05d fabc e1f0 a63c d038 6e3c
00000380: ed6e f9bc 09b6 523c e1a0 a73d a015 0b3e
00000390: dd48 083c a2ea a93d c01d 593d e3e1 d7bc
000003a0: 7064 ca3d 5305 313e 0032 583a 3141 0abd
000003b0: 9b6b 1fbd 530b 00bd e97d 293c 82bd 34bc
000003c0: 0a49 2cbc d0ab 53bc cc4f 853c 692f 5cbb
000003d0: 749c 4fbc 45f3 c2bc d04a cabc 06d4 8bbc
000003e0: ac3e 42bd 0860 0bbc 59cb 2bbd e28e 18bd
000003f0: a2bf 04bc 30c4 48bd a4b1 ce3c fb23 9b3c
-0.04754263 0.018203564 0.007148968 -0.06319286 0.009526553 0.0021888518 -0.023096321 -0.020895408
-0.0057856594 0.011346405 0.019015081 0.018212277 -0.043593887 0.0042726393 -0.038686812 -0.034471516
-0.032005355 -0.005755064 0.005496087 0.010861286 0.013415744 -0.0049702157 0.024852198 -0.030070456
0.005749912 -0.008053498 0.023783851 -0.015688865 -0.022399995 0.0026508472 -0.040561683 -0.03188557
0.023607058 0.017622305 -0.006969851 -0.021134842 0.021855628 -0.034836136 -0.035756618 -0.019676527
-0.030347846 -0.0013036033 -0.040950563 0.018422775 0.01665672 0.062185775 0.015055149 -0.022313016
-0.010341506 0.0040604803 -0.0075443205 -0.024579462 -0.024215026 -0.012911898 0.01799979 0.05247173
-0.0008712684 0.0456622 -0.0062623597 0.036236715 0.0008988819 -0.029024124 0.036985207 0.023876391
0.04636135 -0.011328016 -0.03243628 0.0057187807 -0.016186034 -0.029408481 -0.02037662 0.0148348855
0.018198656 0.054208405 0.039602045 -0.036858898 -0.006199144 0.0146100875 0.006897655 -0.0154559575
-0.009903422 -0.028469447 0.022113342 0.019756926 -0.0118638035 0.0012557881 -0.013490905 -0.035861503
0.010663822 0.0046060714 -0.03742127 -0.0014467312 0.006076641 -0.021979298 -0.0034519657 0.0070204483
0.00094968453 0.005860903 0.020774696 0.035722915 -0.011705862 -0.001057975 -0.0037907548 0.009261369
-0.025601104 0.009945918 0.031660553 0.015925488 0.009939112 0.011814039 -0.011011183 -0.025289137
0.031597067 0.0033085856 -0.00076887384 -0.036173616 -0.0315165 -0.03200627 0.013323195 -5.9428046e-05
-0.036517408 0.0036532339 -0.03458654 0.03523125 -0.029368177 -0.021555534 -0.0049450956 -0.036861833
-0.040540345 -0.033457655 0.02774028 0.025186786 -0.031959202 -0.0132921375 0.004406458 0.010865487
0.029234815 -0.007582514 -0.02791036 -0.034090348 -0.017511863 -0.0136866085 0.011983834 0.007187369
0.025750268 0.0208821 0.0060920515 0.023126421 -0.015645547 -0.023741659 0.039075907 0.02817286
0.025684167 -0.035232317 0.0064240824 -0.009292684 -0.030047653 -0.002425842 0.011821053 -0.008253688
0.037579563 0.015177216 0.026495656 -0.0010217763 0.014030061 0.032539047 0.00216138 -0.0073130974
0.044772923 0.02929293 -0.014270052 0.014604406 0.07164677 0.16949221 0.01659989 0.120584875
0.10600822 0.022177309 0.12305603 0.1910017 -0.01904617 0.012889188 -0.034280125 0.017169442
0.010609708 0.011368984 0.03470092 -0.016079139 0.004610739 -0.015069335 0.017214898 -0.04165823
0.026240872 0.03228711 -0.025133923 0.08076949 0.0016299598 -0.011080671 0.031215226 0.06865159
0.07359943 -0.0012184028 0.041799977 0.14174575 -0.010455267 0.10773361 0.07854437 0.0064858645
0.025408138 -0.03396789 0.004297541 0.006619266 -0.027568994 0.030697297 -0.028288884 0.0027069342
0.02413642 0.029696744 -0.029974705 0.04353516 0.010761261 -0.030562222 0.020378532 0.014539912
-0.030448401 0.012860783 0.08184982 0.13582468 0.008318153 0.08296706 0.053006887 -0.026352828
0.09882438 0.17287187 0.00082471967 -0.033753578 -0.03892098 -0.0312608 0.010344961 -0.01103151
-0.010515461 -0.012919381 0.016273402 -0.0033597595 -0.012671579 -0.02379764 -0.024693877 -0.017068874
-0.04742305 -0.008506782 -0.041941974 -0.03724564 -0.008102329 -0.049015224 0.02523119 0.018938055

convt3.bias f4 [32]
00000000: d5d9 c83c e8dc 01bd a4a4 4dbd e7d9 913c
00000010: f033 583d 3409 a53b d052 22bd 4848 23bc
00000020: 0dcb 5c3d 76bf e9bc 53af 8abb fca9 213d
00000030: a4af 89bc 8d40 163d 39c8 393d 4924 c93c
00000040: b03d 71bb 50b8 e33c fb11 e1bc 8a5c 003d
00000050: 5c32 a7bb fcb4 09bc 2348 2bbb 8006 b43b
00000060: 710c 833b 97a1 3e3d 91b3 7c3d d275 8abb
00000070: b4b9 b0bc 8974 99bc 3f96 4f3d 4eb6 333d
0.024517933 -0.031704813 -0.05020584 0.0178041 0.052783906 0.0050364975 -0.039629757 -0.009965964
0.05390458 -0.028533679 -0.004232326 0.03946875 -0.016807385 0.036682654 0.045356963 0.024553435
-0.003681045 0.027797848 -0.027474394 0.031338252 -0.005102439 -0.008404966 -0.0026135526 0.005493939
0.003999286 0.046540823 0.061694685 -0.004225471 -0.021572925 -0.018732326 0.050680395 0.04387503

pos_output.weight f4 [1, 32, 2, 2]
00000000: 15fa fb3d 55aa a7bd d166 123e 16ae 2a3d
00000010: 5ee8 d7bd 1d0e 1c3e 1300 263e 8d91 5bbe
00000020: 6d6b 36bc da9c debd 39d9 58be da64 25be
00000030: 1b44 c23d 4840 523e 7596 3cbe 506d fa3d
00000040: 6af6 c8bd 5be8 1d3e d6d4 e5bd 884e cabd
00000050: 4687 d73d 881a 11bd 4e5d 823d f505 3b3d
00000060: 1140 03be 02a2 68be 2b0e 53be ad35 8ebe
00000070: 8a71 183d bbf4 8dbd 42a5 953e c13c a0bd
00000080: 6e9e adbc dfaf 4cbd 72c6 d13d a414 2bbd
00000090: 853c 35be f37e 23be dcd8 11be 9379 3b3e
000000a0: a1a0 0b3e b83e 3ebe 5ef6 3b3d bb9b 5f3e
000000b0: 991e 9fbd 1567 09bd 37c9 9ebd cd98 e23c
000000c0: a9d4 2c3e 48b2 883e a8f7 b83e 0934 563e
000000d0: c3a6 163d 5ba8 2fbe 037e 883c 6864 6ebd
000000e0: 72c0 20be 48d5 0dbd 7abb 12be 252a 203e
000000f0: 7bce d43d fd98 45be 9489 28be 37c5 f1bd
00000100: 67c0 5c3b 8ff9 1ebd 70da d6bd bd10 38be
00000110: 8ad6 debd 0612 303e cb61 613d a13a bd3c
00000120: 592c 113c de58 1c3b 7955 953e fd02 473e
00000130: 7155 3e3e 1c2f abbd 60c0 0abe 8dd2 4b3e
00000140: 3fb5 5cbd 4455 a0bd ebd4 fdbd ed0d b1bd
00000150: 376f 253e 573b debd 21e2 a93e b851 203e
00000160: 2321 303d b125 ba3e 3e19 833d 75d5 853e
00000170: 8376 19bd 3105 24bd 4d3a 10be 5c1c 633e
00000180: 9a2f 01be 85af 44be 3380 2d3d ec91 3a3e
00000190: 6a4c 143e 0821 383c 1ac7 5c3d 6d6e bfbd
000001a0: 4bed 923d f821 c3bd 15da 313e 36ed 003e
000001b0: bc5b 21bd ef39 2dbe 9ee0 99bd 412c ffbd
000001c0: 2a9b 03bd 06d7 6d3e a131 df3c d339 1d3e
000001d0: 5804 e4bc 6af6 043e a3e3 143e 8e6b 03bd
000001e0: 6362 e5bd da06 ce3d b980 473e be7d 443d
000001f0: 8d7d a5bd eb53 553e 61a6 35bd 304f 543e
0.12303559 -0.08186785 0.14297034 0.041669928 -0.105423674 0.15239759 0.16210966 -0.21442242
-0.011134011 -0.10869761 -0.21176614 -0.16151753 0.09485646 0.20532334 -0.1841677 0.12227881
-0.09812625 0.15420668 -0.11222236 -0.0987826 0.10523848 -0.035425693 0.06365453 0.045659978
-0.12817408 -0.22718051 -0.20610873 -0.27775326 0.037217654 -0.06931444 0.29227644 -0.07824088
-0.02119371 -0.04997241 0.102429286 -0.04176773 -0.17698868 -0.15966396 -0.14242882 0.18308096
0.13635494 -0.18578613 0.04588925 0.2183675 -0.07769508 -0.033545572 -0.077532224 0.027660752
0.16877998 0.26698518 0.36126447 0.20918287 0.03678013 -0.17154066 0.01666165 -0.058201224
-0.15698412 -0.03462723 -0.14329329 0.15641077 0.103909455 -0.19296642 -0.16458732 -0.11805194
0.0033684017 -0.038812216 -0.104908824 -0.17975135 -0.10880764 0.17194375 0.055024903 0.023099246
0.008860671 0.002385668 0.29166773 0.19434734 0.18587281 -0.08358595 -0.13549948 0.19904537
-0.053883787 -0.07828763 -0.123941265 -0.08645234 0.16155706 -0.10851162 0.33180335 0.15656173
0.04300035 0.3635688 0.06401299 0.26139417 -0.037466537 -0.040044013 -0.1408474 0.22178787
-0.12615815 -0.1920758 0.04235859 0.18219727 0.14482275 0.011238344 0.053900816 -0.09347234
0.07174166 -0.095279634 0.17368348 0.12590489 -0.039394125 -0.16916631 -0.075135455 -0.12459613
-0.032130398 0.23226556 0.027245345 0.1535409 -0.027834103 0.12984625 0.14539962 -0.032084994
-0.112004064 0.100599006 0.19482698 0.04797148 -0.080805875 0.20832793 -0.044348124 0.20733333

cos_output.weight f4 [1, 32, 2, 2]
00000000: c0b8 203e 73bc b5bc a016 2a3e 3fc3 0bbd
00000010: 0eae 83bd 1c1f 09be 347e a7ba eb41 0f3e
00000020: ad41 eebd af41 aabd 1568 48be b46d 72bb
00000030: 2845 9c3d 3066 8cbd 9d40 1abd 0eee 8e3d
00000040: 3e84 cabb 10c9 413e 423c 273e e0a8 a6bd
00000050: da7e a03d 4358 e43d f792 17be 5a4b 783d
00000060: 7465 0abd 61fe 34bd 4da3 1abd 7e5c 80bc
00000070: 1824 4e3e e671 acbd b667 d6bd 53cb e3bd
00000080: e6c2 e6bd c438 373e ba4c 69bc 6a89 653e
00000090: 63e6 07bd caec 62be 08b9 103e 0cbd 4c3c
000000a0: dd35 1dbc af2b 48be 9f84 4a3d 135e 45be
000000b0: 9434 fa3d 8e7d b7bc 4012 f2bc 80be 3f3e
000000c0: 1565 7bbd 5e24 21bd 5725 23bd 9e02 36be
000000d0: 52f4 d13c 941c 033e c3d5 123e e814 5b3d
000000e0: 291e a23b ec33 f1bc a38d 3c3e 780d 263e
000000f0: 844a 133e 677c a83d 329f 4e3e 28e2 2cbe
00000100: 75d9 20be 560b 513d 3efd 1cbe 4367 26be
00000110: 7ad0 663c 8584 003e c6c6 f43d 3e65 b0bd
00000120: 69c0 a5bc 4dfc 8cbe 8cf4 ff3c ba0f 3abe
00000130: 21c1 f2b8 bb02 673e 12bc 593e 7328 11bd
00000140: beed 0abd 5f0b 363e 5ae8 3bbc f0fc ac3e
00000150: 2739 49be f44e 13bd ed85 b03d 185e 5dbd
00000160: 5c03 8f3d 25aa 02be e583 6a3d d600 16be
00000170: 3502 18be 340d a33d 975e 743c 0e58 71bd
00000180: b7fb e63c 797f 1abe 8b14 ecbd 021e f1bd
00000190: 8cb8 443e 3a05 a6bd 1b0f 183e bb22 e43d
000001a0: 2a70 c23c 6512 6dbd ad7d 483e 2778 b43d
000001b0: 4c69 a43d 12ce cfbd 4961 a5bd 918d a9bc
000001c0: df0e 43be a6bc 1dbe 31f4 adbb 83e6 e1bc
000001d0: 7ea8 e1bd 7c01 32be cf0c a53d 527d 043e
000001e0: eb89 2f3e 658b 733e a5e7 5c3e 335c 7e3c
000001f0: 9f9f dfbd fba1 4b3e 48fd 053e aa07 1b3d
0.15695477 -0.022184586 0.16610193 -0.034121748 -0.06429683 -0.13390774 -0.00127787 0.1398999
-0.116336204 -0.083133094 -0.19570954 -0.0036991658 0.07630378 -0.06855428 -0.037659276 0.06978999
-0.0061803153 0.18924356 0.1633158 -0.08137679 0.07836695 0.11149647 -0.14802156 0.060618736
-0.03378816 -0.044187907 -0.037753392 -0.015669104 0.20130956 -0.08420162 -0.10469 -0.111227654
-0.11267643 0.17892748 -0.014239484 0.224157 -0.0331787 -0.2216064 0.14133084 0.012496244
-0.009595362 -0.19547914 0.049442884 -0.19274168 0.1221706 -0.022398736 -0.029549718 0.18725014
-0.061375696 -0.039341323 -0.039830532 -0.17774436 0.025629196 0.1280387 0.14339356 0.053486735
0.004947443 -0.029443704 0.18413405 0.16216075 0.14383894 0.08226853 0.20177916 -0.16883147
-0.15707953 0.0510362 -0.15330979 -0.16250329 0.014087791 0.12550552 0.119519755 -0.086130604
-0.02023335 -0.2753624 0.031244539 -0.18170062 -0.00011575432 0.22559635 0.2126315 -0.035438966
-0.033918135 0.17777775 -0.011468971 0.33786726 -0.19650708 -0.035963967 0.08619294 -0.054044813
0.069830626 -0.12760217 0.05725469 -0.14648756 -0.14844592 0.07961503 0.01491513 -0.058921866
0.028196199 -0.1508769 -0.11527356 -0.11773302 0.19211024 -0.08106466 0.14849512 0.11139437
0.023735125 -0.05787887 0.19579192 0.0881198 0.08027896 -0.10146727 -0.08075196 -0.020697387
-0.19048642 -0.15403995 -0.005308651 -0.027575737 -0.110184655 -0.17383379 0.08059084 0.12938431
0.17142455 0.23783644 0.2157274 0.015524912 -0.10919117 0.1988601 0.130849 0.037849106

sin_output.weight f4 [1, 32, 2, 2]
00000000: c743 92bc 1cf4 73bb 013b f23a 584b 353e
00000010: ba2b 5fbd 5090 083c 1961 b03d 2f5d bc3c
00000020: db1c c3bd 34a4 343d 6833 163e caa6 123e
00000030: bf88 103c 35a4 da3d 1cfe 3d3e 04a2 52be
00000040: 9c19 df3b 2b42 48be dd15 ac3c 9a26 a4bd
00000050: 87e1 7abd 368a 183e 8968 163e 087b 8ebd
00000060: e949 0f3e 45ee b33d f446 353e 5140 903d
00000070: 73fa 6d3c 0dd9 193e 9810 01be b0cc d0bc
00000080: 695c 95bd fb28 ee3d 91e8 103d 2f9d 9b3d
00000090: df84 363e 1863 a63d 40ee 1e3c 757e 37be
000000a0: f1ea 0ebd ce67 423c e38a 0f3e 0f7d 43be
000000b0: dbc6 1cbe 5c71 683d bda2 dd3d 0d2e 89bd
000000c0: a136 273d 4939 2cbd 8ee1 07be a9c5 be3c
000000d0: a7f0 fbbd 824d 403e 75c2 9d3d e91a 28be
000000e0: 959b 0dbe 7417 b73d c747 01be 5168 27be
000000f0: 6383 00bd c065 b33d 7bb7 4cbd beba d0bd
00000100: 03af 283d c722 d83d bdad 263d 074c ed3d
00000110: 38fe 573e 4dbd 213e faa4 823c fdd6 d1bd
00000120: 7e9d bb3d 7bf9 47bd acb1 2fbe b46c 923d
00000130: 75ec ac3c f273 183e 6cbd 3a3e 2837 193d
00000140: b03f ddbc 1d0d 373d c155 54bc 7ecd 08bd
00000150: 430f ac3c 9154 e13d 16af 9e3d 550d 5139
00000160: 41cc 753d e308 78bd bb99 7dbd 19a3 b6bd
00000170: 5b05 42bd 5de1 efbd aa6f b4bd b8fb 1c3d
00000180: d4a3 6dbd 6fba b3bd c052 ef3d 9b90 ce3d
00000190: a4f3 ee3d ce2c 2cbe 99de aabd 604b 4c3e
000001a0: 158b c33d f953 ccbd 5361 d83d 914a 46be
000001b0: 6ce6 813c 4981 8a3d daf4 24be 32fb 5d3d
000001c0: fbef 48bc 47d3 30bc bf95 04bd bc77 d7bc
000001d0: 2640 d23c ab65 1b3d c8a4 d5bd 3da4 283d
000001e0: 372c d93c 338a eb3d 5e9f 21be 87c5 293e
000001f0: 44ae 213e 2154 02be 3577 31be 75dd 16be
-0.017854584 -0.0037224358 0.0018480719 0.17704523 -0.05448506 0.008335188 0.0861227 0.022993652
-0.09526988 0.04410191 0.14668047 0.14321437 0.008821665 0.10675851 0.18553966 -0.20569617
0.006808473 -0.19556491 0.021006519 -0.08015175 -0.061250236 0.14896473 0.14688314 -0.0695706
0.13993038 0.08785681 0.17702848 0.070435174 0.014525044 0.15024205 -0.12603986 -0.025488228
-0.072930165 0.1162891 0.035378043 0.0759834 0.17824124 0.081243694 0.009700358 -0.17919333
-0.034892026 0.011865569 0.14017825 -0.19090675 -0.15310232 0.056748733 0.108220555 -0.066982366
0.040823583 -0.04204682 -0.13269636 0.023287611 -0.1230176 0.18779567 0.07703105 -0.16416515
-0.13828881 0.0894002 -0.12625037 -0.16348387 -0.0313753 0.08759642 -0.049979668 -0.10191868
0.04118253 0.10553508 0.040693033 0.11586767 0.2109307 0.15794869 0.015947808 -0.10246084
0.091608986 -0.048821907 -0.1715762 0.0714964 0.021108845 0.1488798 0.18236321 0.037406117
-0.027007908 0.04469024 -0.012959898 -0.033399098 0.021003371 0.11002458 0.07748239 0.0001993676
0.060009245 -0.06055535 -0.061914187 -0.08917827 -0.04736839 -0.117129065 -0.08810361 0.038325995
-0.058017567 -0.08775794 0.11685705 0.10086175 0.116675645 -0.16813967 -0.083432384 0.19950628
0.09548012 -0.09976954 0.10565438 -0.19364382 0.015856944 0.067629404 -0.16109028 0.054194637
-0.012264247 -0.01079256 -0.03236937 -0.026302211 0.025665354 0.037938755 -0.1043182 0.041172255
0.026510341 0.11500969 -0.1578345 0.16579257 0.15789133 -0.12727405 -0.1733063 -0.14732917
