output/models/220507_2056_ggcnn2_epoch_20_val_batch_125/epoch_16_iou_0.77_statedict.pt (torch, 274205 bytes, 20 tensors)

features.0.weight f4 [16, 1, 11, 11]
0	0xbd0690f5	-0.032853086
1	0xbaf15535	-0.0018412234
2	0xbd08a06f	-0.033356126
3	0x3cac0e42	0.021002892
4	0x3d12c64d	0.035833646
5	0x3ca5570d	0.02018311
6	0xbcb9ac04	-0.022665031
7	0x3cd7014d	0.026245737
8	0x3c3c515f	0.01149401
9	0xba8df7c4	-0.0010831286
10	0x3c86d782	0.016460184
11	0x3cc95e25	0.024581024
12	0x3cf77f60	0.030212104
13	0x3cb855de	0.022501882
14	0x3bb645e7	0.005562532
15	0x3c8cee56	0.017203491
16	0xbd489a59	-0.048975322
17	0x3d51a089	0.05117849
18	0x3c9433e3	0.018091148
19	0x3d2040ee	0.03912442
20	0x3c1309ba	0.008974487
21	0xbd08f238	-0.033434123
22	0xbc2582e1	-0.010102005
23	0xbca28e67	-0.019843293
24	0xbd3623e9	-0.04446784
25	0xbd08800f	-0.03332525
26	0xbc4e328f	-0.012585296
27	0xbc235544	-0.009969059
28	0x3d11e3b9	0.035617564
29	0x3c3c6724	0.0114992
30	0x3d6c3951	0.05767185
31	0xbd0fd8aa	-0.035118736
32	0xbce0e024	-0.027450629
33	0xbd1f3158	-0.038865417
34	0xbc9d78d6	-0.019222658
35	0x3d6c2c45	0.057659406
36	0x3c007600	0.007840633
37	0x3d4b297a	0.049600102
38	0x3beebf02	0.0072859535
39	0xbd25e6e4	-0.040503398
40	0x3cbb6987	0.022877468
41	0x3c7253a9	0.014790454
42	0x3bdabd79	0.006675419
43	0x3d3c970d	0.04604249
44	0x3cbee848	0.02330412
45	0x3b611e80	0.0034350455
46	0x3d38723a	0.04503081
47	0x3c041971	0.008062706
48	0xbbf1c577	-0.007378276
49	0xbc172d16	-0.009227058
50	0x3c4723a3	0.012154493
51	0x3d4d7d67	0.05016842
52	0xbc23a1cc	-0.009987306
53	0xbd32c8e4	-0.043648615
54	0xbd36c9e3	-0.044626128
55	0x3d5f9c5a	0.054592468
56	0xbd00920a	-0.031389274
57	0x3beb35c1	0.007178039
58	0x3cc9e777	0.024646504
59	0xbc529d9a	-0.012854958
60	0xbd290ec1	-0.041273836
61	0x3c92f54c	0.017939232
62	0x3ccc3f5a	0.024932552
63	0x3af62403	0.0018779043
64	0x3cb99a90	0.022656709
65	0x3d1afb38	0.037837237
66	0xbba3b9fb	-0.004996536
67	0x3c81acfa	0.015829552
68	0x3d1dbc92	0.038509913
69	0x3d358527	0.044316437
70	0xbd361c94	-0.044460848
71	0x3d27d169	0.040971193
72	0xba074a9a	-0.0005160958
73	0x3c61081f	0.013734846
74	0x3bda22f9	0.006657001
75	0xbc562e0a	-0.0130725
76	0x3c25cdef	0.010119899
77	0xbcbedcb8	-0.023298606
78	0x3c507d54	0.012725193
79	0x3d53bec5	0.051695604
80	0xbcf66224	-0.030076094
81	0xbc40c3fa	-0.011765474
82	0xbd337887	-0.043816116
83	0xbd4b946d	-0.049702097
84	0xbd402b3c	-0.04691623
85	0xbd377c1a	-0.044796087
86	0xbd4621ac	-0.048371956
87	0x3d226902	0.039650925
88	0x3cd2ae1f	0.025717793
89	0x3d23b452	0.03996689
90	0xbc7142fd	-0.014725444
91	0x3ca8ea0f	0.02061942
92	0xbccf3da1	-0.025297942
93	0xbd413c23	-0.04717649
94	0xbc0f96cd	-0.008763981
95	0xbcbbbbf7	-0.022916777
96	0xbc68755d	-0.014188138
97	0x3b20d6ec	0.0024542166
98	0xbcf90006	-0.030395519
99	0x3cfa239d	0.03053456
100	0x3d41be61	0.0473007
101	0xbd3588d1	-0.04431993
102	0xbc35f85c	-0.011106577
103	0x3d1ee876	0.03879591
104	0x3d43d4bb	0.047810297
105	0x3d577eff	0.052611347
106	0xbd0e6e7e	-0.034773342
107	0x3c92f710	0.017940074
108	0x3d6435cc	0.055715367
109	0x3cf7e782	0.030261759
110	0xbc843f61	-0.016143503
111	0x3d4fb12c	0.050706074
112	0xbc297a64	-0.010344122
113	0x3c39cdca	0.011340568
114	0xbd0c5b79	-0.034266923
115	0x3a537a5d	0.0008067245
116	0xbd017ba6	-0.03161206
117	0xbcbc6e6c	-0.023001872
118	0x3cd5058c	0.026003622
119	0xbc0f5083	-0.008747223
120	0x3cca2688	0.024676576
121	0xbcb982d7	-0.022645397
122	0xbca7d93c	-0.020489328
123	0xbd8c5062	-0.06851269
124	0xbd31ed85	-0.043439407
125	0xbc8ad82a	-0.016948778
126	0xbc2ab67d	-0.010419485
127	0x3d7dcdf9	0.06196401
128	0x3d56b2ec	0.052416727
129	0x3c9ea0bc	0.019363753
130	0x3c4da16c	0.012550693
131	0xbc43b910	-0.011945978
132	0xbdb8ee5a	-0.09029837
133	0xbc5757ee	-0.013143523
134	0x3d2a7f63	0.04162539
135	0x3d42d72b	0.04756848
136	0xbb5459ea	-0.0032402226
137	0x3c534bf9	0.012896531
138	0x3c9b9351	0.018991144
139	0x3d8858b7	0.06657546
140	0x3d38a331	0.045077506
141	0x3d8e0a3d	0.069355465
142	0x3d622384	0.05520965
143	0xbc42f5af	-0.011899396
144	0xbd02d74c	-0.031943604
145	0xbc89a864	-0.016803928
146	0xbcb28083	-0.021789795
147	0x3c019331	0.007908628
148	0x3d8d9828	0.06913787
149	0x3d6e95f7	0.058248486
150	0x3b9ce030	0.0047874674
151	0x3d8c15c9	0.06840093
152	0x3d7dce28	0.061964184
153	0xbc58ce0e	-0.013232721
154	0x3b0e0d09	0.002167525
155	0x3d300cb0	0.04298085
156	0x3ce344db	0.027742794
157	0xbbce6550	-0.0062986985
158	0x3cde6425	0.027147362
159	0xbc96af3e	-0.018394109
160	0x3d1e075f	0.03858125
161	0x3dbb4f30	0.09145963
162	0x3d8d3b41	0.068960674
163	0x3cee6fe4	0.029106088
164	0xbcae39af	-0.02126774
165	0xbd6821ae	-0.056672744
166	0xbd07ce38	-0.03315565
167	0x3d0e1840	0.034691095
168	0x3d4cc05e	0.049988143
169	0xbc4d162d	-0.012517494
170	0x3cb0c9ab	0.021580538
171	0x3ca2b65c	0.019862346
172	0x3cd64107	0.026154054
173	0x3ca6478d	0.02029779
174	0x3cb94b31	0.022618862
175	0x3d31e026	0.043426655
176	0x3d2d0bd2	0.0422476
177	0xbcd6824a	-0.026185174
178	0x3d8f432e	0.069952354
179	0x3c9f3b80	0.019437551
180	0x3d5f4fc6	0.054519437
181	0x3d1b5d89	0.037931
182	0x3d9c36ec	0.07627663
183	0x3ca331a8	0.019921139
184	0x3d93433b	0.071905576
185	0x3d63b89c	0.05559598
186	0x3d60ca05	0.05488016
187	0x3d202a92	0.0391031
188	0x3c5e009a	0.013549948
189	0xbcb43272	-0.02199671
190	0xbcb18d85	-0.021673927
191	0x3d599367	0.05311909
192	0xbb7c4f75	-0.0038499509
193	0x3c548de7	0.012973285
194	0x3d91b7f6	0.07115166
195	0x3d675cee	0.05648511
196	0x3cef9813	0.02924732
197	0x3d95f9c5	0.073230304
198	0xbca0a8c5	-0.019611726
199	0xbc38e567	-0.0112851625
200	0x3ceb1c96	0.028700154
201	0x3b6f73bc	0.003653749
202	0x3d2d12e5	0.042254347
203	0x3d26df0d	0.04074006
204	0x3d58a6b2	0.052893348
205	0x3d9b7c3d	0.07592056
206	0x3d864474	0.06556025
207	0x3d639fe9	0.055572424
208	0x3d8c90d6	0.06863563
209	0xbd3737bf	-0.044730898
210	0x3d66d7f3	0.05635829
211	0xbcd00f79	-0.025398003
212	0xbc3a5114	-0.01137187
213	0x3b58f0a0	0.0033102408
214	0x3d1fc415	0.039005358
215	0x3d23cf11	0.039992396
216	0x3db7edbe	0.089808926
217	0x3d5085f8	0.050909013
218	0x3d9c8a00	0.07643509
219	0x3c92b068	0.017906383
220	0x3c2d9fa3	0.010597142
221	0xbafeede1	-0.0019449556
222	0x3d6ab60f	0.05730253
223	0x3d42657e	0.04746007
224	0xbcdbdaaf	-0.026837675
225	0x3ce99d03	0.028517252
226	0x3c8aeb68	0.016957954
227	0x3d91c151	0.0711695
228	0x3be72a4b	0.0070546023
229	0x3c4c1155	0.012455304
230	0x3cf18856	0.029483955
231	0xbd97e816	-0.07417314
232	0xbcf0f938	-0.029415712
233	0x3d01ebe7	0.031719115
234	0xbd5738f3	-0.052544545
235	0x3cca42f9	0.024690138
236	0xbb417d94	-0.0029524313
237	0x3b38aea4	0.0028180266
238	0xbcd768b0	-0.026295036
239	0xbd056910	-0.0325709
240	0xbcfb29b5	-0.030659536
241	0x3c60880a	0.013704309
242	0xbd4761a7	-0.048677113
243	0x3d082934	0.03324242
244	0xbc3da1cd	-0.011574221
245	0x3ca547d9	0.020175861
246	0x3d9197ae	0.07109009
247	0xbcd6f988	-0.026242033
248	0x3cdc9faf	0.026931612
249	0x3d9ec0bc	0.07751605
250	0x3d5e8989	0.054330382
251	0xbb8a867d	-0.004227458
252	0x3a9b8c2b	0.0011867335
253	0x3cc09b4d	0.023511553
254	0xbd099535	-0.03358956
255	0x3d006631	0.031347457

features.0.bias f4 [16]
0	0xbe215674	-0.15755635
1	0x3ed103d4	0.40823233
2	0xbed723ea	-0.42019588
3	0xbcfd3a83	-0.03091169
4	0xbdf24f3c	-0.11831519
5	0xbe9a5b7f	-0.3014793
6	0xbdcb676a	-0.09931834
7	0xbc4c7d25	-0.012481009
8	0xbe3244dd	-0.17409082
9	0x3e16c1f6	0.14722428
10	0xbe41a143	-0.18909173
11	0xbdd20c6c	-0.102562755
12	0x3da9a9cb	0.082843386
13	0x3e8a9e16	0.27073735
14	0xbe4206ae	-0.1894786
15	0x3ebed2aa	0.372701

features.2.weight f4 [16, 16, 5, 5]
0	0x3d77f612	0.060537405
1	0x3aab5fe3	0.0013074841
2	0xbd84ba1f	-0.06480812
3	0x3d33e512	0.04391963
4	0x3d2ed2cb	0.042681497
5	0x3d8d9c50	0.0691458
6	0xbd64bb9a	-0.055842973
7	0x3d8d1c3b	0.0689015
8	0x3cae92f0	0.0213103
9	0x3c765f02	0.0150373
10	0xbc0cac42	-0.008585991
11	0xbd8bf58a	-0.06833942
12	0xbd880cca	-0.06643064
13	0xbd304c31	-0.04304141
14	0x3d85c911	0.06532491
15	0xbc62d13d	-0.013843832
16	0xbc19f2ac	-0.009396236
17	0x3d49bbe6	0.04925146
18	0x3db95b06	0.090505645
19	0x3cabb11c	0.020958476
20	0x3d3d2d57	0.046185818
21	0x3d35081f	0.044197198
22	0xbce6f677	-0.028193695
23	0xbd878d7f	-0.06618785
24	0xbd502a1b	-0.050821405
25	0xbc2121dc	-0.009834733
26	0x3c0e7a1f	0.008696108
27	0x3c01e06b	0.007927041
28	0xbdf09a3e	-0.11748169
29	0xbdbd6841	-0.092484005
30	0xbda8124d	-0.082066156
31	0x3c2a1286	0.010380393
32	0xbbf09b46	-0.007342729
33	0xbd4c23b2	-0.04983873
34	0x3d477fa6	0.04870572
35	0xbc3d5753	-0.011556464
36	0x3c70de25	0.014701401
37	0xbc9d4a87	-0.019200576
38	0xbcb33899	-0.021877574
39	0x3bd4dd38	0.006496098
40	0xbdb56c51	-0.0885855
41	0xbd4d7d6b	-0.050168436
42	0xbdc53c40	-0.096306324
43	0xbc7dd107	-0.0154917305
44	0xbdcac8d9	-0.0990159
45	0xbdcbd587	-0.099528365
46	0xbdbc626c	-0.0919846
47	0xbdbb6d57	-0.09151714
48	0xbd7d980b	-0.061912578
49	0xbd0bbb80	-0.03411436
50	0xbb8bcc2c	-0.0042662825
51	0xbdb66c78	-0.089074075
52	0xbd87a6d5	-0.066236176
53	0xbcf8d2c4	-0.030373938
54	0xbd8baaa6	-0.06819658
55	0xbd33b1bc	-0.043870673
56	0x3cb88316	0.022523444
57	0xbc39da47	-0.011343545
58	0xbcd7b94a	-0.02633347
59	0x3d7de4c8	0.06198576
60	0xba121a8a	-0.00055734126
61	0x3d1e4d8b	0.03864817
62	0x3d824563	0.06360891
63	0xbd5b45ce	-0.053533368
64	0xbcd97e1d	-0.026549393
65	0x3d64d7dc	0.055869922
66	0x3d3924c1	0.045201067
67	0xbd574252	-0.052553482
68	0x3da55831	0.08073462
69	0xbd6f5224	-0.058427945
70	0xbd276146	-0.04086425
71	0x3d9dbb6e	0.07701765
72	0x3c1c6421	0.009545357
73	0x3d93f8ae	0.07225166
74	0x3ced1e72	0.028945182
75	0xbd847d81	-0.064692505
76	0xbc87c69c	-0.016574197
77	0x3d539209	0.05165294
78	0xbceeb21f	-0.02913767
79	0xbdc24c73	-0.09487238
80	0xbde55a8d	-0.11198912
81	0xbd5c8292	-0.05383546
82	0x3c7b33ba	0.015332157
83	0xbd9365d1	-0.07197154
84	0xbd89b4e9	-0.06723959
85	0xbb650312	-0.0034944457
86	0xbd0697c1	-0.032859568
87	0x3ca61c8a	0.02027728
88	0x3d00a8bb	0.031410914
89	0x3d0586f3	0.0325994
90	0xbcc86a45	-0.024464736
91	0x3d23202a	0.039825596
92	0x3d31ccc2	0.043408163
93	0xbd984c0d	-0.074363805
94	0xbcf45172	-0.029823992
95	0xbd826816	-0.06367509
96	0xbdc47c69	-0.09594042
97	0x3b483f83	0.0030555434
98	0x3d1fcf21	0.039015893
99	0xbcbaced2	-0.022803698
100	0xbd7ac0aa	-0.061218895
101	0x3ce5a684	0.028033502
102	0x3cb7ab29	0.022420483
103	0xbda7e770	-0.0819844
104	0xbd95007e	-0.072754845
105	0x3c8584c7	0.016298665
106	0xbd7552e1	-0.059893493
107	0xbd45c1de	-0.04828059
108	0xbc39dd31	-0.01134424
109	0x3dacb0a0	0.08432126
110	0xbaaaec49	-0.0013040389
111	0xbd6126c5	-0.054968614
112	0x3d0cda08	0.03438762
113	0x3c35a97b	0.011087771
114	0x3d6c3e98	0.05767688
115	0xbd5d6c2d	-0.054058243
116	0xbd6eea0b	-0.05832867
117	0x3d6e169b	0.058127027
118	0x3d57c67c	0.052679524
119	0x3d9fa6db	0.07795497
120	0x3d4b9868	0.049705893
121	0x3a2ca069	0.0006585182
122	0x3d210888	0.039314777
123	0xbd50dee9	-0.050993834
124	0x3d37406a	0.044739164
125	0xbd87769d	-0.066144206
126	0xbd8ffed3	-0.07031026
127	0xbdcc15f3	-0.09965124
128	0xbdb405c8	-0.08790165
129	0x3aa2b1d4	0.0012412616
130	0x3d078f71	0.03309578
131	0x3c416c42	0.011805596
132	0x3bbc950a	0.0057550715
133	0x3d2ea14b	0.04263429
134	0xbda3a900	-0.079912186
135	0xbd9532fc	-0.07285115
136	0x3d2ae1cf	0.041719254
137	0xbbda09a5	-0.0066539817
138	0xbd89a5db	-0.067210875
139	0xbd831299	-0.064000316
140	0x3d302145	0.04300048
141	0x3b1dad9d	0.002405978
142	0xbd804660	-0.06263423
143	0x3c436f08	0.011928327
144	0xbdb2e6fb	-0.08735462
145	0xbb62ebf1	-0.0034625495
146	0x3c123b8e	0.008925332
147	0x3d6f7bf7	0.05846783
148	0xbd53b865	-0.051689524
149	0x3c82d024	0.01596839
150	0x3cccc736	0.024997335
151	0x3d91f6ca	0.071271494
152	0xbcd691a2	-0.02619249
153	0x3d19a516	0.037510954
154	0x3d7d1656	0.06178888
155	0x3da740ce	0.081666574
156	0x3da056d7	0.078290634
157	0xbdae9f28	-0.085264504
158	0x3da637ce	0.08116113
159	0x3da2f02d	0.07955966
160	0x3d55573b	0.052085143
161	0xbd9c50a5	-0.07632569
162	0xbca54b38	-0.020177469
163	0xbd7e3679	-0.062063668
164	0x3dab69f0	0.08369815
165	0xbc231c09	-0.009955415
166	0xbd839948	-0.064257205
167	0xbb8dddb8	-0.0043294095
168	0x3d546e9b	0.051863294
169	0xbd6d437b	-0.057925683
170	0x3d5aa1f9	0.053377125
171	0x3db179d4	0.08665815
172	0xbcb62506	-0.022234451
173	0xbcfe5eee	-0.031051125
174	0x3cfd1595	0.03089408
175	0xbdc19d5d	-0.09453843
176	0xbdc48d60	-0.09597278
177	0xbd2a0a09	-0.041513477
178	0x3be7e554	0.0070768986
179	0xbdf1944c	-0.117958635
180	0xbbe26802	-0.0069093714
181	0xbd67546f	-0.056477007
182	0x3cbf407f	0.023346184
183	0xbdd3593f	-0.10319757
184	0xbcd535e0	-0.026026666
185	0x3d4d509c	0.050125703
186	0xbd434889	-0.047676597
187	0xbb12c797	-0.0022396797
188	0xbd213d69	-0.039365206
189	0x3c3fbf11	0.011703269
190	0x3d04606a	0.03231851
191	0x3c9ecf6d	0.019386018
192	0xbd07cd4a	-0.033154763
193	0xbd8445b3	-0.064586066
194	0xbd44db9b	-0.048060995
195	0x3c97b3ed	0.018518412
196	0x3d84cd67	0.0648449
197	0xbd3cbef5	-0.04608055
198	0x3d2ec084	0.042664066
199	0x3b144cb4	0.0022628726
200	0x3d1e6ce6	0.038678072
201	0x3ccc7e77	0.024962647
202	0xbd8e2422	-0.069404855
203	0x3d9e90a9	0.077424355
204	0xb978bf18	-0.00023722311
205	0xbcc13cfb	-0.023588648
206	0x3d86fb5e	0.06590913
207	0xbd1c3673	-0.038137864
208	0x3d1982b3	0.03747816
209	0xbda1f173	-0.07907381
210	0x3d1530a4	0.03642334
211	0xbd83b7a3	-0.0643151
212	0xbcb35545	-0.021891246
213	0xbd9724cd	-0.07380066
214	0xbc9073aa	-0.017633278
215	0xbd03060a	-0.03198818
216	0x3d833578	0.06406683
217	0x3d11b0a0	0.035568833
218	0xbd88e5bb	-0.066844426
219	0xbda07e35	-0.07836572
220	0xbd48c4ac	-0.049015686
221	0xbd7759cd	-0.060388375
222	0xbd0141ba	-0.031556822
223	0xbda78e01	-0.08181382
224	0xbd108276	-0.035280667
225	0xbd66b3cc	-0.05632381
226	0xbd96b7b5	-0.07359258
227	0xbe004012	-0.12524441
228	0xbdb623de	-0.0889356
229	0xbe0ab8d0	-0.13547063
230	0xbca6ecbd	-0.020376557
231	0xbdeb5f65	-0.114928044
232	0xbd64fb67	-0.05590382
233	0x3cd7af7f	0.0263288
234	0xbc4819af	-0.012213155
235	0xbd098190	-0.033570826
236	0xbd3775a0	-0.04478991
237	0x3ca00836	0.019535165
238	0x3d49bad8	0.049250454
239	0xbd11b5bf	-0.035573717
240	0xbd7ec558	-0.06219992
241	0x3d039b2a	0.032130398
242	0x3c979ef0	0.018508404
243	0x3cfcbf9f	0.03085309
244	0xbc9e3b60	-0.019315422
245	0xbdd18bee	-0.102317676
246	0xbd8b3660	-0.067974806
247	0x3ca891e8	0.020577386
248	0xbdc6ccc7	-0.09707027
249	0x3ccca2f2	0.024980042
250	0x3da0ab93	0.07845225
251	0x3d1889ac	0.03724067
252	0x3d84e826	0.06489591
253	0xbc59683f	-0.013269483
254	0x3c5b294b	0.013376544
255	0xbd5e7f89	-0.054320846

features.2.bias f4 [16]
0	0xbcfa1b02	-0.030530456
1	0xbdc852f0	-0.09781444
2	0x3dcdfb7f	0.10057735
3	0x3e00e399	0.12586822
4	0x3cd833f4	0.02639196
5	0xbdfda3c1	-0.12384749
6	0x3bdb3ec8	0.0066908337
7	0x3b258c61	0.0025260674
8	0xbd6017b1	-0.054710094
9	0x3e30b985	0.1725827
10	0xbcab03a3	-0.020875758
11	0x3d720bcd	0.059093285
12	0x3c8a0bbc	0.016851299
13	0x3cc0fa29	0.023556786
14	0x3d36e76e	0.044654302
15	0x3d3cbc25	0.046077866

features.5.weight f4 [16, 16, 5, 5]
0	0xbd1bfed4	-0.03808482
1	0x3c9f4404	0.019441612
2	0xbd8a2952	-0.067461625
3	0xbcf31b58	-0.029676124
4	0x3d7975ef	0.060903486
5	0xbcf6cbf7	-0.030126555
6	0xbda133b6	-0.07871191
7	0xbd474264	-0.0486473
8	0xbc8c44ed	-0.01712271
9	0xbd9efa88	-0.07762629
10	0x3db73f3e	0.08947609
11	0x3d8372c3	0.064183734
12	0x3da9d1de	0.08291982
13	0x3c3b0710	0.011415258
14	0x3cdc1b36	0.026868444
15	0x3d65a59e	0.056066148
16	0x3d81fa09	0.063465185
17	0xbd54f7c5	-0.051994104
18	0x3c343f3d	0.011001405
19	0xbd30be26	-0.04315009
20	0xbc9888fd	-0.018620009
21	0xbd303010	-0.043014586
22	0x3d96f4d8	0.07370919
23	0xbcccd7db	-0.025005272
24	0xbbe5937d	-0.0070061074
25	0xbdac43b7	-0.08411353
26	0xbd0e965c	-0.034811363
27	0xbdcc17d9	-0.09965486
28	0xbddc49f8	-0.10756296
29	0xbe32b0ab	-0.17450206
30	0xbd7c9878	-0.061668843
31	0x3c89eba9	0.016836004
32	0xbe04536b	-0.12922446
33	0xbd38358e	-0.04497295
34	0xbde23815	-0.11045853
35	0xbdc44827	-0.095840745
36	0xbd249344	-0.040179506
37	0xbd9d6edb	-0.0768716
38	0x3b57ed03	0.0032947666
39	0xbd46cdbb	-0.048536044
40	0x3d0a7ef3	0.033812474
41	0xbd9087f3	-0.0705718
42	0x3db4fd4a	0.088373736
43	0xbc08b299	-0.008343362
44	0x3d908daf	0.07058274
45	0x3d946d6a	0.072474316
46	0x3dbba32d	0.09161983
47	0x3d9473ba	0.072486356
48	0x3de53d71	0.1119336
49	0x3dba2ecf	0.09090959
50	0xbc162dc2	-0.009166183
51	0xbd497c3c	-0.049190745
52	0x3c02554f	0.0079549095
53	0xbdca56f8	-0.09879869
54	0xbe14e8d4	-0.14541942
55	0xbd634625	-0.055486817
56	0xbc4fa73c	-0.012674149
57	0x3d3aaf11	0.045577113
58	0xbe2404fb	-0.16017525
59	0xbd9696f9	-0.073530145
60	0x3e0a5bd5	0.13511594
61	0x3d83c7d9	0.06434602
62	0x3c45699a	0.012049103
63	0x3dfd509d	0.123688914
64	0x3db0e27b	0.08636948
65	0xbad6de4b	-0.0016393153
66	0x3d928e5e	0.07156061
67	0x3d8a06d5	0.06739584
68	0x3c06624c	0.008202147
69	0xbc6bd9ba	-0.014395172
70	0x3d8b88e6	0.06813221
71	0xbd2a2d4a	-0.041547097
72	0x3c6ffefc	0.014648195
73	0xbdcf9d92	-0.10137476
74	0xbdd928f1	-0.10603512
75	0xbdb03f21	-0.08605791
76	0xbd6ae09b	-0.057343107
77	0x3aa11e70	0.0012292396
78	0xbda0d7a4	-0.0785363
79	0xbd81dda6	-0.06341104
80	0xbc8f9fa0	-0.01753217
81	0xbdfdf468	-0.124001324
82	0xbdd424ca	-0.103585795
83	0xbdac6e50	-0.08419478
84	0xbe5f6538	-0.21815956
85	0x3ba70266	0.0050967215
86	0x3e3091e7	0.17243157
87	0x3dcdb703	0.10044672
88	0xbbb0231f	-0.0053752805
89	0x3db0c15b	0.0863063
90	0x3d0305ef	0.03198808
91	0x3dd8d14b	0.105867945
92	0x3d31384b	0.043266576
93	0xbd1e5602	-0.038656242
94	0xbca50001	-0.020141603
95	0x3d61d042	0.05513025
96	0x3da4b280	0.08041859
97	0x3c2ca17b	0.010536547
98	0xbd86563e	-0.06559418
99	0xbc0c23c2	-0.008553447
100	0xbd666b46	-0.056254648
101	0xbd7c3649	-0.061575208
102	0xbd098d7b	-0.033582192
103	0xbd417ae1	-0.047236327
104	0xbcb66144	-0.022263177
105	0x3d2b588e	0.0418325
106	0x3d0e5b3b	0.034754973
107	0x3a13f673	0.0005644329
108	0x3d370b45	0.04468848
109	0x3d6e9238	0.058244914
110	0x3aa7a479	0.0012790106
111	0xba7d0af1	-0.00096528145
112	0x3dc11483	0.094277404
113	0xbc10d57e	-0.008839963
114	0x3c5a751a	0.013333583
115	0x3d361343	0.044451963
116	0xbd94c964	-0.07264975
117	0x3cc08b39	0.023503887
118	0xbd9e102c	-0.07717928
119	0x3d6632bd	0.05620073
120	0x3a87b732	0.0010354279
121	0x3d7f8b85	0.062388916
122	0xbab36e76	-0.0013689536
123	0x3d41fe41	0.047361616
124	0xbc005989	-0.007833847
125	0xbdec12fa	-0.11527057
126	0xbe31b75a	-0.173551
127	0xbe08c3c9	-0.13355936
128	0xbdc23aeb	-0.09483894
129	0xbe3add53	-0.18248491
130	0xbe295730	-0.16537166
131	0xbe4afc15	-0.19822724
132	0xbe35f59e	-0.17769477
133	0xbdb2914f	-0.08719122
134	0xbdf50a06	-0.119648024
135	0x3c93cc4d	0.018041754
136	0x3d63592d	0.055504967
137	0xbd90eba7	-0.07076197
138	0x3dd6610e	0.104677305
139	0x3df35e15	0.11883179
140	0x3d73b54a	0.059499063
141	0xbd42716f	-0.04747146
142	0xbbfe400a	-0.007759099
143	0x3c2a60ed	0.0103990855
144	0x3d47f190	0.048814356
145	0xbbb2a171	-0.005451374
146	0xbd81ee2c	-0.06344256
147	0xbd745c53	-0.05965836
148	0x3c6f51fc	0.014606949
149	0x3da3ff1c	0.080076426
150	0xbcb35e84	-0.021895654
151	0x3d988422	0.07447077
152	0xbce09bff	-0.027418135
153	0x3c951ea6	0.01820309
154	0xbdb319e9	-0.08745176
155	0xbc1a45b7	-0.009416035
156	0xbdb45765	-0.08805732
157	0xbd80b247	-0.06284004
158	0xbca5cca3	-0.02023918
159	0x3d352db5	0.044233043
160	0x3d2acac0	0.041697264
161	0xbd86631c	-0.06561872
162	0x3c0bcbf5	0.008532514
163	0x3bc9b042	0.006155045
164	0x3c629f93	0.013831991
165	0x3d0adafc	0.033900246
166	0x3cfc5eb9	0.030806886
167	0xbd4c58ff	-0.04988956
168	0x3cc6c1b1	0.024262281
169	0xbda18f3f	-0.0788865
170	0xbb9bb87b	-0.0047522164
171	0xbd4c1d62	-0.04983271
172	0x3d4885b9	0.048955653
173	0x3ce1fee7	0.027587367
174	0xbd3e4065	-0.04644813
175	0xbd5d92ec	-0.054095194
176	0xbcd4b06d	-0.025963033
177	0xbd3e8bc2	-0.046520002
178	0x3c590dce	0.01324792
179	0x3c268977	0.01016461
180	0x3db7beb6	0.08971922
181	0xbd589b78	-0.05288264
182	0x3ae48054	0.0017433264
183	0x3d0cce84	0.034376636
184	0x3cd0603c	0.025436513
185	0x3d3f73df	0.046741363
186	0x3db438f2	0.08799924
187	0x3d3fff89	0.046874557
188	0xbcc6c93b	-0.024265876
189	0x3d1a7ad2	0.037714787
190	0x3dafe90f	0.08589374
191	0x3c71a4fa	0.014748806
192	0x3d2ccf2c	0.042189762
193	0xbca79086	-0.020454656
194	0x3d86fce9	0.065912075
195	0xbd02a92c	-0.031899616
196	0x3c2996ea	0.010350922
197	0x3d43fc56	0.04784807
198	0x3ccfbc0b	0.02535822
199	0xbacd5078	-0.001566424
200	0xbe412895	-0.18863137
201	0xbe358747	-0.17727385
202	0xbb8ae2d2	-0.004238465
203	0xbe1ed464	-0.15510708
204	0xbbcf9057	-0.0063343453
205	0xbe3b13ec	-0.18269318
206	0xbdd155bc	-0.10221431
207	0xbdae2d14	-0.08504692
208	0x3c182f22	0.009288581
209	0xbc2f32c8	-0.01069326
210	0xbd0e3d55	-0.03472646
211	0xbc8c9e9d	-0.017165476
212	0xbd8e2c71	-0.0694207
213	0x3d61a059	0.05508456
214	0x3d310e66	0.043226622
215	0xbd57c78e	-0.052680545
216	0x3ce4b514	0.027918376
217	0x3d058bf1	0.03260416
218	0x3d7219c8	0.05910662
219	0xbd35e549	-0.044408116
220	0x3d944330	0.072393775
221	0x3db27bb1	0.087149985
222	0x3c3fe342	0.011711897
223	0x3cd89da1	0.02644235
224	0xbaae3f22	-0.0013293962
225	0x3cb8974a	0.022533078
226	0xbd1dc9df	-0.038522597
227	0xbdb5867c	-0.088635415
228	0xbe38403d	-0.17993255
229	0xbda347fa	-0.07972713
230	0x3b1e591d	0.0024162002
231	0xbd8567c1	-0.0651393
232	0xbd4f5b04	-0.05062391
233	0xbdd7ee6c	-0.10543522
234	0xbe8d8663	-0.2764159
235	0x3da8f0be	0.08249043
236	0x3e3eb016	0.18621859
237	0x3dc9bcb4	0.098504454
238	0xbc8d069a	-0.017215062
239	0xbddb5108	-0.10708815
240	0x3d1ab38b	0.03776888
241	0x3de12a26	0.10994367
242	0x3dc95f2c	0.09832606
243	0x3d15d054	0.03657563
244	0xbe21e693	-0.15810613
245	0xbc623811	-0.013807313
246	0x3de34949	0.110979624
247	0x3d128cc3	0.035778772
248	0x3d0e1037	0.034683432
249	0xbe0a4e61	-0.13506462
250	0xbd77db6c	-0.06051199
251	0x3cb066e7	0.021533443
252	0x3d94f5e9	0.07273466
253	0xbe218cc6	-0.15776357
254	0xbd100159	-0.035157535
255	0xbdee3bd9	-0.11632509

features.5.bias f4 [16]
0	0xbdb0b040	-0.08627367
1	0xbc52501e	-0.012836484
2	0x3cde0fff	0.027107237
3	0xbc391f5f	-0.011298983
4	0xbd199a33	-0.03750057
5	0xbd849efe	-0.06475638
6	0xbd959f53	-0.07305779
7	0xbd4e7d1d	-0.050412286
8	0xbd133b25	-0.035945076
9	0xbd8d8d87	-0.0691176
10	0xbda8f712	-0.0825025
11	0xbdba5e97	-0.09100073
12	0xbb64b14e	-0.003489572
13	0x3c995c56	0.018720787
14	0xbdcf55c1	-0.10123778
15	0xbc3af41f	-0.011410742

features.7.weight f4 [16, 16, 5, 5]
0	0xbd66cbfe	-0.056346886
1	0x3b440b64	0.0029914016
2	0x3d1f9d92	0.03896863
3	0x3c99e5a6	0.018786263
4	0xbbe8f7a7	-0.0071096006
5	0x3ca56151	0.020188006
6	0xbcc357a3	-0.0238455
7	0x3d9ca44d	0.076485254
8	0xbca8003e	-0.020507928
9	0xbdc9cb5f	-0.09853243
10	0x3ca4bd06	0.020109665
11	0xbd8375b4	-0.064189345
12	0xbcf3d148	-0.029762879
13	0x3cefa111	0.029251607
14	0x3cd8a877	0.026447518
15	0x3b7eae92	0.0038861376
16	0xbd717974	-0.058953717
17	0x3daf0786	0.08546357
18	0x3c97bfdc	0.018524103
19	0x3cc72d34	0.024313547
20	0x3d9d8ec6	0.076932475
21	0xbcdd8ecb	-0.027045628
22	0x39a72502	0.00031880295
23	0xbc91bbba	-0.01778971
24	0xbd9233fb	-0.07138821
25	0x3d5afd26	0.053464077
26	0x3d1b4102	0.037903793
27	0x3c8162a5	0.015794108
28	0x3d8d6f0f	0.06905948
29	0x3ceb8979	0.028752076
30	0xbdb0e9fe	-0.086383805
31	0x3d6d36c4	0.057913557
32	0xbd9e9ad4	-0.07744375
33	0xbdb9d989	-0.09074695
34	0xbd33cc8d	-0.043896247
35	0xbd58c528	-0.052922398
36	0xbcd2b6eb	-0.025721988
37	0xbd19741b	-0.037464242
38	0xbd1bc37b	-0.03802822
39	0xbd0e0051	-0.03466827
40	0x3d9af4ef	0.075662486
41	0xbc8d70f6	-0.017265778
42	0x3d5fa766	0.054603003
43	0xbc95e14b	-0.018295905
44	0x3c3a7fca	0.011383006
45	0xbdbfed1c	-0.09371397
46	0x3cf4f928	0.029903963
47	0x3d3e73b4	0.04649706
48	0x3d0a5c84	0.033779636
49	0x3d7629de	0.06009852
50	0x3cd0b37a	0.025476206
51	0xbbec9d13	-0.007220873
52	0xbd3d8aec	-0.046275064
53	0x3dd6893b	0.104753934
54	0xbd6ab171	-0.057298128
55	0xbd3f7932	-0.04674644
56	0xbd0cbbcf	-0.034358796
57	0x3c3f21fa	0.0116658155
58	0x3dda6622	0.106640115
59	0xbd667981	-0.05626822
60	0xbd93ce29	-0.07217056
61	0x3cf19c4a	0.02949347
62	0x3d41b0b5	0.04728766
63	0x3c0f1867	0.008733845
64	0xbdb6e5ad	-0.08930526
65	0x3d32fbc2	0.043697126
66	0xbcde7695	-0.027156154
67	0x3d22b7f8	0.039726228
68	0xbd09828c	-0.033571765
69	0xbc4adb43	-0.012381378
70	0x3d8872c4	0.06662515
71	0xbd27b069	-0.040939722
72	0xbd79e082	-0.061005123
73	0xbc6b76f6	-0.014371624
74	0x3d1a56b2	0.037680335
75	0x3cc72ee9	0.02431436
76	0xbc2b0e57	-0.010440431
77	0xbc565974	-0.013082851
78	0x3ce52b4e	0.02797475
79	0xbcd3bc56	-0.025846642
80	0x3daeab58	0.08528775
81	0xbd6bd168	-0.057572752
82	0xbd8b1479	-0.06791014
83	0xbd84918a	-0.06473072
84	0xbc8c4746	-0.01712383
85	0x3ca9faf6	0.02074955
86	0x3d90eefd	0.070768334
87	0x3d5ba991	0.053628508
88	0x3d2ee65c	0.042700157
89	0xbd0b6d95	-0.034040052
90	0x3b133ceb	0.002246673
91	0x3c64b744	0.01395971
92	0x3d09b6d0	0.03362161
93	0xbd26de91	-0.0407396
94	0x3bc4cc9f	0.006005838
95	0x3d2380ba	0.039917685
96	0x3d1608be	0.03662943
97	0x3da93a46	0.08263068
98	0xbd8a5fb6	-0.06756537
99	0xbd75fe82	-0.06005717
100	0x3d286acd	0.04111748
101	0xbd97e55d	-0.074167944
102	0xbce57092	-0.02800778
103	0x3d8d37de	0.068954214
104	0x3cd8ad42	0.026449803
105	0xbd3a3fc6	-0.045470975
106	0xbdc584dd	-0.09644482
107	0xbd10d73d	-0.035361517
108	0xbda5189d	-0.08061335
109	0xbd666400	-0.05624771
110	0xbdb9a019	-0.09063739
111	0xbdaa03c9	-0.08301503
112	0x3c3503d0	0.011048272
113	0xbcaae8a2	-0.020862881
114	0xbc45fc38	-0.012084059
115	0xbbe17d6d	-0.006881407
116	0xbe2963f3	-0.16542034
117	0xbe045bf5	-0.12925704
118	0xbd801396	-0.06253736
119	0x3d25638e	0.040378146
120	0xbe05a19d	-0.13049932
121	0xbc2df755	-0.010618051
122	0xbdaa8284	-0.08325675
123	0xbda2286d	-0.07917867
124	0xbd6bff92	-0.057616778
125	0xbd9e35be	-0.07725094
126	0xbbd099b7	-0.0063659805
127	0xbd95b408	-0.07309729
128	0xbd936989	-0.071978636
129	0x3d059831	0.032615844
130	0x3d2975ad	0.04137199
131	0x3d160b05	0.036631603
132	0xbd51b4de	-0.05119788
133	0x3c3e1144	0.011600796
134	0x3d80f492	0.06296648
135	0x3d5c9b85	0.053859252
136	0x3a0da9c0	0.0005404018
137	0xbdbc463a	-0.09193082
138	0x3ae833fc	0.0017715688
139	0xbcc76db5	-0.024344305
140	0x3a5f2a22	0.0008513053
141	0x3cfe22c7	0.031022443
142	0xbb1c396b	-0.0023837935
143	0x3d72f340	0.059314013
144	0xba04887b	-0.00050557376
145	0x3c812bf9	0.015768038
146	0xbcf5e13c	-0.030014627
147	0xbd364148	-0.04449585
148	0x3bf8f1ce	0.0075971847
149	0x3d55a65c	0.052160606
150	0x3cd40a85	0.025883922
151	0xbcd9c075	-0.026581028
152	0x3c7eb1a9	0.015545287
153	0xbc20aedc	-0.009807315
154	0xbd15a476	-0.036533795
155	0xbbd8204c	-0.006595647
156	0x3ac053bd	0.0014673393
157	0xbd340baf	-0.043956455
158	0xbdf4d96d	-0.11955533
159	0x3d8c34d8	0.06846017
160	0xbd65586a	-0.05599252
161	0x3b16be88	0.002300175
162	0x3cffc172	0.031220172
163	0xbd8a40da	-0.06750651
164	0xbcf72c31	-0.03017244
165	0xbd8ab2cc	-0.06772384
166	0xbcd295d2	-0.025706206
167	0x3b6cc901	0.003613055
168	0x3d29c00d	0.04144292
169	0xbd41bbb2	-0.04729814
170	0xbd50c0b3	-0.050965022
171	0xbd3f6bc5	-0.046733636
172	0x3dc1a46f	0.09455191
173	0xbd49c894	-0.04926355
174	0xbcd3faaf	-0.025876371
175	0x3d4a8dfe	0.04945182
176	0xbcf5ece1	-0.03002018
177	0xbcf8ac00	-0.030355453
178	0xbd0fc052	-0.03509552
179	0xbcffdb5c	-0.031232528
180	0x3d5fcb2a	0.05463711
181	0xbd82e389	-0.06391055
182	0xbd981456	-0.07425754
183	0xbd65ff45	-0.056151647
184	0x3d429436	0.047504626
185	0xbdc1de6a	-0.0946625
186	0xbd3807aa	-0.044929184
187	0x3cde1454	0.027109303
188	0xbd778b0c	-0.06043534
189	0xbc850436	-0.01623736
190	0xbd5ee53c	-0.054417834
191	0x39710467	0.00022985191
192	0x3d36c101	0.044617657
193	0x3a39adb6	0.0007083075
194	0xbc66904e	-0.014072491
195	0xbdae9077	-0.08523648
196	0x3c4baf98	0.0124320015
197	0x3cbbf19f	0.022942362
198	0x3d518bdd	0.051158775
199	0xbc7b6cc4	-0.015345756
200	0x3d305cd5	0.04305728
201	0x3d8a5d79	0.0675611
202	0xbd9350fc	-0.07193181
203	0xbd180b13	-0.037119936
204	0xbd7fe20a	-0.062471427
205	0xbc826d86	-0.015921365
206	0x3cede071	0.029037686
207	0x3cf7810f	0.030212907
208	0x3d8fa05e	0.070130095
209	0x3d0517fa	0.03249357
210	0x3d7e5fb2	0.06210298
211	0x3db38e4d	0.08767376
212	0x3c82517e	0.015908
213	0x3da33a28	0.07970077
214	0xbd739aa8	-0.059473664
215	0xbb9638eb	-0.004584422
216	0xbc2702d8	-0.010193549
217	0xbd6dc4eb	-0.058049124
218	0xbc7d5d7b	-0.015464182
219	0xbd46a279	-0.04849479
220	0x3d777bf7	0.060420956
221	0x3d199f7a	0.037505604
222	0x3d755f86	0.05990555
223	0x3da35bab	0.07976469
224	0x3da79b15	0.081838764
225	0x3c34fab6	0.011046102
226	0xbd8b0db7	-0.06789725
227	0xbdae0a97	-0.084981136
228	0x3d45bfcf	0.048278626
229	0xb8516b8f	-4.9929655e-05
230	0xbce4c588	-0.027926221
231	0xbd900252	-0.070316926
232	0x3be26cab	0.006909927
233	0x3d8d6a31	0.0690502
234	0x3d347741	0.044059042
235	0x3bf6de45	0.007533821
236	0xbc3d52f6	-0.011555424
237	0xbd9b7d4a	-0.07592256
238	0x3d8bd311	0.06827367
239	0x3cc5c591	0.024142059
240	0xbd43c740	-0.04779744
241	0x3cbe2bde	0.023214277
242	0x3da9ce49	0.08291299
243	0x3d23c428	0.03998199
244	0x3d881027	0.06643706
245	0x3ca4249a	0.020036984
246	0xbd32a245	-0.043611784
247	0x3d067d67	0.032834437
248	0xbd3fa28d	-0.04678588
249	0xbaf2caab	-0.0018523535
250	0x3d10bf11	0.035338465
251	0xbd60ae42	-0.054853685
252	0x3da12d0c	0.0786992
253	0xbd75b278	-0.059984654
254	0x3d3e802c	0.046508953
255	0xbcd939a1	-0.026516737

features.7.bias f4 [16]
0	0xbc28b189	-0.010296234
1	0xbcf3119a	-0.029671479
2	0x3cc4caaa	0.024022419
3	0xbc1eb183	-0.009685877
4	0xbd921fe2	-0.071349874
5	0x3a8925b3	0.0010463506
6	0xbd7f1fb6	-0.0622861
7	0xbe171f5e	-0.1475806
8	0xbd9d19f8	-0.07670969
9	0xbd358a81	-0.04432154
10	0xbd3aaed7	-0.045576897
11	0xbd89bbbc	-0.067252606
12	0xbd9878fc	-0.07444951
13	0xbdace9cc	-0.08443031
14	0xbd201edc	-0.03909193
15	0xbdd7344c	-0.10508022

features.10.weight f4 [32, 16, 5, 5]
0	0x3d269556	0.04066976
1	0x3c45c738	0.012071423
2	0xbd9c63df	-0.076362364
3	0xbd8e2c8f	-0.069420926
4	0x3cb409e5	0.021977374
5	0x3d320818	0.04346475
6	0x3ab811a1	0.001404334
7	0xbd9c958f	-0.076457135
8	0x3ccb2406	0.02479745
9	0xbca2ede2	-0.019888822
10	0xbd8320ca	-0.064027384
11	0x3d1258b3	0.03572912
12	0xbcca1fcc	-0.024673365
13	0xbc60d963	-0.013723704
14	0xbd86ea1a	-0.0658762
15	0xbd3f0767	-0.04663792
16	0x3cfd325e	0.030907806
17	0xbd4e0533	-0.050297927
18	0xbd97fcc5	-0.07421259
19	0xbb9fa21e	-0.004871621
20	0xbd5f430a	-0.054507293
21	0xbce894a4	-0.02839119
22	0xbd8e7162	-0.0695522
23	0x3d2beb66	0.04197254
24	0xbdb5efd4	-0.08883634
25	0x3b1dcc08	0.002407791
26	0xbdb14197	-0.086550884
27	0x3e22b229	0.15888275
28	0xbd4e8112	-0.05041606
29	0xbd2cd88a	-0.042198695
30	0xbd7704d1	-0.060307328
31	0xbda4e1cf	-0.08050882
32	0x3cd16ee5	0.025565574
33	0xbd5b8fbe	-0.05360388
34	0xbcdb3ce7	-0.026762439
35	0xbcac5277	-0.021035416
36	0xbd3547b4	-0.044257835
37	0x3e320956	0.17386374
38	0x3b78b233	0.0037948012
39	0x3d5d04a6	0.05395951
40	0xbbf72068	-0.007541705
41	0xbda71335	-0.0815796
42	0x3e174e0d	0.14775868
43	0x3afedee3	0.0019445088
44	0x3c64d33c	0.013966378
45	0x3c80d24c	0.015725277
46	0xbe010f3a	-0.12603465
47	0x3d531648	0.05153492
48	0x3ca17515	0.01970915
49	0xbcc714f7	-0.024301989
50	0x3d01d64d	0.031698514
51	0xbb969dc5	-0.0045964443
52	0x3d36f9f2	0.04467196
53	0xbc96939f	-0.018380938
54	0xbda6b01d	-0.0813906
55	0xbb2b8ebc	-0.0026177606
56	0x3dba0af5	0.09084121
57	0xbb708805	-0.0036702168
58	0xbdbf61ca	-0.09344824
59	0xbd87794e	-0.06614934
60	0x3deedf3e	0.11663674
61	0x3e305a12	0.17221859
62	0x3dec1e1e	0.11529182
63	0x3dd1d961	0.1024654
64	0x3da9f794	0.08299175
65	0xbd7a1eb4	-0.061064437
66	0xbcdc9fde	-0.0269317
67	0xbd105f2e	-0.03524702
68	0xbd01de5f	-0.03170621
69	0xbe0d7b1f	-0.13816498
70	0xbd88f588	-0.06687456
71	0xbdd8df16	-0.10589425
72	0xbccd97b7	-0.025096757
73	0xbda9d962	-0.082934156
74	0xbd57dab7	-0.052698817
75	0xbd3bf945	-0.04589202
76	0xbd8734e2	-0.066018835
77	0x3c6fbe2e	0.014632745
78	0xbd2201f0	-0.03955263
79	0x3b0c190e	0.0021377238
80	0x3d41ee96	0.047346674
81	0xbd86815c	-0.06567642
82	0xbb96c062	-0.0046005705
83	0xbd5999f6	-0.053125344
84	0x3c839fd5	0.016067425
85	0x3c7f54a5	0.015584146
86	0x3ccc6ccd	0.024954224
87	0x3d128512	0.035771437
88	0xbd6c513c	-0.05769466
89	0x3c0de33e	0.008660136
90	0xbb1c1567	-0.0023816468
91	0xbd632930	-0.0554592
92	0xbc98d2ac	-0.018655144
93	0x3d5502d7	0.05200466
94	0xbd2b04ac	-0.041752502
95	0x3c885513	0.016642129
96	0x3d00a272	0.03140492
97	0x3d5a8aa7	0.053354885
98	0x3d9d5a6d	0.07683263
99	0x3d810c05	0.06301121
100	0xbaab1622	-0.0013052861
101	0x3d50ffdc	0.051025257
102	0x3dd410f9	0.103548
103	0xbe5584f4	-0.20851499
104	0xbe21e8d5	-0.15811475
105	0xbd61f8a6	-0.05516877
106	0x3cc7f297	0.024407668
107	0x3d2ff610	0.042959273
108	0xbe00365e	-0.1252074
109	0xbe2cfe89	-0.16893972
110	0x3d7b53a7	0.061359074
111	0xbe0d7ae5	-0.13816412
112	0x3d7e2086	0.062042736
113	0xbca08813	-0.019596135
114	0xbd15d070	-0.036575735
115	0xbd44e11b	-0.04806624
116	0xbe1ecda1	-0.15508129
117	0x3c82dd19	0.015974568
118	0x3ccf07ae	0.025272217
119	0xbdad123f	-0.08450746
120	0x3e0ed713	0.13949232
121	0x3d66ad70	0.056317747
122	0x3d3c5574	0.045979932
123	0x3e0930d6	0.13397536
124	0x3e7a038f	0.2441542
125	0xbebc96a9	-0.36833695
126	0x3d9f3b5d	0.077749945
127	0xbe515cd5	-0.20445569
128	0x3caf77a0	0.021419346
129	0xbd946117	-0.07245081
130	0xbebb4eac	-0.3658346
131	0xbd7b0136	-0.06128045
132	0xbdb13280	-0.0865221
133	0x3bf5a8d2	0.0074969316
134	0x3e640071	0.22265793
135	0xbe434554	-0.19069415
136	0xbec8c7f8	-0.39215064
137	0x3dc2df9b	0.095153056
138	0xbde51775	-0.11186115
139	0x3d59595e	0.053063743
140	0xbe2f23e5	-0.17103536
141	0xbe158271	-0.1460054
142	0x3f1b65fa	0.6070248
143	0xbe112569	-0.14174427
144	0xbde4ad57	-0.111658745
145	0xbe401bb8	-0.18760574
146	0xbe938d3f	-0.288187
147	0x3e0999e9	0.13437618
148	0x3dd7b9ba	0.105334714
149	0x3b95244f	0.0045514475
150	0xbd868120	-0.065675974
151	0xbd70acc0	-0.058758497
152	0x3d8e3f7d	0.06945703
153	0xbe06a53c	-0.1314897
154	0xbdb77dd1	-0.089595445
155	0x3d827d37	0.06371539
156	0x3d91857b	0.071055375
157	0x3d3f6be3	0.04673375
158	0xbdb238ac	-0.087022156
159	0xbe1a8ea6	-0.15093479
160	0xbd887f52	-0.066649094
161	0x3d78b8f2	0.060723253
162	0xbc96b538	-0.018396959
163	0xbc98f015	-0.018669168
164	0xbd83a9ab	-0.06428846
165	0xbe01724f	-0.12641262
166	0xbdf8ca48	-0.12147957
167	0xbd885b85	-0.06658081
168	0xbd618793	-0.055060934
169	0xbde4b6d1	-0.11167682
170	0x3e05ccf2	0.13066462
171	0x3db9fbbe	0.09081219
172	0x3ca31dba	0.019911636
173	0xbbcaa3c4	-0.006184073
174	0x3db25512	0.08707632
175	0x3e219445	0.15779217
176	0x3e936c60	0.2879362
177	0xbd7b4631	-0.061346237
178	0x3e29185b	0.16513197
179	0x3cd4f3e8	0.02599521
180	0x3e3920bd	0.18078895
181	0x3ec97af6	0.39351624
182	0x3e28e09e	0.16491935
183	0x3e33cf3b	0.17559521
184	0x3e30a3b5	0.1724995
185	0x3d295ba7	0.041347172
186	0x3e32261c	0.1739735
187	0xbba975c7	-0.005171511
188	0x3dedc8aa	0.11610539
189	0x3bba2c19	0.0056815264
190	0xbd6ef6d5	-0.058340866
191	0x3cf94a9a	0.03043108
192	0xbc9d6e22	-0.019217554
193	0x3d8c1d66	0.06841545
194	0xbd2c77fe	-0.04210662
195	0xbcdf34f4	-0.02724693
196	0xbdbbe386	-0.09174256
197	0xbcc76c67	-0.024343682
198	0x3d9ca86e	0.07649313
199	0xbdf3e82d	-0.119095184
200	0xbe9f55a6	-0.31120032
201	0xbe95003b	-0.29101738
202	0x3eb1daa8	0.34737134
203	0x3e8b92a9	0.2726033
204	0x3b05f278	0.0020438712
205	0xbc46bc52	-0.01212986
206	0xbd4cc612	-0.049993582
207	0x3e87dff8	0.26538062
208	0x3df1987b	0.117966615
209	0x3dec88cd	0.1154953
210	0xbcc1bb7b	-0.023648968
211	0xbd7396df	-0.059470054
212	0xbe09b817	-0.13449131
213	0x3e8142bb	0.25246224
214	0xbe3f444e	-0.186784
215	0xbd255c6b	-0.04037134
216	0xbc1da92e	-0.009622855
217	0xbcf5103b	-0.029914966
218	0xbe1ecaf8	-0.15507114
219	0xbf051b3c	-0.5199468
220	0x3d2f7341	0.042834524
221	0x3d841f84	0.06451324
222	0x3c5e3bf4	0.013564099
223	0xbdc99e7f	-0.09844684
224	0x3d0bcfdd	0.03413378
225	0xbe679594	-0.22615653
226	0xbe3f1df1	-0.18663765
227	0xbceb5cdb	-0.0287308
228	0xbe13ec14	-0.14445525
229	0xbe23789c	-0.15963978
230	0xbe5229fa	-0.20523825
231	0xbd6c1392	-0.05763585
232	0xbd9d2773	-0.0767354
233	0xbde5cbcd	-0.112205125
234	0x3d635d58	0.05550894
235	0xbe2e9ce0	-0.1705203
236	0x3cd0ef93	0.025504863
237	0xbd102d0c	-0.03519921
238	0x3cff9731	0.031200023
239	0xbd38372f	-0.044974502
240	0x3db92cf8	0.0904178
241	0x3e11c42f	0.14234994
242	0xbd0a0904	-0.033700004
243	0xbcc769ee	-0.024342503
244	0x3d8dc47e	0.069222435
245	0x3eaa27b6	0.33233422
246	0x3e8a4695	0.27006975
247	0x3e75ed67	0.24016343
248	0x3e46dfb6	0.19421276
249	0x3e2f347f	0.1710987
250	0xbc925f6a	-0.017867763
251	0xbc396926	-0.011316573
252	0xbc940183	-0.018067127
253	0x3dacc658	0.084362686
254	0x3c91de2e	0.017806139
255	0xbdb3eb83	-0.08785155

features.10.bias f4 [32]
0	0xbdb5448d	-0.08850966
1	0xbcd23ac0	-0.02566278
2	0xbe538f69	-0.20660175
3	0x3babb406	0.0052399663
4	0xbdd8d24b	-0.10586985
5	0xbddde5ed	-0.108348705
6	0xbe4173b7	-0.18891798
7	0xbe566e97	-0.20940624
8	0xbc111fab	-0.008857648
9	0x3d7b66cb	0.061377328
10	0x3d6aaa1d	0.05729114
11	0x3ddf7d1a	0.10912533
12	0xbcf9dcaf	-0.030500738
13	0x3db9fddf	0.09081625
14	0x3d2ed1ee	0.042680673
15	0xbd947ea9	-0.07250721
16	0x3d414080	0.047180653
17	0x3d2eb696	0.042654596
18	0xbe5394df	-0.20662259
19	0xbd9913d7	-0.07474487
20	0xbd531c5c	-0.051540717
21	0x3cc3a17f	0.023880718
22	0x3b069611	0.0020536224
23	0x3d076782	0.033057697
24	0xbe3c4c5e	-0.18388507
25	0x3cd33760	0.02578324
26	0x3ce3df93	0.02781657
27	0x3dedd70a	0.11613281
28	0xbd9ff4ec	-0.07810387
29	0x3dd89e43	0.10577061
30	0xbcaaf1e4	-0.020867296
31	0xbe572bcc	-0.21012801

features.12.weight f4 [32, 32, 5, 5]
0	0xbe8082e0	-0.2509985
1	0xbe455e68	-0.19274294
2	0xbcaa3eae	-0.020781841
3	0xbce21430	-0.027597517
4	0xbd8ae446	-0.06781821
5	0xbdb7c919	-0.08973903
6	0x3ce92ee8	0.02846475
7	0x3dffab55	0.12483851
8	0x3e084eb8	0.13311279
9	0x3e4971c6	0.19672307
10	0xbc9534ba	-0.018213619
11	0xbdb1f6e1	-0.086896665
12	0xbdbdedf1	-0.09273899
13	0xbe02595e	-0.12729403
14	0xbe7cd2a8	-0.24689734
15	0x3bac0d45	0.0052506053
16	0x3c38f8b3	0.011289763
17	0x3cd7f90c	0.026363872
18	0xbd24cb16	-0.04023274
19	0xbdda868a	-0.106701925
20	0xbe17503b	-0.14776699
21	0xbd77329a	-0.06035099
22	0xbe04debf	-0.12975596
23	0x3d394a24	0.04523672
24	0x3d9345b0	0.07191026
25	0x3c6d4487	0.01448167
26	0x3da8a76b	0.082350574
27	0x3d08667b	0.033300858
28	0xbe1a3529	-0.15059341
29	0x3d80b039	0.06283612
30	0xbbaa49db	-0.0051967925
31	0x3d1f0ee6	0.038832568
32	0x3de15db5	0.11004201
33	0xbd8c5e99	-0.068539806
34	0xbcfd215a	-0.030899692
35	0xbdcde5bd	-0.10053585
36	0xbc486c3a	-0.0122328345
37	0x3d1d7f51	0.038451497
38	0xbe04da89	-0.1297399
39	0xbcce6c32	-0.025198076
40	0xbd1901d0	-0.037355244
41	0x3d9ecea8	0.0775426
42	0x3e01dbbb	0.12681477
43	0x3da402dc	0.08008358
44	0xbccfe32e	-0.025376882
45	0xbda5275d	-0.080641486
46	0xbd3e6f25	-0.046492714
47	0xbd80a725	-0.0628188
48	0x3d291357	0.04127821
49	0xba9405a6	-0.0011293187
50	0xbe62ca1f	-0.22147416
51	0xbdf73fba	-0.12072702
52	0x3b4ca881	0.0031228366
53	0xbe1c9e8c	-0.15294856
54	0xbde62268	-0.11237031
55	0xbe263742	-0.16232017
56	0x3dd5ae12	0.10433592
57	0x3d9be994	0.07612911
58	0xbd8ac5d6	-0.067760155
59	0x3dad5b9b	0.08464738
60	0xbdc32788	-0.09529024
61	0x3c9d3900	0.019192219
62	0xbd657c0b	-0.0560265
63	0xbe48e44d	-0.1961834
64	0xbdb7701a	-0.089569286
65	0x3e16e595	0.14736016
66	0x3c532948	0.01288826
67	0xbeaf3129	-0.34217194
68	0xbe553392	-0.20820454
69	0x3dbcbcfc	0.092157334
70	0xbd8ca9c7	-0.0686832
71	0xbe817f99	-0.25292662
72	0xbed5c847	-0.41754362
73	0xbeb13299	-0.34608915
74	0x3d4380e7	0.047730353
75	0xbe03d187	-0.12872897
76	0x3b825070	0.003976874
77	0xbe2407b6	-0.16018566
78	0xbb7e1c94	-0.0038774358
79	0x3c022e87	0.007945663
80	0xbdd01dc4	-0.10161927
81	0xbd598653	-0.053106617
82	0xbd97b50c	-0.07407579
83	0xbcd9a1de	-0.026566442
84	0xbc90d23f	-0.017678378
85	0xbcceb838	-0.025234327
86	0xbccae547	-0.024767531
87	0xbe229bd3	-0.15879755
88	0x3c9e8cd4	0.019354261
89	0xbd8e7203	-0.0695534
90	0xbcd8f24f	-0.02648273
91	0xbcc81aa8	-0.024426773
92	0xbdb3d477	-0.08780759
93	0xbc6ec987	-0.014574415
94	0xbc3942cf	-0.011307432
95	0xbd0f7158	-0.035020202
96	0xbd162c13	-0.036663126
97	0xbdc19d56	-0.094538376
98	0x3df30ec3	0.1186805
99	0x3e2b4f79	0.16729535
100	0xbe205595	-0.15657647
101	0xbdbc11b2	-0.091830626
102	0xbdbf36c8	-0.093366206
103	0x3d902aaf	0.07039391
104	0x3d3a5a70	0.045496404
105	0xbd6e94a7	-0.058247235
106	0xbdd112d2	-0.10208668
107	0xbe59924f	-0.21247219
108	0xbd04674f	-0.032325085
109	0x3da1fd13	0.07909598
110	0xbd660d92	-0.056165285
111	0xbe2a019e	-0.1660218
112	0xbde6dfb7	-0.11273139
113	0xbd922d65	-0.071375646
114	0xbcf876f3	-0.030330157
115	0xbe8a8971	-0.27057984
116	0xbe550e08	-0.20806134
117	0xbe2d6376	-0.16932473
118	0xbe4c19f9	-0.19931783
119	0x3c20fad1	0.009825424
120	0xbdd85d3e	-0.105646595
121	0xbe8e5907	-0.27802297
122	0xbe17530c	-0.14777774
123	0x3d37b1ea	0.044847406
124	0x3d4dfea2	0.050291665
125	0xbbd1c66c	-0.0064018276
126	0x3e893ae9	0.26802757
127	0x3dff137e	0.1245489
128	0x3c2286b8	0.009919815
129	0xbdc9fba5	-0.098624505
130	0x3d97a786	0.074049994
131	0x3ee661a8	0.4499638
132	0xbdde00d1	-0.108399995
133	0x3d8ae9f0	0.06782901
134	0x3d55dc47	0.052212026
135	0x3ea7eb3d	0.3279666
136	0x3e8f2fb5	0.27966085
137	0xbd68706c	-0.05674784
138	0x3b9f9002	0.004869462
139	0x3cddfd0d	0.027098203
140	0x3d8deff2	0.069305316
141	0xbd9d78f1	-0.07689083
142	0xbea6077d	-0.32427588
143	0x3d518042	0.051147707
144	0x3cff94b1	0.031198831
145	0xbd2e1d40	-0.042508364
146	0xbdd313a6	-0.10306482
147	0xbe52cb19	-0.20585288
148	0x3dd253bd	0.10269878
149	0x3db88e50	0.09011519
150	0x3d36556c	0.04451506
151	0x3c4cdbe5	0.012503599
152	0xbdf287cc	-0.118423074
153	0xbc8c168d	-0.017100597
154	0xbd335f58	-0.0437921
155	0x3d60f419	0.05492029
156	0x3dd4d1e7	0.10391598
157	0xbd0b3d69	-0.033994112
158	0xbcada6ff	-0.021197794
159	0x3c03c975	0.008043637
160	0xbdb588ed	-0.08864007
161	0xbe01cf5b	-0.12676756
162	0x3cb1f24e	0.021721985
163	0xbe0caa2d	-0.13736792
164	0xbe0d75c5	-0.13814457
165	0xbc5fda3e	-0.013662873
166	0xbd45dd0a	-0.048306502
167	0xbe414aef	-0.18876241
168	0xbe3d2738	-0.18471992
169	0xbe113d55	-0.14183553
170	0xbe0882dd	-0.1333117
171	0xbe288f3b	-0.16460888
172	0xbe1f8317	-0.1557735
173	0xbdedc1ad	-0.11609206
174	0xbcb6085c	-0.022220783
175	0xbe3b4d90	-0.18291306
176	0x3e722794	0.2364791
177	0x3dced07b	0.10098358
178	0xbd98581e	-0.07438682
179	0xbc5aa113	-0.013344067
180	0x3d77ffa1	0.06054652
181	0x3ecb6b7f	0.3973045
182	0x3c3a53de	0.011372535
183	0x3c591754	0.013250191
184	0x3ada3111	0.0016646703
185	0x3e05c03f	0.13061617
186	0x3ea9dcdb	0.33176312
187	0x3be7a62c	0.00706937
188	0x3d7e487f	0.062080856
189	0xbd6826db	-0.05667768
190	0x3d1cb227	0.038255837
191	0x3e5709e0	0.20999861
192	0x3e4333be	0.19062707
193	0xbd038b1e	-0.032115094
194	0xbde0154c	-0.10941562
195	0xbc5234da	-0.012829984
196	0xbc6cb566	-0.014447546
197	0x3cce000d	0.025146509
198	0x3d66906d	0.05629008
199	0xbe06238b	-0.13099496
200	0xbd4b281d	-0.049598802
201	0xbd1ce83a	-0.038307406
202	0xbc4f273e	-0.012643633
203	0x3dd954f8	0.1061191
204	0xbd92868e	-0.071545705
205	0xbd5f462a	-0.054510273
206	0xbc49d3b0	-0.012318537
207	0xbd3d73af	-0.046252903
208	0x3d7f237c	0.0622897
209	0xbdf494ff	-0.11942481
210	0xbda6f7b9	-0.08152718
211	0xbd296ea1	-0.04136527
212	0x3be0ce14	0.006860504
213	0x3d891bfe	0.06694792
214	0xbd446d67	-0.047955897
215	0xbd2124ef	-0.039341863
216	0xbcb70ee9	-0.022345977
217	0xbc83fb43	-0.016111022
218	0x3d9dd187	0.0770598
219	0x3d4b9eec	0.049712107
220	0x3d94febe	0.07275151
221	0xbbbef8e0	-0.005828008
222	0xbc31fae9	-0.010863044
223	0x3e05b9f6	0.1305922
224	0x3cb026ae	0.021502819
225	0x3cb5dd96	0.022200387
226	0x3cb3a51e	0.02192932
227	0x3d03d704	0.032187477
228	0x3d4305f1	0.047613088
229	0xbe0a1e8d	-0.13488217
230	0xbdd6678f	-0.10468971
231	0xbe3e2b43	-0.1857119
232	0xbde7e2fe	-0.11322592
233	0xbdc4643d	-0.095894314
234	0xbe29e0df	-0.16589688
235	0x3d2c4435	0.042057235
236	0x3cee8837	0.029117687
237	0xbdd1eef2	-0.10250653
238	0xbc71373f	-0.014722644
239	0xbcca8d33	-0.024725532
240	0x3e364edd	0.17803521
241	0x3c0a20bf	0.008430659
242	0xbe1ad468	-0.15120089
243	0xbda8ef9a	-0.08248825
244	0xbdb7da3c	-0.08977172
245	0x3dcdcb4c	0.100485414
246	0x3d9d0dd0	0.0766865
247	0x3d99a1f6	0.07501595
248	0xbd9c973d	-0.07646034
249	0xbe9baf9b	-0.30407414
250	0x3c9d1948	0.019177094
251	0x3d9cfd34	0.07665482
252	0xbeb9e4eb	-0.36307463
253	0xbedeac38	-0.43490767
254	0xbe64c17f	-0.22339438
255	0x3bead0b4	0.0071659926

features.12.bias f4 [32]
0	0xbd072cc2	-0.03300167
1	0x3d842ed5	0.06454245
2	0x3df02d60	0.117274046
3	0xbdcdb3c5	-0.10044054
4	0x3d8e1095	0.069367565
5	0xbd8f41ba	-0.06994958
6	0x3d5e5f5f	0.05429017
7	0x3e0e8521	0.13917972
8	0xbdb18e2b	-0.086696945
9	0xbb7a8973	-0.0038228899
10	0xbd9b4133	-0.07580795
11	0x3d8e7480	0.06955814
12	0x3d985096	0.074372455
13	0xbd8bc5c1	-0.06824828
14	0xbd7aa621	-0.06119359
15	0xbd409660	-0.04701841
16	0xbd84e8a7	-0.064896874
17	0x3d58c465	0.05292167
18	0xbc2ed29e	-0.010670332
19	0x3db9e1e0	0.09076285
20	0xbe3e64e3	-0.18593173
21	0xbe020681	-0.12697794
22	0xbc952404	-0.01820565
23	0x3dde3bc4	0.10851243
24	0x3d9c77fd	0.076400734
25	0xbcd81b8f	-0.026380328
26	0x3ba1898a	0.004929726
27	0x3d3e66d1	0.046484772
28	0x3e03332b	0.12812488
29	0xbd383433	-0.044971656
30	0x3e477985	0.1947995
31	0x3c9ac6e8	0.018893674
