output/models/220413_2106_ggcnn_val0.2/epoch_03_iou_0.20_statedict.pt (torch, 255529 bytes, 16 tensors)

conv1.weight f4 [32, 1, 9, 9]
-0.042775914 -0.010000329 0.0073081832 -0.06363548 -0.036023077 -0.037547957 -0.051131696 -0.040154517
-0.033497825 -0.014519037 0.024927665 -0.010132156 -0.019063784 -0.014685442 -0.004806815 0.016791873
-0.044553265 -0.03304536 -0.043776087 -0.028026052 0.031017367 -0.018302895 -0.029143233 0.019003285
0.009345777 0.043547597 -0.03174569 -0.030508114 -0.06095962 -0.06916815 0.012116653 -0.016903678
-0.048986655 -0.0051333923 -0.050582994 -0.037558075 0.0041591516 -0.034288142 -0.05514244 -0.011692076
-0.03359417 -0.0455538 0.015201449 -0.04409645 -0.031074641 -0.046048686 -0.044971634 -0.032451753
-0.056864575 -0.06130624 -0.0009091872 -0.03433062 -0.0592016 0.0031480752 -0.025007553 -0.04009394
-0.06778966 0.013143742 -0.053522084 -0.016550543 -0.04077187 0.0041327137 -0.018343534 -0.08608039
-0.026102625 -0.059363604 -0.058847927 -0.0789766 -0.08223104 -0.07014774 -0.010185796 -0.008353335
-0.0971437 -0.061359774 -0.0071872645 -0.084773295 -0.09721949 -0.028526932 -0.081615604 -0.08034623
-0.0041389572 0.154849 0.18055539 0.18145055 0.12445369 0.15540454 0.077645905 0.108594365
0.031764798 0.027400274 0.1646064 0.18281962 0.1181124 0.14876588 0.09892788 0.06385751
0.029890846 0.07784718 0.03257661 0.16796912 0.10300246 0.090330906 0.112884335 0.09661182
0.07637325 -0.0058988594 0.010390277 0.02610464 0.09101907 0.026295489 0.031248992 -0.027209833
0.018090269 0.005168584 -0.04087284 -0.009779192 -0.04927246 0.09044131 0.018114118 0.0013614758
-0.022208948 -0.027824849 -0.05845139 -0.07959155 -0.07975431 -0.051998205 0.062432796 -0.0032083502
0.043469943 -0.047288798 -0.0024756165 -0.030324155 -0.05800328 -0.11861235 -0.13991348 -0.006754012
-0.032883376 -0.063096136 -0.059567597 -0.119171076 -0.1255365 -0.094163336 -0.132766 -0.19803311
-0.07505232 -0.039649967 -0.119700186 -0.06835908 -0.14046188 -0.1696311 -0.14771038 -0.20681036
-0.18180785 -0.047235686 -0.1328222 -0.084836416 -0.18471698 -0.19302326 -0.1599674 -0.18105637
-0.24102318 -0.22921884 0.040320426 0.0041099936 0.014550209 -0.028780565 0.044311807 -0.005355116
0.041371815 0.020178817 -0.0452525 -0.04173309 0.011505067 -0.014552474 0.044866122 -0.026618835
0.018009476 -0.0044976138 0.021773063 0.010120176 0.013111584 0.040696904 0.044626214 -0.009754572
0.030445099 -0.031510167 -0.042333145 0.03743512 0.0053153597 -0.022826625 -0.010090057 -0.0153878
-0.04374073 0.03175927 -0.005860336 0.021596573 0.007924583 0.038348436 0.04146041 -0.037518416
-0.022352362 0.028149962 0.03138061 0.018658802 0.03137798 0.014278438 -0.0134017505 -0.04241032
-0.030853165 0.010809973 -0.040425327 0.019920327 -0.03872087 -0.017622197 -0.00019117445 -0.0244695
0.045403197 0.024389781 0.03857863 -0.032583855 -0.01374406 -0.043230187 -0.016531425 -0.012569141
0.014088102 -0.03256729 -0.04517304 -0.043064076 -0.0355613 0.039370447 0.0040894337 -0.0070475824
0.011096992 -0.02544008 0.040670536 0.03466826 -0.02521657 -0.041312132 0.045560323 0.0050848424
0.0124418065 0.045733064 0.0024394095 0.17119369 0.13070616 0.13668787 0.10791271 0.07958932
0.059507497 0.095634885 0.09887747 0.08271085 0.080665335 0.069057144 0.10557062 0.018772712
00000000: cc35 2fbd 6cd8 23bc 7c79 ef3b 5253 82bd
00000010: ef8c 13bd e3cb 19bd 786f 51bd 1079 24bd
00000020: 0435 09bd 41e1 6dbc 1a35 cc3c 5801 26bc
00000030: a72b 9cbc 359b 70bc 7d82 9dbb 1c8f 893c
00000040: 7c7d 36bd 925a 07bd 8e4e 33bd e496 e5bc
00000050: 2218 fe3c f4ef 95bc cabd eebc c7ac 9b3c
00000060: 081f 193c f75e 323d c507 02bd 27ec f9bc
00000070: cbb0 79bd 08a8 8dbd ed84 463c 9579 8abc
00000080: 3ba6 48bd 0436 a8bb 1d30 4fbd 7fd6 19bd
00000090: 7e49 883b b971 0cbd 0add 61bd 1f90 3fbc
000000a0: 0a9a 09bd 9f96 3abd 800f 793c 7b9e 34bd
000000b0: 3f90 febc 8c9d 3cbd 2d34 38bd 21ec 04bd
000000c0: d4ea 68bd 401c 7bbd 8556 6eba 449e 0cbd
000000d0: 607d 72bd f04f 4e3b a4dc ccbc 8b39 24bd
000000e0: 4ed5 8abd da58 573c f939 5bbd 0195 87bc
000000f0: 6800 27bd b76b 873b 2e45 96bc ea4a b0bd
00000100: 2cd5 d5bc 4027 73bd 860a 71bd 7cbe a1bd
00000110: bf68 a8bd 9ea9 8fbd 53e2 26bc 6ddc 08bc
00000120: 47f3 c6bd 6354 7bbd 2583 ebbb 9f9d adbd
00000130: 031b c7bd 50b1 e9bc 1526 a7bd 908c a4bd
00000140: 17a0 87bb bc90 1e3e 83e3 383e 2cce 393e
00000150: 94e1 fe3d 5e22 1f3e d104 9f3d b966 de3d
00000160: ce1b 023d 8a76 e03c 958e 283e 1135 3b3e
00000170: eae4 f13d 1556 183e b39a ca3d bac7 823d
00000180: a6dd f43c 586e 9f3d 0d6f 053d 1900 2c3e
00000190: f4f2 d23d 69ff b83d e72f e73d 6bdc c53d
000001a0: 9469 9c3d 384b c1bb fb3b 2a3c 66d9 d53c
000001b0: 3568 ba3d a369 d73c e3fd ff3c 28e7 debc
000001c0: 0b32 943c 3a5d a93b 476a 27bd e738 20bc
000001d0: ebd1 49bd 4b39 b93d 0f64 943c 8c73 b23a
000001e0: 8aef b5bc f0f0 e3bc ba6a 6fbd e500 a3bd
000001f0: 3a56 a3bd 12fc 54bd 88b9 7f3d 2f43 52bb
00000200: 8a0d 323d e6b1 41bd f43d 22bb 5d6a f8bc
00000210: d994 6dbd 08eb f2bd 7b45 0fbe c250 ddbb
00000220: b8b0 06bd 8c38 81bd 27fd 73bd f70f f4bd
00000230: a48c 00be b5d8 c0bd cff3 07be 31c9 4abe
00000240: 08b5 99bd 0168 22bd 5f25 f5bd d8ff 8bbd
00000250: 3dd5 0fbe c6b3 2dbe 6441 17be 18c6 53be
00000260: d62b 3abe 357a 41bd 8b02 08be b7be adbd
00000270: 7326 3dbe e4a7 45be 7ece 23be d766 39be
00000280: c8ce 76be 58b8 6abe 0827 253d 20ad 863b
00000290: 0064 6e3c 38c5 ebbc 4c80 353d f879 afbb
000002a0: 7e75 293d 0c4e a53c af5a 39bd 51f0 2abd
000002b0: c07f 3c3c 806d 6ebc 8ac5 373d be0f dabc
000002c0: 9c88 933c b860 93bb 6c5d b23c 18cf 253c
000002d0: f8d1 563c ccb1 263d fac9 363d a4d1 1fbc
000002e0: 0068 f93c ce10 01bd 8565 2dbd 9255 193d
000002f0: 782c ae3b e7fe babc c450 25bc 1c1d 7cbc
00000300: 7b29 33bd 0216 023d 1008 c0bb 4ceb b03c
00000310: 1cd6 013c 4013 1d3d 64d2 293d e9ac 19bd
00000320: 4d1c b7bc c09a e63c f488 003d 58da 983c
00000330: 3286 003d 1cf0 693c 0493 5bbc 72b6 2dbd
00000340: c7bf fcbc 501c 313c 0795 25bd f42f a33c
00000350: c699 1ebd 6d5c 90bc 0076 48b9 4374 c8bc
00000360: b4f8 393d 14cd c73c a004 1e3d a676 05bd
00000370: c42e 61bc 2312 31bd e96c 87bc ccee 4dbc
00000380: c8d1 663c 4765 05bd 5e07 39bd f563 30bd
00000390: baa8 11bd e842 213d a800 863b 68ef e6bb
000003a0: 28d0 353c b767 d0bc 2696 263d 4e00 0e3d
000003b0: fb92 cebc e936 29bd 769d 3a3d c09e a63b
000003c0: b8d8 4b3c 9852 3b3d 80de 1f3b 664d 2f3e
000003d0: d6d7 053e e8f7 0b3e 5701 dd3d baff a23d
000003e0: 22be 733d 39dc c33d 4580 ca3d 4e64 a93d
000003f0: de33 a53d d56d 8d3d 6935 d83d 3bc9 993c

conv1.bias f4 [32]
-0.13496318 0.06717955 -0.10210783 0.12014245 0.04392936 0.06259443 0.07385813 -0.12299216
0.004769205 -0.00030768334 0.04264086 0.09640922 0.085499965 0.05988927 0.043773282 -0.060815368
0.057686053 0.10398209 0.04402932 0.11813253 0.038759407 0.054604094 -0.049215667 0.070538804
0.1763995 -0.07130879 0.058468472 -0.08918305 0.086190455 0.15002371 -0.094759345 0.114627495
00000000: ca33 0abe 6f95 893d e91d d1bd 3f0d f63d
00000010: 46ef 333d 8231 803d ee42 973d 50e3 fbbd
00000020: fe46 9c3b 8f50 a1b9 2fa8 2e3d 3272 c53d
00000030: 9b1a af3d 744e 753d 9d4b 333d 8919 79bd
00000040: 3648 6c3d 90f4 d43d 1758 343d 78ef f13d
00000050: 2fc2 1e3d 8ba8 5f3d 5e96 49bd a676 903d
00000060: 12a2 343e 580a 92bd a37c 6f3d 9aa5 b6bd
00000070: 9f84 b03d d19f 193e 3011 c2bd d2c1 ea3d

conv2.weight f4 [16, 32, 5, 5]
-0.04731566 -0.062448684 -0.052803002 0.022981256 -0.016813241 -0.13421115 -0.032003444 -0.060605846
-0.008617454 -0.012018716 -0.121416286 -0.038151406 -0.014434699 0.0014098302 -0.030336538 -0.05871143
0.005103659 0.03385441 0.038326524 -0.055564087 -0.06501824 -0.07713746 -0.021836229 0.07511832
0.05113983 -0.10414638 -0.028941115 -0.022301579 0.011087725 0.09388203 -0.00037545254 0.03935559
0.1529646 0.06728293 0.17471808 -0.09866363 -0.00910433 0.034437004 -0.0008808025 0.05186256
-0.060304597 0.021263134 0.06388762 0.0356515 0.0072814096 0.042194854 0.09740218 0.075927906
0.020865358 0.012265201 0.019147389 0.0004054308 0.016054347 0.054694317 -0.032010254 -0.051003575
-0.0062720254 -0.050103314 -0.06342757 -0.053570196 0.060451187 0.0136074275 0.03089165 -0.06150957
-0.060569122 -0.06853186 -0.030534036 0.0148419365 0.035389893 0.030355945 -0.020073947 -0.014141809
0.043830328 0.06209264 -0.045628726 0.066915505 0.05366032 0.11271352 -0.00047950432 0.038333353
0.039048873 0.022166524 -0.0023085515 -0.034182586 -0.03603125 0.039531566 0.010147344 -0.015771745
-0.061216954 0.017617602 -0.06841818 0.027068865 -0.046463784 0.011029172 -0.029721355 -0.03214422
0.078511685 0.046313666 -0.10551904 -0.08663216 0.04737965 0.05767607 0.007007363 0.03188091
-0.041599594 -0.023694105 -0.019504407 0.052015085 -0.01746061 0.0671772 -0.06573248 0.019517733
-0.019632401 -0.040440366 -0.01752515 0.0028495116 0.018572953 0.054666426 0.028106753 0.026993556
0.037886 -0.0062267925 -0.024515236 0.07076619 -0.007930737 0.052430946 0.00048269716 0.0019611935
0.011115204 0.01725408 -0.016757702 0.09792997 0.009152315 0.03442345 -0.045341875 0.02076161
0.026277982 0.04341628 -0.027958669 0.058007278 0.09390414 0.04069055 0.011577944 -0.062028017
0.05335976 0.04493278 0.03149883 -0.0058288625 0.016556906 -0.07493573 -0.03336854 0.016591312
0.05851203 0.032360118 -0.0010936816 -0.048957374 0.05479847 -0.04341424 -0.07108849 0.028331794
-0.005247099 0.06897084 -0.055980403 -0.020681659 -0.03302413 0.021842476 0.05318302 -0.015267686
-0.056414552 0.02179578 -0.027467381 -0.030575598 0.02466767 0.03823317 0.04022828 -0.071061224
0.0017368231 -0.022154605 -0.031282004 0.0023820517 -0.12640668 -0.09931096 -0.0059634657 0.060530026
-0.027203836 -0.07313672 -0.067545034 0.057772346 0.093663424 0.009821532 -0.061827753 -0.10299831
-0.032885026 0.020717619 -0.0017435852 -0.095707916 0.02853288 0.010247992 0.11812175 0.1540028
-0.081837825 -0.003962706 0.055664074 0.0037651812 -0.0151872635 0.03401179 -0.057188965 -0.01572064
-0.059394397 -0.065025575 -0.08107641 0.0007257048 0.008608815 0.058256038 -0.0006590782 0.038991038
0.048544455 0.064237654 0.06422765 0.05770873 -0.07081297 -0.0012552305 0.011627265 0.0203208
0.06889441 -0.11396018 0.01926012 -0.037681222 -0.06305565 -0.035691556 0.028411143 0.023557141
0.07316722 0.02712718 0.07722197 -0.10013583 -0.07661299 0.006325944 -0.010194897 0.011025293
-0.026631199 0.03826141 0.040828306 0.0021145376 0.06728225 0.026837382 0.03536142 0.080596596
-0.0034554035 0.12061381 -0.033887908 0.010409982 -0.029854203 -0.055938903 -0.03182046 -0.015079901
00000000: 11ce 41bd 31ca 7fbd f647 58bd 3043 bc3c
00000010: ecbb 89bc a66e 09be 0b16 03bd d63d 78bd
00000020: 3930 0dbc 26ea 44bc 1aa9 f8bd a644 1cbd
00000030: 847f 6cbc 0dca b83a 5584 f8bc 657b 70bd
00000040: 983c a73b ecaa 0a3d 46fc 1c3d 2b97 63bd
00000050: 4828 85bd 3ffa 9dbd e4e1 b2bc a2d7 993d
00000060: 0078 513d b34a d5bd eb15 edbc cdb1 b6bc
00000070: 4aa9 353c 3945 c03d 63d8 c4b9 5433 213d
00000080: c1a2 1c3e a2cb 893d 4ce9 323e 2810 cabd
00000090: 542a 15bc d10d 0d3d a8e5 66ba d66d 543d
000000a0: f401 77bd 0630 ae3c 83d7 823d 4f07 123d
000000b0: e498 ee3b 83d4 2c3d cb7a c73d 1780 9b3d
000000c0: d4ed aa3c fbf3 483c fcda 9c3c 0090 d439
000000d0: 6884 833c 2607 603d 2f1d 03bd 20e9 50bd
000000e0: 9085 cdbb 2239 4dbd 50e6 81bd 6c6c 5bbd
000000f0: aa9b 773d b0f1 5e3c 7c10 fd3c 75f1 7bbd
00000100: 5417 78bd 6f5a 8cbd 8422 fabc 982b 733c
00000110: fef4 103d 08ad f83c 1e72 a4bc 0cb3 67bc
00000120: 6e87 333d da54 7e3d 30e5 3abd ff0a 893d
00000130: ecca 5b3d 59d6 e63d fb65 fbb9 6f03 1d3d
00000140: b6f1 1f3d 9296 b53c 114b 17bb 0a03 0cbd
00000150: 8195 13bd daeb 213d 0c41 263c bf33 81bc
00000160: a1be 7abd ca52 903c d51e 8cbd 86bf dd3c
00000170: cf50 3ebd b3b3 343c 337a f3bc a8a9 03bd
00000180: bcca a03d 66b3 3d3d 5e1a d8bd 346c b1bd
00000190: 2a11 423d be3d 6c3d 059e e53b 8f95 023d
000001a0: 5664 2abd 241a c2bc b5c7 9fbc c50d 553d
000001b0: 8e09 8fbc 3394 893d c09e 86bd a7e3 9f3c
000001c0: 21d4 a0bc cca4 25bd e790 8fbc dfbe 3a3b
000001d0: 4e26 983c e7e9 5f3d 2240 e63c 9721 dd3c
000001e0: 5a2e 1b3d 1f0a ccbb 2dd4 c8bc dded 903d
000001f0: ecef 01bc d5c1 563d 8412 fd39 5e87 003b
00000200: 8b1c 363c 6e58 8d3c 7347 89bc 828f c83d
00000210: 97f3 153c 9aff 0c3d 67b8 39bd 4014 aa3c
00000220: ec44 d73c 45d5 313d 9409 e5bc 0a99 6d3d
00000230: d050 c03d 22ab 263d 6bb1 3d3c 1711 7ebd
00000240: c48f 5a3d 6f0b 383d eb04 013d 0b00 bfbb
00000250: 59a2 873c e777 99bd 73ad 08bd 81ea 873c
00000260: 4faa 6f3d 0b8c 043d dd59 8fba 8787 48bd
00000270: 5c74 603d 21d3 31bd d896 91bd 1418 e83c
00000280: dbef abbb 9540 8d3d b54b 65bd 956c a9bc
00000290: 4f44 07bd feee b23c 70d6 593d 5125 7abc
000002a0: f212 67bd 108d b23c 4603 e1bc ad79 fabc
000002b0: da13 ca3c 629a 1c3d 69c6 243d 8c88 91bd
000002c0: 1da6 e33a 937d b5bc 8f21 00bd 321c 1c3b
000002d0: c170 01be 8b63 cbbd 2d69 c3bb 55ee 773d
000002e0: 94da debc b4c8 95bd 0d55 8abd b2a2 6c3d
000002f0: 9cd2 bf3d 7eea 203c 193f 7dbd c7f0 d2bd
00000300: 73b2 06bd ffb7 a93c 0389 e4ba 8302 c4bd
00000310: c9bd e93c 32e7 273c d1e9 f13d e9b2 1d3e
00000320: 979a a7bd 96d9 81bb 0300 643d 42c1 763b
00000330: 00d4 78bc f24f 0b3d fa3e 6abd 92c8 80bc
00000340: 8a47 73bd 212c 85bd 640b a6bd 3a3d 3e3a
00000350: fd0b 0d3c e29d 6e3d fdc5 2cba 11b5 1f3d
00000360: 8dd6 463d 088f 833d c989 833d fd5f 6c3d
00000370: 6406 91bd 8c86 a4ba 4980 3e3c ce77 a63c
00000380: 8318 8d3d f463 e9bd 66c7 9d3c a057 1abd
00000390: 5223 81bd 4f31 12bd 7cbe e83c e8fa c03c
000003a0: b2d8 953d d239 de3c 8d26 9e3d 0414 cdbd
000003b0: 45e7 9cbd dd49 cf3b 7f08 27bc 6ea3 343c
000003c0: ac29 dabc ffb7 1c3d 953b 273d 0e94 0a3b
000003d0: 47cb 893d 12da db3c 23d7 103d d40f a53d
000003e0: 0d74 62bb 6004 f73d 0cce 0abd a18e 2a3c
000003f0: cd90 f4bc 3120 65bd 2c56 02bd b011 77bc

conv2.bias f4 [16]
0.047105193 -0.08265248 0.012059831 0.01999351 0.010268801 0.003236439 0.064957164 0.008185704
-0.048128687 -0.032082625 0.0005163417 -0.0064690495 0.06836562 -0.0081956 -0.03487845 0.0012056706
00000000: 60f1 403d b445 a9bd 9996 453c 6ec9 a33c
00000010: 793e 283c 701a 543b 4308 853d 551d 063c
00000020: 9622 45bd 1269 03bd 1b5b 073a 52fa d3bb
00000030: 4603 8c3d d646 06bc b5dc 0ebd 9807 9e3a

conv3.weight f4 [8, 16, 3, 3]
-0.0138199 -0.15734178 0.046201993 -0.17019074 -0.020947253 -0.083222866 0.04170016 -0.1834492
-0.05756359 -0.086407 -0.29209277 -0.14428805 0.08402113 -0.24613023 -0.06354691 -0.09900573
0.16957356 0.108166166 -0.0067479205 0.0070900037 0.0767181 -0.014964318 0.026363991 0.122175224
-0.031717606 0.013887626 -0.030311696 0.07546086 -0.25015777 -0.104564115 0.03270178 0.0021486126
0.22487246 0.036034156 0.12201742 -0.043064173 0.049864817 -0.17991285 -0.24868882 0.119505495
-0.15501392 0.10590347 0.11643032 -0.018506806 0.056188244 -0.08093546 -0.14539672 -0.11342298
-0.08662766 -0.14887096 0.1207238 -0.1540142 0.005718004 0.015656246 0.22916497 0.12369976
0.06885579 -0.18083353 -0.042653207 0.098519586 -0.3001002 -0.06252355 0.0440906 0.16008152
0.084814504 0.021266693 -0.14897072 -0.0015046746 0.07003341 -0.1464216 -0.109012865 0.12903802
-0.11548688 -0.14096734 -0.13447438 -0.13834266 0.04505159 -0.012861383 0.099504545 0.08792117
0.03879076 0.1642566 -0.017248817 -0.13967687 0.13254686 -0.13073888 0.15727144 0.14944847
-0.13751665 -0.114627786 -0.02058199 0.049524616 0.02872025 -0.06813628 0.10479445 0.0173635
0.06353812 -0.15585661 -0.12093668 0.055482432 0.040273607 -0.054760136 0.1302195 -0.14847295
0.1635399 0.06347197 0.15207915 -0.13372664 -0.07117309 0.10793728 -0.03948544 0.01749752
-0.12905492 -0.15480381 0.03272907 0.021951232 0.056655392 -0.11131275 -0.098755926 0.12276222
-0.10981029 -0.16411087 0.081792235 -0.058079526 0.013079009 0.07177524 0.062400892 0.050140206
-0.16846414 -0.11443414 0.12315202 0.06477423 -0.08476692 -0.100408636 0.16864827 -0.10147567
0.059881385 0.31299958 -0.05552122 0.10442522 0.17442212 -0.08761326 0.016158454 0.1272062
0.008416347 0.12263951 0.16738978 0.118704334 0.15811348 -0.07881327 -0.041101176 -0.08380607
0.11472995 0.09926314 -0.0895722 -0.07706108 -0.13110782 -0.07901193 -0.009153801 0.20053461
0.035327766 0.098470375 0.0058892816 0.081417136 -0.13677564 -0.14591444 -0.053376593 -0.090008885
-0.04800477 0.029913884 0.17062992 0.11607949 -0.003913505 0.031770837 -0.090826154 -0.15272065
-0.09856786 -0.001189612 0.10647194 0.20718998 -0.052739732 0.05207371 0.16204202 -0.102528706
0.08821723 0.09105858 -0.016337989 0.15446422 -0.10167553 0.1059374 -0.10932943 -0.05393869
-0.096303806 -0.14283833 0.046738114 -0.09344028 0.16683193 0.022563552 -0.017025506 -0.06004657
-0.13550316 -0.05218141 -0.008157477 0.14097586 -0.052726176 -0.17557473 -0.18760386 0.16139962
0.04807088 -0.07840841 0.16156502 -0.10358505 0.0018465171 0.08989957 -0.08451619 -0.07255808
0.036860306 0.096979044 -0.08310214 0.04892893 -0.1401571 -0.12898481 0.099138245 -0.09894426
0.018056694 0.13169427 -0.13686645 -0.13685898 0.15898342 -0.044009954 0.15591362 -0.12600876
0.13459499 -0.07000031 0.1155529 0.04562742 0.113172375 -0.17832293 0.021713972 0.07533528
0.021407725 -0.12154783 -0.012456724 -0.1366711 0.0022917676 0.13257092 0.029818244 -0.06452702
0.11114314 0.12821901 0.09894841 0.035202313 0.091159716 0.19668858 0.1854205 -0.0042999247
00000000: dd6c 62bc 341e 21be 4d3e 3d3d 7b46 2ebe
00000010: 9399 abbc c070 aabd c9cd 2a3d 1bda 3bbe
00000020: cdc7 6bbd 27f6 b0bd 2f8d 95be 3fc0 13be
00000030: 4513 ac3d 9009 7cbe e224 82bd 84c3 cabd
00000040: b1a4 2d3e 3986 dd3d a91d ddbb 4353 e83b
00000050: 611e 9d3d e62c 75bc 4cf9 d73c 0137 fa3d
00000060: 52ea 01bd ed88 633c 3c50 f8bc 398b 9a3d
00000070: ae14 80be b625 d6bd 4df2 053d bdcf 0c3b
00000080: f744 663e 8d98 133d 45e4 f93d 0f64 30bd
00000090: 0d3f 4c3d 133b 38be 48a8 7ebe 4cbf f43d
000000a0: f8bb 1ebe ebe3 d83d 0573 ee3d 969b 97bc
000000b0: a525 663d 7ec1 a5bd e1e2 14be 4f4a e8bd
000000c0: d869 b1bd a171 18be 0a3e f73d e6b5 1dbe
000000d0: 185e bb3b 8741 803c 39aa 6a3e 4d56 fd3d
000000e0: 4404 8d3d 6d2c 39be 21b5 2ebd a3c4 c93d
000000f0: bca6 99be 590c 80bd 5898 343d 69ec 233e
00000100: 3ab3 ad3d 7d37 ae3c c88b 18be 8038 c5ba
00000110: ad6d 8f3d 8bef 15be 2342 dfbd 8b22 043e
00000120: 6384 ecbd be59 10be a7b3 09be b3a9 0dbe
00000130: 0488 383d 8db8 52bc 0ac9 cb3d 0410 b43d
00000140: 0fe3 1e3d e232 283e 644d 8dbc 7407 0fbe
00000150: 5dba 073e 6ae0 05be c40b 213e 0509 193e
00000160: 2ad1 0cbe f9c1 eabd 909b a8bc 53da 4a3d
00000170: bb46 eb3c 098b 8bbd 799e d63d e63d 8e3c
00000180: 4620 823d e098 1fbe a6ad f7bd 8c41 633d
00000190: f0f5 243d 2a4c 60bd 4358 053e 4b09 18be
000001a0: 0177 273e 98fd 813d a3ba 1b3e a3ef 08be
000001b0: 32c3 91bd 380e dd3d 7cbb 21bd f656 8f3c
000001c0: f926 04be e484 1ebe eb0e 063d 12d3 b33c
000001d0: 7c0f 683d f0f7 e3bd 8c40 cabd c26a fb3d
000001e0: 38e4 e0bd ae0c 28be b082 a73d cce4 6dbd
000001f0: 5749 563c e6fe 923d 1498 7f3d d15f 4d3d
00000200: dd81 2cbe 725c eabd 2037 fc3d 5aa8 843d
00000210: 479a adbd 0ba3 cdbd 22b2 2c3e 7ad2 cfbd
00000220: 2f46 753d 7b41 a03e 386a 63bd e4dc d53d
00000230: b69b 323e 956e b3bd bc5e 843c 5842 023e
00000240: b8e4 093c 6c2a fb3d 3a68 2b3e 421b f33d
00000250: 80e8 213e da68 a1bd b559 28bd 84a2 abbd
00000260: 89f7 ea3d 794a cb3d a171 b7bd 33d2 9dbd
00000270: 2141 06be 02d1 a1bd d3f9 15bc f258 4d3e
00000280: d9b3 103d d6aa c93d e0fa c03b 07be a63d
00000290: ea0e 0cbe 986a 15be 6aa1 5abd 9456 b8bd
000002a0: a6a0 44bd f60d f53c 9cb9 2e3e 15bb ed3d
000002b0: dc3c 80bb 2322 023d 1003 babd cd62 1cbe
000002c0: f2dd c9bd c1ec 9bba f60d da3d 9c29 543e
000002d0: 9e05 58bd 3e4b 553d 58ee 253e 92fa d1bd
000002e0: 3cab b43d ec7c ba3d 3fd7 85bc de2b 1e3e
000002f0: 433b d0bd b5f5 d83d 1ce8 dfbd d1ee 5cbd
00000300: ee3a c5bd 3644 12be 7770 3f3d 9e5d bfbd
00000310: fdd5 2a3e 33d7 b83c 1379 8bbc 64f3 75bd
00000320: 57c1 0abe 2dbc 55bd f0a6 05bc fa5b 103e
00000330: 67f7 57bd ddc9 33be 3a1b 40be f145 253e
00000340: f9e5 443d 9794 a0bd 4d71 253e 6624 d4bd
00000350: d506 f23a 441d b83d d316 adbd 5599 94bd
00000360: d5fa 163d f39c c63d 7431 aabd b469 483d
00000370: 5885 0fbe 9814 04be fe08 cb3d 4aa3 cabd
00000380: a2eb 933c ddda 063e b826 0cbe c324 0cbe
00000390: 8dcc 223e c843 34bd d2a7 1f3e 7108 01be
000003a0: 45d3 093e 535c 8fbd 00a7 ec3d d1e3 3a3d
000003b0: ebc6 e73d 499a 36be 80e1 b13c 6249 9a3d
000003c0: 415f af3c 12ee f8bd 4a17 4cbc 82f3 0bbe
000003d0: 7b31 163b acc0 073e 6445 f43c be26 84bd
000003e0: 049f e33d d84b 033e 77a5 ca3d 4d30 103d
000003f0: f2b1 ba3d bb68 493e dfde 3d3e 62e6 8cbb

conv3.bias f4 [8]
-0.06714627 0.060844053 -0.061348382 0.02158862 -0.008919929 0.024406793 0.061641492 0.054939862
00000000: fc83 89bd 9d37 793d 7148 7bbd 9eda b03c
00000010: e524 12bc c1f0 c73c ca7b 7c3d 9f08 613d

convt1.weight f4 [8, 8, 3, 3]
0.20888227 -0.5393679 -0.03332631 0.0991121 0.28295282 0.0030667863 -0.10785799 -0.24738477
0.18734112 0.15364167 0.008915127 0.08331353 -0.15961577 -0.027909512 -0.14073029 -0.31826332
-0.16913058 0.03233621 0.11897025 -0.18701157 0.12133161 -0.166015 0.19018294 -0.037348367
-0.19512433 0.046218213 0.05384314 0.13983297 0.023194678 -0.20626245 -0.23662809 0.0056320163
0.1105829 0.047525972 0.15790915 0.02891752 0.020643266 0.19659416 0.19574173 -0.09651211
-0.20486262 -0.26216424 -0.08601238 -0.2034216 0.050512422 -0.07979484 0.025372216 -0.04093756
0.16646767 0.08851687 -0.13791622 -0.064475566 0.120375335 0.08177647 -0.116464816 0.013680674
0.23901041 -0.19754837 -0.012442842 -0.0031257255 -0.22346196 0.1649276 -0.06484465 -0.0042853383
-0.08414833 0.18604308 0.026242403 0.15424281 -0.16416496 -0.21908627 0.017272787 -0.2995506
-0.15189746 -0.3146373 0.108465075 -0.26896358 0.055966914 0.102288075 -0.036685955 0.33391175
0.16736342 0.16517164 0.05202987 -0.07733435 0.16400138 0.1158108 -0.16985759 -0.13361418
0.17229864 0.0974736 -0.16825485 0.10690278 0.20271426 0.073844485 0.03599571 -0.09101091
-0.046047393 -0.082059756 -0.013897701 -0.22192751 0.05576988 -0.15712552 0.0013617723 -0.10309978
0.042608637 -0.17994025 0.122076586 -0.15466952 -0.24262081 -0.23842487 0.08719506 -0.024786523
-0.016935399 -0.1923259 0.09375876 0.13515504 0.053497422 0.08135227 -0.64452285 0.06763302
-0.18226096 -0.0579727 -0.1298955 0.06392613 0.21157493 -0.017559573 0.02344813 0.09878612
-0.19363728 -0.21855977 -0.38581675 -0.09763065 -0.055658266 -0.19409762 -0.23115815 -0.063112594
0.1758076 -0.092530645 0.08297279 -0.009497596 -0.07364486 0.031567305 0.13206711 -0.17314295
0.14477955 -0.12369627 0.0025486844 -0.050145917 0.13834122 0.108139254 0.0022863636 0.09195781
-0.19265217 -0.008388746 -0.17349401 -0.048575412 -0.040734082 0.15152207 0.12352645 -0.083595395
0.19455782 0.23491377 0.05630982 -0.16157818 0.08784529 -0.030439798 0.20036496 -0.0974176
0.07243848 -0.17550577 -0.052372955 0.05887239 0.04150416 0.17447275 -0.022533458 -0.1368376
-0.10962455 -0.054030016 0.1297546 -0.018220188 0.34011632 0.16686353 0.17914325 -0.12932208
-0.113206916 -0.1049811 -0.26834378 -0.09769483 0.04630467 -0.11297381 -0.11322816 -0.076581985
-0.16815421 0.044659875 -0.06245829 -0.16340496 -0.21896406 0.15611614 0.09436645 0.12030099
0.012886651 0.023069099 0.420058 0.025090996 0.04812359 -0.18364638 0.1896557 -0.046120025
-0.002271869 -0.052410252 0.10311786 0.18076244 0.29908812 -0.1063545 -0.08023536 0.20362343
-0.08788425 -0.18743542 0.04227908 0.16667435 -0.14740497 0.36531842 0.11069899 0.6325855
0.06641002 0.11302292 -0.20311578 -0.069390066 -0.10957526 0.04967069 0.112481445 -0.058250234
-0.06325783 0.061814442 -0.21847616 -0.025330884 -0.103940345 0.006447519 -0.076679386 0.11789311
-0.009657442 -0.11324652 -0.045532152 0.023959544 -0.08950808 0.12744062 0.16065808 0.096214116
0.2721352 -0.06648782 0.3345076 -0.0048562326 -0.14828376 0.40696028 -0.053795878 -0.044660885
00000000: 3ce5 553e 0414 0abf 2b81 08bd 49fb ca3d
00000010: 31df 903e 23fc 483b a6e4 dcbd 6f52 7dbe
00000020: 5ad6 3f3e 3e54 1d3e c110 123c 49a0 aa3d
00000030: 5172 23be 7da2 e4bc 9a1b 10be 69f3 a2be
00000040: 9130 2dbe f972 043d ada6 f33d f67f 3fbe
00000050: b57c f83d d6ff 29be 51bf 423e 9afa 18bd
00000060: acce 47be 4f4f 3d3d a08a 5c3d 6030 0f3e
00000070: c402 be3c 7736 53be a24e 72be c78c b83b
00000080: 4a79 e23d 98aa 423d f0b2 213e 6fe4 ec3c
00000090: 111c a93c fb4f 493e 8570 483e 24a8 c5bd
000000a0: 82c7 51be 643a 86be 4227 b0bd c04d 50be
000000b0: 1de6 4e3d 7a6b a3bd 65d9 cf3c 25ae 27bd
000000c0: 8076 2a3e 5548 b53d e939 0dbe c40b 84bd
000000d0: 5887 f63d 6c7a a73d 1b85 eebd e824 603c
000000e0: 25bf 743e 1f4a 4abe 10dd 4bbc f9d8 4cbb
000000f0: 36d3 64be c8e2 283e 46cd 84bd 066c 8cbb
00000100: f655 acbd 1482 3e3e 4ffa d63c d4f1 1d3e
00000110: dc1a 28be 2758 60be a97f 8d3c b25e 99be
00000120: 028b 1bbe 2418 a1be f022 de3d 98b5 89be
00000130: 903d 653d 697c d13d 0344 16bd 7bf6 aa3e
00000140: 5161 2b3e c122 293e 461d 553d 7961 9ebd
00000150: faef 273e 362e ed3d 26ef 2dbe 28d2 08be
00000160: 0e6f 303e 3da0 c73d 004b 2cbe d8ef da3d
00000170: 5494 4f3e c73b 973d 3d70 133d ee63 babd
00000180: 319c 3cbd f20e a8bd 2fb3 63bc f740 63be
00000190: f56e 643d 83e5 20be 7f7d b23a fa25 d3bd
000001a0: 6586 2e3d 4242 38be 4a03 fa3d b061 1ebe
000001b0: 9771 78be a625 74be 5393 b23d 1b0d cbbc
000001c0: 1bbc 8abc 15f1 44be 9804 c03d 1566 0a3e
000001d0: 1d20 5b3d 059c a63d 73ff 24bf 2e83 8a3d
000001e0: 9ea2 3abe c874 6dbd 5303 05be b4eb 823d
000001f0: 19a7 583e 18d9 8fbc 4b16 c03c 6150 ca3d
00000200: da48 46be 22ce 5fbe c689 c5be 94f2 c7bd
00000210: ecf9 63bd 87c1 46be b9b4 6cbe 2d41 81bd
00000220: e806 343e b580 bdbd a3ed a93d ce9b 1bbc
00000230: 1ed3 96bd b84c 013d 9a3c 073e 634c 31be
00000240: 1741 143e 7854 fdbd d407 273b ce65 4dbd
00000250: 52a9 0d3e 1d78 dd3d d1d6 153b 6054 bc3d
00000260: 9c46 45be f370 09bc 6aa8 31be 03f7 46bd
00000270: c8d8 26bd 9a28 1b3e 6ffb fc3d 1034 abbd
00000280: 2a3a 473e 3c8d 703e 20a5 663d c074 25be
00000290: 3be8 b33d e25c f9bc 792c 4d3e e182 c7bd
000002a0: a05a 943d c9b7 33be 0685 56bd 2d24 713d
000002b0: 4400 2a3d fca8 323e 1698 b8bc 281f 0cbe
000002c0: d682 e0bd 944e 5dbd 64de 043e 8142 95bc
000002d0: ba23 ae3e 46de 2a3e 5471 373e 026d 04be
000002e0: 07d9 e7bd 5500 d7bd 5b64 89be 3a14 c8bd
000002f0: f7a9 3d3d d05e e7bd 2ae4 e7bd 04d7 9cbd
00000300: 9e30 2cbe 46ed 363d 44d4 7fbd a153 27be
00000310: 1d38 60be e9dc 1f3e 3343 c13d 5e60 f63d
00000320: 8822 533c 68fb bc3c d811 d73e a28b cd3c
00000330: 3e1d 453d cc0d 3cbe 1b35 423e 5ae8 3cbd
00000340: a3e3 14bb 22ac 56bd 752f d33d ca19 393e
00000350: 1422 993e 63d0 d9bd 7052 a4bd a982 503e
00000360: a8fc b3bd 12ef 3fbe d42c 2d3d aeac 2a3e
00000370: 54f1 16be 040b bb3e 27b6 e23d 20f1 213f
00000380: fa01 883d 9078 e73d 95fd 4fbe 611c 8ebd
00000390: fe68 e0bd 7e73 4b3d ac5c e63d cc97 6ebd
000003a0: 528d 81bd 2431 7d3d 37b8 5fbe b782 cfbc
000003b0: adde d4bd b645 d33b 150a 9dbd f171 f13d
000003c0: 3f3a 1ebc cbed e7bd ec7f 3abd ce46 c43c
000003d0: 0350 b7bd cb7f 023e 8d83 243e e80b c53d
000003e0: 4e55 8b3e c42a 88bd 9544 ab3e 0821 9fbb
000003f0: b3d7 17be 195d d03e 1159 5cbd 55ee 36bd

convt1.bias f4 [8]
-0.038841 0.06279774 0.12993608 -0.01664515 0.05634596 0.00033080194 0.025714759 0.057261057
00000000: be17 1fbd 1a9c 803d f70d 053e 695b 88bc
00000010: 05cb 663d 7c6f ad39 c2a7 d23c 928a 6a3d

convt2.weight f4 [8, 16, 5, 5]
-0.14426765 -0.15259053 0.027118761 -0.10077908 -0.1920267 -0.2421831 -0.072055176 -0.032897364
-0.20477289 -0.31132743 0.09275023 -0.2695409 -0.2728849 0.113418505 0.031001072 -0.09757836
-0.095065214 -0.079366885 -0.004586282 0.011513705 0.04522804 -0.1577966 -0.05706012 -0.0013028829
0.009694597 0.05680144 -0.30584273 -0.055103514 -0.060137082 -0.13683383 -0.15435006 -0.010677253
-0.14814803 -0.25282952 -0.19492298 0.030167516 -0.105962284 -0.028079651 0.00055850187 -0.079038024
0.012036319 -0.11415703 -0.2428396 -0.0025503554 -0.06918225 0.08327636 -0.14472303 -0.11468287
0.061820313 -0.12959039 0.09632858 -0.007812174 -0.34675464 -0.13284017 0.086332 -0.01430791
0.0062036337 0.050391585 -0.08957989 -0.033205457 -0.070062794 -0.11747021 0.021494163 -0.03139336
-0.13793856 0.014259818 0.018859712 0.06940429 -0.07681732 -0.18399194 0.06418182 -0.0743425
-0.21272852 -0.058962256 -0.12047903 -0.12718694 -0.22165276 0.23443541 -0.12734783 -0.12609458
-0.15137392 -0.16469592 -0.1816777 -0.03525275 -0.11506981 -0.3203101 -0.09474426 0.07589431
-0.104902156 -0.3464619 -0.058334284 -0.19515616 -0.059486933 0.06428831 -0.24195348 -0.22968891
-0.017994724 -0.026730688 -0.12660442 -0.3623073 0.048762728 -0.022300908 -0.05434946 -0.043633275
0.011115982 -0.04509477 0.059128895 -0.030975105 0.014412601 -0.085711084 -0.07904485 0.012012835
-0.013334512 -0.03454393 -0.037389696 -0.012915645 -0.0772034 -0.09631199 -0.08879057 -0.09588297
-0.071031 -0.06819299 0.023647945 -0.05889513 -0.042838823 -0.12714297 -0.63392097 -0.06804675
0.34092897 -0.00021656054 0.11310291 -0.19181956 0.00813361 0.0027361715 -0.20396532 -0.0048147594
-0.51642495 -0.02597859 0.3773545 0.010856348 0.106202565 0.012509614 0.14330539 -0.2059547
-0.36349502 0.054138336 -0.45351085 0.0059296535 0.18577607 -0.15851618 -0.43201217 -0.094187155
0.07750269 -0.22716123 -0.16011731 -0.21731292 -0.043483302 0.22677335 -0.16637276 -0.18427116
-0.04574552 -0.18823005 0.06338505 -0.15073782 -0.061227035 -0.052439675 -0.18147393 0.16579835
-0.047758546 -0.11394346 -0.16862188 -0.17538673 0.111494526 -0.073003136 -0.19629438 -0.044084094
-0.1616029 0.08500357 -0.06769024 -0.24256726 -0.15552202 -0.13668162 -0.049768265 -0.01859826
-0.09996607 0.11925175 -0.10387671 -0.19225076 -0.017730102 -0.051403232 -0.07819298 -0.0040048207
-0.09068624 -0.14713109 -0.07476742 0.039464597 -0.09865381 0.026576456 -0.05181995 -0.21527594
0.072319254 0.04213882 0.0165636 -0.06350736 -0.17948747 0.017496366 -0.12079071 -0.1185331
0.007294187 -0.046355322 0.09211097 0.12083327 -0.04118782 -0.23675926 -0.12533267 -0.066019304
0.026802417 -0.018258879 -0.09192993 0.009648155 -0.04122438 0.033591665 -0.07848139 -0.13647757
-0.0987199 0.027764002 -0.028930444 -0.056665633 -0.006818764 -0.069074266 -0.051362827 -0.051827464
-0.07442652 -0.033614434 -0.0609657 -0.037111033 -0.0420618 -0.0028919384 -0.0783389 -0.10647022
0.078352936 -0.09478599 0.04411623 0.052417852 0.016586766 0.061771344 0.1687798 0.038781658
0.016477628 0.044326026 -0.03879428 -0.19021305 -0.44615522 -0.06376688 0.19799045 -0.19624926
00000000: e6ba 13be b140 1cbe 2a28 de3c 4365 cebd
00000010: a6a2 44be d9fe 77be aa91 93bd 63bf 06bd
00000020: fcaf 51be 4f66 9fbe d5f3 bd3d 4401 8abe
00000030: 92b7 8bbe f647 e83d f6f5 fd3c 2ad7 c7bd
00000040: 8db1 c2bd 1b8b a2bd 8648 96bb fba3 3c3c
00000050: 0a41 393d 6f95 21be dfb7 69bd 7fc5 aaba
00000060: 16d6 1e3c a0a8 683d 6b97 9cbe 39b4 61bd
00000070: 4d52 76bd 2b1e 0cbe f10d 1ebe a5ef 2ebc
00000080: 1eb4 17be df72 81be e499 47be de21 f73c
00000090: c102 d9bd 4c07 e6bc 6d68 123a b0de a1bd
000000a0: fb33 453c 29cb e9bd f2aa 78be dd23 27bb
000000b0: 6caf 8dbd cc8c aa3d 4632 14be dade eabd
000000c0: 4c37 7d3d 58b3 04be eb47 c53d 44fd ffbb
000000d0: d389 b1be 4107 08be d5ce b03d b96b 6abc
000000e0: da47 cb3b 6867 4e3d a975 b7bd 7202 08bd
000000f0: 157d 8fbd 3994 f0bd 8714 b03c 5396 00bd
00000100: c43f 0dbe 03a2 693c af7f 9a3c d623 8e3d
00000110: 6652 9dbd 6268 3cbe c271 833d e140 98bd
00000120: 81d5 59be 6882 71bd b6bd f6bd 4b3d 02be
00000130: f1f8 62be d60f 703e 7867 02be f01e 01be
00000140: c401 1bbe 0ca6 28be b809 3abe 3065 10bd
00000150: b8a9 ebbd afff a3be 4709 c2bd 7a6e 9b3d
00000160: f1d6 d6bd 7463 b1be eeef 6ebd 04d7 47be
00000170: 92a8 73bd 97a9 833d a7c2 77be 9233 6bbe
00000180: ac69 93bc 51fa dabc 97a4 01be 5880 b9be
00000190: 6dbb 473d 65b0 b6bc 8a9d 5ebd ceb8 32bd
000001a0: cf1f 363c 4bb5 38bd 2431 723d 81bf fdbc
000001b0: d422 6c3c 4b89 afbd 44e2 a1bd 7bd1 443c
000001c0: ff78 5abc f07d 0dbd f025 19bd 249c 53bc
000001d0: d11c 9ebd 383f c5bd d5d7 b5bd 4a5e c4bd
000001e0: b378 91bd c4a8 8bbd 56b9 c13c 053c 71bd
000001f0: c377 2fbd c431 02be a548 22bf 185c 8bbd
00000200: 3e8e ae3e 8714 63b9 80a2 e73d 596c 44be
00000210: d542 053c 5751 333b 49dc 50be 21c5 9dbb
00000220: 6d34 04bf 0dd1 d4bc 9c34 c13e d3de 313c
00000230: bb80 d93d 20f5 4c3c a6be 123e cae5 52be
00000240: 051c babe 29c0 5d3d 9332 e8be 8a4d c23b
00000250: 153c 3e3e 1152 22be b330 ddbe 32e5 c0bd
00000260: bbb9 9e3d f49c 68be cbf5 23be 4787 5ebe
00000270: 8c1b 32bd 4637 683e 9f5d 2abe 94b1 3cbe
00000280: a85f 3bbd 61bf 40be 05d0 813d 045b 1abe
00000290: 33c9 7abd fcca 56bd 4dd4 39be 0bc7 293e
000002a0: 779e 43bd 305b e9bd 37ab 2cbe 9498 33be
000002b0: 3e57 e43d ab82 95bd 6501 49be 8691 34bd
000002c0: 3b7b 25be 5a16 ae3d 2ea1 8abd 8d63 78be
000002d0: 2a41 1fbe 44f6 0bbe cfd9 4bbd 615b 98bc
000002e0: 03bb ccbd 433a f43d 50bd d4bd 62dd 44be
000002f0: b83e 91bc 328c 52bd a423 a0bd df3a 83bb
00000300: b5b9 b9bd 88a9 16be a91f 99bd a1a5 213d
00000310: 020b cabd deb6 d93c 2841 54bd 4c71 5cbe
00000320: 1e1c 943d c199 2c3d 63b0 873c 2610 82bd
00000330: 90cb 37be 8a54 8f3c 1f61 f7bd 7bc1 f2bd
00000340: 1304 ef3b 14df 3dbd ada4 bc3d 6f77 f73d
00000350: 8fb4 28bd 0571 72be 3557 00be 2135 87bd
00000360: be90 db3c a593 95bc c245 bcbd 4c13 1e3c
00000370: e5da 28bd 6a97 093d daba a0bd c7c0 0bbe
00000380: a92d cabd 5571 e33c 8aff ecbc 391a 68bd
00000390: f06f dfbb cf76 8dbd d461 52bd 0949 54bd
000003a0: ee6c 98bd 4aaf 09bd 2bb7 79bd bd01 18bd
000003b0: fe48 2cbd ad86 3dbb 2570 a0bd 0f0d dabd
000003c0: 8177 a03d 281f c2bd 38b3 343d 1ab4 563d
000003d0: f8e0 873c f303 7d3d 9dd4 2c3e 84d9 1e3d
000003e0: 17fc 863c 358f 353d c0e6 1ebd 36c7 42be
000003f0: 756e e4be 3698 82bd 02be 4a3e 91f5 48be

convt2.bias f4 [16]
0.030269962 0.043368455 0.04472342 0.052946035 0.081366576 0.025322622 0.031187303 0.020031743
0.034629457 0.09418998 0.025403326 0.033570986 0.047663182 0.0045116902 0.07437252 0.014194236
00000000: b6f8 f73c 1fa3 313d e82f 373d f1dd 583d
00000010: 85a3 a63d 6371 cf3c 847c ff3c 9c19 a43c
00000020: 9ed7 0d3d ade6 c03d a31a d03c bb81 093d
00000030: 783a 433d cdd6 933b 9f50 983d f18e 683c

convt3.weight f4 [16, 32, 9, 9]
-0.008155504 -0.018019803 -0.018468559 -0.020869225 0.012700626 0.023500081 0.012813432 0.006285153
-0.01318336 0.016680036 -0.05387009 0.037503988 -0.0024411937 0.20183714 0.017278295 0.007280331
0.32690096 0.00011153802 0.02421262 -0.027309936 -0.028967315 -0.011217203 -0.0065091704 -0.023872059
-0.040684614 0.028795267 -0.038824815 0.008472722 0.0054178857 0.0010255027 0.008561927 -0.011095785
-0.008199891 0.030082978 -0.022809077 0.015852466 0.030060219 0.0025494578 -0.015747828 0.032099206
0.031867366 0.011225561 -0.023938483 -0.15473078 0.024723139 0.02151688 0.027154567 -0.036025684
0.020377446 -0.043135073 -0.011064819 0.019465277 0.017293649 -0.05647241 -0.032357045 0.008601746
-0.002974078 0.020387907 0.012754167 -0.023076126 0.022517266 -0.0045737405 -0.014512491 0.025731891
-0.06332596 -0.026983485 -0.021931577 0.07842607 0.029489273 -0.0415083 0.17672753 0.027793927
-0.03660176 -0.02980786 -0.022937149 0.021658722 -0.009742505 -0.04775586 -0.03656773 0.013885508
-0.058670342 -0.12839223 -0.15954962 -0.19472037 -0.07325269 -0.12467068 -0.06646403 -0.087071806
-0.068702154 -0.026907675 -0.22041552 -0.16254343 -0.13836971 -0.14895895 -0.13103108 -0.08067226
-0.13729192 -0.04934697 -0.10498871 -0.19014035 -0.11453535 -0.17091322 -0.10372453 -0.030045778
-0.06952599 -0.114460245 -0.10280724 -0.08624397 -0.083859816 -0.053093918 0.042657908 -0.06791322
-0.012196457 0.07542245 0.023746781 0.02139794 0.14264935 -0.0064492915 -0.011639538 -0.041084617
0.044595204 0.017644802 -0.029385973 0.07121496 0.007986838 -0.006356396 0.0092538865 -0.085742846
-0.038619854 0.03385569 -0.07535991 0.017971328 0.06976143 -0.04449946 -0.033173166 -0.06848887
-0.045389168 0.106527075 -0.05761192 -0.017767638 0.16299994 -0.042492796 -0.021373492 0.0484729
0.032694824 -0.010765066 -0.03568377 -0.0029237985 -0.022693465 -0.00027282746 0.05057901 -0.042674907
-0.04993435 -0.077508874 -0.12779619 -0.052534983 -0.0057654777 0.0008596903 0.008822849 0.062318314
-0.1039477 -0.0014143501 0.010604422 0.02981568 -0.036826152 0.021817911 -0.03152165 -0.0022634356
0.006006987 -0.037496675 -0.047869932 0.0062453635 0.07585547 0.025988359 0.005182246 -0.16780092
-0.0032329655 -0.045893893 -0.13246563 -0.0083178105 -0.013582607 -0.04046937 0.029093165 -0.022283765
-0.016557157 0.007985618 -0.03510135 -0.03873312 0.028927095 0.025653295 -0.041619334 0.020843713
-0.047789946 -0.0007353924 -0.007829051 0.013448467 -0.027579466 0.020116588 -0.040922344 0.051697634
0.017045569 0.0061245346 -0.10220848 0.02651173 0.025344312 -0.1715615 -0.03014304 0.017795224
0.018033434 -0.011128187 -0.021267558 -0.0010378567 -0.028123224 -0.0024716598 0.00413551 -0.003055097
-0.03413173 -0.039034512 0.004611186 -0.025138864 0.010832649 0.0051434482 -0.018641355 -0.038888156
0.014880773 -0.026159516 -0.11761995 0.010769673 -0.02349168 -0.06029699 0.006294833 0.016983777
-0.054502163 -0.01916492 -0.015075395 0.0031157788 -0.03001443 0.0027798456 -0.014909113 0.012601927
-0.00823442 -0.021152802 -0.029808452 -0.01921092 -0.01891417 0.037452087 -0.012852799 0.008677708
0.0050826925 -0.002924169 -0.0068184836 -0.036098912 0.027842242 -0.016064797 0.017168779 0.014108027
00000000: aa9e 05bc 449e 93bc 604b 97bc f0f5 aabc
00000010: 4916 503c 3e83 c03c 6eef 513c aff3 cd3b
00000020: 05ff 57bc 92a4 883c e2a6 5cbd c89d 193d
00000030: 6ffc 1fbb 65ae 4e3e 368b 8d3c d88f ee3b
00000040: 905f a73e 85e9 e938 8b59 c63c 16b9 dfbc
00000050: dd4c edbc 5cc8 37bc e14a d5bb 568f c3bc
00000060: e9a4 26bd 0de4 eb3c c506 1fbd 2cd1 0a3c
00000070: 8588 b13b 296a 863a 5347 0c3c 18cb 35bc
00000080: d658 06bc 9470 f63c 1ada babc 08dd 813c
00000090: d940 f63c ce14 273b 9701 81bc 757a 033d
000000a0: 5b87 023d 6aeb 373c a31a c4bc bf71 1ebe
000000b0: 2e88 ca3c 2b44 b03c 4173 de3c ab8f 13bd
000000c0: 9aee a63c 67ae 30bd 3749 35bc a575 9f3c
000000d0: 69ab 8d3c 9d4f 67bd d288 04bd 56ee 0c3c
000000e0: c0e8 42bb 8a04 a73c dbf6 503c 250a bdbc
000000f0: 2176 b83c 51df 95bb cdc5 6dbc b0cb d23c
00000100: 0ab1 81bd 780c ddbc daa9 b3bc d99d a03d
00000110: 7d93 f13c 9b04 2abd 10f8 343e 17b0 e33c
00000120: baeb 15bd 9d2f f4bc b0e6 bbbc a26d b13c
00000130: 079f 1fbc a69b 43bd 0bc8 15bd 0b80 633c
00000140: 5050 70bd 4179 03be fa60 23be c764 47be
00000150: 8205 96bd 5753 ffbd 4b1e 88bd b452 b2bd
00000160: b7b3 8cbd 7c6d dcbc 9bb4 61be c971 26be
00000170: cab0 0dbe b288 18be 032d 06be 7f37 a5bd
00000180: 4196 0cbe 0c20 4abd 5204 d7bd 27b4 42be
00000190: 8291 eabd e003 2fbe 876d d4bd 9022 f6bc
000001a0: a463 8ebd 226a eabd 9a8c d2bd aea0 b0bd
000001b0: b2be abbd 0279 59bd 0fba 2e3d 1616 8bbd
000001c0: a6d3 47bc 1677 9a3d 9c88 c23c bc4a af3c
000001d0: ac12 123e 9454 d3bb c3b3 3ebc 5848 28bd
000001e0: 76a9 363d d58b 903c daba f0bc 26d9 913d
000001f0: 3adb 023c 5049 d0bb 9d9d 173c f299 afbd
00000200: da2f 1ebd 44ac 0a3d 4c56 9abd 9b38 933c
00000210: 15df 8e3d 1145 36bd 96e0 07bd e543 8cbd
00000220: fee9 39bd de2a da3d 7afa 6bbd 708d 91bc
00000230: 75e9 263e ed0c 2ebd 7617 afbc 858b 463d
00000240: 02eb 053d f65f 30bc 2529 12bd 339d 3fbb
00000250: a5e7 b9bc 480a 8fb9 f02b 4f3d e2cb 2ebd
00000260: f687 4cbd f9bc 9ebd 01dd 02be ec2e 57bd
00000270: 55ec bcbb d75c 613a b68d 103c 7d41 7f3d
00000280: 88e2 d4bd b761 b9ba 2bbe 2d3c 0340 f43c
00000290: 05d7 16bd 7abb b23c d81c 01bd 2656 14bb
000002a0: 42d6 c43b 1d96 19bd 4313 44bd e8a5 cc3b
000002b0: 1d5a 9b3d 8ae5 d43c d5cf a93b 01d4 2bbe
000002c0: 29e0 53bb 3cfb 3bbd 12a5 07be 6d47 08bc
000002d0: 9589 5ebc 36c3 25bd ca54 ee3c 718c b6bc
000002e0: e0a2 87bc 1cd6 023c 6fc6 0fbd 9fa6 1ebd
000002f0: 84f8 ec3c dc26 d23c 0979 2abd 6fc0 aa3c
00000300: 64bf 43bd 59c7 40ba 6c45 00bc f556 5c3c
00000310: 55ee e1bc 8bcb a43c 309e 27bd e6c0 533d
00000320: 26a3 8b3c 52b0 c83b ae52 d1bd 212f d93c
00000330: e09e cf3c d1ad 2fbe 89ee f6bc 4ac7 913c
00000340: daba 933c 0053 36bc 4d39 aebc b108 88ba
00000350: ad62 e6bc 92fb 21bb 2c83 873b 0638 48bb
00000360: b7cd 0bbd a7e2 1fbd 6f19 973b 05f0 cdbc
00000370: 6c7b 313c 5f8a a83b c1b5 98bc 3049 1fbd
00000380: 7cce 733c 7b4c d6bc bae2 f0bd 4873 303c
00000390: a071 c0bc faf9 76bd e344 ce3b 9021 8b3c
000003a0: a93d 5fbd c0ff 9cbc cafe 76bc 1832 4c3b
000003b0: d2e0 f5bc 122e 363b 5a45 74bc 5078 4e3c
000003c0: a9e9 06bc a448 adbc db30 f4bc 3860 9dbc
000003d0: e4f1 9abc 5c67 193d 8c94 52bc f22c 0e3c
000003e0: b78c a63b 6aa3 3fbb 966d dfbb 74dc 13bd
000003f0: 6a15 e43c 529a 83bc 8aa5 8c3c 5b25 673c

convt3.bias f4 [32]
-0.09282353 0.13462207 -0.021003956 0.06511075 0.045691047 0.079753086 0.07005406 0.07845097
-0.14725856 -0.038713146 0.040118817 0.018142665 0.07275643 -0.0009790615 0.07374057 0.005006251
-0.025063202 0.054324564 -0.038592853 -0.011598044 0.044754535 0.06407348 0.0015924996 -0.0007992483
0.05569421 0.044844892 -0.113817945 0.0040007676 0.10295176 -0.0116545195 0.051927306 0.053885188
00000000: 431a bebd 5eda 093e 7d10 acbc c958 853d
00000010: 8926 3b3d 9655 a33d 8178 8f3d e7aa a03d
00000020: f3ca 16be ad91 1ebd a153 243d ed9f 943c
00000030: 5301 953d da53 80ba 4c05 973d 7a0b a43b
00000040: 5851 cdbc 6f83 5e3d 8a13 1ebd b905 3ebc
00000050: 8850 373d f538 833d 6bbb d03a a584 51ba
00000060: 9d1f 643d 47af 373d 6219 e9bd df18 833b
00000070: 5fd8 d23d 99f2 3ebc bab1 543d b7b6 5c3d

pos_output.weight f4 [1, 32, 2, 2]
0.24916752 0.22187777 0.28179726 0.15327846 0.70984215 0.7208984 0.30998948 0.2103156
0.20077522 -0.095554106 0.09496795 -0.18707667 0.02687107 -0.1155242 0.05563336 0.18394406
-0.050658528 0.13163982 -0.07273658 -0.16996874 -0.10802061 -0.16958027 0.19771765 0.18280101
-0.1080998 0.17242958 0.022528686 -0.10472321 -0.0036029238 0.17380072 0.21587242 0.12283029
0.3032115 0.3351193 0.19862603 0.26686695 0.003483079 0.026117068 0.08337032 0.18227635
-0.033721108 -0.18881531 -0.08869779 -0.12003216 -0.11426582 0.15920338 -0.13435812 -0.008825488
-0.07744931 0.2795254 0.21480028 -0.013799237 -0.17578486 0.019825097 -0.090948515 0.14182322
0.05619147 -0.088157065 0.07541424 0.18036212 -0.1418913 -0.17555267 -0.3933257 -0.41347733
0.084321745 -0.36764333 0.11123848 -0.14008135 -0.08550621 0.13721849 0.009094121 -0.10661928
0.09136 0.13440643 0.09543956 0.058333565 0.13792016 -0.025831759 -0.0038758335 0.073398486
-0.1109456 -0.16152443 0.21634825 -0.08740862 -0.07924966 0.18170825 -0.12691127 -0.07970917
0.20209429 -0.11045059 -0.1862155 0.11059003 -0.4109023 -0.3045341 -0.43339947 -0.2713148
-0.03627311 -0.11141853 0.08085629 0.16707996 -0.09302083 0.14838518 -0.0134362755 -0.12344437
0.030083152 0.11337909 0.15633266 -0.059122473 -0.37441546 -0.48159418 -0.26625198 -0.6156929
-0.13731001 0.14929755 0.18612424 0.07114257 0.05841175 0.2207319 0.2625115 0.08889747
0.190429 0.003766846 -0.1855691 -0.049293198 -0.085854575 0.12431628 -0.079753876 0.12227928
00000000: c525 7f3e ed33 633e bb47 903e 07f5 1c3e
00000010: 37b8 353f cc8c 383f f1b6 9e3e f95c 573e
00000020: 0598 4d3e dfb1 c3bd 8e7e c23d 0791 3fbe
00000030: b820 dc3c f497 ecbd cedf 633d d55b 3c3e
00000040: 517f 4fbd 97cc 063e ebf6 94bd 490c 2ebe
00000050: e939 ddbd 73a6 2dbe 7f76 4a3e 3030 3b3e
00000060: 6e63 ddbd 6191 303e 148e b83c 1f79 d6bd
00000070: 081f 6cbb d1f8 313e a90d 5d3e 728e fb3d
00000080: 8a3e 9b3e c294 ab3e 9f64 4b3e c9a2 883e
00000090: 5e44 643b 76f3 d53c 0fbe aa3d a7a6 3a3e
000000a0: 251f 0abd cd58 41be 30a7 b5bd 6cd3 f5bd
000000b0: 3304 eabd 3606 233e 2d95 09be c898 10bc
000000c0: be9d 9ebd f41d 8f3e 9bf4 5b3e 3216 62bc
000000d0: f200 34be 3e68 a23c 3743 babd 1b3a 113e
000000e0: 0729 663d b18b b4bd c872 9a3d d9b0 383e
000000f0: f44b 11be 14c4 33be fc61 c9be 4db3 d3be
00000100: e1b0 ac3d bf3b bcbe 00d1 e33d 7c71 0fbe
00000110: e11d afbd 0183 0c3e 82ff 143c 365b dabd
00000120: f41a bb3d d7a1 093e d175 c33d 2def 6e3d
00000130: f13a 0d3e 209d d3bc b201 7ebb f251 963d
00000140: 7237 e3bd a966 25be 658a 5d3e 4a03 b3bd
00000150: a54d a2bd ba11 3a3e 07f5 01be 903e a3bd
00000160: cef1 4e3e eb33 e2bd 47af 3ebe 077d e23d
00000170: c961 d2be e5eb 9bbe 89e6 ddbe c6e9 8abe
00000180: 1d93 14bd 662f e4bd fc97 a53d 0217 2b3e
00000190: b481 bebd 49f2 173e d323 5cbc 67d0 fcbd
000001a0: f170 f63c 4c33 e83d ab15 203e 682a 72bd
000001b0: 62b3 bfbe 8393 f6be 2e52 88be 0d9e 1dbf
000001c0: ff9a 0cbe 75e1 183e 5a97 3e3e 32b3 913d
000001d0: 2941 6f3d 8b07 623e e867 863e e00f b63d
000001e0: d2ff 423e 30dd 763b d305 3ebe aae7 49bd
000001f0: 86d4 afbd 8999 fe3d 0056 a3bd 8f6d fa3d

cos_output.weight f4 [1, 32, 2, 2]
-0.48593673 -0.4006683 -0.43972275 -0.35781547 -0.9341944 -0.84877443 -0.2974018 -0.14848948
-0.13966301 0.17242442 0.02158192 0.028261058 0.1636844 0.009973506 0.23846675 -0.024061555
0.09792606 0.16176468 0.033283383 0.10679161 0.23972511 0.25626343 -0.11368493 0.24391866
0.23513982 -0.091575 -0.12204057 0.17511171 0.0057281074 0.19990078 0.18167496 0.16326706
-0.3000766 -0.5449811 -0.39032173 -0.6094684 -0.18564536 0.15158194 -0.10587541 -0.035937663
0.14344615 0.1892818 0.2412825 -0.14702961 -0.16809021 0.15464912 0.14095107 0.04363693
0.0745771 -0.11755622 -0.018217083 0.024864515 -0.0764135 0.1189602 0.1206323 -0.1253194
0.1998779 -0.035382964 -0.09073238 -0.034300696 0.10066156 0.0068405485 0.0981105 -0.07269708
0.23129416 0.18945998 0.009823992 0.11131567 0.10080763 -0.027136963 0.08126852 0.15023984
-0.073783524 0.04187746 -0.15285042 -0.08430377 -0.037254114 -0.09249185 0.04156263 -0.089073695
0.08479129 -0.03246512 0.012760088 0.15674716 0.18368933 0.109039925 0.09715689 0.24628238
0.05063736 -0.17439958 0.1518144 -0.14818627 -0.09991751 0.041244917 0.06081341 -0.06783381
0.036429573 0.076756686 0.226792 0.17648004 0.14194854 -0.008463351 0.24652313 0.086575
-0.1857992 -0.11283552 -0.15593511 -0.09530645 -0.18627447 -0.038527273 0.018947508 -0.034260765
0.06828904 0.03351283 0.12334389 -0.012239076 -0.036335 0.17496791 -0.20965047 -0.2053415
-0.11889512 0.07606508 0.08010093 0.124490485 0.112920284 -0.0743042 0.17943725 0.12347756
00000000: b3cc f8be 6524 cdbe 5723 e1be 9733 b7be
00000010: 5d27 6fbf 4849 59bf 0c45 98be a00d 18be
00000020: d203 0fbe 0790 303e 91cc b03c bc83 e73c
00000030: e29c 273e eb67 233c a130 743e bd1c c5bc
00000040: 758d c83d a4a5 253e 2854 083d 8fb5 da3d
00000050: 807a 753e f634 833e a5d3 e8bd d0c5 793e
00000060: 7ec8 703e ac8b bbbd 68f0 f9bd 7c50 333e
00000070: d9b2 bb3b cab2 4c3e 0009 3a3e 7b2f 273e
00000080: a4a3 99be e283 0bbf 40d8 c7be 1f06 1cbf
00000090: d119 3ebe 4c38 1b3e 35d5 d8bd 5f33 13bd
000000a0: 8ce3 123e 17d3 413e c212 773e ee8e 16be
000000b0: d71f 2cbe 575c 1e3e 7a55 103e a3bc 323d
000000c0: e1bb 983d 51c1 f0bd fe3b 95bc abb0 cb3c
000000d0: ae7e 9cbd 68a1 f33d 110e f73d bb53 00be
000000e0: cbac 4c3e baed 10bd e6d1 b9bd e37e 0cbd
000000f0: a627 ce3d ae26 e03b 28ee c83d 35e2 94bd
00000100: 60d8 6c3e cc01 423e cff4 203c 78f9 e33d
00000110: 3b74 ce3d 564e debc 1c70 a63d 79d8 193e
00000120: d11b 97bd b387 2b3d d284 1cbe 74a7 acbd
00000130: c597 18bd 5e6c bdbd 943d 2a3d 456c b6bd
00000140: 0ea7 ad3d 25fa 04bd b00f 513c 5482 203e
00000150: 0e19 3c3e 5350 df3d 31fa c63d 7331 7c3e
00000160: 1f69 4f3d ce95 32be 3c75 1b3e 24be 17be
00000170: 8da1 ccbd 6ef0 283d 7b17 793d 74ec 8abd
00000180: 2d37 153d 9c32 9d3d 293c 683e 2fb7 343e
00000190: f55a 113e dea9 0abc 8f70 7c3e 3c4e b13d
000001a0: 2542 3ebe 4f16 e7bd 74ad 1fbe 0730 c3bd
000001b0: bcbe 3ebe c6ce 1dbd ce37 9b3c 0455 0cbd
000001c0: 20db 8b3d c044 093d b99b fc3d 6886 48bc
000001d0: 02d4 14bd ca2a 333e 9dae 56be 0b45 52be
000001e0: 497f f3bd 02c8 9b3d f50b a43d def4 fe3d
000001f0: c042 e73d cd2c 98bd 66be 373e cee1 fc3d

sin_output.weight f4 [1, 32, 2, 2]
-0.010924091 -0.0073363786 -0.004481747 -0.048920676 0.08139167 0.03812109 0.015312911 0.07957404
0.082345344 -0.23451549 0.012842661 -0.10451749 -0.16431528 -0.07884139 0.1797661 -0.15299425
0.16783409 0.1626703 0.113026515 0.05432994 0.031370476 0.015745668 0.0618095 -0.03692613
0.080131225 0.1656796 -0.17024541 0.009858424 -0.0038734777 -0.10441946 0.040529262 0.11921158
0.0035544664 0.02550019 -0.008526447 0.009374899 -0.12476811 0.14176641 0.066105224 0.014309315
0.0072657173 0.09436594 0.06471275 0.13941367 0.027774727 0.05476808 0.16631842 -0.09528732
0.026000204 0.060971074 -0.14330928 -0.03339762 0.2130593 0.19466601 -0.0780794 -0.13477954
0.15331487 -0.05473095 -0.15354764 0.17361648 0.07950491 -0.084708765 -0.071718596 -0.16324177
-0.02211334 -0.002939965 0.08983073 0.078004465 0.15344854 -0.0046763686 0.0051902267 -0.1722964
0.03294473 0.03482846 0.046710882 0.039684415 0.070986114 0.052246142 0.01812479 0.0635586
-0.058287032 0.13268329 0.12323382 -0.18513393 -0.010086944 -0.10943399 -0.12706624 -0.13418084
0.048789892 0.045902666 -0.0095442515 0.0017738591 -0.18700339 -0.12685071 -0.13706177 -0.21858889
0.092620224 -0.04987928 0.008984111 -0.20243286 -0.05227699 0.10864183 -0.1493442 0.11673048
0.035026774 0.0101935305 0.0429742 -0.0042722863 -0.15187341 -0.14007056 0.15470362 -0.05995063
-0.11463115 0.06475764 -0.09796776 0.11004536 0.015912464 0.08342193 -0.008468428 0.053105127
0.03952222 -0.10301787 0.054719202 0.018489439 -0.10589063 0.060564227 -0.047849085 -0.12214285
00000000: f5fa 32bc 0166 f0bb 9edb 92bb 0c61 48bd
00000010: adb0 a63d dc24 1c3d 01e3 7a3c b7f7 a23d
00000020: ada4 a83d d424 70be 066a 523c 440d d6bd
00000030: 4442 28be 9877 a1bd 9b14 383e 86aa 1cbe
00000040: b3dc 2b3e 0b93 263e 727a e73d 1289 5e3d
00000050: 547e 003d 0ffd 803c f52b 7d3d db3f 17bd
00000060: d71b a43d eaa7 293e d054 2ebe 3a85 213c
00000070: 2cda 7dbb dfd9 d5bd 0302 263d 3325 f43d
00000080: 0df2 683b c6e5 d03c 83b2 0bbc 2d99 193c
00000090: 6c86 ffbd 372b 113e 2d62 873d 9e71 6a3c
000000a0: 4115 ee3b ee42 c13d 1e88 843d 75c2 0e3e
000000b0: d387 e33c 7f54 603d 604f 2a3e 0026 c3bd
000000c0: 61fe d43c cebc 793d abbf 12be f1cb 08bd
000000d0: 382c 5a3e 8756 473e 18e8 9fbd a603 0abe
000000e0: 93fe 1c3e 902d 60bd 983b 1dbe 85c8 313e
000000f0: 78d3 a23d ca7b adbd 33e1 92bd da28 27be
00000100: 0927 b5bc 6eac 40bb 2cf9 b73d cec0 9f3d
00000110: 9d21 1d3e 393c 99bb c712 aa3b 786e 30be
00000120: 0ef1 063d 4aa8 0e3d e953 3f3d 208c 223d
00000130: 2b61 913d 0d00 563d 717a 943c 032b 823d
00000140: 62be 6ebd 21de 073e 0362 fc3d c093 3dbe
00000150: b643 25bc ee1e e0bd a71d 02be b466 09be
00000160: e9d7 473d 6f04 3c3d 7e5f 1cbc d680 e83a
00000170: d17d 3fbe 27e5 01be ec59 0cbe c4d5 5fbe
00000180: acaf bd3d 374e 4cbd 1832 133c 8f4a 4fbe
00000190: 6620 56bd 9c7f de3d b0ed 18be 6410 ef3d
000001a0: 3c78 0f3d c402 273c b705 303d 89fe 8bbb
000001b0: b484 1bbe a86e 0fbe a06a 1e3e cb8e 75bd
000001c0: bdc3 eabd a79f 843d 52a3 c8bd 765f e13d
000001d0: db5a 823c 1ed9 aa3d 29bf 0abc c384 593d
000001e0: 0de2 213d 08fb d2bd 3e21 603d 2a77 973c
000001f0: 30dd d8bd 3212 783d 67fd 43bd 0826 fabd
