output/models/220323_0811_ggcnn2-test2/epoch_13_iou_0.65_statedict.pt (torch, 274205 bytes, 20 tensors)

features.0.weight f4 [16, 1, 11, 11]
0	0x3d905d7f	0.07049083
1	0x3c744f5f	0.014911502
2	0x3d6f6a41	0.05845094
3	0x3cd14869	0.025547223
4	0xbc3d4e4f	-0.011554315
5	0xbb82426c	-0.0039752033
6	0x3d4476bb	0.047964793
7	0xbcaf7ecf	-0.021422772
8	0x3d2e2ee4	0.042525187
9	0xba46081f	-0.0007554311
10	0x3d8207d7	0.063491516
11	0xbc36a333	-0.011147308
12	0xbb7b672c	-0.0038361056
13	0x3daa172a	0.083051994
14	0xbca3a4fb	-0.01997613
15	0x3da9aa92	0.08284487
16	0xbca9143d	-0.020639533
17	0x3cab0b89	0.020879524
18	0x3d20ee9e	0.039290063
19	0x3d2da473	0.04239316
20	0x3d879c0a	0.06621559
21	0x3d4546f0	0.048163354
22	0x3d62bf90	0.05535847
23	0x3d766963	0.0601591
24	0x3c9387ff	0.018009184
25	0x3cab3987	0.020901455
26	0x3d723d26	0.059140347
27	0xbb50f60b	-0.0031884934
28	0x3cde57c5	0.027141461
29	0x3d9ed7ee	0.07756029
30	0x3cebe882	0.028797392
31	0xbca44b15	-0.020055333
32	0x3d82978a	0.0637656
33	0xbca9989d	-0.020702654
34	0xbc2a8a61	-0.010408969
35	0xbd199186	-0.037492298
36	0xbd66db9a	-0.056361772
37	0xbd24a638	-0.04019758
38	0xbd0ab228	-0.03386131
39	0xbc3d5999	-0.011557006
40	0xbd1457fd	-0.036216725
41	0xbc507017	-0.012722037
42	0xbcd4cd88	-0.025976911
43	0xbcad1193	-0.021126544
44	0xbcb9936f	-0.02265331
45	0xbd082f1d	-0.033248056
46	0x3ceb6b7d	0.028737778
47	0x3d13694c	0.03598909
48	0x3ac35247	0.001490184
49	0xbd3a0ebc	-0.045424208
50	0x3d0c5acf	0.03426629
51	0x3cd5cd9a	0.026099015
52	0xbd70c823	-0.058784615
53	0xbd8bd60b	-0.06827935
54	0xbd3931dd	-0.04521357
55	0x3b4fa067	0.00316813
56	0xbca1032f	-0.019654838
57	0xbd6a7416	-0.057239614
58	0x3cc230dd	0.02370494
59	0x3d12545a	0.035724975
60	0xbcf5f7ce	-0.030025389
61	0xbd24bd7f	-0.04021978
62	0xbcffb84a	-0.031215806
63	0xba8c6860	-0.0010712259
64	0x3c98e937	0.018665893
65	0xbd528cad	-0.05140369
66	0xbb2a7c88	-0.0026014168
67	0x3c4f467a	0.01265108
68	0x3d435071	0.047684137
69	0xbd250f33	-0.0402977
70	0xbc86c639	-0.016451942
71	0xbc536046	-0.012901371
72	0x3befc8df	0.007317647
73	0xbbe08f8e	-0.0068530506
74	0xbcc80085	-0.02441431
75	0xbba571ea	-0.00504898
76	0xbd7298b9	-0.05922768
77	0x3ca37d33	0.01995716
78	0xbd1610c4	-0.036637083
79	0x3cfd4e2e	0.030921068
80	0xbc29675f	-0.010339587
81	0xbd3c86c9	-0.04602698
82	0xbc13c459	-0.009018981
83	0xbd37ca62	-0.04487074
84	0xbc98a00f	-0.01863101
85	0xbd469056	-0.048477493
86	0xbd1d1cf7	-0.0383577
87	0xbd24c4c6	-0.04022672
88	0x3cca1c3f	0.024671672
89	0xbd506469	-0.05087701
90	0x3c1ee24a	0.009697506
91	0x3bdff02b	0.00683405
92	0x3c0950a8	0.008381046
93	0xbcc76920	-0.02434212
94	0xbcd816a1	-0.026377978
95	0x3d0cb5f8	0.034353226
96	0x38e3942c	0.00010851803
97	0xbd35103c	-0.044204935
98	0xbc8d5fe8	-0.017257646
99	0x3d0800e2	0.033203967
100	0x3d22311a	0.03959761
101	0x3d3e5ec1	0.046477083
102	0xbccb4c12	-0.024816547
103	0xbc09b1b8	-0.008404188
104	0xbcaa567d	-0.020793194
105	0xbd227f22	-0.039672025
106	0x3cbf2e24	0.023337431
107	0x3c80c91a	0.015720893
108	0x3a231779	0.0006221454
109	0x3cd13d14	0.02554182
110	0x3cf27764	0.029597946
111	0x3adf10f1	0.0017018599
112	0xbcfd318c	-0.030907415
113	0xbd557daf	-0.052121814
114	0x3c0dc04f	0.008651807
115	0xbcc0f4f3	-0.0235543
116	0xbd19bbd6	-0.03753265
117	0x3d170132	0.036866374
118	0x3d07763a	0.033071734
119	0xbbf750e3	-0.0075474842
120	0x3d1a355c	0.037648544
121	0x3beb6cbc	0.007184593
122	0x3bc7ed10	0.006101258
123	0xbc684277	-0.014176003
124	0xbd289794	-0.04116018
125	0xbcbbe8b3	-0.022938108
126	0x3cc9a2e0	0.024613798
127	0x3ca15266	0.019692611
128	0xbccfa4f7	-0.025347216
129	0xbcd61980	-0.026135206
130	0xbd45d1f8	-0.048295945
131	0x3d2f75f1	0.042837087
132	0xbcf4c03e	-0.029876824
133	0xbb4087d4	-0.0029377835
134	0xbd21fe79	-0.039549325
135	0xbd15f424	-0.036609784
136	0x3cb6bdb9	0.022307264
137	0x3c6d9c8b	0.014502655
138	0xbd380506	-0.044926666
139	0xbcaf3da9	-0.021391707
140	0x3c494869	0.01228533
141	0xbd3a8b94	-0.04554327
142	0x3ccafb97	0.02477817
143	0x3d64e3d4	0.055881336
144	0x3d4344f3	0.047673177
145	0xb9b16257	-0.0003383334
146	0x3d1ade75	0.037809808
147	0x3d182111	0.03714091
148	0x3d3b5d07	0.045743015
149	0xbd2d335d	-0.042285312
150	0x3d062138	0.032746524
151	0xbd0e0ef8	-0.034682244
152	0xbcd3ee15	-0.025870362
153	0xbbd7dda1	-0.0065876995
154	0x3d4d68c0	0.050148726
155	0xbc49e75a	-0.012323225
156	0x3ca4b5da	0.020106245
157	0xbd326cf7	-0.04356095
158	0xbc0a82b1	-0.008454011
159	0xb98fdcb2	-0.00027439516
160	0x3c5e6ea5	0.013576184
161	0x3a4e9ec0	0.0007881932
162	0x3c8fd01a	0.017555285
163	0x3cb71aa9	0.02235158
164	0x3d2e05c1	0.042485956
165	0xbd4686d4	-0.048468426
166	0xbcd89c5a	-0.026441742
167	0xbc6e7687	-0.014554626
168	0x3d3780e7	0.044800665
169	0x3b62b620	0.0034593418
170	0x3cafddb4	0.021468021
171	0x3bf6bd84	0.0075299162
172	0x3d1258d5	0.035729248
173	0xbccd34a4	-0.025049515
174	0x3baa5ead	0.0051992745
175	0x3bd06022	0.006359116
176	0xbd4bca9b	-0.049753767
177	0x3d38f72a	0.04515759
178	0xbc2768f5	-0.010217895
179	0xbcde4a2a	-0.027134974
180	0x3b84f260	0.0040572137
181	0x3c7b4c85	0.015338068
182	0x3c5b6574	0.0133908875
183	0x3d642902	0.05570317
184	0xbc377d67	-0.011199332
185	0xbc9e03c5	-0.019288907
186	0x3d232bd8	0.039836735
187	0x3d228be7	0.039684203
188	0xbbc159c6	-0.0059005944
189	0xbd162a35	-0.036661346
190	0xbc826112	-0.015915427
191	0x3cce8641	0.025210502
192	0xbd1cf69b	-0.03832112
193	0xbd333582	-0.0437522
194	0xbd29d109	-0.041459117
195	0x3d0a5f1c	0.03378211
196	0x3d097330	0.033557117
197	0xbc2fb54d	-0.010724378
198	0xbd1ef10f	-0.03880411
199	0x3af7ba97	0.0018900213
200	0x3d2c61a4	0.042085305
201	0x3c3dfcef	0.011595949
202	0xbc8c5f7d	-0.017135376
203	0xbd45121c	-0.048112974
204	0xbd2cd8f2	-0.042199083
205	0x3d36b50a	0.044606246
206	0x3ce481d0	0.02789393
207	0xbd27c43c	-0.040958628
208	0xbc35244c	-0.011056017
209	0x3d0a52f1	0.033770505
210	0xbc96b51d	-0.018396908
211	0x3d4d213a	0.050080515
212	0x3d229607	0.03969386
213	0xbc9591ad	-0.01825794
214	0xbcf8e7f5	-0.030384043
215	0xbd43c9c5	-0.047799844
216	0xbd47ec14	-0.048809126
217	0xbc987504	-0.018610485
218	0x3b192a5f	0.0023371202
219	0xbd4de473	-0.050266694
220	0xbbdd8591	-0.006760307
221	0xbd243fb3	-0.04009981
222	0xbd4d6722	-0.050147183
223	0xbd4bcfb6	-0.049758635
224	0xbc73408d	-0.014846933
225	0x3d25a9eb	0.04044525
226	0xbd4582b1	-0.04822034
227	0x3bd8b6ae	0.006613574
228	0xbc322110	-0.0108721405
229	0xbbf7736e	-0.007551602
230	0xbcfa3d3a	-0.030546773
231	0x3d2071c7	0.039171007
232	0x3c7a4286	0.0152746495
233	0x3d2f2942	0.042763956
234	0x3d3fbe30	0.046812236
235	0x3d1bbbd6	0.03802093
236	0xbcbe4452	-0.023225937
237	0x3cf2c1b4	0.02963338
238	0x3d1f9448	0.03895977
239	0x3c9d882b	0.019229969
240	0x3d6934db	0.056935173
241	0x3d50bd0e	0.050961547
242	0x3bdc917f	0.0067312117
243	0x3cf6e255	0.03013722
244	0x3cce62bd	0.025193566
245	0xbc029138	-0.007969193
246	0xbcff0674	-0.031131007
247	0xbd3de4b1	-0.046360675
248	0x3d38709c	0.045029268
249	0x3ccc6314	0.024949588
250	0x3d23a13c	0.039948687
251	0x3cc175e5	0.023615787
252	0x3b2edb76	0.0026681102
253	0xbd5a2380	-0.05325651
254	0xbd23bb05	-0.039973278
255	0x3a54b9b7	0.0008114832

features.0.bias f4 [16]
0	0xbe16c96f	-0.14725278
1	0xbdde4b6c	-0.10854229
2	0xbdd574c5	-0.10422663
3	0xbe1c73d7	-0.15278564
4	0x3cfb43f7	0.030672057
5	0xbeda70ef	-0.42664286
6	0xbe2d34d4	-0.16914684
7	0xbd2e7c31	-0.042598907
8	0xbe8620cb	-0.26196894
9	0xbd831498	-0.06400412
10	0xbde5b103	-0.11215403
11	0xbe6c9402	-0.23103335
12	0x3eb4f528	0.3534329
13	0xbe4aba14	-0.19797546
14	0x3d915594	0.07096401
15	0x3ebfa639	0.37431505

features.2.weight f4 [16, 16, 5, 5]
0	0x3c8ef8b2	0.017452572
1	0xbd3787a3	-0.044807088
2	0xbdaa722d	-0.083225586
3	0xbd675599	-0.056478117
4	0x3d36d8d8	0.044640392
5	0x3d33ae2b	0.04386727
6	0xba3fee25	-0.0007321558
7	0xbc4b24de	-0.012398927
8	0xbdaa1219	-0.08304233
9	0xbce723f8	-0.028215393
10	0xbdb46b83	-0.08809569
11	0xbdbf767e	-0.093487725
12	0xbd51ad1d	-0.051190484
13	0x3cfe2cfa	0.031027306
14	0xbd4152a9	-0.04719797
15	0xbda3f58b	-0.08005818
16	0xbdaa6f88	-0.08322054
17	0x3d6dcb8e	0.058055453
18	0xbd7fad53	-0.062421154
19	0x3a8874d1	0.001041079
20	0x3c45ac44	0.012064997
21	0x3c735fbf	0.014854371
22	0x3d2a8cc8	0.041638166
23	0x3d86ab3d	0.0657563
24	0x3cea0d03	0.028570658
25	0x3da67669	0.08128054
26	0x3c9d7b3c	0.019223802
27	0x3e24098c	0.16019267
28	0x3dbe55f6	0.092937395
29	0x3da565b6	0.080760404
30	0x3ca07a92	0.019589696
31	0x3d9e0c06	0.07717137
32	0x3d927b9c	0.07152483
33	0x3c80c93b	0.015720954
34	0xbca9e131	-0.020737262
35	0xbb46ffd9	-0.00303649
36	0xbd144d83	-0.036206733
37	0xbd4a968d	-0.049459983
38	0x3d1a8d56	0.037732445
39	0x3beddbfe	0.007258891
40	0x3d01133e	0.03151249
41	0xbd12e4b7	-0.03586265
42	0xbb0a6136	-0.002111507
43	0xbc5fbc75	-0.0136557715
44	0xbd9786e3	-0.073987745
45	0xbd9f668b	-0.077832304
46	0x3c899470	0.016794413
47	0xbdad916f	-0.08475005
48	0xbcbc52d8	-0.022988722
49	0x3cc51d68	0.024061874
50	0xbdf9409e	-0.12170528
51	0xbd863e99	-0.06554908
52	0xbc6afc29	-0.014342346
53	0xbdad356d	-0.08457456
54	0xbd9cddd7	-0.076595
55	0x3cb89170	0.022530288
56	0xbdb6602f	-0.08905064
57	0x3b6e9246	0.0036403104
58	0xbd7cf0a2	-0.061752923
59	0xbe234014	-0.15942413
60	0xbe0779a9	-0.13230003
61	0xbc87e570	-0.016588897
62	0xbc2c1b00	-0.010504484
63	0xbb1901d7	-0.0023347044
64	0xbde35da6	-0.111018464
65	0xbce04558	-0.027376816
66	0xbda667cc	-0.081252664
67	0xbe29eb67	-0.16593705
68	0xbd2ca92c	-0.042153522
69	0xbd096f79	-0.033553574
70	0xbd06247e	-0.032749645
71	0xbe3689b0	-0.17825961
72	0xbd0fd4e5	-0.03511514
73	0xbdde891a	-0.10865994
74	0xbe455e5f	-0.19274281
75	0xbd33e76b	-0.04392187
76	0xbd425e2e	-0.047453098
77	0xbdd16247	-0.10223823
78	0xbda33b81	-0.07970334
79	0xbdc23569	-0.094828434
80	0x3d420bcd	0.047374535
81	0x3d4edd7b	0.05050419
82	0xbdec15b5	-0.11527578
83	0xbd6f896c	-0.058480665
84	0xbd3ca07e	-0.046051495
85	0x3c327d46	0.010894125
86	0x3c720074	0.014770616
87	0xbd036f60	-0.032088637
88	0xbd7b48c4	-0.06134869
89	0xbdd33cca	-0.10314329
90	0xbcfe8312	-0.031068359
91	0xbd74973c	-0.05971454
92	0xbd11a9d8	-0.035562366
93	0xbd73a85f	-0.059486743
94	0x3d7ca70a	0.06168274
95	0xbdb1189d	-0.08647273
96	0x3c74e88b	0.014948021
97	0xbd01ffe0	-0.031738162
98	0x3d092e21	0.033491258
99	0xbd4ace79	-0.049513314
100	0xbdadcf93	-0.08486857
101	0x3c51f069	0.012813666
102	0xbd457965	-0.048211474
103	0xbd8f6398	-0.07001418
104	0x3c1a5f0a	0.009422073
105	0x3ddca532	0.10773696
106	0x3db51575	0.08841983
107	0x3d33cc43	0.04389597
108	0xbca3e445	-0.020006308
109	0x3d8989fd	0.06715772
110	0x3dcbfaf7	0.09959977
111	0x3d562fe0	0.05229175
112	0x3df41c2d	0.119194366
113	0x3dea9e00	0.11455917
114	0x3dd2d7ed	0.10295091
115	0x3e3f44a4	0.18678528
116	0x3e0cd2ed	0.13752337
117	0x3df5a5d0	0.11994517
118	0x3d872a06	0.06599812
119	0x3d205ba5	0.0391499
120	0x3e157636	0.14595875
121	0x3e228589	0.15871252
122	0x3da4ee66	0.080532834
123	0x3dea9a20	0.11455178
124	0x3d5f4335	0.054507453
125	0x3d6975ef	0.056997236
126	0xbd2982b0	-0.0413844
127	0x3d86cd5a	0.065821365
128	0xbd84c053	-0.064819954
129	0xbd261c0c	-0.04055409
130	0x3c0cad38	0.00858622
131	0xbde7ba43	-0.113148235
132	0x3c4a7e92	0.012359278
133	0xbbdeb9df	-0.00679706
134	0xbd55d886	-0.052208446
135	0xbc998504	-0.018740185
136	0xbdc93b52	-0.098257676
137	0xbca1dcc4	-0.01975859
138	0xbdd47425	-0.10373715
139	0xbdba4e9f	-0.09097027
140	0xbe25d16b	-0.16193168
141	0xbe0149eb	-0.12625854
142	0xbe149879	-0.14511289
143	0xbd900595	-0.07032315
144	0xbe3b82ce	-0.18311617
145	0xbd8e643a	-0.069527104
146	0xbe03976c	-0.12850732
147	0xbde249b4	-0.11049214
148	0xbe3b63a8	-0.18299735
149	0xbdfb6793	-0.122756146
150	0x3d933242	0.0718732
151	0x3d53219a	0.051545717
152	0xbc3ef402	-0.011654856
153	0x3d959b1e	0.07304977
154	0xbd864ea6	-0.0655797
155	0x3c9e61da	0.019333769
156	0x3b37cace	0.0028044465
157	0xbd507b20	-0.05089867
158	0x3d7b8087	0.06140187
159	0xbd8e77fb	-0.06956478
160	0xbc81a9ec	-0.015828095
161	0xbd698ec0	-0.057020903
162	0x3c8f530a	0.01749565
163	0x3be4ddbe	0.0069844415
164	0xbc8a7adf	-0.016904293
165	0x3cf13cd1	0.029447945
166	0x3d884ad8	0.066549
167	0xbda6e88c	-0.081498235
168	0x3c4471d9	0.011990034
169	0x3d2b0cd2	0.041760273
170	0x3d8787fb	0.06617733
171	0xbd3624c3	-0.044468652
172	0x3d1864fb	0.037205677
173	0x3cc81049	0.024421828
174	0x3da44b23	0.08022144
175	0xbcf5a2b4	-0.02998481
176	0x3d8c1bce	0.06841241
177	0xbdb4ec83	-0.088341735
178	0x3c3b410d	0.0114290835
179	0x3d0770b9	0.033066485
180	0x3d066e53	0.032820057
181	0xbd5e9868	-0.054344565
182	0xbd8f48e4	-0.06996325
183	0x3d4cae57	0.04997095
184	0xbce74746	-0.028232228
185	0x3d3f4820	0.046699643
186	0xbd878e7b	-0.06618973
187	0x3ad67617	0.0016362098
188	0x3cea3da8	0.028593853
189	0xbcfd9113	-0.030952966
190	0xbdce95d1	-0.10087169
191	0x3c9dd358	0.019265816
192	0x3d454c34	0.048168376
193	0xbd88604d	-0.06658993
194	0xbd8f6f36	-0.07003634
195	0xbcc6c7a3	-0.024265116
196	0xbd4d2589	-0.050084624
197	0xbd8e14b0	-0.069375396
198	0xbc016b45	-0.00789911
199	0x3a395cc7	0.0007071015
200	0x3dc18f3d	0.09451149
201	0x3e0dc440	0.13844395
202	0x3e1614d8	0.14656389
203	0x3dbcaadc	0.09212276
204	0xbdcfdfc5	-0.101501025
205	0x3e0359ba	0.12827197
206	0x3e28cf63	0.16485362
207	0x3dc02b74	0.09383288
208	0xbd02c287	-0.031923797
209	0x3c6b191e	0.01434925
210	0xbd92f4e2	-0.07175614
211	0x3d24de09	0.04025081
212	0xbd56bcd1	-0.052426163
213	0xbe15b0f1	-0.14618279
214	0xbd9189b9	-0.07106347
215	0xbd0e3c6e	-0.0347256
216	0xbde483e0	-0.11157966
217	0xbd997452	-0.074928895
218	0xbe48acf5	-0.19597228
219	0xbe78e43a	-0.24305812
220	0x3a2c6317	0.0006576045
221	0xbe22c4bb	-0.15895359
222	0xbe0fbabe	-0.1403608
223	0xbe9896ca	-0.29802543
224	0xbe55b951	-0.20871474
225	0xbcc80bda	-0.024419714
226	0x3d00b0aa	0.03141848
227	0x3d42ac24	0.047527447
228	0x3d2c2378	0.042026013
229	0xbd24d025	-0.040237565
230	0x3defd597	0.11710661
231	0x3dd411b8	0.10354942
232	0x3da43027	0.08016997
233	0x3d161335	0.03663941
234	0xbde0eb19	-0.10982341
235	0xbcd7110b	-0.026253244
236	0xbc5950fe	-0.013263939
237	0xbd2dceb3	-0.04243345
238	0x3c90bb31	0.017667385
239	0xbe15bf4a	-0.14623752
240	0x3d3bfaa7	0.045893338
241	0xbb77208b	-0.0037708606
242	0x3d303349	0.04301766
243	0xbd99ec32	-0.07515754
244	0xbe1a8cee	-0.15092823
245	0xbdceef1f	-0.101042025
246	0xbdfcddaf	-0.1234697
247	0xbd34378b	-0.043998282
248	0xbe0dd565	-0.13850935
249	0xbe0bf2a8	-0.13666785
250	0xbd3643f7	-0.04449841
251	0xbc97fe2b	-0.018553814
252	0xbddedd2d	-0.1088203
253	0xbd249b25	-0.04018702
254	0x3d359f5e	0.044341438
255	0xbaeba6f9	-0.0017978839

features.2.bias f4 [16]
0	0xbae46ca5	-0.0017427398
1	0xbd2f16c2	-0.042746313
2	0xbd0aee06	-0.033918403
3	0x3bce42f7	0.006294604
4	0xbcb82147	-0.022476805
5	0xbe1c3924	-0.15256172
6	0x3d1938d8	0.037407726
7	0xbcca61e7	-0.024704887
8	0x3d46ca6a	0.04853288
9	0xbcba73ae	-0.022760238
10	0xbd6c1fb8	-0.057647437
11	0x3cb94fdf	0.022621093
12	0x3c1df2a1	0.009640367
13	0x3c1c1788	0.009527095
14	0xbd722d41	-0.05912519
15	0x3cd8cc98	0.026464745

features.5.weight f4 [16, 16, 5, 5]
0	0x3be1db7b	0.006892619
1	0xbdb047e0	-0.08607459
2	0xbda26671	-0.079296954
3	0xbcdd7cd1	-0.027037056
4	0xbce1ad23	-0.027548378
5	0xbb4a396b	-0.0030856978
6	0x3afee1ce	0.0019445957
7	0xbddb8877	-0.10719388
8	0xbd7dc039	-0.061950896
9	0xbc9e56fd	-0.019328589
10	0xbd52b558	-0.051442474
11	0xbc8b8a04	-0.017033584
12	0xbd9ead13	-0.07747855
13	0xbd1536e2	-0.036429293
14	0xbde7a6ba	-0.113110974
15	0xbdd28682	-0.102795616
16	0xbd4ec9f5	-0.05048557
17	0x3c21e653	0.009881574
18	0x3c488803	0.012239459
19	0xbdfa5bf3	-0.12224569
20	0xbbbdd37e	-0.005793034
21	0xbde95a34	-0.11394158
22	0xbd7b0825	-0.061287064
23	0x3d274e78	0.040846318
24	0xbdf0377f	-0.11729335
25	0xbcbabc10	-0.022794753
26	0x3d28b150	0.041184723
27	0xbd2970a8	-0.041367203
28	0xbd9ac44c	-0.07556972
29	0x3c9bbfec	0.019012414
30	0xbcfda204	-0.030961044
31	0xbdad33ab	-0.084571205
32	0xbd820406	-0.06348424
33	0xbd1f9c21	-0.038967256
34	0x3d0678de	0.03283011
35	0x3c8c4774	0.017123915
36	0xbcd8699e	-0.02641755
37	0x3d7f6cc4	0.062359586
38	0x3b825040	0.0039768517
39	0x3d3669b0	0.044534385
40	0xbd8b5f59	-0.068052955
41	0x3da691f2	0.081333056
42	0x3d91544c	0.070961565
43	0xbca99080	-0.020698786
44	0xbd33121f	-0.043718453
45	0xbd9c3e40	-0.07629061
46	0xbd0c357c	-0.034230694
47	0xbd6d0389	-0.0578647
48	0x3a9e7e00	0.0012091994
49	0x3d82cb52	0.063864365
50	0xbc92af94	-0.017905988
51	0x3c36bf12	0.011153953
52	0x3d1a9468	0.037739187
53	0x3b832a70	0.0040028617
54	0xbbe9c06e	-0.007133535
55	0xbd22c25b	-0.039736133
56	0xbd355981	-0.04427481
57	0xbd0989be	-0.033578627
58	0x3d74d09d	0.05976926
59	0x3cf8afcf	0.03035727
60	0x3d57ae08	0.052656204
61	0xbd91af5d	-0.07113526
62	0x3d92a8f3	0.07161131
63	0x3cfcaf81	0.030845406
64	0x3dac16df	0.084028
65	0xbdb4851b	-0.0881445
66	0xbd42a572	-0.047521062
67	0xbd474edf	-0.0486592
68	0xbd935687	-0.07194238
69	0x3b89bcdc	0.004203422
70	0x3cfcf10e	0.030876663
71	0xbd3bfa28	-0.045892864
72	0x3d795e88	0.060881168
73	0xbd5e41c1	-0.054261927
74	0xbd841375	-0.06449024
75	0xbe0a5eac	-0.13512677
76	0xb8ebe300	-0.00011247955
77	0x3b32a4b3	0.0027258813
78	0xbcbae458	-0.02281396
79	0xbd4a5152	-0.04939396
80	0xbdf20190	-0.11816704
81	0xbd2d0f0a	-0.04225067
82	0xbd096044	-0.03353907
83	0xbc1e852b	-0.009675304
84	0xbd94e72d	-0.07270656
85	0xbdab51ea	-0.08365233
86	0x3c489c1f	0.012244253
87	0x3cb3e51c	0.021959834
88	0xbc3868b5	-0.011255433
89	0x3d0e8538	0.034795016
90	0xbd969898	-0.07353324
91	0x3b116346	0.0022184416
92	0xbd1496dd	-0.036276687
93	0xbd0f926a	-0.03505174
94	0x3c0c8f29	0.008579054
95	0xbd1194af	-0.035542186
96	0xbd4d86d2	-0.050177403
97	0x3c05bb2c	0.008162301
98	0x3d0037a6	0.03130307
99	0x3c098750	0.008394077
100	0xbd8ad50d	-0.067789175
101	0xbab6b709	-0.0013940047
102	0x3d50b17c	0.050950512
103	0xbdacf21a	-0.08444615
104	0x3ace4b25	0.0015738948
105	0xbab6ec25	-0.0013955875
106	0x3cde76d3	0.02715627
107	0x3da8adba	0.08236261
108	0xbc171ae1	-0.009222717
109	0xbc4ac296	-0.012375494
110	0xbd4a2b7e	-0.049357884
111	0xbdc97a0b	-0.09837731
112	0x3d364e32	0.044508167
113	0xbd8a784c	-0.06761226
114	0x3ca63de2	0.02029318
115	0xbd388dcf	-0.045057114
116	0x3cf35297	0.029702468
117	0x3d931bf3	0.07183065
118	0x3da6b5c0	0.08140135
119	0x3b02614a	0.0019894415
120	0xbc794e69	-0.015216448
121	0xbdb52819	-0.08845539
122	0xbc99876c	-0.018741332
123	0xbd16cdd6	-0.036817394
124	0x3d601b23	0.05471338
125	0xbd244a9f	-0.040110227
126	0xbd951b13	-0.072805546
127	0xbc8e156f	-0.017344205
128	0x3d88a8be	0.0667281
129	0xbd9938ad	-0.07481513
130	0xbd289139	-0.04115412
131	0xbd334af0	-0.043772638
132	0x3cb0e2e0	0.021592557
133	0xbdbddb0f	-0.09270298
134	0x3d7563c0	0.059909582
135	0xbd369f51	-0.04458553
136	0xbb2ee160	-0.0026684627
137	0xbcb110ba	-0.021614421
138	0x3d6f3a5c	0.058405265
139	0xbdb38a07	-0.08766561
140	0xbcd316f0	-0.025767773
141	0xbcc9256e	-0.02455398
142	0xbb52a75e	-0.0032143216
143	0x3cd97069	0.02654286
144	0xbd4f31ee	-0.050584726
145	0xbd55339a	-0.052051164
146	0x3d33c2f7	0.043887105
147	0xbdd4d964	-0.103930265
148	0xbccf11fe	-0.025277134
149	0x3c3f7aca	0.01168699
150	0xbdc64753	-0.09681573
151	0xbd94108a	-0.07229717
152	0x3d124651	0.03571159
153	0x3c1898d4	0.009313781
154	0xbd59905e	-0.053116195
155	0x3b9f4d39	0.0048615006
156	0xbdb30551	-0.087412484
157	0x3c8714ca	0.016489405
158	0xbdd46d40	-0.103724
159	0xbc3f2719	-0.011667036
160	0xbba58c5a	-0.0050521316
161	0xbd69bb99	-0.057063673
162	0xbded6e7b	-0.11593338
163	0xbdfb0126	-0.122560784
164	0x3cb30eb3	0.021857595
165	0x3bb192ab	0.0054190955
166	0xbdd62e81	-0.10458089
167	0xbda6b9f7	-0.08140939
168	0xbd00747b	-0.031361084
169	0xbdfdfad5	-0.12401358
170	0xbdd40bb8	-0.10353798
171	0xbce23cde	-0.027616914
172	0xbdfcfc52	-0.12352814
173	0x3c968f21	0.018378796
174	0xbcafbea3	-0.021453207
175	0xbc169ddb	-0.009192909
176	0xbd0b830e	-0.03406053
177	0x3d50a654	0.050939873
178	0xbb057fe4	-0.0020370418
179	0x3d80d12d	0.06289897
180	0xba68f840	-0.000888709
181	0x3ccfaeef	0.02535197
182	0xbcee8c4c	-0.029119633
183	0xbcad7442	-0.0211736
184	0xbd1f8919	-0.038949106
185	0x3d2b196d	0.041772295
186	0xbdb0ed66	-0.0863903
187	0xbd469e45	-0.04849078
188	0x3db33875	0.08751003
189	0xbcba0ce1	-0.02271122
190	0x3d8d33c0	0.06894636
191	0xbd97d8a8	-0.07414371
192	0x3d425f5d	0.047454227
193	0x3d0dae0b	0.03458981
194	0xbd339587	-0.043843772
195	0xbd776d69	-0.060407076
196	0xbd07a89d	-0.033119787
197	0xbcdea377	-0.027177555
198	0x3d8db250	0.06918776
199	0x3dadc69e	0.08485149
200	0xbcabe95e	-0.020985302
201	0xbcd5ac73	-0.026083207
202	0x3d9d3d20	0.07677674
203	0x3d0975b0	0.0335595
204	0xbc340644	-0.010987822
205	0xbde09b7b	-0.109671555
206	0xbd092823	-0.033485543
207	0x3c859aa4	0.01630909
208	0xbc0c5eb8	-0.008567505
209	0xbdb52b77	-0.08846181
210	0x3c69a37c	0.014260169
211	0xbda220fb	-0.07916447
212	0xbc228303	-0.009918931
213	0xbdbe8cd3	-0.09304204
214	0xbc4f1bce	-0.0126409065
215	0x3d6c0ca7	0.057629254
216	0x3cb36e5e	0.021903213
217	0xbcae93a7	-0.02131064
218	0xbd8db600	-0.06919479
219	0xbd4182a2	-0.04724372
220	0x3bd06d52	0.0063606882
221	0x3d859095	0.065217175
222	0xbd434a28	-0.047678143
223	0xbd0e94f1	-0.03481001
224	0xbd7d9e44	-0.061918512
225	0xbd9f3cf3	-0.07775297
226	0xbd7b94a5	-0.061421055
227	0xbc3a6df0	-0.01137875
228	0x3bb743fb	0.0055928207
229	0x3bc31c83	0.0059543266
230	0xbddead6d	-0.10872922
231	0xbd93f0ea	-0.07223685
232	0xbd79c0d1	-0.0609749
233	0xbdff8f9e	-0.12478565
234	0x3cc5bc81	0.024137737
235	0xbd77d67b	-0.06050728
236	0x3c7910e4	0.015201781
237	0x3cdddd7b	0.02708315
238	0x3c0b3f10	0.008498922
239	0xbd1ac779	-0.03778789
240	0xbd9d8d78	-0.07692999
241	0xbded3557	-0.115824394
242	0xbdbaf7a3	-0.09129264
243	0xbdf8813e	-0.12134026
244	0xbdff915b	-0.12478896
245	0xbd9b9864	-0.075974256
246	0x3c899ce9	0.016798453
247	0x399dba13	0.0003008401
248	0xbb8cdfa2	-0.00429912
249	0xbd3fe1a1	-0.046846036
250	0x3baa2283	0.0051921024
251	0x3d6b522c	0.057451412
252	0xbdbbccc8	-0.09169918
253	0xbd22fea5	-0.03979363
254	0xbd627003	-0.055282604
255	0xbc16a544	-0.009194676

features.5.bias f4 [16]
0	0xbd4e04f5	-0.050297696
1	0xbbb9b66c	-0.0056674983
2	0x3beedc6f	0.0072894613
3	0xbd01aa1e	-0.031656377
4	0x3ca2751b	0.01983123
5	0xbdda0325	-0.10645131
6	0x3d008297	0.03137454
7	0xbcb20d33	-0.02173481
8	0xbb483ad0	-0.0030552633
9	0xbd069ad9	-0.032862518
10	0xbbf26e0d	-0.007398373
11	0x3b8a1364	0.0042137373
12	0xbd90e9cb	-0.070758425
13	0x3ccc13cc	0.024911784
14	0xbd25fa3d	-0.04052185
15	0xbd0f341c	-0.034961805

features.7.weight f4 [16, 16, 5, 5]
0	0xbc69b456	-0.014264187
1	0xbd069ca7	-0.03286424
2	0xbd7cf969	-0.061761294
3	0xbc94f3c1	-0.018182637
4	0xbcfa29ea	-0.030537564
5	0xbd49b35c	-0.049243316
6	0xbdba29c7	-0.0909
7	0x3d4a9106	0.04945471
8	0xbd76908d	-0.060196448
9	0xbd2d5b03	-0.042323124
10	0xbcf41afb	-0.029798022
11	0x399d12df	0.00029959434
12	0xbda27e20	-0.07934213
13	0x3da5d965	0.08098105
14	0x3d631c5d	0.05544697
15	0x3d5f4d37	0.054516997
16	0xbd82f207	-0.06393819
17	0xbd78fc0a	-0.06078724
18	0xbd5194ca	-0.051167287
19	0xbce698ed	-0.028149093
20	0xbb14413e	-0.0022621895
21	0x3da4f667	0.0805481
22	0x3cd65b1e	0.026166495
23	0xbda84a11	-0.08217252
24	0xbd8deefc	-0.06930348
25	0xbd1f3d95	-0.03887709
26	0x3d671769	0.05641881
27	0x3d043d27	0.032284882
28	0x3d875720	0.06608415
29	0xbd89bdf4	-0.06725684
30	0x39d641e7	0.00040866362
31	0xbca73b58	-0.02041404
32	0xbd52e844	-0.051491037
33	0xbdbc41d5	-0.09192244
34	0xbb3da18f	-0.0028935408
35	0x3d946967	0.072466664
36	0xbd253fd3	-0.04034407
37	0xbd86f2c5	-0.06589273
38	0xbc2dbae4	-0.01060364
39	0xbd93c11c	-0.07214567
40	0xbc9be39e	-0.019029435
41	0xbd2a1941	-0.04152799
42	0xbd9d4e7e	-0.07680987
43	0x3c904e51	0.01761547
44	0x3d916588	0.07099444
45	0xbd0b9da8	-0.0340859
46	0x3d5f5cdd	0.05453192
47	0xbbe07e32	-0.006850981
48	0x3d14cc95	0.036327917
49	0x3ccabe4c	0.024748944
50	0x3e5013ed	0.20320101
51	0x3e4307e5	0.1904598
52	0x3e7ebcba	0.24876681
53	0x3e9234b8	0.28555846
54	0x3e280c62	0.16410974
55	0x3d94b656	0.0726134
56	0x3e25fc92	0.16209629
57	0x3df5d2fe	0.12003134
58	0x3dc5ab5d	0.096518256
59	0x3dbc78a2	0.092026964
60	0xbd93599d	-0.07194827
61	0xbd474514	-0.048649862
62	0xbd895bea	-0.06706984
63	0x3d3f62a0	0.046724916
64	0xbbf12233	-0.007358813
65	0x3d661088	0.05616811
66	0x3c1d1ccc	0.009589385
67	0x3dd5f3b6	0.10446875
68	0xbb27da7c	-0.0025612405
69	0x3b82ab79	0.0039877263
70	0x3c069025	0.008213078
71	0x3d025c28	0.03182617
72	0x3d8a97e2	0.067672506
73	0x3d8fdba9	0.07024319
74	0x3c962294	0.018327035
75	0xbd50bae3	-0.05095948
76	0xbc75aa7e	-0.014994262
77	0xbce9a5b6	-0.0285214
78	0xbc6ade76	-0.014335265
79	0xbda0f73f	-0.078596584
80	0x3c692eb7	0.014232329
81	0xbdad0898	-0.08448905
82	0xbc81edd2	-0.015860472
83	0xbdd8f856	-0.10594241
84	0xbdad1f25	-0.08453206
85	0xbd90b5f3	-0.07065954
86	0xbc781d8f	-0.015143766
87	0x39b8bb57	0.00035234794
88	0xbb84076d	-0.0040292055
89	0x3d7de8bf	0.061989542
90	0xbd71d147	-0.059037473
91	0xbd57aa39	-0.05265257
92	0xbde59f0b	-0.11211976
93	0xbdc6687d	-0.09687898
94	0xbd811250	-0.06302321
95	0x3bf97734	0.007613087
96	0xbcf122a9	-0.029435473
97	0x3c7702da	0.015076363
98	0xbd33c945	-0.043893117
99	0xbd9a95f2	-0.07548131
100	0x3d8b205a	0.0679328
101	0x3d1d3dff	0.038389202
102	0xbd89ff94	-0.06738201
103	0x3cb83dd6	0.022490423
104	0xbcc8a7c8	-0.024494067
105	0xbca26736	-0.019824605
106	0x3d5bbcfb	0.053647023
107	0xbc7c3e1b	-0.0153956665
108	0xbda80073	-0.08203211
109	0xbd9cf810	-0.07664502
110	0x3d27010d	0.040772486
111	0xbd9afe74	-0.07568064
112	0x3d6624ab	0.056187313
113	0xbd3c32a2	-0.045946725
114	0x3d37408c	0.04473929
115	0x3d4fb0d1	0.050705735
116	0x3cb587dd	0.022159511
117	0x3ceda509	0.029009359
118	0xbd60d709	-0.054892574
119	0x3d560183	0.052247535
120	0x3d1c697e	0.038186543
121	0x3c5ce6d9	0.013482773
122	0xbd0f5922	-0.034997113
123	0xbd37a214	-0.044832304
124	0xbbde2674	-0.0067794863
125	0xbd20fbf0	-0.039302766
126	0x3cccae6f	0.02498552
127	0xbd45ee3f	-0.048322912
128	0xbb92c71e	-0.004479303
129	0xbc312efc	-0.010814425
130	0xbe1869e0	-0.14884138
131	0xbd9f4e7b	-0.07778641
132	0xbcf552b8	-0.02994667
133	0xbdec83fa	-0.1154861
134	0xbd39a944	-0.04532744
135	0xbe1929e4	-0.14957386
136	0xbd4630f3	-0.048386525
137	0xbd95c5c1	-0.07313109
138	0xbd833ae1	-0.06407715
139	0xbe0d9201	-0.13825227
140	0xbe1360d5	-0.14392407
141	0xbddf74e6	-0.109109685
142	0xbdcf0b2f	-0.10109555
143	0xbe2df15f	-0.16986607
144	0xbd4c0f23	-0.049819123
145	0xbdfd6a9f	-0.12373852
146	0xbd887116	-0.066621944
147	0xbde2ac9f	-0.11068081
148	0xbc0e65e6	-0.008691287
149	0xbd98e799	-0.07466049
150	0x3dbe32e8	0.09287053
151	0x3e1d1843	0.15341286
152	0x3dd9e1cd	0.10638771
153	0xbcbdc700	-0.02316618
154	0xbd85bdfc	-0.06530377
155	0x3d920299	0.07129402
156	0x3dfaafc3	0.12240555
157	0x3d8962f4	0.06708327
158	0x3cb3d6b4	0.021952964
159	0xbd9a7a8d	-0.07542906
160	0x3dffab0b	0.12483796
161	0x3c205831	0.0097866515
162	0x3e0a8c22	0.13530019
163	0xbd3123c0	-0.043246984
164	0xbda01ec2	-0.078183666
165	0x3d3c045e	0.045902602
166	0x3dd424b5	0.10358564
167	0xbd301b0f	-0.042994555
168	0xbd4fcbdd	-0.05073153
169	0x3d84a89d	0.06477473
170	0xbd48f70b	-0.049063724
171	0x3b9ab567	0.004721332
172	0x3a172eda	0.00057671743
173	0xbd8a709e	-0.06759761
174	0xbd66914a	-0.056290902
175	0xbd8bc136	-0.068239614
176	0x3d3b80d8	0.04577717
177	0x3d832687	0.06403833
178	0x3d075ef3	0.033049535
179	0xbd467586	-0.048451923
180	0xbd98f147	-0.07467895
181	0xbd4a16b0	-0.049338043
182	0xbd29c15f	-0.04144418
183	0x3c2d9127	0.010593689
184	0xbd5d3228	-0.05400291
185	0x3d971334	0.073767096
186	0x3d38c241	0.04510713
187	0x3cc9a6cf	0.024615673
188	0x3c72561f	0.014791041
189	0x3d35cfbf	0.044387575
190	0xbd764215	-0.060121614
191	0xbdb5a689	-0.08869655
192	0x3c59944f	0.013279988
193	0x3d38ac59	0.04508624
194	0x3d5d543c	0.05403541
195	0xbdba714e	-0.091036424
196	0x3cdcf4c2	0.026972178
197	0xbd2c10b8	-0.04200813
198	0xbd87d917	-0.066332035
199	0xbcc950a6	-0.024574589
200	0xbd188d06	-0.037243865
201	0xbc941691	-0.018077167
202	0xbd3c2fae	-0.04594391
203	0x3d671ea0	0.05642569
204	0xbd1b2482	-0.037876613
205	0xbd8e5789	-0.0695029
206	0xbddf6c51	-0.109093316
207	0xbdad2989	-0.08455188
208	0xbc8a5b9c	-0.016889386
209	0x3d2fdd66	0.04293575
210	0xbdf16c59	-0.11788244
211	0xbaff2ca3	-0.0019468259
212	0xbb6d140a	-0.0036175274
213	0xbdf737b4	-0.120711714
214	0xbc0bff93	-0.00854482
215	0xbb689163	-0.0035487048
216	0x3cdb0f35	0.02674065
217	0xbd354a76	-0.044260465
218	0xbd9fe935	-0.078081526
219	0xbdc31e0c	-0.09527215
220	0xbdd38112	-0.103273526
221	0xbdb4fed2	-0.088376656
222	0xbd2ec4d0	-0.042668164
223	0x3a066b2f	0.0005127666
224	0x3d25f442	0.040516146
225	0xbd9e7576	-0.07737248
226	0xbc5c3b7d	-0.0134419175
227	0x3c929e5f	0.017897783
228	0x3d4083dd	0.047000755
229	0xbd047a45	-0.032343168
230	0xbc66cdf9	-0.014087194
231	0xbd7ee084	-0.062225834
232	0xbc6dd49b	-0.014516021
233	0x3c46ae0a	0.012126455
234	0xbd219ee7	-0.03945818
235	0x3cd79d83	0.026320225
236	0x3beba61c	0.0071914326
237	0xbb8a0be1	-0.004212842
238	0xbc550ae8	-0.0130030885
239	0xbcbd489c	-0.023105912
240	0xbcdde84a	-0.027088303
241	0xbda38ea2	-0.079861894
242	0xbca1de94	-0.019759454
243	0xbc819ba1	-0.01582128
244	0xbdc2f9ec	-0.09520325
245	0xbd5fe83f	-0.054664847
246	0xbcaebb05	-0.021329412
247	0x3d08495c	0.033273086
248	0xbdb49e71	-0.08819283
249	0xbc8281b1	-0.015930982
250	0xbc87c714	-0.01657442
251	0xbd86715c	-0.0656459
252	0xbdbd9a77	-0.092579775
253	0xbdb21981	-0.08696271
254	0x3c3ed0ac	0.011646431
255	0x3c0269ea	0.007959822

features.7.bias f4 [16]
0	0xbc470204	-0.012146477
1	0xbd0db1d8	-0.034593433
2	0xbc7b2067	-0.01532755
3	0xbdca365d	-0.0987365
4	0xbcd76dab	-0.026297411
5	0xbd62fa05	-0.05541422
6	0x3d89cf38	0.06728977
7	0xbd8cad14	-0.068689495
8	0xbd8fecbe	-0.07027577
9	0xbd18ebbb	-0.037334185
10	0xbd2bc5d8	-0.041936725
11	0xbc781260	-0.0151411
12	0x3d833519	0.06406612
13	0xbe54a45f	-0.20765828
14	0xbd363bee	-0.044490747
15	0xbde96266	-0.11395721

features.10.weight f4 [32, 16, 5, 5]
0	0xbcbf2804	-0.02333451
1	0xbc976643	-0.01848138
2	0xbd28229c	-0.04104863
3	0x3d18bbfd	0.037288655
4	0xbd911fdc	-0.07086155
5	0x3da162d7	0.0788018
6	0xbcd62eaf	-0.026145307
7	0xbd31f5ed	-0.043447424
8	0xbca5797e	-0.020199534
9	0x3d45af55	0.048262913
10	0x398acc0b	0.00026473435
11	0x3d28a6f6	0.04117485
12	0xbd18a624	-0.03726782
13	0xbc8cf081	-0.017204525
14	0x3c2af89d	0.010435251
15	0xbd82ddbc	-0.06389949
16	0x3ce593e2	0.028024618
17	0xbc544143	-0.012955013
18	0x3b61da90	0.0034462549
19	0x3d1b022a	0.03784386
20	0xbd050b02	-0.0324812
21	0xbd822de9	-0.06356413
22	0xbd7afa94	-0.061274126
23	0x3d749d9c	0.05972062
24	0x3da09bc7	0.07842212
25	0x3cbdd32d	0.023171986
26	0xbd4cd406	-0.05000689
27	0x3d6f8737	0.05847856
28	0x3d18c939	0.037301276
29	0xbcf9d050	-0.030494839
30	0x3d8f3787	0.06993013
31	0x3e0ee7b7	0.1395558
32	0x3dc2b890	0.09507859
33	0xbb664e28	-0.00351418
34	0xbb715c12	-0.003682856
35	0xbc9db164	-0.019249626
36	0x3c869689	0.016429203
37	0xbd69fa7a	-0.05712364
38	0xbcb730f7	-0.022362215
39	0x3dacf281	0.084446914
40	0x3d3f4adb	0.046702247
41	0x3c1a3d69	0.009414055
42	0x3c58ec23	0.013239893
43	0xbd7fc901	-0.06244755
44	0x3d7c253e	0.061558954
45	0xbd3e4ed6	-0.046461903
46	0x3c83b4ce	0.016077425
47	0x3c170430	0.009217307
48	0xbc494b9a	-0.012286091
49	0x3d3982a7	0.045290615
50	0xbe6e6363	-0.232801
51	0xbe57207b	-0.21008484
52	0xbe337cde	-0.17528102
53	0xbab9e915	-0.0014183844
54	0xbca2964a	-0.019847054
55	0xbd3548f2	-0.04425902
56	0xbc68cd18	-0.014209054
57	0xbd4d18b9	-0.050072405
58	0x3e9b72e0	0.3036108
59	0x3eb5155c	0.35367858
60	0xbe1470ce	-0.14496157
61	0xbd1173d5	-0.035510857
62	0xbe20b1ee	-0.15692875
63	0x3e644156	0.22290549
64	0x3e2a1ccc	0.16612548
65	0xbdb967a2	-0.090529695
66	0xbe946eb0	-0.28990698
67	0xbe365e8b	-0.17809503
68	0xbd05cc23	-0.032665383
69	0xbd1c59e1	-0.038171653
70	0xbde5eeb7	-0.11227172
71	0xbe8a0341	-0.26955608
72	0xbe21b32d	-0.15791006
73	0x3c9b2793	0.018939769
74	0x3ce236a0	0.027613938
75	0x3ce570a7	0.028007818
76	0xbd3e6509	-0.046483073
77	0x3cf306b1	0.029666277
78	0xbdbfc015	-0.093628086
79	0x3c88cc2f	0.016698925
80	0x3c9c01b2	0.019043777
81	0x3ce1d54a	0.027567524
82	0xbbc75219	-0.006082785
83	0xbd9af846	-0.07566886
84	0xbd8209bd	-0.06349514
85	0x3ce2fc63	0.027708238
86	0xbd7e50e1	-0.06208885
87	0xbca5375a	-0.020167995
88	0xbb8819b5	-0.004153455
89	0xbd5340ef	-0.051575597
90	0xbdb3b664	-0.087750226
91	0x3c54b11a	0.012981677
92	0xbdb48452	-0.088143006
93	0xbcd3c3cc	-0.0258502
94	0x3bd39e3f	0.0064580734
95	0xbd7d292c	-0.061806843
96	0x3882c414	6.2354055e-05
97	0xbca6b22e	-0.020348635
98	0xbd3c433f	-0.04596257
99	0x3bfbc12a	0.007682939
100	0x3d3a7de9	0.045530234
101	0x3b5a1426	0.003327617
102	0x3d5b07e2	0.053474315
103	0xbd8503b3	-0.06494846
104	0xbca74209	-0.02041723
105	0x3da1c8c9	0.07899625
106	0xbc79fa9f	-0.015257507
107	0x3daad9a6	0.083422944
108	0xbcf7268f	-0.030169753
109	0x3d6eb4e3	0.058277976
110	0x3b5a2b44	0.0033289948
111	0x3cc7b2e2	0.02437729
112	0xbddcd5f3	-0.10782995
113	0xbd2890a2	-0.041153558
114	0xbe02a153	-0.12756853
115	0xbd490c93	-0.049084257
116	0x3db4ce70	0.08828437
117	0xbd263d4c	-0.0405858
118	0xbd990397	-0.07471388
119	0xbddb7971	-0.107165225
120	0x3d4cb937	0.049981322
121	0x3ba6f6b3	0.005095327
122	0x3d39b068	0.04533425
123	0x3bff04a7	0.007782537
124	0x3b8864c5	0.0041624033
125	0x3c8acccd	0.01694336
126	0xbc90728a	-0.017632741
127	0xbdb41c46	-0.08794455
128	0xbd0343e4	-0.032047167
129	0xbdbbd574	-0.09171572
130	0xbd8d725a	-0.069065765
131	0xbde7071d	-0.112806536
132	0xbc0412db	-0.008061136
133	0xbd0cc079	-0.034363244
134	0xbe0a634e	-0.13514444
135	0x3d965805	0.07341007
136	0x3cd4c451	0.025972517
137	0x3d1038a1	0.035210256
138	0x3ca1d064	0.019752689
139	0xbd38fee4	-0.045164958
140	0xbb6c2ff5	-0.0036039327
141	0x3d4fd66c	0.050741598
142	0xbd50941e	-0.050922506
143	0xbd15f765	-0.036612887
144	0xbdcce5ee	-0.10004793
145	0xbc857a18	-0.01629357
146	0xbd719a60	-0.058985114
147	0xbbb9157b	-0.0056483126
148	0xbcbd2433	-0.02308855
149	0xbdb00689	-0.085949965
150	0x3dbfd20c	0.09366235
151	0x3d491a74	0.049097493
152	0x3e1e459b	0.1545624
153	0x3e138e81	0.1440983
154	0x3da9b11d	0.08285735
155	0x3cd02d42	0.025412206
156	0x3d897db6	0.067134306
157	0x3dad5196	0.08462827
158	0x3d4a01d5	0.049318153
159	0x3dd733c8	0.10507923
160	0xbd2f388b	-0.042778533
161	0xbdc7eed6	-0.09762351
162	0x3d28c987	0.041207816
163	0x3d8fe5bb	0.070262395
164	0x3dc9ffd5	0.09863249
165	0xbe42ecf9	-0.1903571
166	0xbdb3febf	-0.08788823
167	0xbdb2ae72	-0.08724679
168	0x3c3ff718	0.011716627
169	0x3d2c274b	0.04202966
170	0xbe8bc60f	-0.27299544
171	0xbe7a37e6	-0.24435386
172	0xbdebb911	-0.11509908
173	0xbe0c9181	-0.1372738
174	0xbdd2a926	-0.10286169
175	0xbec70464	-0.38870537
176	0xbe2e3ae4	-0.17014652
177	0xbeaeaccd	-0.34116212
178	0xbf006899	-0.50159603
179	0xbe60f4db	-0.21968405
180	0xbdae6d45	-0.08516935
181	0x3d2b3870	0.04180187
182	0xbe77dffd	-0.24206538
183	0xbecd52f5	-0.40102354
184	0xbe5b4b02	-0.21415332
185	0x3d2e4a12	0.042551108
186	0x3cc3138b	0.02381303
187	0xbc38abb8	-0.01127141
188	0xbd977131	-0.073946364
189	0xbc0a7ad1	-0.008452133
190	0x3e4deef6	0.20110688
191	0xbd00591c	-0.03133498
192	0xbdc237eb	-0.09483322
193	0xbd53d1bf	-0.0517137
194	0xbc88b765	-0.016689012
195	0x3e357f82	0.17724422
196	0xbc975f56	-0.018478077
197	0xbddfe20c	-0.10931787
198	0xbd91ac0f	-0.07112896
199	0x3d8425f5	0.06452552
200	0x3de718b6	0.1128401
201	0x3d0da491	0.03458077
202	0x3de4e71f	0.11176895
203	0x3d1a0dc0	0.03761077
204	0xbdb8c8cd	-0.09022675
205	0x3e34dc76	0.17662224
206	0x3e1c1bba	0.15244952
207	0x3de89cb9	0.113580175
208	0x3d2f8b76	0.04285761
209	0xbcc8554e	-0.024454739
210	0x3d079e2c	0.03310983
211	0x3cd79ba0	0.026319325
212	0x3be72a2c	0.007054588
213	0x3d90049a	0.07032128
214	0x3cd4094e	0.025883343
215	0xbcaca7a4	-0.021076031
216	0xbd72837d	-0.05920743
217	0x3c9ddac8	0.019269362
218	0xbc04101b	-0.0080604805
219	0xbc407689	-0.011747011
220	0xbe0c0b6d	-0.13676234
221	0xbdb22df7	-0.08700173
222	0xbd7c71a9	-0.061631832
223	0xbb348b40	-0.002754882
224	0x3da7253d	0.081613995
225	0x3d03db9f	0.03219187
226	0x3cfb472e	0.03067359
227	0xbcf0f598	-0.029413983
228	0xbe18c62e	-0.1491935
229	0xbdd194b8	-0.10233444
230	0xbca531cc	-0.020165347
231	0x3d160c7c	0.036633
232	0x3d117770	0.035514295
233	0xbdc3ae4e	-0.0955473
234	0xbdd43f42	-0.10363628
235	0x3d8e4333	0.06946411
236	0x3da85051	0.08218444
237	0x3bff40f5	0.007789726
238	0xbd5dde26	-0.054166935
239	0xbe07997e	-0.13242146
240	0x3e053071	0.1300676
241	0x3dec2d73	0.11532106
242	0x3d2a5599	0.04158554
243	0xbc375815	-0.011190434
244	0xbe765fc9	-0.24059977
245	0x3e540cab	0.20707957
246	0x3e4f8fc0	0.2026968
247	0x3e07de86	0.1326848
248	0x3d48727c	0.048937306
249	0xbe6096a5	-0.21932466
250	0x3d397010	0.045272887
251	0x3cf6632c	0.030076586
252	0x3d143693	0.03618486
253	0x3c081f1c	0.008308198
254	0x3c8155d6	0.015788
255	0x3dd84156	0.10559337

features.10.bias f4 [32]
0	0xbdb19c72	-0.08672418
1	0xbdbff446	-0.09372763
2	0xbd48c9c3	-0.04902054
3	0xbe14e945	-0.1454211
4	0x3d97124b	0.07376536
5	0xbde89424	-0.113563806
6	0x3e076633	0.1322258
7	0x3a863afd	0.0010240969
8	0xbe1eb2f9	-0.1549796
9	0x3d691239	0.056902144
10	0xbc89eaf1	-0.016835662
11	0xbb904393	-0.0044025867
12	0xbbe75ee7	-0.007060874
13	0xbda23d59	-0.079218574
14	0xbd9e8aa1	-0.07741285
15	0x3d8e56be	0.069501385
16	0x3cd6eb01	0.026235105
17	0x3d1396f2	0.036032625
18	0xbd61820d	-0.055055667
19	0xbe6bb0c2	-0.23016647
20	0x3c8e878e	0.017398622
21	0x3cce0a3b	0.025151363
22	0x3aeabb1c	0.0017908546
23	0x3daa096a	0.08302577
24	0x3cdd7143	0.027031546
25	0xba851272	-0.0010152592
26	0x3d87182f	0.065964095
27	0xbdb3063f	-0.08741426
28	0xbe3934d3	-0.18086557
29	0x3d89864d	0.06715069
30	0xbb162f5e	-0.0022916417
31	0x3c655daa	0.013999382

features.12.weight f4 [32, 32, 5, 5]
0	0xbd5342cc	-0.051577374
1	0x3a163fb1	0.00057315367
2	0x3d0894ad	0.033344913
3	0x3c965801	0.01835251
4	0x3cd6c607	0.026217474
5	0xbe8165a0	-0.25272846
6	0xbe219cef	-0.15782522
7	0xbe116d63	-0.14201884
8	0xbe2f0787	-0.17092715
9	0xbe3ee30b	-0.18641298
10	0xbe06de27	-0.13170682
11	0xbe027d7c	-0.12743181
12	0xbd8bb866	-0.068222806
13	0xbe006d12	-0.12541607
14	0xbdb88f28	-0.0901168
15	0xbc3c7d3b	-0.011504467
16	0x3da080a4	0.07837036
17	0x3da69b91	0.08135141
18	0x3c35dde2	0.011100264
19	0x3d3e4db2	0.046460815
20	0x3d6332bb	0.055468302
21	0x3df4ae33	0.11947288
22	0x3dbb1722	0.091352716
23	0x3dff5373	0.124670886
24	0x3c8ca46b	0.017168244
25	0xbe3b3d98	-0.18285215
26	0xbc13c4a6	-0.009019053
27	0xbc752a7f	-0.014963745
28	0xbde5ac15	-0.11214463
29	0xbd80458e	-0.062632665
30	0xbdc12fe4	-0.094329625
31	0xbdafd1a7	-0.0858491
32	0xbb0e64d0	-0.002172757
33	0x3d15a79e	0.036536805
34	0x3befa696	0.0073135598
35	0xbdd96b10	-0.10616124
36	0xbd7da762	-0.061927207
37	0xbdeeba04	-0.116565734
38	0xbd6d0a90	-0.0578714
39	0xbd2b6515	-0.041844446
40	0xbe6bb0b5	-0.23016627
41	0xbe144fdb	-0.14483587
42	0xbe728ae0	-0.23685789
43	0xbe3b21a0	-0.18274546
44	0xbe51c029	-0.2048346
45	0xbda3bb97	-0.07994764
46	0xbd96f44a	-0.07370813
47	0xbe98f9b3	-0.29878005
48	0xbe7756cb	-0.24154203
49	0xbd4c09f2	-0.049814172
50	0x3ccfb0ac	0.025352798
51	0xbdc01c78	-0.0938043
52	0xbe0a27c0	-0.13491726
53	0xbd8cd3d0	-0.068763375
54	0xbe06b717	-0.1315578
55	0x3c3ef868	0.011655904
56	0xbc07468b	-0.008256565
57	0x3c8863e8	0.016649202
58	0xbe4aecf8	-0.19816959
59	0xbe4be4f9	-0.19911565
60	0xbdad60d9	-0.08465738
61	0xbe3ca7a4	-0.18423325
62	0xbe0a2aee	-0.13492939
63	0x3d415b33	0.047206115
64	0x3d95ade1	0.073085554
65	0x3ddbf7fb	0.10740658
66	0x3dd62036	0.104553625
67	0x3d6398cb	0.055565637
68	0xbe143cb4	-0.14476281
69	0x3d548818	0.0518876
70	0x3d3e6072	0.046478696
71	0x3e5e7fcd	0.2172844
72	0x3d155b12	0.036463805
73	0xbd81bde1	-0.06335045
74	0xbd0be741	-0.034156088
75	0xbc648e30	-0.013949916
76	0xbc6d16e4	-0.01447079
77	0xbd476d04	-0.04868795
78	0x3d86d97d	0.06584451
79	0x3d42c69f	0.0475527
80	0xbd13de2f	-0.036100563
81	0x3d0cb991	0.034356657
82	0x3ce851f8	0.028359398
83	0xbcd659e8	-0.026165918
84	0x3d40ebac	0.047099754
85	0xbd8ac48f	-0.06775772
86	0xbcde9608	-0.02717115
87	0xbe04a1d9	-0.12952365
88	0x3c1ef6f3	0.009702432
89	0xbc44fc00	-0.012022972
90	0x3d3d77d0	0.04625684
91	0xbdd86e65	-0.10567931
92	0x3d36d27a	0.04463432
93	0xbcf3f158	-0.029778168
94	0x3cea674e	0.028613713
95	0x3d956e6f	0.07296454
96	0xbdc06eec	-0.09396157
97	0x3c94b3f0	0.018152207
98	0x3d714ff1	0.05891413
99	0xbd5da993	-0.054116797
100	0xbbc2ca0c	-0.005944496
101	0x3c85daf8	0.016339764
102	0xbe1d572b	-0.15365283
103	0xbdcc1f96	-0.09966962
104	0xbe04dbdd	-0.12974496
105	0x3bc7248f	0.006077356
106	0x3d7a183c	0.061058268
107	0xbd9b9cea	-0.07598288
108	0xbd364fbf	-0.044509646
109	0xbe22a9bb	-0.1588506
110	0xbdea4dc1	-0.11440612
111	0xbdf25bd7	-0.11833923
112	0xbd9af680	-0.075665474
113	0xbde188c0	-0.11012411
114	0xbe1f3517	-0.15547596
115	0xbe1ee2bf	-0.15516184
116	0xbe2f5a1d	-0.17124219
117	0xbe00b294	-0.12568122
118	0xbe6fab0b	-0.23405091
119	0xbe2495d0	-0.16072774
120	0xbe2fd0d6	-0.17169508
121	0xbe286e5b	-0.16448347
122	0xbe4c7612	-0.19966915
123	0xbdf5e185	-0.12005905
124	0xbe0ec16a	-0.13940969
125	0xbe0fcee6	-0.14043769
126	0xbe33af29	-0.17547287
127	0xbe4b0f8a	-0.19830146
128	0xbd936272	-0.07196511
129	0xbd98e0a0	-0.07464719
130	0xbe74dc20	-0.23912096
131	0xbdf34281	-0.11877919
132	0xbd0a6a9e	-0.033793084
133	0x3d923736	0.07139437
134	0x3e31cef6	0.17364106
135	0xbe33aace	-0.17545626
136	0xbddbc412	-0.10730757
137	0x3d32b9b9	0.04363415
138	0x3e08a2ba	0.13343325
139	0x3e1ee0b1	0.155154
140	0xbba95da3	-0.005168633
141	0x3dca2141	0.09869624
142	0x3de13808	0.10997015
143	0x3e321ab3	0.17392997
144	0x3e256cdf	0.16154812
145	0x3dbd44a1	0.092416056
146	0x3cb75f9b	0.022384455
147	0x3d8aa384	0.067694694
148	0x3d9c6959	0.07637281
149	0x3d87f3aa	0.06638272
150	0xbcbdbdb0	-0.02316174
151	0xbd200aec	-0.039072916
152	0x3b9a1362	0.0047020176
153	0x3d4a745f	0.049427386
154	0xbb7bee4d	-0.00384416
155	0x3c886fa8	0.016654804
156	0x3b896b41	0.004193694
157	0x3ba8a003	0.005146028
158	0xbd387a02	-0.04503823
159	0xbd6cced4	-0.057814434
160	0xbdda32c6	-0.106542155
161	0xbddf262a	-0.10895951
162	0xbdcab873	-0.09898462
163	0xbd28c914	-0.041207388
164	0xbdc7eb6d	-0.09761701
165	0xbe1cc6ed	-0.15310259
166	0xbd71879c	-0.058967218
167	0xbe0fd727	-0.14046918
168	0xbde4140a	-0.11136635
169	0xbe38e4b7	-0.18055998
170	0xbe0ff7b0	-0.14059329
171	0xbcf75174	-0.030190207
172	0xbcc09890	-0.023510247
173	0xbd0af8eb	-0.033928793
174	0xbe023c19	-0.12718238
175	0xbd6d139e	-0.057880037
176	0x3d5b7d2b	0.053586166
177	0xbd016b95	-0.03159674
178	0x3cea1185	0.028572807
179	0x3bd23194	0.0064146016
180	0xbd0c3820	-0.034233212
181	0xbd0f1145	-0.03492858
182	0xba398995	-0.0007077691
183	0xbd6c190a	-0.057641067
184	0xbb94b8b3	-0.0045386194
185	0xbd586741	-0.052832846
186	0xbc915f9b	-0.017745784
187	0x3d08991b	0.033349138
188	0xbc83dd8d	-0.016096855
189	0xbcf69e1c	-0.03010469
190	0xbd5b946e	-0.05360835
191	0xbd832453	-0.06403413
192	0x3cca18e9	0.024670081
193	0x3ce65346	0.02811588
194	0x3d76ccff	0.060254093
195	0xbd2b28cf	-0.041786965
196	0xbd8ec143	-0.069704555
197	0xbdfa341d	-0.12216971
198	0xbbdd45cf	-0.0067527066
199	0x3d59567d	0.053060997
200	0xbdedc747	-0.11610275
201	0xbd710651	-0.058843914
202	0xbc476528	-0.012170114
203	0xbd1f82ab	-0.038942974
204	0xbca5a247	-0.020218981
205	0xbce61b37	-0.028089149
206	0x3b3bcae0	0.0028654858
207	0x3d52c130	0.05145377
208	0xbca5eefb	-0.020255556
209	0x3d2be0b3	0.041962337
210	0xbe93a3cb	-0.28835902
211	0xbe5dc525	-0.21657236
212	0xbe5af40a	-0.21382156
213	0xbe4058f7	-0.18783937
214	0xbe3e121b	-0.18561594
215	0x3c77cdc7	0.015124745
216	0x3c16cb19	0.009203696
217	0xbdc296e5	-0.09501437
218	0xbe6d9c0c	-0.23204058
219	0xbe91f1e3	-0.28504857
220	0x3cf2a4b0	0.029619545
221	0x3d6b70de	0.057480685
222	0xbdc3750e	-0.09543811
223	0xbdf190e5	-0.117952146
224	0xbe02994b	-0.12753789
225	0x3ce25027	0.02762611
226	0xbdb5262a	-0.0884517
227	0xbdb973dc	-0.090553015
228	0xbd315349	-0.043292318
229	0x3d877975	0.06614963
230	0xbca7eb4d	-0.020497942
231	0xbd15dedb	-0.036589485
232	0xb9a87363	-0.00032129427
233	0x3da02a07	0.07820516
234	0x3d985474	0.07437983
235	0xbdeb418f	-0.11487114
236	0xbc11e2ff	-0.008904218
237	0xbc2bbdde	-0.01048228
238	0x3c20ea57	0.009821496
239	0x3d3512b1	0.04420728
240	0x3d0f320d	0.03495984
241	0x3cf4fd49	0.029905932
242	0x3d770856	0.060310684
243	0x3db570f1	0.088594325
244	0x3d9431a1	0.072360285
245	0xbc6ae5ba	-0.014336998
246	0xbcf0ad4c	-0.02937951
247	0xbb8147f0	-0.003945343
248	0x3cef0455	0.02917687
249	0xbc83eefd	-0.01610517
250	0x3cbe0a93	0.023198402
251	0x3c9cb538	0.01912938
252	0xbdb8b6b3	-0.09019222
253	0x3be27129	0.0069104624
254	0xbdea2e59	-0.11434621
255	0xbd49e473	-0.04929013

features.12.bias f4 [32]
0	0xbd5d2d90	-0.05399853
1	0xbce093ba	-0.027414192
2	0x3dc187e0	0.09449744
3	0x3daf1a0b	0.08549889
4	0xbd8c0004	-0.068359405
5	0xbbd32699	-0.00644381
6	0x3d714954	0.05890782
7	0xbe1c8ea0	-0.15288782
8	0x3c2e6ca7	0.010646022
9	0xbd4990b0	-0.04921025
10	0xbd08ed92	-0.03342969
11	0xbd1a17ca	-0.037620343
12	0xbd1a934a	-0.037738122
13	0xbd84a0d3	-0.06475987
14	0xbb8bd166	-0.0042669056
15	0x3d09e22f	0.03366297
16	0x3d66e3a5	0.056369442
17	0xbd962f49	-0.07333238
18	0xbdad1bbf	-0.08452558
19	0xbdafdafd	-0.085866906
20	0x3b99cfe7	0.0046939733
21	0xbd2466ee	-0.040137224
22	0x3d3621c7	0.044465806
23	0x3d82046c	0.063485
24	0x3ddd9640	0.108196735
25	0x3d0cb221	0.034349564
26	0xbd211559	-0.039327
27	0xbe00d41e	-0.12580916
28	0x3db3d600	0.08781052
29	0x3d94da76	0.072682306
30	0x3e1d0753	0.15334825
31	0xbd05c55f	-0.03265893
