output/models/220323_0811_ggcnn2-test2/epoch_40_iou_0.74_statedict.pt (torch, 274205 bytes, 20 tensors)

features.0.weight f4 [16, 1, 11, 11]
000000 0b 8d b3 3d 4e bc 5f 3d 0e 87 da 3d 63 6d 94 3d
       0.08767136 0.05462294 0.10670291 0.07247426
000010 05 b6 0d 3d f9 95 31 3d 47 e8 c3 3d 71 b2 16 3d
       0.034597415 0.043355916 0.09565788 0.03679127
000020 3a 32 d2 3d ac 00 70 3d 14 30 f2 3d 1f ba 07 bd
       0.10263486 0.05859439 0.118255764 -0.033136483
000030 72 96 d2 bb e4 d1 b2 3d db 02 96 bc 1f aa b0 3d
       -0.006426626 0.0873144 -0.018311908 0.08626198
000040 52 45 38 bc 4f d0 1e 3d 49 21 9e 3d 16 af bb 3d
       -0.011246996 0.038772877 0.077211924 0.09164254
000050 60 64 f6 3d 61 91 ce 3d 9e 09 e5 3c 9e bb 44 3d
       0.12030864 0.100863226 0.027958687 0.04803049
000060 9a ed 04 3c 95 4a 0d 3c 37 5d 5d 3d 90 27 d2 3b
       0.008113289 0.008623739 0.054043975 0.0064134076
000070 c6 b3 60 3d 5c e9 01 3e 99 cb ba 3d b9 32 47 3d
       0.054858945 0.12686676 0.091208644 0.048632357
000080 b1 2c 03 3e 39 bf 91 bd 48 6a 6c bd 64 55 b1 bd
       0.12810017 -0.07116551 -0.057718545 -0.08658865
000090 df a6 db bd 08 02 ad bd 14 cd 85 bd ea 3f da bc
       -0.107251875 -0.08447653 -0.06533256 -0.026641805
0000a0 43 87 02 bd 91 e9 6a 3b 9a 30 35 3b fd 29 67 3c
       -0.031867277 0.0035844783 0.0027647377 0.014109132
0000b0 8b f4 a6 bd 50 0a b1 bd 64 7c ab bc 9c 4b 69 bc
       -0.081521116 -0.08644545 -0.020933338 -0.014239218
0000c0 1a 62 34 bd ef 7e ab bd 4b 13 69 3b 46 87 0b 3c
       -0.04403887 -0.0837382 0.0035564478 0.008516138
0000d0 95 b1 8e bd f6 b3 8c bd 9a 3f 17 bd d2 05 be bb
       -0.06967465 -0.06870262 -0.03692589 -0.0057990337
0000e0 07 1d b6 bc 9f ce 69 bd d0 fa a4 3c a3 58 05 3d
       -0.022230638 -0.057081815 0.020139128 0.032555234
0000f0 cf 2a f9 bc cb 78 1e bd 00 7a af bc 1d 62 3b 3c
       -0.03041592 -0.038689416 -0.021420479 0.011436966
000100 fa 7a 20 3d c0 00 bd bc d3 60 d2 ba 46 a1 9c 3c
       0.03917978 -0.023071647 -0.0016050584 0.01911987
000110 e3 55 63 3d a8 f2 1c bd 16 fe 87 bc 7d 17 4f bc
       0.05550183 -0.038317353 -0.01660065 -0.012639877
000120 d7 7e ef 3b a3 b1 53 ba 21 df 8d bc 49 a3 10 3c
       0.0073088217 -0.0008075481 -0.01731831 0.008827993
000130 32 0e 1c bd c6 cb e6 3c c9 e4 ca bc 69 b2 2d 3d
       -0.038099475 0.028173339 -0.024767296 0.042406473
000140 c4 ff c3 bb 17 eb 36 bd f5 3d 02 bc 53 3d 36 bd
       -0.0059814174 -0.044657793 -0.007949342 -0.044492077
000150 a5 82 54 bc a7 c8 2c bd d7 9a d3 bc 33 b1 ac bc
       -0.012970601 -0.042183544 -0.02583067 -0.021080589
000160 39 f3 06 3d b8 f8 25 bd 8f 18 97 3c 99 7e 05 3c
       0.0329468 -0.0405204 0.018444328 0.008147859
000170 70 f0 e6 3b 39 8b d1 bc a3 18 e3 bc 82 29 1d 3d
       0.0070477054 -0.025579082 -0.027721709 0.038369663
000180 4a 4e 96 3b 44 3c 0c bd aa 2a a7 ba 61 b9 1e 3d
       0.0045869695 -0.03423716 -0.0012753804 0.03875101
000190 0d 3e 3d 3d c7 ad 51 3d cf 5a e0 bc e4 b7 58 bc
       0.046201754 0.051191118 -0.02738705 -0.013227437
0001a0 18 6a cc bc 78 36 32 bd 06 41 cf 3c 63 5a 92 3c
       -0.024952933 -0.043508977 0.02529956 0.017865365
0001b0 95 dc ee 3b 01 8b 19 3d 44 7b 14 3d aa 24 19 3c
       0.007289479 0.03748608 0.036250368 0.00934712
0001c0 8c 87 ca bc 73 ac 58 bd 42 7b c8 3b 79 84 ce bc
       -0.024722837 -0.052898835 0.006118209 -0.025209652
0001d0 d9 e6 1e bd 74 48 2a 3d b9 d9 1a 3d 88 d2 b3 3a
       -0.038794372 0.041573003 0.037805293 0.0013719359
0001e0 71 ba 52 3d 07 18 09 3a 28 3f 76 39 8f 16 9a bc
       0.051447336 0.00052297156 0.00023483916 -0.018809585
0001f0 3e 31 37 bd e6 7d d8 bc 9c dd a9 3c 4e cd 77 3c
       -0.044724695 -0.02642722 0.020735554 0.015124632
000200 57 20 f6 bc 4a 37 02 bd 79 09 5e bd e4 49 0e 3d
       -0.030044718 -0.03179101 -0.054208253 0.034738436
000210 93 24 11 bd 54 5f fe bb 35 d2 31 bd 57 ad 21 bd
       -0.03543527 -0.007762829 -0.04341336 -0.03947195
000220 6f b1 9e 3c 33 eb 36 3c 1a 40 48 bd 6d c6 cf bc
       0.019371716 0.011164474 -0.048889257 -0.025363171
000230 b2 0e ef 3b d0 f7 4f bd 5b 92 8f 3c c2 ce 67 3d
       0.007295453 -0.05077344 0.017525842 0.056593664
000240 ee a8 48 3d 69 0f ee 3a 32 f8 26 3d 79 b2 23 3d
       0.04898923 0.0018162552 0.04076404 0.039965127
000250 86 09 45 3d d5 16 26 bd 8c 91 0d 3d 9b 78 0a bd
       0.048104785 -0.040549118 0.034562632 -0.033806425
000260 d1 20 cd bc f3 77 04 bc c7 9a 40 3d 29 21 72 bc
       -0.025040062 -0.008085239 0.047022607 -0.014778414
000270 07 ff 95 3c 51 e7 36 bd f5 b6 1d bc b6 19 e5 ba
       0.018310083 -0.044654194 -0.00962614 -0.0017478976
000280 22 59 3d 3c ea 32 8b ba 41 18 75 3c 42 3e a2 3c
       0.011556895 -0.0010620032 0.014959396 0.019805077
000290 a7 ec 1a 3d 4d 2f 54 bd 3c 1a ee bc 07 08 87 bc
       0.037823346 -0.051802922 -0.029065244 -0.01648332
0002a0 c3 85 32 3d ce 43 0b 3b f6 b6 a3 3c db 01 ba 3b
       0.043584596 0.0021250132 0.019984704 0.0056764907
0002b0 a5 c4 0b 3d ac b8 de bc 21 32 52 3b b8 eb 17 3b
       0.03412308 -0.027187668 0.0032073336 0.002318127
0002c0 3b c3 57 bd 40 32 30 3d ca 5c 42 bc db 68 e6 bc
       -0.05267642 0.043016672 -0.011862943 -0.02812617
0002d0 c1 99 48 3b 98 00 69 3c 52 b2 44 3c 40 8e 60 3d
       0.0030609223 0.014221333 0.0120054055 0.05482316
0002e0 c4 d2 4c bc f1 7c a6 bc 48 f1 16 3d 78 15 1a 3d
       -0.012501422 -0.020323249 0.036851197 0.03761813
0002f0 58 56 ee bb 02 f6 19 bd 1f 5b 84 bc 20 da ca 3c
       -0.0072734766 -0.037588127 -0.016156731 0.024762213
000300 02 dd 1e bd b8 c5 35 bd 3c e8 29 bd 21 4a 09 3d
       -0.03878499 -0.044378012 -0.04148124 0.03351796
000310 f3 b1 09 3d c7 62 4e bc 32 20 25 bd 31 33 8b 3a
       0.03361697 -0.012596793 -0.040313907 0.0010620115
000320 89 a4 2a 3d 9b 4e 40 3c 60 56 8d bc 0f ee 45 bd
       0.04166082 0.011737491 -0.0172531 -0.048322733
000330 46 8e 2d bd f7 cf 38 3d 33 73 e8 3c fd da 23 bd
       -0.04237201 0.045120206 0.028375244 -0.040003765
000340 99 da 43 bc 9b fc 07 3d 5e 3d 96 bc 73 5a 4f 3d
       -0.011953973 0.033199888 -0.018339809 0.05062337
000350 68 57 27 3d e5 c6 8e bc 16 a0 f2 bc 9e fc 40 bd
       0.04085484 -0.017428825 -0.02961735 -0.047115915
000360 81 aa 41 bd 04 db 8b bc 42 84 90 3b 91 6a 4c bd
       -0.047281746 -0.017072208 0.0044102976 -0.049906317
000370 4d 93 10 bc b0 4c 2a bd b2 0b 51 bd 41 fb 4c bd
       -0.008824182 -0.04157704 -0.051036544 -0.050044302
000380 d2 a8 7d bc a6 d5 22 3d 81 94 48 bd 92 64 d5 3b
       -0.015482144 0.039754532 -0.04896975 0.006512233
000390 19 71 32 bc 47 36 e3 bb c3 af 00 bd a4 de 38 3d
       -0.010891222 -0.0069339606 -0.03141762 0.0451342
0003a0 93 80 b2 3c d1 4d 4c 3d 6f b3 5f 3d 23 bb 39 3d
       0.021789825 0.0498789 0.05461448 0.045344483
0003b0 f7 32 84 bc 28 95 15 3d 62 1e 3e 3d 90 29 db 3c
       -0.016137583 0.0365192 0.046415694 0.026753217
0003c0 38 81 85 3d 86 2f 6c 3d d7 41 c0 3b dd 27 db 3c
       0.06518787 0.05766251 0.0058672237 0.026752407
0003d0 d2 28 ad 3c ac ac 65 bc 50 01 1c bd c3 16 60 bd
       0.021137629 -0.014018219 -0.03808719 -0.054709207
0003e0 32 7f 0e 3d 96 6f fd 3b 76 80 b3 3c 5a a4 a2 3b
       0.03478927 0.0077342493 0.02191184 0.00496344
0003f0 d9 1b 86 bc 38 be 56 bd 9e 69 2a bd bd 58 b1 ba
       -0.0163707 -0.0524275 -0.04160463 -0.0013530474

features.0.bias f4 [16]
000000 f1 0a b6 be e7 d1 46 be f1 b4 1c be 3f 95 82 be
       -0.35555223 -0.19416009 -0.15303399 -0.2550449
000010 6b 5a 75 3d f5 5b 38 bf f5 e5 de be 4b 0b 4f be
       0.059900682 -0.72015315 -0.43534818 -0.20219152
000020 f0 77 d6 be 44 12 84 bd 42 7f 17 be 4f 15 b7 be
       -0.4188838 -0.064487964 -0.14794639 -0.35758445
000030 7e 13 15 3f 14 ba 4a be 2c d8 72 3d 93 76 1d 3f
       0.5823287 -0.19797546 0.05928819 0.61509055

features.2.weight f4 [16, 16, 5, 5]
000000 4b 89 11 bd 7e 38 c1 bd 0e 46 ec bd 65 08 90 3c
       -0.035531323 -0.09434603 -0.11536799 0.017582128
000010 d0 7e cd 3d 15 95 8e 3c e9 a5 83 bd 24 17 78 bb
       0.10033953 0.017405072 -0.06428129 -0.003785559
000020 64 49 51 bd dc 6e ab bc dd 5f 2f be 03 dd 34 be
       -0.05109538 -0.020926885 -0.17126413 -0.17662434
000030 76 51 8d bd 52 56 cb 3d 9f 98 1d bd fc 13 d7 bd
       -0.06900303 0.09928574 -0.03847563 -0.105018586
000040 a4 cb 0d be cf 24 0e 3d f0 26 3a bc 9d 3c f3 bc
       -0.13847214 0.034703072 -0.0113618225 -0.029691989
000050 db 92 72 bd 0a 3d c2 bd 08 80 99 bc cd 1d da 3d
       -0.059222084 -0.094842985 -0.018737808 0.10650215
000060 65 a5 24 bc 47 e4 b2 3d 90 8a 9c 3c 31 7c bb 3d
       -0.010049199 0.08734947 0.01910904 0.09154547
000070 bf d3 cd 3b 1c d7 cd 3b 57 0a fe 3a ed 5b 35 3d
       0.0062813456 0.0062817466 0.0019381744 0.04427712
000080 ef 9d 5b bd fe 64 15 be 4e 3b 2a be 6c 65 c8 3d
       -0.053617414 -0.14589307 -0.16624185 0.0978497
000090 91 03 85 3d 2a 3b 3b 3b aa 99 63 3d 47 81 32 3d
       0.06494821 0.00285692 0.055566467 0.04358032
0000a0 7c 9a fa 3d fb 36 2d 3d 32 a3 cc 3c d4 70 2d bd
       0.12236497 0.04228876 0.024980161 -0.04234393
0000b0 3c 14 b4 bd 73 1c a5 3b 8c 55 a7 3d a3 1e 76 bd
       -0.08792922 0.005038792 0.08170614 -0.06008781
0000c0 ce 39 a4 bd fe ea af bc 2a cc c2 bd c3 e7 26 bd
       -0.08018838 -0.021474358 -0.095115975 -0.04074837
0000d0 2a 93 5e 3c ed 78 63 bd 44 46 43 bd 90 94 de 3c
       0.013584891 -0.055535246 -0.047674432 0.02717045
0000e0 28 f8 af bd e2 da 19 3c bf d6 5e bd 3c be 1b be
       -0.08592254 0.009390565 -0.054404017 -0.15209287
0000f0 2a e4 1d be 70 f9 1b bd 90 f3 04 bd 2e 0d c8 bc
       -0.15419069 -0.03807968 -0.03245884 -0.024420347
000100 2d 8b 08 be 80 67 40 bd db e5 cf bd 5e 49 3f be
       -0.13334341 -0.046973705 -0.10151263 -0.18680331
000110 1a 50 81 bd 80 78 5f bd 6e 89 2b bd 32 b1 40 be
       -0.06314106 -0.054558277 -0.04187911 -0.18817595
000120 ac 24 3c bd 6f eb f4 bd 8a 86 50 be 22 e5 fc bc
       -0.04593341 -0.11958968 -0.20363823 -0.030870978
000130 f6 dc 85 bd f2 4c 2c be bf c0 2e be 67 49 79 be
       -0.065362856 -0.16826227 -0.17065714 -0.24344407
000140 7d 56 9c 3d 05 53 3e 3d c3 00 26 be 8a 48 f6 bd
       0.07633684 0.046465892 -0.16211228 -0.120255545
000150 c2 6b 1a be 53 04 3e 3e 6e 20 dc 3d 74 62 e9 3c
       -0.15080169 0.18556337 0.10748373 0.028489329
000160 aa a4 56 bd a3 85 f3 bd d4 86 ff 3d 1b 26 1f 3c
       -0.05240313 -0.118907236 0.12476888 0.009713675
000170 d8 5f 12 bc fd 9d 86 bd 83 2a 8a 3d fb db 23 3d
       -0.008933984 -0.065731026 0.0674639 0.04000471
000180 40 cf 59 3d 44 cd ab bc f3 87 f7 3c 41 a8 40 bd
       0.053176165 -0.020971902 0.030216193 -0.04703546
000190 e7 58 0b be ef c3 92 bc 9b c5 83 bd 98 9f 2d bd
       -0.13608132 -0.017915694 -0.064341746 -0.04238853
0001a0 c2 9b 4a 3d 69 df e3 3d a2 19 d0 3d 09 26 7b 3d
       0.04946495 0.111265965 0.10161139 0.06131557
0001b0 f1 49 a9 3c 8b d4 d6 3d 76 60 f8 3d 7b a6 96 3d
       0.02066514 0.10489758 0.121277735 0.073559724
0001c0 ca d4 08 3e af 40 0a 3e 06 1b dc 3d c2 08 55 3e
       0.13362423 0.13501237 0.10747342 0.20804122
0001d0 01 04 18 3e cd 9f e8 3d 16 10 51 3d a5 7a 3a bb
       0.14845277 0.113586046 0.05104073 -0.002845445
0001e0 a8 54 10 3d 29 b2 dd 3c e7 35 ad bd 95 ce be bd
       0.035236984 0.027062492 -0.08457547 -0.09316746
0001f0 6d 6e 51 be be 64 11 bd 85 5c c2 bd 04 d3 5d 3d
       -0.2045228 -0.035496466 -0.09490303 0.05415632
000200 41 0e 29 bd cb a0 dc bc 29 b1 4d bd be cb 0e be
       -0.04127336 -0.02693214 -0.05021778 -0.13944909
000210 fb 87 fa 3b de 50 cb 3c 78 8e 1d bd a3 d3 ff bc
       0.0076456047 0.024818834 -0.038465947 -0.031228846
000220 38 0b cd bd db 2f a2 bc 60 ba 80 bd 39 e5 90 bd
       -0.100119054 -0.01979821 -0.06285548 -0.07074971
000230 d9 6c f7 bd 56 13 c1 bd 72 4e 00 be 2b 4f 5a bd
       -0.12081308 -0.09427516 -0.12529925 -0.053298157
000240 ec 5a 3b be af f0 25 bd db 17 d4 bd 86 4e 9e bd
       -0.18296403 -0.040512737 -0.103561126 -0.07729821
000250 08 c5 fc bd 25 df f7 bd 78 40 3e 3e 97 98 f3 3d
       -0.12342268 -0.12103108 0.1857928 0.118943386
000260 6f 09 8c 3d ac 83 21 3e 6e a7 08 3d 33 e5 8e bc
       0.06837737 0.15772885 0.0333628 -0.017443275
000270 d0 1e 6f bd 8c ba b2 bd d6 bf 7d 3d f5 d3 4b bd
       -0.058378994 -0.08726987 0.061950527 -0.049762685
000280 19 83 09 be 13 f3 38 be b0 f8 8f bd 5a 2b 94 bd
       -0.13428916 -0.18061475 -0.07029855 -0.07234831
000290 b2 27 54 bd e3 b8 c0 bd 25 e4 7a bd b7 ec 30 be
       -0.05179567 -0.09410264 -0.06125273 -0.172778
0002a0 5f 34 a5 bd 1b 4d 29 bc 56 7d b1 bd 06 2f 3e be
       -0.080666296 -0.010333325 -0.08666484 -0.18572626
0002b0 7b ef 88 bd 5d 49 a7 bd 5d 03 82 3c 97 a1 8a bb
       -0.06686302 -0.0816829 0.015870744 -0.004230689
0002c0 b3 3e b0 3d 52 64 3f bd 61 59 59 3d 0c 29 9a 3d
       0.08605709 -0.046726532 0.053063754 0.0752736
0002d0 19 9c 59 3d c6 79 2e bd 11 8e 0f bd 97 76 ae 3d
       0.053127382 -0.0425966 -0.035047594 0.08518713
0002e0 bb 13 01 3c 93 c5 81 3d c2 b6 6d bd 98 81 0c 3d
       0.007878239 0.063365124 -0.05803562 0.034303278
0002f0 6a b4 7e 3d e2 75 7c 3b f9 0c ad bd ce 08 f0 3c
       0.062183775 0.0038522412 -0.0844974 0.029301073
000300 b4 5f a2 3d 41 3f 0a bd 49 1b 14 bd 86 39 90 bd
       0.0792841 -0.03375173 -0.036158834 -0.07042222
000310 65 e8 d9 bd 87 91 c0 bd 38 a8 f4 bc 67 6e 93 bc
       -0.10640029 -0.09402757 -0.02986537 -0.01799698
000320 db 48 2e 3e c8 37 2f 3e 4d 39 4f 3d 71 3f f0 bb
       0.1701998 0.17111123 0.050591756 -0.0073317816
000330 3b 61 3c be fc 42 19 3e 51 fd 2c 3e 8e 1d c5 bc
       -0.18396465 0.14966959 0.16893508 -0.024061944
000340 53 75 0c be 05 d2 61 bc 1e a3 c7 bd 5e c1 9e 3b
       -0.1371663 -0.013782983 -0.09747909 0.0048448285
000350 a6 76 34 be 6e 14 45 be 66 3c 01 be 23 cc 81 bd
       -0.17623386 -0.19246075 -0.12620696 -0.06337764
000360 f4 14 04 be af d1 02 be be f5 83 be 57 cc 9c be
       -0.12898618 -0.127753 -0.25773424 -0.3062465
000370 f4 59 ff bc b6 7f 31 be 2e b4 37 be 23 db b7 be
       -0.031170823 -0.17333874 -0.17939827 -0.35909376
000380 de 3d 8e be 3a 5c a7 3c 97 69 98 3d 20 75 b1 3d
       -0.27781576 0.02042972 0.07442015 0.08664918
000390 c8 47 9f 3d ae fe 3f bc 1c c7 0e 3e 0d f0 fb 3d
       0.07777363 -0.011718435 0.13943142 0.123016454
0003a0 3e 42 c0 3d d1 1d 39 3d 5c f7 de bd 46 f0 04 bd
       0.09387635 0.04519445 -0.10887024 -0.032455705
0003b0 8c b9 d6 bc b6 46 83 bd 3e 77 1f bc 09 e1 37 be
       -0.026211523 -0.064099714 -0.009733019 -0.17956938
0003c0 5f a7 e4 3b f7 fd 62 bd 39 49 ba bc 5e 96 17 be
       0.00697796 -0.05541798 -0.022739993 -0.14803454
0003d0 8a 12 69 be ec 0c 3a be ca f0 62 be ee e7 23 be
       -0.22760978 -0.18168992 -0.22162166 -0.16006443
0003e0 74 e7 85 be 61 d7 85 be 89 53 d5 bc b3 67 26 3b
       -0.26153147 -0.26140884 -0.02604081 0.00253914
0003f0 b4 b5 bb bd 16 79 16 bd 94 9e 11 3d 26 70 af 3c
       -0.091655165 -0.03673657 0.035551623 0.021415781

features.2.bias f4 [16]
000000 fb bb 70 bc c2 16 2f bd 86 5b 44 bd 31 02 86 bd
       -0.014693256 -0.042746313 -0.047938846 -0.06543387
000010 04 70 74 bd c8 38 8f be 1d 08 02 bc 9e 9a da bd
       -0.05967714 -0.27973008 -0.007936505 -0.10674022
000020 0f b1 d6 ba f4 06 44 bd b8 1f 6c bd df 4f b9 3c
       -0.0016379672 -0.047858194 -0.057647437 0.022621093
000030 5d f7 c3 bc 8d e9 93 be 41 2d 72 bd 48 99 1c bd
       -0.023921663 -0.28889123 -0.05912519 -0.038232118

features.5.weight f4 [16, 16, 5, 5]
000000 7b db e1 3b e0 47 b0 bd 71 66 a2 bd d1 7c dd bc
       0.006892619 -0.08607459 -0.079296954 -0.027037056
000010 23 ad e1 bc 6b 39 4a bb ce e1 fe 3a 77 88 db bd
       -0.027548378 -0.0030856978 0.0019445957 -0.10719388
000020 39 c0 7d bd fd 56 9e bc 58 b5 52 bd 04 8a 8b bc
       -0.061950896 -0.019328589 -0.051442474 -0.017033584
000030 b6 47 9e bd e2 36 15 bd ba a6 e7 bd 82 86 d2 bd
       -0.077285215 -0.036429293 -0.113110974 -0.102795616
000040 f5 c9 4e bd 53 e6 21 3c 03 88 48 3c f3 5b fa bd
       -0.05048557 0.009881574 0.012239459 -0.12224569
000050 7e d3 bd bb 34 5a e9 bd 25 08 7b bd 78 4e 27 3d
       -0.005793034 -0.11394158 -0.061287064 0.040846318
000060 7f 37 f0 bd 10 bc ba bc 50 b1 28 3d a8 70 29 bd
       -0.11729335 -0.022794753 0.041184723 -0.041367203
000070 4c c4 9a bd ec bf 9b 3c 04 a2 fd bc ab 33 ad bd
       -0.07556972 0.019012414 -0.030961044 -0.084571205
000080 06 04 82 bd 21 9c 1f bd de 78 06 3d 74 47 8c 3c
       -0.06348424 -0.038967256 0.03283011 0.017123915
000090 9e 69 d8 bc c4 6c 7f 3d 40 50 82 3b b0 69 36 3d
       -0.02641755 0.062359586 0.0039768517 0.044534385
0000a0 59 5f 8b bd f2 91 a6 3d 4c 54 91 3d 80 90 a9 bc
       -0.068052955 0.081333056 0.070961565 -0.020698786
0000b0 1f 12 33 bd 40 3e 9c bd 7c 35 0c bd 89 03 6d bd
       -0.043718453 -0.07629061 -0.034230694 -0.0578647
0000c0 00 7e 9e 3a 52 cb 82 3d 94 af 92 bc 12 bf 36 3c
       0.0012091994 0.063864365 -0.017905988 0.011153953
0000d0 68 94 1a 3d 70 2a 83 3b 6e c0 e9 bb 5b c2 22 bd
       0.037739187 0.0040028617 -0.007133535 -0.039736133
0000e0 81 59 35 bd be 89 09 bd 9d d0 74 3d cf af f8 3c
       -0.04427481 -0.033578627 0.05976926 0.03035727
0000f0 08 ae 57 3d 5d af 91 bd f3 a8 92 3d 81 af fc 3c
       0.052656204 -0.07113526 0.07161131 0.030845406
000100 df 16 ac 3d 1b 85 b4 bd 72 a5 42 bd df 4e 47 bd
       0.084028 -0.0881445 -0.047521062 -0.0486592
000110 87 56 93 bd dc bc 89 3b 0e f1 fc 3c 28 fa 3b bd
       -0.07194238 0.004203422 0.030876663 -0.045892864
000120 88 5e 79 3d c1 41 5e bd 75 13 84 bd ac 5e 0a be
       0.060881168 -0.054261927 -0.06449024 -0.13512677
000130 00 e3 eb b8 b3 a4 32 3b 58 e4 ba bc 52 51 4a bd
       -0.00011247955 0.0027258813 -0.02281396 -0.04939396
000140 90 01 f2 bd 0a 0f 2d bd 44 60 09 bd 2b 85 1e bc
       -0.11816704 -0.04225067 -0.03353907 -0.009675304
000150 2d e7 94 bd ea 51 ab bd 1f 9c 48 3c 1c e5 b3 3c
       -0.07270656 -0.08365233 0.012244253 0.021959834
000160 b5 68 38 bc 38 85 0e 3d 98 98 96 bd 46 63 11 3b
       -0.011255433 0.034795016 -0.07353324 0.0022184416
000170 dd 96 14 bd 6a 92 0f bd 29 8f 0c 3c af 94 11 bd
       -0.036276687 -0.03505174 0.008579054 -0.035542186
000180 d2 86 4d bd 2c bb 05 3c a6 37 00 3d 50 87 09 3c
       -0.050177403 0.008162301 0.03130307 0.008394077
000190 0d d5 8a bd 09 b7 b6 ba 23 e4 4e 3d 1a f2 ac bd
       -0.067789175 -0.0013940047 0.050510537 -0.08444615
0001a0 25 4b ce 3a 25 ec b6 ba d3 76 de 3c 50 4c a2 3d
       0.0015738948 -0.0013955875 0.02715627 0.07924712
0001b0 e1 1a 17 bc 96 c2 4a bc 7e 2b 4a bd 0b 7a c9 bd
       -0.009222717 -0.012375494 -0.049357884 -0.09837731
0001c0 7a cd 09 3d 4c 78 8a bd e2 3d a6 3c cf 8d 38 bd
       0.033643223 -0.06761226 0.02029318 -0.045057114
0001d0 97 52 f3 3c 56 4e 5b 3d c0 b5 a6 3d 4a 61 02 3b
       0.029702468 0.053541504 0.08140135 0.0019894415
0001e0 69 4e 79 bc 19 28 b5 bd 6c 87 99 bc d6 cd 16 bd
       -0.015216448 -0.08845539 -0.018741332 -0.036817394
0001f0 23 1b 60 3d 9f 4a 24 bd 13 1b 95 bd 8a be bc bc
       0.05471338 -0.040110227 -0.072805546 -0.023040075
000200 be a8 88 3d ad 38 99 bd 39 91 28 bd f0 4a 33 bd
       0.0667281 -0.07481513 -0.04115412 -0.043772638
000210 d3 cc 71 3c 0f db bd bd c0 63 75 3d 51 9f 36 bd
       0.014758307 -0.09270298 0.059909582 -0.04458553
000220 60 e1 2e bb b3 0d 03 bd 5c 3a 6f 3d 07 8a b3 bd
       -0.0026684627 -0.031995486 0.058405265 -0.08766561
000230 f0 16 d3 bc 6e 25 c9 bc dc d8 b0 bc 69 70 d9 3c
       -0.025767773 -0.02455398 -0.021587782 0.02654286
000240 ee 31 4f bd 9a 33 55 bd f7 c2 33 3d 64 d9 d4 bd
       -0.050584726 -0.052051164 0.043887105 -0.103930265
000250 fe 11 cf bc ca 7a 3f 3c 53 47 c6 bd 8a 10 94 bd
       -0.025277134 0.01168699 -0.09681573 -0.07229717
000260 db 14 05 3d d4 98 18 3c 5e 90 59 bd 39 4d 9f 3b
       0.032490592 0.009313781 -0.053116195 0.0048615006
000270 51 05 b3 bd 0c 33 5d 3c 40 6d d4 bd 19 27 3f bc
       -0.087412484 0.01350094 -0.103724 -0.011667036
000280 5a 8c a5 bb 99 bb 69 bd 44 55 e2 bd 26 01 fb bd
       -0.0050521316 -0.057063673 -0.110514194 -0.122560784
000290 b3 0e b3 3c ab 92 b1 3b 81 2e d6 bd 71 78 bc bd
       0.021857595 0.0054190955 -0.10458089 -0.0920266
0002a0 7b 74 00 bd d5 fa fd bd b8 0b d4 bd de 3c e2 bc
       -0.031361084 -0.12401358 -0.10353798 -0.027616914
0002b0 52 fc fc bd 21 8f 96 3c a3 be af bc db 9d 16 bc
       -0.12352814 0.018378796 -0.021453207 -0.009192909
0002c0 0e 83 0b bd 54 a6 50 3d e4 7f 05 bb 2d d1 80 3d
       -0.03406053 0.050939873 -0.0020370418 0.06289897
0002d0 40 f8 68 ba ef ae cf 3c 4c 8c ee bc 42 74 ad bc
       -0.000888709 0.02535197 -0.029119633 -0.0211736
0002e0 19 89 1f bd 6d 19 2b 3d 66 ed b0 bd 45 9e 46 bd
       -0.038949106 0.041772295 -0.0863903 -0.04849078
0002f0 75 38 b3 3d e1 0c ba bc c0 33 8d 3d a8 d8 97 bd
       0.08751003 -0.02271122 0.06894636 -0.07414371
000300 5d 5f 42 3d 0b ae 0d 3d 87 95 33 bd 69 6d 77 bd
       0.047454227 0.03458981 -0.043843772 -0.060407076
000310 9d a8 07 bd 77 a3 de bc 50 b2 8d 3d 9e c6 ad 3d
       -0.033119787 -0.027177555 0.06918776 0.08485149
000320 5e e9 ab bc 73 ac d5 bc 20 3d 9d 3d b0 75 09 3d
       -0.020985302 -0.026083207 0.07677674 0.0335595
000330 44 06 34 bc 7b 9b e0 bd 23 28 09 bd a4 9a 85 3c
       -0.010987822 -0.109671555 -0.033485543 0.01630909
000340 b8 5e 0c bc 77 2b b5 bd 7c a3 69 3c fb 20 a2 bd
       -0.008567505 -0.08846181 0.014260169 -0.07916447
000350 03 83 22 bc d3 8c be bd ce 1b 4f bc a7 0c 6c 3d
       -0.009918931 -0.09304204 -0.0126409065 0.057629254
000360 5e 6e b3 3c a7 93 ae bc 00 b6 8d bd a2 82 41 bd
       0.021903213 -0.02131064 -0.06919479 -0.04724372
000370 52 6d d0 3b 95 90 85 3d 28 4a 43 bd f1 94 0e bd
       0.0063606882 0.065217175 -0.047678143 -0.03481001
000380 44 9e 7d bd f3 3c 9f bd a5 94 7b bd f0 6d 3a bc
       -0.061918512 -0.07775297 -0.061421055 -0.01137875
000390 fb 43 b7 3b 83 1c c3 3b 6d ad de bd ea f0 93 bd
       0.0055928207 0.0059543266 -0.10872922 -0.07223685
0003a0 d1 c0 79 bd 9e 8f ff bd 81 bc c5 3c 7b d6 77 bd
       -0.0609749 -0.12478565 0.024137737 -0.06050728
0003b0 e4 10 79 3c 7b dd dd 3c 10 3f 0b 3c 79 c7 1a bd
       0.015201781 0.02708315 0.008498922 -0.03778789
0003c0 78 8d 9d bd 57 35 ed bd a3 f7 ba bd 3e 81 f8 bd
       -0.07692999 -0.115824394 -0.09129264 -0.12134026
0003d0 5b 91 ff bd 64 98 9b bd e9 9c 89 3c 13 ba 9d 39
       -0.12478896 -0.075974256 0.016798453 0.0003008401
0003e0 a2 df 8c bb a1 e1 3f bd 83 22 aa 3b 2c 52 6b 3d
       -0.00429912 -0.046846036 0.0051921024 0.057451412
0003f0 c8 cc bb bd a5 fe 22 bd 03 70 62 bd 44 a5 16 bc
       -0.09169918 -0.03979363 -0.055282604 -0.009194676

features.5.bias f4 [16]
000000 65 20 50 bd 75 72 02 bd e1 67 f5 3c ab e4 d4 3a
       -0.050812144 -0.031847436 0.02995676 0.0016242465
000010 84 30 52 bd 53 5b 7b bd 9c 77 23 bd 8e 48 12 bd
       -0.0513158 -0.06136639 -0.03990899 -0.035713725
000020 ac 19 07 bc d9 9a 06 bd 93 d6 5c bd d8 e3 bc bd
       -0.008245867 -0.032862518 -0.05391557 -0.09223145
000030 cb e9 90 bd ac fe 25 bd 3d 08 0b be 46 bf 9e bd
       -0.070758425 -0.040526077 -0.13577361 -0.07751326

features.7.weight f4 [16, 16, 5, 5]
000000 56 b4 69 bc a7 9c 06 bd 69 f9 7c bd c1 f3 94 bc
       -0.014264187 -0.03286424 -0.061761294 -0.018182637
000010 ea 29 fa bc 5c b3 49 bd c7 29 ba bd 06 91 4a 3d
       -0.030537564 -0.049243316 -0.0909 0.04945471
000020 8d 90 76 bd 03 5b 2d bd fb 1a f4 bc df 12 9d 39
       -0.060196448 -0.042323124 -0.029798022 0.00029959434
000030 20 7e a2 bd c2 8b a5 3d 37 40 62 3d 37 4d 5f 3d
       -0.07934213 0.08083297 0.05523702 0.054516997
000040 07 f2 82 bd 0a fc 78 bd ca 94 51 bd ed 98 e6 bc
       -0.06393819 -0.06078724 -0.051167287 -0.028149093
000050 3e 41 14 bb 67 f6 a4 3d 1e 5b d6 3c 11 4a a8 bd
       -0.0022621895 0.0805481 0.026166495 -0.08217252
000060 fc ee 8d bd 95 3d 1f bd 4d 03 64 3d 2c 02 02 3d
       -0.06930348 -0.03887709 0.05566721 0.031740353
000070 d2 17 5c 3d 9f 89 95 bd 9a e8 04 bc 39 87 fc bc
       0.053733654 -0.0730164 -0.008112097 -0.030826198
000080 76 c0 28 bd c8 f0 c6 bd 33 c5 70 3b ea 0e 7c 3d
       -0.04119917 -0.09713894 0.0036738634 0.06153766
000090 24 24 3d bd 50 4b 68 bd 5b 5c ab bb 35 c6 93 bd
       -0.046177045 -0.05671245 -0.0052295155 -0.07215539
0000a0 fa 9c a0 bc 08 7e 16 bd e4 48 86 bd 73 5d 81 3c
       -0.019606102 -0.036741287 -0.065568715 0.01579163
0000b0 60 62 91 3d d6 a8 0b bd b9 f5 4e 3d df 59 37 3b
       0.07098842 -0.03409656 0.050527308 0.0027977151
0000c0 ae f3 14 3d 4c be ca 3c 35 8d 94 3e ee 59 90 3e
       0.036365204 0.024748944 0.29013982 0.2819361
0000d0 af bd ad 3e 89 f4 bf 3e 6e f4 80 3e a7 57 52 3d
       0.3393378 0.37491253 0.25186485 0.051353123
0000e0 2a 42 14 3e 61 88 cd 3d 8a 89 9a 3d 8c a7 81 3d
       0.14478365 0.10035778 0.07545765 0.06330785
0000f0 b1 86 98 bc 1e 59 8a 3d dc c0 e7 bb 3e 40 85 3d
       -0.018618913 0.06755279 -0.007072551 0.06506394
000100 b2 da 9c bc 43 a4 a2 3c ac 39 1c bd 1d 32 6d 3d
       -0.01914725 0.019853717 -0.038140938 0.05790912
000110 35 3b 2e bd ac 32 be bb 12 c9 20 bd d3 1b 5c bc
       -0.042536933 -0.0058043804 -0.039254256 -0.013434368
000120 4b 46 dd 3c 3b 70 0a 3d 37 98 06 bd 23 ec 54 bd
       0.027011057 0.033798438 -0.032860007 -0.05198301
000130 c9 85 2a bd 85 9b 87 bd 68 02 5e 3e 21 c2 1c be
       -0.041631494 -0.0662146 0.21680605 -0.1530843
000140 ab df dd bc 5d 83 2e be d4 19 1a 3d 4b 49 14 3e
       -0.027084192 -0.17042299 0.037622288 0.14481084
000150 ef 2e 2c be 0c 00 da 3c 9e 13 a3 39 21 ec 90 3d
       -0.16814779 0.02661135 0.000311044 0.07076288
000160 a1 7d a2 3e f6 76 48 bd 16 dc fe bd a9 41 8c be
       0.31736472 -0.048941575 -0.12444322 -0.27393845
000170 b6 db 1b bd f0 47 22 3e 51 17 1e be f8 b3 62 be
       -0.03805133 0.15847754 -0.15438582 -0.22138965
000180 82 7c d4 be b8 4e 83 3d 72 f0 5d 3e 04 2e 76 be
       -0.41501242 0.06411499 0.21673754 -0.24040991
000190 f6 45 ae 3d 79 f1 50 be 0f 0e 15 be ef c1 86 3d
       0.08509438 -0.20404615 -0.14556144 0.06579959
0001a0 7e da b8 bd 75 91 35 3c 73 1c f4 bd 04 c3 ca bc
       -0.09026049 0.011082043 -0.11919489 -0.024751194
0001b0 79 3e a6 bd 38 82 65 ba 78 90 27 3e b7 e7 4c 3d
       -0.081173845 -0.0008755061 0.16363704 0.050025668
0001c0 6b 27 45 3e 9b f0 b3 bd 48 d6 84 3c b9 cd 35 3e
       0.19253318 -0.08786126 0.016215459 0.17754258
0001d0 15 6b 7c 3e 7e ed 43 3e a5 9e bb bd 49 01 c1 3d
       0.24650224 0.19133565 -0.091611184 0.09424073
0001e0 d5 c3 0b 3e f1 54 64 3e e4 4e df 3d e1 60 bf bd
       0.13648923 0.22298028 0.10903719 -0.0934465
0001f0 d2 12 41 3c 9c ae 04 bd f3 fb 99 bd 7c ef 21 be
       0.011784272 -0.032393083 -0.075187586 -0.15814012
000200 66 7a 27 be 6e ac 2e be 1f 74 42 be 2b 28 5d be
       -0.16355285 -0.17057964 -0.18989609 -0.21597354
000210 22 7c 39 be a3 cd 9a be 28 d8 9f be da 4a 62 bc
       -0.18113759 -0.30235013 -0.31219602 -0.013811791
000220 b6 9e 20 3d 6d e1 b8 bc 8a 52 63 bd 62 a7 fe bd
       0.03921386 -0.022568429 -0.055498637 -0.124342695
000230 55 83 3d be 8d 50 76 be a3 07 4c be b9 66 9d be
       -0.1850713 -0.24054165 -0.19924788 -0.30742434
000240 f7 3c 60 be d3 c0 3e be ea ac 00 be c5 f9 c2 bd
       -0.21898256 -0.18628244 -0.12565961 -0.09520296
000250 52 a9 eb 3c 74 6a 2f bd 4c 2d 80 bd 1b ab a3 3c
       0.028767262 -0.04282613 -0.0625864 0.01997905
000260 58 8e 53 3c db 76 17 be 6d 0b 1d be 98 c5 8f 3d
       0.012912355 -0.14791434 -0.1533639 0.0702011
000270 46 3c 08 3e 00 ac f6 3d 46 35 c6 3c e6 2f a9 bd
       0.13304242 0.12044525 0.024195325 -0.08261089
000280 97 71 ec 3d 15 3a 07 3c 72 3f 34 3e 6a 5b 01 bd
       0.11545103 0.008253594 0.17602327 -0.03158132
000290 17 93 55 bd 00 08 c2 3d 8a 65 5e 3e 65 1b 6c 3d
       -0.05214223 0.09474182 0.21718422 0.057643313
0002a0 3e 28 6d 3d 64 9c 21 3e 04 0d 7d bd a4 97 2f 3d
       0.057899706 0.15782315 -0.06177999 0.042869225
0002b0 6f b4 93 3d 47 d8 62 3d 87 bf 8a 3d 36 c1 8b bd
       0.07212149 0.05538204 0.06774812 -0.068239614
0002c0 d8 80 3b 3d 87 26 83 3d f3 5e 07 3d 86 75 46 bd
       0.04577717 0.06403833 0.033049535 -0.048451923
0002d0 47 f1 98 bd b0 16 4a bd 63 4e 29 bd 27 91 2d 3c
       -0.07467895 -0.049338043 -0.04133452 0.010593689
0002e0 28 32 5d bd 34 13 97 3d 41 c2 38 3d cf a6 c9 3c
       -0.05400291 0.073767096 0.04510713 0.024615673
0002f0 1f 56 72 3c bf cf 35 3d 15 42 76 bd 89 a6 b5 bd
       0.014791041 0.044387575 -0.060121614 -0.08869655
000300 4f 94 59 3c 59 ac 38 3d 3c 54 5d 3d 4e 71 ba bd
       0.013279988 0.04508624 0.05403541 -0.091036424
000310 c2 f4 dc 3c b8 10 2c bd 17 d9 87 bd a6 50 c9 bc
       0.026972178 -0.04200813 -0.066332035 -0.024574589
000320 8c e8 ed bd 9e 50 ca bd ab de 00 be 69 ca 6c bc
       -0.116166204 -0.09878658 -0.12584941 -0.014452555
000330 b2 6c d1 bd 87 e0 f9 bd 49 21 28 be dd 53 15 be
       -0.1022581 -0.12201028 -0.16418947 -0.14582773
000340 ea 0d 87 bd 2a ac 50 3a 4d 50 2b be 97 27 4c bd
       -0.06594451 0.0007960225 -0.16729851 -0.049842443
000350 ab b1 3b bd b9 71 1e be ef f1 0c bd 57 cd d5 bc
       -0.045823734 -0.15473069 -0.034410413 -0.02609889
000360 c0 06 11 3c 0f 91 72 bd 83 90 a6 bd a9 e9 c0 bd
       0.008851707 -0.05922037 -0.08133032 -0.09419567
000370 e4 57 00 be 4b 8f c6 bd 3e 45 31 bd aa 83 52 3c
       -0.12533528 -0.096953 -0.043278925 0.012848774
000380 c3 5f 5b 3d 76 75 9e bd 7d 3b 5c bc 5f 9e 92 3c
       0.053558122 -0.07737248 -0.0134419175 0.017897783
000390 dd 83 40 3d 45 7a 04 bd f9 cd 66 bc 84 e0 7e bd
       0.047000755 -0.032343168 -0.014087194 -0.062225834
0003a0 9b d4 6d bc 0a ae 46 3c e7 9e 21 bd 83 9d d7 3c
       -0.014516021 0.012126455 -0.03945818 0.026320225
0003b0 1c a6 eb 3b e1 0b 8a bb e8 0a 55 bc 9c 48 bd bc
       0.0071914326 -0.004212842 -0.0130030885 -0.023105912
0003c0 4a e8 dd bc a2 8e a3 bd 94 de a1 bc a1 9b 81 bc
       -0.027088303 -0.079861894 -0.019759454 -0.01582128
0003d0 ec f9 c2 bd 3f e8 5f bd 05 bb ae bc 5c 49 08 3d
       -0.09520325 -0.054664847 -0.021329412 0.033273086
0003e0 71 9e b4 bd b1 81 82 bc 54 bb ab bc 1a e9 33 bd
       -0.08819283 -0.015930982 -0.020963348 -0.043923475
0003f0 a5 1b 38 3d af 99 54 3d 55 46 30 3d 95 84 2d bd
       0.04494824 0.051904377 0.043035824 -0.04236277

features.7.bias f4 [16]
000000 56 1b 9d bc 3d 4e 91 be 4c 8e 88 bd 49 d6 cf bd
       -0.019178074 -0.28380004 -0.06667766 -0.101482935
000010 f0 b8 a9 bd 72 7f a7 be a8 09 a9 3d 96 1e ca bd
       -0.08287227 -0.3271442 0.08253795 -0.09869115
000020 63 df 03 ba 37 06 62 bd 53 c7 5e bd d2 8c 98 be
       -0.00050305406 -0.05518171 -0.05438931 -0.29794937
000030 6e 57 4f 3d 09 22 ec be 22 cf 17 3c 5d 70 fe bd
       0.05062049 -0.46119717 0.009265693 -0.12423775

features.10.weight f4 [32, 16, 5, 5]
000000 35 7d 89 3e 6b b8 3f 3e b7 49 15 3d 9b c6 56 bd
       0.26853338 0.18722694 0.036447253 -0.0524355
000010 b4 4e 22 be 4d 62 9a 3e 20 a0 87 3e 93 8b d1 3d
       -0.15850335 0.30153123 0.26489353 0.102317
000020 3e 58 23 be 26 0d be bd 0e 0b 14 3d 09 47 93 3d
       -0.1595163 -0.092798516 0.036143355 0.07191283
000030 9b 23 f7 bd 50 71 8f be 6f f6 9f be 7f 8e 55 be
       -0.12067338 -0.28016138 -0.312427 -0.20855139
000040 73 0a 4b bd 7e 56 b8 bd af 01 30 be 7d e4 39 be
       -0.049570512 -0.09000872 -0.17188142 -0.18153568
000050 3b 65 2b be 48 1e 9c be 38 da 80 be 3b c5 78 be
       -0.16737835 -0.30491853 -0.25166488 -0.24293987
000060 ca f5 44 be 39 48 bd 3c 63 f8 09 bd d8 0c fc 3d
       -0.19234386 0.023105728 -0.033684146 0.12307137
000070 d7 e1 85 3e be 85 41 bc 4a 58 0e 3e c4 b0 35 3e
       0.26148865 -0.011811672 0.13900867 0.17743212
000080 b0 18 91 3e b6 d0 80 3e ad 44 ba bd 95 80 63 bd
       0.28339148 0.25159234 -0.0909513 -0.055542547
000090 81 43 f5 3d 02 39 2a bc d2 c6 01 3b 2b a9 02 3e
       0.11975766 -0.010389568 0.0019802344 0.12759845
0000a0 56 44 93 3e 37 1b 45 3e 9a aa 9b 3e 89 1e 3e bd
       0.28763074 0.19248663 0.30403596 -0.04641584
0000b0 e2 44 a4 bd b3 28 c6 3d 50 88 97 3e 02 17 25 3c
       -0.08020951 0.096757315 0.29596186 0.010076286
0000c0 77 38 6c be 44 c5 4c be 2b f5 df bd c2 e5 51 bd
       -0.23068415 -0.19997126 -0.10935434 -0.051244505
0000d0 c9 db 8f 3b 5f 3e 4f 3e 35 64 53 3e 1e fa b4 bd
       0.004390214 0.20238636 0.20643695 -0.088367686
0000e0 41 06 98 bd c4 77 b5 bd b1 8e 7e 3e 3f ed 93 3e
       -0.07423068 -0.08860734 0.2485912 0.28891942
0000f0 90 7b 1f be f7 bb 75 bd ba 83 b9 be 38 a3 74 be
       -0.15574479 -0.05999371 -0.36233312 -0.23890388
000100 0b 48 d6 be d5 5d d3 be 88 d4 ef be b6 17 41 bf
       -0.4185184 -0.41282526 -0.46841836 -0.75426805
000110 23 e2 01 bf e3 0f 46 be 9f ea 0c bf 02 d4 f2 be
       -0.5073568 -0.19341998 -0.55045503 -0.47427374
000120 35 9e c6 be 74 5d 7d bc 81 9a 72 3e 86 ae 8f be
       -0.38792577 -0.0154641755 0.23691751 -0.28062838
000130 68 68 86 bd ef 94 1a 3e 6c af a5 bd c5 da 0c bd
       -0.06562883 0.15095876 -0.080901 -0.034388322
000140 1a 60 e3 be 23 0f 5a be 5d 78 eb 3c dc 69 8c bd
       -0.44409257 -0.21294837 0.028743917 -0.068561286
000150 8e 64 63 be 7e 15 1a bf 45 3a 18 bf 62 0e c8 be
       -0.22206327 -0.60189044 -0.5946391 -0.39073473
000160 1f 43 a2 be e6 c0 c1 be 9c 8f 00 bf 6a 1c 01 be
       -0.31691834 -0.37842482 -0.5021913 -0.12608495
000170 4b 84 6a bd c4 19 78 bd 64 4a 04 3d da 94 9e be
       -0.05725507 -0.060571447 0.032297507 -0.3097294
000180 64 60 59 be fd e3 4e 3d 9c 4b a1 3e 53 4c 0c 3f
       -0.21228176 0.050510395 0.31502998 0.5480396
000190 1d 62 4a 3e 14 ea 28 3e c2 ca 6a 3e 20 1a 6e 3d
       0.1976399 0.16495544 0.22928908 0.058130383
0001a0 73 31 3c 3d 0d 5f 5b 3e 88 64 8a 3d 57 af e8 3d
       0.045945596 0.21422978 0.06757456 0.113615684
0001b0 88 82 03 bc 38 0f b6 3d 6e 75 5d 3e ce 34 1d 3e
       -0.008026727 0.088896215 0.21626827 0.15352175
0001c0 28 4c 53 bd 88 bc e9 bc 6b 46 1b be a9 50 9f bd
       -0.0515863 -0.028532282 -0.15163581 -0.077790566
0001d0 2b ee 10 3d 3d ae f6 3d be 88 45 3d 58 57 ef bd
       0.035383385 0.12044952 0.04822611 -0.116865814
0001e0 aa 62 26 bd 51 76 4e bd c1 a6 ab bc 54 7c ad bd
       -0.040621437 -0.050405804 -0.020953538 -0.08470979
0001f0 f8 cb 15 bd 9e c3 0e bd 02 0d ab bd 4b e9 a0 be
       -0.036571473 -0.034854524 -0.083520904 -0.31427988
000200 3a ce 1f 3b e4 e4 0a be 4a 83 69 3d 28 45 69 be
       0.0024384395 -0.13563877 0.057009973 -0.22780287
000210 03 70 22 bc ca c7 25 3e 8d 6a a6 bd 31 41 d0 3d
       -0.009914401 0.16189495 -0.08125792 0.10168684
000220 ea 81 79 be fb af 1a be 2b 6e 29 be 9d 75 dc be
       -0.24365965 -0.15106194 -0.16545932 -0.43058482
000230 0c 2b 82 3d b6 06 2c 3d ae 55 d3 bd 34 64 26 be
       0.06355867 0.041998588 -0.103190765 -0.16249162
000240 38 dd 44 be d9 44 b4 bd 4d 5f e3 bd 87 2a fd bd
       -0.19225013 -0.08802194 -0.111021616 -0.12361627
000250 d5 c3 91 bd 39 d7 6d be 26 62 16 3e 40 ed a8 3d
       -0.0711743 -0.23226632 0.14685878 0.08248377
000260 eb e9 76 3e 32 e8 28 3e c2 e6 82 3d 30 1f c0 3d
       0.2411267 0.16494825 0.0639167 0.093809485
000270 8f 06 c5 3d 6f fc bd 3d db 17 7e 3d 22 a1 fe 3d
       0.096203916 0.092766635 0.06203447 0.124330774
000280 d4 ad 94 3d f4 6d 91 bd b1 d9 17 3d 04 ce 92 3d
       0.072597176 -0.0710105 0.03707284 0.071682006
000290 cb bb fe 3d b3 66 77 bc a6 ab 9c bc c5 ad 9a 3d
       0.124381624 -0.015100169 -0.019124817 0.07552675
0002a0 7a d3 18 3e e5 10 41 3e 3c f4 d2 be 29 52 b1 be
       0.14924422 0.18854101 -0.4120196 -0.34632996
0002b0 63 8f cc bd 2c 80 8f be cd 73 47 be 66 8a bb be
       -0.09988286 -0.28027475 -0.19477768 -0.36629027
0002c0 44 60 b4 bd 09 8d 99 3d e1 5f 24 be cf b5 06 3e
       -0.08807424 0.074976034 -0.160522 0.13155292
0002d0 b9 7a ef 3c 7b b2 80 3d 03 22 4a be d0 86 9d be
       0.029233323 0.062840424 -0.19739537 -0.30766916
0002e0 fe a7 66 bd 16 1f fa 3d b3 7e 23 bc d9 7f a4 bd
       -0.056312554 0.122129604 -0.009978938 -0.080321975
0002f0 9d 7e b2 bd f3 3d 27 bd f1 60 96 3e 0d c5 c6 bd
       -0.08715556 -0.040830564 0.29370835 -0.09705553
000300 d6 7b a9 be 6d ec b5 bd cf 35 02 3e 23 55 82 3e
       -0.33102292 -0.08882985 0.12715839 0.2545558
000310 7b 2a 0e 3c d3 bf 2a be 94 38 b8 bd 44 77 90 3d
       0.00867712 -0.16674738 -0.089951664 0.07053998
000320 ed d3 f4 b9 ac a3 f4 bd 0f 7f e1 3d f1 bc 2f be
       -0.00046697204 -0.119452804 0.11010563 -0.17161919
000330 61 a4 49 be b4 7f e8 bd 6c a5 b1 3d c2 e6 1f 3c
       -0.19691612 -0.113524824 0.0867413 0.009759607
000340 bd 02 62 3d c3 9f ab bd 72 42 b7 bc 0d 43 c8 ba
       0.055178393 -0.083800815 -0.02237055 -0.0015278772
000350 83 19 20 3c 9c f4 b1 bc 1b d1 69 be 1d a0 b0 bc
       0.0097717075 -0.021723084 -0.22833674 -0.021560723
000360 88 d7 cd bd f5 d8 06 be 05 6e f5 3d d8 f5 2d be
       -0.10050875 -0.131687 0.11983875 -0.16988313
000370 7f 2e 99 be 94 41 77 be ae 53 83 3d 6d f0 a8 3d
       -0.29918286 -0.2414611 0.06412445 0.082489826
000380 e0 4d 38 3e 66 a6 5d 3d 12 ff f4 3c 45 0e b0 bd
       0.17998457 0.054113768 0.029906783 -0.08596472
000390 43 71 71 be 0e f9 61 be 93 da 01 39 5e 70 42 3d
       -0.23578362 -0.22067663 0.00012383824 0.047470443
0003a0 62 d7 36 ba 0d 12 26 be 1c c8 4a be c2 d9 88 3d
       -0.00069748436 -0.16217823 -0.19802898 0.06682159
0003b0 04 a5 a6 3d 22 8e 18 bd 2a 27 12 be e3 36 84 be
       0.08136943 -0.037244923 -0.14272752 -0.25823125
0003c0 91 56 61 3e 15 8f 56 3e 9d b0 ac 3d 0b 62 e3 bc
       0.22005679 0.20953019 0.08432124 -0.027756711
0003d0 18 14 a0 be e2 7e c6 3e 90 28 c3 3e 2f b9 85 3e
       -0.3126533 0.3876868 0.38116884 0.26117846
0003e0 de 73 ff 3d 2f 30 53 be 9b 4b 43 bd a7 82 14 3d
       0.12473272 -0.2062385 -0.047679525 0.036257412
0003f0 53 df 27 3e 7f 18 86 3d 4b 06 30 be cc cf 07 3e
       0.16393785 0.06547641 -0.171899 0.13262862

features.10.bias f4 [32]
000000 1f 87 f6 bd 4f 09 0b be b5 81 08 be ee 2d af be
       -0.12037491 -0.1357777 -0.1333073 -0.3421473
000010 91 2e a2 3d 69 04 1a be e9 47 68 3e 72 5f 63 3d
       0.07919038 -0.15040745 0.22683682 0.055510946
000020 eb 37 45 be 6b dd af 3d 27 20 06 be cd 75 c0 bc
       -0.19259612 0.08587154 -0.13098203 -0.023493672
000030 09 37 31 bd b7 69 f7 bd 74 61 0d be 17 93 8b 3b
       -0.043265376 -0.120807104 -0.13806707 0.004259478
000040 20 9c 88 ba 33 2b b5 bd 81 43 1f be c3 89 c6 be
       -0.0010422505 -0.0884613 -0.15553094 -0.3877698
000050 fb ad e0 ba 0e 12 e6 3c 4a da b1 bd 50 ea cf 3d
       -0.0017141694 0.028084781 -0.086842135 0.101521134
000060 d4 31 19 bd 64 0f 1f bc f5 87 78 3d 34 13 f1 bd
       -0.037401035 -0.009708259 0.060676534 -0.11771241
000070 e5 ec ae be 21 39 0c 3e 09 1a cf bb c9 05 a2 3d
       -0.3416511 0.13693668 -0.0063202423 0.0791126

features.12.weight f4 [32, 32, 5, 5]
000000 4c 77 5b 3d 84 8d ea 3d 73 4b 23 3e c7 13 03 3e
       0.053580567 0.11452773 0.1594675 0.12800513
000010 3e f9 b4 bb 77 85 07 bf a2 b1 bb be 36 cf fa be
       -0.005522876 -0.52938026 -0.3665896 -0.48986214
000020 4a 5c 4d bf 82 e5 36 bf a3 16 a9 be fc 91 a3 be
       -0.80218947 -0.7144395 -0.33025083 -0.31947315
000030 eb 95 ab be 44 24 19 bf 2a 64 05 bf 0f 82 0d be
       -0.33512816 -0.5982096 -0.52105963 -0.13819145
000040 7f f1 00 bc bb 2f 82 bb 2f 87 9d bd c4 8b e4 3d
       -0.007870077 -0.003972975 -0.076918 0.11159471
000050 b1 6c 8b bd c4 14 09 3d 37 af 52 3d 3a 0b f5 3d
       -0.068078406 0.03346707 0.05143663 0.11965032
000060 23 00 08 3e 64 b4 46 be 1d 43 a3 be 5b bb 3b bf
       0.13281302 -0.19404751 -0.3188714 -0.73332757
000070 29 94 06 bf 13 a1 d2 be 93 a6 3f bf 6f 48 16 bf
       -0.52569824 -0.41138515 -0.7486355 -0.58704275
000080 c2 9a 8f be 8c bd b6 3d f6 24 b9 bb b9 21 22 bf
       -0.28047758 0.08922872 -0.005650158 -0.63332707
000090 06 47 09 bf d5 ef ed be 82 70 30 3d 82 ee 24 be
       -0.53624 -0.4647204 0.043076046 -0.16106609
0000a0 07 09 df be 4a 89 a4 be 24 f3 74 be 16 b6 90 be
       -0.43561575 -0.32135993 -0.23920876 -0.2826392
0000b0 db 91 91 be d1 3f 57 be 0e 69 87 be 84 f8 e0 be
       -0.2843159 -0.21020438 -0.26447338 -0.43939602
0000c0 84 6a 15 be 2b 92 a0 3d 6b 24 e3 bd 5a ad 35 be
       -0.14591414 0.07840379 -0.110909306 -0.1774191
0000d0 af 73 ef be 93 f7 55 be 98 87 05 3d 50 4d f4 bd
       -0.46767947 -0.20895223 0.032600015 -0.11928809
0000e0 80 2f 67 3e 4b df dd 3e fe 1b 90 3e 07 a5 05 3e
       0.22576714 0.43334422 0.28146356 0.13051234
0000f0 0c aa 24 be 44 0f 2a be 32 40 7a 3c b8 b5 e9 3d
       -0.16080493 -0.16607386 0.015274094 0.11411613
000100 d6 ed 5b 3e f8 ff c2 3d fe a4 d3 3d 74 d7 95 bd
       0.21477446 0.095214784 0.10334204 -0.07316485
000110 38 4f 73 be 3f 03 be 3d f8 88 b0 3d 13 49 64 3e
       -0.23760688 0.09277963 0.08619875 0.222935
000120 c6 f3 1f 3d dc 30 71 bc c7 fc fe 3c 90 b1 ab 3c
       0.03905084 -0.014721122 0.031126393 0.020958692
000130 c3 2d 17 3e 36 37 7c 3d 7b 94 55 3e cf 07 51 3e
       0.1476355 0.06157609 0.20857422 0.20413135
000140 2f 40 89 3d 50 cc 17 3e bf 9c 83 3c cf 2f 98 bd
       0.06701695 0.14824033 0.016065953 -0.07430994
000150 b7 b6 58 3d 2a c4 08 3c 11 77 8d be 9c 4d 9a be
       0.052908625 0.00834755 -0.27629903 -0.30137336
000160 b3 af ca bd d2 b9 c6 bb 78 d7 26 3d 89 e1 6f 3d
       -0.09896793 -0.006064632 0.04073283 0.058564696
000170 50 84 34 3e f1 85 25 be 43 a5 26 be fa cd cb bd
       0.17628598 -0.16164376 -0.1627398 -0.09951396
000180 ec b8 0a bf f3 1d 11 bf 92 07 09 bf c6 8d 32 bf
       -0.5418842 -0.56686324 -0.53527176 -0.6974758
000190 db 68 b1 3e 7e 65 61 3e 08 10 ab bd 3f e1 20 be
       0.3465031 0.22011372 -0.08352667 -0.15710925
0001a0 b0 31 cb be 7a 92 98 3e 2d 7e 59 3e 76 c6 ec bd
       -0.39686346 0.29799253 0.21239538 -0.11561291
0001b0 7c e5 2c b9 fc 39 42 be 92 26 9b be 93 da a6 be
       -0.00016488688 -0.18967432 -0.30302864 -0.32588634
0001c0 a1 91 7a be 76 9b 11 be 98 eb 23 be 5a e6 76 be
       -0.24469616 -0.1421946 -0.1600784 -0.2411131
0001d0 4a ba 9f be 96 9b 29 be b4 ee 2b be 75 33 be bd
       -0.31196815 -0.16563258 -0.16790277 -0.092871584
0001e0 ad a9 01 bf 4e 93 17 bf 08 b2 10 bf 5a bc 22 be
       -0.5064953 -0.59209144 -0.56521654 -0.15892163
0001f0 0a 47 64 bd 64 20 e7 bd 9f 45 ff bd 7d 8e 13 bd
       -0.05573181 -0.11285475 -0.12464451 -0.03602456
000200 44 f6 18 bd c4 db 29 be 53 5f b8 bd 24 9d 0a 3e
       -0.037344232 -0.1658774 -0.09002557 0.13536507
000210 3b c2 22 3e 8d df f2 3d 51 0f 11 3e 37 44 f7 bd
       0.15894406 0.11859045 0.14165999 -0.12073558
000220 34 51 4f bd b9 52 a6 3d 48 49 25 3e 40 51 58 3e
       -0.05061455 0.08121247 0.16141236 0.21124744
000230 bb 15 50 3e ae 39 50 3e 36 fc 6f 3e 1a 19 9a 3e
       0.2032079 0.20334503 0.23436055 0.30097276
000240 99 d4 b9 3e 02 31 b8 3e 10 42 0a 3e 39 a1 3a 3d
       0.36295012 0.3597489 0.13501763 0.04556391
000250 ce ff 13 3e 14 4f c5 3e a7 23 05 be cf 7d fa bd
       0.1445305 0.38536894 -0.13001882 -0.12231027
000260 7b 36 d0 bd e4 bb dc 3c c4 45 eb bc 8d db 8a be
       -0.10166641 0.026945062 -0.02871979 -0.2712063
000270 13 a9 ca be bc 11 ce be ed 2d 0c bf a0 48 1d bf
       -0.39582118 -0.40247905 -0.5475758 -0.6143894
000280 06 0a 58 be bb b7 e9 be 7b e5 01 bf 2b 3e d5 be
       -0.21097574 -0.45647988 -0.50740784 -0.41648993
000290 22 82 1c bf 6d 20 2c be fe 09 c8 bd f7 12 29 be
       -0.61136067 -0.16809244 -0.09767531 -0.16511141
0002a0 57 0c fd bd ea 50 44 bf 38 c8 6a be 30 c3 37 be
       -0.12355869 -0.76685965 -0.2292794 -0.17945552
0002b0 49 4d 0e bd 03 ed 42 bd 20 29 f1 be ee 55 74 be
       -0.034741674 -0.047589313 -0.47101688 -0.23860905
0002c0 a4 4b 1e be 94 c2 40 bd 76 eb c9 bc d0 c8 bd 3d
       -0.15458542 -0.047060564 -0.02464841 0.092668176
0002d0 4a b7 14 be 69 14 97 be c5 be f0 bd 8d 7d 33 be
       -0.14523044 -0.2950776 -0.117551364 -0.17528363
0002e0 e0 e3 09 3e de 80 f5 3c 43 58 38 be 7d 2c a8 3d
       0.13465834 0.029968675 -0.18002419 0.082116105
0002f0 76 b8 aa bd e5 55 ef bd 63 32 95 3d 50 5b 79 be
       -0.083359644 -0.11686305 0.07285001 -0.24351239
000300 3c c0 45 be b1 1c 12 be e8 36 e6 bc db b1 c1 be
       -0.19311613 -0.14268757 -0.028102353 -0.37831005
000310 b9 d5 37 be 89 6b 05 bd 85 77 a6 3e 75 29 e5 3e
       -0.17952622 -0.032573257 0.3251306 0.44758192
000320 d4 dc b4 bd 91 84 76 bc 82 8e 5a 3d 4c 7d 51 bb
       -0.08831182 -0.015046255 0.053358562 -0.0031965552
000330 3a 5c ba 3b 2a f1 55 3b 3b 42 8a bb 44 27 98 3d
       0.005687264 0.0032644966 -0.004219321 0.07429364
000340 f1 ad 2a 3b c7 07 f9 3d 53 d3 a3 be 9a a4 a0 be
       0.0026043619 0.121596865 -0.31997165 -0.3137558
000350 d3 4a aa be 8e b8 a1 be a2 4c 59 be b3 5b 87 bc
       -0.3326021 -0.31586117 -0.2122064 -0.016523218
000360 58 62 0c be 4a af 3e be 9e d4 1b bf eb 7f fb be
       -0.1370939 -0.18621555 -0.60871303 -0.4912103
000370 1f f1 98 be 8e 1a 0b bf a2 b7 86 be 82 8c 0b be
       -0.2987146 -0.54337394 -0.26311976 -0.13627818
000380 23 87 a8 be 0c bc b5 3e 22 16 33 3e e0 b8 35 3e
       -0.329156 0.3549503 0.17488912 0.17746305
000390 d0 89 32 3e 19 d2 4f 3e cc 53 16 3d 3f 9e 06 bd
       0.17435384 0.2029499 0.03670101 -0.03286576
0003a0 11 2c 12 3c cc e8 fb 3d c6 36 4c 3e 1f 66 2e be
       0.008921639 0.12300262 0.1994277 -0.17031144
0003b0 30 37 06 be 98 d7 44 bd be 1d a9 3d f0 20 56 3e
       -0.1310699 -0.04805717 0.08257626 0.20911002
0003c0 c3 86 45 bd 07 c6 e7 bc 26 9e 2a 3e 69 2b a3 3e
       -0.048224222 -0.028292669 0.16661891 0.31869057
0003d0 63 51 f4 3e 39 b1 c3 3d b5 53 e5 3d f7 1e 6c 3e
       0.47718343 0.09555287 0.111976065 0.23058687
0003e0 46 b3 dc 3e 40 ad d3 3e 03 40 5f be 09 87 88 be
       0.43105525 0.41343117 -0.21801762 -0.26665524
0003f0 d0 13 3f be 26 9d e8 bc 9e a8 84 be 46 fc 02 be
       -0.18659902 -0.028395247 -0.25909895 -0.12791547

features.12.bias f4 [32]
000000 bf 67 76 be 8d 59 20 3b 74 9d 56 3d 03 7f 85 3d
       -0.24063013 0.002446744 0.052396253 0.06518366
000010 08 9e e0 bd 43 0f 92 3d 42 82 81 3a 27 e6 87 be
       -0.10967642 0.07131817 0.0009880739 -0.2654278
000020 32 f3 72 3c 3e 6a 2c be 5c 57 85 bd b7 8a b9 3d
       0.01482849 -0.16837403 -0.06510803 0.09059661
000030 73 8d 81 bd c4 00 43 bd 76 b5 27 bc a0 a8 8c 3d
       -0.063258074 -0.047608152 -0.010236135 0.068681
000040 2a e3 70 3d 6b fd 69 bd 43 6c a2 bb ef 19 0a be
       0.05881039 -0.057126444 -0.0049567535 -0.13486455
000050 37 7f 8d bc 83 fb 64 bc ce 72 10 3e 81 eb ca 3d
       -0.017272575 -0.013975981 0.14106295 0.099082
000060 1c bd 15 3d 5e 2d 77 be c3 8e 51 bd 13 85 3c be
       0.036557302 -0.241384 -0.05116154 -0.18410139
000070 9d 87 0a bb d0 17 00 3e dc dd 19 3e 80 70 60 bc
       -0.002113796 0.12509084 0.15026039 -0.013698697
