output/models/220430_1540_ggcnn_epoch_100/epoch_80_iou_0.74_statedict.pt (torch, 255529 bytes, 16 tensors)

conv1.weight f4 [32, 1, 9, 9]
00000000: 73fd 803f dd9b 373f 4262 d63e 3a6b 2a3f
00000010: d253 a63e afbc 0c3e 74b9 a1bc ae83 d3bd
00000020: 6d99 2bbe 3a71 4b3f cf69 073f e6db 0b3e
00000030: c173 f73e 762f 3b3e dd21 c43d 252e aebd
00000040: 16fc 14be 27d7 47be 071f 913e 6a54 2fbd
00000050: 75f9 bdbe b05d e43c e7a1 5cbe 4599 a0be
00000060: a780 cabe a2cf d8be 469d e2be 08b5 3b3f
00000070: 4bc3 d13e 85a1 1b3e 185f 153f 7988 a83e
00000080: e2c9 ba3e 756a aa3e 3594 bf3e 6603 b43e
00000090: 9535 4e3e a1e9 d6bc 4722 80be fe83 ee3d
000000a0: 8e42 1e3c 8a64 8fbb 542e d9bb 7e65 1d3d
000000b0: 76a9 033d 0615 2a3e c2cf 4abd cda5 91be
000000c0: d625 6a3e 6c2b b8bc a968 143d 126d 253d
000000d0: 4b98 743c 3a1d 3a3d 89d8 29bd cf7a 99be
000000e0: 3f9d fabe f75a d3bb 5481 38be 2964 60be
000000f0: 453e 67be b63b 51be 5f86 3dbe 0ea5 02be
00000100: 70af b2be 20a6 10bf 52d4 ebbc 77e6 86be
00000110: 8370 5ebe dba8 9ebe 9ac0 8fbe ae97 74be
00000120: d2c4 1abe 6cd7 9abe d3fe 17bf 063c e3bd
00000130: 0f21 7abe c7c4 9cbe 1428 92be 2b2d a6be
00000140: e259 8abe 938a 10bd 4fbe 49bd 6a11 44be
00000150: 49dc 3bbc 5b88 41bd e97b e0ba c2d9 9a3c
00000160: 99dc c83d af63 7f3e e196 34be ef70 4abe
00000170: bd37 91be d997 1fbe 3f44 7ebe fc83 5abe
00000180: 2fbe 2ebe 5cee 5cbe 921a bdbc d0da 58be
00000190: 1e45 a6be de5d a1be 0e97 88be 7222 98be
000001a0: b5fc 84be f3b6 a5be 408d a4be f8e9 76be
000001b0: 017d 673c 6f8d ea3c bf0d 6bbd b0cf 9b3c
000001c0: 8c2a 6bbc 8bf3 f43b 9572 3fbc 8efa 2ebc
000001d0: 4623 763d 6117 e2bc 82cf a53c 78a3 a9bc
000001e0: 561c f53d da04 7a3d fe34 003d 4351 0e3c
000001f0: aa38 d93b 3770 003e b2e7 a73d 0cae 413d
00000200: 27b6 b63d 3b9d 083e 608a f53d 4430 e93c
00000210: f91e 253d 04c1 7a3d fbbe 253e b990 123e
00000220: 7747 ae3d 0740 c83d 37b2 513e 143d 9e3d
00000230: 15e9 e93d 7a62 973d b1e6 c93c 8eca 7a3e
00000240: b97a fc3d fe9a 643d 6ffc c2b8 c290 d13d
00000250: 0557 883c 7e7e f2bc 7f61 e63c ee8b 853c
00000260: e32f 543e 66ba d43e e3c4 a73e 25cd 7c3e
00000270: ae5b aa3e ae00 813e 787e 253e c0b9 5d3e
00000280: 1b41 463e 6d45 fa3e 800c eabc 5c53 f43c
00000290: 9c2c af3d 47d2 6a3e 4a30 853e 51f7 a83e
000002a0: 4e42 e63e 86fe 183f 7223 4c3f f0f9 4dbe
000002b0: 6c82 28be 9719 1cbe f960 2d3d 3cab be3d
000002c0: 2ff0 bb3d 5f22 553e 968f 963e 2f17 043f
000002d0: 0a83 9cbe 9fd6 7fbe 2ca0 70be 4359 8fbd
000002e0: e7d1 82bd da00 2dbd 2a00 aa3c bf01 1b3e
000002f0: 4fb7 913e f25f 84be 96a6 12be 1894 c9bd
00000300: 46ad 093d 1a73 963d 3ef3 113e 48e9 2d3e
00000310: 05b8 9b3e dce2 f73e 2bdc 8cbe 9b59 43be
00000320: d9c3 4ebe 6c53 8cbd eab4 4a3d aac6 bf3d
00000330: 889e e43d 7b30 133e c9c7 c03e 75fd b3be
00000340: 6a6a a3be 4085 7ebe ad88 83bd 0d0f b2bc
00000350: e59c 793c bae4 843d 31cb d73d b0ed 903e
00000360: a54b bbbe 0044 86be 4f35 49be 4fdf bebd
00000370: 1100 c4bd c084 053b ecf0 ad3d 2dcb 1e3e
00000380: bcf5 9f3e 3604 e8be 510d aabe 5e00 85be
00000390: 1938 32be e18c b8bd c18e b2bd de74 363c
000003a0: 1c6e e63d 7c4e a63e 5af6 cbbe 2b10 bbbe
000003b0: 2755 a9be 3dc1 4abe 9c56 ebbd 629d 51bd
000003c0: e951 e23d c0e7 4c3e 514f ef3e b037 9cbc
000003d0: 3e09 c5bc 5e53 ce39 9837 463d 041e 4bbc
000003e0: 6d3d e5bb 13c8 7a3c 014c 793d 5c9b 89bc
000003f0: 5ab5 4a3d fa04 5e3d 39a1 703d 7529 2b3d
1.0077347 0.71722203 0.4187184 0.66569865 0.32485825 0.13743852 -0.019741751 -0.1032785
-0.16757746 0.79469645 0.52895826 0.13658103 0.483305 0.18279824 0.095767714 -0.08504895
-0.14549288 -0.19515668 0.28343984 -0.042805113 -0.37104383 0.027876705 -0.21546136 -0.31366935
-0.3955128 -0.4234591 -0.44260615 0.73323107 0.4096931 0.15198334 0.58348227 0.3291662
0.3648215 0.33284345 0.3741776 0.35158843 0.20137627 -0.02623445 -0.25026152 0.11646269
0.009659423 -0.004375999 -0.006627837 0.03842687 0.032144032 0.16609582 -0.04951454 -0.28446808
0.22865996 -0.022481643 0.036232624 0.04038722 0.014928888 0.04543803 -0.04146627 -0.29976508
-0.48948094 -0.006450053 -0.18018085 -0.21913208 -0.22582348 -0.20432934 -0.1850829 -0.12758276
-0.34899473 -0.56503487 -0.028787766 -0.26347706 -0.21722607 -0.30988201 -0.2807663 -0.23885986
-0.15114143 -0.3024248 -0.59373206 -0.11095433 -0.24426673 -0.3061888 -0.28546202 -0.32456335
-0.270217 -0.035288405 -0.049253758 -0.19147268 -0.011466094 -0.04724918 -0.0017126772 0.018902663
0.09807701 0.2494037 -0.1763568 -0.19769643 -0.28362837 -0.15585269 -0.24830721 -0.2133941
-0.17064737 -0.21575302 -0.023083959 -0.2117722 -0.32474607 -0.31516927 -0.26677746 -0.2971378
-0.2597405 -0.32366142 -0.32139015 -0.2411269 0.014128924 0.028631894 -0.057386156 0.019019932
-0.014353406 0.0074753216 -0.011685033 -0.010679854 0.060092233 -0.027599039 0.020240549 -0.02070783
0.11968295 0.061039783 0.031300537 0.0086863665 0.0066290693 0.12542807 0.08198489 0.047285125
0.089214616 0.13341229 0.119892836 0.028465398 0.04031274 0.06121923 0.16186135 0.1431302
0.085097246 0.09777837 0.2047814 0.077264935 0.1142141 0.0739183 0.024646135 0.24491331
0.12328095 0.055811875 -9.29766e-05 0.102326885 0.016643057 -0.029601332 0.028122662 0.016302075
0.20721392 0.4154846 0.327674 0.24687631 0.3327307 0.2519583 0.16161525 0.21652889
0.19360773 0.48881093 -0.028570414 0.029824905 0.085534304 0.22931777 0.26013404 0.33001187
0.4497246 0.5976337 0.79741585 -0.20114875 -0.16456002 -0.15244137 0.04232881 0.09310004
0.09176671 0.20813893 0.29406422 0.51597875 -0.30568725 -0.24984215 -0.234986 -0.06999447
-0.06387692 -0.04223714 0.020752031 0.15137385 0.28460166 -0.2585445 -0.1432136 -0.098427
0.033612512 0.07346173 0.14252946 0.16983521 0.30413833 0.48415267 -0.27511725 -0.1907715
-0.20191897 -0.06851849 0.04948894 0.09364064 0.1116305 0.14373963 0.37652424 -0.3515431
-0.31917125 -0.24855518 -0.06422553 -0.021735692 0.0152351605 0.06488939 0.105368026 0.2830634
-0.3658115 -0.26223755 -0.19649242 -0.093199365 -0.09570325 0.0020373315 0.08493218 0.15507193
0.31242168 -0.45315713 -0.33213285 -0.25976843 -0.17404212 -0.090112455 -0.087186344 0.011136262
0.112514704 0.32481754 -0.3983639 -0.36535773 -0.3307278 -0.19800277 -0.11491129 -0.051175483
0.11050779 0.2001028 0.467402 -0.019069523 -0.024052259 0.00039353495 0.048392862 -0.012397293
-0.006995848 0.0153064905 0.0608635 -0.016797714 0.049489357 0.054203965 0.058747504 0.041787583

conv1.bias f4 [32]
00000000: dd5c d1bb dcb9 7fbe fed8 8c3e ba50 f6bd
00000010: 7162 74be 9e23 013e b080 c73d afbc 13be
00000020: e69d 4ebd e681 18bd a53d 803c 2809 ab3d
00000030: dac7 e9bd 7b74 9ebd 380d 7bbd f8b7 ddbd
00000040: 30fb 873d 358a 9ebe f09a 8d3d 27b8 21bf
00000050: 17c4 2abe f738 43be 6684 28be 6a8b 0d3d
00000060: 0f74 a5be d13f fbbc 7f7b 34bd 6bf2 593c
00000070: 6f0a 663e 0ad6 5cbe 59c7 9dbd a0eb c7bd
-0.006389244 -0.24973243 0.27509302 -0.12027116 -0.23865677 0.12611243 0.09741342 -0.14427446
-0.050443552 -0.037233256 0.015654394 0.08351356 -0.11415072 -0.07737061 -0.061291903 -0.10826105
0.06639707 -0.3096482 0.069143176 -0.6317162 -0.16676365 -0.19064699 -0.16456756 0.034556784
-0.32315108 -0.030670078 -0.044063088 0.013302426 0.22464918 -0.21566024 -0.07704038 -0.09761739

conv2.weight f4 [16, 32, 5, 5]
00000000: 8470 3b3d c40a 36bc 40ef 12bb cc22 453d
00000010: 42ad 443d 709d 693c 4694 5a3d 0092 ee39
00000020: 6066 acbb 7d8a 00bd a306 4fbd 16d1 80bd
00000030: 8e84 5dbd 409d 2b3d 98be 4cbd 5cf5 93bc
00000040: ec22 913c 6019 0b3c 80c2 3c3b 80dd ea3c
00000050: 7e1f fcbc 00a0 ea3a 0338 4ebd c2db 94bc
00000060: 2ca9 fdbc 263b 633d 5eaf 13bc 66ea 093d
00000070: 813b 1dbd dfa6 2e3d b635 2bbd b7e9 20bc
00000080: e1dd a63c c4bb 9fbd 6dad 2dbd fa01 dfbc
00000090: cd12 7ebd 8787 0b3b 9e6b 1e3d d43e 673d
000000a0: 887d 95bd 837c 1dbd 0daa 09bb 330e 20bc
000000b0: b29c 583d 31b4 a3bd 6e8a 083b 61aa a0bd
000000c0: 3d60 193d dbc0 3d3d 0ad0 1dbd 328f 83bd
000000d0: 8e2f 7dbd 7ee4 8cbd 1dad 82bd 41a6 c23b
000000e0: 275e 9a3c d897 05bd 536d 07bd 95aa 02bd
000000f0: ac05 a6bd 25a3 3f3d 2c92 083d cf04 a4bd
00000100: be28 ecbc c670 6b3c 2f83 bf3c 7ff6 33bd
00000110: bd2e cd3b 3355 a5bc c500 8dbd 9d0d 94bd
00000120: 5876 55bd 0e46 663c c357 073d 5476 f33c
00000130: 0c0d 963c 2486 1fbc 9095 adbc 8738 873d
00000140: 2e7e 713d d401 57bd 206c 243d de97 013d
00000150: d672 043d b5c7 883d 10e9 2cbd 1c59 40bc
00000160: e0fd 7f3c 2dff 7cbd 20e3 683c b217 ccbc
00000170: b817 6c3c c0a7 073c 18f8 f53c 182a 963c
00000180: 62ac 6b3d c250 87bc ec12 9bbc bb55 75bd
00000190: 9892 373c 580a 893c 3e77 87bd 61ba 3fbd
000001a0: 5498 2ebc 7e45 703d d000 5c3c a060 203c
000001b0: a26f 90bd f81b 54bc b0a6 8f3b f0d2 6ebd
000001c0: 4c7e 423d 8cbf f53b c006 cebb 8010 60ba
000001d0: e028 953c 6efa 6c3d cb84 36bc 7abd 263d
000001e0: e0e9 9a3b d0d5 5f3c 6c93 81bd 2045 ecbc
000001f0: 7e41 d1bc 3cc0 13bc c37e 3cbc fb3c 213d
00000200: eaa4 093c 47b4 65bd 0633 87bd 6f15 51bd
00000210: f7de 4f3c c08e c13c 0b73 e83c 70a0 34bd
00000220: 3d6a 4f3d 548d 373d 3aae 18bd 5760 003c
00000230: 97c4 5c3d a5a7 703d 93cd 6ebd 8571 2c3c
00000240: 5a1d 9ebc 095c 18bd c00a 283c 0182 a1bd
00000250: edd2 093d 764e 77bd 5a14 063d a450 88bc
00000260: be00 553d 271c 67bd fd2b 633d 6cd6 a9bc
00000270: 9fb0 5e3d 9a43 6dbd 666d 1a3d 4798 4dbd
00000280: 894e d93c 59c2 6c3d c7c2 3d3d 5304 38bd
00000290: a5f3 153d 3b76 433c 015d 5a3d 3c9d 82bd
000002a0: 6398 a0bd f8ff 41bb e5ac 70bd a87a 643d
000002b0: f442 d8bb aac3 983c 5c2a 28bd 700b b5bb
000002c0: cceb 173d 8a2f 543d 40f6 32bb c4a2 87bd
000002d0: 0019 263b c029 f53b 3b9f 79bd 59dc 05bd
000002e0: 4465 5ebc d0be da3b c842 d33c 9e2e 7b3d
000002f0: 546f c63c da92 4a3d 152d 823d 5add 743d
00000300: 1e04 7dbd ae02 89bd 3096 c8bb c899 fd3c
00000310: 5a73 6d3d bc16 46bc c016 83bb dcfa 40bc
00000320: d79b 63bd 343b b13c c47d 71bd f3ba f7bc
00000330: ff1c 7c3d bded 2d3b f27e d43c 14b9 fa3c
00000340: 2c3e 86bd 3cb8 40bd 9671 5bbc 23ba 633d
00000350: 9925 74bd 75bc 3c3c 3fed 9fbd c5be 39bd
00000360: 9267 d73c 9a75 8fbb 08be 9fbd d8f9 36bd
00000370: 57e6 a8bd 9fe1 58bc 4eb3 15bc dc61 8abd
00000380: b7e7 b53c ac7a 6fbd 40eb 9f3c 0444 9bbd
00000390: 9044 9cbc 5ec3 d33c 6856 6e3d df11 0fbd
000003a0: 7e66 cb3c f743 6dbd fb7b 52bd 45e5 84bb
000003b0: 06e1 233d fda2 303d ce51 4c3d fd7f b33c
000003c0: 069e df3c 85cf 53bd c1c9 4ebd 9e36 7bbb
000003d0: 1081 88bd 3218 9b3c e248 8cbc 8b26 54bd
000003e0: b387 9dbd c3b5 b53c 5f05 3a3d ba63 dcbb
000003f0: d865 d33c a02d 753d ed7e 53bd 29d5 a3bc
0.0457616 -0.011110965 -0.0022420436 0.048128888 0.048016794 0.014258727 0.05336406 0.00045503676
-0.0052612275 -0.031382073 -0.05054344 -0.0628988 -0.054081492 0.041898012 -0.049986452 -0.018061332
0.017716847 0.008489937 0.0028802454 0.028670073 -0.030776735 0.0017900467 -0.050346386 -0.018171195
-0.030964456 0.05547633 -0.009013979 0.033670805 -0.038386825 0.04263961 -0.04179927 -0.009821347
0.020369472 -0.07799485 -0.04240172 -0.027222622 -0.06202965 0.0021290497 0.03867685 0.056456402
-0.07299334 -0.03844882 -0.00210059 -0.00976901 0.05288381 -0.07993353 0.0020834464 -0.07844997
0.037445296 0.0463265 -0.03852848 -0.06423797 -0.06181293 -0.06879519 -0.06380675 0.005940229
0.018843723 -0.032615513 -0.033063244 -0.03190096 -0.081065506 0.046786446 0.033342525 -0.0800873
-0.028828021 0.014370149 0.023377983 -0.04393625 0.006261675 -0.020182228 -0.068849124 -0.07229159
-0.052114815 0.014054788 0.03304268 0.02971951 0.018316768 -0.009736571 -0.021189481 0.066025786
0.058958225 -0.052491978 0.04014218 0.031638972 0.03233608 0.06678716 -0.042214453 -0.011739995
0.015624493 -0.061766792 0.014214307 -0.024913643 0.014409952 0.008279741 0.030025527 0.018330619
0.057537444 -0.016518 -0.018929921 -0.059896212 0.011204384 0.016728565 -0.066145405 -0.046808604
-0.010656435 0.058660023 0.013427928 0.009788662 -0.07052542 -0.012946121 0.0043838844 -0.058306634
0.047483727 0.007499641 -0.0062874258 -0.00085473806 0.018207967 0.057856016 -0.011140059 0.040708043
0.004727587 0.013661817 -0.063269466 -0.028841555 -0.025543924 -0.009018 -0.011504832 0.039364796
0.008401135 -0.05608013 -0.06601529 -0.05104583 0.012687436 0.023627639 0.02837517 -0.044098318
0.050638426 0.044812515 -0.03727553 0.007835469 0.05389842 0.05875363 -0.05830152 0.010525112
-0.019301105 -0.037197147 0.010256469 -0.078861244 0.03364842 -0.06037756 0.032734253 -0.016640015
0.05200266 -0.056423333 0.055461872 -0.020732127 0.054367658 -0.057925798 0.037701987 -0.05019405
0.026526706 0.057802532 0.046328332 -0.044926 0.03660931 0.011930044 0.05331135 -0.06377646
-0.078415655 -0.0029602032 -0.058758635 0.055781037 -0.0065997783 0.018647987 -0.041056022 -0.005525045
0.037090108 0.05180315 -0.002730742 -0.06622842 0.002534449 0.0074817836 -0.06094287 -0.032680843
-0.013573948 0.0066755787 0.02578868 0.061323754 0.024223007 0.049456455 0.06356255 0.05978141
-0.061771505 -0.06689964 -0.0061214194 0.030957118 0.057971336 -0.012090381 -0.0040005147 -0.01177856
-0.055568542 0.021634676 -0.05895783 -0.030240512 0.06155109 0.0026539408 0.025939438 0.03060583
-0.06554827 -0.0470507 -0.01339378 0.055597436 -0.05960617 0.011519541 -0.07808923 -0.045347948
0.026294503 -0.004378033 -0.077999175 -0.044671863 -0.08247059 -0.013237386 -0.009136988 -0.067569464
0.022205217 -0.0584666 0.019521356 -0.07581332 -0.019075662 0.025849994 0.058187872 -0.034929153
0.024829146 -0.057926144 -0.05138777 -0.0040556514 0.04000952 0.043124188 0.049882703 0.021911616
0.027297031 -0.051711578 -0.050485376 -0.0038332115 -0.06665242 0.018932436 -0.017124597 -0.05179457
-0.07691898 0.022181397 0.04541528 -0.0067257555 0.025805399 0.059857965 -0.051634718 -0.019999104

conv2.bias f4 [16]
00000000: 83d1 aabc dea6 2dbd 2745 efbd b992 003f
00000010: 2eb1 1abe ae31 d1bc d925 51bd b264 043e
00000020: ec8a 0d3f 84a1 ecbc bea9 313b 2ee8 893d
00000030: d77c a2bd 3374 90bd c366 593e a72d 0bbd
-0.020851856 -0.042395465 -0.11683112 0.5022388 -0.15106651 -0.025536384 -0.051061485 0.12929037
0.552901 -0.02888561 0.002710923 0.06733738 -0.079339676 -0.07053413 0.21230607 -0.033979084

conv3.weight f4 [8, 16, 3, 3]
00000000: 20df 1b3d c07a 2c3b ff87 08be 41cf 083e
00000010: 7a80 a33d d87d e73c 4523 15be 9031 0f3c
00000020: 7010 073c 7185 203e a433 0bbd eb9b 10be
00000030: b895 b2bc 82d6 dc3d 70af 0d3c 2f6e 26be
00000040: c185 233e d6c1 3fbd b3d6 51bd caf5 7fbe
00000050: feb2 83bd b2ec c4bc 5007 99be 3c22 f3bd
00000060: 84f6 cdbd 2195 d0bb 79fd 4ebc bda9 273d
00000070: 7113 12bc 8f79 2e3d 4612 9dbc 7c6f 453c
00000080: e561 94bc 185c c93c 54af 263d 55c1 06be
00000090: 81a4 c2be 1687 97bd 24d7 183e 49a3 e7bc
000000a0: 6bb3 803e 3b03 223e ff68 b53e 4b22 e93e
000000b0: 71e4 1abe 5c0c 313d f2d1 cf3d 7cdb 553d
000000c0: e63a 1dbe 20fe e5bc 6888 b5bc d6eb ac3d
000000d0: 7564 233e 70fb 5a3c 366d bfbd fbdf 073e
000000e0: c05a 77bd a5d6 67bd 2f5f 2abe 69ac 423d
000000f0: 395b 24bc 5cc8 1f3e b2e8 11be ee6a debd
00000100: 1033 933c 19a1 7bbe 5d88 ccbd af5c 4fbd
00000110: ca45 b3bd 5066 83be 4730 fabd 6329 903c
00000120: eb7b 45be 49a3 b1bd 681e 10bb 3f58 d0be
00000130: 4c01 13be 6b7a c13d 6876 3ebe ba57 3ebd
00000140: 9f08 bdbc a247 0fbe 20c1 203d 0336 0b3e
00000150: f617 e23d 68c8 ed3c 4887 be3c 9f88 af3d
00000160: 7cdc 233d 0ac4 de3c 5bc9 05be b630 debd
00000170: 66e3 bbbd 5c83 6c3d 6a2b 033d 2037 f2bc
00000180: 44e7 283d 441c fe3d ccc5 323d 4611 23be
00000190: 7e8d 3c3e 392e 3c3e 0199 313e c564 c83d
000001a0: 86bf b7be b9d6 a13e 53b2 b23d 7479 8cbe
000001b0: 802e 0abd 70fd 6b3c c48d 613d d34f 97bd
000001c0: c831 bebc 3054 33bd 63a7 13be 50ba 24be
000001d0: 5ac5 b63d 5f8e 5dbd 4271 1c3e 6bdb 243e
000001e0: d4af 8a3d 2dbd 983c dd2f 343e f92a a0bd
000001f0: ba1c f23d b66f 44bd 0bcb 163e 6858 a23e
00000200: 9d3b 23be 0b4e 35bc 3553 d63d 6f78 51be
00000210: 0194 173c fcc5 1e3e ecd7 9fbd c47c 053d
00000220: 882f 9f3c b21e 943d ee2c fcbd 7c8e 35bd
00000230: c053 00bd 8b4b 0ebe fb8f 013e a648 863d
00000240: 878a 753c c6ea 1c3e 3001 e43d 8c3d e3bd
00000250: ab4a d9bd d883 fabc da2f 17bd 97db 103e
00000260: bf1a a63c d280 ed3d 5c2e 1fbe 43c0 0abe
00000270: 30e5 0abe eeed 293e 95db dbbc 9aa9 12be
00000280: 27b1 c3bc aa13 ca3d 8669 033e 7abe 363a
00000290: 72f7 c53e ca55 4dbe 5b86 75be 3206 843b
000002a0: 5cbb 6e3e e5d0 cbbd 0961 6c3c 105c 8cba
000002b0: 764c 873e d953 eb3e 5b4c 6cbe 21a7 bbba
000002c0: 1214 863e 6097 e1be d563 4cbe a797 ee3b
000002d0: a7a7 5abe 8f79 1abc a699 a33d 958d 7b3d
000002e0: 5897 c13d 7d92 803d 44fa a13d 8974 8b3e
000002f0: 33a6 ae3e f401 d1bd 5dd7 1bbe 4f06 703b
00000300: fcbb cd3d 000a e83b 8444 113e dd74 05be
00000310: e7d8 b33c 817f 4d3d dd10 76bc e5ec 0cbe
00000320: fd1d f2bd abc2 c7bb 4268 74bd 5bce 383d
00000330: edd6 21bd e92b a7bd 0f95 933b bfcc 3ebe
00000340: a13a 4ebe f8b8 40be fcb3 3dbd 56c9 843e
00000350: 77b0 3ebd 3ae7 3f3d 6524 3a3e 8a80 3a3e
00000360: ac88 d13c 9b07 72be d1ff 02bf 24f0 183e
00000370: 8ed0 2e3e 6d3d cfbd 54d7 ec3e 4ab4 653e
00000380: 3183 c6ba 3494 02be 4c06 00bd f6f3 73bd
00000390: 0fe1 f73d e36c b33c 9b6e 573d f529 233e
000003a0: 9925 02be c723 19be 0a46 0d3e 5fe2 443d
000003b0: b247 6f3c fd17 033d 1f9b 4dbd 7b95 1dbe
000003c0: 1a5a f4bc e1c7 ddbd 2740 d0bd d5bd 3dbe
000003d0: e15a 07be 621a 68bd 4a4c bdba d45a c23d
000003e0: c9c6 103e 80f5 5b3e cabe 4a3e 64ae cc3b
000003f0: d475 293e 14ef 9ebd a8d8 e3bd 2e76 903d
0.038054585 0.0026318282 -0.13333128 0.13360311 0.07983489 0.02825825 -0.14564236 0.008739844
0.008243665 0.15675904 -0.033984795 -0.14121978 -0.021799907 0.107831016 0.008647785 -0.16252969
0.15968992 -0.046815716 -0.051230144 -0.24996105 -0.064306244 -0.024038646 -0.29888391 -0.11871764
-0.10056785 -0.006365434 -0.012633675 0.04093336 -0.008915768 0.042596396 -0.019173753 0.012050506
-0.018113086 0.024580047 0.04069455 -0.13159688 -0.38016132 -0.073988125 0.1492582 -0.028276103
0.25136885 0.15821545 0.35431668 0.45533976 -0.15126206 0.043224677 0.10147466 0.05221127
-0.15354499 -0.028075278 -0.02215977 0.0844342 0.1595629 0.013365611 -0.09347002 0.13269036
-0.06038928 -0.056601185 -0.16637872 0.047527704 -0.010031515 0.15603775 -0.14248922 -0.10860239
0.017968684 -0.24573173 -0.09986947 -0.0506255 -0.087535456 -0.25663996 -0.122162394 0.01759786
-0.19285552 -0.08673722 -0.002199078 -0.40692326 -0.14355963 0.094471775 -0.18599856 -0.04647038
-0.0230754 -0.1399217 0.03924668 0.13594823 0.110397264 0.029026225 0.023257867 0.0857098
0.040005192 0.027193088 -0.13065092 -0.108491346 -0.09174232 0.05774246 0.032023825 -0.029567301
0.041236177 0.12407735 0.043645665 -0.15924558 0.1841335 0.18377008 0.17343523 0.09784845
-0.35888308 0.31609133 0.08725419 -0.2743641 -0.033735752 0.014403686 0.05506684 -0.07388272
-0.023217097 -0.04378146 -0.14419322 -0.16086698 0.089243606 -0.054090854 0.1527758 0.16099326
0.06771818 0.018644894 0.17596383 -0.078206964 0.118218854 -0.0479581 0.14725892 0.31708074
-0.1594071 -0.01106597 0.10465089 -0.20456098 0.0092515955 0.15505213 -0.07804856 0.03258969
0.019431844 0.07232417 -0.12313257 -0.044325337 -0.03132987 -0.13896005 0.1265258 0.06556825
0.014986641 0.15323934 0.11133039 -0.110957235 -0.10609945 -0.030580446 -0.03691087 0.14146267
0.020276425 0.11596836 -0.15545028 -0.13549905 -0.1356399 0.16594669 -0.026838103 -0.1432251
-0.023888184 0.09867032 0.12833223 0.0006971132 0.38665348 -0.20052257 -0.23977034 0.004029059
0.2331366 -0.09951953 0.014427432 -0.0010708589 0.26425523 0.45962408 -0.23076002 -0.0014316776
0.26187187 -0.44060802 -0.19959958 0.007281262 -0.21353017 -0.009428396 0.079882905 0.06141432
0.09452695 0.062779404 0.079090625 0.27237347 0.34111175 -0.10205451 -0.15218873 0.0036624854
0.10045621 0.00708127 0.14186293 -0.13032861 0.021954013 0.050170425 -0.015018669 -0.13762243
-0.11822126 -0.0060962043 -0.05966974 0.04511867 -0.03951161 -0.08162672 0.004503853 -0.18632792
-0.20139553 -0.1882056 -0.046314225 0.25934857 -0.04655501 0.046851374 0.18177946 0.18213096
0.025577866 -0.23635714 -0.51171595 0.14935356 0.17071745 -0.10119138 0.46258032 0.22432056
-0.0015145299 -0.12751848 -0.031256005 -0.05955883 0.121034734 0.021902507 0.052595716 0.15933974
-0.12709655 -0.14955054 0.13796249 0.048067447 0.014604496 0.0320053 -0.050196763 -0.15389054
-0.02982812 -0.108291395 -0.10168486 -0.18529446 -0.13218261 -0.056665786 -0.0014442292 0.0948998
0.1413833 0.2148037 0.19799343 0.006246375 0.16548854 -0.07760444 -0.11125308 0.07053791

conv3.bias f4 [8]
00000000: 8003 1bbe 936f 913e 9aee b53e 1751 64bc
00000010: 7f81 4bbe a252 163f 9dbd 3fbe 4791 92be
-0.15138054 0.28405437 0.355336 -0.013935349 -0.19873618 0.5871984 -0.18724675 -0.28626463

convt1.weight f4 [8, 8, 3, 3]
00000000: 4aa7 b03d 51ad 7c3d 69fd 713e afba 073d
00000010: 6e61 b33c 27ac 8f3d 5c36 dd3c a562 9d3e
00000020: eb05 4cbd 4dbf 56bd df64 83bd ea43 1ebd
00000030: e323 7ebe 733e 8dbd 8643 9a3b 8674 a5bc
00000040: 802d 123e a141 02be dd2e 1abd 39c6 883d
00000050: 5c03 1dbd af30 4b3e b249 ccbd c8b2 cdbd
00000060: 755d 773e e1fb 6abc f37b 5d3e 5122 1ebe
00000070: 5ac3 343e 41ff 173e 6988 7c3e 5ef9 493e
00000080: bb8a 7a3d 613a 9d3d 0a90 5fbd c949 333e
00000090: e0d3 a63a a71d 833e b886 c63d 1784 a83d
000000a0: 928d cb3c d17c 6fbd 5e4b dfbe a2ef e9bd
000000b0: b44a b73d 6c25 87bc b647 afbd 55bd 5c3e
000000c0: ec14 cebd 1fff 82bd 721e f23d bf6c 5b3c
000000d0: c499 573e 0660 15bd c6a8 babd 0020 32bb
000000e0: 9fd1 763d 1889 5b3c dc85 6ebe 7462 2f3e
000000f0: c1e1 40bc a473 40bd f7ce 88bd 9f2a 5f3d
00000100: 8fef c4bd 0503 a2be 121c 3f3d a3b8 96bd
00000110: 5743 07be aefd a5be be81 99be 05a8 2cbe
00000120: fe56 8a3e d002 d4be 30d9 a2be af64 dc3d
00000130: 65f3 8ebd fdb8 d0bd 49d4 4d3e 75d6 92bc
00000140: 94cc 0bbe 1c77 79bf 2bef 7cbe cd0d 643d
00000150: e49e 82be 8b34 9ebe a296 573e 37aa 56bf
00000160: f3ef a9bc 43d4 023e 8a47 17be 31c1 f33d
00000170: 3fa0 2b3d 2322 b3be 92c4 30bd d492 b6bd
00000180: 3a4c fa3e 1b5e 80be ed46 2d3e 37bb 433e
00000190: d881 b7be f6f3 6d3e c08c ccbe fb9c 87bd
000001a0: eed1 c53d 0a88 bbbc 29f9 463e 5d6b 5a3e
000001b0: e068 26be 7c89 7c3d 6667 643d bd57 47bf
000001c0: 4f17 bcbd fb6f 2c3e 1f57 e2bd 1851 21be
000001d0: 3ec7 43bd e5d3 67be 8d3f e6bd c7c1 ff3e
000001e0: c4eb a1bd 08e7 ca3e 46bf 66bd b228 833e
000001f0: 3ce0 093f f848 63be 9dec a63e b73a 7b3e
00000200: d934 823e 5b18 0dbc cf09 603d 6f09 d53d
00000210: 7848 afbe 6c48 12be ed6d f7ba 205a 803e
00000220: 0c0d 35bf 1266 ccbd 1773 cc3d d54d 0ebf
00000230: 25ff 25bf 60b5 debe 291e 413e 1db4 b7be
00000240: 4eb9 21be 5c54 36be 794f 78bf 0335 8bbd
00000250: 47b5 15be 4539 e3be 8b8a 94bd 7682 ccbe
00000260: 5231 133d a6ef 05be f509 f1be b1f8 6f3e
00000270: 0235 abbd eeb5 20bd 50b2 e4be b455 a4be
00000280: 9fce 1abd 4a16 353e f89b 80be 109f 203e
00000290: a13a 1c3e f9eb 023d 02e6 993e 14cc 0bbf
000002a0: b300 cebd d985 e9be ca4b 353f da6d e23d
000002b0: f51a babc 4bec 2d3e 4cb6 a63d bd4d 10be
000002c0: 2a41 213e 9098 90bd 811d c33e 4142 8d3e
000002d0: ed17 ecbe 5c1b 62bf cd8b 3a3e 47fe 7c3e
000002e0: ca61 92bd 97de 103e e0f0 30bf 26ac 0d3f
000002f0: 6be4 56bd c8ca 57be 62b6 c9be fc97 093b
00000300: 63c8 693d b215 bc3e 403f c43b 36d4 c8bc
00000310: 51b0 403f 3d15 da3d fa1a bbbe 98a7 d73d
00000320: 098b 9e3e ca4c 3fbd 1e9a b5bd 88ce d63d
00000330: 9476 21be e929 cfbd 8c40 363e c9cf 09bd
00000340: 94e3 3bbf 0d93 b4bf 7864 c33d f4e9 6dbf
00000350: 72b7 d6bf d70f 293d 9345 2cbf 6279 96bf
00000360: 91df 883d e4de aabc e3bc 5fba d41c d6bd
00000370: 780f d13d 1630 20bc 8e53 aabd 4b5d 16be
00000380: c00e 73be 07cc 963d 86b2 c4bd 7c9c 1e3e
00000390: 7df4 413c 0fe6 063e a892 1dbd 5837 c9be
000003a0: a393 c13e 464c 973d ddfb 99be 7938 25be
000003b0: a6d8 583d fa2d 1c3e 7ba1 a9ba ac30 42bd
000003c0: 65f9 f73d 04e8 333e 437e abbd 8ae4 a33d
000003d0: 37ed 66bd 7793 e0bd 4c85 94be be83 3fbd
000003e0: d84d f5bd 7f5b c7bd 53d4 a9bd 7d7e 0cbe
000003f0: ae2a 02be ec39 d93d 8113 923d 5cb8 14be
0.08625658 0.061688725 0.23631825 0.03313702 0.021897044 0.07015257 0.02700346 0.30739322
-0.04981033 -0.052428532 -0.06415724 -0.038638987 -0.24818377 -0.06896677 0.0047077565 -0.020197164
0.1427517 -0.12720348 -0.03764235 0.06678433 -0.038333282 0.1984279 -0.09974994 -0.100438654
0.24156745 -0.014342279 0.21629314 -0.15442778 0.17652646 0.14843465 0.24661411 0.19724032
0.06116746 0.076771505 -0.054580726 0.17508616 0.0012727939 0.2560856 0.09693664 0.08228319
0.02484778 -0.058468644 -0.43612188 -0.114226595 0.08949795 -0.016497336 -0.085586 0.215566
-0.10062584 -0.06396317 0.11822213 0.013392626 0.2105475 -0.03646853 -0.09114222 -0.0027179718
0.060258504 0.013399385 -0.23293251 0.171274 -0.011772574 -0.046985283 -0.066801004 0.054484006
-0.09616005 -0.3164293 0.04665763 -0.073594354 -0.13209282 -0.32420105 -0.29981798 -0.1686097
0.27019495 -0.41408396 -0.31806326 0.10761391 -0.069800176 -0.10191534 0.20100512 -0.017924527
-0.13652259 -0.9744737 -0.2470061 0.055677224 -0.2551185 -0.30899462 0.21053556 -0.8385348
-0.0207443 0.12776284 -0.14773384 0.11902083 0.04190087 -0.34986982 -0.043156214 -0.08914724
0.4888628 -0.25071797 0.16921587 0.19114386 -0.3584125 0.23237595 -0.39951134 -0.066217385
0.096591815 -0.022892017 0.19430985 0.21330018 -0.16250944 0.061654553 0.05576267 -0.77868253
-0.09184133 0.16839592 -0.11051773 -0.15753591 -0.047797434 -0.22639425 -0.1124259 0.49952528
-0.07906297 0.39629388 -0.056334756 0.25616986 0.5385778 -0.22195804 0.32602397 0.24534117
0.25430945 -0.008611764 0.054696854 0.1040219 -0.34234977 -0.14285439 -0.0018877365 0.2506876
-0.7072303 -0.09980406 0.09982889 -0.5558751 -0.64842445 -0.43497753 0.18859161 -0.35879603
-0.15793344 -0.17805618 -0.96996266 -0.067972206 -0.14619933 -0.4437963 -0.072529875 -0.39943284
0.035935707 -0.130797 -0.4707791 0.23434712 -0.0835972 -0.039236 -0.44667292 -0.32096636
-0.037794705 0.17684284 -0.25118995 0.15685678 0.1525674 0.031963322 0.30058295 -0.54608274
-0.10058727 -0.4560993 0.7081877 0.11056109 -0.022717932 0.1698467 0.08140239 -0.14092155
0.15747514 -0.07060349 0.38108447 0.2758961 -0.46112004 -0.88323 0.18217392 0.24706374
-0.07147558 0.14147411 -0.69117546 0.553408 -0.05246393 -0.21073449 -0.3939696 0.002099513
0.05707587 0.36735302 0.0059889853 -0.024515253 0.7526904 0.10648582 -0.3654402 0.10530013
0.3096545 -0.04670409 -0.08867286 0.104886115 -0.1576789 -0.101154156 0.1779806 -0.033645425
-0.7339413 -1.4107376 0.09540647 -0.9293511 -1.6774733 0.04127487 -0.6729366 -1.1755793
0.06683267 -0.020858236 -0.0008534921 -0.10454717 0.102080286 -0.00977709 -0.08316718 -0.14684026
-0.23736095 0.07363134 -0.09604363 0.15489382 0.011838076 0.13173698 -0.03846994 -0.39300036
0.3780795 0.07387595 -0.3007497 -0.16134824 0.052940987 0.15251914 -0.0012941802 -0.0474097
0.12108115 0.17568976 -0.08373692 0.08002575 -0.05637857 -0.10965627 -0.29007947 -0.0467565
-0.11977738 -0.09734248 -0.08292451 -0.13720126 -0.12711594 0.10606751 0.07132626 -0.14523453

convt1.bias f4 [8]
00000000: cf5c 0abc b6ee f938 5f3d 5fbd 7c0e f93d
00000010: 41d1 a03e 77bc 47be b78c 14be bce6 933e
-0.008444979 0.000119177086 -0.054501887 0.12160966 0.31409648 -0.19505487 -0.14506803 0.28886974

convt2.weight f4 [8, 16, 5, 5]
00000000: 57ac 343e a994 80bd 7219 adbe 14d1 64be
00000010: 4ff6 6f3e 0861 f5bd d144 e83c 4996 57bd
00000020: 9123 69be b834 0ebd 8a31 353d 0b56 0dbe
00000030: 79f7 e2be 483b 33bd 5505 b2bd 7d35 49be
00000040: 8d54 2dbd a7e4 49be 2c47 e13d 5b35 6e3e
00000050: 2aca 1ebd 2ec3 49be efac ffbc b351 1abe
00000060: 3fce c23d be43 5cbe 180b 6ebe 3f7a 9e3d
00000070: 747f 3bbe 5ad0 82be 6b50 c03d 2865 b9be
00000080: 0ffd c13c ef0c 413d 6fa8 c63c d9fc 0dbe
00000090: a68c 8bbe 6b84 153e 587a fdbd 298b 923c
000000a0: 466a 553e 4946 193c 33c5 fd3d 0a9a 853e
000000b0: e509 babe 6c7b e73e 91dd 183d 2eb4 fd3d
000000c0: 1e7e 41be 80bd 953e 67ce 30be 6de5 143d
000000d0: 66d6 8abd 85cd 2ebd b0d2 69bc 51c6 7bbe
000000e0: 9835 2fbe e769 bbbe d196 14be 243a eb3d
000000f0: 3a18 023e 3ed3 6bbe ce64 38be 6055 be3d
00000100: b193 e3bd b857 453d 6746 00bf f29d 5dbe
00000110: 98d4 d4bc 5ff3 9fbe 7ae1 8ebd 75ba 6ebe
00000120: 1f14 78be af19 5ebe 345e 79bd f6dd 20bf
00000130: c284 4b3f c907 0ebd a98f a73e 9557 b5be
00000140: 1ad0 933e dd55 e43d 17de 40be 348d e1be
00000150: 4ff2 2f3d 7e61 333e 1932 53bf fac1 ec3d
00000160: a33f f3be 398b 4c3d bdbf 3c3e f7fc a23e
00000170: 5abf 9f3d a6e1 9fbe 3d13 a8bc 4b16 ed3e
00000180: d946 46bf 982e 173e 1072 f0bd f517 093f
00000190: 7404 43be db41 9ebe 4e19 5dbd 62e7 c8bd
000001a0: 7403 613e 30c8 90be 0e99 c4be c9ed e0be
000001b0: c2a9 8bbe 330e 973d a6c5 fabd dce3 a6bd
000001c0: bc09 cabe 757e 12be 1f1d 0fbe 2e10 21bf
000001d0: 780e 22bf 99e5 cbbd 2437 61be 783e 05bf
000001e0: a334 aabe 2b10 f03d bce4 cbbe e0e1 00be
000001f0: 0869 a8bd 8b68 a23d dfa5 1ebe f712 ee3e
00000200: e505 1d3e 70e5 333e 82ba 17bf 31a8 733d
00000210: 4f7c 87bd a722 99bd ded5 9f3e b997 7a3e
00000220: 163a e9bd 8aca 513e d272 8f3d e098 893e
00000230: 96b8 763c 717a bfbd 8b7f b1bd e7ac 64bd
00000240: f0b1 d6be fad5 23bd 69f7 573e 35d1 953b
00000250: 48d4 e6bc 281f 98be 3f0f 463d 74f2 35be
00000260: 0288 a23d 171d 50be a2cb ce3c 8023 fd3e
00000270: 448e b03c c435 08bc 4b30 1c3e d9d8 cd3d
00000280: be34 7ebd 9fe3 18be c4ba 083e 4fad 3e3e
00000290: 5a4a 9c3d e82e 293e 2d3a e3be bc89 21be
000002a0: 5da9 7e3e 1c61 0cbe 9227 ef3d 30a7 dd3e
000002b0: 4b41 0e3e 7eb0 fa3e fb72 a73e 0b1d c2be
000002c0: d823 a9bd 8f22 503e cee5 5a3e 5463 7bbe
000002d0: 4eb3 2abf 5bba fe3c 7ddc 9bbe 07ad 58bd
000002e0: 4062 06bf d508 7cbf f722 86be 38d5 673e
000002f0: 1b5a 2a3e 9621 11be 4b9b 89bd 773f 94bd
00000300: 06ae b53b c6f4 e73d f8f2 7e3e 41a8 9fbe
00000310: e279 86be 4be0 33be 69f8 b8bb d6bf e43d
00000320: 81b5 a83e 8805 ed3b 95f2 f3be b99e 79bd
00000330: 85b7 cabd 62ef c0be fc69 aebe 7964 2bbe
00000340: 5416 97be c4ef 3bbe 6df3 f8bd 821a bbbe
00000350: de44 053e a1bb c1be 3a0a 923c 6c92 a1be
00000360: de55 09be f139 d4be b1f5 debe ac55 9abe
00000370: c7aa 2abf 08fe 83be f0bc 35be f2bf 50bc
00000380: ddd1 adbe 23c3 0fbf 272a d33d 24c0 4b3d
00000390: dadd 52be 5363 dbbe efe1 4fbe 9024 8dbe
000003a0: 1473 1fbf 0762 bebe 6e55 fe3e e43b d3be
000003b0: a2e1 3ebc c714 29be 3f0c f3bc 0c0d c1bc
000003c0: cc03 e23b 1792 5c3e 296c 00be 9d1b 2a3e
000003d0: 58b0 5c3c 9d4e 753e e142 32bc e01d d53d
000003e0: 5e24 8d3e 1a5e 1dbe 1032 ab3d 2cbe e9bc
000003f0: c4c6 8cbd 70b4 80bf 0450 d1be a35e 723d
0.17643867 -0.06278355 -0.33808476 -0.22345382 0.23433803 -0.11981398 0.028353127 -0.052633557
-0.22767474 -0.034718245 0.044236697 -0.13802354 -0.44329432 -0.043757707 -0.08692423 -0.1964931
-0.042316962 -0.1971613 0.10999903 0.23262541 -0.038767017 -0.19703361 -0.03121039 -0.15070228
0.095119946 -0.21510217 -0.2324642 0.0773816 -0.18310338 -0.25549585 0.093903385 -0.3620999
0.023680238 0.047131475 0.024250237 -0.13865985 -0.27255744 0.14601295 -0.12376851 0.017888622
0.20841321 0.009355136 0.123911284 0.26094085 -0.36335674 0.4521135 0.037320677 0.12387882
-0.18895766 0.2924614 -0.17266236 0.03635161 -0.067791745 -0.042676467 -0.014271423 -0.2458737
-0.17110288 -0.36604235 -0.14510657 0.11485699 0.12704554 -0.23029801 -0.18007204 0.09293628
-0.11112154 0.04817936 -0.50107425 -0.21642283 -0.025980279 -0.31240365 -0.069766 -0.23313315
-0.24226426 -0.21689485 -0.060880855 -0.62838686 0.7949945 -0.034675393 0.32726792 -0.35418382
0.28869706 0.111491896 -0.1883472 -0.44053042 0.042955693 0.17517659 -0.8249832 0.115604356
-0.47509488 0.04993746 0.18432517 0.31833622 0.07800169 -0.31226844 -0.020516986 0.4630607
-0.77451855 0.14763868 -0.11740506 0.5355218 -0.19044667 -0.3090962 -0.05397921 -0.09809758
0.21973974 -0.2827773 -0.3839802 -0.43931416 -0.27277952 0.07375755 -0.1224473 -0.081489295
-0.39460552 -0.14306052 -0.13975953 -0.62915313 -0.6330333 -0.09955902 -0.2199369 -0.52048445
-0.33243284 0.11721834 -0.39822948 -0.12586164 -0.08223158 0.07930096 -0.15492962 0.46498844
0.1533428 0.17567992 -0.59268963 0.05948657 -0.06615507 -0.074773125 0.31217855 0.2447194
-0.11388032 0.20487419 0.07004322 0.26874447 0.015058657 -0.09349526 -0.08666905 -0.055828955
-0.4193263 -0.039998986 0.21090473 0.0045720586 -0.028177395 -0.2971127 0.048354384 -0.1776827
0.07936098 -0.20323597 0.025243584 0.49441147 0.021552213 -0.0083136 0.15252797 0.10051126
-0.062062018 -0.1493058 0.13352495 0.186208 0.07631369 0.165218 -0.44380322 -0.15775198
0.24869294 -0.1370892 0.11677469 0.43291616 0.13892095 0.48962778 0.3270491 -0.37912783
-0.0825879 0.20325683 0.21376726 -0.2454961 -0.6667985 0.03109472 -0.30441657 -0.052899387
-0.5249367 -0.98450977 -0.2619855 0.2263993 0.16635935 -0.14172968 -0.06719073 -0.072386675
0.005544427 0.11325984 0.24897373 -0.31183055 -0.26264864 -0.1756603 -0.005644847 0.11169402
0.32950976 0.0072333254 -0.47646013 -0.060942385 -0.09898285 -0.37682635 -0.34065235 -0.16737546
-0.29509223 -0.18353182 -0.12155805 -0.3654366 0.13014552 -0.37838462 0.017827142 -0.31557024
-0.13411662 -0.41450456 -0.43546823 -0.30143487 -0.66666836 -0.25779748 -0.17747855 -0.012741076
-0.33949175 -0.5615713 0.10310774 0.049743786 -0.20592442 -0.42849216 -0.2030103 -0.27566957
-0.6228497 -0.37184164 0.49674553 -0.4125663 -0.011650475 -0.16511832 -0.029668925 -0.023565792
0.0068974253 0.21540104 -0.1254126 0.16612096 0.013469778 0.2395577 -0.010880203 0.10406089
0.27566808 -0.15367928 0.08359158 -0.028533064 -0.06873849 -1.0055065 -0.4088136 0.059172284

convt2.bias f4 [16]
00000000: 338c 9d3e c0b2 46bc 856d a33e a0ef 11be
00000010: 06b7 073e 1424 4ebe b7ff 403e 466f 33bb
00000020: 7972 d43d d663 78bd d6f0 52bd 02ce 703e
00000030: d8ff 053e 0d42 6b3e 2c39 503e 3c0a cf3d
0.30771026 -0.012127578 0.31919494 -0.14251566 0.13253412 -0.2013095 0.18847547 -0.0027379557
0.103733964 -0.060642086 -0.05149921 0.23516086 0.13085878 0.22974415 0.2033431 0.10109374

convt3.weight f4 [16, 32, 9, 9]
00000000: 1fe2 cebe b32a 203e 7768 a9bd ad36 0ebf
00000010: 923f 703e 6f29 65be 1a08 32bf d21f 813e
00000020: 3d7d 8a3e db45 653e f1bb 0bbe a871 ec3e
00000030: 421d d6be 0206 cdbe 4447 e83e f2ba 08be
00000040: d49e dabe 89c2 043f 3c3d 00bc 9a94 aabd
00000050: 94cd b7be dbc1 52be 08d5 05bc 81f7 e0be
00000060: 031f ebbd 3dc8 983a ede1 95be b3d9 9ebe
00000070: 50cc b23e d274 edbe 6ba3 a8be 8625 c43e
00000080: cc76 eabe 9b51 89be eb8e ab3e 58a5 5b3c
00000090: 0eb6 34bf 031a 1ebe 7519 073f cbd8 29be
000000a0: d1e3 b5be 15f8 e33e 72c3 793e d6be a7be
000000b0: 4d38 ea3e c8d9 0c3d 8ece bebe ec25 05be
000000c0: 14f2 57be ee8d 1ebe 542e 2cbf 195c 1ebd
000000d0: 1e63 81be d6de dbbe 4fa1 06bd 01c4 bb3e
000000e0: 8833 f13b 213b 123d ae27 b63e e648 d5bd
000000f0: 3ebc f4bd 94d3 a23e 2c25 b53d 997a a1bd
00000100: 9cc9 713e 57b0 c33e 717b 8cbe 3df1 90be
00000110: a445 d73e 1633 28be 5124 6bbd ab35 a13e
00000120: 7822 0e3d 77dd 6fbe c448 febd 6150 5bbe
00000130: 0de5 eabd 3cd4 a3bd 1274 1ebd a905 d03d
00000140: 4bab 2e3c 6549 023b 8bbf 3b3e 33d9 233e
00000150: 00e5 67bd 2558 b5bc 94fb 1f3d c31a 493d
00000160: 8932 7f3e 89c9 ef3d a01d e2bd ba64 3f3d
00000170: db1a 853c 8985 05be 546e 6e3e e164 2cbb
00000180: e4d1 56be 88f3 d83d 48ec 94bd c946 ce3d
00000190: c79e 483e eb18 8d3c 3132 753c d4ba 9bbd
000001a0: c6ed e2bc 08cc 673e 1d88 6ebe 4fc0 39bd
000001b0: 9760 093e e523 263d f7ac b23e fb50 0fbc
000001c0: 60a6 3e3e 8aad 823e 8893 4f3d 4b89 893e
000001d0: 9801 9a3e 3c68 e03e ffc0 c43e 24a5 f53d
000001e0: 244f 093f 3287 0a3f 0934 143e eba7 1c3f
000001f0: 35ac ca3e 6848 0f3e 9680 903e e330 20bf
00000200: 5600 573e e3fc 563e c765 d6be 15da 4e3e
00000210: 86c9 183e 3398 b23d affb b83d 06a9 b93d
00000220: 996d b83e 225d 443e f9c2 9c3d 9804 c63e
00000230: f25a 8f3e 96a6 df3d 84a6 343e 5638 263e
00000240: 0ebf 29bf fff7 2d3d fed5 483d 520c 0a3e
00000250: 180d 5e3e 8edf a23d b4ab d6be 1b38 76b9
00000260: e885 f53d 22a5 603e ffc3 f4bd 6cd7 fbbc
00000270: d79c c03e eb03 fabd 0b9f 2b3f 5998 753e
00000280: ada9 183e 7331 c63e d254 71be d88b 54be
00000290: 7bb0 0f3e af06 9cbd e765 c03e fa97 b43d
000002a0: faf0 eebe 56f3 6e3c cad0 a8bb 96ea aa3d
000002b0: 942e 8ebf bdef a0bd f852 0b3e 053a f8be
000002c0: be1a acbd df22 983d 4a03 893e ead1 5d3d
000002d0: 4642 873e 384a fbbb 045f 7c3e 2704 a53e
000002e0: 3d61 96be 3bee 4b3d 024e 14be 5a74 dabf
000002f0: 326c b6be bc2d 513e 735e 0b3f e1ad e5bd
00000300: f09e 283e 5ee2 ce3c 64e5 71bc f649 dd3e
00000310: 2745 81be e5c4 033e 26d3 f43c 3ab5 51bb
00000320: f4af a13e 36c7 7cbe 5160 6f3d f236 093f
00000330: 8174 be3c 177a 4e3e 3078 703e d850 2cbf
00000340: 34ba 1dbe b27d bd3e 35f4 1fbc 51c2 77bd
00000350: 3092 943e f582 3cbf e808 1c3e e03a 123f
00000360: 9e4a 85bd d639 8abd cc3d 3f3d 49a7 74bc
00000370: ffac a33c 955b 653d ff17 5dbe ae8e 99bd
00000380: e8f8 4e3d 8527 a13e 8307 04bf 30bb 0c3d
00000390: 2a39 833d 8fa8 933d ece7 dfbe 7ebb 9a3d
000003a0: 2f96 f73d c870 95be 4273 cebe 425d 11bf
000003b0: b75d 65bf 6dec 8f3e 4ca3 afbd e745 25bf
000003c0: 2d92 9f3b 9f1d 2b3e c591 f5bf f03d fa3d
000003d0: 0c94 703d a98a 18bd 1613 fa3a ab24 e33d
000003e0: cde7 61bd 0a34 7abc 7dba 683d 2b49 213d
000003f0: e8a1 a73d 65f4 abbd bdb9 60bc 6188 c73d
-0.40406892 0.15641288 -0.08271878 -0.5555218 0.2346175 -0.22379087 -0.6954361 0.2521959
0.27048674 0.22389929 -0.13645913 0.46180463 -0.41819197 -0.40043646 0.4536687 -0.13352564
-0.426993 0.5185934 -0.007827099 -0.08329125 -0.3589903 -0.20581762 -0.008168466 -0.4393883
-0.114805244 0.0011656355 -0.2927393 -0.31025466 0.34921503 -0.4637819 -0.32937178 0.38309878
-0.4579376 -0.26820073 0.33507475 0.01340612 -0.70590293 -0.1543961 0.5277322 -0.16586606
-0.35525373 0.4452521 0.24390963 -0.32762784 0.4574608 0.03438738 -0.37266964 -0.13002747
-0.21088439 -0.1548383 -0.6725819 -0.03866205 -0.25270933 -0.42943448 -0.03286868 0.36672977
0.0073608793 0.03570092 0.35577148 -0.10414295 -0.11949967 0.31802046 0.088449806 -0.07884712
0.23612064 0.38220474 -0.27437928 -0.2830905 0.4204532 -0.16425738 -0.05740768 0.31486258
0.03470084 -0.23424326 -0.12416223 -0.21417381 -0.11469469 -0.07999465 -0.038684912 0.101573296
0.010660957 0.0019880172 0.18334787 0.16000824 -0.056614876 -0.022136757 0.039058283 0.049097788
0.24921621 0.11708362 -0.11040807 0.04672692 0.016248157 -0.13039221 0.23284274 -0.0026305246
-0.20978504 0.10593325 -0.072716296 0.10072095 0.19591819 0.017223796 0.01496558 -0.07603994
-0.02770127 0.22636425 -0.2329411 -0.045349415 0.13415752 0.040561575 0.34897587 -0.008747335
0.18618155 0.25523025 0.050677806 0.2686256 0.3007934 0.43829525 0.38428494 0.11994389
0.53636384 0.5411254 0.14472975 0.6119372 0.3958451 0.13992465 0.28223103 -0.62574595
0.20996222 0.20994906 -0.41874525 0.20200379 0.14920625 0.08720436 0.0903238 0.09065442
0.36021116 0.19176152 0.076543756 0.3867538 0.27999073 0.109204456 0.17641646 0.16232428
-0.6630715 0.042472836 0.049032204 0.13481262 0.21684682 0.07952796 -0.41927874 -0.00023481289
0.11988431 0.21937993 -0.11951446 -0.03074237 0.3761966 -0.122077785 0.67039555 0.23983897
0.14908476 0.38709602 -0.23567513 -0.20756471 0.14032166 -0.07618462 0.37577745 0.0881805
-0.46668226 0.014584383 -0.0051518427 0.08345525 -1.1107965 -0.078582264 0.13605869 -0.48481765
-0.08403538 0.07428526 0.26760322 0.054155268 0.2641775 -0.0076687597 0.2464562 0.3222973
-0.29371062 0.04978774 -0.14482883 -1.7066758 -0.3562942 0.20427603 0.54440993 -0.112148054
0.1646688 0.025254425 -0.014764164 0.4322049 -0.25248072 0.12868078 0.02988584 -0.0031998889
0.31579554 -0.24685368 0.058441464 0.53599465 0.023248913 0.20163761 0.23483348 -0.6731086
-0.15403062 0.3700996 -0.009762813 -0.06048805 0.29017782 -0.73637325 0.15237772 0.57121086
-0.06508373 -0.067493126 0.046689793 -0.014932462 0.019979952 0.055995543 -0.21591185 -0.07497917
0.050530344 0.31475464 -0.5157396 0.034358203 0.064073876 0.072098844 -0.4373163 0.075552925
0.12089192 -0.29187608 -0.4032231 -0.56782925 -0.8959612 0.28110066 -0.08576068 -0.6455979
0.0048697204 0.16710518 -1.918511 0.12218845 0.05873494 -0.03724161 0.0019079174 0.11090978
-0.055152703 -0.015271196 0.056818474 0.03937642 0.08185178 -0.08396224 -0.013716158 0.09742809

convt3.bias f4 [32]
00000000: 9cff 433e e4f0 583d 25f7 703d afdb 103d
00000010: a914 0a3d 22d4 03bf c42b 1d3d 32df ee3c
00000020: f260 3ebe 2398 1a3e 891d 25bc 6a3b 84be
00000030: 3292 f43d 9170 8f3c f240 66be a3a5 393e
00000040: 2624 503e 9ee7 9abe 2bdc 073e 12c9 4abe
00000050: 5140 843d 69c4 c43c dd2c 3c3d f5d2 32be
00000060: 1006 6d3d 6268 c73d b681 3b3e da40 333d
00000070: 59e9 363d f4cc 843c e394 703e 8be1 573e
0.19140476 0.052964106 0.058829445 0.035365757 0.03371111 -0.51495564 0.038371816 0.029159162
-0.18591669 0.15097098 -0.0100778425 -0.2582658 0.11941947 0.01750973 -0.22485712 0.18129592
0.2032629 -0.30254835 0.13267581 -0.19803265 0.0645758 0.024019437 0.045941222 -0.17463286
0.05786711 0.09736706 0.183112 0.04376302 0.04465613 0.01621101 0.23494296 0.21082132

pos_output.weight f4 [1, 32, 2, 2]
00000000: 2c47 3abe 112f 16be 27f0 29be 9c8a 1ebe
00000010: 6b6e ba3d ad31 a53d 68e2 8e3d bacf bb3d
00000020: cb38 5e3c ba43 863c 6fad 6e3b 748d de3b
00000030: 47d9 f6bd f685 0abc c19c e23d 167e 1c3e
00000040: 4fc3 f03d 6d55 eb3d ae2b b93d 9451 f13d
00000050: 943a 83be 9677 81be 5cc3 86be 62ce 8ebe
00000060: 9135 233e f3f0 163e da90 233e 27c5 053e
00000070: ba52 d03d 896f e53d 2bba 0d3e 4149 163e
00000080: d30f 60bd f10f 3ebd ec0e 1abd dbf4 72bd
00000090: 76af 193e decc 063e dcd1 0e3e b581 e83d
000000a0: ee23 3e3e 7fb8 ec3d 2506 553e 79e4 613e
000000b0: b5d3 8a3d 909c ea3c c580 a13d 8469 823d
000000c0: 316d 28bd 26fd 6abc af71 dabd 9f65 b2bd
000000d0: d227 273e 1edc cabd cc8f d73d a1f1 bdbd
000000e0: 781b 92bd cc6b 963d f665 25bd 3c1d 033e
000000f0: ece4 31be f007 04be dc5a cabd e5fe 28be
00000100: 922b cf3d 6889 6b3e 8a27 933c 2dd4 a03d
00000110: c97e 943d eec4 de3d da72 bf3d 7f6d b33d
00000120: 3b2e 1b3e f28c 223e e375 0b3e 5b8a 083e
00000130: 407b 7c3d 02e1 473d 1357 493d e221 4e3d
00000140: 78c5 cbbd e5e3 4f3d 5fe0 263d 9d6c 083e
00000150: c487 303e 1fb0 273e 16aa 2c3e d33c 273e
00000160: 1b73 d23d c2b5 59bc 701a 55bd a7a8 183e
00000170: 5fc3 8f3c 18ab 453d 0b9a 173d cfff a73c
00000180: 370f b73c 47e0 5b3d cbd2 0a3d 1893 ff3c
00000190: bec1 173e f526 eb3d 4344 1e3e cfa3 1b3e
000001a0: 89e4 e03d bfc6 d63d 1935 d83d b8dc ab3d
000001b0: fc46 353e 5fd1 4fbd a8f5 f0bd 6265 e93d
000001c0: 28bc 50bd 32a5 24be f772 ed3d dbdb 213c
000001d0: 7dc9 883d 5f75 dfbd f699 f33d 3516 88bd
000001e0: 1108 d0bd 6b47 3abe 5261 133e 8c96 e2bd
000001f0: de22 073e 904b f53d 0bbc e03d c74e ff3d
-0.18191212 -0.14666392 -0.16595517 -0.15482563 0.09103092 0.080661155 0.06976777 0.0917048
0.013563345 0.016389716 0.0036419292 0.006791765 -0.12053161 -0.00845479 0.11065055 0.15282473
0.11756002 0.11490903 0.09041534 0.11783138 -0.2563063 -0.2528655 -0.26320922 -0.27891833
0.15938403 0.14740352 0.15973225 0.13063489 0.10172029 0.11202914 0.13840549 0.14676382
-0.05470259 -0.04640192 -0.037611887 -0.059315544 0.1500834 0.13164088 0.13947242 0.11352865
0.18568394 0.11558627 0.20803125 0.22059812 0.06778661 0.028639108 0.07885889 0.06367782
-0.041119758 -0.014342582 -0.10666215 -0.08710789 0.16323784 -0.09905265 0.10525474 -0.09274603
-0.071341455 0.07344779 -0.04038044 0.12804121 -0.17372483 -0.12893653 -0.09880611 -0.16503485
0.10115732 0.23001635 0.01796319 0.07852969 0.07250745 0.10877405 0.09348078 0.08761119
0.15154354 0.15874079 0.13619189 0.13334028 0.061640978 0.04879857 0.049155306 0.050325282
-0.099497736 0.050754447 0.04074132 0.13322683 0.1723929 0.16375779 0.16861758 0.16331796
0.10275861 -0.013287963 -0.052027166 0.14908086 0.017549215 0.04825887 0.03701214 0.020507721
0.022346122 0.053680684 0.033892434 0.03119807 0.1482 0.1148204 0.15455727 0.15199207
0.109810896 0.104871266 0.105570026 0.08391708 0.1770286 -0.05073678 -0.11765605 0.1139629
-0.05096069 -0.16078642 0.115941934 0.009879078 0.06679056 -0.10911059 0.118946 -0.06644861
-0.101577885 -0.18191306 0.14392594 -0.11063871 0.13196895 0.11977303 0.10973366 0.124661975

cos_output.weight f4 [1, 32, 2, 2]
00000000: 830a 103e fd7d 033e 10cc 1e3e a795 283e
00000010: a873 3cbd ecdd 3fbd c9e2 12bd 8664 04bd
00000020: f6d6 57be 0bf9 5dbe 6100 62be ba28 51be
00000030: 41b1 4d3e be91 4dbc 200b cabc 2468 15be
00000040: 9658 2fbd 1b8f 13bd 64bc a6bb c468 8cbb
00000050: fcd1 6f3e 031d 6f3e 0331 823e fdfd 753e
00000060: 6aae 79be a516 73be be2f 62be 476f 4dbe
00000070: d36a 8a3d d432 7c3d 5ce8 163d 7cd2 173d
00000080: a0a1 9cbd b896 87bd 5c0a 71bd 199e 91bd
00000090: e5b3 90be 9da1 8bbe 2f65 93be 2952 83be
000000a0: 0ca8 a9be 8b05 80be 540a a8be 2d4f bbbe
000000b0: ce35 53bd b91b 02bd 4082 adbd 1b91 b2bd
000000c0: ae29 ba3c e6ec 793a f26e c93d ef90 ac3d
000000d0: b8f4 9fbd 95a3 1abe 0361 0b3e 42ac de3d
000000e0: 1cac bf3d a5cf a9bd 0fcf b03c 5cff f7bd
000000f0: 1555 0d3e 4840 fb3d f7c0 d63d e815 1a3e
00000100: 649d 713e ae8a ee3d 3b70 f83d 822e f63d
00000110: 525b 46bd 12b6 ccbd e1c9 a9bd 3b9c c1bd
00000120: 4651 6ebd 573a 80bd 6593 8bbd bba4 5fbd
00000130: 50f6 94bd abfc 7bbd 5beb 8ebd acdd 8dbd
00000140: 1340 4c3e f0b2 81bd 46c9 30bd 0601 7bbe
00000150: 6405 5dbd 8a5c 2ebd f6d8 85bd 33f3 a8bd
00000160: 13e3 a03c aa26 c53d c9c3 d23d ceba abbd
00000170: 30d3 fcbd 6afb d3bd 6fb7 cebd 74ce b2bd
00000180: b106 29be 41a4 54be 3252 54be 86f9 1ebe
00000190: 73fd c4bd 52a8 cfbd 99db a3bd dfb0 a3bd
000001a0: fb99 a4be d242 b8be f9b9 b4be 5feb 8ebe
000001b0: 5d26 293d b195 d33d 879f 2fbd 20d2 7e3d
000001c0: 1d55 923d 90da 4f3e 6987 66be f426 a6bd
000001d0: f57f b0bd 639c f63d 30e3 1abe 6834 6d3d
000001e0: 66bf 4f3e 2431 923e 01b5 173d b567 9b3e
000001f0: a499 2abe 12aa 1ebe a467 1cbe 3a06 2fbe
0.1406651 0.1284103 0.15507531 0.16463338 -0.046008736 -0.0468425 -0.03586081 -0.03232243
-0.21078095 -0.21677034 -0.22070457 -0.20425692 0.20087148 -0.012546955 -0.024663508 -0.14590508
-0.04280909 -0.036025148 -0.005088376 -0.00428495 0.23419946 0.23350911 0.25428018 0.2402267
-0.2438294 -0.23739107 -0.22088525 -0.2006198 0.06758656 0.06157191 0.03684269 0.037065968
-0.07648015 -0.06620544 -0.05884777 -0.07110233 -0.2826225 -0.2727174 -0.28788134 -0.2564862
-0.33136022 -0.2500423 -0.3282038 -0.36583844 -0.051564984 -0.03176472 -0.08472109 -0.08719083
0.022724953 0.0009533897 0.09835614 0.084260814 -0.07810348 -0.15101464 0.13611226 0.10872699
0.09358999 -0.08291558 0.021583108 -0.12109253 0.13801987 0.1226812 0.10486024 0.15047419
0.23595196 0.11647545 0.12130781 0.120205894 -0.048426934 -0.09995665 -0.082904585 -0.09453627
-0.058182977 -0.062611274 -0.06815223 -0.05460046 -0.07273543 -0.06152026 -0.06978484 -0.06927046
0.19946317 -0.06332958 -0.0431607 -0.24512109 -0.05396022 -0.04256872 -0.06535523 -0.082495116
0.019639527 0.09626515 0.10291249 -0.083852395 -0.12344968 -0.10350688 -0.10093581 -0.08730784
-0.16506459 -0.20765783 -0.2073448 -0.15524873 -0.09618654 -0.101395264 -0.08000869 -0.0799272
-0.32148728 -0.3598848 -0.35298136 -0.2791395 0.04129635 0.10331286 -0.042876747 0.06221211
0.0714514 0.20298219 -0.22512592 -0.081128985 -0.08618156 0.12041547 -0.15125728 0.057911307
0.20287856 0.28553116 0.037037853 0.3035256 -0.16660172 -0.15494564 -0.15273911 -0.17092219

sin_output.weight f4 [1, 32, 2, 2]
00000000: 7b3e a63c 7f6d 6d3c 5b21 de3b 7bd1 873c
00000010: df41 6b3e c0c8 453e 40e0 3d3e e522 643e
00000020: d81b 9e3c 6e04 b53c 0120 9d3c 04a6 333c
00000030: b38a afbd eac5 cc3c 069b b6bc 510a 083e
00000040: c0fe c93d 1da0 c63d 2924 a93d a8a3 a73d
00000050: 706e 78bc 43db 80bc d94d 82bb baf6 51bb
00000060: 703c 45bc 88b7 88bc 999a 533b f72b d23b
00000070: f869 b3bd 9b68 e3bd e3f4 f5bd fbd4 04be
00000080: 55bf 153b 1375 3c3c a55a 693c 5b4e 783b
00000090: 1749 0c3e 509c 203e 1b12 173e 26f9 1b3e
000000a0: eb36 463d 4958 2a3d 9e11 273d 8a02 273d
000000b0: 37b7 0b3c 228d 23bb c2b0 bbbc ba41 c7bc
000000c0: 36ea 463b b298 90bb 4d52 49bc f738 6dbc
000000d0: 8a46 d93c 58d6 e1bd 3310 943d b3ca 693c
000000e0: 7f78 44bd 7ebe a3bc c57b 9fbd 34db 88bd
000000f0: 7777 373d 4105 ac3c 1746 f03c fc41 ea3b
00000100: f61c cbbd 0665 18be 1584 f4bd f67a 913d
00000110: 514f cdbc df8d fa3b 96eb e6bc bb8e a23b
00000120: e5cc dabc 9c81 94bc e8b6 9fbc 368a 03ba
00000130: c526 7d3b ca23 1c3b ff89 433c f31f 1ebb
00000140: 20c7 97bb 80eb 32bd 9d3f 2abd 23eb 2ebd
00000150: 4b01 d7bd a787 c7bd e5c6 f1bd 3258 efbd
00000160: c874 ca3d b3f6 9fbb fcda bc3d 9c77 ed3d
00000170: f145 44bd 9ce8 1ebd a67d d0bc 866e 65bc
00000180: 31cc 26be 8b0e 72be 4202 58be 38de 24be
00000190: f5b7 87bd 8598 6cbd fac3 98bd c9d0 31bd
000001a0: 1804 97bc 44cf a6bc a213 50bc 1334 093b
000001b0: d9b3 b1bd cc35 3f3e af95 3a3e 87e0 12be
000001c0: b503 e8bc ba5f 3bbc 434a 5fbd 4740 2bbc
000001d0: 70ec 4b3d 4888 8b3d ca49 9e3d 4238 ba3d
000001e0: eae0 623c f762 a53d d15d 1f3b e10d 15b9
000001f0: d966 b23c 4c10 443d 0414 e53c dda3 173d
0.020293465 0.014491438 0.0067788786 0.01657938 0.22974347 0.19314861 0.18542576 0.22278936
0.019300386 0.022096839 0.0191803 0.010964874 -0.08571377 0.024996717 -0.022290718 0.13285185
0.09863043 0.09698508 0.0825885 0.08185512 -0.015163049 -0.015729552 -0.0039765653 -0.003203793
-0.012038335 -0.016689077 0.0032288192 0.0064139324 -0.08760446 -0.11103936 -0.12009599 -0.1297187
0.0022849638 0.011502522 0.014242803 0.00378885 0.13699757 0.15684628 0.14753 0.15231761
0.048392218 0.0415881 0.040788285 0.040773906 0.008527569 -0.0024955948 -0.022911433 -0.024323333
0.0030352003 -0.004412734 -0.012287688 -0.0144789135 0.026522893 -0.11027211 0.07229652 0.014269519
-0.047966477 -0.019988295 -0.07787279 -0.06682435 0.044791665 0.020998599 0.029330296 0.007148979
-0.09917633 -0.14882287 -0.11939255 0.07103531 -0.025062235 0.007646307 -0.028188508 0.0049608625
-0.02670903 -0.018128209 -0.019496396 -0.00050178485 0.0038627845 0.0023825043 0.011934756 -0.002412793
-0.004631892 -0.04368162 -0.041564573 -0.042704713 -0.104982935 -0.097426705 -0.11805514 -0.11686744
0.098855555 -0.0048817038 0.092214555 0.11595079 -0.047918264 -0.038796052 -0.025450539 -0.014003402
-0.1628883 -0.2363836 -0.21094611 -0.16100395 -0.06626884 -0.05776264 -0.074592546 -0.043412004
-0.01843457 -0.020362504 -0.012699993 0.002093558 -0.08676881 0.18672866 0.18221162 -0.14343463
-0.02832208 -0.011436397 -0.05451418 -0.010452337 0.04978603 0.06813103 0.07728918 0.090927616
0.013847569 0.08075517 0.0024317394 -0.00014214918 0.021777557 0.047867104 0.027963646 0.037021507
