output/models/220430_1540_ggcnn_epoch_100/epoch_60_iou_0.77_statedict.pt (torch, 255529 bytes, 16 tensors)

conv1.weight f4 [32, 1, 9, 9]
000000 f9 f8 6c 3f 7f 04 34 3f 85 7f e7 3e 8f c6 1d 3f
       0.925674 0.7031936 0.45214477 0.616311
000010 98 b8 a4 3e cb e0 0f 3e f8 00 3a bb 76 c6 b4 bd
       0.32172084 0.14050595 -0.0028381925 -0.08826916
000020 97 55 29 be 45 bb 3e 3f cc 5b 06 3f a0 69 29 3e
       -0.16536556 0.745045 0.5248382 0.16544199
000030 c1 98 de 3e 93 c3 2e 3e 60 6d 9d 3d 1c 43 c6 bd
       0.43475917 0.17066793 0.07686877 -0.09680769
000040 3d 72 28 be 7c 3a 68 be 34 9a 95 3e ef b5 0f bc
       -0.16449828 -0.2267856 0.2921921 -0.008771404
000050 de 18 9e be d9 5c 3d 3c 4e ed 51 be ac 59 a1 be
       -0.30878347 0.011557781 -0.20500681 -0.31513727
000060 f5 38 c9 be ba 05 de be 75 5f ed be 13 04 32 3f
       -0.39301267 -0.43363744 -0.4636189 0.69537467
000070 c2 24 cc 3e 13 b9 35 3e a1 42 08 3f 52 4f 9b 3e
       0.39871794 0.17746381 0.5322667 0.30333954
000080 8f 07 a6 3e a3 0c 91 3e 66 7a 9f 3e ec 59 90 3e
       0.32427642 0.28329954 0.3114807 0.28193605
000090 3c c0 63 3e 95 63 e5 3b b5 c5 43 be d3 09 d3 3d
       0.222413 0.0070003965 -0.19118388 0.10304608
0000a0 21 c7 d6 3c a5 56 f9 ba 3f bf a6 bc 91 1d 1c 3c
       0.026217999 -0.0019023014 -0.020354865 0.009528534
0000b0 ec a6 60 3b 8f cd 26 3e e7 fc 3f bd 5b e6 86 be
       0.003427918 0.16289352 -0.046872046 -0.26347622
0000c0 b5 5a 36 3e 12 1f 21 bd ed ad 18 3c 98 1c 77 3b
       0.1780804 -0.03933627 0.009318811 0.0037706252
0000d0 be 46 05 bd 02 65 cd 3a 04 90 8c bc 83 0f 8c be
       -0.032538168 0.0015670361 -0.017158516 -0.27355585
0000e0 28 c5 e3 be 63 b8 e6 bc 41 cd 2c be af 65 5f be
       -0.44486356 -0.028164094 -0.16875173 -0.21816133
0000f0 d4 18 70 be 5a 5f 63 be d5 47 4e be 90 b0 b1 bd
       -0.23446971 -0.22204342 -0.20144589 -0.08676255
000100 01 26 9f be c1 13 01 bf 19 6c ef bc f9 9c 68 be
       -0.31083682 -0.5042077 -0.02922635 -0.2271613
000110 43 2f 43 be 51 72 94 be 59 94 8a be 2e 78 6a be
       -0.19060998 -0.28993466 -0.27066305 -0.22897407
000120 ec ce 97 bd ea 09 6a be b8 13 fd be 2c 88 92 bd
       -0.07412514 -0.22855344 -0.49429107 -0.07154879
000130 05 a9 2f be e1 e2 74 be 87 71 64 be 62 a9 8b be
       -0.1715432 -0.23914672 -0.22308932 -0.27277666
000140 cc cc 5e be 24 bd b6 3d 68 9d 89 3d 86 6d a1 bd
       -0.21757811 0.089227945 0.06719476 -0.07882218
000150 82 c6 c7 3d 7d 7b 4f 3d dc 64 9c 3d d2 c5 be 3d
       0.09754659 0.050654877 0.07636425 0.09315075
000160 32 97 3c 3e 99 8f ba 3e f8 e9 6f bd 6f a6 a7 bd
       0.18417051 0.3643768 -0.05857274 -0.081860416
000170 0b 8f 2d be e7 e8 4e bd fb 13 1d be ba a9 03 be
       -0.16949098 -0.05051508 -0.15339653 -0.12857714
000180 d8 e0 b6 bd 4e 27 e2 bd 5b b2 fb 3d cc 99 cf bd
       -0.08929604 -0.11042653 0.12289878 -0.10136756
000190 a9 fd 5d be 06 fa 4b be 01 c7 1e be 68 d9 46 be
       -0.21678795 -0.19919595 -0.15505601 -0.19418871
0001a0 a3 e2 2e be fa 5c 71 be 54 48 58 be dd 51 b9 bd
       -0.17078643 -0.23570624 -0.21121341 -0.09048817
0001b0 05 d4 a5 3d 84 47 a8 3d 86 59 12 3c 74 a6 b0 3d
       0.0809708 0.082167655 0.008932477 0.086254984
0001c0 8c 6b 17 3d c9 28 53 3d 22 4a ad 3c 5b 27 1c 3d
       0.0369678 0.051552568 0.021153513 0.03812347
0001d0 36 fa 0a 3e 7a f3 3d 3b 40 9b cd 3c 6d 86 b8 bc
       0.1357201 0.0028984235 0.025098443 -0.022525037
0001e0 f0 b8 e5 3d 8e 82 1c 3d 41 93 c6 3b 99 80 17 bd
       0.11216915 0.038210444 0.0060600345 -0.036987875
0001f0 de 87 ba bb e1 65 07 3e 3b e8 53 3d 2c 88 89 bb
       -0.005692466 0.13222457 0.051735144 -0.004197141
000200 74 d7 a6 3c fb f5 58 3d 7f 65 11 3d c0 74 81 bd
       0.020366408 0.05296896 0.035497185 -0.063210964
000210 5e 66 5e bd 7a c7 ad 3b 4b ad e9 3d 14 94 3e 3d
       -0.054296844 0.0053033205 0.11410006 0.046527937
000220 80 c9 8a bc 10 73 6a bc 94 fb a5 3d 7b f3 29 bd
       -0.016941786 -0.01430966 0.08104625 -0.041491967
000230 68 fa 21 bc 6d 9c 3a bd f3 ba 5b bd e5 4d 2c 3e
       -0.009886362 -0.045559336 -0.053645086 0.1682659
000240 d6 61 11 3c a6 6f 87 bd 77 a3 f9 bd a9 f6 ea bc
       0.008873424 -0.06613092 -0.121893816 -0.02868207
000250 85 0a ec bd ea 1e 27 be ff 7c c8 bd f7 b0 8f bd
       -0.11525444 -0.16320387 -0.09789466 -0.07016175
000260 d2 a8 f1 3d 33 79 96 3e 33 75 4f 3e fd 4f fb 3d
       0.11799778 0.29389343 0.20259552 0.12271116
000270 9f 5e 4e 3e 69 56 06 3e 61 e9 22 3d 61 df bf 3d
       0.20153283 0.131189 0.03977335 0.09368778
000280 6a f1 d5 3d f9 e2 c6 3e 94 1c ab ba 04 6e 3b 3d
       0.10446437 0.3884504 -0.0013054782 0.045759216
000290 67 15 b9 3d 6d e0 65 3e 82 5d 76 3e 2e 5f 99 3e
       0.09037285 0.22448893 0.24059108 0.2995543
0002a0 dc 12 d1 3e eb bb 08 3f 3f 5a 30 3f 0c c2 26 be
       0.408347 0.5341174 0.68887705 -0.1628496
0002b0 dc bb 10 be f8 dc 10 be 72 39 3a 3d 01 ed ac 3d
       -0.14134163 -0.14146793 0.04546494 0.084436424
0002c0 92 a6 9c 3d 25 8f 41 3e 29 2e 86 3e e9 79 e6 3e
       0.07648958 0.18902262 0.26207092 0.45014885
0002d0 39 60 85 be b8 50 62 be c5 d2 5e be 4d f3 77 bd
       -0.26049975 -0.22101104 -0.2176009 -0.060534764
0002e0 09 c0 84 bd ee cb 45 bd 75 2c 58 3c 6f 10 0b 3e
       -0.0648194 -0.048290186 0.013194193 0.13580488
0002f0 9a 26 77 3e 19 60 63 be 29 34 fb bd fa 3d b6 bd
       0.24135819 -0.22204627 -0.12265808 -0.0889854
000300 1f 8a 16 3d 7c 64 86 3d 6f 56 03 3e 20 f1 1c 3e
       0.036752816 0.065621346 0.1282594 0.15326357
000310 b7 b1 8f 3e ea 8d de 3e 78 52 6d be 8b d4 28 be
       0.28065273 0.43467647 -0.2317599 -0.16487329
000320 dc f1 40 be 4f 03 81 bd 08 8d 3c 3d d6 3f ae 3d
       -0.18842262 -0.06299459 0.046032935 0.085082695
000330 e1 a8 cc 3d bd af 01 3e a3 1a ac 3e b4 ff 9a be
       0.099931486 0.12664695 0.33614072 -0.3027321
000340 e1 cb 93 be d8 03 6c be d9 65 62 bd 46 72 ad bc
       -0.28866485 -0.23048341 -0.05527291 -0.021172654
000350 af 79 44 3c 5c ee 6d 3d 32 6d bf 3d 8e 25 7e 3e
       0.011991902 0.058088645 0.09346999 0.24819013
000360 63 8d 9e be c8 e9 65 be a6 ca 30 be 29 7a a0 bd
       -0.30967245 -0.22452462 -0.17264804 -0.078358
000370 0e 8d b9 bd 6f f0 16 3b 55 21 a5 3d a1 84 13 3e
       -0.09060107 0.0023031493 0.08062998 0.14406063
000380 0f 5f 8d 3e 24 81 c6 be a8 a2 91 be fa 6d 68 be
       0.27611586 -0.387704 -0.2844441 -0.22698203
000390 c6 56 1b be 08 df 9d bd f6 10 a7 bd 41 0e 23 3c
       -0.1516982 -0.077085555 -0.08157532 0.009952129
0003a0 26 db d2 3d 33 67 92 3e da 32 a8 be 0a 8e 9e be
       0.102957055 0.2859436 -0.32851297 -0.30967742
0003b0 48 01 93 be dc d6 29 be f3 5e c2 bd 6d ce 2e bd
       -0.28711915 -0.16585869 -0.094907664 -0.04267733
0003c0 01 d0 de 3d 6e 67 3d 3e 0d 84 d5 3e b0 37 9c bc
       0.10879517 0.18496487 0.4170231 -0.019069523
0003d0 3e 09 c5 bc 5e 53 ce 39 98 37 46 3d 04 1e 4b bc
       -0.024052259 0.00039353495 0.048392862 -0.012397293
0003e0 6d 3d e5 bb 13 c8 7a 3c 01 4c 79 3d 5c 9b 89 bc
       -0.006995848 0.0153064905 0.0608635 -0.016797714
0003f0 5a b5 4a 3d fa 04 5e 3d 39 a1 70 3d 75 29 2b 3d
       0.049489357 0.054203965 0.058747504 0.041787583

conv1.bias f4 [32]
000000 0c 1f 50 bc 6d 96 50 bc d1 10 8b 3e ba 50 f6 bd
       -0.012702715 -0.012731177 0.27161267 -0.12027116
000010 55 70 84 be 11 2a 3b 3e 34 74 f8 3d af bc 13 be
       -0.25866953 0.18277766 0.12131539 -0.14427446
000020 93 69 3b bd fd ee 2d 3c 6f 77 67 3b bd 82 95 3d
       -0.04575498 0.010616061 0.003531899 0.07300327
000030 da c7 e9 bd 34 9b 77 bd f8 a3 5d bd f8 b7 dd bd
       -0.11415072 -0.060450748 -0.05411145 -0.10826105
000040 66 54 77 3d 9d 7a 98 be 7d 05 5f 3d 9f a7 15 bf
       0.060383223 -0.29781047 0.054448593 -0.58458894
000050 17 c4 2a be d6 dd 3d be de ad e8 bd 77 3d 27 3d
       -0.16676365 -0.18541655 -0.113612875 0.0408301
000060 ef 8e 91 be 44 eb 95 3c 2d 4e 19 3e 46 c7 9d 3c
       -0.28429362 0.01830066 0.14971228 0.01926006
000070 54 16 5c 3e 4b a9 59 be 59 c7 9d bd a0 eb c7 bd
       0.21492893 -0.21255986 -0.07704038 -0.09761739

conv2.weight f4 [16, 32, 5, 5]
000000 84 70 3b 3d c4 0a 36 bc 40 ef 12 bb cc 22 45 3d
       0.0457616 -0.011110965 -0.0022420436 0.048128888
000010 42 ad 44 3d 70 9d 69 3c 46 94 5a 3d 00 92 ee 39
       0.048016794 0.014258727 0.05336406 0.00045503676
000020 60 66 ac bb 7d 8a 00 bd a3 06 4f bd 16 d1 80 bd
       -0.0052612275 -0.031382073 -0.05054344 -0.0628988
000030 8e 84 5d bd 40 9d 2b 3d 98 be 4c bd 5c f5 93 bc
       -0.054081492 0.041898012 -0.049986452 -0.018061332
000040 ec 22 91 3c 60 19 0b 3c 80 c2 3c 3b 80 dd ea 3c
       0.017716847 0.008489937 0.0028802454 0.028670073
000050 7e 1f fc bc 00 a0 ea 3a 03 38 4e bd c2 db 94 bc
       -0.030776735 0.0017900467 -0.050346386 -0.018171195
000060 2c a9 fd bc 26 3b 63 3d 5e af 13 bc 66 ea 09 3d
       -0.030964456 0.05547633 -0.009013979 0.033670805
000070 81 3b 1d bd df a6 2e 3d b6 35 2b bd b7 e9 20 bc
       -0.038386825 0.04263961 -0.04179927 -0.009821347
000080 e1 dd a6 3c c4 bb 9f bd 6d ad 2d bd fa 01 df bc
       0.020369472 -0.07799485 -0.04240172 -0.027222622
000090 cd 12 7e bd 87 87 0b 3b 9e 6b 1e 3d d4 3e 67 3d
       -0.06202965 0.0021290497 0.03867685 0.056456402
0000a0 88 7d 95 bd 83 7c 1d bd 0d aa 09 bb 33 0e 20 bc
       -0.07299334 -0.03844882 -0.00210059 -0.00976901
0000b0 b2 9c 58 3d 31 b4 a3 bd 6e 8a 08 3b 61 aa a0 bd
       0.05288381 -0.07993353 0.0020834464 -0.07844997
0000c0 3d 60 19 3d db c0 3d 3d 0a d0 1d bd 32 8f 83 bd
       0.037445296 0.0463265 -0.03852848 -0.06423797
0000d0 8e 2f 7d bd 7e e4 8c bd 1d ad 82 bd 41 a6 c2 3b
       -0.06181293 -0.06879519 -0.06380675 0.005940229
0000e0 27 5e 9a 3c d8 97 05 bd 53 6d 07 bd 95 aa 02 bd
       0.018843723 -0.032615513 -0.033063244 -0.03190096
0000f0 ac 05 a6 bd 25 a3 3f 3d 2c 92 08 3d cf 04 a4 bd
       -0.081065506 0.046786446 0.033342525 -0.0800873
000100 be 28 ec bc c6 70 6b 3c 2f 83 bf 3c 7f f6 33 bd
       -0.028828021 0.014370149 0.023377983 -0.04393625
000110 bd 2e cd 3b 33 55 a5 bc c5 00 8d bd 9d 0d 94 bd
       0.006261675 -0.020182228 -0.068849124 -0.07229159
000120 58 76 55 bd 0e 46 66 3c c3 57 07 3d 54 76 f3 3c
       -0.052114815 0.014054788 0.03304268 0.02971951
000130 0c 0d 96 3c 24 86 1f bc 90 95 ad bc 87 38 87 3d
       0.018316768 -0.009736571 -0.021189481 0.066025786
000140 2e 7e 71 3d d4 01 57 bd 20 6c 24 3d de 97 01 3d
       0.058958225 -0.052491978 0.04014218 0.031638972
000150 d6 72 04 3d b5 c7 88 3d 10 e9 2c bd 1c 59 40 bc
       0.03233608 0.06678716 -0.042214453 -0.011739995
000160 e0 fd 7f 3c 2d ff 7c bd 20 e3 68 3c b2 17 cc bc
       0.015624493 -0.061766792 0.014214307 -0.024913643
000170 b8 17 6c 3c c0 a7 07 3c 18 f8 f5 3c 18 2a 96 3c
       0.014409952 0.008279741 0.030025527 0.018330619
000180 62 ac 6b 3d c2 50 87 bc ec 12 9b bc bb 55 75 bd
       0.057537444 -0.016518 -0.018929921 -0.059896212
000190 98 92 37 3c 58 0a 89 3c 3e 77 87 bd 61 ba 3f bd
       0.011204384 0.016728565 -0.066145405 -0.046808604
0001a0 54 98 2e bc 7e 45 70 3d d0 00 5c 3c a0 60 20 3c
       -0.010656435 0.058660023 0.013427928 0.009788662
0001b0 a2 6f 90 bd f8 1b 54 bc b0 a6 8f 3b f0 d2 6e bd
       -0.07052542 -0.012946121 0.0043838844 -0.058306634
0001c0 4c 7e 42 3d 8c bf f5 3b c0 06 ce bb 80 10 60 ba
       0.047483727 0.007499641 -0.0062874258 -0.00085473806
0001d0 e0 28 95 3c 6e fa 6c 3d cb 84 36 bc 7a bd 26 3d
       0.018207967 0.057856016 -0.011140059 0.040708043
0001e0 e0 e9 9a 3b d0 d5 5f 3c 6c 93 81 bd 20 45 ec bc
       0.004727587 0.013661817 -0.063269466 -0.028841555
0001f0 7e 41 d1 bc 3c c0 13 bc c3 7e 3c bc fb 3c 21 3d
       -0.025543924 -0.009018 -0.011504832 0.039364796
000200 ea a4 09 3c 47 b4 65 bd 06 33 87 bd 6f 15 51 bd
       0.008401135 -0.05608013 -0.06601529 -0.05104583
000210 f7 de 4f 3c c0 8e c1 3c 0b 73 e8 3c 70 a0 34 bd
       0.012687436 0.023627639 0.02837517 -0.044098318
000220 3d 6a 4f 3d 54 8d 37 3d 3a ae 18 bd 57 60 00 3c
       0.050638426 0.044812515 -0.03727553 0.007835469
000230 97 c4 5c 3d a5 a7 70 3d 93 cd 6e bd 85 71 2c 3c
       0.05389842 0.05875363 -0.05830152 0.010525112
000240 5a 1d 9e bc 09 5c 18 bd c0 0a 28 3c 01 82 a1 bd
       -0.019301105 -0.037197147 0.010256469 -0.078861244
000250 ed d2 09 3d 76 4e 77 bd 5a 14 06 3d a4 50 88 bc
       0.03364842 -0.06037756 0.032734253 -0.016640015
000260 be 00 55 3d 27 1c 67 bd fd 2b 63 3d 6c d6 a9 bc
       0.05200266 -0.056423333 0.055461872 -0.020732127
000270 9f b0 5e 3d 9a 43 6d bd 66 6d 1a 3d 47 98 4d bd
       0.054367658 -0.057925798 0.037701987 -0.05019405
000280 89 4e d9 3c 59 c2 6c 3d c7 c2 3d 3d 53 04 38 bd
       0.026526706 0.057802532 0.046328332 -0.044926
000290 a5 f3 15 3d 3b 76 43 3c 01 5d 5a 3d 3c 9d 82 bd
       0.03660931 0.011930044 0.05331135 -0.06377646
0002a0 63 98 a0 bd f8 ff 41 bb e5 ac 70 bd a8 7a 64 3d
       -0.078415655 -0.0029602032 -0.058758635 0.055781037
0002b0 f4 42 d8 bb aa c3 98 3c 5c 2a 28 bd 70 0b b5 bb
       -0.0065997783 0.018647987 -0.041056022 -0.005525045
0002c0 cc eb 17 3d 8a 2f 54 3d 40 f6 32 bb c4 a2 87 bd
       0.037090108 0.05180315 -0.002730742 -0.06622842
0002d0 00 19 26 3b c0 29 f5 3b 3b 9f 79 bd 59 dc 05 bd
       0.002534449 0.0074817836 -0.06094287 -0.032680843
0002e0 44 65 5e bc d0 be da 3b c8 42 d3 3c 9e 2e 7b 3d
       -0.013573948 0.0066755787 0.02578868 0.061323754
0002f0 54 6f c6 3c da 92 4a 3d 15 2d 82 3d 5a dd 74 3d
       0.024223007 0.049456455 0.06356255 0.05978141
000300 1e 04 7d bd ae 02 89 bd 30 96 c8 bb c8 99 fd 3c
       -0.061771505 -0.06689964 -0.0061214194 0.030957118
000310 5a 73 6d 3d bc 16 46 bc c0 16 83 bb dc fa 40 bc
       0.057971336 -0.012090381 -0.0040005147 -0.01177856
000320 d7 9b 63 bd 34 3b b1 3c c4 7d 71 bd f3 ba f7 bc
       -0.055568542 0.021634676 -0.05895783 -0.030240512
000330 ff 1c 7c 3d bd ed 2d 3b f2 7e d4 3c 14 b9 fa 3c
       0.06155109 0.0026539408 0.025939438 0.03060583
000340 2c 3e 86 bd 3c b8 40 bd 96 71 5b bc 23 ba 63 3d
       -0.06554827 -0.0470507 -0.01339378 0.055597436
000350 99 25 74 bd 75 bc 3c 3c 3f ed 9f bd c5 be 39 bd
       -0.05960617 0.011519541 -0.07808923 -0.045347948
000360 92 67 d7 3c 9a 75 8f bb 08 be 9f bd d8 f9 36 bd
       0.026294503 -0.004378033 -0.077999175 -0.044671863
000370 57 e6 a8 bd 9f e1 58 bc 4e b3 15 bc dc 61 8a bd
       -0.08247059 -0.013237386 -0.009136988 -0.067569464
000380 b7 e7 b5 3c ac 7a 6f bd 40 eb 9f 3c 04 44 9b bd
       0.022205217 -0.0584666 0.019521356 -0.07581332
000390 90 44 9c bc 5e c3 d3 3c 68 56 6e 3d df 11 0f bd
       -0.019075662 0.025849994 0.058187872 -0.034929153
0003a0 7e 66 cb 3c f7 43 6d bd fb 7b 52 bd 45 e5 84 bb
       0.024829146 -0.057926144 -0.05138777 -0.0040556514
0003b0 06 e1 23 3d fd a2 30 3d ce 51 4c 3d fd 7f b3 3c
       0.04000952 0.043124188 0.049882703 0.021911616
0003c0 06 9e df 3c 85 cf 53 bd c1 c9 4e bd 9e 36 7b bb
       0.027297031 -0.051711578 -0.050485376 -0.0038332115
0003d0 10 81 88 bd 32 18 9b 3c e2 48 8c bc 8b 26 54 bd
       -0.06665242 0.018932436 -0.017124597 -0.05179457
0003e0 b3 87 9d bd c3 b5 b5 3c 5f 05 3a 3d ba 63 dc bb
       -0.07691898 0.022181397 0.04541528 -0.0067257555
0003f0 d8 65 d3 3c a0 2d 75 3d ed 7e 53 bd 29 d5 a3 bc
       0.025805399 0.059857965 -0.051634718 -0.019999104

conv2.bias f4 [16]
000000 83 d1 aa bc de a6 2d bd cd 55 8e bd 6e f7 cc 3e
       -0.020851856 -0.042395465 -0.06949959 0.40032524
000010 99 b3 12 be ae 31 d1 bc d9 25 51 bd 24 4d 09 3e
       -0.14326324 -0.025536384 -0.051061485 0.13408333
000020 bb e1 f4 3e 84 a1 ec bc e0 7c 55 3c 21 93 96 3d
       0.4782847 -0.02888561 0.013030261 0.07352281
000030 d7 7c a2 bd 0b b1 24 bd d8 48 6e 3e a7 2d 0b bd
       -0.079339676 -0.040207904 0.23269975 -0.033979084

conv3.weight f4 [8, 16, 3, 3]
000000 20 df 1b 3d c0 7a 2c 3b ff 87 08 be 41 cf 08 3e
       0.038054585 0.0026318282 -0.13333128 0.13360311
000010 7a 80 a3 3d d8 7d e7 3c 45 23 15 be 90 31 0f 3c
       0.07983489 0.02825825 -0.14564236 0.008739844
000020 70 10 07 3c 71 85 20 3e a4 33 0b bd eb 9b 10 be
       0.008243665 0.15675904 -0.033984795 -0.14121978
000030 b8 95 b2 bc 82 d6 dc 3d 70 af 0d 3c 2f 6e 26 be
       -0.021799907 0.107831016 0.008647785 -0.16252969
000040 c1 85 23 3e d6 c1 3f bd 37 46 2f be af a7 33 bd
       0.15968992 -0.046815716 -0.17116629 -0.043861087
000050 dd 88 1f 3d ec 21 d6 bd 68 ca 4f be 93 00 50 be
       0.038948882 -0.10455689 -0.20292056 -0.20312719
000060 a5 e3 0e be 70 8b 61 3d 43 09 db bd e8 6e ce 3b
       -0.13954027 0.05506462 -0.10695126 0.006299842
000070 94 d9 ac bd d4 97 d1 3c 8b a0 82 bd 41 f5 88 bd
       -0.08439937 0.025585093 -0.063782774 -0.066874035
000080 8d 81 e3 bc 9c 2b 51 bd 16 7e 8b bd 1e 96 3e be
       -0.027771736 -0.05106698 -0.06811158 -0.18611953
000090 1f da 82 bd e7 b9 65 bd 86 e2 58 3d ba a5 4a 3c
       -0.063892595 -0.056085493 0.052950405 0.012368614
0000a0 f7 49 fb 3d 48 35 10 3e 37 89 0a bd 44 39 29 3e
       0.12269967 0.14082825 -0.033822265 0.16525751
0000b0 01 5d 10 be 5c 0c 31 3d f2 d1 cf 3d 7c db 55 3d
       -0.14097978 0.043224677 0.10147466 0.05221127
0000c0 e6 3a 1d be 20 fe e5 bc 68 88 b5 bc d6 eb ac 3d
       -0.15354499 -0.028075278 -0.02215977 0.0844342
0000d0 75 64 23 3e 70 fb 5a 3c 36 6d bf bd fb df 07 3e
       0.1595629 0.013365611 -0.09347002 0.13269036
0000e0 c0 5a 77 bd a5 d6 67 bd 2f 5f 2a be 69 ac 42 3d
       -0.06038928 -0.056601185 -0.16637872 0.047527704
0000f0 39 5b 24 bc 5c c8 1f 3e b2 e8 11 be 7d 3c ee bd
       -0.010031515 0.15603775 -0.14248922 -0.11632631
000100 77 79 55 3d 9b ca 68 be 8b 7c 32 be ac b8 b7 bd
       0.05211779 -0.22733538 -0.17430322 -0.0897077
000110 72 0a 4a be 28 55 79 be 9d 0d f4 bd 83 55 3a be
       -0.19730547 -0.24348891 -0.11916659 -0.18196683
000120 40 89 01 bd 1b cf 69 bc 33 a1 d7 3b 23 45 80 be
       -0.031625032 -0.014270569 0.0065804957 -0.25052747
000130 fb a2 08 be bc b6 a5 3d ef 77 93 bd ea c9 bd bd
       -0.13343422 0.080914944 -0.0720061 -0.09267028
000140 97 9c fc bc a2 47 0f be 20 c1 20 3d 03 36 0b 3e
       -0.030836387 -0.1399217 0.03924668 0.13594823
000150 f6 17 e2 3d 68 c8 ed 3c 48 87 be 3c 9f 88 af 3d
       0.110397264 0.029026225 0.023257867 0.0857098
000160 7c dc 23 3d 0a c4 de 3c 5b c9 05 be b6 30 de bd
       0.040005192 0.027193088 -0.13065092 -0.108491346
000170 66 e3 bb bd 5c 83 6c 3d 6a 2b 03 3d 20 37 f2 bc
       -0.09174232 0.05774246 0.032023825 -0.029567301
000180 44 e7 28 3d 44 1c fe 3d cc c5 32 3d 92 46 26 be
       0.041236177 0.12407735 0.043645665 -0.16237858
000190 7f 45 5b 3d ac 10 ce 3d ef d9 a5 3d 13 ff 27 bd
       0.053533074 0.10061774 0.08098208 -0.041014742
0001a0 5e ed 72 be 7f d2 0d 3e e9 94 a4 bb a7 c4 78 bd
       -0.23723361 0.13849829 -0.0050226343 -0.060734417
0001b0 80 2e 0a bd 70 fd 6b 3c c4 8d 61 3d d3 4f 97 bd
       -0.033735752 0.014403686 0.05506684 -0.07388272
0001c0 c8 31 be bc 30 54 33 bd 63 a7 13 be 50 ba 24 be
       -0.023217097 -0.04378146 -0.14419322 -0.16086698
0001d0 5a c5 b6 3d 00 de be bd ea f6 2d bc f0 5b 2d bd
       0.089243606 -0.09319687 -0.010617951 -0.042324007
0001e0 b0 aa 4d 3d 5b 4f a6 bd 86 4e 91 3d 8b 47 dd bd
       0.05021161 -0.081206046 0.07095055 -0.10804661
0001f0 3f 3e fc 3c 60 e2 0f be 49 28 b0 bb a7 27 19 3e
       0.0307914 -0.14051199 -0.005375896 0.14956532
000200 77 2f 0e be 9f 03 03 be 62 61 70 3c 21 6d fc bd
       -0.13885294 -0.1279435 0.014671655 -0.12325502
000210 73 ed 1b be d8 46 44 bb c1 ef c6 bd c4 7c 05 3d
       -0.15227298 -0.0029949453 -0.09713698 0.03258969
000220 88 2f 9f 3c b2 1e 94 3d ee 2c fc bd 7c 8e 35 bd
       0.019431844 0.07232417 -0.12313257 -0.044325337
000230 c0 53 00 bd 8b 4b 0e be fb 8f 01 3e a6 48 86 3d
       -0.03132987 -0.13896005 0.1265258 0.06556825
000240 87 8a 75 3c c6 ea 1c 3e 30 01 e4 3d 8c 3d e3 bd
       0.014986641 0.15323934 0.11133039 -0.110957235
000250 ab 4a d9 bd d8 83 fa bc da 2f 17 bd 97 db 10 3e
       -0.10609945 -0.030580446 -0.03691087 0.14146267
000260 bf 1a a6 3c d2 80 ed 3d 5c 2e 1f be 43 c0 0a be
       0.020276425 0.11596836 -0.15545028 -0.13549905
000270 30 e5 0a be ee ed 29 3e 95 db db bc 9a a9 12 be
       -0.1356399 0.16594669 -0.026838103 -0.1432251
000280 27 b1 c3 bc aa 13 ca 3d fe ea 00 3e 43 35 14 3c
       -0.023888184 0.09867032 0.12589642 0.009045902
000290 c0 58 b2 3e 24 38 4e be d5 33 60 be 53 8e 83 3c
       0.34833336 -0.20138603 -0.21894772 0.016059076
0002a0 f8 38 52 3e 66 f7 be bd 32 9d 9c 3c 6b ba eb 3a
       0.20529544 -0.09324531 0.019117925 0.0017984634
0002b0 01 cf 75 3e 8e 36 d0 3e a0 59 5b be 4e 75 cc bb
       0.24004747 0.40666622 -0.21420908 -0.0062395697
0002c0 e7 74 78 3e 0a 11 c9 be 60 f3 35 be 36 c5 73 3c
       0.24263345 -0.39270812 -0.17768621 0.014878562
0002d0 a9 7f b8 bd f8 db 00 3d 06 e9 ee 3d 37 b8 61 3d
       -0.09008724 0.03145978 0.116655394 0.05510732
0002e0 eb 7e 37 3d ec 13 4c 3d 9c 43 76 3d 69 46 59 3e
       0.044798773 0.049823686 0.06012307 0.21218266
0002f0 dd 70 a4 3e f4 01 d1 bd 5d d7 1b be 4f 06 70 3b
       0.32117358 -0.10205451 -0.15218873 0.0036624854
000300 fc bb cd 3d 00 0a e8 3b 84 44 11 3e dd 74 05 be
       0.10045621 0.00708127 0.14186293 -0.13032861
000310 e7 d8 b3 3c 81 7f 4d 3d dd 10 76 bc e5 ec 0c be
       0.021954013 0.050170425 -0.015018669 -0.13762243
000320 fd 1d f2 bd ab c2 c7 bb 42 68 74 bd 5b ce 38 3d
       -0.11822126 -0.0060962043 -0.05966974 0.04511867
000330 ed d6 21 bd e9 2b a7 bd 0f 95 93 3b fd b0 3b be
       -0.03951161 -0.08162672 0.004503853 -0.18329234
000340 bd 69 4c be e4 d5 20 be 75 84 86 bd 2d 60 80 3e
       -0.19962211 -0.15706593 -0.06568233 0.25073376
000350 50 26 2d bd bd 23 f3 3c fa 72 38 3e de 6b 43 3e
       -0.042272866 0.029680127 0.1801261 0.19084117
000360 f0 b7 70 3c 5c 56 56 be 92 d3 e9 be 17 01 ef 3d
       0.014692292 -0.20931381 -0.45669228 0.1167013
000370 11 6c 2e 3e b5 a6 b6 bd 31 f1 cf 3e c6 d4 54 3e
       0.17033412 -0.089185156 0.40613702 0.20784292
000380 d4 5f a1 bb 34 94 02 be 4c 06 00 bd f6 f3 73 bd
       -0.0049247537 -0.12751848 -0.031256005 -0.05955883
000390 0f e1 f7 3d e3 6c b3 3c 9b 6e 57 3d f5 29 23 3e
       0.121034734 0.021902507 0.052595716 0.15933974
0003a0 99 25 02 be c7 23 19 be 0a 46 0d 3e 55 7c 47 3d
       -0.12709655 -0.14955054 0.13796249 0.048702557
0003b0 b2 47 6f 3c fd 17 03 3d 1f 9b 4d bd 7b 95 1d be
       0.014604496 0.0320053 -0.050196763 -0.15389054
0003c0 1a 5a f4 bc 71 dd e5 bd 27 40 d0 bd b5 09 2e be
       -0.02982812 -0.11223877 -0.10168486 -0.1699589
0003d0 9c 20 f8 bd 4a 72 60 bd 5e 15 48 bc 8f f1 96 3d
       -0.12115595 -0.054796495 -0.012212126 0.073702924
0003e0 09 52 fe 3d 4f 7e 5f 3e 4c 94 42 3e c5 f7 a7 bb
       0.12417991 0.21825527 0.19001883 -0.005125972
0003f0 d4 75 29 3e 14 ef 9e bd a8 d8 e3 bd 2e 76 90 3d
       0.16548854 -0.07760444 -0.11125308 0.07053791

conv3.bias f4 [8]
000000 d9 bc a5 bd 1c b8 85 3e 65 7f b4 3e 17 51 64 bc
       -0.080926605 0.26117027 0.35253444 -0.013935349
000010 8a b8 2d be 35 32 dc 3e d6 39 51 be de 0b 25 be
       -0.16964927 0.43007055 -0.20432219 -0.16117808

convt1.weight f4 [8, 8, 3, 3]
000000 f9 0e 0c be 5b bd b7 bd 93 9b 58 3e f1 0f 32 3e
       -0.13677587 -0.089716636 0.21153097 0.17388894
000010 f4 d8 f6 3b 1d 1a 41 bd d5 49 f2 3d f7 9e 2c bc
       0.007533187 -0.047144044 0.118304886 -0.010535947
000020 06 93 09 bd 4f e7 c5 bd 53 55 87 bd 60 b2 e0 bc
       -0.033587478 -0.09663259 -0.06608071 -0.027428806
000030 e0 ac 58 bd 7f 30 e0 bd 42 03 11 be ca fa 10 3e
       -0.05289924 -0.1094675 -0.14161399 0.14158168
000040 a2 4e 6a 3e 3b 23 81 bd ea 3f 26 3e f4 14 32 bd
       0.22881559 -0.06305548 0.16235319 -0.043477014
000050 c0 76 c6 3d ec e5 b8 3d f3 e3 0b be 08 59 1a 3e
       0.096906185 0.09028229 -0.13661174 0.15073025
000060 9f 27 9e 3e 5d cf b3 bd 24 81 21 3e 27 fc fb bc
       0.30889603 -0.08779786 0.1577192 -0.030759884
000070 42 f3 58 3d f3 b4 92 bb 7b 4c 3f 3e f4 48 1a 3d
       0.052966364 -0.0044771372 0.18681519 0.03766723
000080 42 f8 26 bd 48 9d 18 3c 75 84 a2 bd 58 c1 69 3d
       -0.0407641 0.0093148425 -0.079354204 0.057069153
000090 0b be 12 be a8 f5 5d 3e 18 a6 14 3e 92 fe 0e 3e
       -0.14330308 0.21675742 0.14516485 0.13964298
0000a0 57 70 c6 bd 9f 7a 73 3d b0 10 fa bd fb ae 7d 3d
       -0.09689396 0.059443112 -0.12210214 0.061934453
0000b0 34 76 44 3d 33 94 d5 3d e1 74 3b 3e 7b 09 88 3e
       0.04796429 0.104286574 0.18306305 0.26569733
0000c0 58 43 94 bd 6a 5c b9 bd ea 4d 14 3e 89 af 31 3e
       -0.07239407 -0.0905083 0.14482847 0.17352118
0000d0 3c e3 3c 3e f1 3c be bd e4 ab bd 3b ac 33 d8 bd
       0.18446058 -0.092889674 0.005788313 -0.10556731
0000e0 79 46 27 3e 6e da d5 bd c0 1a a0 bc ae 8e 26 3d
       0.16335477 -0.10442053 -0.019544005 0.040663414
0000f0 64 36 af bd 5c 3b 91 bd e4 f3 b9 bc 98 01 81 3d
       -0.08555296 -0.070914 -0.022699304 0.06299132
000100 9a d5 5b bb 0a 81 3f be d1 38 81 3d 1b 06 2b bd
       -0.0033544064 -0.18701568 0.06309665 -0.04175387
000110 6e e8 81 3c a3 4a 39 be ea 76 95 bd d3 ee 50 3d
       0.015857901 -0.18094878 -0.07298072 0.05100901
000120 01 0e 68 3e a3 2f da be 28 cc 9a be 21 51 09 3e
       0.22661592 -0.4261447 -0.30233884 0.13409854
000130 5b 3b a9 bd 20 06 cd bd d6 07 5e 3e 66 b2 4f 3b
       -0.08263274 -0.10010934 0.21682677 0.0031692027
000140 27 a5 13 be eb fa 29 bf 8d 08 8f be 25 87 c6 3d
       -0.1441847 -0.66398495 -0.2793621 0.096937455
000150 ac 54 84 be ca 45 8f be fa 43 43 3e 27 ac 4d bf
       -0.2584585 -0.27982932 0.190689 -0.8034081
000160 61 38 8b 3c ee b5 e1 3d e4 49 1e be b2 4b b4 3d
       0.016994657 0.110210285 -0.15457875 0.088035
000170 47 08 52 3d 32 c8 fc be 86 91 37 3d c0 f5 9b bd
       0.051277425 -0.49371487 0.044816516 -0.076152325
000180 5b 7c d6 3e 48 53 2a be bf 34 26 3e 94 ac 28 3e
       0.4189175 -0.16633332 0.16231059 0.16472083
000190 1b c9 c3 be 88 ad 5e 3e 4c 08 be be 6d 9b b6 bc
       -0.3823937 0.21745884 -0.37115705 -0.02229091
0001a0 5b 9b fb 3d 44 aa b1 bc 94 53 23 3e eb 37 56 3e
       0.12285491 -0.021687634 0.15949851 0.20919769
0001b0 be 20 e1 bd 1c 10 a0 3d dc bf 10 3d 9d 8d 3d bf
       -0.10992573 0.078155726 0.03533922 -0.7404421
0001c0 c5 ea 5d bd 1e f6 1d 3e 64 9a df bd dd 65 39 be
       -0.05417897 0.15425918 -0.109181195 -0.18105264
0001d0 38 c7 42 bd 43 d4 46 be 17 07 be bd 8b 29 f2 3e
       -0.04755327 -0.19416909 -0.09278696 0.4729732
0001e0 b6 63 39 bd 2c 66 b9 3e f8 53 2f bd 37 ca 73 3e
       -0.045261107 0.36210763 -0.04280469 0.23807608
0001f0 e3 7b f5 3e 58 08 64 be b7 98 bd 3e ae 71 6c 3e
       0.4794608 -0.22268808 0.37030575 0.2309024
000200 60 96 75 3e 46 df a5 bc b6 93 33 3d 94 c1 fd 3d
       0.23983145 -0.020248067 0.04384204 0.12390438
000210 91 1d cc be 92 43 19 be bd be 58 3b e6 10 54 3e
       -0.39866307 -0.14967182 0.0033072673 0.20709571
000220 11 07 23 bf 9c 0c 47 bd 84 0e a4 3d 91 cb 00 bf
       -0.6368266 -0.04859601 0.08010581 -0.5031062
000230 94 c7 1c bf bd 33 bc be 91 d8 26 3e b5 15 b4 be
       -0.6124203 -0.36758223 0.16293551 -0.3517281
000240 81 0a 5f be 58 26 99 be 0c e8 7b bf aa a9 30 be
       -0.2178135 -0.29912066 -0.9840095 -0.17252222
000250 6d f6 a7 bd af 20 d6 be 73 45 db bd 40 91 ac bd
       -0.08201299 -0.4182181 -0.10706606 -0.08426142
000260 06 2b 6a 3d c3 cc 2d be 2d d5 a7 be ce 3c f8 3d
       0.057169937 -0.16972642 -0.32779828 0.121209726
000270 ee 90 93 3d 1b c6 fc bc 21 d8 00 bf 20 88 4f be
       0.072053775 -0.030856183 -0.50329787 -0.20266771
000280 76 d9 e2 3d 3a 26 11 3e 4b 8e 99 bd a6 e3 a1 3e
       0.11076634 0.14174739 -0.07497843 0.31618994
000290 4c 74 ae 3e eb e7 19 3e 1d 1f 5c 3e 42 b7 96 be
       0.34073102 0.15029876 0.21496244 -0.2943669
0002a0 38 d3 67 39 b5 ad ac be 06 87 30 3f a6 49 e5 bb
       0.00022108562 -0.33726278 0.6895603 -0.006997305
0002b0 36 76 be bd 71 ce 12 3e 44 db a8 bc 3a b9 7c be
       -0.09299891 0.14336564 -0.020612366 -0.24680033
0002c0 35 19 0a 3e 10 71 7f bd 00 37 a4 3e 52 12 93 3e
       0.13486178 -0.062363684 0.32073212 0.28724915
0002d0 18 6a d6 be e1 2e c1 be 1d 64 e0 3d 4a ed 14 3e
       -0.41877818 -0.37731078 0.10956595 0.14543644
0002e0 d2 7d d8 be 50 84 2d 3e d7 50 c8 be 7f 40 67 3e
       -0.42283493 0.16945004 -0.39124176 0.22583197
0002f0 e4 14 02 be 52 b0 d8 bd 5c 1b cb be a1 eb 08 be
       -0.12703282 -0.105805054 -0.3966931 -0.13371135
000300 63 c8 69 3d f6 46 93 3e 40 3f c4 3b cd 9e 35 3d
       0.05707587 0.28765076 0.0059889853 0.044340897
000310 60 d9 20 3f c1 04 ea 3d 6a 58 38 be b5 16 b3 3d
       0.6283169 0.11426688 -0.18002477 0.087445654
000320 0f 06 ac 3e dc f8 0d 3e 5f 7c fb ba 1f b3 6f 3e
       0.33598372 0.13864464 -0.0019186846 0.23408173
000330 17 5c 70 bd 21 48 0d be 0f bc 31 3e 4c d4 0c bd
       -0.058681574 -0.13797046 0.17356895 -0.03438215
000340 0d fe c4 be f9 a5 ac bf 3c ea 70 3e 5b 60 88 bf
       -0.38475075 -1.3488151 0.23526853 -1.0654405
000350 32 8b b2 bf 48 50 21 3e 05 e7 f6 be 7f 43 74 bf
       -1.3948729 0.15753281 -0.4822313 -0.9541549
000360 91 df 88 3d e4 de aa bc e3 bc 5f ba d4 1c d6 bd
       0.06683267 -0.020858236 -0.0008534921 -0.10454717
000370 78 0f d1 3d 16 30 20 bc 8e 53 aa bd 4b 5d 16 be
       0.102080286 -0.00977709 -0.08316718 -0.14684026
000380 c0 0e 73 be 07 cc 96 3d 86 b2 c4 bd 7c 9c 1e 3e
       -0.23736095 0.07363134 -0.09604363 0.15489382
000390 7d f4 41 3c 0f e6 06 3e a8 92 1d bd 58 37 c9 be
       0.011838076 0.13173698 -0.03846994 -0.39300036
0003a0 a3 93 c1 3e 46 4c 97 3d dd fb 99 be 79 38 25 be
       0.3780795 0.07387595 -0.3007497 -0.16134824
0003b0 a6 d8 58 3d fa 2d 1c 3e 7b a1 a9 ba ac 30 42 bd
       0.052940987 0.15251914 -0.0012941802 -0.0474097
0003c0 65 f9 f7 3d 04 e8 33 3e 43 7e ab bd 8a e4 a3 3d
       0.12108115 0.17568976 -0.08373692 0.08002575
0003d0 37 ed 66 bd 77 93 e0 bd 4c 85 94 be be 83 3f bd
       -0.05637857 -0.10965627 -0.29007947 -0.0467565
0003e0 d8 4d f5 bd 7f 5b c7 bd 53 d4 a9 bd 7d 7e 0c be
       -0.11977738 -0.09734248 -0.08292451 -0.13720126
0003f0 ae 2a 02 be ec 39 d9 3d 81 13 92 3d 5c b8 14 be
       -0.12711594 0.10606751 0.07132626 -0.14523453

convt1.bias f4 [8]
000000 12 c1 a2 38 24 28 32 3b 8e d0 5f bd 33 4b c3 3d
       7.760724e-05 0.002718457 -0.054642253 0.095358275
000010 33 bf 83 3e ae 61 2b be 21 e4 15 be 9f f3 75 3e
       0.2573181 -0.1673648 -0.14637806 0.24018715

convt2.weight f4 [8, 16, 5, 5]
000000 83 b1 eb 3d 55 2f f2 bd c6 77 96 be 07 b8 25 be
       0.11508467 -0.11825434 -0.29388255 -0.16183482
000010 d0 0d 65 3e e9 f0 37 be 2f 5a c1 3b 29 55 bc bc
       0.2236855 -0.17962994 0.0059006433 -0.022989826
000020 02 3d 68 be f4 5f 9b bd ba 69 c5 3d 12 cd 8e bd
       -0.22679523 -0.07586661 0.09639306 -0.06972708
000030 e3 28 dd be 48 72 9f 3c 9b 17 68 bc e6 e4 26 be
       -0.43195257 0.019463673 -0.014165784 -0.16298255
000040 07 3f 8a bd fe c5 20 be 5c 86 13 3a b7 aa 64 3e
       -0.06750303 -0.15700528 0.0005627626 0.22330748
000050 a6 ab d3 bc 2b e7 50 be 84 9b 63 bd c9 ac 96 bd
       -0.025838684 -0.20400684 -0.055568233 -0.07357175
000060 be 5e ce 3d 02 1d 7a be 02 cb 8f be cb fb b0 3d
       0.100766644 -0.24425128 -0.2808457 0.08641776
000070 69 ab 4f be 11 57 6e be cc 97 c9 3d 5d 54 a6 be
       -0.20280232 -0.232754 0.09843406 -0.3248624
000080 f1 84 ad bc 58 b6 9d 3d 7c 00 35 3c 1e 2b 3c bd
       -0.021181555 0.07700795 0.011047479 -0.045939557
000090 47 fb 41 be ab 72 04 3e 7b 3f bf be 9d 51 32 bc
       -0.18943511 0.12934367 -0.3735312 -0.010883716
0000a0 29 7d 6e 3e 6f 12 db 3c c8 23 37 3e d1 5c 6b 3e
       0.23289932 0.026742188 0.17884743 0.22984625
0000b0 19 72 b6 be 49 ad d0 3e a0 a1 56 3d 05 39 a3 3d
       -0.35633925 0.40757206 0.05240023 0.0796986
0000c0 b0 c2 3b 3d 37 29 83 3e 5b 1c f6 bd cb 83 8b bd
       0.045839965 0.25617382 -0.12017127 -0.06812247
0000d0 76 cc a3 bd 54 f0 23 bd 8e 5b ad bc de a7 89 be
       -0.07997982 -0.040024117 -0.02116182 -0.26885885
0000e0 c1 c5 79 be 01 5f ce be 20 89 0a be ea 3d 12 bc
       -0.24391843 -0.40306857 -0.13528872 -0.008925894
0000f0 76 50 ab 3d 1b 87 24 be e2 cf b8 bd 2b 14 05 3d
       0.08364956 -0.16067164 -0.090240255 0.032489937
000100 05 dd f5 bd 36 05 cd bd b9 cc f8 be 26 65 3a be
       -0.12005047 -0.100107595 -0.4859369 -0.18202648
000110 e1 25 61 bd b8 27 59 be 6a 6c 59 bd 93 88 76 be
       -0.054967765 -0.21206558 -0.053081907 -0.24075536
000120 cc 7e 8d be 04 54 1a be c6 0b 49 bd 7d 37 38 bf
       -0.276358 -0.15071112 -0.049083494 -0.7195967
000130 e4 e8 32 3f e5 14 7d bb 6b ba 9f 3e 52 f0 23 be
       0.6988661 -0.003861719 0.31196913 -0.16009644
000140 82 1d 7e 3e 49 b1 b8 3d f6 1c 11 be dc 1c e5 bd
       0.24815944 0.090181895 -0.14171204 -0.11187145
000150 cd 26 40 ba 4a 26 0a 3d 4f 99 3d bf 89 69 27 3e
       -0.00073300005 0.03372792 -0.74062055 0.16348852
000160 8e 2a c4 be 26 05 b4 bb 3b 25 49 3e 22 83 72 3e
       -0.38313717 -0.005493778 0.19643109 0.23682836
000170 7a 68 91 3d 8a 4b dc be 9a 8b ae 3b 5e 81 b7 3e
       0.071000054 -0.43026382 0.0053267004 0.35840887
000180 14 8f 0d bf 34 7b d7 3d b2 a7 2f be 69 f0 ed 3e
       -0.55296445 0.10521546 -0.17153814 0.4647248
000190 d0 3a 4b be 41 6e 96 be 9d c1 2e bd 06 ff 96 bc
       -0.19846654 -0.29380992 -0.042665113 -0.018432152
0001a0 48 c1 61 3e 09 c5 a1 be 74 45 c3 be 97 78 9a be
       0.22046387 -0.31595638 -0.38138926 -0.30170128
0001b0 7b 0e 95 be fd 6b 9b 3d 52 22 08 be 03 f3 f8 bc
       -0.2911261 0.075889565 -0.13294342 -0.030389315
0001c0 2c 8f a5 be 7c 72 4b be 15 d5 73 bd 9b cc 3e bf
       -0.32335794 -0.19867891 -0.059529383 -0.74530953
0001d0 2f 73 1d bf 71 54 e9 bd fd 94 3c be 91 d7 f8 be
       -0.6150388 -0.11393059 -0.1841621 -0.48601964
0001e0 02 a6 97 be 69 d3 b9 3d 69 4f b0 be 15 46 13 be
       -0.2961884 0.090735264 -0.34435585 -0.14382203
0001f0 78 52 04 be 73 35 c6 3d d9 31 ea bd 43 13 df 3e
       -0.12922084 0.096781634 -0.11435289 0.43569383
000200 2c db 40 3e 19 ac fa 3d 75 47 10 bf 18 7a 99 3d
       0.18833607 0.12239856 -0.56359035 0.07493991
000210 ea c3 70 bd 72 6b 94 bd c2 f3 62 3d cf b6 74 3e
       -0.05878059 -0.07247056 0.055408247 0.23897861
000220 72 82 a2 bd 1a 96 74 3e 1b e5 47 3d 8f 4f 91 3e
       -0.07935037 0.23885384 0.048802476 0.2838101
000230 43 57 bc bd cd b3 25 3a fb fe 2c be 0c f9 38 bd
       -0.09196331 0.0006321043 -0.16894142 -0.045159385
000240 f0 73 67 be 3e ce e0 bd 01 5d 26 3e b1 cb 68 3d
       -0.2260282 -0.109768376 0.16246416 0.05683488
000250 10 04 78 bd 89 80 50 be 06 76 7d 3d 93 b5 6a be
       -0.06055075 -0.20361532 0.061880134 -0.22920828
000260 77 28 40 3c 7a bf 27 be b7 3e 21 3d d4 97 f9 3e
       0.011728398 -0.16381636 0.03936645 0.48748648
000270 b5 dc 0c bb 2f 43 c5 bd 37 9d d1 3d 94 35 d0 bc
       -0.0021493856 -0.09631955 0.102350645 -0.025416173
000280 ae 3a e7 bc 21 27 fb bd 30 5b 07 3e 89 75 3a 3e
       -0.028226223 -0.122633226 0.13218379 0.18208899
000290 47 e6 20 3d dc 88 23 3e 8c ad 7e be f4 f6 2d be
       0.03928211 0.15970176 -0.2487089 -0.16988736
0002a0 fc 12 14 3e 49 50 0a be fa 43 52 3d 5a 38 da 3e
       0.14460367 -0.13507189 0.05133436 0.42621118
0002b0 00 0a fe 3d 57 96 f2 3e 84 18 9b 3e aa ad 93 be
       0.12404251 0.47380325 0.3029214 -0.28843433
0002c0 fd 5d e1 bc 8d c7 10 3e 05 09 f1 3d e6 8e 3c be
       -0.027510637 0.14138623 0.117692985 -0.18413886
0002d0 94 c0 f6 be 2e ce ef 3d 10 4c 40 be fd 3f 0a bd
       -0.481938 0.117092475 -0.18779016 -0.03375243
0002e0 9b 8f 10 bf 0e 33 64 bf ad 7a af be 01 d4 3f 3e
       -0.56469125 -0.89140403 -0.34273282 0.18733217
0002f0 41 ba fc 3d e8 87 63 be 63 c2 bd 3c a1 56 85 bd
       0.123402126 -0.22219813 0.02316398 -0.06510664
000300 8a 7e 63 3d 36 08 f6 3d 05 83 9a 3e 73 45 0d be
       0.0555406 0.12013285 0.30178085 -0.13796024
000310 ac 72 80 be 02 df d8 bd fc 72 ba bc 0a 4b 95 3d
       -0.25087488 -0.1058941 -0.022759907 0.07289703
000320 c6 71 b3 3e ca e5 0e 3d 40 f1 d6 be 07 b4 29 bd
       0.3504774 0.034887113 -0.41980934 -0.041431453
000330 13 93 aa bd b7 45 ea be 1c 00 77 be 9b 1a 87 bd
       -0.083288334 -0.45756313 -0.24121135 -0.065968715
000340 62 23 9a be 20 85 54 be 06 7c 32 be 41 fe a5 be
       -0.3010512 -0.20753908 -0.17430124 -0.32420543
000350 e4 40 12 3e 3c f6 c6 be 94 cc 27 3d 63 14 2a be
       0.14282566 -0.38859737 0.040966585 -0.1660934
000360 09 12 1d be e8 7a d7 be 7b d8 31 bf ab 0e 92 be
       -0.15338911 -0.42085958 -0.6947095 -0.28526816
000370 25 9b 55 bf d5 7e 6e be a2 47 0d be 54 d6 1b be
       -0.83439857 -0.2329057 -0.13796857 -0.15218478
000380 e4 3b e0 be ab 0f d8 be 8f 9e bd 3d 94 86 90 bc
       -0.43795693 -0.42199454 0.09258758 -0.017642297
000390 e3 c2 37 be 0d de 99 be fd 27 50 be 0c 01 3b be
       -0.17945437 -0.30052224 -0.20327754 -0.18262118
0003a0 3f a8 c9 be 2e b7 7a be 8b 0a d1 3e c5 96 9e be
       -0.39386174 -0.2448394 0.40828356 -0.30974403
0003b0 3d fc a0 bc 52 da e5 bd ab b3 06 bd a2 41 55 bd
       -0.019651527 -0.11223282 -0.03288619 -0.052064545
0003c0 da 24 dd bb b6 7b b8 3d 89 b8 92 be 6d e9 28 3e
       -0.006748778 0.09007971 -0.28656414 0.16495295
0003d0 9e f2 c2 3c 67 23 3f 3e f2 29 b7 bc aa 54 cb 3d
       0.02379733 0.18665849 -0.022358868 0.09928258
0003e0 17 55 8a 3e 52 9a 29 be 46 3d 0c 3e 24 3d 02 bd
       0.27018043 -0.16562775 0.13695249 -0.03179659
0003f0 a1 82 00 bd ef 9a 37 bf 00 01 bc be ad 68 3a 3d
       -0.031374577 -0.71720785 -0.36719513 0.045509983

convt2.bias f4 [16]
000000 98 af 70 3e 59 eb 0b bc 28 c4 8a 3e 13 30 c0 bd
       0.23504484 -0.008539998 0.2710278 -0.093841694
000010 9c 19 e7 3d 56 f0 20 be 8c 43 1a 3e b6 2e b2 ba
       0.112841815 -0.15716681 0.1506483 -0.0013594243
000020 33 47 bb 3d b1 5a 46 bd af 79 3f bd 76 17 57 3e
       0.091444395 -0.048426334 -0.046746906 0.21005043
000030 8b 4a ee 3d cd 4e 34 3e 57 16 26 3e 7d 67 ae 3d
       0.11635312 0.17608185 0.1621946 0.085158326

convt3.weight f4 [16, 32, 9, 9]
000000 62 8e 02 bf ed 70 41 3e 7e a5 ac be e1 7a e5 be
       -0.5099851 0.18890734 -0.3372001 -0.44820312
000010 2c 37 80 3e 59 51 e0 be 50 0f 03 bf ba 91 58 3e
       0.25042093 -0.43812063 -0.5119524 0.2114934
000020 fa ab 32 3e be 1a c8 3d 3b c7 1e be b3 66 c6 3e
       0.17448416 0.09770726 -0.15505688 0.38750228
000030 0b d2 bd be c7 fc f2 be fc 98 ac 3e ef fd 1a be
       -0.37074313 -0.4745848 0.33710468 -0.1513593
000040 de d4 e8 be 53 6d d3 3e a2 53 88 bd f8 f9 01 be
       -0.45474905 0.41294345 -0.06656577 -0.12693012
000050 27 fa b0 be 05 2d da bd 36 f3 ff bd 35 73 e4 be
       -0.3456585 -0.10653118 -0.12497561 -0.44619146
000060 7f cd f8 bd 72 fa d3 bc 52 81 8a be 76 c5 89 be
       -0.1214857 -0.025876258 -0.2705179 -0.26908463
000070 5e d3 98 3e 09 27 dd be 35 5d 0d bf 66 00 9a 3e
       0.2984876 -0.43193844 -0.5522035 0.3007843
000080 3e ab 44 bf 20 54 66 be df 71 5b 3e 4d ec 59 be
       -0.76823795 -0.22493029 0.21430157 -0.21281548
000090 f4 45 58 bf 84 fb 31 be c2 a1 c5 3e 44 62 ba be
       -0.8448174 -0.17381102 0.38599974 -0.36403096
0000a0 7b 31 e8 be 0c e8 98 3e ed d9 2d 3e a5 27 bb be
       -0.4535025 0.29864538 0.16977663 -0.36553684
0000b0 06 31 c6 3e 5e 8f 53 bd 37 4a ac be b1 01 45 be
       0.38709277 -0.051650397 -0.3365037 -0.19238926
0000c0 56 6c 60 be 26 2d 88 be 20 59 54 bf c8 34 b6 bd
       -0.21916327 -0.26596946 -0.82948494 -0.08896786
0000d0 92 f5 72 be 1e 15 09 bf 1a ca d1 bd fb a0 8b 3e
       -0.2372649 -0.5354785 -0.10243626 0.27271256
0000e0 b2 7a 91 3d ba b3 a7 3c 88 a2 96 3e f4 a7 ac be
       0.071034804 0.020471442 0.29420877 -0.33721888
0000f0 ce b9 56 be 41 32 85 3e 00 7a 21 bc 04 c7 dd bd
       -0.20969316 0.26014903 -0.009855747 -0.10828975
000100 95 b3 14 3e 08 a0 84 3e 6d 1d 6c be 93 2c a1 be
       0.1452163 0.25903344 -0.230581 -0.3147932
000110 f2 e4 98 3e 67 6c 85 bd 63 f2 f9 bd 8f ab 77 3e
       0.2986217 -0.06514817 -0.12204435 0.24186538
000120 d0 9b 13 3d 5d e9 15 be 99 fc 14 be 1f ef 98 bd
       0.036037266 -0.14639802 -0.14549483 -0.07467484
000130 23 65 4e bd f9 ee 24 be 34 af 18 bd a0 ec 7c 3d
       -0.05038942 -0.16106786 -0.03727646 0.0617491
000140 cf 5b 07 bd a6 e8 6a 3c 48 f3 f8 3d 9e 29 de 3d
       -0.03304654 0.014337694 0.12155777 0.108477816
000150 43 b8 97 bd 1b 7f 15 3d 9b bf f1 3c 01 ba 58 3d
       -0.07408192 0.03649817 0.02951031 0.052911762
000160 f5 1d 70 3e d1 ef cf 3d 99 4f 2b be 12 12 01 3c
       0.23448928 0.10153163 -0.16729583 0.007877843
000170 1b 79 d9 3c 92 0c 0e be 85 46 0f 3e 65 43 04 bc
       0.026547005 -0.13871983 0.13991745 -0.008072709
000180 cb b6 59 be a9 d8 13 3e ed cf e6 bd fa 52 d1 3d
       -0.21261136 0.14438118 -0.112701274 0.10220905
000190 20 5a ae 3d 75 b5 80 bc 39 2b b8 3c 16 38 ce bd
       0.08513284 -0.015711525 0.022481548 -0.10069291
0001a0 df 3c 6d 3c 91 27 3c 3e 7a 30 aa bd 8f 80 fd bd
       0.014479845 0.18374468 -0.083100274 -0.12378036
0001b0 a4 b2 09 3e ec 99 ef 3d 67 ba 67 3e 67 cc 20 3d
       0.13447052 0.1169928 0.226297 0.039257433
0001c0 de 4a 77 3e 60 06 fc 3d fb f9 f3 3d c0 92 80 3e
       0.24149653 0.123059034 0.11912914 0.2511196
0001d0 ef a0 7d 3e 55 6b cc 3e 61 ab 9b 3e 64 f5 c5 3d
       0.24768423 0.39925638 0.3040419 0.09665945
0001e0 d0 8a 14 3f 96 06 f8 3e 9a 7b 06 3e 27 b6 e0 3e
       0.5802431 0.48442525 0.13133088 0.4388897
0001f0 4f 4a 9d 3e a8 74 06 3e 15 a0 80 3e 17 73 f8 bd
       0.30720755 0.13130438 0.25122133 -0.12131327
000200 cb cc dc 3d 96 4b 39 3e b0 87 c7 be ff d0 14 3d
       0.10781249 0.1809524 -0.3897071 0.036332127
000210 f6 0b 5a 3e 38 3b d1 3d 2c 85 8a bc f4 95 38 3d
       0.21293625 0.10216373 -0.016909204 0.04506488
000220 15 90 94 3e 62 b4 3e 3e bb e1 c1 3d 3d 60 c0 3e
       0.29016176 0.18623498 0.09466883 0.37573424
000230 b5 be 5c 3e a8 de ea 3d 05 82 2e 3d f6 7b 07 3e
       0.21557124 0.114682496 0.042604465 0.13230881
000240 e1 47 e6 be c9 92 89 3d f1 f5 5c 3d c3 c4 e3 3d
       -0.44976714 0.0671745 0.053945486 0.11121514
000250 59 19 d1 3d 12 3f f7 3d f8 db 03 bf 04 b1 1b bd
       0.10209913 0.120725766 -0.5150752 -0.038010612
000260 11 f8 b3 3d 13 2d 47 3e 33 38 d3 3d cf da b6 37
       0.08787549 0.19450788 0.103134535 2.1797981e-05
000270 bb fa 9e 3e 52 e1 73 3d 04 3a 09 3f c4 db 38 3e
       0.31050667 0.059541054 0.5360415 0.18052584
000280 35 3a e2 3d 97 26 3a 3e b3 8d 31 be 0f 44 6e be
       0.11046258 0.18178783 -0.1733921 -0.2326815
000290 ae 23 c2 3d 74 2b 59 bd 8d 32 0f 3e 19 89 e7 3c
       0.094794616 -0.053019956 0.13984127 0.028263615
0002a0 f2 6b 8f be 03 39 3d 3b c8 27 7c be eb 12 17 3d
       -0.28012043 0.0028873093 -0.2462455 0.036883276
0002b0 d9 f4 f3 be aa 55 4a 3c f9 63 43 3d bb 10 ef be
       -0.4764774 0.0123495255 0.047702763 -0.46692452
0002c0 90 bb 85 3d 01 26 fa 3d e0 ba 1a 3e 79 42 be 3d
       0.06529915 0.1221428 0.1511035 0.092900224
0002d0 c6 2f 29 3e 9f 52 62 be ef bd 25 3e 08 85 94 3e
       0.1652213 -0.2210183 0.16185735 0.29007745
0002e0 95 11 c0 be 6c 1e 7f bc c1 f4 28 be b4 45 db bf
       -0.37513414 -0.015571218 -0.16499616 -1.7130647
0002f0 8f 6f 35 bf 0c db d3 3d bd aa bb 3e 7c d1 93 bd
       -0.7087335 0.10344514 0.366537 -0.0721769
000300 01 5e cc 39 b3 1a 90 bd 70 c4 39 3c 2c d6 2c 3e
       0.0003897995 -0.070363425 0.011338338 0.16878575
000310 31 fa 7f 3d cc 05 08 bb 6a dd b9 bd e3 f2 d4 bd
       0.06249446 -0.0020755408 -0.090754345 -0.103978895
000320 ab 31 2a 3e 87 63 6c be c8 78 f4 3c a8 f2 a5 3e
       0.1662051 -0.23084842 0.02984275 0.32411695
000330 f2 f9 b4 3c 83 e4 4d 3d 27 f8 5b 3e 99 53 c3 be
       0.02209184 0.050266754 0.21481381 -0.38149717
000340 46 73 72 be 23 58 47 3e 94 a0 4f 3d 12 7a b0 bd
       -0.23676786 0.19467215 0.05069025 -0.08617033
000350 c0 9e 30 3e 65 9d 4d bf 13 ab 8a 3d c0 ec c1 3e
       0.17248058 -0.8031829 0.06770911 0.37875938
000360 00 c5 ae bd 40 96 89 3c c8 72 5d 3b dd 16 a5 bc
       -0.085336685 0.016795278 0.0033790339 -0.020152504
000370 ca 74 65 be ab 54 a3 3d 27 7a 28 be c1 83 89 bd
       -0.22407833 0.079751335 -0.16452847 -0.06714583
000380 bd 67 a3 3c 65 ba 37 3e 24 b5 13 bf e0 fd 11 bd
       0.019946927 0.17942198 -0.57698274 -0.035642505
000390 53 05 2f 3b 75 d1 af 3d b9 3c a9 be 73 ff 78 3d
       0.0026706054 0.08584873 -0.3305414 0.06079049
0003a0 ba fe 90 3d 93 f6 5a be c3 f2 f5 be d2 23 f5 be
       0.07079835 -0.21383123 -0.48036775 -0.4787889
0003b0 0f ef 5b bf 1b 36 35 3e d2 95 47 be 64 f4 f4 be
       -0.8591165 0.17696421 -0.19490746 -0.47842705
0003c0 c9 83 ab 3d ca b3 6f 3d 82 f8 c0 bf 5a 73 0e 3e
       0.083747454 0.05852107 -1.5075839 0.1391119
0003d0 cb 9b 9a 3d 6d a1 bd 3d ff ce 8c bc 44 3d 18 3e
       0.075492464 0.09259305 -0.017188547 0.14867121
0003e0 4b 8c 3d 3d 45 8c 85 3c d8 47 80 3c 82 71 0b 3d
       0.046276372 0.016302237 0.015659258 0.034043796
0003f0 d6 41 02 3e 5a 22 aa bd d5 c8 e8 3b b5 8f 2c 3e
       0.12720427 -0.08307333 0.007104019 0.16851695

convt3.bias f4 [32]
000000 e9 13 2e 3e 9b c3 65 3d 98 53 01 3d 2d c5 dd 3c
       0.16999783 0.056094747 0.03157386 0.02707156
000010 ac 9d 12 3d 76 dc c7 be 7c 30 09 3d bb 6b 83 3c
       0.0357949 -0.39035386 0.033493504 0.01604258
000020 d3 1f 09 be f4 68 e5 3d 13 f4 bb bc cc e4 75 be
       -0.13391046 0.11201659 -0.022943532 -0.2401306
000030 8a 90 d5 3d 1f 50 c6 3b ed ec 86 be 07 d9 26 3e
       0.10427959 0.0060520316 -0.26352635 0.16293727
000040 20 6d 4e 3e da e0 7b be 67 27 e7 3d 35 19 47 be
       0.20158815 -0.24597493 0.11286812 -0.1944321
000050 ff 01 66 3d 79 d4 9d 3c c0 44 ec 3d f8 0a 1f be
       0.056154247 0.019266354 0.115365505 -0.15531528
000060 88 07 21 3d f3 b7 98 3d 29 95 16 3e 77 8a f6 3d
       0.039313823 0.074569605 0.14705338 0.12038129
000070 7d aa dd 3c 42 da be 3c f1 6e 46 3e 3a bb 34 3e
       0.027058834 0.023297433 0.19378258 0.17649546

pos_output.weight f4 [1, 32, 2, 2]
000000 92 0d 4c be a5 cd 39 be 02 5b 5c be d1 ee 49 be
       -0.19927052 -0.18144853 -0.21519092 -0.19720007
000010 44 e7 c5 3d c3 81 ca 3d be 78 93 3d bc 9b c5 3d
       0.09663251 0.09888031 0.07200764 0.096488446
000020 93 fb 9a bc 78 57 9c bc 05 c2 19 bd 4d 2b 3b bd
       -0.018918788 -0.019084677 -0.037538547 -0.04569559
000030 16 68 2c be 5e 39 a0 bb 0b d2 2c 3e 02 67 f1 3d
       -0.1683658 -0.004889651 0.16877 0.11787225
000040 de 44 1b 3e b3 89 03 3e 90 a3 83 3d 4e 81 e6 3d
       0.1516299 0.12845497 0.064276814 0.11255132
000050 fb de a1 be b3 ed a2 be 4e 43 9e be 31 5e aa be
       -0.31615433 -0.31821975 -0.30910724 -0.33274987
000060 1b f0 55 3e f3 74 53 3e 37 7f 65 3e e1 f2 3c 3e
       0.20892374 0.20650081 0.2241181 0.18452026
000070 ca 84 b6 3d 37 17 e3 3d 7e 20 2d 3e 12 8f 47 3e
       0.08912046 0.11088412 0.16906926 0.1948817
000080 ff 93 98 bd 53 63 88 bd 0c 8b 2c bd a2 9e b7 bd
       -0.07450103 -0.066595696 -0.042124793 -0.08965804
000090 1a fc 4d 3e ca 78 3d 3e ab 9d 52 3e 29 b3 1a 3e
       0.201157 0.18503109 0.20567958 0.15107407
0000a0 de bd 14 3e 45 f6 cd 3d d9 9e 75 3e e2 bb 9c 3e
       0.14525554 0.10056738 0.23986377 0.30612093
0000b0 ec 83 65 3d 65 6b e7 3c b3 b3 df 3d 73 be f2 3d
       0.056034014 0.028249452 0.10922947 0.118527316
0000c0 75 e1 3d ba fb 43 0f bd 46 33 ed bd 13 04 b7 bd
       -0.00072433735 -0.03497694 -0.11582045 -0.08936324
0000d0 0b 99 c8 3d d5 40 3d be e2 9d f5 3d 7c f0 57 3c
       0.09794816 -0.18481763 0.119930044 0.013179895
0000e0 73 4f fe bb 3d c9 bc 3d 64 8b 45 3c 99 70 02 3e
       -0.007760936 0.09218071 0.012057159 0.12738265
0000f0 37 b1 55 be f6 10 18 be b0 a5 f5 bd a8 04 41 be
       -0.20868383 -0.1485022 -0.11994493 -0.18849432
000100 aa 26 a9 3d 0a cb 80 3e ab 60 ab bc 0a 23 9e 3d
       0.08259328 0.25154907 -0.020920118 0.07721527
000110 0d ab bf 3d f8 2f d4 3d ac e6 cb 3d 21 a0 af 3d
       0.09358797 0.10360712 0.099561065 0.08575464
000120 7a c7 50 3e 09 f2 52 3e 5d eb 28 3e e9 ae 45 3e
       0.20388594 0.20600142 0.16496034 0.19305004
000130 7a 0e 7a 3d e6 dd 57 3d 1c 50 15 3d c5 4f 77 3d
       0.061048962 0.052701853 0.03645335 0.06037881
000140 e4 a9 af bd 36 81 b6 3d 7a 43 4f 3d 04 93 48 3e
       -0.08577326 0.08911364 0.05060146 0.19587332
000150 47 a0 6c 3e 92 32 6f 3e 0a 7e 5a 3e a1 c8 62 3e
       0.23108016 0.23359135 0.21337143 0.22146846
000160 f8 96 04 3e 57 4d 3a bd 35 bc 8e bd 1c 64 34 3e
       0.12948215 -0.045483913 -0.069694914 0.17616314
000170 00 4b 6f 3c b3 32 cd 3c a3 c4 86 3c c8 28 1d bd
       0.014605284 0.02504859 0.016451186 -0.03836897
000180 0a a9 15 3d 99 ad 6a 3d e2 3b 2a 3d 1a b2 11 3d
       0.03653816 0.057294462 0.041561015 0.03557024
000190 be 10 59 3e b2 1f 21 3e 1f e1 55 3e 7d 5d 3e 3e
       0.21197793 0.15734747 0.20886658 0.1859035
0001a0 30 98 08 3e f2 77 05 3e 06 10 15 3e 17 93 b7 3d
       0.13339305 0.13034037 0.14556894 0.08963602
0001b0 0d 05 4f 3e 61 b2 a6 bc b6 5a 0b be 2b 07 37 3e
       0.2021677 -0.02034873 -0.13608822 0.17873828
0001c0 07 3b 89 bc 4f 59 d9 bd 23 e7 f0 3d 81 cd 37 3d
       -0.01675178 -0.106127374 0.11762836 0.04487372
0001d0 5e 07 48 3d bc bd 2e be 06 b1 2d 3e b3 0c b7 bc
       0.04883515 -0.17064565 0.1696206 -0.022344923
0001e0 f9 0f 89 bd 73 21 22 be f6 d5 61 3e ca b5 b6 bd
       -0.066925 -0.15833072 0.22054276 -0.08921392
0001f0 6b 58 2b 3e 3f d1 1d 3e 36 c6 0c 3e 30 60 30 3e
       0.16732948 0.15411852 0.13747486 0.17224193
