output/models/220502_0733_ggcnn2_epoch_80/epoch_50_iou_0.79_statedict.pt (torch, 274205 bytes, 20 tensors)

features.0.weight f4 [16, 1, 11, 11]
000000 b7 46 3e bc 31 1c 60 bd 75 cf c2 bc 20 ce 5f bd
       -0.011613539 -0.054714385 -0.023780564 -0.054639935
000010 4e 2c f8 3c b0 12 13 bd a4 d0 79 bd c1 e6 4a bd
       0.030294564 -0.035906494 -0.06098999 -0.04953647
000020 f2 76 e5 3c 2a 0a 12 bd 1b 95 0f 3d a4 d5 ac 3c
       0.02801082 -0.035654224 0.035054307 0.021097966
000030 44 71 0e 3d 34 e7 42 bd d0 98 88 bd 61 64 1c bd
       0.034775987 -0.047583774 -0.06669772 -0.038181666
000040 f1 a3 d1 3c 90 74 71 bd 13 30 51 bd e2 c2 13 bc
       0.025590869 -0.058949053 -0.051071238 -0.009018632
000050 f2 43 7f bd 21 97 47 3b 7e f7 0d bd a5 30 94 3c
       -0.062320657 0.003045507 -0.034659855 0.018089602
000060 12 20 0d bd 75 c3 26 bc f5 e9 60 bd 25 5b 74 bd
       -0.034454413 -0.0101784365 -0.05491062 -0.059657235
000070 9e 78 6c bd cc a3 37 bd fa 83 ac 3b f3 ca fa bc
       -0.057732217 -0.044833943 0.0052647563 -0.030614352
000080 d8 3a 14 3d f4 76 08 bc 3f f9 84 3b 3d 0e e1 bc
       0.03618893 -0.008329142 0.0040580328 -0.02747261
000090 74 a5 13 3d 27 37 7c 3b 12 a9 a4 bc ee 6f 16 bd
       0.03604646 0.0038485022 -0.02010015 -0.03672784
0000a0 98 57 1f 3d c8 30 07 3d 6e ab 7b bc b7 47 86 bc
       0.038901895 0.033005506 -0.015360696 -0.016391618
0000b0 0d 24 9f bc 8d 35 59 3c 6a 99 ae bc ff 96 5b 3d
       -0.01942637 0.013257396 -0.021313388 0.053610798
0000c0 0e 27 77 3d ab 58 7b 3d 5c 96 11 3d 7d 5b 07 bd
       0.06033998 0.061363857 0.035543784 -0.033046234
0000d0 59 38 d8 3c 20 5a 35 3d e2 3a e0 bc 7e 02 7b 3d
       0.026394056 0.044275403 -0.027371828 0.061281674
0000e0 44 2f e7 bc 85 8a 42 3d 03 7e 10 3d a2 ab 57 3b
       -0.02822078 0.047495384 0.035276424 0.0032908698
0000f0 c1 ae 84 3c cb 78 76 3d 18 ab f3 bc 69 d5 c5 bc
       0.01619661 0.06017379 -0.02974467 -0.024149613
000100 25 07 6b 3d cd c2 88 3a 5e a4 01 3a b0 59 3a 3d
       0.05737986 0.0010434032 0.0004945452 0.04549569
000110 97 df 3a 3d 58 3a 27 bb 05 97 0f 3d 69 15 03 3d
       0.04562339 -0.0025516953 0.035056133 0.03200284
000120 48 28 db 3c ed c8 af 3c 33 f3 cc 3c 7b 86 88 3c
       0.026752606 0.021458114 0.02501831 0.016665688
000130 be 46 e3 bc e0 25 35 3d f0 8e ee 3c f7 75 b3 3c
       -0.027743693 0.044225574 0.029120892 0.021906836
000140 1d b1 49 bd da c2 46 3c 8b 01 1a bd 72 3a 4b bc
       -0.049241174 0.012131417 -0.037599128 -0.012404071
000150 7d b4 36 3c c0 dc af bc ae 6a 0d 3d d3 44 3b 3c
       0.01115143 -0.021467566 0.034525566 0.011429983
000160 ff 8c 8a bc 0e e2 99 3c c1 23 8d 3c 36 59 c7 3c
       -0.016912935 0.01878455 0.017228963 0.024334531
000170 3d af dd bb 8a 48 d4 bb 57 3b 51 bd ef a6 ff bc
       -0.006765275 -0.006478374 -0.05108198 -0.03120753
000180 09 a6 51 bd 44 d2 5c bd 7d 91 c6 bc 87 c5 d0 bb
       -0.051183734 -0.053911462 -0.024239296 -0.0063712033
000190 12 a2 08 3c ac 29 6e 3c d1 55 33 3d 8f fe e6 3c
       0.008339422 0.014536303 0.043783013 0.028197555
0001a0 ca 24 5c bd 38 d4 0e bd d8 4b 44 bd c0 8e 19 bd
       -0.053746022 -0.034870356 -0.047923893 -0.037489653
0001b0 fa 9d bb b9 9e e9 fb bc 20 fe a0 bc 17 bc 89 3c
       -0.0003578512 -0.030751046 -0.019652426 0.016813321
0001c0 0c bb 8b bd f0 10 88 bd ad e3 23 bd 2f 4b 00 3c
       -0.06822786 -0.066438556 -0.04001205 0.007830425
0001d0 43 10 3c bd b8 6a f1 bc 2c b8 ae bb 44 0e 03 3c
       -0.045913946 -0.029469833 -0.0053320136 0.007999007
0001e0 2e dc 1a 3d ac cf 11 bd 9b 35 45 bd bf c8 26 bd
       0.037807636 -0.035598442 -0.048146825 -0.04071879
0001f0 11 40 b5 3c 7f 31 43 bc d1 24 d0 ba 8e ef 64 3d
       0.022125276 -0.011913656 -0.0015880113 0.05589252
000200 c8 2a 79 3d 83 b7 91 3b 72 f7 44 bc 33 c8 d2 bb
       0.060831815 0.004446925 -0.012021886 -0.006432557
000210 45 ce 1e bd a9 ad 0a bd 79 a8 91 bc ae e7 61 bd
       -0.038770933 -0.03385702 -0.01778053 -0.055152588
000220 63 ab 35 3d 1f d8 20 3c cc 0f 88 3c 5c da 75 3d
       0.0443529 0.009817152 0.016609095 0.060022697
000230 eb ab b6 3d e9 47 4a 3d ac 9a 6f 3d 7d ad bc 3c
       0.089195095 0.049384985 0.058497116 0.023031944
000240 c0 cf 6e 3a 01 81 3c 3c 12 81 2a bd 05 f8 08 3d
       0.00091099367 0.011505366 -0.041626997 0.033439655
000250 cc 18 f6 3c 26 7e d5 bb d0 9f 3e 3d 63 b1 9b 3d
       0.030041121 -0.006515282 0.046539128 0.07602193
000260 f9 e6 eb 3c d7 9a 1f 3d 80 2d 99 bc 55 2c b4 3c
       0.02879666 0.038966026 -0.018698454 0.021993795
000270 37 54 e1 bc 4a 41 61 bd ce db 4e 3d 52 31 0c 3d
       -0.027505977 -0.054993905 0.05050259 0.034226723
000280 eb 8a b9 bc a0 65 0d 3d 12 63 59 bd 60 4f ed 3c
       -0.022649249 0.034520745 -0.053072996 0.028968513
000290 0c 30 ec 3b e2 c4 74 3c d0 e2 34 bc 92 b8 29 bd
       0.007207876 0.014939519 -0.011040404 -0.041435786
0002a0 bd 69 17 3d e9 c4 57 bd 94 12 cd bc 9e 56 74 3d
       0.036966074 -0.052678023 -0.025033273 0.059652917
0002b0 25 95 65 bd 3f a6 c7 3b ba 4f a5 bd 51 0f 84 3c
       -0.05605044 0.006092816 -0.08071847 0.016120585
0002c0 b7 7a e2 3b 6b 21 22 3d 97 66 13 bd db f2 fa bb
       0.0069116014 0.03958265 -0.03598651 -0.007658345
0002d0 ad 21 39 bd f6 6d 85 bc 55 92 f3 bc b0 4b 05 3d
       -0.04519813 -0.016287785 -0.029732862 0.032542884
0002e0 5c 20 59 bd 2c 2a 19 3c bc 8b 55 bd 71 89 04 bc
       -0.053009376 0.009348433 -0.052135214 -0.008089409
0002f0 11 31 32 3d 9b b8 51 3d a0 96 25 3d 5f fe a9 3c
       0.043503825 0.051201444 0.04042685 0.020751176
000300 b5 79 3a 3c 57 48 cd bc 16 7d 31 bc a2 8e b1 bc
       0.011381556 -0.025058908 -0.0108330455 -0.021674458
000310 b1 cc 6c bd 70 08 19 bd 17 15 58 3d ea 8c 0c bd
       -0.057812396 -0.037361562 0.052754488 -0.034314074
000320 52 3d 4a bc cb 07 4e bb 6b b2 9a 3c 54 17 f8 3c
       -0.012343721 -0.003143775 0.018883904 0.030284561
000330 e1 db 03 bd 42 40 5d bd 66 e3 0a 3d ae d4 0c 3d
       -0.032192115 -0.05401636 0.03390827 0.034382515
000340 f8 fc 2c 3a 17 33 49 bc ee f0 5b 3d 68 97 e1 3a
       0.00065989746 -0.012280247 0.053696565 0.001721126
000350 f2 b6 03 3d f6 4a 01 bd 3e 43 24 3d 89 f4 4b 3d
       0.032156892 -0.03156563 0.04010319 0.049793754
000360 ef c7 32 bd 38 46 3d bc 54 40 98 3c 48 b5 25 bd
       -0.043647703 -0.011552386 0.018585362 -0.040456086
000370 60 31 10 bb f9 77 ed bc aa 70 af bc a0 3a e1 3b
       -0.0022002086 -0.028987871 -0.021416027 0.0068734437
000380 f1 6a 92 bc 0a 96 b3 3c 4c 57 d5 bc a6 ed a7 3c
       -0.01787326 0.02192213 -0.026042603 0.020499062
000390 e2 da f0 3c cb b8 35 bd ab b2 9c bd ce 9e e2 bd
       0.029401246 -0.044365685 -0.07651266 -0.11065446
0003a0 37 35 7c bd f3 a3 47 bd c2 8e c1 bd 34 c4 c2 bc
       -0.061574187 -0.04874034 -0.09451057 -0.023775198
0003b0 7d 20 49 bc 39 a2 5f bd 76 19 8d bc 9c c2 a3 bd
       -0.012275812 -0.054598067 -0.017224055 -0.07996103
0003c0 85 e4 a8 bc 2b 72 2f bd 6f 3f cf 3d bb f7 12 3e
       -0.02061678 -0.04283349 0.10119521 0.14352314
0003d0 35 05 02 3e ab 92 3f 3e f6 4b 41 3e dc b7 13 3c
       0.12697299 0.18708293 0.18876633 0.009016003
0003e0 b3 9e b4 bc f9 17 7e bd 4c 97 6b 3c 60 f5 44 bc
       -0.02204833 -0.06203458 0.014379334 -0.012021393
0003f0 be 05 72 bc e5 91 08 3e e3 bc ae 3d 5e 48 35 3e
       -0.014771877 0.13336904 0.08532121 0.17703387

features.0.bias f4 [16]
000000 dc de 69 be 43 60 8b be b3 96 d3 be 9c 5c 6d bd
       -0.2283892 -0.2722188 -0.41325912 -0.057949647
000010 89 8c 8d be 9e ec 44 be 5d fd 8a be 22 4a 89 bd
       -0.27646282 -0.19230887 -0.27146426 -0.06703593
000020 68 65 d0 be 4b 81 a3 bd 91 18 e0 bd c6 5f 66 be
       -0.40702367 -0.07983645 -0.10942186 -0.22497472
000030 92 6d 98 be 3f 82 32 be 46 50 fa 3d 91 1e 0c 3e
       -0.29771096 -0.17432497 0.12222342 0.13683535

features.2.weight f4 [16, 16, 5, 5]
000000 98 18 90 bc 38 bf 86 bd 81 55 f9 bd 1b d9 58 bc
       -0.017589852 -0.06579441 -0.12174512 -0.013235356
000010 c1 42 95 bd 20 e1 3b 3d 2d 4d 07 bd ff 9e 88 bc
       -0.07288123 0.045868993 -0.033032585 -0.016677378
000020 20 10 63 bd ec 34 01 bc c2 3b 2f bd a9 0a 80 bd
       -0.0554353 -0.007886153 -0.0427816 -0.06252033
000030 ea e3 77 bd db 87 35 3c e3 5a 9e bc e0 ef c9 bd
       -0.06052009 0.011079754 -0.019330448 -0.09860206
000040 fa 3e 18 bd d1 88 95 3c 22 d1 9d bd cb 5d c7 bd
       -0.037169434 0.018253716 -0.077059045 -0.097346865
000050 38 43 43 bd 00 8c 14 bd e1 3d 10 bd 29 9f 50 bd
       -0.047671527 -0.036266327 -0.035215262 -0.050933037
000060 e0 8a d8 bd fb d1 a3 bd 68 ce f4 3c 9b 74 b1 bd
       -0.10573363 -0.07999035 0.029883578 -0.08664819
000070 7d 19 18 3b 63 07 67 bc 69 3b 0f bd bd 79 0e 3c
       0.0023208552 -0.014100882 -0.034968767 0.008696017
000080 7d da 27 3d e4 fa df bd 61 16 b2 3c 21 3f 12 bd
       0.04097985 -0.109365255 0.021739187 -0.035704736
000090 f0 ca c0 bd af 41 f8 bc 29 be 09 3d 9b 96 3b bd
       -0.09413707 -0.030304758 0.033628616 -0.045797925
0000a0 59 1d 40 bd 5f 44 70 bc de 71 a1 bc a3 5c 9e bd
       -0.046902988 -0.014664738 -0.019707616 -0.07732513
0000b0 25 9f 79 bd 48 8c 88 bd fa 40 d8 bd a4 c3 e9 3c
       -0.060942788 -0.066673815 -0.10559268 0.028535672
0000c0 bb 85 c4 3a 70 39 ba bd 10 26 41 bb ce 7d ba bd
       0.0014993468 -0.090929866 -0.002947215 -0.091060266
0000d0 ed cc 38 be 03 97 1b be 11 50 a6 bd 48 e3 02 3e
       -0.18046923 -0.15194325 -0.0812074 0.12782013
0000e0 71 be 01 3d 91 6b 99 bd 57 8f da bd c3 6f 4b 3d
       0.03167576 -0.0749122 -0.10671871 0.04966713
0000f0 99 98 ab 3d c9 4b 93 b9 3a c2 55 bd b7 ff 97 bd
       0.08378715 -0.0002809449 -0.052187182 -0.074218206
000100 52 a7 82 3c ee 80 af bd 2b 05 8f bd d1 c7 06 be
       0.015948925 -0.08569513 -0.069834076 -0.13162161
000110 59 c4 00 be 8c 41 c5 3d 02 41 9a 3b 37 5a fd bd
       -0.125749 0.09631643 0.0047074566 -0.12370723
000120 39 cf 59 be 50 44 34 bd 66 cd d8 3d 00 77 88 3d
       -0.21270455 -0.04401046 0.10586052 0.066633224
000130 74 01 ae bd f2 c1 cb bc 31 4c 09 be a3 5a 90 be
       -0.08496371 -0.024872754 -0.13407971 -0.2819415
000140 a8 53 60 3e 91 65 24 3d ad b3 8b bb 33 34 fd bd
       0.21906912 0.040135924 -0.0042633624 -0.12363472
000150 16 9f 49 be 32 b4 8a 3e 74 9f 3e 3e c2 39 a3 3d
       -0.19689593 0.27090603 0.18615514 0.07970001
000160 52 ee 4b bd bd 12 b5 bd b8 23 97 3e 91 b1 dc 3d
       -0.049787827 -0.08841465 0.2951944 0.107760556
000170 17 87 eb 3d c9 7c c9 bb a8 31 84 3b fd 42 2f 3e
       0.11500376 -0.0061489088 0.00403424 0.17115398
000180 0f 2c d3 3d b5 37 8b 3c 21 26 9b bb 9e f5 7f bd
       0.10311138 0.016994337 -0.00473477 -0.0624901
000190 ee 47 d4 bd 4e 5a 34 bd e7 52 df 3b 95 a8 d6 bc
       -0.10365282 -0.044031434 0.0068153027 -0.026203433
0001a0 6e 0f 20 3e 68 27 17 be 18 98 0f be 64 80 07 be
       0.15630886 -0.14761126 -0.14022863 -0.13232571
0001b0 27 ce 28 bd 45 02 39 3c fb b7 d7 bd e2 0e fd bd
       -0.041212227 0.011292045 -0.10533138 -0.12356354
0001c0 14 46 f9 bd b9 c1 ec bd 7d b4 85 3d f9 6b 10 3d
       -0.121715695 -0.11560387 0.06528566 0.03525922
0001d0 bb e6 a6 bd e1 6e 04 be 11 78 93 bd ce 93 4f 39
       -0.08149477 -0.12932922 -0.07200635 0.0001979612
0001e0 e3 8b 22 3e 98 b1 d6 3c 34 75 c3 bd 31 a8 6b be
       0.15873675 0.02620773 -0.09543839 -0.23013379
0001f0 a0 de f9 bd e6 4f e8 3d d0 0b f8 3d c1 32 f9 3c
       -0.122006655 0.113433644 0.12111628 0.03041971
000200 fa fc df bc 16 03 cb bc ca 18 95 bb fd f4 0e bd
       -0.027342308 -0.024781745 -0.004550074 -0.034901608
000210 d8 2b a8 3c 94 a1 5d bc 68 9d 4a 3d dc 29 3b 3d
       0.020528719 -0.013527293 0.04946652 0.045694217
000220 27 23 31 bd 39 f7 a6 bb 6a e6 96 bc 18 10 b0 3d
       -0.043246415 -0.005095389 -0.018420417 0.0859682
000230 bc db c7 bc 36 eb 5f 3d d9 c2 96 bd 14 b6 81 3d
       -0.02439677 0.054667674 -0.07361383 0.06333557
000240 53 4f 4a bd 73 db b1 bc 3d 55 de 3c 9b 72 74 bd
       -0.049392056 -0.021711087 0.027140254 -0.05967961
000250 e8 68 c5 bd a3 5c 1e bd 6e 81 4d bb c7 d9 b7 bc
       -0.0963915 -0.038662564 -0.0031357664 -0.022442712
000260 65 17 d5 3d 90 d5 32 3c dc b8 1d 3e 85 b1 d5 3c
       0.10404853 0.010915175 0.1540255 0.026085624
000270 ff f6 ae 3c 70 7b cd 3d ae c3 43 3d 2d d4 2a 3e
       0.021358011 0.100333095 0.047794037 0.16682501
000280 dc da 91 3d 10 aa c4 3c e5 ef d2 3d 12 e0 94 b9
       0.07121822 0.024006873 0.102996625 -0.00028395705
000290 28 0d 92 3d 4b 63 fc bc 55 35 df bd 0f 8e b3 bc
       0.071314156 -0.030809065 -0.10898844 -0.021918325
0002a0 17 28 7c 3d 75 a9 90 3d 89 3e 17 be dd 17 a6 bd
       0.06156167 0.07063571 -0.14769949 -0.0811002
0002b0 7a 52 b3 bd 9a e7 99 bc 24 b2 59 bd be 17 64 bd
       -0.087559655 -0.018787194 -0.053148404 -0.055686705
0002c0 ec 9c bd bc 45 0f bc 3c 39 ff 1e bc 51 69 7a 3d
       -0.023146115 0.0229565 -0.0097044045 0.061135594
0002d0 41 2c 08 3d e1 bc fa 3c 35 8f 0a bc 1a 79 b3 bc
       0.03324533 0.030607643 -0.008456995 -0.021908332
0002e0 ed da ea 3d 04 53 f2 bc 25 15 90 3d 37 40 77 3d
       0.11467538 -0.0295806 0.07035283 0.060363974
0002f0 a1 83 d3 3d 69 5e bb 3c a1 7e 9e bb 86 9b 61 3d
       0.103278406 0.022872167 -0.0048368727 0.05507996
000300 fc 0b 08 bd 6d 43 dd bc f2 5a c9 3c 7a 64 70 bd
       -0.033214554 -0.02700969 0.024579499 -0.058689572
000310 d4 08 9c bd e6 c6 b1 bd 20 46 94 3d 1c c7 00 3d
       -0.07618871 -0.08680515 0.07239938 0.031439885
000320 93 e2 f4 3d 25 03 2a bd 81 65 d8 bb eb 83 3c 3c
       0.11957278 -0.041506905 -0.006603897 0.011506061
000330 96 64 f5 bd 51 61 d5 3c f1 bc e5 bd ba fd 4d be
       -0.11982076 0.02604738 -0.11217678 -0.2011632
000340 b3 b9 4f be 11 87 5e be aa 59 45 3e 79 61 5f 3d
       -0.20285682 -0.21731211 0.19272485 0.054536317
000350 b5 26 34 bd 7f 3d ec bc f4 7d 32 be 18 d2 49 3e
       -0.043982226 -0.028837917 -0.1743086 0.1970905
000360 27 81 97 3d 1b 4a a3 bd 86 de 5c bb f9 d7 c8 bd
       0.07397681 -0.07973119 -0.003370197 -0.098068185
000370 be 9b 99 3e 3b ec 05 3d e8 a1 94 bd a0 0c 95 bd
       0.30001634 0.03269599 -0.07257444 -0.07277799
000380 8a 69 0e be 2d bc 09 bd 49 f6 1b 3d 68 b2 a0 3d
       -0.13907447 -0.033626724 0.038076673 0.07846528
000390 0b c9 02 bd 3c 74 32 bd c7 bf 10 3d 3a a5 82 3d
       -0.03193001 -0.04356788 0.035339143 0.06379171
0003a0 9f d7 6a 3d 51 54 a8 bd c2 c0 3b 3d 20 43 a2 bd
       0.05733454 -0.08219207 0.045838125 -0.07922959
0003b0 21 52 31 3d 5e 56 bb bc 22 bc 67 3d d6 6f 88 3d
       0.043291215 -0.022868332 0.0565759 0.06661956
0003c0 0e 37 46 bd 51 e5 d4 bc 94 2c 89 bd b5 c5 1c bd
       -0.048392348 -0.025988253 -0.06697956 -0.038274486
0003d0 59 aa a2 ba b7 b0 8f bc 95 79 10 3d eb 31 96 3d
       -0.0012410387 -0.017540319 0.0352722 0.0733374
0003e0 f5 31 13 3c 02 0f 9a 3d ee 43 33 3d 6a b0 81 bd
       0.008984079 0.07522394 0.043765955 -0.063324764
0003f0 12 3e b6 bd cd a1 11 3d 15 63 0d 3d 82 73 6e bd
       -0.08898558 0.035554696 0.03451832 -0.058215626

features.2.bias f4 [16]
000000 a5 d0 aa be 18 54 9d 3e fe 6f 0f bd d2 9e 72 bd
       -0.33362308 0.3072822 -0.035018913 -0.059233494
000010 59 1a bf bc 50 88 33 be 3f 8d 25 bd 52 8c fd bd
       -0.023327993 -0.17532468 -0.040417906 -0.123802796
000020 92 b7 9d bd a0 df 3a be 50 08 aa bd 5a 3d 9d bd
       -0.07701029 -0.18249369 -0.08302367 -0.076777175
000030 73 54 d6 bd 75 83 ab bd 3b 87 23 3e cc 72 6e 3e
       -0.10465326 -0.08374683 0.15969555 0.23285979

features.5.weight f4 [16, 16, 5, 5]
000000 48 2d f3 3b 0d 8c ef bd 0e 4e 88 bd fa 57 ad bb
       0.0074211694 -0.116966344 -0.06655513 -0.0052900286
000010 72 31 fa bd 9a bc ba 3c 58 2f 41 3d 4b 16 a4 bd
       -0.12216462 0.02279501 0.04716429 -0.080120645
000020 59 97 82 3d ef f4 4c 3d d5 60 28 bd 8d 0b bf bd
       0.063765235 0.050038274 -0.04110797 -0.09328375
000030 da 33 8a 3c ff 36 ac bd 46 b4 ad 3c 17 90 c9 bd
       0.016870428 -0.08408927 0.021204125 -0.09841936
000040 b3 f2 c0 bd 76 ff a8 bd ac 7a ab bd 93 e3 c1 bd
       -0.09421291 -0.0825185 -0.08373007 -0.094672345
000050 5f 29 26 bd d2 4f b0 bd 29 c2 0d 3d b8 17 91 bd
       -0.0405668 -0.086089745 0.034608994 -0.07084602
000060 24 f3 da bd 94 6a af bc 79 06 15 be 7a 30 62 3d
       -0.10690907 -0.021413125 -0.1455325 0.055222012
000070 d0 d5 b1 bd b6 75 6a bd 23 91 02 be 14 42 7e bd
       -0.086833596 -0.057241164 -0.12750678 -0.062074736
000080 92 43 06 bd 26 86 a8 bc 9d 42 49 3b f2 fb 98 bc
       -0.032779284 -0.02057178 0.003070987 -0.018674824
000090 5a 4a 9b bc 7a 18 00 bd be 0d 67 bc 67 3f f2 bd
       -0.018956352 -0.031273343 -0.0141023975 -0.11828499
0000a0 00 e7 50 bd 9e f3 05 be ed af 42 bd 76 5b 0f bc
       -0.05100155 -0.13081214 -0.047531057 -0.008749833
0000b0 a5 34 a2 bd 51 fa 22 bd 88 86 50 bd 33 57 9c bc
       -0.079201974 -0.0397895 -0.05090955 -0.019084549
0000c0 9a bb 87 bd 08 73 65 bd a0 7e 5c bd cb b8 9b 3c
       -0.06627579 -0.056017905 -0.053831697 0.019009015
0000d0 5a eb 8a bd 44 30 90 3b 4b ff eb bc c9 eb 2d 3c
       -0.06783171 0.004400285 -0.028808257 0.010615298
0000e0 e6 7a 52 3d 7c 89 51 3d 78 aa 0d bc e7 03 2d 3d
       0.051386736 0.051156506 -0.0086466 0.04224005
0000f0 7a 05 74 bd 53 cf 8e 3d a7 63 8b 3d 8f 5e 90 3d
       -0.059575535 0.06973138 0.068061166 0.070492856
000100 85 a8 bd 3b f7 66 a1 bc 9d 75 49 bd 20 f7 28 3d
       0.0057879114 -0.019702418 -0.04918443 0.0412513
000110 f0 40 5a bd c1 e2 17 bd 3a ef 26 bd 1f 61 1a 3d
       -0.053284585 -0.037081484 -0.040755488 0.03769028
000120 41 eb 3d 3d aa 9e 94 bd b5 d7 0d bd ce f5 68 3d
       0.046366934 -0.07256825 -0.034629542 0.056875043
000130 f5 26 0f 3d c9 f6 13 3d 7e 55 7f bc 4d 41 60 3d
       0.03494926 0.036124025 -0.015584348 0.054749776
000140 e8 69 4f 3d 85 39 94 bd 83 e7 16 bc 5c 1e f7 bb
       0.05063811 -0.072375335 -0.00921047 -0.007541461
000150 fa 7d 9c 3c 7a b0 93 bd 14 7f 92 3d a3 34 58 3d
       0.019103039 -0.072113946 0.071531445 0.052784573
000160 f1 ee a2 bd 39 95 4d bd cd b4 f7 3c 7a a3 9d 3d
       -0.07955731 -0.050191138 0.03023758 0.07697196
000170 8d f7 9c 3b 24 50 07 bc 0f 0f 84 3c 17 e6 80 bc
       0.0047902525 -0.008258853 0.016120462 -0.015734715
000180 52 6a a4 bd d6 9c b0 3c 92 39 fa bc ce dc bb bb
       -0.080280915 0.02155916 -0.03054503 -0.005733109
000190 0a 06 99 bd c4 03 31 3d cb 4a 82 3d e0 e2 a4 3d
       -0.07471855 0.04321648 0.06361922 0.080510855
0001a0 3b d7 82 bc 5e ed 86 bc a9 3e a3 bd b6 6e 87 bd
       -0.01597177 -0.016470607 -0.07970936 -0.06612913
0001b0 7a 50 c6 bc 72 27 24 3c e9 7b da bc 81 94 8f 3d
       -0.024208296 0.01001917 -0.026670413 0.07010747
0001c0 e7 e6 94 bc 66 d2 9e 3d 7b 23 f0 3c 1a 84 fb bc
       -0.018176509 0.07754974 0.029313793 -0.03070264
0001d0 85 03 98 3d 9f f6 6d 3d cf 71 db bb 02 12 f8 bc
       0.07422546 0.058096524 -0.0066969167 -0.030282024
0001e0 51 d4 9a 3d d9 cf f3 bc a8 d0 12 bc 45 a1 02 3c
       0.075600274 -0.029762195 -0.00896088 0.00797302
0001f0 bf 59 94 bd 01 d5 50 3a 0f a9 ae bd 57 2d ba 3c
       -0.0724368 0.00079663104 -0.08528339 0.022726698
000200 9b f5 8f bb 80 ba e0 3c 85 48 99 3d 71 5e a4 bd
       -0.004393292 0.02743268 0.07484535 -0.08025826
000210 1d a3 d1 3c d5 ff c4 bd e2 d9 b8 bd 4c 26 e8 3c
       0.025590474 -0.096191086 -0.09025933 0.028338574
000220 b5 d4 b1 bd 4f 82 c0 bd 65 16 12 3d b5 77 0f 3d
       -0.08683149 -0.093998544 0.03566589 0.03502627
000230 27 a7 c9 bd 55 ae 2f bd e0 7f 33 bd 99 70 3f 3b
       -0.09846335 -0.042890865 -0.043823123 0.00292114
000240 68 08 28 bd 18 e4 94 bd 4b 01 bb bd 78 44 a1 bc
       -0.04102364 -0.07270068 -0.09131106 -0.019685969
000250 ee 72 97 3c 3c 3f ca 3b 1c 7f c5 ba 14 83 e3 3c
       0.01848742 0.006172089 -0.0015067789 0.027772464
000260 e4 c5 cd 3b 56 f4 9b bd 61 f8 6e 3d 68 91 96 3d
       0.006279694 -0.07614963 0.05834234 0.07351953
000270 f6 fc 16 3d 01 72 65 3b c2 58 a2 3d aa 8f a3 3d
       0.036862336 0.0035010579 0.079270855 0.07986386
000280 a0 32 a6 bd e1 64 7b 3d d3 57 96 3d 49 b1 41 bd
       -0.08115125 0.061375502 0.0734097 -0.047288213
000290 f1 f1 a4 3c 2f 99 e1 bc dc 2b 0e bd ee 48 21 bd
       0.020134898 -0.027538864 -0.034709796 -0.03937619
0002a0 40 35 3d 3c 2d 1a 90 3d d4 35 bf bc 12 b9 82 bd
       0.01154834 0.07036243 -0.023341097 -0.063829556
0002b0 0e a6 01 3d 2d 7c 6c bd 64 98 d5 3c 7d e1 9a bd
       0.031652503 -0.05773561 0.026073642 -0.0756254
0002c0 d4 26 6d 3d 54 c8 ab bd e3 d4 27 3d 65 e1 d4 3c
       0.057898358 -0.08387819 0.04097451 0.025986383
0002d0 ea 9e 6f 3c 56 4e a7 bc 12 9f 2a 3c 5f 79 88 3b
       0.01462529 -0.020423096 0.010413902 0.004164859
0002e0 a9 bf b5 3d 69 0e 9b bd e5 fd a6 bb 61 92 83 3d
       0.08874447 -0.07571108 -0.0050961846 0.06424404
0002f0 7f 2d 6e bd 88 b0 92 bd 39 5f 9c bd 78 bd 73 bd
       -0.058148857 -0.07162577 -0.0763535 -0.059506863
000300 45 71 1f be 59 8b 27 bd 6a 7c d3 bd 8e 02 95 3d
       -0.15570553 -0.040904377 -0.103264645 0.07275878
000310 00 38 03 bd 13 a8 63 bd 38 26 94 3d 7f 07 66 bc
       -0.032035828 -0.05558021 0.07233852 -0.014039873
000320 a4 43 1b bd 8d cb 14 bd 94 9d e2 bc 2b 86 07 3c
       -0.037906304 -0.036326934 -0.02766303 0.008271734
000330 a6 85 89 bd fa 1b 73 3d 24 2f c0 3a fc 2a 2a bc
       -0.067149445 0.059352852 0.0014662487 -0.010386225
000340 15 c1 d6 3b 55 23 15 bd 2a 1f 71 3c 99 44 9a bd
       0.006553779 -0.03641065 0.014716903 -0.07532615
000350 9f 7c 2a bd 9a f7 f6 3c a8 f4 c4 bb fc 26 1a bd
       -0.041622754 0.030147363 -0.0060106106 -0.037634835
000360 7c 1b 56 bc e5 a8 ee 3c 04 cd e7 bb 8f da 66 bb
       -0.013068076 0.02913327 -0.0070740003 -0.0035225486
000370 63 ab 25 3c 16 9e a1 3d 29 42 27 3d b7 35 60 3d
       0.010111663 0.078914806 0.04083458 0.054738726
000380 33 f0 af bc 49 24 01 3d bf 27 aa bd 03 19 0d bd
       -0.02147684 0.031528745 -0.08308362 -0.03444768
000390 09 14 49 bc e0 7f 53 bc 56 11 87 bc 39 c5 c9 3c
       -0.012272843 -0.012908906 -0.016487759 0.024630176
0003a0 0a d3 2e 3d eb eb 9f bd 0f 4e c4 3c 7f df 82 bd
       0.04268173 -0.0780867 0.023963002 -0.06390285
0003b0 17 4f a2 3d 39 f2 a9 bd 9c cc 80 3c a3 63 3e bd
       0.079252414 -0.082981534 0.015722565 -0.04648174
0003c0 af 3b a7 bd 7c 32 00 3d d4 2e 92 3b 9d e4 88 3c
       -0.081656806 0.031298146 0.0044611488 0.016710574
0003d0 6a 86 b6 bd 97 35 0b 3c 19 69 b6 bd 7f 69 4f 3d
       -0.08912356 0.0084966635 -0.089067645 0.05063772
0003e0 4e 1c 60 3b f4 17 8c 3c b6 a2 06 3e ba 7f a8 3d
       0.0034196558 0.017101265 0.13148007 0.08227487
0003f0 e5 28 ae 3a 76 e1 81 3d 7c 81 97 3c c0 36 a1 3c
       0.0013287334 0.063418314 0.01849436 0.019679427

features.5.bias f4 [16]
000000 a6 d9 a3 bd 1e c3 81 3d ae fd 07 3c 80 7d 21 bd
       -0.080004975 0.06336044 0.008300228 -0.039426327
000010 3c 08 bb bd 31 bd d2 3d 03 35 49 3d 6d 4a df bd
       -0.0913243 0.10289992 0.04912282 -0.109028675
000020 0d f3 4b be 5d ea eb bd 40 8c 00 be c0 17 bd bd
       -0.19916935 -0.115193106 -0.12553501 -0.092330456
000030 7f 18 d4 bd 76 32 f3 3b b3 79 19 be 6b 85 23 bd
       -0.10356235 0.007421787 -0.14987831 -0.03992216

features.7.weight f4 [16, 16, 5, 5]
000000 e2 92 18 bd e3 65 a2 bd fc e2 06 bd 30 2e 14 3d
       -0.037249453 -0.079295896 -0.032931313 0.03617686
000010 a3 d6 cf 3c 79 c1 7a 3d 5f 77 b0 3b 84 7c 38 bd
       0.025370901 0.061219666 0.005385324 -0.045040622
000020 7d ba a9 3d 4e d3 2b bc e0 5e 38 3d 97 ea 95 3d
       0.08287523 -0.010487391 0.045012355 0.07320135
000030 f6 66 b5 3b f5 32 e3 bc f6 33 4c bc d7 19 bd 3d
       0.0055359555 -0.02773426 -0.01246356 0.09233444
000040 ed 89 b8 bd 00 a2 24 3d d1 97 9c bb 00 30 c3 bd
       -0.09010682 0.040193558 -0.00477884 -0.0953064
000050 d8 91 f3 3c a2 e4 8b 3d c7 b0 2d 3d 3b f4 95 3c
       0.02973263 0.068307176 0.042404916 0.018304935
000060 f6 8f 3a 3d 8d 23 43 3e d6 6c 7c 3d 1a 3b 9a 3c
       0.045547448 0.1905653 0.06162723 0.01882701
000070 e1 7a ef bc d4 ab 6f 3c 74 c8 50 bd 19 fa e2 bd
       -0.029233398 0.014628369 -0.050972417 -0.110828586
000080 4b a8 3e be 6a e5 aa bd 68 c9 70 be cb ef 8c be
       -0.18618886 -0.083445385 -0.2351433 -0.27526698
000090 c2 9e 77 be 3b af 8b be d2 67 90 be f8 a9 96 be
       -0.24181655 -0.27282128 -0.2820421 -0.2942655
0000a0 d7 71 56 3d f0 71 62 3d 7c 26 57 bc 99 96 14 3d
       0.05235466 0.05528444 -0.013131734 0.036276434
0000b0 8a f2 1d bc 66 22 cf bd 84 67 d5 bd c5 0c d7 bd
       -0.009640345 -0.10113983 -0.10420135 -0.105004825
0000c0 5e c3 9c bd 8b ac f2 3d 8f c1 e5 bb f0 2f b8 bd
       -0.07654451 0.11849316 -0.0070115994 -0.08993518
0000d0 98 4e 6e 3d 7a e1 81 bd d5 4b 70 bc 34 6b a2 bd
       0.05818042 -0.06341834 -0.014666517 -0.079306036
0000e0 40 6d 72 3d a0 b9 0a be 33 98 9d bd 9c 10 89 3d
       0.05918622 -0.13547373 -0.07695045 0.06692621
0000f0 83 63 a5 bd ad b8 7b 3c 53 68 47 bd a3 0b da bd
       -0.08075621 0.015363854 -0.048683476 -0.10646751
000100 36 cb 9d bd db 8a ea 3b a0 f2 b6 bd 75 6b 97 bd
       -0.07704775 0.007157666 -0.08932996 -0.07393543
000110 8c be 08 bd 54 58 2e bc ec 87 0b 3d 32 c3 a6 bd
       -0.033384845 -0.010641176 0.034065172 -0.08142699
000120 24 a2 95 bd 72 f7 21 bd 9e 5a ab bc f7 42 ac bd
       -0.073063165 -0.039542623 -0.020917233 -0.0841121
000130 b6 ca 47 bc 14 b1 9b be 5e 61 bb bd 6d e4 91 be
       -0.012194326 -0.30408537 -0.09149431 -0.28494588
000140 54 c8 08 bd 41 88 a6 3d de 34 01 be a5 b3 36 3d
       -0.033394173 0.08131457 -0.12617823 0.044604916
000150 67 5e 71 be ff ac da 3b 69 65 9c 3d 49 05 54 bd
       -0.23571168 0.006673455 0.0763653 -0.051762853
000160 e9 5a 23 3e db 22 41 ba de 9e 33 3e e8 42 dc bd
       0.15952648 -0.00073675596 0.17541072 -0.10754949
000170 19 f6 8e be 9a 4c 93 bd 32 d3 0a 3e 38 a8 67 3e
       -0.27922133 -0.07192345 0.13557127 0.22622764
000180 62 60 8c bd d7 43 98 be 48 a0 32 bc 48 18 0d 3e
       -0.06854321 -0.29739258 -0.010902472 0.13778794
000190 65 fd b0 be 91 a8 99 be 64 b8 86 be cb 17 24 be
       -0.34568325 -0.30011418 -0.26312554 -0.16024701
0001a0 28 8c b2 be 8a 76 74 be 6e c1 77 be 5a 67 3b be
       -0.34872556 -0.23873344 -0.24194881 -0.18301144
0001b0 cd 11 35 3e d4 78 a0 3e 26 fa 9d bd 8e 17 13 bd
       0.17682572 0.31342185 -0.07713728 -0.035911135
0001c0 c2 a6 fb 3d 29 a8 6f 3e 47 63 db 3e 18 ad 30 bd
       0.12287666 0.23403992 0.4284918 -0.043133825
0001d0 6f 31 6c 3d fa 09 fe 3d b7 e8 77 3e 74 3b ea 3e
       0.05766433 0.12404247 0.24209867 0.45748484
0001e0 ef 45 6d bd 28 7f 5a be 0b de ac bc 74 c5 38 3e
       -0.057928022 -0.21337569 -0.021101972 0.18044072
0001f0 90 6a 1e bf d0 fa a3 be 5b 49 0e bf 12 eb 23 bf
       -0.6188135 -0.32027292 -0.5558068 -0.64030564
000200 cb ee de bd 9b 3d 84 3e 54 39 ad 3d de 0d e8 3d
       -0.1088539 0.2582825 0.084582 0.1133077
000210 01 35 87 be 3e 44 4b be b8 03 00 3d 37 3e 54 3e
       -0.26407626 -0.19850251 0.031253546 0.20726858
000220 72 09 4b 3e a1 ef 0a 3d 17 85 91 be 17 e8 cb be
       0.19827822 0.033919934 -0.28421852 -0.39825508
000230 06 01 07 3d e7 24 d7 3c 6d ba 13 3c 91 3d 10 be
       0.03295996 0.026262714 0.009016615 -0.14085986
000240 47 7e c1 be 7b c9 d1 3d 2b b2 61 bd 67 11 72 bc
       -0.37791654 0.102435075 -0.055101555 -0.014774657
000250 f8 06 db bb 6b 22 84 be 0a 37 04 3e 83 00 31 3e
       -0.0066841803 -0.2580751 0.1291162 0.17285351
000260 49 c9 25 3e 86 3f a2 3d 89 19 91 bd 92 31 25 be
       0.16190065 0.079222724 -0.070849486 -0.16132191
000270 27 81 f1 3c a3 87 e7 bc ef bc 78 3d c5 5e ed 3c
       0.02948053 -0.028262919 0.060727056 0.028975854
000280 8b 93 84 bd ae d0 12 3c ad 24 92 bc f5 cc 2b 3c
       -0.06473454 0.008960886 -0.017839754 0.010485877
000290 b8 70 06 3e 8d 04 97 bd 46 2b ab bd f7 3a 6c 3d
       0.13128936 -0.07373915 -0.08357863 0.05767342
0002a0 9c 7b 15 bd cf de 8e 3d 08 51 49 bd 63 80 c0 3b
       -0.036494836 0.06976091 -0.049149543 0.00587468
0002b0 14 b0 9b 3c a4 51 66 3d c3 41 86 3d e8 18 ec 3b
       0.019004859 0.056230202 0.06555512 0.0072051175
0002c0 07 6f 95 bd 97 d4 f2 bc 6a 36 1a bd e3 44 cb bd
       -0.072965674 -0.029642386 -0.03764955 -0.099252485
0002d0 69 db 51 bd 8a 2e 12 3c 11 22 1a 3d 07 7e 9a 3d
       -0.051234636 0.008922229 0.037630145 0.07543569
0002e0 bb 1f 1a 3d 84 62 6a 3c 87 41 2f bd 12 dc f1 3c
       0.037627917 0.0143057145 -0.0427871 0.029523883
0002f0 49 33 a3 3d f2 a7 e2 3d b9 19 56 3c 13 35 38 3c
       0.07968766 0.11067189 0.013067656 0.011243123
000300 df 8f e7 3b 09 0e 08 be ea a4 5c bd 14 06 52 3d
       0.0070667113 -0.13286604 -0.05386821 0.051275328
000310 1d 42 c1 3d 8f 60 81 3d 1f 1a 96 bd 5a cf 13 bd
       0.09436438 0.06317245 -0.07329201 -0.036086418
000320 7b 3e fc 3d 09 fb af 3d de 46 a7 3d 73 3b a4 be
       0.12316605 0.08592803 0.08167814 -0.32076606
000330 c4 ac 8a be e6 c2 ba 3d 2f fd be 3d 03 98 fc 3d
       -0.27084935 0.09119205 0.09325635 0.123336814
000340 9a 05 98 be 41 ed 82 be ec 4f e8 bc c4 f5 67 3c
       -0.29691774 -0.25571635 -0.028358422 0.014157716
000350 a3 fa ae 3d 8f ca 99 be d3 ae 61 bd c5 83 81 3b
       0.08543899 -0.30037352 -0.055098366 0.0039524757
000360 95 5c 07 be 22 fa 33 3c fd a5 9b be 99 72 ea bd
       -0.13218911 0.010984929 -0.30400077 -0.11447639
000370 c4 f1 23 bd 8d 2c be bd 80 a7 03 be 9c ac 9b be
       -0.040025488 -0.09285841 -0.12856865 -0.30405128
000380 c2 2c 2f be 70 5c 3f 3d 6c d0 62 3c ef 80 26 be
       -0.17106918 0.046719015 0.013843637 -0.16260122
000390 81 44 24 be 77 04 d5 bd 91 3b ee bd 3e 99 11 bd
       -0.16041757 -0.10401242 -0.11632455 -0.035546534
0003a0 e2 bb 7f 3d 6b 13 e1 bd 61 15 c9 bc e5 44 92 be
       0.06243504 -0.10990032 -0.024546327 -0.28568187
0003b0 b1 9c 3e bc 7e 41 69 3b 30 3e 62 3c b7 af 49 3c
       -0.011634038 0.0035592015 0.013808772 0.01230996
0003c0 f6 41 f3 be 3d d0 1f be f2 97 39 bd e5 c0 b4 3d
       -0.47511262 -0.1560678 -0.045310922 0.08825854
0003d0 3f 5d 81 3d 49 a9 f5 bd ac dc de bd 99 36 2f bd
       0.063166134 -0.11995179 -0.108819336 -0.042776678
0003e0 3e 92 3d bc 6d 47 d3 bc c5 17 8a 3d 1a 35 3d 3d
       -0.011570511 -0.025790894 0.06742815 0.04619322
0003f0 7e 0f 08 be 1a 91 51 bd f7 cf d5 3d 2a 58 cd 3c
       -0.1328716 -0.05116377 0.10440057 0.025066454

features.7.bias f4 [16]
000000 c6 51 05 3e 47 3a 32 3c da 48 6a be ae 5e c0 bc
       0.13019475 0.010878152 -0.22879353 -0.023482647
000010 d2 02 5e 3d e8 f9 bc 3d 31 8f 22 3d fb 25 18 bf
       0.05420191 0.09227353 0.03968734 -0.59432954
000020 cc 04 a5 3d 8f e9 05 3e 60 55 26 3c ae f0 c1 3d
       0.080575556 0.13077377 0.010152191 0.09469734
000030 86 4f 57 3e 4d 02 30 3d 03 7e b9 bd 8e 13 0b 3e
       0.2102643 0.042970944 -0.09057238 0.13581678

features.10.weight f4 [32, 16, 5, 5]
000000 9c f6 44 3d c3 30 25 3e 99 d9 8e 3e 4b 26 b2 3e
       0.048086748 0.16131882 0.2790039 0.3479484
000010 6c ff 73 3e 01 7e e2 3d 02 84 f6 3d 8c c4 40 3e
       0.23827904 0.110591896 0.12036897 0.18824977
000020 4f cc a0 3e 78 4b 9c 3e 34 c7 b6 bd 7f 9e 1d bd
       0.31405875 0.30526328 -0.08924714 -0.03848123
000030 15 31 a4 3d f3 cd 58 3e 6e 72 60 3e b0 09 35 bd
       0.08017174 0.21172313 0.21918651 -0.04419869
000040 a3 48 c3 bd 98 0c 50 bd e1 1c 99 bd 9a ba a1 3d
       -0.09535339 -0.05079326 -0.07476211 0.078969195
000050 14 fa fa bd 01 c5 69 be 88 ba 95 be 75 2c c1 be
       -0.1225473 -0.22829057 -0.29243875 -0.3772923
000060 0e 2a 9c be b0 dc 25 be 32 8d 8d bd 9b db 06 be
       -0.30500835 -0.16197467 -0.069116965 -0.1316971
000070 d8 b8 34 be ff 63 2c 3d c3 b9 86 bd ab 82 ae 3c
       -0.17648637 0.04208755 -0.065784 0.021302542
000080 39 34 ff 3d 73 66 7d 3d 59 18 a1 3d d8 01 31 be
       0.124611326 0.06186528 0.07865972 -0.1728586
000090 f7 92 cc be 50 e1 7d be b9 e6 b1 bd 46 cb 2d be
       -0.39955875 -0.24792981 -0.08686585 -0.16972074
0000a0 d4 b6 b5 bd 9e 1a 98 bd 97 c3 d4 be 65 76 0c bf
       -0.08872762 -0.07426952 -0.41555473 -0.54868156
0000b0 1c 58 65 be f8 39 5b be 8e 41 ad 3c 06 91 f6 bd
       -0.22396892 -0.21408832 0.021149423 -0.1203938
0000c0 93 97 16 bf 64 bb 03 bf f5 67 04 bf 7f ad 82 be
       -0.58825034 -0.5145781 -0.51721126 -0.25522992
0000d0 be 23 e9 bd c6 02 3f bd fc f1 08 3e 25 ca f3 3d
       -0.113837704 -0.046633504 0.1337356 0.119037904
0000e0 e8 d1 0f 3d 0c b5 b3 bd b5 3c 1d be db 15 6e bd
       0.03511229 -0.08774766 -0.15355189 -0.05812631
0000f0 1a df 1c 3e 29 9a ed bd ed bc 38 be 54 8f 4b bd
       0.15319481 -0.11601669 -0.1804082 -0.049697235
000100 d5 39 05 be 13 62 b0 3e 11 4b 62 bf d4 59 68 bf
       -0.13010342 0.34449825 -0.8839579 -0.90762067
000110 b3 6f 09 bf 3b 17 8a bd 16 69 e4 3e 90 2c 19 bd
       -0.53686064 -0.06742712 0.44611424 -0.037396014
000120 3d c7 bd be 69 5b f6 be 44 83 38 3e a6 af 04 be
       -0.3706607 -0.48116615 0.18018824 -0.1295763
000130 da e5 7c 3b 40 52 87 3e c9 f8 2b 3e 7e 33 ae 3d
       0.003858915 0.2642994 0.16794123 0.08505915
000140 56 7c 3a be a4 c6 92 3d d9 27 b2 3d a7 7e a5 3e
       -0.18211493 0.07166794 0.086990066 0.3232319
000150 db b1 d0 3e b8 0c 0a bf 01 74 99 3d 10 08 d4 bd
       0.40760693 -0.5392566 0.07492829 -0.103531
000160 9a ea 33 3e a3 ab a0 3e d5 e5 43 be 31 53 03 be
       0.17569962 0.31380948 -0.19130643 -0.12824704
000170 9c 9c 41 be 65 0b 74 bf 58 80 92 be cb 75 56 be
       -0.18907398 -0.95329887 -0.28613544 -0.20943372
000180 fc 76 ee be d3 54 d9 be 2e 36 a3 bf cd 90 77 bf
       -0.46575153 -0.42447528 -1.2750909 -0.96705323
000190 42 7d 1f bf 06 9a d5 bd 55 2b ba be 1e 2b aa be
       -0.62300503 -0.10429768 -0.36361185 -0.3323602
0001a0 49 31 20 bf e5 b6 23 bf a8 d7 5b bd fd 2c 50 be
       -0.62575203 -0.6395095 -0.053672463 -0.20329662
0001b0 34 72 7e bd 40 41 01 be cc 23 fc 3d 61 15 32 3c
       -0.06212063 -0.12622547 0.12311515 0.010869355
0001c0 c8 8b 09 be 0f 1d 9d be 3f cb 4c 3d de 4f b1 3d
       -0.13432229 -0.30686232 0.049998518 0.086578116
0001d0 c9 8b 14 3e a3 c9 3b bf 19 2f e9 be 46 9d 38 be
       0.14506449 -0.7335455 -0.45543745 -0.18028745
0001e0 fa 29 4d 3e 85 72 b1 3e 1b 4e 5d be 8d 58 93 be
       0.20035544 0.34657684 -0.21611826 -0.28778496
0001f0 02 f4 40 3e 9c 52 22 be 6c 55 8f 3d 7e 6d 15 3e
       0.18843082 -0.15851825 0.06998715 0.14592549
000200 ea 2e 99 bd ac 62 11 bf 9e 16 84 be 99 08 7c 3e
       -0.07479651 -0.56791186 -0.25798506 0.24612655
000210 90 d9 26 be 4c 58 79 be 1c d6 09 bf 16 8e 81 bd
       -0.16293931 -0.24350089 -0.5384233 -0.06325929
000220 17 45 14 be 09 47 79 be cc fd 72 be 67 cc c9 be
       -0.1447948 -0.24343504 -0.23729628 -0.3941376
000230 6d 9d 28 be d0 1c 0a be 3c 46 30 be db 8c 18 be
       -0.16466303 -0.13487554 -0.17214292 -0.14897482
000240 48 dd 92 be a1 d6 aa be ce 45 ef bd c6 9f ee bd
       -0.2868445 -0.33366874 -0.11683236 -0.11651568
000250 a5 e4 44 be be ee 55 3d 44 bb b5 be 9d d3 f5 bd
       -0.19227846 0.052229635 -0.35494435 -0.12003253
000260 d3 54 a5 3d 4f 6c 25 bb 6d 32 e1 3b df e1 21 3e
       0.080728196 -0.002524156 0.0068724663 0.15808819
000270 0a 11 82 bc 3a de 0f 3e 17 e6 91 3e a2 44 ae bd
       -0.015877265 0.14049616 0.28495857 -0.085091844
000280 46 41 78 3e 53 4c 49 3e 36 1e b2 3c 11 1f 48 3d
       0.2424365 0.19658022 0.021742921 0.048857752
000290 86 d6 6f 3e 44 e2 ca 3d ce 9a 5d 3e 2e 9f 30 bd
       0.23421678 0.09906438 0.21641085 -0.043120556
0002a0 e3 11 f2 be 8d c5 c5 bd 57 a6 f7 3e ad 2b 95 be
       -0.4727927 -0.096568204 0.48369095 -0.29134884
0002b0 00 e6 4f be b7 30 60 bd f7 25 db bd 04 18 dc be
       -0.20302582 -0.054733958 -0.107006006 -0.42987072
0002c0 69 a0 fd be 3f 10 78 bf ce 31 57 bf 90 de 2f bf
       -0.49536446 -0.9689979 -0.8406037 -0.6869898
0002d0 b7 de 8d bf 0d f5 98 be cf c3 1c bf ba 39 2e bf
       -1.1083592 -0.2987446 -0.6123628 -0.68056834
0002e0 9b de 97 be 97 75 95 be 24 99 15 3d a9 26 c3 be
       -0.29662022 -0.29191276 0.036523 -0.38115433
0002f0 e8 d3 98 be 72 0b 2a 3e cd 02 98 be 3a 82 08 bf
       -0.29849172 0.16605929 -0.29689637 -0.5332371
000300 20 05 8e bd 80 cb 48 bd a5 3d 13 bc 05 36 36 bf
       -0.06934571 -0.049022198 -0.008986865 -0.7117618
000310 9e 90 30 bf 61 67 0c bf f2 c5 8d be 3b 41 f1 bd
       -0.6897067 -0.54845244 -0.27690083 -0.1178002
000320 98 82 87 bd 4e b8 b9 3c 16 7c 68 bd 40 e6 3d 3c
       -0.06616706 0.022670891 -0.056758963 0.01159054
000330 86 93 e3 3d cd 35 c7 bd 4b 83 ea bd 30 8b 0a be
       0.11112122 -0.097270586 -0.114508234 -0.13529658
000340 7c c8 df bd 95 c7 43 3d 84 0b 82 3c c8 fd 6f 3d
       -0.10926911 0.047797758 0.015874632 0.058591634
000350 de 08 0b 3d 75 22 ca bc f3 96 e2 bc 56 f1 ca 3d
       0.033944003 -0.024674634 -0.027659869 0.099093124
000360 a6 53 03 3e 6c 3a 16 3d 26 d9 58 3d 09 9c 17 be
       0.12824878 0.03667681 0.052941464 -0.14805616
000370 7c e8 64 bb ed ad 8d 3d d8 6f 2c 3d 54 6d 18 3b
       -0.003492861 0.06917939 0.04209885 0.0023258524
000380 25 9e 07 be 67 a8 a5 be 96 ce 84 bd a3 3d c9 3d
       -0.13243921 -0.32355043 -0.06484716 0.098262094
000390 97 9e 41 3d 91 a1 c1 3d cc 0f 0f be 3d 07 72 bd
       0.047270384 0.094546445 -0.1397087 -0.059088934
0003a0 44 93 5c 3e c9 07 bd 3c 38 0d 57 3c ee 54 60 bd
       0.21540552 0.023075001 0.01312571 -0.054768495
0003b0 80 67 27 be a8 a6 c0 3d d1 f5 a0 3e 1e b2 b7 3d
       -0.16348076 0.09406787 0.31437543 0.0896952
0003c0 3c 85 e3 3c fe 38 4b 3d bd 66 ff 3d 9a 1c 09 bd
       0.027773492 0.0496149 0.12470768 -0.033474542
0003d0 51 18 8f 3d e0 55 7a be b9 9d 09 bf 69 cf a7 bd
       0.0698706 -0.24446821 -0.5375629 -0.08193857
0003e0 e8 7f 24 be e9 86 29 3e ed 0c fe bd 7c 9a cf bc
       -0.16064417 0.1655537 -0.12404809 -0.025342219
0003f0 64 b4 9c bd 1e d9 9d be 93 d0 b0 be 16 31 73 bb
       -0.07651594 -0.3082971 -0.3453413 -0.0037108115

features.10.bias f4 [32]
000000 c3 25 b4 bb ec 70 3a bb fa e1 a1 bd d0 f1 e3 bc
       -0.0054976656 -0.0028448654 -0.0790443 -0.027825266
000010 56 2f 49 bd 52 f6 15 bd 7d 55 b4 bd 85 cd 97 bd
       -0.04911741 -0.036611862 -0.08805368 -0.074122466
000020 9b 12 33 3d 50 1f 84 be d4 60 db be 91 27 f0 bd
       0.043718915 -0.2580514 -0.42847311 -0.11726297
000030 08 88 4f 3e 6c 4d 1f bf 01 be 19 be 39 e1 cf bd
       0.20266736 -0.6222751 -0.15013887 -0.1015038
000040 84 7e 88 bc 06 7c 6f 3d de 55 ce bd c0 fa db be
       -0.01666189 0.058467887 -0.100749716 -0.42964745
000050 83 5c d2 bd 00 af 20 bd 75 6a 9b bd 02 ec b6 bd
       -0.102715515 -0.039229393 -0.075886644 -0.08931734
000060 ff ab 0c be db 6f bf 3a d9 45 f4 3c b0 a1 ff 3d
       -0.13737486 0.0014605479 0.029818462 0.12482011
000070 2b 40 b4 bd 8e 37 95 bb 67 cb 4d bd a7 56 16 bd
       -0.088013016 -0.004553742 -0.050242808 -0.036703732

features.12.weight f4 [32, 32, 5, 5]
000000 63 f2 42 3d bd f5 f9 bd dc d5 6e bd c7 f7 44 be
       0.04759444 -0.12205074 -0.05830942 -0.19235145
000010 35 4a 32 be 5b 8a 22 be 5d 5e d8 bb 9a 8a 1e 3d
       -0.1741112 -0.15873091 -0.006603046 0.0387064
000020 f1 81 09 3e 32 a2 33 3e 90 21 75 3d 92 78 d3 3c
       0.13428475 0.17542341 0.05984646 0.025814328
000030 f9 7d 30 3e e6 fb 7e 3d 8b a2 09 3f 9a bf 51 be
       0.17235555 0.062251948 0.53763646 -0.20483246
000040 62 64 b1 bc 9c fb 36 bd a0 88 9e 3e 9a 51 04 3e
       -0.021654312 -0.044673547 0.30963612 0.12921754
000050 55 03 81 be ad a7 46 be e6 54 bd 3d 19 ac 9d 3d
       -0.25197855 -0.193999 0.09244709 0.07698841
000060 b4 b2 f7 3d fb cd 2f 3d 8f 96 d9 3e ad ee 03 3e
       0.12094632 0.042921048 0.4249768 0.12884016
000070 aa 93 a6 3e e9 2d a4 3e 8e aa 18 3f 93 e2 16 3f
       0.32534534 0.32066277 0.59635246 0.58939475
000080 2e 89 62 3c 80 ab c2 bc 15 f3 20 3e 2a 6b 22 bd
       0.0138266515 -0.023763418 0.15717728 -0.03965298
000090 ca b5 f5 3d ec f5 97 be 0c 10 b9 3d 64 5a a0 3d
       0.11997564 -0.2967981 0.09036264 0.07829741
0000a0 a9 94 b9 bd b8 e0 97 bd c9 10 be bd 1d 8f 84 3e
       -0.09061558 -0.074159086 -0.09280545 0.25890437
0000b0 89 8c 80 3e 65 ef 3b be 46 a8 c7 bc 60 51 97 be
       0.2510722 -0.1835304 -0.024372231 -0.29554272
0000c0 52 44 c7 3e 64 6c 31 3e e0 71 10 bd c0 37 52 3e
       0.38919312 0.17326504 -0.03526485 0.2052908
0000d0 7e 70 94 be d1 57 68 be da ba 20 be c1 ad 24 3e
       -0.28992075 -0.2268975 -0.15696278 0.16081907
0000e0 cf 93 bb 3d a8 75 df 3e 3d ed 3f 3e 4f 59 f0 bc
       0.091590516 0.43644452 0.18742843 -0.02933946
0000f0 3c 85 b5 be 0e 5e e0 bc ff 4d 00 3e ef e3 16 3e
       -0.35453212 -0.027388599 0.12529753 0.14735387
000100 4d 82 7b 3e cc d5 ed 3d bb c6 e1 bc 7b c9 1d bb
       0.24561425 0.11613044 -0.027560582 -0.002407639
000110 a2 d5 10 3e 81 81 57 3e 77 3f 04 be be be 1e 3e
       0.14143994 0.21045496 -0.12914835 0.1550245
000120 88 55 2a be a2 22 b8 3d 75 4a b6 3e cf 2f b6 be
       -0.1663419 0.08990981 0.3560368 -0.3558335
000130 55 ed 9e be 7b 78 85 3d 39 6f 95 3d 23 f9 12 be
       -0.31040445 0.065171205 0.07296605 -0.1435285
000140 e6 c1 ad be 66 4e bd be 86 7b 72 be b9 a2 96 be
       -0.33936995 -0.36973876 -0.23679933 -0.29421023
000150 38 00 d9 bd f1 8d b3 be 72 5d 2d be 27 4b cd bc
       -0.10595745 -0.3506923 -0.16930178 -0.02506025
000160 ff 7a cf bc 69 c9 fb 3c 6c 08 81 bf e0 21 5f bf
       -0.025327204 0.030735688 -1.0080695 -0.87161064
000170 db 07 6c bd d6 35 23 3e 09 0c a3 3d a0 e9 6f bf
       -0.05762468 0.15938506 0.0796128 -0.9371586
000180 5b 7c ad be 91 aa d7 be 54 79 5e bd f1 e1 38 3e
       -0.33883938 -0.4212232 -0.054314926 0.1805494
000190 86 ce 96 3d df b1 15 be 4b e1 76 bd 47 ef 07 3d
       0.0736361 -0.14618634 -0.06027345 0.033187177
0001a0 20 09 44 3e fc 51 f7 bd ea ba 59 bd 55 b9 e5 bb
       0.19144106 -0.12076184 -0.05315677 -0.0070106187
0001b0 7d 84 e6 bb 77 a8 d3 3d 64 d6 8c 3b d7 4a bc 3d
       -0.007034837 0.103348665 0.0042980183 0.09193962
0001c0 bb 65 ec bd 93 70 cc bb 1c c5 f8 3c 6d 38 16 3e
       -0.11542841 -0.006239006 0.030367427 0.14669962
0001d0 52 62 e6 3c 04 10 07 3e 50 f6 8d be 0e 49 8e 3e
       0.028123055 0.13189703 -0.27726984 0.2779011
0001e0 49 b1 af be 99 83 63 be 69 a9 6d 3e 67 bc a3 bd
       -0.34314945 -0.2221817 0.23209156 -0.07994919
0001f0 4b 71 86 3d 2b d4 65 be 5f bf 5a 3e eb c8 6b 3e
       0.06564578 -0.22444217 0.21362065 0.23025863
000200 fd 8b 09 3e 8b 30 92 3e d0 37 1f 3e 33 49 8f be
       0.13432308 0.2855266 0.15548635 -0.27985534
000210 37 c8 84 3e f0 f8 90 bd e4 69 c2 be ce 28 ec bb
       0.25934002 -0.07078731 -0.37971413 -0.0072070127
000220 ed 1d b7 3c c9 60 bd 3e 99 de 6e 3e c5 c1 0a be
       0.022353137 0.36987904 0.23327102 -0.1355048
000230 5f e8 93 bd a8 bb 16 bd c6 ef e6 3d 00 25 08 3d
       -0.07222056 -0.036800057 0.11276202 0.03323841
000240 c2 ec 4d bd ad 55 05 3e 5c 45 36 3e 0b 73 69 3b
       -0.050274618 0.13020964 0.17799896 0.003562155
000250 23 94 d4 3e 6a eb aa 3d 7b 12 89 3d 07 62 3a 3c
       0.4151927 0.08345683 0.06692978 0.011375911
000260 f8 84 bf 3d e8 04 70 be 43 4d 4c be ee 43 bf bd
       0.09351534 -0.23439372 -0.19951348 -0.093391284
000270 c7 36 97 be 36 65 97 be e8 fb e5 be 6f f4 d3 bb
       -0.2953398 -0.29569405 -0.44918752 -0.0064683477
000280 36 fc 95 3e e5 22 1f 3e 86 c0 c0 3b 28 1e 3e bd
       0.29293984 0.15540655 0.0058823256 -0.046415478
000290 a7 89 bd 3b f2 db 9e be 5c c9 77 be d2 17 1f 3d
       0.0057842317 -0.3102718 -0.24197906 0.038841076
0002a0 4c 99 81 3d 1e 87 ef bd 12 c2 66 be 14 02 a5 be
       0.06328067 -0.116956934 -0.2253497 -0.32228148
0002b0 05 7f e6 bd f5 07 82 3d 0e f4 0c 3e e2 91 cb be
       -0.11254696 0.06349174 0.13764974 -0.39759737
0002c0 9d 00 b0 3c 58 a0 b4 3d 3e fc 56 3e b9 7c a8 3e
       0.021484667 0.08819646 0.2099466 0.32907656
0002d0 28 a8 dc be 49 5e 4d be 73 92 d5 bd d6 af 29 3e
       -0.43097043 -0.20055498 -0.104283236 0.16570982
0002e0 2a 72 84 3e dd 4a 33 bf e7 5c eb be a7 e1 ac be
       0.2586835 -0.7003611 -0.45969316 -0.3376591
0002f0 66 13 2a 3e 35 5c 6f 3e 23 73 8e be f6 1f 80 be
       0.16608962 0.23375018 -0.27822217 -0.25024384
000300 f2 0f ca 3c ad 80 83 3e bf 2c 5a 3d c3 83 b2 bd
       0.024665806 0.2568411 0.05326533 -0.08716538
000310 5e e4 28 be 47 a3 bb be c8 b2 27 be 13 89 07 be
       -0.16493365 -0.36648008 -0.16376793 -0.13235883
000320 2b 22 02 3e dc 9b a3 be b6 e9 00 bf 0b 8d e2 be
       0.12708347 -0.3195485 -0.50356615 -0.44248232
000330 92 47 b1 bd 99 b0 79 3e e2 5e a9 be 2e 44 1e bf
       -0.08656229 0.24383773 -0.33080202 -0.61822784
000340 25 f9 0c bf 99 91 88 be ce 91 8f 3e 3e ca 15 3e
       -0.55067664 -0.26673582 0.28040928 0.1462793
000350 95 8f f9 3b dd 0e a8 be 24 0d 86 bc a7 ca 87 bd
       0.0076159933 -0.3282384 -0.016363688 -0.0663045
000360 ed 39 86 3e ce 2e 77 3e eb 5a 82 3e f6 96 a9 3d
       0.2621607 0.24138948 0.2545999 0.08280747
000370 62 39 da be 14 ff 38 be d7 88 72 bd 29 e9 4a 3d
       -0.42621905 -0.18066055 -0.059212532 0.049538765
000380 c1 1f 05 3e ae 23 f0 be 71 5d 98 bc 1f 1a f2 3d
       0.13000394 -0.4690222 -0.018599244 0.118213885
000390 23 cd 26 be 92 fc 9f be ee 31 0f 3e 01 83 d7 bd
       -0.16289191 -0.31247383 0.1398389 -0.10523034
0003a0 8a 34 67 3e 21 6b 4a 3c 93 07 7b 3e d8 dc e5 3e
       0.22578636 0.012354643 0.24514608 0.44895053
0003b0 04 87 59 3e 6a 39 09 3d 5b 7e a6 be 02 28 03 bb
       0.2124291 0.03350202 -0.32518277 -0.002001286
0003c0 b2 fc f9 3d 5b 20 64 be e7 30 8f 3d 90 c1 7f 3c
       0.12206401 -0.22277968 0.06991749 0.015610114
0003d0 ab 0b ed bd 78 93 c8 be e9 70 be be b1 1c 1f bc
       -0.11574491 -0.3917501 -0.3719552 -0.00971143
0003e0 37 ec cf 3b 9d ac 3d 3e bc 6a c9 3b 70 f2 2f 3e
       0.0063452977 0.18522878 0.006146757 0.17182326
0003f0 19 42 5f be a2 c7 0f be 61 66 0d 3e 80 4d 8b 3e
       -0.21802558 -0.14040998 0.13808586 0.27207565

features.12.bias f4 [32]
000000 68 4b be bd 00 f0 99 3e 1e 95 8a 3e 03 59 ad bd
       -0.09291726 0.30065918 0.27066892 -0.08464243
000010 14 3f 02 3d c8 b1 99 bd 5a 01 27 be 05 db dd 3e
       0.031798437 -0.07504612 -0.1630911 0.4333116
000020 76 d3 97 3d 09 2a a3 3e d4 25 eb bd 1f ca 7a 3d
       0.0741338 0.31868008 -0.114818245 0.061227914
000030 05 1d 7e bd dc 5b 8b 3d 2e d4 e2 3d 95 ff 16 bf
       -0.062039394 0.0680463 0.11075626 -0.5898374
000040 01 01 93 3e 85 3d e1 3d 0b 00 37 be 47 a7 cf 3e
       0.28711703 0.10998062 -0.1787111 0.4055731
000050 4f 69 b1 bd c5 7c 0d 3e 48 5b 4f 3e df d3 a6 be
       -0.08662664 0.13817127 0.20249665 -0.3258352
000060 0a fe fa bb 58 77 49 be 6f 82 bc bd a4 e2 b6 be
       -0.0076596783 -0.19674432 -0.09204566 -0.35719788
000070 ae 9d d1 3c 87 9d 11 be 70 dc 3f 3e 11 d7 31 3e
       0.025587883 -0.14220248 0.18736434 0.17367198
