output/models/220502_0733_ggcnn2_epoch_80/epoch_75_iou_0.83_statedict.pt (torch, 274205 bytes, 20 tensors)

features.0.weight f4 [16, 1, 11, 11]
00000000: b746 3ebc 311c 60bd 75cf c2bc 20ce 5fbd
00000010: 4e2c f83c b012 13bd a4d0 79bd c1e6 4abd
00000020: f276 e53c 2a0a 12bd 1b95 0f3d a4d5 ac3c
00000030: 4471 0e3d 34e7 42bd d098 88bd 6164 1cbd
00000040: f1a3 d13c 9074 71bd 1330 51bd e2c2 13bc
00000050: f243 7fbd 2197 473b 7ef7 0dbd a530 943c
00000060: 1220 0dbd 75c3 26bc f5e9 60bd 255b 74bd
00000070: 9e78 6cbd cca3 37bd fa83 ac3b f3ca fabc
00000080: d83a 143d f476 08bc 3ff9 843b 3d0e e1bc
00000090: 74a5 133d 2737 7c3b 12a9 a4bc ee6f 16bd
000000a0: 9857 1f3d c830 073d 6eab 7bbc b747 86bc
000000b0: 0d24 9fbc 8d35 593c 6a99 aebc ff96 5b3d
000000c0: 0e27 773d ab58 7b3d 5c96 113d 7d5b 07bd
000000d0: 5938 d83c 205a 353d e23a e0bc 7e02 7b3d
000000e0: 442f e7bc 858a 423d 037e 103d a2ab 573b
000000f0: c1ae 843c cb78 763d 18ab f3bc 69d5 c5bc
00000100: 2507 6b3d cdc2 883a 5ea4 013a b059 3a3d
00000110: 97df 3a3d 583a 27bb 0597 0f3d 6915 033d
00000120: 4828 db3c edc8 af3c 33f3 cc3c 7b86 883c
00000130: be46 e3bc e025 353d f08e ee3c f775 b33c
00000140: 1db1 49bd dac2 463c 8b01 1abd 723a 4bbc
00000150: 7db4 363c c0dc afbc ae6a 0d3d d344 3b3c
00000160: ff8c 8abc 0ee2 993c c123 8d3c 3659 c73c
00000170: 3daf ddbb 8a48 d4bb 573b 51bd efa6 ffbc
00000180: 09a6 51bd 44d2 5cbd 7d91 c6bc 87c5 d0bb
00000190: 12a2 083c ac29 6e3c d155 333d 8ffe e63c
000001a0: ca24 5cbd 38d4 0ebd d84b 44bd c08e 19bd
000001b0: fa9d bbb9 9ee9 fbbc 20fe a0bc 17bc 893c
000001c0: 0cbb 8bbd f010 88bd ade3 23bd 2f4b 003c
000001d0: 4310 3cbd b86a f1bc 2cb8 aebb 440e 033c
000001e0: 2edc 1a3d accf 11bd 9b35 45bd bfc8 26bd
000001f0: 1140 b53c 2119 49bc f44f ffba e176 633d
00000200: d8b4 773d e50c 863b 89ca 4abc a353 debb
00000210: 45ce 1ebd a9ad 0abd 79a8 91bc aee7 61bd
00000220: 8d30 343d 08ef 1a3c fb20 853c 9163 743d
00000230: cbf0 b53d 51d2 483d 5528 6e3d 7dad bc3c
00000240: c0cf 6e3a 0181 3c3c 1281 2abd 487c 073d
00000250: 8522 f33c dc40 e1bb 1328 3d3d d3f5 9a3d
00000260: 5cff e83c c027 1e3d 802d 99bc 552c b43c
00000270: 3754 e1bc 4a41 61bd 1e5f 4d3d 8ab7 0a3d
00000280: 5e7d bcbc 07ed 0b3d 52d8 5abd 1b66 ea3c
00000290: 3ca1 e03b e2c4 743c d0e2 34bc 92b8 29bd
000002a0: bd69 173d 7b42 59bd 0908 d0bc 80dc 723d
000002b0: e00b 67bd 52f5 bb3b 7b0a a6bd c129 813c
000002c0: b77a e23b 6b21 223d 9766 13bd dbf2 fabb
000002d0: dd9d 3abd 3f65 88bc 7c88 f6bc 09d4 033d
000002e0: 6297 5abd 3b59 133c 54ff 56bd 7189 04bc
000002f0: 1131 323d 9bb8 513d a096 253d 5ffe a93c
00000300: b579 3a3c 5748 cdbc 167d 31bc a28e b1bc
00000310: b1cc 6cbd 7008 19bd 1715 583d ea8c 0cbd
00000320: 523d 4abc cb07 4ebb 6bb2 9a3c 5417 f83c
00000330: e1db 03bd 4240 5dbd 66e3 0a3d aed4 0c3d
00000340: f8fc 2c3a 1733 49bc eef0 5b3d 6897 e13a
00000350: f2b6 033d f64a 01bd 3e43 243d 89f4 4b3d
00000360: efc7 32bd 3846 3dbc 5440 983c 48b5 25bd
00000370: 6031 10bb f977 edbc aa70 afbc a03a e13b
00000380: f16a 92bc 0a96 b33c 4c57 d5bc a6ed a73c
00000390: e2da f03c cbb8 35bd abb2 9cbd ce9e e2bd
000003a0: 3735 7cbd f3a3 47bd c28e c1bd 34c4 c2bc
000003b0: 7d20 49bc 39a2 5fbd 7619 8dbc 9cc2 a3bd
000003c0: 85e4 a8bc 2b72 2fbd aa90 cd3d 5790 1c3e
000003d0: 9702 213e 9ac1 983e 6a56 a33e bca3 72bc
000003e0: 6259 d2bd 312f 0cbe bcc2 99bd 4469 c6bd
000003f0: dcb8 bebd 5874 073e 6217 bf3d 9e60 4f3e
-0.011613539 -0.054714385 -0.023780564 -0.054639935 0.030294564 -0.035906494 -0.06098999 -0.04953647
0.02801082 -0.035654224 0.035054307 0.021097966 0.034775987 -0.047583774 -0.06669772 -0.038181666
0.025590869 -0.058949053 -0.051071238 -0.009018632 -0.062320657 0.003045507 -0.034659855 0.018089602
-0.034454413 -0.0101784365 -0.05491062 -0.059657235 -0.057732217 -0.044833943 0.0052647563 -0.030614352
0.03618893 -0.008329142 0.0040580328 -0.02747261 0.03604646 0.0038485022 -0.02010015 -0.03672784
0.038901895 0.033005506 -0.015360696 -0.016391618 -0.01942637 0.013257396 -0.021313388 0.053610798
0.06033998 0.061363857 0.035543784 -0.033046234 0.026394056 0.044275403 -0.027371828 0.061281674
-0.02822078 0.047495384 0.035276424 0.0032908698 0.01619661 0.06017379 -0.02974467 -0.024149613
0.05737986 0.0010434032 0.0004945452 0.04549569 0.04562339 -0.0025516953 0.035056133 0.03200284
0.026752606 0.021458114 0.02501831 0.016665688 -0.027743693 0.044225574 0.029120892 0.021906836
-0.049241174 0.012131417 -0.037599128 -0.012404071 0.01115143 -0.021467566 0.034525566 0.011429983
-0.016912935 0.01878455 0.017228963 0.024334531 -0.006765275 -0.006478374 -0.05108198 -0.03120753
-0.051183734 -0.053911462 -0.024239296 -0.0063712033 0.008339422 0.014536303 0.043783013 0.028197555
-0.053746022 -0.034870356 -0.047923893 -0.037489653 -0.0003578512 -0.030751046 -0.019652426 0.016813321
-0.06822786 -0.066438556 -0.04001205 0.007830425 -0.045913946 -0.029469833 -0.0053320136 0.007999007
0.037807636 -0.035598442 -0.048146825 -0.04071879 0.022125276 -0.012274058 -0.0019478784 0.055533294
0.0604752 0.0040908926 -0.01237739 -0.0067848726 -0.038770933 -0.03385702 -0.01778053 -0.055152588
0.043991614 0.009456404 0.016251078 0.059665266 0.08883818 0.0490287 0.058143932 0.023031944
0.00091099367 0.011505366 -0.041626997 0.03307751 0.029679546 -0.006874187 0.046180796 0.075664185
0.028442077 0.038612127 -0.018698454 0.021993795 -0.027505977 -0.054993905 0.05013954 0.033866443
-0.023008998 0.034161594 -0.053428955 0.02861314 0.006855158 0.014939519 -0.011040404 -0.041435786
0.036966074 -0.053041916 -0.025394456 0.059292316 -0.05640781 0.0057360316 -0.08107468 0.01576698
0.0069116014 0.03958265 -0.03598651 -0.007658345 -0.045560706 -0.01664984 -0.030094378 0.032184634
-0.053367026 0.008993442 -0.052489594 -0.008089409 0.043503825 0.051201444 0.04042685 0.020751176
0.011381556 -0.025058908 -0.0108330455 -0.021674458 -0.057812396 -0.037361562 0.052754488 -0.034314074
-0.012343721 -0.003143775 0.018883904 0.030284561 -0.032192115 -0.05401636 0.03390827 0.034382515
0.00065989746 -0.012280247 0.053696565 0.001721126 0.032156892 -0.03156563 0.04010319 0.049793754
-0.043647703 -0.011552386 0.018585362 -0.040456086 -0.0022002086 -0.028987871 -0.021416027 0.0068734437
-0.01787326 0.02192213 -0.026042603 0.020499062 0.029401246 -0.044365685 -0.07651266 -0.11065446
-0.061574187 -0.04874034 -0.09451057 -0.023775198 -0.012275812 -0.054598067 -0.017224055 -0.07996103
-0.02061678 -0.04283349 0.10037358 0.15289436 0.15723644 0.29835206 0.31901866 -0.014809545
-0.10270955 -0.13689877 -0.07507846 -0.096880466 -0.09312603 0.13227975 0.09330632 0.202517

features.0.bias f4 [16]
00000000: dcde 69be 72ad 8bbe f4d5 15bf 1670 58bd
00000010: 15cd 8fbe 9eec 44be 5dfd 8abe b358 a8bd
00000020: f8d7 ebbe 4b81 a3bd 9118 e0bd c65f 66be
00000030: 09e8 b7be e07b 82be 5005 093e 36ee 1a3e
-0.2283892 -0.27280766 -0.5852959 -0.05284127 -0.28086153 -0.19230887 -0.27146426 -0.08220043
-0.4606321 -0.07983645 -0.10942186 -0.22497472 -0.35919216 -0.25485134 0.13380933 0.15129933

features.2.weight f4 [16, 16, 5, 5]
00000000: 9818 90bc 38bf 86bd 8155 f9bd 1bd9 58bc
00000010: c142 95bd 20e1 3b3d 2d4d 07bd ff9e 88bc
00000020: 2010 63bd ec34 01bc c23b 2fbd a90a 80bd
00000030: eae3 77bd db87 353c e35a 9ebc e0ef c9bd
00000040: fa3e 18bd d188 953c 22d1 9dbd cb5d c7bd
00000050: 3843 43bd 008c 14bd e13d 10bd 299f 50bd
00000060: e08a d8bd fbd1 a3bd 68ce f43c 9b74 b1bd
00000070: 7d19 183b 6307 67bc 693b 0fbd bd79 0e3c
00000080: 7dda 273d e4fa dfbd 6116 b23c 213f 12bd
00000090: f0ca c0bd af41 f8bc 29be 093d 9b96 3bbd
000000a0: 591d 40bd 0afd 6ebc de71 a1bc a35c 9ebd
000000b0: 259f 79bd 488c 88bd fa40 d8bd a4c3 e93c
000000c0: bb85 c43a 7039 babd 59c1 7e3d 469e 30be
000000d0: 13d2 a5be f363 8fbe 103d 4ebe fc43 333e
000000e0: 0388 2fbd 8a87 3cbe 25a4 0ebe 9887 bc3c
000000f0: ac3d d83d 7583 8bbd 1357 f4bd d7b3 a4bc
00000100: 5a2b b83d 5666 abbd ab06 ecbd cdd8 1abe
00000110: d9b8 babb 27c5 8a3e 5550 02bc 4dc7 1abe
00000120: d2d7 4ebe 4f21 d73d de58 be3e eace d43c
00000130: 1ecb 03be 263e 97bd 1226 3dbe 74e2 a3be
00000140: 91ea 443e 730d 283c 3703 26bd a853 29be
00000150: 6934 6abe ee22 883e d046 353e 9f50 7f3d
00000160: 914d 98bd e823 d5bd f227 a73e c016 093e
00000170: 9611 073e 998d 8c3b afea c53c 1fd6 573e
00000180: 326f 0d3e 3b65 303d 21bb 8c3c 3ada e6bc
00000190: a360 0dbe 1c08 81bd d6c4 af3b fbf2 9bbb
000001a0: 93e1 4b3e 5347 47be f8d4 3abe 5fe5 22be
000001b0: d456 1bbd 27d4 2c3d 7414 fcbd 2bc7 1cbe
000001c0: 52d5 0fbe 94eb b8bd 9fe8 073e c3d6 7e3d
000001d0: 7b1c a4bd dd6e 0abe 4ca4 15bd cbf6 c13d
000001e0: e721 103e 3a6c 03bd 01d2 39be 5601 93be
000001f0: 1c5f f6bd e64f e83d d00b f83d c132 f93c
00000200: fafc dfbc 1603 cbbc ca18 95bb fdf4 0ebd
00000210: d82b a83c 94a1 5dbc 689d 4a3d dc29 3b3d
00000220: 2723 31bd 39f7 a6bb 6ae6 96bc 1810 b03d
00000230: bcdb c7bc 36eb 5f3d d9c2 96bd 14b6 813d
00000240: 534f 4abd 73db b1bc 3d55 de3c 9b72 74bd
00000250: e868 c5bd a35c 1ebd 6e81 4dbb c7d9 b7bc
00000260: 6517 d53d 90d5 323c dcb8 1d3e 85b1 d53c
00000270: fff6 ae3c 707b cd3d aec3 433d 2dd4 2a3e
00000280: dcda 913d 10aa c43c e5ef d23d 12e0 94b9
00000290: 280d 923d 4b63 fcbc 5535 dfbd 0f8e b3bc
000002a0: 1728 7c3d 75a9 903d 893e 17be dd17 a6bd
000002b0: 7a52 b3bd 9ae7 99bc 24b2 59bd e399 4bbd
000002c0: 7ee4 31bd 61d7 fa3c 1146 f2bc 787c 8a3d
000002d0: a314 103d 485f 363b 94ae 44bc ceab 51bd
000002e0: 7ef2 e73d c14c d3bc 2b0b 143d bd0c 2f3d
000002f0: da8b 543d 2ae8 04bb a102 dbba 9853 8d3c
00000300: d30f 83bd 5e49 d8bd 2862 30bd 04ec 36bb
00000310: a92b 5ebd 3b21 61bd 7f8d 403d 2654 07bc
00000320: 04f1 233e 0652 56bd cf74 1a3d e2a7 ae3d
00000330: 028b 80bb 3b55 933d cbf6 0fbe 5d58 50be
00000340: 8ea1 6abe daf5 68be 4afa 883e e97d f03c
00000350: 8884 65bd 462c b1bd 9ccf 61be f19e 953e
00000360: e361 6d3d 1fc4 8cbd c6ed ecbb e440 75bd
00000370: 2887 a53e 6262 6abd b96c f3bd fc7a c0bd
00000380: 9a11 9dbd 2dbc 09bd 49f6 1b3d 68b2 a03d
00000390: 0bc9 02bd 3c74 32bd c7bf 103d 3aa5 823d
000003a0: 9fd7 6a3d 5154 a8bd c2c0 3b3d 2043 a2bd
000003b0: 2152 313d 5e56 bbbc 22bc 673d d66f 883d
000003c0: 0e37 46bd 51e5 d4bc 942c 89bd b5c5 1cbd
000003d0: 59aa a2ba b7b0 8fbc 9579 103d eb31 963d
000003e0: f531 133c 020f 9a3d ee43 333d 6ab0 81bd
000003f0: 123e b6bd cda1 113d 1563 0d3d 8273 6ebd
-0.017589852 -0.06579441 -0.12174512 -0.013235356 -0.07288123 0.045868993 -0.033032585 -0.016677378
-0.0554353 -0.007886153 -0.0427816 -0.06252033 -0.06052009 0.011079754 -0.019330448 -0.09860206
-0.037169434 0.018253716 -0.077059045 -0.097346865 -0.047671527 -0.036266327 -0.035215262 -0.050933037
-0.10573363 -0.07999035 0.029883578 -0.08664819 0.0023208552 -0.014100882 -0.034968767 0.008696017
0.04097985 -0.109365255 0.021739187 -0.035704736 -0.09413707 -0.030304758 0.033628616 -0.045797925
-0.046902988 -0.014586696 -0.019707616 -0.07732513 -0.060942788 -0.066673815 -0.10559268 0.028535672
0.0014993468 -0.090929866 0.06219611 -0.17247877 -0.32386836 -0.28005943 -0.20140481 0.17506403
-0.04285432 -0.18411079 -0.13929804 0.023013875 0.10558638 -0.06812183 -0.119306706 -0.020105286
0.08992644 -0.083691284 -0.11524709 -0.15121765 -0.005698305 0.2710354 -0.007953723 -0.1511509
-0.20199516 0.105044 0.37177175 0.02597757 -0.12870452 -0.07384901 -0.18471554 -0.32008708
0.19230105 0.010257113 -0.04053041 -0.16535819 -0.22871555 0.2658915 0.17702794 0.062332746
-0.074366696 -0.10407239 0.32647663 0.13387585 0.13190302 0.0042893407 0.024159757 0.21077774
0.13811949 0.04306529 0.017179074 -0.02818023 -0.13806395 -0.06300375 0.005364041 -0.00475919
0.19910268 -0.19460802 -0.18245304 -0.1590781 -0.037924603 0.04219451 -0.123085886 -0.15310352
-0.14046219 -0.09029308 0.13272332 0.06221653 -0.08013245 -0.13518853 -0.03653364 0.094709
0.14075433 -0.032085635 -0.18146516 -0.28711957 -0.120298594 0.113433644 0.12111628 0.03041971
-0.027342308 -0.024781745 -0.004550074 -0.034901608 0.020528719 -0.013527293 0.04946652 0.045694217
-0.043246415 -0.005095389 -0.018420417 0.0859682 -0.02439677 0.054667674 -0.07361383 0.06333557
-0.049392056 -0.021711087 0.027140254 -0.05967961 -0.0963915 -0.038662564 -0.0031357664 -0.022442712
0.10404853 0.010915175 0.1540255 0.026085624 0.021358011 0.100333095 0.047794037 0.16682501
0.07121822 0.024006873 0.102996625 -0.00028395705 0.071314156 -0.030809065 -0.10898844 -0.021918325
0.06156167 0.07063571 -0.14769949 -0.0811002 -0.087559655 -0.018787194 -0.053148404 -0.049707305
-0.043430798 0.030620279 -0.029574426 0.06762022 0.03517593 0.0027827788 -0.012004513 -0.051189236
0.113255486 -0.025793435 0.036143463 0.042736758 0.051891185 -0.0020279982 -0.0016709157 0.017251775
-0.063995026 -0.10560869 -0.04306236 -0.0027911672 -0.054240856 -0.05496333 0.04700994 -0.008259809
0.16009909 -0.052324317 0.037709054 0.08528115 -0.003922821 0.07193991 -0.14058988 -0.20346208
-0.2291319 -0.22750035 0.26753455 0.029356914 -0.056034595 -0.086510226 -0.22051853 0.29222825
0.05795468 -0.06873345 -0.0072304932 -0.059876338 0.3232968 -0.05722273 -0.118859716 -0.093984574
-0.07669373 -0.033626724 0.038076673 0.07846528 -0.03193001 -0.04356788 0.035339143 0.06379171
0.05733454 -0.08219207 0.045838125 -0.07922959 0.043291215 -0.022868332 0.0565759 0.06661956
-0.048392348 -0.025988253 -0.06697956 -0.038274486 -0.0012410387 -0.017540319 0.0352722 0.0733374
0.008984079 0.07522394 0.043765955 -0.063324764 -0.08898558 0.035554696 0.03451832 -0.058215626

features.2.bias f4 [16]
00000000: 1b14 c2be c7db b33e fe6f 0fbd 5d36 2e3d
00000010: 591a bfbc 8f11 40be 3f8d 25bd 528c fdbd
00000020: 15a3 c1bd 602c 62be 5782 c5bd ea95 89bd
00000030: b7b5 04be 4a9d 10be 58d1 2f3e bbab 6e3e
-0.37905964 0.35128614 -0.035018913 0.042532314 -0.023327993 -0.18756698 -0.040417906 -0.123802796
-0.094549336 -0.2208724 -0.09644001 -0.06718047 -0.12959944 -0.14122501 0.17169702 0.23307697

features.5.weight f4 [16, 16, 5, 5]
00000000: 482d f33b 0d8c efbd 0e4e 88bd fa57 adbb
00000010: 7231 fabd 9abc ba3c 582f 413d 4b16 a4bd
00000020: 5997 823d eff4 4c3d d560 28bd 8d0b bfbd
00000030: da33 8a3c ff36 acbd 46b4 ad3c 1790 c9bd
00000040: b3f2 c0bd 76ff a8bd ac7a abbd 93e3 c1bd
00000050: 5f29 26bd d24f b0bd 29c2 0d3d b817 91bd
00000060: 24f3 dabd 946a afbc 7906 15be 7a30 623d
00000070: d0d5 b1bd b675 6abd 2391 02be 1442 7ebd
00000080: 9243 06bd 2686 a8bc 9d42 493b f2fb 98bc
00000090: 5a4a 9bbc 7a18 00bd be0d 67bc 673f f2bd
000000a0: 00e7 50bd 9ef3 05be edaf 42bd 765b 0fbc
000000b0: a534 a2bd 51fa 22bd 8886 50bd 3357 9cbc
000000c0: 9abb 87bd 0873 65bd a07e 5cbd cbb8 9b3c
000000d0: 5aeb 8abd 4430 903b 4bff ebbc c9eb 2d3c
000000e0: e67a 523d 7c89 513d 78aa 0dbc e703 2d3d
000000f0: 7a05 74bd 53cf 8e3d a763 8b3d 8f5e 903d
00000100: 85a8 bd3b f766 a1bc 9d75 49bd 20f7 283d
00000110: f040 5abd c1e2 17bd 3aef 26bd 1f61 1a3d
00000120: 41eb 3d3d aa9e 94bd b5d7 0dbd cef5 683d
00000130: f526 0f3d c9f6 133d 7e55 7fbc 4d41 603d
00000140: e869 4f3d 8539 94bd 83e7 16bc 5c1e f7bb
00000150: fa7d 9c3c 7ab0 93bd 147f 923d a334 583d
00000160: f1ee a2bd 3995 4dbd cdb4 f73c 7aa3 9d3d
00000170: 8df7 9c3b 2450 07bc 0f0f 843c 17e6 80bc
00000180: 526a a4bd d69c b03c 9239 fabc cedc bbbb
00000190: 0a06 99bd c403 313d cb4a 823d e0e2 a43d
000001a0: 3bd7 82bc 5eed 86bc a93e a3bd b66e 87bd
000001b0: 7a50 c6bc 7227 243c e97b dabc 8194 8f3d
000001c0: e7e6 94bc 66d2 9e3d 7b23 f03c 1a84 fbbc
000001d0: 8503 983d 9ff6 6d3d cf71 dbbb 0212 f8bc
000001e0: 51d4 9a3d d9cf f3bc a8d0 12bc 45a1 023c
000001f0: bf59 94bd 01d5 503a 0fa9 aebd 572d ba3c
00000200: 9bf5 8fbb 80ba e03c 8548 993d 715e a4bd
00000210: 1da3 d13c d5ff c4bd e2d9 b8bd 4c26 e83c
00000220: b5d4 b1bd 4f82 c0bd 6516 123d b577 0f3d
00000230: 27a7 c9bd 55ae 2fbd e07f 33bd 9970 3f3b
00000240: 6808 28bd 18e4 94bd 4b01 bbbd 7844 a1bc
00000250: ee72 973c 3c3f ca3b 1c7f c5ba 1483 e33c
00000260: e4c5 cd3b 56f4 9bbd 61f8 6e3d 6891 963d
00000270: f6fc 163d 0172 653b c258 a23d aa8f a33d
00000280: a032 a6bd e164 7b3d d357 963d 49b1 41bd
00000290: f1f1 a43c 2f99 e1bc dc2b 0ebd ee48 21bd
000002a0: 4035 3d3c 2d1a 903d d435 bfbc 12b9 82bd
000002b0: 0ea6 013d 2d7c 6cbd 6498 d53c 7de1 9abd
000002c0: d426 6d3d 54c8 abbd e3d4 273d 65e1 d43c
000002d0: ea9e 6f3c 564e a7bc 129f 2a3c 5f79 883b
000002e0: a9bf b53d 690e 9bbd e5fd a6bb 6192 833d
000002f0: 7f2d 6ebd 88b0 92bd 395f 9cbd 78bd 73bd
00000300: 4571 1fbe 598b 27bd 6a7c d3bd 8e02 953d
00000310: 0038 03bd 13a8 63bd 3826 943d 7f07 66bc
00000320: a443 1bbd 8dcb 14bd 949d e2bc 2b86 073c
00000330: a685 89bd fa1b 733d 242f c03a fc2a 2abc
00000340: 15c1 d63b 5523 15bd 2a1f 713c 9944 9abd
00000350: 9f7c 2abd 9af7 f63c a8f4 c4bb fc26 1abd
00000360: 7c1b 56bc e5a8 ee3c 04cd e7bb 8fda 66bb
00000370: 63ab 253c 169e a13d 2942 273d b735 603d
00000380: 33f0 afbc 4924 013d bf27 aabd 0319 0dbd
00000390: 0914 49bc e07f 53bc 5611 87bc 39c5 c93c
000003a0: 0ad3 2e3d ebeb 9fbd 0f4e c43c 7fdf 82bd
000003b0: 174f a23d 39f2 a9bd 9ccc 803c a363 3ebd
000003c0: af3b a7bd 7c32 003d d42e 923b 9de4 883c
000003d0: 6a86 b6bd 9735 0b3c 1969 b6bd 7f69 4f3d
000003e0: 4e1c 603b f417 8c3c b6a2 063e ba7f a83d
000003f0: e528 ae3a 76e1 813d 7c81 973c c036 a13c
0.0074211694 -0.116966344 -0.06655513 -0.0052900286 -0.12216462 0.02279501 0.04716429 -0.080120645
0.063765235 0.050038274 -0.04110797 -0.09328375 0.016870428 -0.08408927 0.021204125 -0.09841936
-0.09421291 -0.0825185 -0.08373007 -0.094672345 -0.0405668 -0.086089745 0.034608994 -0.07084602
-0.10690907 -0.021413125 -0.1455325 0.055222012 -0.086833596 -0.057241164 -0.12750678 -0.062074736
-0.032779284 -0.02057178 0.003070987 -0.018674824 -0.018956352 -0.031273343 -0.0141023975 -0.11828499
-0.05100155 -0.13081214 -0.047531057 -0.008749833 -0.079201974 -0.0397895 -0.05090955 -0.019084549
-0.06627579 -0.056017905 -0.053831697 0.019009015 -0.06783171 0.004400285 -0.028808257 0.010615298
0.051386736 0.051156506 -0.0086466 0.04224005 -0.059575535 0.06973138 0.068061166 0.070492856
0.0057879114 -0.019702418 -0.04918443 0.0412513 -0.053284585 -0.037081484 -0.040755488 0.03769028
0.046366934 -0.07256825 -0.034629542 0.056875043 0.03494926 0.036124025 -0.015584348 0.054749776
0.05063811 -0.072375335 -0.00921047 -0.007541461 0.019103039 -0.072113946 0.071531445 0.052784573
-0.07955731 -0.050191138 0.03023758 0.07697196 0.0047902525 -0.008258853 0.016120462 -0.015734715
-0.080280915 0.02155916 -0.03054503 -0.005733109 -0.07471855 0.04321648 0.06361922 0.080510855
-0.01597177 -0.016470607 -0.07970936 -0.06612913 -0.024208296 0.01001917 -0.026670413 0.07010747
-0.018176509 0.07754974 0.029313793 -0.03070264 0.07422546 0.058096524 -0.0066969167 -0.030282024
0.075600274 -0.029762195 -0.00896088 0.00797302 -0.0724368 0.00079663104 -0.08528339 0.022726698
-0.004393292 0.02743268 0.07484535 -0.08025826 0.025590474 -0.096191086 -0.09025933 0.028338574
-0.08683149 -0.093998544 0.03566589 0.03502627 -0.09846335 -0.042890865 -0.043823123 0.00292114
-0.04102364 -0.07270068 -0.09131106 -0.019685969 0.01848742 0.006172089 -0.0015067789 0.027772464
0.006279694 -0.07614963 0.05834234 0.07351953 0.036862336 0.0035010579 0.079270855 0.07986386
-0.08115125 0.061375502 0.0734097 -0.047288213 0.020134898 -0.027538864 -0.034709796 -0.03937619
0.01154834 0.07036243 -0.023341097 -0.063829556 0.031652503 -0.05773561 0.026073642 -0.0756254
0.057898358 -0.08387819 0.04097451 0.025986383 0.01462529 -0.020423096 0.010413902 0.004164859
0.08874447 -0.07571108 -0.0050961846 0.06424404 -0.058148857 -0.07162577 -0.0763535 -0.059506863
-0.15570553 -0.040904377 -0.103264645 0.07275878 -0.032035828 -0.05558021 0.07233852 -0.014039873
-0.037906304 -0.036326934 -0.02766303 0.008271734 -0.067149445 0.059352852 0.0014662487 -0.010386225
0.006553779 -0.03641065 0.014716903 -0.07532615 -0.041622754 0.030147363 -0.0060106106 -0.037634835
-0.013068076 0.02913327 -0.0070740003 -0.0035225486 0.010111663 0.078914806 0.04083458 0.054738726
-0.02147684 0.031528745 -0.08308362 -0.03444768 -0.012272843 -0.012908906 -0.016487759 0.024630176
0.04268173 -0.0780867 0.023963002 -0.06390285 0.079252414 -0.082981534 0.015722565 -0.04648174
-0.081656806 0.031298146 0.0044611488 0.016710574 -0.08912356 0.0084966635 -0.089067645 0.05063772
0.0034196558 0.017101265 0.13148007 0.08227487 0.0013287334 0.063418314 0.01849436 0.019679427

features.5.bias f4 [16]
00000000: a6d9 a3bd 54d4 363d 38e1 c0bd 12cc aebd
00000010: 01ca 28be 24a0 033e 59b3 7d3d d23c 0fbe
00000020: 7605 98be 66cf 2ebe 035e 2bbe ba94 64be
00000030: 7f18 d4bd a52e cbbd b379 19be cb3d 83bd
-0.080004975 0.044636086 -0.09417957 -0.08535017 -0.16483308 0.12854058 0.061938617 -0.13988045
-0.29691666 -0.17071304 -0.16735081 -0.2232236 -0.10356235 -0.09921006 -0.14987831 -0.064082704

features.7.weight f4 [16, 16, 5, 5]
00000000: e292 18bd e365 a2bd fce2 06bd 302e 143d
00000010: a3d6 cf3c 79c1 7a3d 5f77 b03b 847c 38bd
00000020: 7dba a93d 4ed3 2bbc e05e 383d 97ea 953d
00000030: f666 b53b f532 e3bc f633 4cbc d719 bd3d
00000040: ed89 b8bd 00a2 243d d197 9cbb 0030 c3bd
00000050: d891 f33c a2e4 8b3d c7b0 2d3d 3bf4 953c
00000060: f68f 3a3d 8a0f 943e e92e 763e 8e56 363e
00000070: 4c84 063e f0bd f33d 3231 8e3e d893 523e
00000080: 128b 553d f73f f63d 5f34 93bc 451b 38be
00000090: 51be 55bd 3c46 92be 3920 9bbe 8737 4bbe
000000a0: d403 0fbd 7591 7abd 34cb abbd 62f6 14bc
000000b0: b9aa 75bd 935a 78be 67da 1cbe cf61 1fbe
000000c0: d1c1 20bd 1912 bc3e 3b88 efbd fbe9 d2bd
000000d0: cb04 b8bd 9cee c3bd b043 273d 1396 1abe
000000e0: 2166 c9bd e827 b0be 1423 b1bd 4a40 d23d
000000f0: c9df 353c a46d 15be f1db dcbd 5ecc 93bc
00000100: e870 a4bc 2414 11be 3ee7 28be f93b 52bd
00000110: 6a65 38bc 809e 363d c769 c9bb 8598 cebd
00000120: fde7 61bd cb51 87bd a1a8 923c 1e0f a6be
00000130: ffaa 1fbe 8f56 a6be 73d7 c4bd 8658 6bbe
00000140: d574 1abe ff56 263d 0031 e3bb 71d7 093e
00000150: 7316 25be 8dbf 463c 0639 76bc fc81 083e
00000160: bc53 5b3e 65d3 da3d bfcb 553e 37a8 adbd
00000170: bb7d 9dbd 300e d7bd e14e 4a3e 09fa 563e
00000180: 8fbb ac3d 6155 0fbe 1abb 30be 1e28 ed3d
00000190: eabd bcbe e2d9 a8be ce3c eabe 5dbb 17be
000001a0: 3055 f4be fdf7 7dbe 480f 93be 89fc 2ebe
000001b0: 3530 9f3e 5211 b93e d871 0f3c c783 873c
000001c0: cd5e c63d d53a ea3d 4699 9d3e 4b8e 563d
000001d0: aed4 f03d 58bc 553e b91c 1c3e 5f63 de3e
000001e0: a847 49be 0da3 8bbe bb0b 8a3d 8b05 893e
000001f0: 5ef5 1bbf a7ab c1be 00dd 1bbf 90ec 30bf
00000200: e9c5 bdbd 8ac2 833e 1fe8 e33d dfa4 f33d
00000210: 2ce5 9fbe 7c5c 59be 3110 603d ba18 413e
00000220: 2d11 2d3e 0f1c 0bbc 1bbf adbe a4d3 ebbe
00000230: 36d7 113d e99a 0d3d 0a66 5d3c dbc4 09be
00000240: 1836 efbe b6a1 173e 1097 90bc 3562 923b
00000250: ce8c f0bb d7a0 c0be d1ca 343e 4e75 403e
00000260: 7ea9 1f3e 14ba 913d 35d7 a0bd aa5b 05be
00000270: 591e 103d 5dfc 07bd b7b2 713d 1024 393d
00000280: eed3 24bd 0931 283b 11d4 0bbd fe79 34bb
00000290: e183 0b3e 3237 6ebd e688 bbbd 7388 1e3d
000002a0: 253a 4fbd e7db 8e3d 70e1 96bd 83bf 9dba
000002b0: 6a26 b43c bb4f 983d c6aa c03d e818 ec3b
000002c0: 3b74 31bd 914b fdb9 6a36 1abd e344 cbbd
000002d0: 69db 51bd 8a2e 123c 1122 1a3d 077e 9a3d
000002e0: bb1f 1a3d 8462 6a3c 8741 2fbd 12dc f13c
000002f0: 4933 a33d f2a7 e23d b919 563c 1335 383c
00000300: df8f e73b 090e 08be eaa4 5cbd 1406 523d
00000310: 1d42 c13d 8f60 813d 1f1a 96bd 5acf 13bd
00000320: 6817 063c 7fdc 7d3d 5ab6 333d e4a3 8ebe
00000330: 46a9 e1be 2691 113d 5558 d33d 83ce bd3d
00000340: 1624 7bbe 5661 26be 15a1 33bd c17f 5e3c
00000350: 6ef7 f73c f4ea 86be 93a5 d73d 8088 a63d
00000360: bb1f cebd 63a1 923c 2f22 63be 162f e7bd
00000370: af52 e53d 6bda 553d 8a89 8abd 9ed3 41be
00000380: 0c4b c4be 89ab e23d 7f76 a53c 6c70 54be
00000390: f4fd 5cbe 1bdb c5bd 4f88 e8bd 9cbc 1bbd
000003a0: e84c 763d f1ec 09be 12d9 bcbc 699c a9be
000003b0: 2fd6 46bd de40 d5bc d4b5 933c 8085 a33c
000003c0: 1d9d e2be a6ad 68bd 84f3 a3bc 7c04 9c3d
000003d0: 14ae c73d 28c1 41be 5c1d 20bd 1ac1 043e
000003e0: ec34 2c3c 9ea7 2dbd 699c ec3d 1f9b 5e3d
000003f0: 0960 0cbe 9fff eabd 2d2a 533a 7931 d83d
-0.037249453 -0.079295896 -0.032931313 0.03617686 0.025370901 0.061219666 0.005385324 -0.045040622
0.08287523 -0.010487391 0.045012355 0.07320135 0.0055359555 -0.02773426 -0.01246356 0.09233444
-0.09010682 0.040193558 -0.00477884 -0.0953064 0.02973263 0.068307176 0.042404916 0.018304935
0.045547448 0.28918105 0.24041332 0.17806455 0.13136405 0.11901462 0.27771908 0.2056421
0.05213458 0.12023919 -0.017969308 -0.17979153 -0.052183453 -0.2856921 -0.3029802 -0.19845401
-0.03491576 -0.061173875 -0.08388367 -0.009091945 -0.059977267 -0.24253301 -0.15317689 -0.15564655
-0.039247338 0.36732557 -0.11695906 -0.102985345 -0.08985289 -0.095669955 0.040836036 -0.15096311
-0.09833933 -0.34405446 -0.08649269 0.102661684 0.011100718 -0.14592606 -0.10784138 -0.018041786
-0.02007337 -0.1416784 -0.16494462 -0.051326726 -0.011254648 0.04458475 -0.006146643 -0.100876845
-0.055152882 -0.06607398 0.017902674 -0.32433408 -0.15592574 -0.32487914 -0.09611406 -0.22982988
-0.1508363 0.04061031 -0.0069333315 0.1346109 -0.16121845 0.01213063 -0.015028244 0.13330835
0.21418661 0.106848516 0.20878504 -0.0847935 -0.07689997 -0.10500753 0.19756652 0.20993818
0.084342115 -0.13997413 -0.17258874 0.11579917 -0.36863643 -0.3297873 -0.45749515 -0.14817567
-0.47721243 -0.24801631 -0.28722596 -0.17088522 0.31091467 0.36146027 0.00875517 0.016542329
0.096860506 0.114370026 0.30781 0.052381795 0.117593154 0.20872629 0.15245332 0.4343519
-0.19656241 -0.27272835 0.06740519 0.2676204 -0.60921276 -0.37826273 -0.60884094 -0.69110966
-0.09266264 0.2573436 0.11128258 0.11896681 -0.31229532 -0.21226686 0.05470294 0.18857089
0.16901083 -0.008490576 -0.33934864 -0.46059906 0.03560563 0.034571562 0.013513098 -0.13454
-0.46720958 0.14807782 -0.017650157 0.0044672736 -0.007341004 -0.3762271 0.17655493 0.18794748
0.15592 0.0711557 -0.078535475 -0.13023248 0.03518519 -0.033199657 0.059008326 0.045200408
-0.040241174 0.0025663993 -0.03413779 -0.0027538533 0.13624527 -0.058158107 -0.09156971 0.038704347
-0.05059256 0.06975537 -0.073672175 -0.0012035224 0.021990974 0.074370824 0.094075724 0.0072051175
-0.043323737 -0.00048312222 -0.03764955 -0.099252485 -0.051234636 0.008922229 0.037630145 0.07543569
0.037627917 0.0143057145 -0.0427871 0.029523883 0.07968766 0.11067189 0.013067656 0.011243123
0.0070667113 -0.13286604 -0.05386821 0.051275328 0.09436438 0.06317245 -0.07329201 -0.036086418
0.008184291 0.06197786 0.043875076 -0.27859414 -0.44074458 0.035538815 0.103195824 0.092679046
-0.24525484 -0.16248068 -0.04385479 0.013580264 0.03026935 -0.2635113 0.10529628 0.08131504
-0.10064646 0.01789922 -0.22181009 -0.11288278 0.11197411 0.052210253 -0.06764515 -0.18928382
-0.38338506 0.11067874 0.020198105 -0.2074601 -0.2158125 -0.09660932 -0.11354124 -0.03802167
0.060131937 -0.13469292 -0.023052726 -0.33127144 -0.048544105 -0.026031908 0.018031038 0.019961119
-0.44260493 -0.05680623 -0.020013578 0.07618043 0.0975 -0.1892134 -0.0390905 0.12964287
0.010510664 -0.04239618 0.1155327 0.054347154 -0.1370851 -0.11474537 0.0008055296 0.10556311

features.7.bias f4 [16]
00000000: 9a70 223e 579d f33b dd45 99be 0d91 47bd
00000010: 226e eb3d 7ac0 693e 3bcb e13d 6dd9 54bf
00000020: 37a0 ff3d a60f 2d3e 8541 8bbd 1424 dd3d
00000030: 69e0 8a3e 0a74 623d 7148 16be d696 443e
0.15863267 0.007434528 -0.29936114 -0.048722316 0.114956155 0.2282733 0.11025091 -0.83144265
0.124817304 0.169005 -0.06799606 0.10797897 0.27124336 0.055286445 -0.14676072 0.19198164

features.10.weight f4 [32, 16, 5, 5]
00000000: 4a6d 833d c6d7 2e3e 15c6 8a3e a841 c73e
00000010: 21ce 963e d92f be3d d2b6 433e c000 803e
00000020: 1b5d a93e c260 a23e cca1 67bd dfde 6fbc
00000030: d31b 443e 4bd4 883e dc2d 803e 8c5b 65bd
00000040: c888 853c 63fd ca3d a997 b1bd edbe 073e
00000050: 0eac 10be 6eab 97bd 3ed0 88be 6296 a7be
00000060: 2e62 a9be 8e2a 50be 97ab d1bd 089e 09be
00000070: 1b9f 62be 1737 513d 6da4 c9bd c2dc 053d
00000080: a3d5 3c3e 2cdc 023d b495 ac3d ef51 99bd
00000090: 44d3 afbe 71d4 9ebe bc35 cbbd 77af 51be
000000a0: a9e5 b3bd 6b6a bbbd 8221 2dbf 773f 0abf
000000b0: ce5f 6abe 81cb 8cbe 2769 d83c f85f 0fbe
000000c0: e30a 1fbf eb8e 10bf 1456 10bf 7eca 2bbe
000000d0: 88f8 d1bd 70b6 c8bc d2ed 4b3e 9fc5 963d
000000e0: 118a 083e 1ea5 bb3a 5f69 83be 5893 a5bc
000000f0: 79d8 f23d c83b bebe 43f3 05bf f382 29be
00000100: 740a 5abe ce37 e33e 0fdb c8bf 7ea5 f0bf
00000110: 40a4 85bf c77a 99bd a1df e83e e3cc 14bc
00000120: 4295 043d 0608 f0be 8074 df3e 4e50 86bd
00000130: b07a 79bb 2e6c 8e3e 9d5f 563e e9d2 453e
00000140: 92e1 35be 2de5 953d 20a4 06bd 6210 893e
00000150: f37d df3e bf10 dcbe 2942 fd3c e2dc 09be
00000160: 7ebb 32bd 51f7 c93e 0efb c3bd 8846 c0be
00000170: 6348 0b3d ff44 a6bf bb66 20bf 17e7 dc3d
00000180: ea4d 1abf dba4 3bbf 4178 b8bf 8456 c2bf
00000190: 5c1e a9be 888d 703e 0cb6 03bd 8b97 c7bc
000001a0: a0b5 00bf b030 00bf 4bc0 983e 752c e8bd
000001b0: dc67 21be 3b5e 173e 5731 c73e 4108 e73d
000001c0: cb35 22bf 8adb 89bf ed9d 663e f6fe 0fbe
000001d0: 9c58 a63e c0f5 adbf 4dd5 8ebf f533 0ebf
000001e0: 8abf 74be f0b1 9b3e c03f 0cbf 46d0 94be
000001f0: 23ca dabd 30aa e7ba d6e6 f33d ab34 553e
00000200: 1ffe 0c3d 0bff 34bf b0ef 6fbe fdee 513e
00000210: f85a 58bd ec62 cf3d 3e90 ffbe f4f1 2a3e
00000220: c8bf 00be ba94 40be bc4a 03bf 93c8 51be
00000230: c9cb 2ebd ef26 abbe d448 93be 0b89 65be
00000240: 4149 87be a0ee 01be e0a3 87be 7774 dabe
00000250: 8497 1cbf f525 e73b 8737 dcbe 5271 b0be
00000260: 176a 59bd 282a 32bc e2f1 133d fea0 003c
00000270: 5a28 25be 92c2 c2bc c55c a03e 11d5 6bbd
00000280: 7eb2 253c af09 ad3c d147 abbd 597a ba3e
00000290: cbda 993e 9ab5 cebc d674 2ebe 78ae a8be
000002a0: 8bc8 d9be 82b7 553e d5a1 143f 7140 9ebe
000002b0: 9638 e8be 2b62 65be 3e3b bdbc a726 02bf
000002c0: f824 f0be 61c4 8abf 76fd 84bf 2dda 3abf
000002d0: 1120 cdbf 1280 13bf 62b0 7fbf 2587 71bf
000002e0: 52f2 91be 063a 13bf ef35 bcbe 8775 b1be
000002f0: 2707 0ebf c0dd 8e3d f1ad c5bd 2612 30bf
00000300: f11c ce3d 53fe 023e 5df7 0e3e 6536 78bf
00000310: dc58 3cbf 33e4 b7be 1e68 dd3e b187 683e
00000320: 3e57 28be 677d d03c 7d21 10bd dd28 12bc
00000330: f6ed c83d f811 9fbd 13d8 74bd 7624 c7bd
00000340: 05da 91bd f9ed 433a 5e96 843d aeab e73d
00000350: 62a8 8e3d ad30 11bd 9e84 e4bd 51ba 063e
00000360: 8a14 583e 45cc 693d c4bf e53c d1a4 54be
00000370: 6a9a 9f3c 22eb 8b3d 7491 c33c 77f8 9dbc
00000380: b36e f4bd e247 15bf 218e 30bd 21af a7bc
00000390: 88a2 6abc 0380 2d3e 74ae c9bd 70a1 13bd
000003a0: a33c 6f3e 798d 32bd 8221 2bbc 14d1 55bd
000003b0: 0493 b9be e4e4 2f3b 352b 8b3e 9b29 0a3e
000003c0: fbf6 513e 03c2 0b3c ad83 2d3e 126f 2bbd
000003d0: a452 cc3d de5f ddbe c423 3bbf 52fd 2cbe
000003e0: 2ec5 a8bd 8416 7b3e f9d1 edbe 0d26 803b
000003f0: 4ec7 d3bd a5e7 aebd 6405 c4bd 1fff 793e
0.064173296 0.17074499 0.2710425 0.3891728 0.2945414 0.0928647 0.19112709 0.25000572
0.33078846 0.31714445 -0.056550786 -0.014640539 0.19151239 0.26724467 0.25034988 -0.05599551
0.016300574 0.09911611 -0.08671505 0.13256426 -0.14128134 -0.074057445 -0.26721376 -0.3273192
-0.33082718 -0.20328733 -0.10237806 -0.1343919 -0.22131006 0.05107793 -0.09845815 0.032681234
0.18440871 0.031948254 0.08426991 -0.07486331 -0.3434087 -0.31021455 -0.099223584 -0.20477091
-0.087840386 -0.09151157 -0.67629254 -0.5400309 -0.22888109 -0.2749901 0.026417328 -0.14001453
-0.62125987 -0.56468076 -0.56381345 -0.16776463 -0.10252482 -0.024501055 0.1991494 0.07361912
0.13333918 0.0014316177 -0.2566633 -0.02021186 0.11857695 -0.37154984 -0.5232431 -0.1655386
-0.2129305 0.44378513 -1.5691851 -1.8800504 -1.044075 -0.07494121 0.45483115 -0.009082052
0.032368906 -0.4688112 0.4364357 -0.06558286 -0.0038067512 0.2781691 0.20934911 0.19318737
-0.1776183 0.073191024 -0.032871366 0.26770312 0.4365078 -0.42981526 0.030915337 -0.13463166
-0.043635838 0.394465 -0.09569369 -0.3755381 0.03400458 -1.2989806 -0.62656754 0.107862644
-0.6027514 -0.73298424 -1.4411699 -1.5182652 -0.33030975 0.2349149 -0.032156035 -0.024364254
-0.5027714 -0.5007429 0.29834208 -0.113366045 -0.15762275 0.1478204 0.3890483 0.11280871
-0.6336333 -1.0770123 0.22521181 -0.14062104 0.3248948 -1.3590622 -1.1158844 -0.5554803
-0.23901191 0.30409193 -0.54784775 -0.2906515 -0.10683086 -0.0017674621 0.11909263 0.20820872
0.034422036 -0.70701665 -0.23431277 0.20501323 -0.05282113 0.1012629 -0.49914736 0.1669386
-0.12573159 -0.18806735 -0.5128591 -0.20486669 -0.042674813 -0.3342814 -0.287665 -0.22415559
-0.26423076 -0.12688684 -0.26492214 -0.4266698 -0.61168694 0.0070540854 -0.43011114 -0.34461457
-0.05307969 -0.010874309 0.03611935 0.0078508835 -0.16128674 -0.023774419 0.31320778 -0.057576243
0.010113357 0.021122782 -0.08363307 0.3642147 0.30049738 -0.025233079 -0.17036757 -0.3294561
-0.42535815 0.20870784 0.58059436 -0.3090854 -0.45355672 -0.2240073 -0.023099538 -0.5084023
-0.46903205 -1.084118 -1.038985 -0.7298916 -1.6025411 -0.57617295 -0.99878514 -0.9434684
-0.28505188 -0.5751041 -0.36759898 -0.3465998 -0.55479664 0.06975889 -0.09652317 -0.6877769
0.10064114 0.1279233 0.13961549 -0.96958 -0.7357309 -0.3591629 0.43243498 0.22708012
-0.1643953 0.025450421 -0.035188187 -0.008920875 0.098110124 -0.07767099 -0.059776377 -0.09723751
-0.07121662 0.00074741204 0.06473993 0.11312042 0.0696571 -0.03544681 -0.11158107 0.13157012
0.21101585 0.057079572 0.028045543 -0.20765997 0.01948281 0.068319574 0.023873068 -0.019283516
-0.11935177 -0.5831281 -0.043104295 -0.02046925 -0.014320977 0.16943364 -0.098477274 -0.03604263
0.23362975 -0.04359195 -0.010445001 -0.052201346 -0.36244977 0.002683931 0.27181402 0.13492434
0.20504372 0.008530143 0.16944762 -0.04185397 0.099767 -0.43237203 -0.7310145 -0.16893509
-0.08240734 0.24520308 -0.4644926 0.003910786 -0.10340749 -0.085402764 -0.09571341 0.24413727

features.10.bias f4 [32]
00000000: 7725 ffbb 4f6f cbbc a9dc fbbd 38b9 3fbd
00000010: 1c96 abbd 23ee 55bd f681 10be 80d2 f7bd
00000020: 0580 533d d64f adbe 8140 1dbf 8e2f 36be
00000030: af9a 923e 17b8 5dbf 295b 22be b1e0 22be
00000040: 88c6 67bc 3548 c13d 0b5b 56be 048b 09bf
00000050: 80e8 26be bb55 8bbd ac01 0dbe e4b4 06be
00000060: 4d70 2fbe 8457 8dbc c351 133d fa47 383e
00000070: f02d d8bd 27e8 a8bc 087e 69bd fc65 94bd
-0.0077864486 -0.02483335 -0.12297947 -0.046807498 -0.083782405 -0.052229058 -0.14112076 -0.121006966
0.05163576 -0.33849972 -0.6142655 -0.17791578 0.2863364 -0.86609024 -0.15855087 -0.15906025
-0.014146455 0.094376005 -0.20933168 -0.53727746 -0.16299629 -0.06803461 -0.13770169 -0.13154942
-0.17132683 -0.017253645 0.035966646 0.17996207 -0.10555637 -0.020618511 -0.05700496 -0.072460145

features.12.weight f4 [32, 32, 5, 5]
00000000: 835a fc3d 4063 2c3d 4625 2ebc 2448 87be
00000010: e174 58be fd03 84be fd47 d63c 2bf3 aebd
00000020: 8ed8 843d 4b8d 5c3e 149b b73d fef0 a43c
00000030: dd98 2b3e 4644 4d3c 9830 103f 9823 b5be
00000040: 1bcc e7bc f37e 91bd ff93 c93e fa65 c93d
00000050: ddba d4be 18da 38be a30b 273e 28c6 193e
00000060: 06d6 be3d 3515 05be 180d 5d3f 25f0 2e3e
00000070: e9cd ad3e 7ef9 da3e 8971 5c3f a8b9 293f
00000080: 90ed 143e b4bc 57bd 8476 f23d 00d0 c93e
00000090: 46dc d73d 22dd c1be 2e9e ad3d 8604 4bbc
000000a0: 20e7 c63d 29e2 43be ed08 d4bd 8241 4d3e
000000b0: a661 163d ee48 9cbe 4e32 39bb 349b efbe
000000c0: f8ae 9c3e 3888 2f3e 759f 52bd d5ad 9a3e
000000d0: e6da 4abe bf30 cfbd 24e5 f0bd dc6e 363e
000000e0: 05c6 103e 7106 dd3e eeb4 493e 61e8 1ebd
000000f0: 3e12 c5be f35b 20bd 6069 cb3d 8835 383e
00000100: fd25 6e3e a16d 063e f2b2 cc3b 022d c9bd
00000110: e225 933e 5338 433e 8645 4bbd a34b 473e
00000120: fe59 23be 6ab3 273e fcbb de3e ca18 ccbe
00000130: f193 07bf bf88 3ebb 5189 5b3c 364b 8cbe
00000140: 9f5e 73be fe0f 69be bc27 c7bd f7ee 6ebe
00000150: f418 82be 51d2 45be 59d1 c7bd 5f08 96bd
00000160: bf65 2c3d fe42 b33d 3da9 99bf a0d3 9fbf
00000170: afb9 57be eae3 373e 1426 c63d f676 5abf
00000180: fe58 d1be 7f60 20bf 4810 eabd 46ec 533d
00000190: 72f3 613e 24d4 2dbe fb7f cdbc f56c 783d
000001a0: f59c 553e d7c8 d3bd 497c c9bd 175e 7cbc
000001b0: 1b05 34bd 332c c63d fc18 65bd cd6c 003e
000001c0: 23a1 84bd 9cf3 c03c 8445 013e f482 ff3d
000001d0: 2c71 5a3d db6a 123e 452c b2be db9e aa3e
000001e0: 1fa8 fdbe 203c a1be cbb5 9e3e e38b bebd
000001f0: ade4 b43c 9e63 82be f3b1 a43e 8734 8e3e
00000200: d1e9 303e e370 703e 65bb 8d3e 8ab0 50be
00000210: 588d b93e 2205 44bd fc3f 91be ce82 213e
00000220: f323 b83d 21cf c13e 8df1 443e d164 79bd
00000230: f74d 08bd 7eda 83bd 1c23 713d 04d3 bb3d
00000240: 34ce b8bd 31a9 2e3e e40a 2e3e 7719 243d
00000250: a1b9 0d3f 7532 0fbc 0fac 3bbd 5d6f 91bd
00000260: e335 123d 5ffd 84be 5ce1 20be c840 86be
00000270: c400 a0be a69b 8fbe 9c2a 00bf 7df5 183d
00000280: 34f7 5d3e 9637 aa3d 3695 ddbc 71f8 483d
00000290: 56d7 2cbd f8c4 efbe ce0f 9ebe 1840 e23d
000002a0: 4cd9 f33d 14d4 8ebd 3932 a9be 6d08 91be
000002b0: 36da faba a355 803d e2dd 733e f1b4 e8be
000002c0: b22a 2ebc d989 293e 3efa a43e dddb c43e
000002d0: 3b74 0fbf 5831 4fbe 290e 713d 23d3 823e
000002e0: 41cc 893e 6006 56bf bcc6 11bf b78c 79be
000002f0: 83b5 6e3e ee8e 883e a355 dfbe 9564 8abe
00000300: 7a75 363e 4593 963e f2f0 ba3d 709e a8bc
00000310: 1c77 47bd 6086 dabe 1626 13be 16c5 7fbe
00000320: 13c3 c23d 035f e5be 0b46 0fbf 3709 1bbf
00000330: 6501 aabd f3dc 603e 9788 16bf edf5 79bf
00000340: cd9e 3abf e93a 90be 7130 8b3e 4ed9 7a3e
00000350: 1fc3 8d3b 141a 80be 4bd3 6fbd 6699 02bd
00000360: 4580 ab3e 2200 a13e 6698 4c3e ef1c 953d
00000370: eb54 f4be 3049 26be c628 a6bd 0bc1 a33d
00000380: a6f2 573e 7300 d5be 258b 2f3d f36d 7a3d
00000390: 7ae7 a8be dd59 d3be 3f45 b13d e8d0 1fbe
000003a0: 4d85 f73d dca2 92bd 8a9b 523e 7204 fe3e
000003b0: 3a93 ac3e 2992 563d 7199 9dbe 604a 1f3e
000003c0: bd32 3d3e e4d1 8abe 60a0 853c 1acf b03c
000003d0: db46 99be 3b8d 1dbf 083a 0dbf 830d 84bd
000003e0: df52 ea3d 687b 733e a0e3 aa3c 9c69 673e
000003f0: b69d 18be 0f4f 26be 3e4c 233e 14c5 e03e
0.12321951 0.04208684 -0.010629004 -0.26422226 -0.21138336 -0.25784293 0.026157374 -0.08542474
0.06486617 0.21538274 0.08965126 0.020134445 0.16757531 0.012528485 0.5632415 -0.35378718
-0.028295567 -0.07104292 0.39370725 0.098339036 -0.41548815 -0.18051946 0.16313033 0.15016997
0.093181655 -0.12996371 0.86348104 0.17083795 0.3394616 0.42768472 0.8611074 0.66298914
0.14543748 -0.052670196 0.11839011 0.39416504 0.10540061 -0.37864023 0.08477436 -0.012391215
0.09712052 -0.19129242 -0.10353265 0.2004452 0.03671422 -0.3052439 -0.0028258744 -0.46798098
0.3060224 0.17141807 -0.0514216 0.30210748 -0.19810066 -0.101167195 -0.11762455 0.17815727
0.14138038 0.43168977 0.19697925 -0.038795833 -0.3849048 -0.03915019 0.09932208 0.1798917
0.23256679 0.13127758 0.006246918 -0.09823038 0.2873984 0.19064455 -0.04962685 0.19462447
-0.15952298 0.16377035 0.43502796 -0.39862663 -0.52960116 -0.0029073206 0.013399438 -0.2740113
-0.23766564 -0.22760007 -0.097243756 -0.23333345 -0.25409663 -0.1931851 -0.09756727 -0.073258154
0.04208922 0.08753012 -1.2004772 -1.2486458 -0.21066926 0.17958036 0.096752316 -0.8533777
-0.40888208 -0.6264724 -0.11428887 0.051739 0.22065523 -0.16975456 -0.02508544 0.060650785
0.20860656 -0.103410415 -0.09838159 -0.015403292 -0.04395018 0.09676399 -0.05593203 0.12541504
-0.06476047 0.023553662 0.12624174 0.12476149 0.053330585 0.14298575 -0.347994 0.33324322
-0.4954233 -0.31491184 0.30998072 -0.09304025 0.022081697 -0.25466627 0.32167014 0.2777445
0.17276694 0.23480563 0.27682033 -0.20379844 0.3624065 -0.047856458 -0.2836913 0.15772554
0.08991232 0.3785334 0.1923277 -0.06088716 -0.033277478 -0.064381585 0.058871374 0.091711074
-0.09023705 0.17056729 0.16996342 0.040063348 0.5536137 -0.008740057 -0.045818385 -0.07101319
0.03569592 -0.25974557 -0.15710968 -0.262213 -0.31250584 -0.28048438 -0.50065017 0.03734349
0.21676332 0.083113834 -0.027048688 0.049065057 -0.042197548 -0.46829963 -0.30871433 0.11047381
0.119066805 -0.069740444 -0.3304613 -0.2832674 -0.0019138518 0.06266334 0.2381511 -0.45450547
-0.010630297 0.16556491 0.3222217 0.38448992 -0.5603673 -0.20233667 0.058851395 0.2555171
0.26913646 -0.8360348 -0.5694387 -0.24370085 0.23311429 0.26671547 -0.43620023 -0.27029863
0.17818251 0.29409233 0.09127988 -0.020583361 -0.048697576 -0.42680645 -0.14369997 -0.24977526
0.09509864 -0.4479905 -0.5596625 -0.60560936 -0.08301047 0.21959285 -0.5880217 -0.9764088
-0.7289856 -0.28169945 0.27185395 0.24496958 0.0043262388 -0.25019896 -0.058551114 -0.031884573
0.334963 0.31445414 0.1998001 0.07280909 -0.47721037 -0.16238856 -0.08113246 0.079958044
0.21088657 -0.41601905 0.042857308 0.061140012 -0.32989103 -0.41279498 0.08655786 -0.15607035
0.12085972 -0.07159969 0.20567146 0.49612767 0.33706075 0.052385483 -0.3078113 0.15555716
0.18476386 -0.2711326 0.016311824 0.021583129 -0.2993687 -0.61543626 -0.55166674 -0.0644789
0.11441588 0.23777544 0.020860493 0.2259888 -0.14903912 -0.16241096 0.15947053 0.4390036

features.12.bias f4 [32]
00000000: 8010 46be 8483 d93e 63a4 e03e 8e71 15bc
00000010: 81c1 c03a 7581 f5bd 5ab1 9bbe af68 163f
00000020: 3a8b 8f3d bfa4 013f 656b 04be e846 a43d
00000030: 8908 cdbd 8331 e03d 4b59 153e 13d8 51bf
00000040: 6888 e63e fcbe 7b3e ba42 15be 853b 2a3f
00000050: cfb7 20be 077f eb3d 12e6 9c3e d648 fcbe
00000060: fc48 483e 08c2 b9be 8eee 09be 6dec fdbe
00000070: 01f1 453d a2fb 5abe 1c28 943e f3d5 843e
-0.19342232 0.4248315 0.43875417 -0.009121312 0.0014706106 -0.119875826 -0.30408746 0.58753484
0.07008977 0.5064201 -0.12931593 0.08021337 -0.100113936 0.109469436 0.14584844 -0.8197033
0.45025945 0.24584574 -0.14576235 0.6649707 -0.15695117 0.11498838 0.3064428 -0.4927432
0.19559091 -0.36280847 -0.13469908 -0.4959444 0.048325542 -0.21385053 0.2893685 0.2594448

features.15.weight f4 [16, 32, 3, 3]
00000000: 7dd9 b7be f1da ba3d 9d77 4bbd f8a8 d73d
00000010: 451b 7d3d f34f f6bd 1178 acbd 8279 e9bd
00000020: 11db 683e a9cb 51bd 31a4 39bc f318 233d
00000030: e318 f43d 5e5b 30bd 20e4 66bd db99 87b8
00000040: 4ac6 89bd 7f6c 373d 1fae e7be 81e9 2a3e
00000050: 9d4f a0bd e05b fc3d 0857 be3d 93cc a4bd
00000060: 1cbc 4bbd e339 1ebe 630d a73e ccdd 04bf
00000070: 0656 bf3c b9b1 cbbd 0d92 bfbb 4511 293e
00000080: e4f1 e1bd 178f 00bd 4fda a9bc ac22 b23e
00000090: ec6c ca3e 0966 3fbe 7cea af3d c98a a8bd
000000a0: 6c26 b0bd b497 aa3d 92b8 db3d cea1 053e
000000b0: ba31 11be 2757 f3be 3a73 233e 8333 70bd
000000c0: ac14 e83d 0eef 373d c291 4fbe 0974 cabd
000000d0: 58c0 c7bd 5d49 a83e 1f78 0abf e545 543e
000000e0: 632b cdba 5eff 1e3e 8731 fdbb 46d9 08be
000000f0: eb4a 90bd 3db1 aabd c746 b23e 3f6e 5e3e
00000100: 2fa1 61bb bda6 b7bc ca9b e73c eef4 7b3d
00000110: 5199 50bd 4320 47bd dc2c 373d 1c13 2ebe
00000120: dbe5 f6be 96d0 ff3d e661 88bd 28e2 0d3e
00000130: c026 313d 2e46 0abe c8ed 67bc 7940 23be
00000140: 8b2d 893e 0110 7dbe 28ab 313e ae54 123d
00000150: 1aa8 2bbd 5b58 26be 816f 8cbe 8aa4 ae3a
00000160: 11cb a6bd c78a b63e 417d 91be a653 b43d
00000170: 890f ae3c 077c f13c 69a6 14bb 3d50 12be
00000180: 9b57 0fbd df01 e9bd 7083 663e 04b0 7b3e
00000190: d4ef d2bd 51f7 5e3d 77d2 88bd 4a51 eebb
000001a0: 447a a63d 5ce6 4e3c 2336 283e e377 7bbe
000001b0: 74f1 d0be 9a35 ee3d 4790 d4bc 08a7 293e
000001c0: 8a71 643c 3279 03be 44a2 e1bd ee23 1fbe
000001d0: 8654 983e 023d 003f 7c5b 57be ede4 023e
000001e0: 2c98 2fbe 3060 833c 8d21 cc3d eefc 3f3d
000001f0: 2a58 d23d 4ed6 c2be 5dd8 18bf 16f8 263e
00000200: 3d15 c83b 277e 133e 1eee a63a fecc 73be
00000210: efb9 edbd 8739 96bd 6641 df3e 1a71 a0be
00000220: 173b 4e3e 7d02 9fbd 04e0 cd3d 32bd 153d
00000230: c3ac b7bd 2c80 85bc 03fe 87bd f284 743e
00000240: 123d f6be 0977 f03d 1e6a 04be 8bf3 353e
00000250: 6b70 18bb 30de ddbd 4a30 a4bd 9ef8 22be
00000260: a151 ad3e eb23 ab3e e355 22be 25a1 553d
00000270: 6e27 b3bd 8ff3 17bd b3c6 bd3d f983 a13c
00000280: 30c7 dd3d 20b6 8bbe 3cbf d43e f151 36be
00000290: b56d 183c aa8c 03be 130e 733c 7002 d43d
000002a0: 04d2 093e bb9a ae3d 11e3 91be d283 60bf
000002b0: 4d3c 7a3e 0f87 4abe 3c7b 563e 0a48 673e
000002c0: 65a0 80be 883c 97be 88e0 98bd 845c 8f3e
000002d0: f290 b0be 9a43 023e dc59 d1bc 9e6e 173e
000002e0: 392a 1f3d 80e8 3ebe 0e30 9dbd 030f 01be
000002f0: 23ba aa3e 585e 673e 1408 a3bd 6307 f23d
00000300: b576 143c a48f 12be 510b 993d 49ad a23d
00000310: 0f70 d63c b140 b9bd 0f70 c7be 9738 373e
00000320: c7d3 96bd 39cb 023e 0acf 433d eff9 e8bd
00000330: 108d a7bd fb21 fabd 8802 8b3e ae07 35bf
00000340: 0fe8 833e 9de8 eebd 2769 6e3e 222d e63d
00000350: 0e77 2fbe db99 b9bd 5baf 9bbe 1ce8 fd3e
00000360: d4cd ed3e 4d8e d9bd d136 da3b f9b9 34bd
00000370: 2b51 6f3d 0322 1e3e 08ee 293d 838a d53d
00000380: f577 a0be 6c6b 04bf 9006 f93d 94cc 78bd
00000390: 0a05 7a3d bb61 043d ee9c 14be 879b ccbd
000003a0: a1ed e73c c18e c83e e683 f33e a6bc 05be
000003b0: b646 c73d 99b9 f4bd afc0 65bd 9cc8 e03d
000003c0: 8531 d13d dd3c f33d 0c0d 99be d5d6 2ebf
000003d0: 0e6a 723e 3d51 d5bd 4a7f 473e 6dbd 0f3e
000003e0: 2c57 91be 0488 e6bd 3515 34be 002c f83e
000003f0: 7e82 09bf 0869 b93d 2b62 e9bd 5544 823e
-0.35908118 0.09123791 -0.04967462 0.10530275 0.061793584 -0.12026968 -0.08421338 -0.11400129
0.22739817 -0.051219616 -0.01133065 0.039818715 0.11918809 -0.043055885 -0.0563699 -6.4659594e-05
-0.06727274 0.044781204 -0.4525003 0.16690637 -0.07827685 0.12322211 0.09293944 -0.08046832
-0.049739942 -0.1545177 0.326274 -0.51900935 0.023356449 -0.09946007 -0.005846268 0.16510494
-0.11032465 -0.03138646 -0.02073398 0.34792078 0.39536226 -0.18691267 0.08589646 -0.08229596
-0.086010784 0.08329716 0.10728563 0.13050005 -0.14179125 -0.4752743 0.15961924 -0.058642875
0.11332068 0.044905715 -0.20270446 -0.09885413 -0.097534835 0.32868472 -0.5408954 0.20729788
-0.0015653189 0.15527102 -0.0077268514 -0.13364133 -0.070455395 -0.08334587 0.34819624 0.21721743
-0.0034428348 -0.022418374 0.028272528 0.06151288 -0.050927464 -0.04861475 0.044720516 -0.16999477
-0.4822224 0.124909565 -0.06659298 0.13855803 0.043249846 -0.13503334 -0.014155813 -0.15942563
0.2679256 -0.24713136 0.17350447 0.035725288 -0.04190836 -0.16244642 -0.2742882 0.0013324183
-0.081442006 0.35652754 -0.28415874 0.08805017 0.021247642 0.029478086 -0.0022682196 -0.14288421
-0.034995656 -0.1137731 0.22511077 0.24578863 -0.1029965 0.054435078 -0.06680768 -0.007272874
0.08128789 0.012628164 0.16426902 -0.24557452 -0.40809214 0.116313174 -0.025947703 0.16567624
0.013943085 -0.12839201 -0.11017278 -0.1554105 0.29751986 0.5009309 -0.21030992 0.12782641
-0.17147893 0.016037077 0.09967337 0.046872072 0.10270722 -0.38054127 -0.59705144 0.16305575
0.0061060474 0.14403592 0.0012735759 -0.23808667 -0.1160773 -0.07335191 0.43604583 -0.3133629
0.20139728 -0.077641465 0.10052493 0.036557384 -0.089684986 -0.016296469 -0.06640246 0.2387884
-0.48093468 0.11741454 -0.12931105 0.17768686 -0.0023260366 -0.108333945 -0.08017023 -0.15915152
0.3385134 0.3342584 -0.15853076 0.052155633 -0.08747755 -0.03709751 0.092664145 0.01971625
0.108290076 -0.27287388 0.4155215 -0.17804696 0.0093035 -0.12846628 0.0148348985 0.103520274
0.13459021 0.08525606 -0.2849355 -0.8770114 0.24437065 -0.19778083 0.20945448 0.22586074
-0.2512237 -0.2953837 -0.07464701 0.2800027 -0.34485584 0.127211 -0.025555544 0.14788291
0.038858626 -0.18643379 -0.07675181 -0.12603383 0.33345136 0.22594583 -0.07960525 0.11817815
0.009061505 -0.14312607 0.074728616 0.07943208 0.02617648 -0.09045542 -0.3895268 0.17892681
-0.07364612 0.12772836 0.04780487 -0.11375796 -0.081812024 -0.122135125 0.2715037 -0.70714843
0.25762984 -0.11665461 0.232823 0.11239077 -0.1713526 -0.09062549 -0.30407223 0.49591148
0.46446097 -0.10622845 0.0066593667 -0.04412267 0.058427017 0.15442662 0.04148677 0.1042681
-0.3134152 -0.5172641 0.12159455 -0.060741976 0.061039962 0.032319766 -0.14512989 -0.09990602
0.028311552 0.39171413 0.47561568 -0.13060245 0.09730284 -0.119494624 -0.05609196 0.10975763
0.10214523 0.11876843 -0.29892766 -0.6829656 0.23673269 -0.104158856 0.1948215 0.14037104
-0.2838682 -0.11256412 -0.17586215 0.4847107 -0.5371474 0.09053236 -0.11395677 0.25442758

features.15.bias f4 [16]
00000000: b80f d33e 910b bc3d 1dbd 1b3f 966f 4b3f
00000010: 7331 d43e 1fd1 b73d bfd1 0cbf 06fd 80be
00000020: bffb 2abc 4377 3a3f cbb8 d4bd b552 1bbf
00000030: 6c12 0d3e 9ffd d93e 99ca b43d c16f 4f3f
0.4122293 0.091818936 0.6083544 0.7946714 0.41443977 0.089754336 -0.5500755 -0.25193042
-0.0104359975 0.7283823 -0.10386809 -0.60673076 0.13776559 0.4257631 0.08827705 0.810299
