output/models/220502_0733_ggcnn2_epoch_80/epoch_05_iou_0.86_statedict.pt (torch, 274205 bytes, 20 tensors)

features.0.weight f4 [16, 1, 11, 11]
0	0x3c84bf5d	0.01620453
1	0xbce3db4f	-0.027814535
2	0x3a6a5ea6	0.00089404953
3	0xbcfd56b1	-0.030925127
4	0x3d59c72d	0.053168464
5	0xbc6a370c	-0.014295351
6	0xbd2bd573	-0.041951608
7	0xbd0533ec	-0.03252022
8	0x3d343304	0.043993965
9	0xbcaeb3e8	-0.02132602
10	0x3d4307ce	0.047614865
11	0x3d497206	0.049181007
12	0x3d7de9c6	0.06199052
13	0xbcb9df52	-0.022689495
14	0xbd2d99d1	-0.04238302
15	0xbc70a574	-0.014687885
16	0x3d447161	0.04795969
17	0xbd1e0e5c	-0.038587913
18	0xbd054a32	-0.03254146
19	0x3c06a05a	0.008216942
20	0xbd420497	-0.04736766
21	0x3c7968ae	0.0152227115
22	0xbc0d97cf	-0.008642151
23	0x3d30fe69	0.043211374
24	0xbc3ee4d6	-0.011651238
25	0x3c44c5b3	0.012010026
26	0xbd0945df	-0.0335139
27	0xbd1e91c3	-0.038713228
28	0xbd196632	-0.037450977
29	0xbcd0389a	-0.025417615
30	0x3cbb31e2	0.022850934
31	0xbc87508f	-0.016517906
32	0x3d3b7544	0.04576613
33	0x3a8c5d0f	0.0010708886
34	0x3c55134f	0.013005092
35	0xbca2dd67	-0.019880963
36	0x3d30e929	0.04319111
37	0x3c2c9415	0.010533352
38	0xbc5f1972	-0.0136169065
39	0xbcff3c26	-0.03115661
40	0x3d2fc778	0.042914838
41	0x3d10c592	0.035344668
42	0xbc83b97a	-0.016079653
43	0xbcadce74	-0.021216609
44	0xbc8051e2	-0.015664045
45	0x3c8c10b3	0.017097807
46	0xbc92066d	-0.01782533
47	0x3d68dc8f	0.056850966
48	0x3d818dc0	0.06325865
49	0x3d82f01e	0.06393455
50	0x3d161645	0.03664233
51	0xbd07db9f	-0.03316843
52	0x3ccecc8e	0.025244024
53	0x3d278c7f	0.040905472
54	0xbd0f7edf	-0.035033103
55	0x3d85e4fc	0.06537816
56	0xbcc47d75	-0.023985604
57	0x3d537126	0.05162158
58	0x3d210e87	0.039320495
59	0x3bebb39b	0.0071930415
60	0x3ca1f4c5	0.019770036
61	0x3d7ead23	0.062176835
62	0xbcea37b8	-0.028591022
63	0xbcc0c5b7	-0.023531778
64	0x3d68ba77	0.05681845
65	0xbb6273f5	-0.003455398
66	0x3bae16e3	0.005312787
67	0x3d4eb9ef	0.05047029
68	0x3d4f70b1	0.05064458
69	0x3b2312b1	0.0024882967
70	0x3d23ed4d	0.04002123
71	0x3d160b64	0.036631957
72	0x3cf3d5a0	0.02976495
73	0x3cc01ad3	0.02345029
74	0x3cd7f569	0.026362138
75	0x3c8c1fd0	0.017105013
76	0xbcfb732a	-0.030694563
77	0x3d4ad616	0.049520575
78	0x3d0e212b	0.0346996
79	0x3ce35809	0.02775194
80	0xbd30fb35	-0.04320832
81	0x3c9291fd	0.017891878
82	0xbd02bb9a	-0.031917192
83	0xbc08795b	-0.008329715
84	0x3c631db8	0.013862066
85	0xbc9fd31f	-0.01950985
86	0x3d111c87	0.035427596
87	0x3c0752c5	0.00825948
88	0xbc1ffa7c	-0.00976431
89	0x3cdb87d2	0.026798163
90	0x3cd4272a	0.025897581
91	0x3d0861cd	0.033296395
92	0x3b1e6004	0.0024166116
93	0x3b81e3be	0.0039639166
94	0xbd2618dc	-0.04055105
95	0xbcaef32e	-0.021356191
96	0xbd2d5b37	-0.042323317
97	0xbd40c02e	-0.047058277
98	0xbcbad654	-0.022807278
99	0x3b196492	0.0023405892
100	0x3ca021be	0.01954734
101	0x3ce4c031	0.027923675
102	0x3d6e027e	0.058107845
103	0x3d30859a	0.043096162
104	0xbd1c9af2	-0.038233705
105	0xbca3a11c	-0.019974284
106	0xbd0cf945	-0.03441741
107	0xbccf8930	-0.02533397
108	0x3c17faa4	0.009276066
109	0xbcd6bdbc	-0.02621352
110	0xbc11a921	-0.008890421
111	0x3d011a6a	0.03151933
112	0xbd4c93f6	-0.049945794
113	0xbd3e508f	-0.046463545
114	0xbca265cc	-0.019823931
115	0x3cdf96b9	0.02729355
116	0xbce883e8	-0.02838321
117	0xbc6b8d2c	-0.01437692
118	0x3bfe70a3	0.007764892
119	0x3c97339a	0.018457223
120	0x3d35e2a5	0.0444056
121	0xbb1cd0fb	-0.0023928273
122	0xbc7fd277	-0.015614144
123	0xbc9524aa	-0.01820596
124	0x3d2044e7	0.03912821
125	0xbc94b87f	-0.01815438
126	0xbd3c1192	-0.045915194
127	0x3b9e61c9	0.0048334342
128	0x3c391152	0.011295633
129	0xbd640e2a	-0.05567757
130	0xbd5a44a5	-0.05328812
131	0xbd3b4c5b	-0.045727115
132	0xbc0ac674	-0.0084701665
133	0xbb63ce4e	-0.0034760418
134	0x3b758513	0.0037463352
135	0xbd187a04	-0.03722574
136	0x3d1dbbf4	0.038509324
137	0xbd1b2dcf	-0.037885483
138	0xbd1a2e9a	-0.0376421
139	0x3c1fbcad	0.009749574
140	0x3d0824d1	0.033238236
141	0x3c45e3ed	0.0120782675
142	0x3cde31b4	0.02712331
143	0x3d6e4392	0.05816991
144	0x3d189a5a	0.037256576
145	0x3d2519f5	0.040307958
146	0xbc6c1b2c	-0.014410775
147	0x3d1c1d40	0.038113832
148	0xbbd68422	-0.006546513
149	0xbd3e4d9a	-0.046460725
150	0x3c66391c	0.014051702
151	0x3d29cada	0.04145322
152	0x3c7a7295	0.015286108
153	0x3d07b3c1	0.03313041
154	0x3b8126a2	0.003941373
155	0x3d3ee348	0.04660347
156	0xbc0d0776	-0.008607736
157	0xbd176c44	-0.036968485
158	0x3d6213d1	0.05519468
159	0x3c0a04e9	0.008424022
160	0xbd2686ab	-0.040655773
161	0x3cedc0eb	0.029022655
162	0xbd74b7eb	-0.05974571
163	0x3d2dd357	0.042437878
164	0x3cccfaea	0.025021989
165	0x3d2072fb	0.039172154
166	0x3c888dbf	0.016669152
167	0xbca31aab	-0.019910177
168	0x3d70e034	0.058807567
169	0xbd25f1b1	-0.040513698
170	0xbd38c3bf	-0.045108553
171	0x3d347ed6	0.044066273
172	0xbd684718	-0.056708425
173	0x3bf55914	0.0074874256
174	0xbd855449	-0.06510217
175	0x3d045d57	0.03231558
176	0x3ce7fae9	0.028317885
177	0x3d84c8c5	0.06483606
178	0xbc858ea2	-0.016303364
179	0x3c757723	0.014982018
180	0xbd08971f	-0.033347245
181	0xbd0b29c6	-0.033975385
182	0xbd0e37b1	-0.03472108
183	0x3d18a513	0.037266802
184	0xbd6f0170	-0.05835098
185	0x3bac39cb	0.005255913
186	0xbd6f12c1	-0.058367494
187	0x3b4fbb2e	0.003169726
188	0x3d6b845b	0.05749927
189	0x3d7dc880	0.06195879
190	0x3d4636eb	0.048392218
191	0x3c0f5746	0.008748835
192	0xbc11f5fc	-0.008908745
193	0xbcc9140f	-0.024545697
194	0xbc0a2540	-0.008431733
195	0xbd09cfc4	-0.033645406
196	0xbd897b9d	-0.067130305
197	0xbd469fb8	-0.048492163
198	0x3d5beef7	0.05369469
199	0xbceb8b61	-0.028752984
200	0xbbbe9081	-0.005815566
201	0xbba7a262	-0.005115793
202	0x3bb7eb1a	0.005612743
203	0x3c7d6c38	0.015467696
204	0xbcc89381	-0.024484398
205	0xbd3e3d7f	-0.046445366
206	0x3cd1bf29	0.025603848
207	0x3ce1c3e2	0.027559225
208	0xbc21862b	-0.009858648
209	0xbabb7beb	-0.0014303898
210	0x3d90a39f	0.07062458
211	0x3ca8878d	0.020572448
212	0x3d1d1d5a	0.03835807
213	0xbd0bed10	-0.034161627
214	0x3cf16aa1	0.02946979
215	0x3d73166c	0.059347555
216	0xbd068e03	-0.032850277
217	0xbc7cd072	-0.015430557
218	0x3c885e10	0.016646415
219	0xbd3bb3e1	-0.045825843
220	0x3d1b4b47	0.037913587
221	0x3c9d5c4a	0.019209046
222	0x3ce683ae	0.028138962
223	0x3d248321	0.040164117
224	0xba5066e6	-0.00079499034
225	0x3ccd1649	0.02503504
226	0xbbaf448a	-0.0053487467
227	0x3d2d3d5f	0.042294856
228	0x3d1ea45d	0.038730968
229	0xbd03240d	-0.032016803
230	0xbd8aa0f5	-0.06768981
231	0xbd1f515f	-0.03889596
232	0x3c9ca4a0	0.019121468
233	0x3cdf1024	0.027229376
234	0xbd1fe024	-0.039032117
235	0x3c029124	0.0079691745
236	0xbab48cba	-0.001377485
237	0xbcf0ac4e	-0.029379036
238	0x3c1d5187	0.009601957
239	0xbd7f0d9b	-0.062268835
240	0x3b749c36	0.0037324554
241	0xbcba2a02	-0.022725109
242	0xbbf9e061	-0.007625625
243	0x3c84653f	0.01616156
244	0xbc904ef6	-0.017615777
245	0x3d2ef8a8	0.042717606
246	0x3d410e8b	0.04713301
247	0xbd20671a	-0.039160825
248	0xbcf0a599	-0.029375838
249	0xbd552f37	-0.05204698
250	0x3cffa5f7	0.031207068
251	0x3b80707f	0.0039196606
252	0x3ad6d6e5	0.0016390948
253	0x3caf37d0	0.021388918
254	0xbd32fd3e	-0.04369854
255	0x3d078595	0.033086378

features.0.bias f4 [16]
0	0xbdf8cc74	-0.12148371
1	0x3c531be0	0.012885064
2	0xbd9261bd	-0.07147548
3	0xbce5e015	-0.028060952
4	0xbdd38b8e	-0.10329352
5	0xbda3cead	-0.07998405
6	0xbe16ea5d	-0.1473784
7	0x3dd88e85	0.105740584
8	0xbddd5766	-0.108076856
9	0xbda28171	-0.07934845
10	0xbde39c02	-0.111137405
11	0x3c66b046	0.014080113
12	0xbd65f44c	-0.056141183
13	0xbdd37ead	-0.10326896
14	0x3d43c46f	0.047794756
15	0x3d80b73b	0.062849484

features.2.weight f4 [16, 16, 5, 5]
0	0x3cca0ccd	0.024664307
1	0xbca35625	-0.019938538
2	0xbd91d63d	-0.07120941
3	0x3d251c4c	0.04031019
4	0xbc8bc7cd	-0.017063046
5	0x3db5cbfe	0.08876799
6	0x3c41bbda	0.011824572
7	0x3d02fb8e	0.031978182
8	0xbb636762	-0.0034699072
9	0x3d3c92bd	0.046038378
10	0x3b32c19c	0.0027276045
11	0xbc6894cd	-0.014195633
12	0xbc2ba417	-0.010476134
13	0x3d7ab04c	0.061203286
14	0x3d044a7b	0.032297593
15	0xbd68d43d	-0.05684303
16	0x3bf3f40e	0.007444865
17	0x3d86cea4	0.06582382
18	0xbcd88a65	-0.02643318
19	0xbd3a0b0e	-0.0454207
20	0xbba6d5ec	-0.0050914194
21	0x3c145667	0.009053803
22	0x3c532716	0.012887737
23	0xba053ee5	-0.00050829194
24	0xbd5db0a2	-0.05412353
25	0xbd97c70f	-0.07411014
26	0x3d5a76c4	0.05333592
27	0xbd949898	-0.072556674
28	0x3cba1f2a	0.022719938
29	0x3a86f363	0.0010295924
30	0xbce8b695	-0.028407374
31	0x3cfcefd2	0.030876074
32	0x3d4d0a23	0.050058495
33	0xbdbdac63	-0.09261396
34	0x3d0d5605	0.034505863
35	0xbd689d5c	-0.056790695
36	0xbdacffae	-0.084472045
37	0xbd1c1c5d	-0.038112987
38	0x3d1b584f	0.037926015
39	0xbd1b702d	-0.037948776
40	0xbca0fa48	-0.019650593
41	0x3d1e3426	0.03862395
42	0x3bce9263	0.0063040718
43	0xbd037205	-0.03209116
44	0x3bac97d1	0.0052671214
45	0xbd6d1bb7	-0.05788776
46	0xbd6db53b	-0.058034163
47	0x3d741e2a	0.05959908
48	0x3d8772ae	0.0661367
49	0xbb6a5145	-0.0035754007
50	0xbd8b08b3	-0.067887686
51	0xbda13939	-0.078722425
52	0xbd965b75	-0.07341663
53	0xbd85a91d	-0.065263964
54	0xbcb01a9e	-0.021497067
55	0x3db285e4	0.08716944
56	0x3d885f5f	0.066588156
57	0x3d4064e5	0.04697122
58	0xbcfbf451	-0.030756148
59	0x3d9fe0b6	0.07806532
60	0x3d99311c	0.0748007
61	0x3d749acc	0.05971794
62	0x3d9a6fd6	0.07540862
63	0xbcbc20a8	-0.02296479
64	0x3c6cfe64	0.014464948
65	0xbd34de9f	-0.04415762
66	0x3cf9c371	0.030488702
67	0x3ca2f510	0.019892246
68	0xbd990dcb	-0.07473334
69	0x3db2bf29	0.08727867
70	0x3db9713c	0.09054801
71	0x3b576219	0.0032864867
72	0xbd6d8a94	-0.057993487
73	0xbc11c7cd	-0.008897734
74	0x3da9af0b	0.0828534
75	0xbc80fd5d	-0.015745813
76	0xbda54d57	-0.08071392
77	0x3d891350	0.06693137
78	0x3d165d70	0.036710203
79	0xbd366832	-0.044532962
80	0x3d8cd251	0.06876052
81	0xbccb0432	-0.024782274
82	0x3c906848	0.01762785
83	0xbcbed566	-0.023295116
84	0xbced8b85	-0.028997192
85	0x3d9d2a65	0.07674102
86	0x3d95afff	0.07308959
87	0x3d47c574	0.04877229
88	0xbbaf7396	-0.005354355
89	0x3caca4a2	0.021074597
90	0x3daecc63	0.085350774
91	0xbcd51576	-0.02601121
92	0x3d67c25b	0.056581836
93	0x3b94715c	0.004530115
94	0x3d97b921	0.074083574
95	0xbcf8d4c5	-0.030374894
96	0xbced61e0	-0.028977334
97	0xbd3fc002	-0.046813972
98	0xbbe6cc74	-0.0070434157
99	0xbc67b250	-0.014141634
100	0xbdabdaf6	-0.08391373
101	0xbd184ca3	-0.03718246
102	0xbcb89ebd	-0.02253663
103	0xbddb3fe3	-0.10705545
104	0x3c232e2f	0.0099597415
105	0xbd96397d	-0.07335184
106	0xbd60da3f	-0.054895636
107	0xbd9015a9	-0.07035381
108	0xbcdd35e0	-0.027003229
109	0xbd1aaa1f	-0.037759896
110	0xbdcd6e82	-0.10030843
111	0xbd713217	-0.05888566
112	0xbd5dcdd9	-0.05415139
113	0xbdae758d	-0.08518515
114	0x3ce1a4fb	0.02754449
115	0xbcfe9c2d	-0.03108033
116	0xbc2330c4	-0.009960357
117	0x3bcbd79b	0.0062207705
118	0x3d6b9b3b	0.057521086
119	0x3d7f4555	0.06232198
120	0xbd9bf746	-0.07615523
121	0xbc417801	-0.011808396
122	0xbbe4470b	-0.006966477
123	0xbdc02368	-0.09381753
124	0xbca773b0	-0.020440906
125	0x3d9ea0f3	0.077455424
126	0x3da35841	0.079758175
127	0xbc863394	-0.016382016
128	0xbd9f210a	-0.077699736
129	0xbd970fb3	-0.07376041
130	0xbd65a575	-0.056065995
131	0xbdb6c86c	-0.08924946
132	0xbd12a916	-0.035805784
133	0xbd8f82e9	-0.07007391
134	0xbb257b09	-0.0025250337
135	0x3cf52f0a	0.029929657
136	0xbd718c37	-0.05897161
137	0xbcb03225	-0.021508286
138	0xbd026ddb	-0.031843048
139	0x3d9ffa8e	0.078114614
140	0xbcb97c92	-0.022642408
141	0x3d69c376	0.05707117
142	0xbd8f6ffa	-0.0700378
143	0x3d91803e	0.071045384
144	0xbd1032d6	-0.03520473
145	0xbc8eed73	-0.017447209
146	0x3cfb44b9	0.030672418
147	0xbd6462b3	-0.05575819
148	0xbdb49f56	-0.088194534
149	0xbcad8c6e	-0.021185126
150	0xbd93239c	-0.07184526
151	0xbdb82d5d	-0.08993027
152	0x3cebf7be	0.028804656
153	0xbd8415b4	-0.06449452
154	0x3d8ebd97	0.06969755
155	0xbcfa4cce	-0.030554201
156	0xbd110851	-0.03540832
157	0x3d058da9	0.0326058
158	0xbcb3e830	-0.021961302
159	0x3dafe680	0.08588886
160	0x3d13ff4a	0.036132134
161	0xbbebd4cc	-0.007196998
162	0x3d608943	0.054818403
163	0xbd68cd11	-0.05683619
164	0xb916953f	-0.00014360713
165	0xbd750e23	-0.059827935
166	0xbe080637	-0.13283621
167	0xbd78ce86	-0.06074383
168	0x3c8d13d3	0.017221367
169	0x3be7eb21	0.00707759
170	0xbe2f10e7	-0.17096291
171	0xbdc24e24	-0.094875604
172	0xbdebb86c	-0.11509785
173	0xbd504f6c	-0.050856993
174	0xbdddc3ca	-0.108283594
175	0xbd93c2b7	-0.07214873
176	0xbd48aebe	-0.048994772
177	0xbc07ee63	-0.008296582
178	0xbd2363bf	-0.039890047
179	0x3d631243	0.055437338
180	0x3cbe1396	0.023202699
181	0x3c132362	0.008980604
182	0xbd247c4d	-0.040157605
183	0xbd74c786	-0.059760593
184	0x3db38b33	0.087667845
185	0xbd121dab	-0.035672825
186	0x3d44cd0a	0.048047103
187	0x3ccf3d6e	0.025297847
188	0x3d6b764b	0.05748586
189	0xbc8f6f9c	-0.017509274
190	0x3badaee5	0.00530039
191	0x3d3ac3ee	0.04559701
192	0xbd6cc018	-0.057800382
193	0xbd8a4da2	-0.067530885
194	0xbc18b9f1	-0.009321676
195	0xbd0e3a03	-0.034723293
196	0xbd931d00	-0.07183266
197	0xbdbe753f	-0.09299707
198	0x3d4e08b7	0.05030128
199	0x3ca58389	0.020204322
200	0x3e6b95fa	0.2300643
201	0x3da79804	0.081832916
202	0x3e11f2ee	0.14252827
203	0x3e173fef	0.14770482
204	0x3d7250bc	0.059159026
205	0x3e2c214b	0.16809575
206	0x3d52f6f3	0.05150504
207	0x3cc6dd7e	0.024275538
208	0x3d1f0803	0.038826
209	0x3d8d3286	0.06894402
210	0x3e50e5d5	0.20400174
211	0x3dd7f96e	0.10545622
212	0x3d9119b9	0.07084984
213	0x3dd97470	0.10617912
214	0x3b84c78d	0.0040521086
215	0x3e0e334c	0.13886756
216	0x3da2f668	0.079571545
217	0x3c81c026	0.015838694
218	0x3e026845	0.12735088
219	0x3dca539f	0.09879231
220	0x3e641ee2	0.22277406
221	0x3d4404dc	0.047856197
222	0x3d3ae29e	0.045626275
223	0x3db10231	0.08642996
224	0x3dcb19b4	0.09917012
225	0xbd09bc1f	-0.033626672
226	0x3d1bf881	0.03807879
227	0x3da0f32c	0.07858881
228	0xbd02574e	-0.03182154
229	0xbd32743c	-0.04356788
230	0x3d10bfc7	0.035339143
231	0x3d82a5ed	0.06379304
232	0x3d6b22bf	0.057406183
233	0xbda8472f	-0.08216702
234	0x3d3bc0f7	0.045838322
235	0xbda24320	-0.07922959
236	0x3d3134fd	0.043263424
237	0xbcbb4f2f	-0.022864906
238	0x3d67c371	0.05658287
239	0x3d8874c4	0.06662896
240	0xbd46370e	-0.048392348
241	0xbcd4eb46	-0.025991093
242	0xbd89327c	-0.06699082
243	0xbd1cbf3b	-0.03826831
244	0xbaa7007c	-0.0012741233
245	0xbc8fb0b7	-0.017540319
246	0x3d107995	0.0352722
247	0x3d9631eb	0.0733374
248	0x3c1331f5	0.008984079
249	0x3d9a0f06	0.07522397
250	0x3d30e19b	0.043183904
251	0xbd811ad0	-0.06303942
252	0xbdb946bc	-0.09046695
253	0x3d05f8d7	0.032708015
254	0x3d00aa88	0.03141263
255	0xbd816c6a	-0.063195065

features.2.bias f4 [16]
0	0xbd1554d0	-0.036457837
1	0x3c86c8cf	0.016453175
2	0xbafbcf0e	-0.0019211487
3	0xbd52a858	-0.051430076
4	0x3c0ced6f	0.00860153
5	0xbd043ae5	-0.03228273
6	0xbcdbce01	-0.026831629
7	0xbd7c3992	-0.06157834
8	0xbc468e6c	-0.012118917
9	0xbcd38df3	-0.025824523
10	0xbcd258d1	-0.025677117
11	0xbd0dc272	-0.034609266
12	0xbd9303fc	-0.07178494
13	0xbcdacf58	-0.026710197
14	0x3e0b13bf	0.13581751
15	0x3e0594e9	0.13045086

features.5.weight f4 [16, 16, 5, 5]
0	0x3d2da245	0.04239108
1	0xbdc88a35	-0.09791986
2	0xbd2e6087	-0.042572524
3	0x3c9213e1	0.017831745
4	0xbdb5cce1	-0.08876968
5	0x3c8e5f4d	0.017379427
6	0x3d012938	0.03153345
7	0xbda4c99f	-0.08046269
8	0x3d728952	0.05921299
9	0x3d47915f	0.04872262
10	0xbd2685c9	-0.04065493
11	0xbdc031b1	-0.09384478
12	0x3c8532fd	0.016259665
13	0xbda30a05	-0.079608954
14	0x3ceb53a7	0.028726412
15	0xbdc3927a	-0.095494226
16	0xbda66c2f	-0.08126103
17	0xbd732169	-0.059358034
18	0xbd7259cf	-0.05916768
19	0xbd8e397d	-0.06944559
20	0xbc82dea8	-0.015975311
21	0xbd9094b0	-0.0705961
22	0x3d56eb44	0.05247046
23	0xbd4b9ee7	-0.049712088
24	0xbda94047	-0.08264213
25	0x3c850100	0.016235828
26	0xbde344cf	-0.110971086
27	0x3d6afdb2	0.05737085
28	0xbd5f5bf3	-0.05453105
29	0xbc777daa	-0.015105644
30	0xbd8b9227	-0.06814986
31	0xbc08eba6	-0.008356964
32	0x3b812eb0	0.003942333
33	0x3cf72d35	0.030172924
34	0x3d85962c	0.06522784
35	0x3d438ff6	0.047744714
36	0x3d13b8ae	0.036064796
37	0x3c5c00e5	0.013427948
38	0x3d1d6aec	0.038432047
39	0xbd7df227	-0.061998513
40	0xbc2f3330	-0.010693356
41	0xbdbfd271	-0.093663104
42	0xbcdba7f7	-0.02681349
43	0x3c2669d9	0.010157072
44	0xbd8cab06	-0.06868558
45	0xbc0fc448	-0.008774824
46	0xbca582c2	-0.020203952
47	0x3b3435fe	0.0027498002
48	0xbd87758d	-0.06614218
49	0xbd64af1f	-0.05583107
50	0xbd5c7ea0	-0.053831697
51	0x3c9bb8cb	0.019009015
52	0xbd8b34d4	-0.067971855
53	0x3b903044	0.004400285
54	0xbcebff4b	-0.028808257
55	0x3c2debc9	0.010615298
56	0x3d527ae6	0.051386736
57	0x3d51897c	0.051156506
58	0xbc0daa78	-0.0086466
59	0x3d2d03e7	0.04224005
60	0xbd74057a	-0.059575535
61	0x3d8ecf53	0.06973138
62	0x3d8b63a7	0.068061166
63	0x3d905e8f	0.070492856
64	0x3bbda885	0.0057879114
65	0xbca166f7	-0.019702418
66	0xbd49759d	-0.04918443
67	0x3d28f720	0.0412513
68	0xbd5a40f0	-0.053284585
69	0xbd17e2c1	-0.037081484
70	0xbd26ef3a	-0.040755488
71	0x3d1a611f	0.03769028
72	0x3d3deb41	0.046366934
73	0xbd949eaa	-0.07256825
74	0xbd0dd7b5	-0.034629542
75	0x3d68f5ce	0.056875043
76	0x3d0f26f5	0.03494926
77	0x3d13f6c9	0.036124025
78	0xbc7f557e	-0.015584348
79	0x3d60414d	0.054749776
80	0x3d4f69e8	0.05063811
81	0xbd943985	-0.072375335
82	0xbc16e783	-0.00921047
83	0xbbf71e5c	-0.007541461
84	0x3c9c7dfa	0.019103039
85	0xbd93b07a	-0.072113946
86	0x3d927f14	0.071531445
87	0x3d5834a3	0.052784573
88	0xbda2eef1	-0.07955731
89	0xbd4d9539	-0.050191138
90	0x3cf7b4cd	0.03023758
91	0x3d9da37a	0.07697196
92	0x3b9cf78d	0.0047902525
93	0xbc075024	-0.008258853
94	0x3c840f0f	0.016120462
95	0xbc80e617	-0.015734715
96	0xbda46a52	-0.080280915
97	0x3cb09cd6	0.02155916
98	0xbcfa3992	-0.03054503
99	0xbbbbdcce	-0.005733109
100	0xbd99060a	-0.07471855
101	0x3d3103c4	0.04321648
102	0x3d824acb	0.06361922
103	0x3da4e2e0	0.080510855
104	0xbc82d73b	-0.01597177
105	0xbc86ed5e	-0.016470607
106	0xbda33ea9	-0.07970936
107	0xbd876eb6	-0.06612913
108	0xbcc6507a	-0.024208296
109	0x3c242772	0.01001917
110	0xbcda7be9	-0.026670413
111	0x3d8f9481	0.07010747
112	0xbc932548	-0.017962113
113	0x3d9ed1b2	0.0775484
114	0x3cf01e9a	0.029311467
115	0xbcfb841a	-0.03070264
116	0x3d980385	0.07422546
117	0x3d6e6c95	0.05820902
118	0xbbdb71cf	-0.0066969167
119	0xbcf81202	-0.030282024
120	0x3d9ad451	0.075600274
121	0xbcf3cfd9	-0.029762195
122	0xbc12d0a8	-0.00896088
123	0x3c02a145	0.00797302
124	0xbd9459bf	-0.0724368
125	0x3c65e025	0.014030491
126	0xbd4c42ff	-0.04986858
127	0x3d68e55c	0.05685936
128	0x3cc1838d	0.023622299
129	0x3d4b5415	0.049640734
130	0x3d851a0e	0.0649911
131	0xbda5334f	-0.08066427
132	0x3ce921b8	0.028458461
133	0xbdccbe2a	-0.099972084
134	0xbdbcd6ba	-0.09220643
135	0x3ce8264c	0.028338574
136	0xbdb1d4b5	-0.08683149
137	0xbdc08607	-0.09400564
138	0x3bdef8bb	0.0068045533
139	0x3cf2d234	0.029641248
140	0xbd838070	-0.06420982
141	0xbc0d2972	-0.008615838
142	0xbd0d078a	-0.034431018
143	0x3d1053b3	0.03523607
144	0xbb83cb08	-0.004022006
145	0xbd94e418	-0.07270068
146	0xbd8e6446	-0.069527194
147	0xbb968504	-0.0045934934
148	0x3d05741f	0.032581445
149	0x3c9ed2c9	0.01938762
150	0xbac57f1c	-0.0015067789
151	0x3ce38314	0.027772464
152	0x3bcdc5e4	0.006279694
153	0xbd9bf456	-0.07614963
154	0x3d6ef861	0.05834234
155	0x3d969168	0.07351953
156	0x3d16fcf6	0.036862336
157	0x3b657201	0.0035010579
158	0x3da258c2	0.079270855
159	0x3da38faa	0.07986386
160	0xbda632a0	-0.08115125
161	0x3d7b64e1	0.061375502
162	0x3d9657d3	0.0734097
163	0xbd41b149	-0.047288213
164	0x3ca4f1f1	0.020134898
165	0xbce1992f	-0.027538864
166	0xbd0e2bdc	-0.034709796
167	0xbd2148ee	-0.03937619
168	0x3c3d3540	0.01154834
169	0x3d901a2d	0.07036243
170	0xbcbf35d4	-0.023341097
171	0xbd82b912	-0.063829556
172	0x3d01a60e	0.031652503
173	0xbd6c7c2d	-0.05773561
174	0x3cd59864	0.026073642
175	0xbd9ae17d	-0.0756254
176	0x3d6d26d4	0.057898358
177	0xbdabce0f	-0.08388912
178	0x3d273ad9	0.040827606
179	0x3cd13b19	0.025540875
180	0x3c6f9eea	0.01462529
181	0xbca74e56	-0.020423096
182	0x3c2804e1	0.0102550695
183	0x3b783170	0.0037871264
184	0x3db45dfb	0.08806988
185	0xbd9b0e69	-0.07571108
186	0xbba6fde5	-0.0050961846
187	0x3d83930f	0.064245336
188	0xbd6e361b	-0.058157068
189	0xbd92d1b9	-0.07168908
190	0xbd9c5f39	-0.0763535
191	0xbd73bd78	-0.059506863
192	0xbe1f7145	-0.15570553
193	0xbd278b59	-0.040904377
194	0xbdd37c6a	-0.103264645
195	0x3d95028e	0.07275878
196	0xbd033800	-0.032035828
197	0xbd63a813	-0.05558021
198	0x3d942638	0.07233852
199	0xbc66077f	-0.014039873
200	0xbd1b43a4	-0.037906304
201	0xbd14cb8d	-0.036326934
202	0xbce29d94	-0.02766303
203	0x3c07847f	0.008271336
204	0xbd896f68	-0.06710702
205	0x3d731bfa	0.059352852
206	0x3ac02f24	0.0014662487
207	0xbc2a2afc	-0.010386225
208	0x3bd6c115	0.006553779
209	0xbd152355	-0.03641065
210	0x3c711f2a	0.014716903
211	0xbd9a4499	-0.07532615
212	0xbd2a7c9f	-0.041622754
213	0x3cf6f79a	0.030147363
214	0xbbc4f4a8	-0.0060106106
215	0xbd1a26fc	-0.037634835
216	0xbc561b7c	-0.013068076
217	0x3ceea8e5	0.02913327
218	0xbbe7cd04	-0.0070740003
219	0xbb66da8f	-0.0035225486
220	0x3c25ab63	0.010111663
221	0x3da19e16	0.078914806
222	0x3d274229	0.04083458
223	0x3d6035b7	0.054738726
224	0xbcaff033	-0.02147684
225	0x3d013125	0.03154101
226	0xbdaa25ca	-0.08307989
227	0xbd07c0b0	-0.033142745
228	0xbc002890	-0.007822171
229	0xbbf036e0	-0.0073307604
230	0xbc8705d5	-0.016482273
231	0x3cc9c539	0.024630176
232	0x3d33a5ec	0.043859407
233	0xbd9c0385	-0.07617859
234	0x3ccd8b93	0.025090968
235	0xbd836081	-0.06414891
236	0x3da1d062	0.07901074
237	0xbdaa0ecb	-0.08303603
238	0x3c7e25ec	0.015511971
239	0xbd3f509f	-0.046707746
240	0xbda908be	-0.082536206
241	0x3cf94414	0.03042797
242	0x3b6c8d08	0.0036094803
243	0x3c81f23a	0.015862573
244	0xbdb83e6a	-0.089962795
245	0x3c0b3597	0.0084966635
246	0xbdb66919	-0.089067645
247	0x3d4f697f	0.05063772
248	0x3b601c4e	0.0034196558
249	0x3c8c17f4	0.017101265
250	0x3ddedc3c	0.1088185
251	0x3d744fcc	0.059646413
252	0xbcae91dc	-0.021309786
253	0x3d2858e4	0.041100398
254	0xba957d52	-0.0011405146
255	0x3ca136c0	0.019679427

features.5.bias f4 [16]
0	0xbd73a92d	-0.05948751
1	0x3ca9668a	0.020678777
2	0xbcc0f4b2	-0.02355418
3	0x3c2fdf99	0.010734462
4	0x3c7e158d	0.015508068
5	0x3db20ec3	0.08694222
6	0x3d2f2e83	0.042768966
7	0xbd51e53c	-0.051244006
8	0xbd47f33e	-0.04881596
9	0x3d34e19c	0.04416047
10	0x3d76d4af	0.060261425
11	0xbd00bb7e	-0.031428806
12	0xbd9b818c	-0.075930685
13	0x3d016b50	0.03159648
14	0xbd9c98f1	-0.07646359
15	0x3cb381b2	0.02191243

features.7.weight f4 [16, 16, 5, 5]
0	0xbd1892e2	-0.037249453
1	0xbda265e3	-0.079295896
2	0xbd06e2fc	-0.032931313
3	0x3d142e30	0.03617686
4	0x3ccfd6a3	0.025370901
5	0x3d7ac143	0.061219465
6	0x3bb07411	0.00538493
7	0xbd38ca38	-0.045114726
8	0x3da9ba7d	0.08287523
9	0xbc2bd34e	-0.010487391
10	0x3d819b80	0.063284874
11	0x3db600ca	0.08886869
12	0x3cc8ce7e	0.024512526
13	0xbc25ceef	-0.010120138
14	0x3b8d5733	0.0043133735
15	0x3dc67951	0.09691108
16	0xbd9a6e90	-0.075406194
17	0x3d525749	0.051352773
18	0x3c27168d	0.010198248
19	0xbda47f33	-0.08032074
20	0x3d0e3ddd	0.034726966
21	0x3d979bd3	0.07402768
22	0x3d59d053	0.05317719
23	0x3cbbcc1b	0.022924474
24	0x3d4b8395	0.049686033
25	0x3c842587	0.016131176
26	0xbd59b56f	-0.053151544
27	0xbd5c5a90	-0.053797305
28	0xbd8f78dc	-0.07005474
29	0xbc9aec19	-0.018911408
30	0xbd2f6339	-0.042819235
31	0xbd241068	-0.04005471
32	0xbdb162a3	-0.086613916
33	0x3ce53463	0.027979081
34	0xbdd0c0d5	-0.1019303
35	0xbda99220	-0.08279824
36	0xbd26683d	-0.040626753
37	0xbd5a86c2	-0.05335117
38	0xbd339189	-0.043839965
39	0x3c804b21	0.015660824
40	0x3d4044aa	0.046940483
41	0x3d93229c	0.071843356
42	0x3c82e723	0.015979355
43	0x3dbbfa5a	0.0917861
44	0x3dba92ad	0.091100074
45	0xbdd0f3fb	-0.102027856
46	0xbe05d94e	-0.13071176
47	0xbe3c3bef	-0.18382238
48	0xbe38609f	-0.18005608
49	0xbd21a037	-0.039459433
50	0x3c848190	0.016175061
51	0x3d3fb10c	0.046799704
52	0x3d6c4a8e	0.05768829
53	0xbd9a5003	-0.07534792
54	0xbd2e67ea	-0.04257957
55	0xbd64386a	-0.055717863
56	0x3d529348	0.05140999
57	0xbda8b309	-0.08237273
58	0xbd85c6df	-0.06532072
59	0x3d77b483	0.060474884
60	0xbd7bd779	-0.061484788
61	0x3cff4ef3	0.031165576
62	0x3cda840c	0.026674293
63	0xbd5c4b74	-0.053782895
64	0xbd3763e2	-0.04477299
65	0x3cfadfca	0.030624289
66	0xbd5b6272	-0.05356068
67	0xbcb8e7ef	-0.022571532
68	0x3c93e983	0.018055683
69	0x3d2bea31	0.04197139
70	0x3d8137f4	0.063095
71	0xbd24d450	-0.04024154
72	0xbcd1b367	-0.025598241
73	0x3d0763c1	0.033054117
74	0x3d727512	0.05919368
75	0x3d105afb	0.035243016
76	0x3d8661b1	0.06561602
77	0xbe1c7dc8	-0.15282357
78	0xbd64827e	-0.05578851
79	0xbe31282a	-0.17300478
80	0xbc5f20f3	-0.013618696
81	0x3c04b0f4	0.00809883
82	0xbe07da82	-0.13266948
83	0xbccab8ec	-0.02474638
84	0xbe3cd05e	-0.18438861
85	0xbd9e45a5	-0.077281274
86	0xbcbb3948	-0.022854462
87	0xbdaa8a79	-0.08327193
88	0x3cd0a1e6	0.025467824
89	0xbd9cf056	-0.07663028
90	0xbd97f223	-0.07419231
91	0xbdbb03a1	-0.091315515
92	0xbe540e08	-0.20708477
93	0xbddc9185	-0.10769943
94	0x3c686b36	0.014185717
95	0xbd897fc5	-0.06713823
96	0xbd62066a	-0.0551819
97	0xbddbe5f1	-0.10737217
98	0xbb55a7dd	-0.0032601275
99	0x3c819cb9	0.015821801
100	0xbe192ebd	-0.14959235
101	0x3d67b236	0.05656644
102	0x3dfe0c34	0.12404671
103	0x3cd75135	0.02628384
104	0xbdd5af0a	-0.10433777
105	0xbdaac170	-0.083376765
106	0x3d9f66a9	0.07783253
107	0x3d88cdd0	0.066798806
108	0x3d3be9e2	0.045877345
109	0xbda5acf0	-0.08089626
110	0xbdb985ec	-0.09058747
111	0x3d5cc313	0.053896975
112	0x3e2dcaed	0.16971941
113	0x3c5825d8	0.013192616
114	0xbe341ed5	-0.17589886
115	0xbe3904b4	-0.180682
116	0x3d6caa2f	0.057779487
117	0x3dca40d2	0.09875645
118	0xbd39cbc1	-0.04536033
119	0xbd8e87aa	-0.069594696
120	0xbcada936	-0.02119885
121	0x3c07ca6a	0.008288005
122	0x3d4127db	0.04715715
123	0x3d3cd932	0.04610557
124	0xbda15eb8	-0.07879394
125	0xbe0e145d	-0.13874955
126	0xbe8b4287	-0.27199194
127	0xbe9b7ad2	-0.30367142
128	0xbe20b6c9	-0.15694727
129	0xbe3fcadb	-0.18729727
130	0xbe026ff4	-0.12738019
131	0xbdcf4105	-0.10119823
132	0xbe865dd7	-0.2624347
133	0xbdf819f2	-0.12114324
134	0xbd1e0629	-0.038580094
135	0x3d533940	0.05156827
136	0x3b9d9d35	0.0048100003
137	0xbd4d2747	-0.050086286
138	0xbddfbdd7	-0.10924881
139	0xbdcc4da5	-0.09975747
140	0xbb1eb99c	-0.0024219519
141	0xbcdbf69e	-0.026850995
142	0xbc5c2de5	-0.0134386765
143	0xbd607239	-0.05479643
144	0xbd50023d	-0.050783385
145	0x3de7ed12	0.113245144
146	0xbc66cb51	-0.01408656
147	0x3d6773e3	0.056507003
148	0x3e08ff2e	0.13378593
149	0x3dd00063	0.10156324
150	0x3bb6b69f	0.0055759693
151	0x3dba7223	0.09103801
152	0x3e084633	0.13308029
153	0x3e080363	0.13282542
154	0x3d29a6e6	0.041418932
155	0xbe062166	-0.13098678
156	0x3d6ec0a5	0.05828919
157	0xbb89fb5b	-0.004210872
158	0x3dda3b2b	0.10655817
159	0x3d5afd37	0.05346414
160	0xbcf0fad0	-0.029416472
161	0x3d4515d9	0.04811654
162	0x3b25be0a	0.0025290274
163	0x3cf2ab1f	0.029622613
164	0x3d9b239e	0.07575153
165	0xbd926bd3	-0.07149472
166	0xbd650317	-0.05591115
167	0x3d839dc7	0.06426578
168	0xbd115c9d	-0.035488714
169	0xbceead66	-0.029135417
170	0xbdb1c0c1	-0.08679343
171	0x3bafbcc7	0.00536308
172	0x3b1fd6f9	0.0024389608
173	0x3ce62760	0.028094947
174	0xbd8e0d87	-0.06936174
175	0x3d28be0a	0.04119686
176	0xbd04d055	-0.032425243
177	0x3c13c9d1	0.009020285
178	0xbc335960	-0.010946602
179	0xbdaac1ba	-0.08337732
180	0xbdc4d10b	-0.09610184
181	0xbc623196	-0.0138057675
182	0x3c54f872	0.012998687
183	0x3d4667d7	0.048438873
184	0xbc199a4e	-0.009375168
185	0x3b053cac	0.0020330353
186	0xbd3e5ce7	-0.046475317
187	0x3c373e73	0.011184323
188	0x3d38a7d7	0.04508194
189	0x3d869ca2	0.06572844
190	0x3d2a6c21	0.041607026
191	0x3d281f0e	0.04104524
192	0x3d25dcf2	0.040493913
193	0xbdc0a6c5	-0.09406809
194	0xbc609c5f	-0.013709157
195	0x3d9469b4	0.07246724
196	0x3d97de3f	0.07415437
197	0x3d6842f7	0.056704488
198	0xbd7e3706	-0.062064193
199	0xbd552ace	-0.052042775
200	0x3d407726	0.04698863
201	0xbb87065b	-0.0041206307
202	0x3ccf8536	0.025332075
203	0xbcdc1d37	-0.0268694
204	0xbccadd31	-0.024763675
205	0x3d994919	0.074846454
206	0x3d205472	0.039143033
207	0x3d87209e	0.06598018
208	0xbd1cbf14	-0.038268164
209	0xbd62dc18	-0.05538568
210	0xbd28265f	-0.04105222
211	0xbb332bb6	-0.0027339286
212	0x3d77d1d2	0.060502835
213	0xbda783ad	-0.08179412
214	0x3c35db62	0.011099668
215	0xbb62fd36	-0.0034635789
216	0xbd7c57c1	-0.061607126
217	0x3d4e4f02	0.050368316
218	0xbd57641d	-0.05258571
219	0x3c8cb47e	0.01717591
220	0xbd9fdf11	-0.078062184
221	0xbc7592cc	-0.014988612
222	0xbd2af50e	-0.04173761
223	0xbc68d556	-0.0142110195
224	0xbc21ab7a	-0.009867543
225	0xbd64bc4c	-0.055843636
226	0xbd0b3ff7	-0.03399655
227	0xbdcb33a2	-0.099219576
228	0xbcae059f	-0.021242915
229	0xbc0ab064	-0.008464906
230	0xbd3b1800	-0.045677185
231	0xbd047ce0	-0.032345653
232	0x3d812d4f	0.0630747
233	0xbd70e8a9	-0.058815632
234	0xbceaa12a	-0.028641302
235	0x3d5f06d5	0.054449875
236	0x3de3fb9c	0.11131975
237	0xbc291a28	-0.010321178
238	0xbce9aa04	-0.028523453
239	0xbcbb55ef	-0.022868125
240	0xbd825128	-0.063631356
241	0x3d91ffb1	0.071288474
242	0x3d4b4026	0.049621724
243	0x3ddd8bf9	0.10817713
244	0x3dc550a7	0.09634524
245	0x3dc554d4	0.0963532
246	0x3d68b2c4	0.05681111
247	0x3cd14191	0.02554396
248	0x3cc75a1f	0.024334965
249	0x3d873b8d	0.06603155
250	0xbe10a63e	-0.14125916
251	0x3c7562f5	0.0149772065
252	0xbd532b95	-0.051555235
253	0xbdacd21f	-0.08438515
254	0xbc2d0157	-0.0105594015
255	0xbd99e37b	-0.075140916

features.7.bias f4 [16]
0	0x3d28dde8	0.04122725
1	0xbd4e218d	-0.050324965
2	0xbc6ba60e	-0.014382852
3	0xbd0eb8db	-0.03484426
4	0x3b87867f	0.004135906
5	0x3d0e8f05	0.034804363
6	0x3d2d08da	0.04224477
7	0xbe059d29	-0.13048233
8	0x3bc1964e	0.0059078103
9	0x3d83d861	0.064377554
10	0xbc940183	-0.018067127
11	0x3d1daa22	0.03849233
12	0x3d6e526f	0.058184084
13	0x3d15cc68	0.03657189
14	0xbd245603	-0.04012109
15	0xbdc9d057	-0.09854191

features.10.weight f4 [32, 16, 5, 5]
0	0x3d59668d	0.053076316
1	0x3d85ed47	0.06539398
2	0x3d53c74d	0.05170374
3	0x3d83ac13	0.06429305
4	0x3dadea27	0.08491927
5	0x3b90acfe	0.0044151535
6	0x3d15f260	0.0366081
7	0x3d7d7069	0.06187478
8	0x3d8cb231	0.06869925
9	0x3d05703b	0.032577734
10	0xbdaa7b7f	-0.08324336
11	0x3cd32937	0.025776489
12	0xbd346164	-0.04403819
13	0x3c2cd8fa	0.010549778
14	0x3d94ebf1	0.07271565
15	0x3c05ed91	0.008174316
16	0xbdbf45c8	-0.093394816
17	0x3d1148a9	0.035469685
18	0x3c18f24c	0.009335112
19	0x3be60803	0.007019998
20	0xbd9f71fe	-0.07785414
21	0xbe0be76c	-0.13662499
22	0x3c840257	0.016114397
23	0xbce43d06	-0.02786113
24	0xbc9ffdb8	-0.019530162
25	0xbd407089	-0.046982322
26	0xbcf21f9a	-0.029556084
27	0xbd162f0d	-0.036665965
28	0xbdd8ef07	-0.10592466
29	0xbe066a9d	-0.13126607
30	0xbe0cc431	-0.13746716
31	0xbd646ef6	-0.055769883
32	0xbcc09467	-0.023508264
33	0xbce99ced	-0.02851721
34	0x3d8495bc	0.06473872
35	0xbd2c30c2	-0.042038687
36	0xbd8585a7	-0.06519633
37	0x3d96a9f9	0.073566385
38	0xbd34a2cf	-0.04410058
39	0xbc7e856b	-0.015534739
40	0x3bdeafec	0.006795874
41	0x3d6e69e9	0.058206473
42	0x3daceb2f	0.08443295
43	0xbd491c44	-0.04909922
44	0xbe00d7b1	-0.1258228
45	0xbdacc655	-0.08436266
46	0xbd0916d1	-0.033469025
47	0xbdb639e4	-0.088977605
48	0xbe0b5554	-0.13606769
49	0xbdbd26e9	-0.09235937
50	0xbd345d29	-0.044034157
51	0xbcf10442	-0.029420976
52	0xbd20d6a3	-0.039267194
53	0x3d1b9447	0.037983205
54	0x3d5fb7a8	0.054618508
55	0x3d8b1c38	0.06792492
56	0xbc15ce26	-0.009143388
57	0xbcf402ee	-0.029786553
58	0xbd3719dd	-0.0447024
59	0xbd2ba812	-0.04190833
60	0x3d8b72b3	0.068089865
61	0xbd885abb	-0.066579305
62	0x3af9838c	0.0019036396
63	0xbc12a34a	-0.008950064
64	0xbd5901ee	-0.052980356
65	0x3c433463	0.011914345
66	0xbc6bdbff	-0.014395713
67	0xbc302cca	-0.010752866
68	0xbc6221ca	-0.013802001
69	0xbc06f00f	-0.008235945
70	0xbd6d7c65	-0.05797996
71	0xbd819e56	-0.06329028
72	0x3d7d1808	0.061790496
73	0xbd141add	-0.03615843
74	0x3c9955ce	0.018717673
75	0xbd3d5824	-0.046226636
76	0xbda6be08	-0.08141714
77	0xbbd911ae	-0.006624422
78	0xbccfee2f	-0.02538213
79	0x3d1ed0c2	0.038773306
80	0xbd259afe	-0.040431015
81	0xbcc9be1a	-0.02462678
82	0xbdb7f7eb	-0.089828335
83	0xbcf2c06e	-0.029632773
84	0xbd35e87a	-0.04441116
85	0xbdf29849	-0.11845452
86	0xbd6c2b87	-0.0576587
87	0xbdc4ff98	-0.09619063
88	0xbdcaf09a	-0.09909172
89	0xbda72749	-0.0816179
90	0xbde83489	-0.11338145
91	0x3c9a370d	0.018825078
92	0xbdae70f7	-0.0851764
93	0x3d146fe0	0.036239505
94	0xbb2da783	-0.002649755
95	0xbdad9fd4	-0.084777504
96	0xbdbb13d1	-0.09134639
97	0xbd0484d6	-0.032353245
98	0xbd101d08	-0.035183936
99	0xbdb273db	-0.08713504
100	0x3d91ce35	0.07119409
101	0x3d0545d6	0.032537304
102	0x3dc47517	0.095926456
103	0xbc253a55	-0.010084708
104	0xbd8183e0	-0.06323981
105	0xbc1065d6	-0.008813342
106	0xbd2c5c86	-0.042080425
107	0x3e02a61c	0.12758678
108	0x3d9e8df3	0.077419184
109	0xbca1e00e	-0.019760158
110	0x3ce4c4d6	0.02792589
111	0xbd338cbc	-0.043835387
112	0x3d8a6827	0.06758147
113	0x3b47661b	0.003042585
114	0xbcc82fa0	-0.024436772
115	0x3d896712	0.06709112
116	0x3b357eaf	0.0027693918
117	0xbc493305	-0.01228023
118	0x3d428b84	0.047496334
119	0xbd1eb7ae	-0.03874939
120	0xbcf08836	-0.029361825
121	0x3d193051	0.037399594
122	0x3d03c544	0.03217055
123	0xbcb01743	-0.021495467
124	0xbcbc407a	-0.022979964
125	0xbd6664ed	-0.056248594
126	0x3d593ee5	0.053038497
127	0x3cbf5794	0.02335719
128	0xbc3ca938	-0.011514954
129	0xbd5950f0	-0.053055704
130	0xbd58dc37	-0.05294439
131	0x3d606865	0.05478706
132	0xbc15b106	-0.009136444
133	0xbca77ad1	-0.020444306
134	0xbda8cee0	-0.08242583
135	0xbdb0d54b	-0.086344324
136	0xbda74210	-0.08166897
137	0xbd98d6ef	-0.0746287
138	0x3a7e20e7	0.0009694234
139	0xbd2282cf	-0.03967553
140	0xbd6104d4	-0.054936245
141	0xbd9dfc9b	-0.07714196
142	0xbd23eef5	-0.04002281
143	0xbcfdce2c	-0.0309821
144	0xbd5622d9	-0.052279327
145	0xbd9618b0	-0.073289275
146	0xbd683363	-0.05668963
147	0xbccd5db2	-0.025069091
148	0xbd705ea2	-0.058684
149	0xbd0fbb59	-0.035090778
150	0x3cf54023	0.02993781
151	0x3d7679e2	0.06017483
152	0x3d637458	0.055530876
153	0xbd26df53	-0.040740322
154	0xbdc9408d	-0.09826765
155	0xbd813a37	-0.06309932
156	0xbd6309ef	-0.055429395
157	0x3d5e6a28	0.054300457
158	0x3c4250aa	0.011860052
159	0xbd1cac70	-0.038250387
160	0x3c2d7dae	0.010589046
161	0x3d89bea1	0.06725813
162	0xbda10902	-0.07863046
163	0xbd2a57b3	-0.041587543
164	0x3cd70544	0.026247628
165	0x3d8c9f38	0.06866306
166	0xbd826741	-0.0636735
167	0x3c9a593a	0.018841375
168	0x3a83ea59	0.0010064348
169	0xbdb82455	-0.08991305
170	0x3db52d27	0.08846503
171	0x3b81658c	0.003948873
172	0xbcc08d06	-0.023504745
173	0x3ce3b2da	0.027795244
174	0xbccdcdc2	-0.025122527
175	0xbdcafaad	-0.09911094
176	0xbd77d94d	-0.06050997
177	0xbddf8d42	-0.10915615
178	0xbcfa068a	-0.030520696
179	0xbdd6c513	-0.10486808
180	0xbdf7f885	-0.12107948
181	0xbd030973	-0.031991433
182	0x3bf1926f	0.0073721926
183	0xbdbf906c	-0.09353718
184	0xbd0d0f1b	-0.034438234
185	0xbdc26293	-0.09491458
186	0xbde74d2f	-0.112940185
187	0xbdcbce62	-0.09951474
188	0xbced2098	-0.028946206
189	0xbd10e62c	-0.03537576
190	0xbdd9f78f	-0.10642921
191	0xbdd62ff1	-0.10458363
192	0xbd7eb5b4	-0.062185004
193	0xbda0f52d	-0.078592636
194	0xbd1a117c	-0.03761433
195	0xbdcab413	-0.09897628
196	0xbdb32f47	-0.08749252
197	0xbdce350f	-0.10068714
198	0xbd2ec28c	-0.042666003
199	0xbdecf5d1	-0.11570323
200	0x3d5ad695	0.053427298
201	0x3d8715f2	0.065959826
202	0x3c3b81fc	0.011444565
203	0x3c919336	0.017770391
204	0xbd03556f	-0.032063898
205	0xbca877d8	-0.020564958
206	0x3c170488	0.009217389
207	0xbd462f44	-0.04838492
208	0xbbcce695	-0.0062530735
209	0x3cd729d5	0.026265064
210	0xbd59a7a9	-0.05313841
211	0x3d45c289	0.048281226
212	0xbd16bfe8	-0.03680411
213	0x3d1d825c	0.0384544
214	0x3cdd0d05	0.026983747
215	0x3d61d3d7	0.055133667
216	0x3d3b50ce	0.04573136
217	0xbd04a0d9	-0.03237996
218	0x3d4030b0	0.046921432
219	0xbd6dfda1	-0.058103207
220	0xbc06221f	-0.008186846
221	0xbd98a0fb	-0.074525796
222	0xbd003f14	-0.031310156
223	0xbd14871e	-0.03626167
224	0xbd98206d	-0.0742806
225	0x3bccf567	0.00625484
226	0x3d1a6ca6	0.03770127
227	0xbb5a86cc	-0.0033344505
228	0xbdb63112	-0.08896078
229	0xbdc0afef	-0.09408557
230	0x3d4be252	0.049776383
231	0xbb83402d	-0.004005453
232	0xbd948b1d	-0.07253096
233	0xbda169f2	-0.078815356
234	0x3c6afe3f	0.014342844
235	0xbc9d486e	-0.019199576
236	0xbc858339	-0.016297923
237	0x3c19907a	0.009372825
238	0x3cf4765e	0.029841598
239	0xbca5dc33	-0.0202466
240	0xbd012851	-0.03153259
241	0xb9ad3617	-0.0003303743
242	0x3d29ee5b	0.04148708
243	0xbc83ba38	-0.016080007
244	0x3c10e9f0	0.008844838
245	0x3d600f04	0.05470182
246	0xbcac0274	-0.020997263
247	0x3d22c51f	0.03973877
248	0xbc409936	-0.011755278
249	0xbb954568	-0.004555393
250	0xbaba8669	-0.0014230731
251	0x3d5aae23	0.053388726
252	0xbc4a6e86	-0.012355452
253	0xbd23c432	-0.03998203
254	0xbd0ed940	-0.034875154
255	0x3d3a0985	0.045419235

features.10.bias f4 [32]
0	0x3cf9997f	0.0304687
1	0x3d1146ac	0.03546779
2	0xbb510d31	-0.0031898732
3	0x3aba289d	0.0014202778
4	0xbc946b32	-0.018117521
5	0x3c09538b	0.008381735
6	0x3c6d3f3e	0.01448041
7	0x3c19bb1a	0.009382987
8	0x3d48f5c2	0.049062498
9	0xbd418985	-0.04725029
10	0xbda54d4c	-0.08071384
11	0xbce49d50	-0.027907044
12	0x3d0829b5	0.0332429
13	0xbdcd46c5	-0.10023264
14	0xbdc57ea3	-0.09643295
15	0xbd96e36a	-0.073675945
16	0xbd2e370c	-0.042532966
17	0x3d9314ac	0.07181677
18	0xbdeaa860	-0.11457896
19	0xbdbefbe7	-0.0932539
20	0xbd209f7b	-0.039214592
21	0x3cf215a3	0.029551333
22	0xbc77874e	-0.015107943
23	0x3d22b662	0.039724715
24	0xbd99b8c7	-0.075059466
25	0x3aab7bfa	0.0013083213
26	0x3d94aa26	0.07259016
27	0x3d80bb5b	0.06285735
28	0xbd899884	-0.06718543
29	0x3d4a0680	0.049322605
30	0xbdc1191f	-0.094286196
31	0x3c1d6cb1	0.009608434

features.12.weight f4 [32, 32, 5, 5]
0	0x3c97c518	0.018526599
1	0xbc5379fa	-0.012907499
2	0x3d859a6d	0.06523595
3	0xbc899c19	-0.016798066
4	0x3d4e2de5	0.050336737
5	0x3be9fb39	0.007140544
6	0x3c9d853a	0.019228566
7	0x3d406f7c	0.04698132
8	0x3d09195c	0.03347145
9	0xbd518264	-0.05114974
10	0x3d0fc81c	0.03510295
11	0xbd446776	-0.04795023
12	0x3bc1237a	0.0058941217
13	0x3d078aba	0.033091284
14	0x3d58be8b	0.05291609
15	0xbb54e7ad	-0.0032486722
16	0xbcd4db69	-0.02598353
17	0xbd2d7079	-0.04234359
18	0x3da616ea	0.08109839
19	0x3d1b382a	0.03789536
20	0xbd89b8d5	-0.06724707
21	0xbda649cc	-0.081195444
22	0x3d0a2288	0.033724338
23	0xbc8bff74	-0.017089583
24	0x3d58e3c7	0.0529516
25	0x3d4f9426	0.050678395
26	0xbd9c13cd	-0.07620964
27	0xbb6d34e2	-0.003619485
28	0x3cca4958	0.024693176
29	0x3e06406a	0.1311051
30	0x3c795254	0.015217382
31	0x3ce78073	0.028259492
32	0x3c564275	0.013077368
33	0x3d1b07f4	0.03784938
34	0x3d413f42	0.047179468
35	0x3cc45cc3	0.023970013
36	0xbd0c8183	-0.0343032
37	0x3a699a44	0.0008911232
38	0x3d4669ff	0.04844093
39	0x3d2b415a	0.04181037
40	0x3d4af41f	0.04954922
41	0xbd2c9efb	-0.042143803
42	0xbd85b65a	-0.065289214
43	0xbd48ddff	-0.049039837
44	0xbcefc37e	-0.029268023
45	0x3e1f66a6	0.15566501
46	0x3dc03ffe	0.093872055
47	0xbd127adc	-0.0357617
48	0x3da7f151	0.08200324
49	0x3e07659e	0.13222358
50	0x3d028214	0.031862333
51	0x3d08af97	0.03337058
52	0x3dddce68	0.108303845
53	0x3dba5b28	0.09099418
54	0x3dbfaebb	0.09359499
55	0xbd5a79fe	-0.053338997
56	0x3b27bbba	0.0025594071
57	0x3cea86fe	0.028628822
58	0x3dc5a24e	0.09650098
59	0x3d1c3571	0.038136903
60	0xbd14cfd9	-0.03633103
61	0xbd10bbfd	-0.03533553
62	0x3d12fd57	0.035886135
63	0x3d34eee8	0.04417315
64	0x3dbde260	0.09271693
65	0xbd97e17b	-0.07416054
66	0xbd49fe28	-0.049314648
67	0xbc069296	-0.00821366
68	0x3db6eaa8	0.08931476
69	0x3e03e92d	0.12881918
70	0xbdfeb544	-0.124369174
71	0xbdd6792b	-0.1047233
72	0xbd4dac97	-0.050213423
73	0x3c3e0407	0.01159764
74	0x3dc47036	0.09591715
75	0xbdcde893	-0.10054126
76	0xbe26fcb4	-0.16307336
77	0xbc8af2fe	-0.01696157
78	0xbbbbab11	-0.00572718
79	0x3d97f5cc	0.07419929
80	0xbd3de8e3	-0.046364676
81	0xbc1b8d35	-0.009494116
82	0xbcc66402	-0.02421761
83	0x3c83d5f1	0.016093226
84	0x3c745c22	0.014914544
85	0x3c4be00e	0.0124435555
86	0xbccacb13	-0.024755036
87	0x3cb4a374	0.022050597
88	0x3d6ea490	0.058262408
89	0xba8ba9a2	-0.0010655413
90	0xbc46cd74	-0.012133945
91	0xbccdbd84	-0.025114782
92	0xbca0d234	-0.019631483
93	0x3da441bd	0.08020351
94	0x3caec252	0.021332894
95	0xbe38fe76	-0.18065819
96	0xbd7b34a6	-0.061329506
97	0x3dc96e54	0.098354965
98	0x3d380d22	0.0449344
99	0x3bd95eab	0.0066335998
100	0x3c9808a7	0.018558813
101	0xbc531868	-0.012884237
102	0x3d567477	0.052357163
103	0x3d72dd5a	0.05929313
104	0x3e1f1111	0.15533854
105	0xbde70884	-0.11280921
106	0xbd8bcd6e	-0.06826292
107	0xbd38990b	-0.04506783
108	0x3cb61739	0.02222787
109	0x3d116560	0.03549707
110	0x3b9455cd	0.00452683
111	0xbd0dbaf1	-0.03460211
112	0xbd195e85	-0.037443656
113	0x3c03ccba	0.008044416
114	0x3ca0ef2d	0.019645298
115	0x3d900e88	0.070340216
116	0xbcdce6dd	-0.026965553
117	0xbc7c34be	-0.015393434
118	0x3c8d9b99	0.017286109
119	0x3d2dd696	0.042440973
120	0xbcd9f04d	-0.026603842
121	0xbc3499f2	-0.011023032
122	0x3c825124	0.015907831
123	0x3cbc2b77	0.022969944
124	0x3d2d31f3	0.042283963
125	0xbe501354	-0.20319873
126	0xbcdab16a	-0.026695926
127	0x3d87baed	0.0662745
128	0x3dc8881b	0.09791585
129	0x3c20e30d	0.009819758
130	0xbdb69216	-0.089145824
131	0xbda0ab9c	-0.07845232
132	0xbe032dc0	-0.12810421
133	0xbe169c9c	-0.14708179
134	0xbd974d2b	-0.073877655
135	0xbd91e829	-0.07124359
136	0x3e032ee7	0.1281086
137	0x3e3e3aee	0.18577167
138	0x3e4cae3c	0.1998834
139	0x3da80b2c	0.08205256
140	0xbdbfc465	-0.09363631
141	0xbddc5931	-0.107591994
142	0x3c5d7980	0.013517737
143	0x3e31b722	0.17355016
144	0x3d9c129c	0.07620737
145	0xbe11fb4a	-0.14256015
146	0xbd568789	-0.05237535
147	0xbcba5262	-0.022744361
148	0xbcd8d713	-0.026469743
149	0x3d63ddee	0.05563157
150	0xbdc6524e	-0.09683667
151	0xbdcb4e17	-0.09927004
152	0x3d9fa763	0.07795598
153	0xbd99ccd5	-0.07509772
154	0xbd320e68	-0.04347077
155	0xbe675433	-0.22590713
156	0xbe39efb8	-0.18157852
157	0xbdd7d63c	-0.10538909
158	0xbdaa1cfc	-0.083063096
159	0xbe31c733	-0.17361145
160	0xbca65021	-0.02030188
161	0xbdbf0997	-0.09328001
162	0xbcb5862e	-0.022158708
163	0xbdf49298	-0.11942023
164	0xbdc98153	-0.0983912
165	0x3ceece3a	0.02915107
166	0x3c88c29f	0.016694365
167	0x3c644d64	0.013934467
168	0xbd2ce4ee	-0.042210512
169	0x3d2c1474	0.042011693
170	0x3dbddc48	0.09270531
171	0x3b700839	0.0036625995
172	0x3c585e10	0.01320602
173	0xbdf4c841	-0.11952258
174	0x3c2df392	0.010617154
175	0xbd79f0f8	-0.06102082
176	0xbd3cbbf7	-0.046077695
177	0x3d001a7b	0.031275254
178	0x3da1f8ef	0.079088084
179	0x3db0d32b	0.08634027
180	0xbcae5c5f	-0.02128428
181	0xbdb875a4	-0.09006813
182	0xbd4adb7e	-0.04952573
183	0x3d88a3d5	0.066718735
184	0xbcb13ccc	-0.021635436
185	0xbc6b9c77	-0.014380566
186	0xbdaa24db	-0.08307811
187	0xbd1ba427	-0.037998345
188	0x3c2f14b5	0.010686089
189	0xbccd831c	-0.025086932
190	0x3c54a716	0.0129792895
191	0xbd0af085	-0.033920784
192	0xbc3b51b1	-0.011433051
193	0xbcf3b15d	-0.02974766
194	0x3d8c9f30	0.068663
195	0x3d935011	0.07193006
196	0x3cfcecc7	0.030874623
197	0xbd80b067	-0.06283646
198	0x3cde412c	0.027130686
199	0xbc50f964	-0.012754772
200	0x3db81613	0.08988585
201	0x3d8a5235	0.06753961
202	0xbd0abd7b	-0.03387211
203	0x3cc9b7cf	0.02462378
204	0xbd4dd01f	-0.050247308
205	0x3dc8d6c9	0.09806592
206	0xbbfcd74b	-0.0077160946
207	0xbd5b0ede	-0.053480975
208	0xbd6fc4f8	-0.058537453
209	0xbd811f45	-0.06304792
210	0x3e23d0db	0.15997641
211	0x3d74a4ae	0.059727363
212	0xbd8daf8c	-0.069182485
213	0x3c1f3836	0.009717992
214	0xbd36fe7f	-0.0446763
215	0x3d094d5c	0.03352104
216	0x3dc01020	0.093780756
217	0xbd02d8e0	-0.03194511
218	0xbc29ad7c	-0.010356303
219	0xbc051b96	-0.008124253
220	0x3ca6dec4	0.020369895
221	0xbb37a409	-0.0028021357
222	0xbc9ef186	-0.019402277
223	0xbca1128b	-0.019662162
224	0xbd392a74	-0.045206502
225	0xbc314f35	-0.010822107
226	0x3d37310e	0.044724517
227	0x3db55a8e	0.088551626
228	0xbb99517a	-0.004678902
229	0x3cc1e10a	0.023666877
230	0xbd09c601	-0.033636097
231	0xbae18c93	-0.0017208032
232	0x3d8afa16	0.06785981
233	0x3da1a9c6	0.0789371
234	0xba9a134b	-0.0011755017
235	0xbd20305a	-0.03910861
236	0xbd086e79	-0.03330848
237	0xbd96b28b	-0.07358273
238	0x3d872633	0.06599083
239	0x3d8398fd	0.064256646
240	0x3bb5a3bb	0.0055432
241	0x3cfc1439	0.030771362
242	0x3c572367	0.013130999
243	0xbac80f50	-0.0015263353
244	0x3c9a93fe	0.018869396
245	0x3c876f7f	0.016532658
246	0x3da3d029	0.07998688
247	0x3d186f2f	0.037215408
248	0x3d0a92bd	0.033831347
249	0x3db5dc2e	0.088798866
250	0x3b579f90	0.0032901503
251	0x3c8506ee	0.016238656
252	0x3cccd70a	0.025004882
253	0x3b42f5c7	0.0029748545
254	0xbc40656a	-0.011742929
255	0x3d47cd1b	0.04877959

features.12.bias f4 [32]
0	0x3c96734c	0.018365525
1	0x3d3f7c5e	0.046749465
2	0x3d8524fd	0.065011956
3	0xbd63f40e	-0.05565267
4	0x3e13734e	0.14399454
5	0xbbb73c00	-0.0055918694
6	0xbd2af820	-0.041740537
7	0x3d52bd94	0.051450327
8	0x3dd8f426	0.105934426
9	0x3dbf25df	0.09333395
10	0xbcc60876	-0.024173956
11	0x3daea38b	0.08527287
12	0x3c51760e	0.012784494
13	0xbc716b19	-0.014735007
14	0xbd3504c2	-0.04419399
15	0xbd89621f	-0.06708168
16	0x3dc17994	0.09447017
17	0xbd19b414	-0.03752525
18	0xbd4352d8	-0.047686428
19	0x3d9a25ae	0.07526718
20	0x3c5a710d	0.0133326175
21	0x3e1662dc	0.1468615
22	0x3d13b2d7	0.036059227
23	0xbd5b2dbc	-0.053510413
24	0xbdbf2df2	-0.09334935
25	0xbd47833c	-0.04870914
26	0xbd627e4e	-0.055296235
27	0xbc9924cc	-0.018694304
28	0x3bc18045	0.0059051835
29	0xbcbbfa66	-0.022946548
30	0x3d94d091	0.072663434
31	0x3dc7e9a4	0.0976136
