output/models/220623_2250_ggcnn2_met_ruis_val_0.4/epoch_06_iou_0.59_statedict.pt (torch, 274205 bytes, 20 tensors)

features.0.weight f4 [16, 1, 11, 11]
000000 4e 53 e9 3c d3 f2 5e 3c d0 dd 15 bc f0 ac a7 3a
       0.028482106 0.0136076985 -0.0091471225 0.0012792628
000010 ee ab dc bb 8a 02 de bc 85 6a 54 bb 94 8e eb 3c
       -0.006734363 -0.02710082 -0.0032412123 0.02875451
000020 05 ea d4 3a 5f 52 41 bd 2f 32 fc bb 19 6f 3a 3c
       0.001624406 -0.047197696 -0.007696412 0.011379027
000030 41 03 07 bd 06 0e 57 bd bb 12 04 bd d4 76 48 b9
       -0.032962088 -0.05250361 -0.032244425 -0.00019117753
000040 09 4b 21 ba 00 2f 69 bc 5c e6 8c 3b 87 32 b7 3c
       -0.00061528437 -0.014232397 0.004299922 0.02236296
000050 0c ec 30 3d 0a 5e c2 bc 7a 20 22 bc f7 74 ba 3b
       0.04319386 -0.023726482 -0.009895438 0.005690213
000060 c9 8c 90 bc e6 d3 ac 3c 51 13 25 3c 47 de 4a bb
       -0.017645257 0.021097135 0.010075406 -0.0030955242
000070 d5 fd cc 3c 9a 7a 1c 3d 38 32 0a bc 89 51 a9 3b
       0.02502338 0.03820286 -0.008434825 0.0051671905
000080 98 c3 c0 3b df 17 95 3a 33 6b a3 bc 71 19 10 bd
       0.0058826916 0.0011374912 -0.019948578 -0.035180513
000090 64 a0 39 bd 32 03 0c bc 77 1c f4 3c 1a 49 0c bd
       -0.045318976 -0.008545684 0.02979873 -0.034249403
0000a0 2e 8e d5 bb d1 e1 9e 3c dd ee d1 bc f1 7f e2 bb
       -0.0065171933 0.019394787 -0.025626594 -0.0069122245
0000b0 83 5c 10 bd e3 96 2b bd f6 b3 a6 bc b4 c8 2e 3d
       -0.035244476 -0.041891944 -0.020349484 0.042671874
0000c0 eb ae 0b 3c 00 ed fc bc ca a7 c1 3c 4c 4a 66 bc
       0.00852559 -0.03087473 0.023639578 -0.0140558
0000d0 4c 73 6a bd b0 35 21 3c aa 2c 2a 3d 73 b0 3d bd
       -0.057238862 0.00983946 0.0415465 -0.046310853
0000e0 01 13 b5 3b dd 4b 12 3d 8e 53 97 3c 20 d0 4b 3d
       0.005525947 0.03571688 0.01847246 0.04975903
0000f0 83 e0 6e bc da 8a 60 3d d6 a2 29 bd b8 3e 27 3c
       -0.014579895 0.05481992 -0.041415058 0.010207824
000100 73 8b 04 bc e4 77 55 3b b3 fa 59 bc 4b 88 35 bd
       -0.008089888 0.003257268 -0.0133044 -0.044319432
000110 8f d7 75 bc 6f 66 30 bd 61 47 5e 3d ce 7a 5c 3b
       -0.015005006 -0.04306644 0.05426729 0.0033642533
000120 a6 44 40 3d 9d db 61 3d 3d 9c 01 3d 35 56 d5 bc
       0.04694047 0.05514108 0.03164314 -0.026042083
000130 18 98 0b 3d b1 8b a9 3c 95 6c 4f bb 5b e1 03 3c
       0.034080595 0.020696493 -0.0031650413 0.008049334
000140 67 da 16 ba d2 64 46 bc 4b 9c 50 3b 15 e5 37 bc
       -0.00057545904 -0.012108998 0.003183144 -0.011224051
000150 a5 3a 99 bb de 93 25 bd 3d 81 70 bb ca aa b7 3c
       -0.0046761804 -0.04042422 -0.0036698126 0.022420306
000160 4b 0a ec 3c d3 e1 23 3d 7f ee db 3c 21 77 3d bc
       0.028813502 0.040010285 0.026847122 -0.011564047
000170 9d fe 0d 3d c7 4f 1d 3d d5 81 0e bd 79 a9 35 bc
       0.034666646 0.03840616 -0.034791786 -0.011087769
000180 ca 78 5e 3c 7d c1 a6 bc 75 05 96 3c 76 78 54 3c
       0.013578603 -0.020355934 0.018313149 0.012968173
000190 c9 3d ab bc 9d 24 57 3d f8 c4 83 3c e1 15 2e 3d
       -0.020903485 0.05252515 0.016085133 0.042501334
0001a0 06 e5 d8 bb 4a 6c 3f bc fd 3a af 3c 26 38 23 3d
       -0.0066190986 -0.011683533 0.021390432 0.03984847
0001b0 da 2c 47 ba 37 82 ed 3b e7 2d a4 3c bd 5c 3c bc
       -0.0007597931 0.007248189 0.02004142 -0.01149672
0001c0 c6 04 ec 3c cc 5a 25 3d 0a 82 4f 3c 03 83 61 bd
       0.02881087 0.040369794 0.012665281 -0.055056583
0001d0 21 92 39 bd 9a 66 28 bd ba 96 b6 3c 31 0e a3 bc
       -0.045305375 -0.041113473 0.022288669 -0.019904228
0001e0 df 66 0e bd 8d 52 42 3d 82 05 c7 3c d0 98 52 3d
       -0.034766074 0.047442008 0.024294619 0.051415265
0001f0 e0 8e c2 bb 0c d5 43 3d 7f a3 1c bd af cc 55 bd
       -0.005937442 0.0478106 -0.03824186 -0.052197155
000200 8f d8 2e 3d da 07 d4 3c e4 6a 92 bc ba d3 f1 bc
       0.042686995 0.02588265 -0.017873235 -0.029519904
000210 b0 ec d8 3c ef ea 2f 3c 8a 46 15 bc 7f ce 7d bc
       0.026480049 0.010737165 -0.009111056 -0.015491127
000220 87 86 9f bc 0a 1b 06 3d 66 cf 9e 3c 06 ad 91 3c
       -0.019473327 0.03274063 0.019386005 0.0177827
000230 88 dd 0b bd d3 57 9c 3c 2a 53 35 bc 5e a1 4f 3d
       -0.034146816 0.019084847 -0.011067191 0.050691
000240 b7 10 dc bb e7 47 1b bd a4 1c 32 bd f5 1d 2b bd
       -0.0067158598 -0.03791037 -0.043484345 -0.041776616
000250 90 33 90 3c 45 b5 29 3d cd 5a 37 3b 32 71 9a bc
       0.017602712 0.041432638 0.0027977705 -0.018852804
000260 5f 9c c9 bc 2f 5c 2b bd 17 b0 8d bb 94 d0 ad bc
       -0.024610696 -0.04183596 -0.00432397 -0.021217622
000270 36 5f 09 3d 3c 90 70 ba 8d f9 88 3c e6 75 5a bd
       0.033538066 -0.0009176766 0.016720558 -0.053335093
000280 2c e7 a0 ba 39 3f f9 3c 92 73 0f 3b 9f 77 16 bd
       -0.0012275926 0.030425655 0.0021888954 -0.036735173
000290 c5 5d 33 bd c1 78 42 bc b0 d1 b9 3c 40 02 2a bd
       -0.043790597 -0.01186961 0.022682995 -0.041506052
0002a0 4e a3 8d 3c 39 03 8e bc 9d 2f c3 3c 25 93 08 3b
       0.017289784 -0.017335521 0.023826415 0.0020839658
0002b0 ae 7e e2 bc b4 46 0c 3d d7 b4 5d bd a5 77 27 bd
       -0.027648296 0.034247115 -0.05412754 -0.040885586
0002c0 5c 6b 1f 3c f9 a5 45 3c 01 4f 9e bc f6 bc cc 3b
       0.009730186 0.012063497 -0.019324781 0.006248112
0002d0 7e 39 02 3d 38 c6 b6 bb 8c c6 08 bd a6 7d 5c bc
       0.03179311 -0.0055778287 -0.033392474 -0.013457691
0002e0 23 0c 1a 3d 05 2b 9b bb 4b b7 5f bd 8c 84 f7 bc
       0.03760923 -0.004735353 -0.05461816 -0.03021457
0002f0 3d 57 68 3c 9f 5d 8f bc 08 40 35 3d a7 10 d3 bc
       0.0141809555 -0.017500697 0.044250518 -0.025764776
000300 42 53 fc 3c 37 20 48 3d 57 da 68 3c d2 67 e2 bc
       0.03080142 0.048858847 0.0142122125 -0.027637396
000310 16 89 13 3d 2a f3 28 3c 09 08 52 bd 1a 8e 5b bd
       0.036019407 0.010311881 -0.051277194 -0.053602315
000320 6c f3 bd bc d4 80 a9 3c b7 0d b6 3a 74 d7 25 3d
       -0.023187362 0.020691313 0.0013889585 0.040488675
000330 d6 ae 5a bc 8a e5 30 3d b0 cf 33 bd 3b 5b cd bc
       -0.013347348 0.043187656 -0.043899238 -0.025067916
000340 9d ba ae 3c ea 21 f3 bc 79 b6 b3 bc 78 cd 1b bd
       0.021329219 -0.029679257 -0.021937596 -0.038037747
000350 80 10 eb bc 8d 67 de 3c bc 5f e6 3c c2 00 64 bd
       -0.028694391 0.027148986 0.028121822 -0.055664785
000360 99 72 b5 3c 9b 5e d2 3c 78 96 5b bc 1f 40 29 3c
       0.022149371 0.025679877 -0.013402574 0.010330229
000370 59 cc bb 3c 55 77 7c 3c a0 66 1f bb cd fb 16 3c
       0.022924589 0.01540931 -0.0024322644 0.009215307
000380 78 5b 1e 3d 6e c9 72 bc 67 24 3d 3b eb 5d 2f bd
       0.03866145 -0.014818532 0.0028860809 -0.042814177
000390 60 3f 96 b9 8f 2f ce 3c 1e cf 3d bb 74 68 d1 bc
       -0.00028657448 0.025169162 -0.0028962563 -0.025562502
0003a0 c8 eb 6e bd ed 77 7b bc 1a 39 0c 3d 8d 0e 71 bd
       -0.058330327 -0.015348417 0.034234144 -0.058851767
0003b0 98 5e 66 3c f7 64 0f 3d 4f 93 a4 3c c0 b0 82 3b
       0.014060639 0.035008397 0.020089773 0.0039883554
0003c0 9d 50 0a 3d 76 19 b7 39 70 c0 83 38 3e 4b 0d bd
       0.033768285 0.0003492345 6.282411e-05 -0.034495585
0003d0 5b aa 46 bd 96 44 eb 3c b3 62 88 3b be 77 dc bc
       -0.048502307 0.028719228 0.0041621565 -0.026912566
0003e0 59 fd 28 bd d1 84 dc bc d8 ab 93 3b 7c a1 9e 3c
       -0.041257236 -0.0269188 0.0045065694 0.019364111
0003f0 37 fe 59 bd 79 db 10 bd 37 05 18 3d 58 d0 07 3d
       -0.053220954 -0.035365555 0.03711435 0.033157676

features.0.bias f4 [16]
000000 c5 46 d8 bd 07 fb de bd c1 22 c2 bd e0 08 03 be
       -0.10560373 -0.108877234 -0.09479285 -0.12796354
000010 0b bd 54 bd 9f d0 d7 bd 10 2a 9f bd d5 08 f6 3c
       -0.051938098 -0.10537838 -0.07771695 0.030033508
000020 c8 93 6b bd c3 6f 88 3e c4 d1 89 be cf 08 a1 3b
       -0.057513982 0.26647767 -0.2691785 0.00491438
000030 00 d9 08 3e da 6b 9f 3d 2b 98 15 3d 2e 5a ce bd
       0.13364029 0.07784243 0.03652207 -0.10075794

features.2.weight f4 [16, 16, 5, 5]
000000 ac ca ab bd 4b 2f 94 bd b3 f3 47 3d 58 84 3c bd
       -0.08388266 -0.07235583 0.048816394 -0.04602465
000010 43 f1 3e 3b 53 1a e3 3b 9f 38 fa 3c 5d 77 6f 3d
       0.0029135502 0.0069306283 0.030544577 0.058463443
000020 e0 76 d7 bc e8 5b 1b 3d 71 bd 67 3c fb 03 b8 bd
       -0.026301801 0.037929446 0.014144287 -0.08985134
000030 c5 e6 23 bd d4 0e 87 bd 6c 8d 76 3d 33 8a 20 3d
       -0.040015 -0.06594625 0.060193464 0.039194297
000040 a9 81 3b bd d7 b2 2a bd 30 6e 95 3d 5a e3 b5 3b
       -0.04577795 -0.04167446 0.07296407 0.005550784
000050 e6 43 21 3c de 77 9f bd ad d7 36 3d b6 13 0e 3d
       0.009842848 -0.07786535 0.04463928 0.034686767
000060 73 5b 99 bd d5 68 8b bc ed d1 33 bd 42 39 54 3d
       -0.07488146 -0.017017761 -0.043901373 0.051812418
000070 b1 35 df 39 50 bc 91 bd c7 9d f9 bc 5f 51 8d 3c
       0.00042573878 -0.07115996 -0.030470742 0.017250715
000080 a7 ff 43 bc f0 e7 42 bc 20 d4 37 bd f0 57 3e 3d
       -0.011962808 -0.0118961185 -0.044880033 0.046470582
000090 01 fb d6 bd 42 23 27 3d 5b f4 63 3d 65 58 2d bd
       -0.10497094 0.04080511 0.055652957 -0.042320628
0000a0 89 c9 cf bc 0f 8e 2b bd d9 2d 49 bb 6f 74 20 bd
       -0.025364654 -0.041883525 -0.0030697493 -0.03917354
0000b0 50 2f a2 3c 39 4b a5 3c 5b 23 cb 3c bc b0 ba 3b
       0.019797951 0.02017747 0.024797132 0.005697338
0000c0 84 5e d6 bc b1 95 a5 bc 3a a7 60 bc 62 a2 92 3d
       -0.026168115 -0.02021298 -0.013711745 0.07159878
0000d0 b4 54 80 bd bb 00 cf 3c 40 24 66 bd 49 21 15 bd
       -0.06266156 0.025268903 -0.056186914 -0.036408696
0000e0 6c 03 b8 bd 1c 42 96 bc 46 ec 38 3d 6e 07 bd bd
       -0.08985028 -0.01834207 0.045147203 -0.09229933
0000f0 18 a7 55 bd ac 1a 95 bd 3d a3 0f bd b1 e8 bc bc
       -0.052161306 -0.07280478 -0.035067786 -0.023060175
000100 2c 75 7b bd c5 61 2f 3d 08 4d 4a bd e5 5b 47 b9
       -0.06139104 0.04281785 -0.04938987 -0.00019012352
000110 90 da 5e 3d 61 5a 80 3d d1 06 2b bd 52 42 43 3c
       0.054407656 0.062672384 -0.041754548 0.011917667
000120 1d 79 f9 3c 73 30 76 3c 10 f1 19 3d 4d 62 37 bc
       0.03045326 0.0150262 0.03758341 -0.01119287
000130 f5 ee 38 bd 2e 48 85 bd 4a e1 20 3d de 8c 07 3d
       -0.045149762 -0.06507908 0.039277352 0.033093326
000140 25 67 b4 3c 17 bd 9f bd e0 7b 46 3d 91 be 91 3d
       0.02202184 -0.07799738 0.04845798 0.07116426
000150 82 ca de ba 2f bd 58 bd 84 4f db bc 07 75 df bc
       -0.0016997608 -0.052914795 -0.026771314 -0.027277483
000160 9f 90 96 3d 39 6c 30 3d 75 80 6d bd 05 46 39 bd
       0.07351803 0.04307196 -0.057983834 -0.04523279
000170 d7 6d a8 bd 13 76 88 bc 75 dc c7 bc ff a3 ab 3c
       -0.08224075 -0.016657865 -0.024397114 0.020952223
000180 6a be 4d bd 9f 89 84 bd 7f 57 fa 3c dc 69 8e bd
       -0.05023042 -0.06471562 0.0305593 -0.06953785
000190 69 f2 1b bd 74 c3 ca bc 65 5d fe 3c d1 fe 32 bc
       -0.038072977 -0.024751402 0.031050393 -0.010925011
0001a0 36 6b 4a 3d bf 46 81 3c 35 28 12 bc 1f fc 78 bd
       0.04941865 0.015780805 -0.008920719 -0.060787316
0001b0 28 c6 ba bd 6f 3d 1f 3c 3d 44 26 bd 82 09 03 bd
       -0.091198266 0.009719237 -0.04059242 -0.03199149
0001c0 78 cf ec bc e9 d4 7c 3d 06 e4 8c bc 30 16 9d 3d
       -0.028907523 0.061726484 -0.017198574 0.076702476
0001d0 62 6f 93 bd ab 0d 81 bc ae 27 13 3d ff b7 0d bc
       -0.07198979 -0.015753588 0.035926513 -0.008649825
0001e0 4a 3a 77 3d 0a f5 81 3c 22 5c c7 3c b1 9b 14 bc
       0.060358323 0.015863914 0.024335925 -0.009070323
0001f0 97 50 9f bd 9d 16 dc bc 0e 4a 53 bd 5a 98 9a bc
       -0.07779043 -0.026866252 -0.051584296 -0.018871475
000200 bb b7 37 bd b0 28 43 bd 5a 7f d2 bc 7f 92 6e 3d
       -0.044852953 -0.047646224 -0.025695492 0.05824518
000210 ac 1b 89 bd db 37 b5 bd 61 42 1d 3d 2d 74 c3 3c
       -0.06694731 -0.08848544 0.038393382 0.023859108
000220 01 c8 47 3d c7 5f 36 3b f9 3d 94 bd 91 ba cc 3b
       0.048774723 0.0027828084 -0.07238383 0.0062478264
000230 93 a4 8b 3d 63 77 f6 bc ed 68 9a bc 87 4b 15 3c
       0.068184994 -0.030086225 -0.01884886 0.009112245
000240 82 05 8c 3c ff 49 1b 3d 0d ae a1 3d a7 78 12 bd
       0.01709247 0.037912365 0.07894526 -0.035759594
000250 66 39 8e 3d 1f 79 a4 bd 18 9d a4 3c 65 30 f8 bc
       0.06944542 -0.080309145 0.02009444 -0.030296514
000260 ca 4b 1d bc 2c 80 13 3d 96 57 72 3d 88 f1 d5 3b
       -0.009600589 0.036010906 0.05916556 0.006529037
000270 ca 81 2b 3d 59 15 b7 bb fb 02 d3 3d 1b 9a 89 bb
       0.041871823 -0.0055872616 0.10303303 -0.004199279
000280 ae ad 4a bd e4 8e 26 3d 94 61 d6 bc 33 6c 21 bd
       -0.04948204 0.040663615 -0.026169576 -0.039409827
000290 1a 57 e1 bc 37 30 c5 3d 1f 4d c8 bc 39 77 34 bd
       -0.027507354 0.09628337 -0.024450837 -0.044059012
0002a0 25 5b 23 bd 71 58 0e 3d b2 3a 85 3d f4 c9 71 3d
       -0.039881844 0.034752313 0.06505336 0.059030488
0002b0 49 01 d5 bb 5d f5 bf bc ed e3 84 bd 5e fa 8f 3d
       -0.0065003973 -0.023432428 -0.06488786 0.070301756
0002c0 13 34 9c bd 0d 97 24 bd 5a a4 bc bd 05 a5 83 bd
       -0.0762712 -0.040183116 -0.09211035 -0.06427959
0002d0 fb b6 c2 bd 8e 09 9f bd 4f 24 df bc 8c 0f bc bc
       -0.09507557 -0.07765494 -0.027238993 -0.022956632
0002e0 1f b6 11 3d 8d 0b ab bd 13 bd 43 bd 8a 10 22 3c
       0.035574075 -0.083518125 -0.047787737 0.0098916385
0002f0 6a 68 f0 3a 57 b6 f4 3c d3 42 16 3d 96 3d 91 3d
       0.0018341665 0.029872103 0.036684822 0.07091825
000300 c5 77 ba bd 88 0e 6c bb 02 61 83 38 98 8e b3 bd
       -0.091048755 -0.0036019403 6.264636e-05 -0.08767432
000310 26 5a 55 3d 8c 10 38 bd 01 60 91 bd 9f 53 92 3d
       0.052087925 -0.044937655 -0.070983894 0.07144856
000320 e7 f9 85 bd e8 eb 19 3d 16 11 50 bd b9 27 99 bd
       -0.06541806 0.037578493 -0.050797544 -0.074782796
000330 c5 d7 c2 3a e5 fe 45 3d 2c 79 63 bc bd fa b9 bd
       0.001486533 0.04833879 -0.01388387 -0.09081028
000340 76 3b fd bc 93 f2 85 3d 47 e6 7b 3d c2 e3 dd 3c
       -0.030912142 0.06540408 0.061498906 0.027086142
000350 c5 14 a0 bc ed 1b 0b 3d 6f 80 8c 3d 54 f6 82 3d
       -0.019541154 0.03396218 0.06860434 0.063946396
000360 d0 18 82 3c df d7 92 bd 1c 12 f7 bc a6 4c 14 3d
       0.015880972 -0.071700804 -0.030160002 0.03620591
000370 85 7c 5e bc 8a ee 33 3d b4 39 4c 3a 49 ed bd bc
       -0.013579492 0.04392866 0.0007790581 -0.023184435
000380 e2 fd ac bd 9b dd 1f bd ff f3 8e bd ae 1d ba 3c
       -0.08446862 -0.0390297 -0.06980132 0.02271923
000390 da 34 5d 3d 4c 37 13 3d 9f 7f 6a 3d 87 57 92 bc
       0.05400548 0.035941407 0.057250615 -0.017864002
0003a0 be b9 19 bc 20 f9 83 bd dc bf c1 ba 7a 4c b7 3c
       -0.009382663 -0.06444001 -0.001478191 0.022375334
0003b0 c6 78 be bd 9a 93 b9 bd de cb 8c 3c 31 a8 d9 3c
       -0.093003795 -0.09061356 0.017187055 0.026569458
0003c0 bc c7 b4 bd 70 76 0a bc e0 a1 46 3d cf 05 7e 3c
       -0.08827159 -0.008451089 0.04849422 0.015504315
0003d0 bc a5 b0 bc 80 e3 76 bd 1a cd 34 bd 5e 52 bf bd
       -0.021563403 -0.060275555 -0.044140913 -0.09341882
0003e0 f5 04 42 bc 7d d3 2d 3c 75 b9 f3 3b b3 1c b2 bd
       -0.011842002 0.010609505 0.0074378797 -0.0869688
0003f0 4b 1f 21 bd 2e 03 87 3c 88 0d 3c 3d ec d3 5d 3d
       -0.039336484 0.016481008 0.045911342 0.054157183

features.2.bias f4 [16]
000000 63 bd 8e 3c e0 07 d3 bc 35 7b 1f 3d be d5 1b bc
       0.017424291 -0.025760591 0.03893586 -0.009511409
000010 66 0f 91 3d db 67 2f bd a3 a3 9f bc de 58 08 bb
       0.07083015 -0.042823654 -0.019487208 -0.0020804922
000020 e9 43 83 bd 45 49 2d bd 9b 59 72 bd 2c 2f a4 bc
       -0.06409437 -0.042306203 -0.059167486 -0.020042025
000030 85 b0 72 bc c5 1f c9 3d cd fa 2a 3d b2 fa 30 bd
       -0.014812593 0.09820513 0.04174309 -0.04320783

features.5.weight f4 [16, 16, 5, 5]
000000 72 8a c4 3b e9 15 40 3d 91 b0 3d bc 59 ee 92 3b
       0.0059979493 0.046895895 -0.011577741 0.0044839797
000010 74 6e c6 3b 1a 30 92 3b 9f eb 96 3d 24 ff 18 3c
       0.0060556475 0.0044613006 0.0736916 0.009338174
000020 09 b7 33 bc 77 f2 8c 3d e1 30 8d bd fa fb b4 bb
       -0.010968932 0.06882184 -0.068940885 -0.005523202
000030 64 1d 8a 3d 10 c7 41 3d b1 cb cf bc fd 99 17 3c
       0.06743887 0.04730898 -0.025365682 0.009253022
000040 35 09 41 3c bf 03 8d bd 83 53 c4 3d 4f 50 85 ba
       0.01178198 -0.0688548 0.09586241 -0.0010171029
000050 80 0a 92 3d 9a c5 74 bd 97 1e 20 bd 52 f2 c0 bc
       0.07130909 -0.05975876 -0.039091673 -0.023553047
000060 7f 80 8a 3d db 29 bd bd 54 9e 09 bd 0a c0 34 bd
       0.0676279 -0.09236499 -0.03359826 -0.044128455
000070 78 15 25 bd bc d0 bf bd c5 e0 eb bc 99 48 1f bd
       -0.040303677 -0.09365985 -0.028793702 -0.038887594
000080 fd 49 48 3a 76 fa 80 bc e1 82 d2 bd 49 40 26 bd
       0.00076404196 -0.01574443 -0.102788694 -0.04058865
000090 24 7e c4 bd 9a ff ca bd 33 ab 99 ba e7 76 f1 bc
       -0.09594372 -0.099120334 -0.0011723995 -0.029475642
0000a0 c2 c5 6b 3d 89 34 39 3d 63 cd 64 3b a7 e6 1e 3d
       0.057561643 0.045216117 0.003491246 0.038794186
0000b0 90 f7 a2 bd 79 9f 6e 3d 44 80 cd bc 06 4f be 3b
       -0.07957375 0.058257554 -0.025085576 0.00580776
0000c0 fa f3 66 3d 70 07 77 bd ce 9a 25 bd df a0 58 bd
       0.056385018 -0.060309827 -0.040430836 -0.052887794
0000d0 05 ad f4 bc ee 40 fe 3c e8 3e 8b bd 0f c5 88 bd
       -0.029867658 0.03103682 -0.06799108 -0.06678211
0000e0 2c ce a4 bd 04 ee 52 bc 2a 8b b2 3d 42 5b aa 3d
       -0.08047137 -0.01287413 0.0871795 0.08318187
0000f0 1d 06 53 3c 00 28 ad 3d b8 7f 7b 3d 6e 2f 9c 3d
       0.0128798755 0.08454895 0.0614011 0.07626234
000100 2d 03 3d bc 91 5a 8b bd 47 17 b5 bc a7 a6 8c bd
       -0.011536402 -0.068043835 -0.022105826 -0.06867724
000110 8f 87 96 bd 7f 3f 4f bd 2d 2e ac 3c 0d 28 5f bb
       -0.073500745 -0.050597664 0.021018112 -0.0034050972
000120 76 60 2e 3d e4 a1 58 3d 78 a1 29 3d 53 5a 27 3d
       0.04257246 0.052888766 0.041413754 0.040857624
000130 5a 43 92 bd c2 50 ab bd e4 da 8b bd 92 19 26 3d
       -0.071417525 -0.08365013 -0.068288594 0.04055173
000140 18 35 2a 3c 95 0c a2 bd 33 84 93 bd 8b cd 99 bd
       0.010388635 -0.07912556 -0.072029494 -0.07509907
000150 a3 80 89 bc 61 f2 b7 3c 0d 9a a7 bd cc d3 1b bd
       -0.016784972 0.022454442 -0.0818368 -0.038043782
000160 cd d8 0a 3d ac c7 c5 3c 7a 35 20 3d 4c 7d d6 bd
       0.033898164 0.024143063 0.0391135 -0.10473117
000170 9b 88 09 bc e5 d6 6f bd 29 d8 7a bc 67 8d 8b 3c
       -0.008394386 -0.05855455 -0.015310326 0.0170352
000180 dd 1a da bc 86 b4 4a bd b8 e7 28 3d f4 3d 22 3d
       -0.026624138 -0.049488567 0.04123661 0.039609864
000190 99 13 ef bd d7 4c 43 3c 8d 58 e8 bd a6 ae 09 be
       -0.1167366 0.0119201755 -0.11345015 -0.1344553
0001a0 f3 66 a4 bd 5c 9a 1d be d6 4b 1d be 99 b6 48 be
       -0.080274485 -0.15390915 -0.1536096 -0.19600905
0001b0 46 79 28 be 8c 8a 1c be ca 56 af bd 83 64 cf bd
       -0.16452512 -0.15287226 -0.085614756 -0.10126593
0001c0 88 43 62 bd 07 d6 07 be 59 de 7b be 74 a1 6f 3c
       -0.055240184 -0.13265239 -0.24596538 0.014625896
0001d0 84 8f 6e bd 3e d6 4b bd 41 fd db bd e1 ed ce bd
       -0.058242336 -0.049764864 -0.10741664 -0.101039656
0001e0 e4 3d a3 3c 3f 70 34 3d 58 1e bd bd 43 f8 af bd
       0.019926973 0.04405236 -0.09234303 -0.08592274
0001f0 7a a6 57 be 37 2f 9a bc f2 57 99 3d d3 b7 96 3d
       -0.210596 -0.018821342 0.07487477 0.073592804
000200 25 fc 35 bc 78 88 b5 3c 9b ea 21 bc 1d 9b 94 bd
       -0.011107479 0.0221598 -0.009882594 -0.07256148
000210 47 65 97 bd 66 47 3f bd 28 de d9 3c f4 53 11 bd
       -0.07392364 -0.04669895 0.02659519 -0.035480455
000220 22 e8 a1 3d b9 ce ab 3c 0f 12 f9 bc 1d 79 1a 3d
       0.07905604 0.020972596 -0.030404119 0.03771316
000230 c0 7a 9f bc 3e fd 7b bd ad f9 9a bb df ea 40 bd
       -0.019467711 -0.061520807 -0.0047294707 -0.04709899
000240 cc 53 f3 bc ae 75 73 3d 6d 17 9f bd bc 4e 68 bd
       -0.029703043 0.0594384 -0.0776814 -0.056715712
000250 c4 3c 85 3d ef c9 a3 bd c7 1f 8a 3d d8 94 56 3d
       0.06505731 -0.079975 0.06744342 0.052388042
000260 9c 44 47 3b ef 95 35 bc ca 6d f1 bc b6 74 78 bd
       0.0030405885 -0.01108311 -0.029471297 -0.06065818
000270 06 72 91 bc d5 81 3d bd 46 55 cd 3c d7 84 08 bd
       -0.017754566 -0.046266396 0.025065076 -0.03332981
000280 66 81 e6 3c f4 c6 cc 3c b9 4a 5c 3d 0f e4 bf 3a
       0.028137874 0.024997212 0.0537822 0.001464011
000290 c7 d5 b8 3d a0 46 59 bc 7e 95 f0 bc 8a 56 55 bd
       0.0902515 -0.013261467 -0.029368158 -0.052084483
0002a0 3a 32 35 bd d8 ae 9f 3d 8a 59 12 3b f1 bc 90 bc
       -0.044237353 0.07797021 0.0022331201 -0.01766822
0002b0 a0 cf f2 3b c8 b2 98 bb 07 ec 65 3d e3 6e d8 3b
       0.0074100047 -0.0046599843 0.056133296 0.0066050156
0002c0 cd e0 38 bc ce 26 89 3d 1b 1f 7f bd 5f e8 91 3d
       -0.011284065 0.066968545 -0.062285524 0.071243994
0002d0 1f cb 82 bd 8b dc f8 bc 49 df 3c bd 6a c0 74 bd
       -0.063863985 -0.0303786 -0.04611138 -0.059753813
0002e0 aa c5 2d bd 98 d7 3b bd eb 0b a8 bd c1 b8 92 3d
       -0.042424835 -0.045859903 -0.08205398 0.07164145
0002f0 81 58 2e bd 82 f7 7b 3d 51 7e 79 3c 99 74 0f 3d
       -0.042564873 0.06151534 0.01522787 0.035023306
000300 18 a6 66 3d d3 9f 82 3d d3 56 a1 3d c2 2f 29 bd
       0.056310743 0.0637814 0.078778885 -0.04130531
000310 4d 1e 05 bd 8d 36 81 bb 63 ad ad bd ce 67 6f 3d
       -0.0324996 -0.0039432705 -0.084803365 0.058448605
000320 5c 6d 20 bd 9c e5 a4 bd 27 1b 84 bd 43 ba 78 3d
       -0.039166793 -0.08051607 -0.064504914 0.060724508
000330 59 8a 20 3d 2b 56 c2 bd ed 15 a5 bd 57 b3 5c 3d
       0.03919444 -0.094890915 -0.08060823 0.05388197
000340 eb 2e 3e 3d 37 be ba bd a6 36 5a bd 01 54 07 bd
       0.046431463 -0.09118312 -0.053274773 -0.033039097
000350 45 ff 53 3d ed 41 64 bd b6 04 f5 3c 69 40 8a bd
       0.051757116 -0.055726934 0.029909473 -0.067505665
000360 e1 7f 7e 3d 63 5d 48 3d 5b 6f 83 bc b7 95 4d bd
       0.062133674 0.048917186 -0.01604431 -0.050191607
000370 a6 74 4b 3d e6 61 38 bc 9d e4 4b 3c 87 dd 05 3d
       0.04967179 -0.01125381 0.012444642 0.032681968
000380 4f 33 fb bc e5 52 7f bd e0 84 4c bc e4 85 3e bd
       -0.030664114 -0.062334914 -0.012482852 -0.046514407
000390 d8 21 90 3b 10 23 91 3d b8 c1 a3 3d bb fa b2 bd
       0.0043985657 0.07086766 0.07995933 -0.08739229
0003a0 17 46 81 3d d7 47 3f bd fd c8 9e 3b d9 12 39 3d
       0.06312197 -0.04669937 0.004845737 0.04518399
0003b0 a4 38 f0 bc 4e c7 f3 3c d0 49 04 bd d2 03 90 3c
       -0.029323883 0.029758122 -0.032296956 0.017579947
0003c0 22 84 47 bd 6a b2 b6 bc be 7f 86 bd 02 61 8a bd
       -0.048709996 -0.022301871 -0.06567334 -0.06756784
0003d0 69 88 88 3c 55 a7 94 3d b7 62 e9 3c ca e6 61 3c
       0.016666608 0.072584786 0.028489454 0.013787935
0003e0 6c ef 5c 3d 86 c8 22 3d 1c c2 a1 bc bb bf b4 3c
       0.053939268 0.039742015 -0.019745879 0.02206408
0003f0 4b 72 80 bd 70 d9 1c bd 60 e0 e1 bc 81 2b 1f bd
       -0.062718 -0.038293302 -0.02757281 -0.038859848

features.5.bias f4 [16]
000000 0a f8 39 3d f3 10 ed bc d0 17 e1 bd b1 25 08 3d
       0.045402564 -0.028938746 -0.1099087 0.03323907
000010 b6 e0 66 bd bb 60 3b b9 4e 97 f2 3b 29 13 37 3d
       -0.056366645 -0.00017869745 0.007403291 0.044696007
000020 8c 18 f5 3c 73 05 58 bd ca f3 fa bc 5c d7 ea bc
       0.029918931 -0.05273957 -0.030633826 -0.028667144
000030 df 72 63 bd d7 2c 9c bd f8 92 35 b9 9e 5c 8c bd
       -0.05552947 -0.0762574 -0.00017316255 -0.06853603

features.7.weight f4 [16, 16, 5, 5]
000000 48 22 59 bd d4 fb ad 38 1e 68 a5 bd 35 4a c9 bc
       -0.05301121 8.2961895e-05 -0.080764994 -0.024571517
000010 66 d0 83 bd 10 58 81 3d f3 52 9b bd 1a d1 63 bd
       -0.06436233 0.06315625 -0.07584181 -0.055619337
000020 82 de 84 3d fd 0e ce bc a2 26 95 bc 6a 35 87 3b
       0.064877525 -0.025153631 -0.018206898 0.0041262405
000030 7b 15 2b 3d 50 ee 83 3c 9d 32 d2 bd 31 34 25 bd
       0.041768532 0.016104847 -0.1026356 -0.040332977
000040 04 54 10 bd 9b 54 cb bb 57 60 79 bd bf ea 99 bd
       -0.035236374 -0.006205154 -0.060882892 -0.075154774
000050 40 4e 0a bd 1b 7e 5e bd c0 a8 7f bc 4d d3 dc bd
       -0.03376603 -0.054319482 -0.015604198 -0.1078249
000060 20 8b ac 3c 3f 5d d0 3b 33 24 93 3c 99 15 84 bd
       0.021062434 0.006358772 0.017961597 -0.06449432
000070 11 ff 63 bd 88 63 c0 bc 9a f7 95 bb 67 3f 69 bc
       -0.055663172 -0.02348496 -0.0045766355 -0.014236308
000080 1e 0a 57 bc 05 84 88 bd 50 d5 49 bd bd 7a 15 bd
       -0.013124971 -0.06665806 -0.049275696 -0.036494005
000090 c5 ac 02 3d 2f 3c 53 3d 8a 73 17 bd 40 47 6f bb
       0.031903047 0.051571067 -0.03697542 -0.0036510974
0000a0 ff 73 cf bc 85 10 2e 3d 7d b3 5d bd 22 1b 17 3d
       -0.025323866 0.042496223 -0.05412625 0.03689111
0000b0 55 64 34 bc 19 64 d3 bd 0f bc 64 3b f2 4b cd bd
       -0.011010249 -0.103218265 0.003490213 -0.10024251
0000c0 d0 1a fb 3c 71 4c 7a 3d 23 b2 28 3d 56 f5 56 3d
       0.030652434 0.061108056 0.04118551 0.052480064
0000d0 57 55 1b bd 6f 1a 84 bd a2 66 ab bc b9 97 05 3d
       -0.037923183 -0.06450354 -0.020922963 0.032615397
0000e0 d0 18 13 3d 94 9f ee 3c ed 2b 6b 3d 01 ae 42 ba
       0.035912335 0.029128827 0.057414938 -0.00074264413
0000f0 a1 43 91 bd 42 2d ad bc 4c 92 45 bd e3 53 c3 bc
       -0.07092977 -0.021139745 -0.048235223 -0.023843711
000100 e3 7d 2b bd be 3e 3f 3c 50 19 89 bc a0 67 98 bd
       -0.0418681 0.011672674 -0.016735703 -0.0744164
000110 74 2f 96 bd 8a dd 90 3d db 5b e1 3c f8 d7 60 3d
       -0.0733327 0.07073505 0.02750962 0.054893464
000120 ba 84 8a bc 36 fa 05 3d 5f da 83 3d b4 2b 92 bd
       -0.016908992 0.032709323 0.06438135 -0.07137242
000130 21 80 05 3d fb 6a 05 bb 75 c1 87 bd 5d 0e e5 bc
       0.032592896 -0.0020357955 -0.06628696 -0.02796095
000140 a8 1a 03 3d ec e8 47 3d 16 27 d1 bd 00 a6 78 3d
       0.032007843 0.048806116 -0.10212533 0.060705185
000150 ad 90 67 3d ea fb 25 bd 34 6c a5 3c 30 09 44 bd
       0.056534458 -0.040523447 0.020193197 -0.047860324
000160 d1 f9 15 3d cb 60 a0 bd 91 b4 6a 3d 41 0d 94 bd
       0.036615197 -0.07830962 0.057301108 -0.072290905
000170 ce d7 50 3b 18 01 e8 bc 94 6e 31 3d ed 46 cf bd
       0.003186691 -0.028320834 0.043318346 -0.1012095
000180 53 ad ec b8 ff f6 e8 bb a9 26 02 3d 70 be 05 3d
       -0.00011285641 -0.0071095224 0.03177515 0.03265232
000190 96 82 5b 3b af d9 28 bc f6 35 8b bd 45 59 98 bc
       0.0033494583 -0.010305806 -0.067974016 -0.018597255
0001a0 4a 7b fa ba e5 83 5b 3d 04 dc d3 bc 20 5a 2b bd
       -0.0019110229 0.05359258 -0.025861748 -0.041833997
0001b0 20 5f fc bc 8a bf 31 bd f4 a6 1c 3d 48 8b 52 bd
       -0.030807078 -0.043395557 0.038245156 -0.05140236
0001c0 89 fc f8 bb 02 7d e4 bc 22 c1 32 bd 06 00 0c bd
       -0.007598464 -0.02789164 -0.043641217 -0.03417971
0001d0 a1 4e 42 3b 10 ec a4 bd 53 da 88 3d c1 da bc bc
       0.0029648917 -0.08052838 0.06682267 -0.023053529
0001e0 87 32 82 bd e9 d3 b3 3a bf ac e4 bc 5e 16 4f bd
       -0.063572936 0.001371977 -0.027914403 -0.05055844
0001f0 13 d1 52 3c fc 82 0d bd 08 76 ee 3c 3d 4e 35 3d
       0.01286723 -0.034548745 0.029109016 0.044264067
000200 d9 fd f6 3c f3 8e 34 bd 40 63 29 3d 97 ee 20 bd
       0.03015034 -0.04408164 0.041354418 -0.039290037
000210 cc 87 7b bd db 06 50 3d 72 9e b6 bc 4e e5 25 3d
       -0.061408803 0.050787788 -0.02229235 0.040501885
000220 ae f1 74 3d 5d 60 a1 bd 27 69 bd bb 1d 7a 8c bd
       0.059800796 -0.07879708 -0.0057803574 -0.06859229
000230 2b 7c d0 bc ac 43 50 bd 99 e8 13 3d 34 af 2f bd
       -0.025449833 -0.050845787 0.036110494 -0.042891696
000240 14 b2 9a 3d 6e c9 30 bd dd c4 e6 3b 3d a1 bb bd
       0.07553497 -0.04316085 0.007042511 -0.09161613
000250 af c9 1c 3d 39 9f 7f bd 3b 44 b5 bd e9 51 11 3d
       0.038278278 -0.062407706 -0.088509046 0.035478506
000260 82 29 74 bd 26 fe cd bd b7 d0 2b 3d 88 d9 8f bc
       -0.059609897 -0.100582406 0.041947093 -0.017559782
000270 83 17 e2 ba c4 54 b3 3c cc d8 0e 3c ff 48 c7 bd
       -0.0017249439 0.021891005 0.008718681 -0.0973072
000280 8f 65 2e 3d 7b f3 df bd 33 4f 19 3d ab 34 a1 bd
       0.042577323 -0.10935112 0.037429046 -0.07871374
000290 72 0d ef bd ce 5d 9d 3c 32 cc 39 bd 0f e8 3f 3d
       -0.11672486 0.019209769 -0.04536075 0.046852168
0002a0 22 70 d2 bd d7 3b de bd 35 ed 2e bd 08 30 a4 bc
       -0.10275294 -0.10851257 -0.042706687 -0.020042434
0002b0 d1 1e 84 bd e9 85 72 bd 2f 50 cc bc f1 4d 13 be
       -0.0645119 -0.059209738 -0.024940578 -0.14385201
0002c0 1e d3 98 3b 2b 84 c1 3c 55 02 a9 bd 9a af 24 bd
       0.004663839 0.023622593 -0.08252398 -0.04020653
0002d0 4a 87 22 bd 24 e5 11 3d 28 eb 3c bc b7 81 07 3d
       -0.039679803 0.035618916 -0.011530675 0.03308269
0002e0 d7 df eb bb d3 28 8e bc cb a5 ff 3b 79 33 ce bd
       -0.0071983146 -0.01735345 0.0078017465 -0.100684114
0002f0 36 a0 ab 3c dd b1 a5 bd a5 47 b2 bd c3 31 82 bb
       0.020950418 -0.08090565 -0.08705071 -0.003973217
000300 02 8b 0a 3d c1 81 e3 bd f9 df a4 bd 18 d8 55 bd
       0.033823974 -0.11108733 -0.08050532 -0.052208036
000310 85 ec 53 3d 05 23 67 3d 8a b9 52 3d a8 30 b9 bc
       0.051739234 0.05642988 0.051446475 -0.022606209
000320 bf 79 81 bd 13 3b 9b bd 25 0d e1 3c 95 5c 1f bd
       -0.06322049 -0.07579627 0.027472088 -0.038906652
000330 8a f3 da 3c d5 31 04 3d bc 57 87 bd b6 dd bf bd
       0.026727457 0.032274086 -0.06608531 -0.0936846
000340 47 45 64 bd f6 4d 0a be 0f df 44 bc b5 54 a6 bd
       -0.05573013 -0.13506302 -0.012016072 -0.08121625
000350 32 9f b4 bd ad b6 1d bd 1f 59 c3 bd 4a 03 1d bc
       -0.088194266 -0.03850429 -0.09538483 -0.009583304
000360 a4 78 89 3c 94 1f e2 3c 6e 98 8d bd e4 a4 00 3d
       0.016781159 0.027602948 -0.06913839 0.031407252
000370 6f c3 33 bd 43 b9 8e 3c 46 46 2b bd 77 38 e9 bb
       -0.043887552 0.017422324 -0.041815065 -0.007117327
000380 7b f6 2d bc 4b fb 00 bd a3 89 08 bd 3d 36 a6 bd
       -0.010617848 -0.03148965 -0.033334386 -0.08115814
000390 c1 dc 5e bb 7e fd a2 3b b6 f5 1a 3d 84 92 93 3c
       -0.0034006091 0.0049740663 0.037831984 0.0180142
0003a0 07 58 09 3d ed 6d 55 bd 60 e9 8d 3d 55 e4 a2 bc
       0.033531215 -0.052106787 0.069292784 -0.019884268
0003b0 58 68 03 bc 07 8d 52 3d c7 8b 82 3d e0 d9 a7 bd
       -0.008020483 0.051404025 0.06374317 -0.08195853
0003c0 73 92 53 3d e0 2d 2b 3d 15 3b 89 3d 1b fc e1 3c
       0.051653337 0.041791797 0.06700722 0.027586034
0003d0 52 36 59 3d 56 77 b5 bd ba 47 a1 bd 18 eb 9b 3d
       0.05303032 -0.08860652 -0.07875009 0.076132
0003e0 d6 c1 9f 3c af 21 a3 bd 30 8d a2 bc 0a 75 9f bd
       0.019501608 -0.07965409 -0.019842714 -0.07785995
0003f0 0c 7b 85 3c df bc 0b bd f1 43 73 bd f7 72 92 bc
       0.016294025 -0.03411567 -0.059390966 -0.017877085

features.7.bias f4 [16]
000000 de 9c 53 bd ad 01 41 bd b4 42 ba bb e7 21 5b 3c
       -0.051663272 -0.04712074 -0.005684221 0.013374782
000010 b7 86 8f 3b e3 54 b2 bb b5 1e 0a bd b9 e0 23 bc
       0.004380073 -0.005442248 -0.03372069 -0.0100023085
000020 1d 2d fa bc ee b8 b2 bd 3c 4f da bc db 3b 9d 3b
       -0.03053909 -0.08726679 -0.02664911 0.004798395
000030 ac ad 67 3c db 79 33 bd 0f 31 fd 3c 5e da ec bd
       0.014140528 -0.043817382 0.030907182 -0.11565088

features.10.weight f4 [32, 16, 5, 5]
000000 ed 41 75 3d 1f bf a2 3b f3 2e 24 bd 1a b3 46 bc
       0.059877325 0.004966631 -0.040083837 -0.012127662
000010 83 83 46 3d e8 1f 7e bd f6 fd 9d bc 37 28 8a bd
       0.048465263 -0.062042147 -0.019286137 -0.067459516
000020 96 7f 65 3b 58 12 82 3c 84 2b 52 3d 61 94 78 bd
       0.0035018674 0.015877888 0.05131103 -0.06068838
000030 91 3e ec b9 0f ac 22 bd c0 54 8e 3d 0d ea a2 bc
       -0.00045060043 -0.03971487 0.069497585 -0.019886995
000040 33 5f 57 bd d7 84 aa bc b5 db 95 3d 2f 5a 7a 3d
       -0.052581023 -0.020815296 0.073172964 0.061121162
000050 ae 70 35 3d 4c 07 87 3c 63 3e c3 bc 41 fa fc ba
       0.044296913 0.016482972 -0.02383346 -0.0019300656
000060 0a f8 83 b9 c2 5d 9d bc 41 56 0f bd e6 b2 7c bd
       -0.0002517107 -0.019209746 -0.034994368 -0.06169405
000070 28 38 d1 3d fe 35 23 3e 74 a2 07 3c 9a bb 45 bd
       0.10215789 0.15938565 0.008278478 -0.048274614
000080 06 73 a2 bd 28 ec fd 3c 99 64 1a 3e 4b 0d a8 bd
       -0.07932095 0.030996397 0.15077437 -0.082056604
000090 2d 4e d6 bd 51 82 b4 bd e7 6d 21 3d 5d ed f4 3d
       -0.104641296 -0.088139184 0.03941145 0.11959336
0000a0 a0 70 19 3d d5 70 e4 bc 34 1d 67 bd ba cd 09 3d
       0.037460923 -0.027885834 -0.056424335 0.03364346
0000b0 3d e9 e4 3d 75 09 23 3c 17 2d a0 bd 85 78 ac bd
       0.11177299 0.009950985 -0.078211 -0.08421425
0000c0 1b 1f 34 bc 82 4a b2 3d 2d 9e 7b 3d 5b 7d 50 bb
       -0.010993744 0.087056175 0.061430145 -0.0031813
0000d0 34 f0 93 bc 4f 3b 83 bd 87 31 8c 3d 96 a0 2b 3d
       -0.018058874 -0.064077966 0.06845384 0.041901194
0000e0 2c 23 33 bc 0c 8c 58 3d 5d 65 ed 3c 67 6b be bc
       -0.010933679 0.052867934 0.028978998 -0.023244573
0000f0 4e 41 6c bd 3c cd 41 3d df f6 28 3d 9f 62 50 bd
       -0.057679467 0.047314867 0.04125106 -0.050875302
000100 44 cd 09 3d 7b b8 8a bd be 08 44 3d aa 8e c9 3c
       0.033643022 -0.06773468 0.0478599 0.02460416
000110 9b d7 74 bd bb eb b3 3c 28 db 7f 3c 78 c5 7d bc
       -0.05977593 0.021962991 0.015616216 -0.015488975
000120 20 26 64 bd c0 4e 32 3c f6 2e d7 3c fc c9 f0 3c
       -0.05570042 0.010883033 0.02626751 0.029393189
000130 47 df 1d bc 14 9d fc 3c 68 99 4b 3d c0 2a 8d 3d
       -0.009635753 0.03083662 0.049706846 0.068929195
000140 64 0d 00 bd d9 6d 00 bd 10 63 b2 bc c6 3d b2 bc
       -0.03126277 -0.03135476 -0.021775752 -0.021757971
000150 4a a4 2d ba 18 67 04 bc 47 38 1a 3d 95 cb 17 3c
       -0.0006623907 -0.00808122 0.037651327 0.009264846
000160 55 8d af bc 28 2c ba 3b 3e 7f 40 3d c6 6f 57 3d
       -0.021429697 0.0056815334 0.046996348 0.05259683
000170 2c 1c 8e 3c cc 79 80 bc 79 fa 26 bc 1c 14 ee ba
       0.017347418 -0.015683077 -0.010191553 -0.0018163952
000180 ae 66 41 bd 05 9d 8c bc c5 3f 78 bd 46 b7 5a bd
       -0.047217064 -0.017164716 -0.06060769 -0.05339744
000190 cf 00 53 bd df 41 81 bd 40 3d 64 3d 4f 60 06 3d
       -0.051514443 -0.06311392 0.055722475 0.03280669
0001a0 b7 33 bb 3c 0a 40 85 ba 4a 4c 78 bd b7 95 9b bd
       0.022851808 -0.001016618 -0.06061963 -0.07596915
0001b0 96 21 12 3d f2 15 20 3d d5 eb 1e 3d 15 74 90 bd
       0.03567656 0.03908343 0.038799126 -0.07053391
0001c0 1f 7c 03 bd 06 08 3c bd 76 9a 80 bc e6 4a c7 bb
       -0.032100793 -0.04590609 -0.015698653 -0.0060819266
0001d0 76 40 d0 3c 11 67 68 bd fe fd b3 3c b5 f8 4a 3c
       0.025421362 -0.056738917 0.021971699 0.012388398
0001e0 e9 15 87 3c e7 11 41 3d 8a f2 76 3c 19 6d 4f bc
       0.01648994 0.047136214 0.015072474 -0.012660288
0001f0 9a fb 42 3d 59 84 61 3d 1f 32 c3 3b 4b 62 7f bd
       0.047603227 0.055057857 0.0059569026 -0.0623496
000200 be 38 24 3c ee d4 b9 3d d0 55 19 3d e8 02 67 bd
       0.010023294 0.09073816 0.037435353 -0.056399256
000210 06 74 f0 bd c7 e2 45 3d da 9e ff 3c af cf 55 bd
       -0.1174088 0.048311975 0.031203676 -0.052200016
000220 83 04 09 bd 77 f8 34 bd a9 02 3f 3d d6 f0 ac 3d
       -0.03345157 -0.044182267 0.046633396 0.08444373
000230 28 59 c8 bd dd b0 90 bd f9 d0 0a bd cd 55 eb bc
       -0.0978263 -0.07064984 -0.033890698 -0.028727436
000240 ed c9 a5 3d 13 60 a3 bc b0 b3 12 bc 64 c0 01 bd
       0.08095155 -0.019943273 -0.008953974 -0.03167762
000250 db a3 49 bd de 10 53 3d 84 91 94 bd 80 63 75 bb
       -0.04922853 0.051529758 -0.072543174 -0.003744334
000260 62 6c 6d bd bc 89 35 3c c9 e2 a1 bd 34 dd 35 3d
       -0.05796469 0.011080202 -0.07904584 0.04440041
000270 91 6d 4d bb 52 d6 e4 bc 19 a3 df bc 17 c8 b7 bc
       -0.0031345824 -0.027934227 -0.02729945 -0.022434277
000280 d7 c8 d3 3c b6 ba 8a bc f0 ba 5a bd ca 56 8e bd
       0.025852604 -0.016934734 -0.053400934 -0.069501474
000290 2c cb 35 3d e0 49 3b bd 2c 87 01 bd 06 4c 33 3d
       0.044383213 -0.04572475 -0.03162305 0.043773673
0002a0 05 5c 8c bd 0b f1 da 3b 68 e3 c2 bc b5 27 8c 3a
       -0.06853489 0.0066815666 -0.023790076 0.0010692986
0002b0 aa 59 31 3c 06 f1 d9 3c de b8 49 bd 8b 56 8c bd
       0.0108246 0.026604187 -0.04924857 -0.06852444
0002c0 fd 72 aa bd 1d 5a ff bd 68 6e bb bc 97 bb b9 3a
       -0.083227135 -0.124683596 -0.022879794 0.0014170286
0002d0 2e fa fe bd ef 21 e8 bd 9c ac 0c be fb a4 46 3d
       -0.12450062 -0.11334597 -0.1373772 0.04849718
0002e0 a8 b1 02 3d 29 4f 14 bd eb 1d f0 bd 90 1c ad bd
       0.031907707 -0.036208306 -0.117244564 -0.084527135
0002f0 26 cf 4d 3d 8b 41 96 3d 63 49 78 bc 70 a9 02 be
       0.05024638 0.0733672 -0.0151542155 -0.12759948
000300 68 1d 18 be eb 8b 01 3c b8 69 27 3d ff 17 87 bd
       -0.14854968 0.007906894 0.040872306 -0.06596374
000310 c0 02 ad bd 47 9d 62 bd 3a 24 54 3c 44 7a 1b bd
       -0.0844779 -0.055325773 0.01294809 -0.0379584
000320 70 fc 29 bd 12 1a 53 bd 98 bf 32 bd 90 df e0 3d
       -0.04150051 -0.051538534 -0.04363975 0.10980141
000330 01 bb f7 3d ec f8 d7 bd e7 dc 5c bd a2 c1 28 bd
       0.12096215 -0.10545525 -0.053921606 -0.041200288
000340 8b ac b2 3d b9 aa 2d 3e c5 ca 6c bd b5 53 59 bd
       0.08724316 0.16959657 -0.057810564 -0.053058345
000350 61 ce 06 be 02 e1 c4 3d 17 ff cd 3d 90 09 bc bd
       -0.13164665 0.09613229 0.1005842 -0.091815114
000360 a7 02 1a bd ca bd d8 bd dc d3 8f 3d 42 e8 39 3e
       -0.037600186 -0.105830744 0.07022831 0.18155006
000370 cd 0a ed 3c cf e3 73 bd 49 70 af bd 1b 7a 4c bd
       0.028935814 -0.059543427 -0.085663386 -0.049921136
000380 22 80 01 3e 1e 21 0c 3d a9 fb a4 3d f0 ab 8d bd
       0.12646535 0.03421127 0.08055813 -0.0691756
000390 5b 48 e0 bd 1b 6b 1c be 8f 53 2a be 10 e4 82 be
       -0.10951301 -0.15275232 -0.16633438 -0.25564623
0003a0 99 89 d4 be 70 6c 9b be f5 a0 13 be 49 80 c4 3d
       -0.4151123 -0.3035617 -0.14416869 0.09594781
0003b0 69 a6 11 3d 24 45 58 be 03 7f 59 3d 3c ec ac bd
       0.03555909 -0.21120125 0.053099643 -0.08443496
0003c0 68 59 87 3e 3f 0b db 3d 43 ad da bd d7 39 f3 bd
       0.264354 0.106955044 -0.10677578 -0.118762664
0003d0 6d ae ca bc 4f 13 16 3e ce 86 09 3e 92 e3 72 bd
       -0.024741376 0.14655803 0.1343033 -0.05929906
0003e0 33 24 d9 bd 3e 13 0c bb 90 51 ac bc 35 25 9b bd
       -0.106026076 -0.0021373774 -0.021034986 -0.07575456
0003f0 1d 1c b6 3c 5f 27 07 3c 3d 57 29 3d 3e a3 a6 bd
       0.022230202 0.008249133 0.041342963 -0.08136605

features.10.bias f4 [32]
000000 ec 58 f5 3c 76 6c 79 bd 17 6c d3 3c 1c 81 c0 3d
       0.029949628 -0.060894452 0.025808377 0.09399626
000010 2b 7b 86 bd f3 43 17 3d 74 a3 f1 3c 99 d2 a0 bd
       -0.06566461 0.036930036 0.029496886 -0.07852668
000020 ee 3c 47 3b 99 34 cd 3d 31 70 0a bc 39 69 61 bd
       0.0030401307 0.10019798 -0.0084496 -0.05503199
000030 4a a2 3b 3c 34 fe 57 3d 67 70 a6 3d 1e 1b d4 bb
       0.011452267 0.05273266 0.08126908 -0.006472959
000040 2a d2 db 3c 9d f1 2a bd 9d 47 b9 3d 28 b0 2e 3e
       0.026833612 -0.041734327 0.09046862 0.17059386
000050 7e 46 64 bd 1a 67 cd bd 44 e3 7c bd ac 91 1f bd
       -0.05573129 -0.10029431 -0.061740175 -0.038957283
000060 fb 36 6b bd 30 4c a4 bc 95 4c 47 3d 85 99 88 bb
       -0.05742548 -0.02005586 0.04865702 -0.0041686916
000070 4f 02 99 3c 25 23 af 3c e1 fe e9 3d 4c ee fe bd
       0.018677859 0.021379063 0.114255674 -0.12447795

features.12.weight f4 [32, 32, 5, 5]
000000 42 4c 1e 3b 51 54 8a bd 19 70 27 3d 23 e0 ce bc
       0.002415434 -0.06754363 0.04087839 -0.025253361
000010 9c 82 3a bc 2d 0b 59 bd 19 e9 ba 3b d5 91 a0 bd
       -0.011383679 -0.052989174 0.005704057 -0.07840315
000020 fc 70 98 3c 90 1f b0 bb b6 7e 85 bc 49 5d 65 3b
       0.018608563 -0.0053748563 -0.016295772 0.003499823
000030 e8 f8 04 bc d7 ac e7 bb 6a 25 19 bd 4c 12 28 3c
       -0.0081159845 -0.0070701647 -0.037389196 0.010258269
000040 b8 b3 79 bc a2 6b a8 bd b8 75 31 bc 6d 24 75 bc
       -0.015240602 -0.08223654 -0.010831289 -0.014962298
000050 81 e2 6a bc 3f 83 f7 bb ce 27 28 bd 73 85 82 bb
       -0.014336229 -0.0075534876 -0.041053586 -0.0039831935
000060 8e 8f d8 3c 77 56 76 bd 02 1a 23 bd 1d 89 77 bb
       0.02643564 -0.060141053 -0.039819725 -0.0037770935
000070 22 0b 5f bc 73 fe 57 3d ab 54 45 bd 94 ed 42 bd
       -0.013613494 0.052732896 -0.04817645 -0.047589853
000080 87 a4 41 bd 50 f6 10 3c 7d 92 b5 3c 47 97 26 bd
       -0.047276046 0.008847788 0.022164578 -0.040671613
000090 a2 4b 86 3c d0 d7 3a 3b 56 49 33 bb a4 08 2b ba
       0.016393486 0.0028509982 -0.0027356944 -0.000652442
0000a0 97 2b 52 3d aa 5b 8c 3c 8f ef 3e bd fd 3d 59 3d
       0.0513111 0.017133553 -0.04661518 0.053037632
0000b0 93 71 1c 3d 7c 00 20 bc c5 24 75 3d 2a a8 b9 3c
       0.03819425 -0.0097657405 0.05984952 0.022663195
0000c0 40 3c 12 bc ee ec 9b bc 41 6a 8d bb e8 0d 90 3c
       -0.0089254975 -0.019033875 -0.004315645 0.017584756
0000d0 55 4a 23 bc 63 e5 b3 3a eb 5d 16 bd 5d db 51 3d
       -0.009966453 0.0013724979 -0.03671066 0.05123459
0000e0 e5 45 f0 bc 79 d0 e0 bc 25 0e 58 3d 1a 23 d2 bb
       -0.029330203 -0.027443158 0.052747864 -0.006412876
0000f0 dd c1 c4 3b d1 53 3d bd eb b8 69 bc 75 11 ee 3c
       0.0060045556 -0.04622251 -0.014265279 0.029061059
000100 48 98 8b 3c 50 cb 34 bd 60 ec 1d bd 76 61 2f bd
       0.017040387 -0.044139206 -0.038555503 -0.042817555
000110 ba 17 06 bd a5 c6 6c 3c a8 b8 95 bd f2 1b bf bc
       -0.03273747 0.014451657 -0.07310611 -0.023328755
000120 bc 26 72 bd 3d f8 50 bd a0 07 22 bd 05 61 03 bd
       -0.05911897 -0.05101799 -0.039558053 -0.032074947
000130 26 cb 8c bc 1d 61 37 3d d8 9e 1d 3d eb e2 d6 bc
       -0.017186712 0.04477035 0.038481563 -0.02623125
000140 87 4c 42 bd 97 9d 2b bd 1a d0 48 bd 2d 11 83 bc
       -0.047436263 -0.041898336 -0.049026586 -0.015999401
000150 f4 c0 eb bc 7a 84 67 bd da 63 4f bd f3 66 f4 bc
       -0.02877853 -0.056522824 -0.050632335 -0.029834246
000160 d3 cf 30 3b 15 e9 35 bd a3 39 a2 bd 39 8a 25 bd
       0.0026979342 -0.044411737 -0.079211496 -0.040415023
000170 16 d0 82 3c 4e be 4d bd 4f 6f 2c 3d a6 5d 87 3c
       0.015968364 -0.050230317 0.04209834 0.016524147
000180 ab 01 6d 3a 47 a5 49 bc 38 3f ed bc fa c1 e2 3c
       0.0009041081 -0.012307472 -0.02896081 0.027680386
000190 f9 82 5a bd 1a f1 a6 3c 28 b6 ce bb 80 84 eb 39
       -0.05334756 0.020378638 -0.006308336 0.00044921413
0001a0 a8 72 f2 3b 96 41 f4 3c 2d 7a 18 3d b4 22 4c 3c
       0.007398922 0.02981643 0.03722589 0.012459446
0001b0 0d 23 1a 3d 20 c9 ed bc 57 cf 6f bd 7a 02 7b bd
       0.037631083 -0.029026568 -0.058547344 -0.06128166
0001c0 61 00 f0 bc 5f b8 e8 3c db 7a fa bc 80 c4 62 ba
       -0.029297056 0.028408227 -0.03057616 -0.00086504966
0001d0 c4 a0 f1 bc cf c2 66 bd 07 16 77 3d e1 ee 77 bd
       -0.029495604 -0.056338128 0.06032374 -0.060530547
0001e0 26 cc b5 3c 7d c2 15 3d 1a d8 dc bc 18 5c a3 3b
       0.022192072 0.03656243 -0.026958514 0.0049853437
0001f0 0e 3b ec bc 36 7e 44 3d 98 73 32 3c 72 2e d8 bc
       -0.028836753 0.047971927 0.0108918175 -0.026389334
000200 e2 b7 3f 3c 11 db 65 bd a1 c8 76 3c 18 ec 95 3c
       0.011701556 -0.05611712 0.015062482 0.018301055
000210 a2 8a 2f bd 20 c4 77 bd 6f 34 15 bd 09 0c 61 bd
       -0.04285682 -0.060489774 -0.036426958 -0.05494312
000220 a0 21 07 3d 2f 61 76 3b 71 89 3b bd 4d 98 e1 bc
       0.03299105 0.0037594547 -0.04578537 -0.027538443
000230 f1 26 7f 3a 3e 8e 2e 3a 88 bd 8b bd be 69 6e bd
       0.0009733281 0.0006658769 -0.068232596 -0.058206312
000240 90 8b 4d bd 11 81 de ba 5b f7 6d bd 7d 4c 0c bd
       -0.050181925 -0.0016975721 -0.058097225 -0.034252632
000250 5a ba 83 bd e4 27 15 3c a9 2e e9 bc 2d a8 23 bd
       -0.06432028 0.009103749 -0.028464632 -0.039955307
000260 0d d8 ee 3b 35 dc 62 bd d8 54 29 3d 43 28 1d bd
       0.007288939 -0.055385787 0.04134068 -0.038368475
000270 a1 1d f3 3c f1 36 30 bc ee a0 35 bd e4 b4 5d 3b
       0.029677214 -0.010755287 -0.044342928 0.0033829743
000280 3e f6 48 3c 11 82 01 3d 4c bc a2 bb 33 92 70 bc
       0.01226574 0.03161818 -0.0049662944 -0.014683294
000290 51 e1 52 bd 09 a2 b3 bd 99 8a 09 3c 21 4c 57 3d
       -0.05148441 -0.0877114 0.008394861 0.052562837
0002a0 fb 01 e3 bc 95 b5 55 bd 29 17 96 bd ff 98 c9 3c
       -0.027710905 -0.052175123 -0.07328636 0.024609087
0002b0 89 1a 83 bd af 18 ca 3b 4e c5 66 3c 65 95 7c 3d
       -0.064015456 0.0061674933 0.014085127 0.06166591
0002c0 f6 d1 4c 3d 29 82 85 3d 08 07 ba bc d8 39 5e bd
       0.05000492 0.06518967 -0.02270843 -0.054254383
0002d0 0e 75 49 bd 2a 21 f2 bc a2 fb 30 3d 2f 72 6e 3d
       -0.049183898 -0.02955683 0.043208726 0.058214363
0002e0 e9 eb b8 3c 74 8b 60 3b 65 12 53 3d bb 03 42 bd
       0.022573428 0.0034262808 0.051531214 -0.04736684
0002f0 1a 49 32 bd 4f 1b 13 3c 03 d7 29 3d 1d 72 21 bc
       -0.043526746 0.008978679 0.041464817 -0.009853867
000300 75 c1 1d 3d 4e f7 0e 3c 9a 2d 83 bd 7c 91 45 3c
       0.038514573 0.008725954 -0.06405182 0.012058612
000310 b2 fd 27 bd e3 58 c2 3b 28 0f 63 3d ff d7 5d 3d
       -0.041013427 0.0059310063 0.055434376 0.054161068
000320 ac bd 60 3d 84 b2 dc bc 1f d7 dd 3b 5d 13 72 3b
       0.054868385 -0.026940592 0.006770029 0.003693781
000330 7c 86 dc 3b 16 6b 32 bd c7 c0 dd bc 8b 28 2c 3d
       0.006729899 -0.043559156 -0.027069462 0.042030852
000340 cc 3b 96 3c 6a 1c e2 bb 71 52 22 3b bf 1e 61 bd
       0.01833906 -0.00690036 0.0024768377 -0.054960962
000350 60 91 58 bc bf 8a b4 3c bc 34 2b bd 9d d5 77 3c
       -0.013218254 0.022038816 -0.04179834 0.015126613
000360 7c d4 95 bd 08 6d 0c bd 30 28 fc 3c f4 88 15 bd
       -0.07315919 -0.034283668 0.030780882 -0.03650756
000370 e2 cd 5e 3b 4b 25 af 3b 9e fe 74 bd e3 78 3f 3d
       0.0033997227 0.005345022 -0.059813134 0.046746146
000380 0d 35 4d 3d aa 3d 3d bd 4f 27 36 bc 67 e1 cb 3b
       0.05009942 -0.046201386 -0.01111777 0.0062219384
000390 9f e6 33 bc 9a a3 ba bc 9f e0 38 bd ff 71 9b bc
       -0.010980277 -0.02278309 -0.04513609 -0.018975256
0003a0 23 40 8f 3b f1 c5 3d bd 07 21 2e 3d 36 9b 0d 3d
       0.0043716594 -0.04633135 0.042511966 0.03457185
0003b0 7d f0 f6 3c cb 8d a0 bc 42 50 58 3d 4f e8 13 bd
       0.03014397 -0.019598862 0.052810915 -0.03611022
0003c0 eb 9a 37 3d b9 54 72 bd 6a ac 48 3b 5d 46 43 bd
       0.044825476 -0.05916283 0.0030620345 -0.047674526
0003d0 c2 78 b5 bb 2e e0 4c 3c d1 d5 be 3a dd 60 05 bd
       -0.005538077 0.0125046205 0.0014559572 -0.03256308
0003e0 3b 30 b4 bc e9 f0 87 bd 0c 73 21 bd 73 53 4f 3d
       -0.021995654 -0.06637747 -0.039416358 0.050616693
0003f0 9c b5 ce bc b3 fe 4d bd 70 63 1b 3d 27 33 04 3b
       -0.025233082 -0.05029173 0.037936628 0.002017209

features.12.bias f4 [32]
000000 e3 3a e9 bc f2 a2 d5 3d 2e be e7 3d d9 bd 84 bc
       -0.028470462 0.1043147 0.11315571 -0.016203808
000010 4a b0 6e 3c 2f 04 18 3e d5 3d f9 3c ec fc 97 3d
       0.014568398 0.14845346 0.030424992 0.07421288
000020 29 5b 63 bd 0d 90 8f 3b fa bb 15 bc 71 5e d5 3c
       -0.05550686 0.004381186 -0.009139055 0.02604601
000030 2f 8a 83 3c 56 d0 df bc a6 58 d5 3c eb fd 30 3d
       0.016057102 -0.027321022 0.026043247 0.043210905
000040 43 80 65 3c 60 5f 09 3d 5d 2a 6b 3a df dc 82 bd
       0.014007631 0.033538222 0.0008970851 -0.06389784
000050 08 17 54 3c c5 37 e0 3c 8c bf 6f bc c9 d6 a2 3d
       0.012944944 0.027370343 -0.014633071 0.07951123
000060 58 3d be bd c8 ab 83 3d 7e 09 02 be 07 0d 8d 3d
       -0.09289044 0.06429249 -0.12698933 0.068872504
000070 92 4b 07 bd 3e 09 8f 39 27 07 9c 3d 35 5b 0e bd
       -0.033031054 0.0002728197 0.07618552 -0.03475495
