output/models/220418_2057_ggcnn2_val0.2/epoch_43_iou_0.81_statedict.pt (torch, 274205 bytes, 20 tensors)

features.0.weight f4 [16, 1, 11, 11]
00000000: dc4b 1b3d 4826 55bd 54d0 bf3c 4edd 4abd
00000010: 458e c13c 2799 ea3c 4675 873c e8d5 93bc
00000020: 0558 7fbb 809d 05bd ecc9 5c3b 4e96 163d
00000030: c770 c93c aeac dcbc 646f efbb 3772 9cbc
00000040: a0a2 ee3c 2b0f 453d 3228 e0bb 9d55 2abd
00000050: d0ba 6dbb db4d 6b3b 22d4 513d e471 a53b
00000060: 6bee abbc 78c7 19bd f59e 3a3d 3d7a 02bc
00000070: 420d d7bb b0c2 e03b fb66 20bd dc92 3cbc
00000080: cf6c d8bb a453 edbc c7c4 04bb cb6f eb3b
00000090: 50c5 07bd 6a46 edbc 0dc0 e4bc 606c 62bd
000000a0: 066e 073d aeae cfbb d117 16bb af84 353d
000000b0: 7631 fd3c 401a 3fbd 58b3 dd3c 2127 d0bc
000000c0: e8d5 d3bc 9408 3e3c fc76 07bc 5934 38bd
000000d0: 4ea0 253d f8b2 453d 75d7 afbc eec4 33bd
000000e0: 5bf0 debc d99b bb3c d6c8 c63c 978b ee3c
000000f0: b8b6 e0ba da91 513d dbb9 f2bb 3a75 68bc
00000100: 27ee 5a3d aead bbbb b60c 0dbd 8cd5 1bbd
00000110: 8193 783d 78e6 053c 5b03 703c 3951 4f3c
00000120: a4ce fc3b 975d 29bd e4ad eb3c 77f5 b53c
00000130: 0491 623d 5003 71bc 4dfe 533d 9878 7d3c
00000140: 3afb 2a3d e5c3 12bd 3455 2b3d 37e7 053d
00000150: 63a9 4f3d 40cb 59bc 7758 c4bc 9d49 7c3b
00000160: 02fd c3bc 8ab6 533d 9bf8 4bbc 213c 083c
00000170: ccd6 05bd b249 2ebd 1a06 35bd 1d0e ab3c
00000180: d14c 17bd b261 c03c e22d 4ebd aac5 d63c
00000190: 1e66 343d 02bd 05bb 0f32 033d a0c1 b83c
000001a0: 48a0 5b3d 09f3 80bb d7ce 94bb cd9a d0bc
000001b0: c1c7 2e3d 55b9 37bc 7f6c 4b3d e907 f2bc
000001c0: 300c 44bc 29a5 4b3d 1545 28bd 2b12 ab3c
000001d0: 9afd c53c ab1c c5bc 4b12 dbbc 0878 24bd
000001e0: 07fe 303c 80e3 d1bc b2a7 db3c e1d5 043d
000001f0: 00b9 69bc c631 443b 1c63 663d d745 0ebc
00000200: 4123 4abd b990 75bd 8e94 88bc b78f acbd
00000210: 14f0 45bc d277 843c 7ecf 7f3b 8cb2 26bc
00000220: d283 21bd 24c3 aebc 3e94 193d 806b f338
00000230: e780 0cbd efd6 473d 8566 97bd f9fb d13c
00000240: fa9d 313d 0218 54bc c97c 3f3c d89a 45bc
00000250: 1ec6 8c3d 555e 893d ce88 53bb 72ac 583d
00000260: f85a aebc f039 663c 6f3d 88bd f7fc 70bd
00000270: 4581 013d e6f5 843a 537f ce3c e2c0 dabc
00000280: 9fc0 5cbc 3c74 913a 28f7 913c a4ee 7c3d
00000290: 30dc 453b 259c 24bd 161d 4dbc 706c 273c
000002a0: 9b05 17bd cd0f 2bbc 6a87 a83b e228 49bb
000002b0: 3d41 05bd 5381 413d 92d7 fb3c b9d7 073c
000002c0: 76b8 1ebd dc85 e83b ef89 10bc b943 393d
000002d0: 93d5 723c 7d54 7ebc 4668 113c 1167 3c3d
000002e0: 96aa 4f3d 89b7 553c b73f 4e3d e234 203c
000002f0: 8ebe 85bc bf93 293d e7d9 5c3d 7592 243d
00000300: c9c2 713c 06bf 89bc bf6c 09bd 617a fc3c
00000310: c806 01bd a031 bcbc 1298 f23c 457e 5b3d
00000320: da41 b2bb 987d 2a3d 2188 3a3d bd9e c8bb
00000330: 75d9 57bd 9c41 dfba 150f 073c b5a6 0a3d
00000340: 3cf7 ad3c 5b06 00bd d99e 9a3d d75e 413d
00000350: 6e0b 363d 0d1e 8c3d fc19 913d d508 b4ba
00000360: 7682 143d 186e f83c 11da 22bd 0d6e 3cbd
00000370: 4b85 23bd e6b8 8a3d 0773 0b3d 7102 f13b
00000380: 2d87 81bc b79f 4a3d 25dd 3ebd aeb7 4dbd
00000390: 31b3 69bc d97f 5cbd 226f b2bb e525 82bc
000003a0: 6f24 3abd 653a 8abc 00b2 94bc cd99 f93c
000003b0: 903a 703b f105 cebc dbc5 92bd d5d5 9fbc
000003c0: e714 6dbd 3a3d 66bb e441 603d cd4b c23b
000003d0: 50a5 8f3c bbc6 dc3c d344 023c 1867 9bbc
000003e0: 58d4 20bb 924b d23b 6fbd a93b 2a9f 883d
000003f0: fc2c 823c 5f77 bb3b 5e5c f7bb 5558 ff3b
0.037914142 -0.05203846 0.023414768 -0.04952746 0.02362741 0.028637482 0.016535413 -0.018046334
-0.0038962376 -0.032620907 0.003368969 0.036764435 0.02458991 -0.026937809 -0.00730698 -0.01909743
0.02913028 0.04811017 -0.006840729 -0.041585553 -0.003627468 0.003590456 0.051227696 0.005048977
-0.02098771 -0.037543744 0.04556175 -0.007963714 -0.0065628598 0.006859146 -0.03916071 -0.011509623
-0.006604768 -0.028970547 -0.002025889 0.0071849576 -0.033147156 -0.02896424 -0.027923608 -0.055279136
0.03306391 -0.006337962 -0.002290238 0.04431599 0.030907374 -0.046655893 0.027063057 -0.025409283
-0.025858834 0.011598725 -0.008268114 -0.044971798 0.04043608 0.04826638 -0.021465043 -0.04388898
-0.02721422 0.022901462 0.024265688 0.029119296 -0.0017144298 0.051164486 -0.0074074096 -0.014188105
0.053449776 -0.0057274913 -0.03443595 -0.03804545 0.060687546 0.008172624 0.0146492375 0.012653642
0.007715063 -0.04134902 0.028769441 0.022211773 0.05531408 -0.014710262 0.051756192 0.015470646
0.041743495 -0.03583135 0.041829303 0.032691207 0.05069865 -0.0132930875 -0.023967965 0.0038496025
-0.023924354 0.051687755 -0.012449409 0.008315117 -0.03267555 -0.04255075 -0.044195272 0.020880753
-0.036938492 0.023484085 -0.050336726 0.0262173 0.0440427 -0.0020406847 0.03203016 0.022553265
0.053619653 -0.003935222 -0.004541259 -0.02546444 0.04267097 -0.01121362 0.049664017 -0.029544787
-0.011965796 0.049718056 -0.041081507 0.020882687 0.024168778 -0.024061522 -0.026742121 -0.040153533
0.010802752 -0.025621176 0.026813362 0.032430533 -0.014265299 0.0029936894 0.05624686 -0.008683643
-0.049350027 -0.05995247 -0.016672399 -0.08425849 -0.012081165 0.016170416 0.0039033587 -0.010174405
-0.039432354 -0.021333285 0.03749489 0.000116071664 -0.03430262 0.04878896 -0.07392601 0.025632845
0.04336355 -0.012945177 0.011687466 -0.012060843 0.06873725 0.067074455 -0.0032277587 0.05289883
-0.021283612 0.014051899 -0.066523425 -0.058834996 0.03161742 0.0010144084 0.025207197 -0.026703302
-0.013473659 0.0011097263 0.017818049 0.061751023 0.0030191056 -0.040187974 -0.012519142 0.010218725
-0.03687058 -0.010440779 0.0051430957 -0.0030694534 -0.03253292 0.047242474 0.03074244 0.008291178
-0.038750134 0.0070960354 -0.008821948 0.0452306 0.014821428 -0.015523073 0.008874958 0.04599673
0.050699793 0.0130442465 0.050353732 0.009778233 -0.016326215 0.041400667 0.053918745 0.040178735
0.014755913 -0.01681472 -0.033550974 0.030820074 -0.031500608 -0.022972882 0.029613528 0.053587217
-0.005439979 0.04162368 0.04553998 -0.0061224387 -0.052697618 -0.0017033103 0.008243342 0.03385039
0.021236055 -0.03125606 0.07549829 0.047209587 0.044444494 0.06841669 0.07085034 -0.0013735542
0.03625723 0.030325934 -0.039758746 -0.04600339 -0.03992204 0.06773548 0.034045245 0.0073550274
-0.015811527 0.049468722 -0.04659762 -0.050224 -0.014263914 -0.053832863 -0.005445377 -0.01588721
-0.045444902 -0.016873548 -0.018151283 0.030468846 0.0036656 -0.025149317 -0.07166644 -0.019511143
-0.057881262 -0.0035131709 0.05475034 0.0059294463 0.017534882 0.02695023 0.007950979 -0.018970057
-0.002454063 0.0064177 0.005180053 0.06670983 0.01589059 0.0057210173 -0.007548853 0.0077925124

features.0.bias f4 [16]
00000000: 4769 22be fc6e 67be 0b91 37be 8c0a de3c
00000010: a1c9 4ebe 1243 febe 0ed7 e53d 483d aabe
00000020: d3d9 cabe faa8 e03e a44c dc3d 9114 9d3d
00000030: 790b 5abe f75a b13d f694 edbe ab43 1dbe
-0.15860473 -0.22600931 -0.17926423 0.027104639 -0.20194103 -0.49660546 0.11222659 -0.3324988
-0.39619312 0.4387892 0.107568055 0.07669938 -0.21293439 0.08659928 -0.4640271 -0.15357845

features.2.weight f4 [16, 16, 5, 5]
00000000: 0f5b 6bbd 5f0a 3a3a 7078 643b 2de2 80bd
00000010: b0a9 353d 387c 54bc badc 843d 49a1 863d
00000020: ce81 ea3c 76a6 153d 8959 aebc 88c2 4c3c
00000030: b3a0 473c 60a6 f7bc 66b1 20bd 21a2 303d
00000040: 7d6c afbd f753 1e3d e785 443d c50c 1e3c
00000050: f9f2 9a3d e5d8 09bd ae08 6dbd 42ef 71bd
00000060: 1f81 5f3d 229f c1bc 2e61 b03a ca0a 96bb
00000070: 2f39 42bb fcb8 bdbd 10fa d6bc 9d0e 05be
00000080: a2b0 ccbd cef3 d8bd dc25 aebd 59a4 eebd
00000090: 54c1 22bc 90f7 58bd e145 36bc 48ef d9bc
000000a0: 2d97 2b3c c668 07be bdf5 41bd d6b0 bebd
000000b0: c67a 40bc 5ff6 f6bd 2774 47bd 69ae 12be
000000c0: 9bcd 4dbd 9a12 3dbd 8ce4 adbc b7de 6bbc
000000d0: e8a7 853d 0249 8c3d ec75 48bd 4a21 21bd
000000e0: 8576 423d 00b1 ca3d 6f6f b3bc d946 ccbd
000000f0: a2fe b03d 1bd2 a6bc a572 123d 677c 8e3d
00000100: dc82 0cbc 0cd1 fe3d f6ec 43bc 6b5b ecbc
00000110: 1a79 163c 9223 303d cc6a c23d efe5 aa3b
00000120: 2fb3 be3d 6319 043c 0ee4 8cb9 4c1b 393c
00000130: ad55 cebd 491e 03bd 5c01 7cbd b8b0 afbd
00000140: ae7d 9abd f4dc 793d 8239 bebb ebef 6f3d
00000150: 6a1e b3bd 898a b5bd 2dd2 ec3c bcac 57bd
00000160: c702 6cbd 810f c6bd fe4c 7e3d 2545 b2bd
00000170: 6461 a2bd d84d 71bd e825 633c 1d1b c43c
00000180: 6467 b5bd b03f 4ebc 9d44 823d cfdd 49bd
00000190: 938a 07be 2589 dfbd 2cf5 bfbd e55f 79bc
000001a0: 049f 3d3d 80a4 33bc b9d0 56bd b86d 0fbe
000001b0: dc34 0ebe 2281 b93c 5652 cd3b 7413 4bbd
000001c0: a6b6 82bd f044 e4bd 7eb2 88bd 2090 6b3b
000001d0: a4d1 bbbd 9e79 edbd 85b7 85bd 248d febd
000001e0: f7f8 43bd d8f2 f0bd c482 e2bd 86dc aa3b
000001f0: c8f6 b1bd 23cd 99ba 096d 723d 789a 89bd
00000200: 8580 a1bd 97a3 8cbb b17c cd3c 5543 bbbd
00000210: e25c 383d 54f7 a5bd 4a4a cb3c 678d 44bd
00000220: d921 94bd f2fb 553d 11af 913d e56e f0bc
00000230: 43f7 a5bd c841 5b3d 8f86 83bd 2ca0 d0bc
00000240: dda9 cbbc 9e99 8ebd 09a2 a1bd d3f8 e1bc
00000250: 0137 c4bc a87a d7bd 67f3 853b e96d dfbd
00000260: a88d 643b 89ba 2cbd 51dc 33bd 8f40 13bd
00000270: 6c8d f43a ecbe e13c 3eac 8bbd 8b4b f0bd
00000280: e407 03be 6926 e8bd 15bd c4b7 907c b8bd
00000290: 55d5 babc 9d37 da3c bcb5 c6bd 5e79 c4bd
000002a0: db73 08be ab6c 6dbd dd65 853b 8b31 12bd
000002b0: a1d2 05bd 5685 57bd 65d8 43bd 2eea 293d
000002c0: 77de e03c e3f2 4fbc aa16 d03c a7bf 37bb
000002d0: 78e1 993d a9f7 483d 95d3 b13c 262f c53d
000002e0: 0730 9e3d b287 8a3d 2baf a4bd 2f2f 56bd
000002f0: dd4c 4a3d b40b dd3b d715 4f3d 4ab0 373d
00000300: 4f0a 453d 2e9c 363d b075 5dbd c3f5 a33d
00000310: 7c0b 523c d146 993c 2f55 2e3d 8f9d 7bbd
00000320: 314e 15bd e9db a53a 767f a43d 8a39 9b3d
00000330: e181 6ebd ac62 493c 045f fa3b 662a 7a3d
00000340: 7b9b ccbc b82e 40bd 9cd1 6b3d 227e 713d
00000350: bc2e 55bd 2e72 8dbc b7c8 8bbc ee2a 333d
00000360: 8606 573d e8c5 91bd 0176 693d 0daa a0bd
00000370: 1fa9 97bd 0aaf b9bd e51e f6bc 41bc aa3c
00000380: 00c6 9cbd cc06 5e3c 1533 debd a2b9 90bd
00000390: b476 89bd 1db2 b1bc 908c b7bc 314e 8f3c
000003a0: ec04 a2bd bf40 cebd c455 83bd 8db5 57bd
000003b0: 42db 163c 0773 3d3d 97c1 2dbd 07a4 693d
000003c0: db1c 25bb 2b57 10bb 20b0 39bd ee27 733d
000003d0: 24f9 13bd 9bda f03c 7c9d d03c d85b 0dbb
000003e0: bf94 b8bd af76 c83a fecf 45bd f5c0 61bd
000003f0: 03df f1bc c73f d9bd 0a13 21bd 3cd3 3bbd
-0.057459887 0.00070968823 0.0034861825 -0.062931396 0.04435128 -0.012969069 0.06487413 0.065737315
0.028626349 0.036535703 -0.021282928 0.012497552 0.01218431 -0.030230701 -0.03923168 0.04312337
-0.08565614 0.038654294 0.04797926 0.009646599 0.075658746 -0.033654112 -0.057869606 -0.059066065
0.0545665 -0.02363545 0.0013456696 -0.004578923 -0.0029636135 -0.092637986 -0.026242286 -0.12993856
-0.099946275 -0.10593377 -0.08503315 -0.116524406 -0.009933788 -0.05297047 -0.011125059 -0.026603356
0.010473055 -0.13223562 -0.047353495 -0.093110725 -0.0117480215 -0.1205871 -0.048694756 -0.14324345
-0.05024491 -0.046160318 -0.021227144 -0.014396361 0.06526166 0.06849863 -0.048940584 -0.039338388
0.04747631 0.09897041 -0.021903722 -0.099744506 0.08642317 -0.020363858 0.035753865 0.069573216
-0.008576121 0.12442216 -0.011958351 -0.028852185 0.009184146 0.043002672 0.09493026 0.0052153985
0.0931152 0.008062693 -0.00026872795 0.011298012 -0.10074935 -0.032011304 -0.061524734 -0.08578628
-0.07543503 0.061001733 -0.0058051953 0.058578413 -0.087460354 -0.08864314 0.028908813 -0.052654967
-0.057619836 -0.09670926 0.062085144 -0.087045945 -0.07928732 -0.05891213 0.013864018 0.02393871
-0.08857611 -0.0125884265 0.06360743 -0.0492838 -0.13236456 -0.1091483 -0.09372935 -0.015220617
0.046294227 -0.010964513 -0.052445147 -0.14006698 -0.13887352 0.022644583 0.0062659187 -0.0495791
-0.06382494 -0.11145961 -0.0667467 0.003594406 -0.09170845 -0.11595462 -0.06529144 -0.12429264
-0.047844853 -0.11765069 -0.11060098 0.0052142767 -0.08689648 -0.0011734109 0.059186015 -0.06718916
-0.07885841 -0.0042919624 0.025083872 -0.09143702 0.045010455 -0.08103815 0.024815697 -0.047986414
-0.072330184 0.052242227 0.071134694 -0.029349754 -0.08103802 0.05352953 -0.064221494 -0.025467
-0.02486127 -0.06962894 -0.07892234 -0.027584469 -0.02395201 -0.10521442 0.0040878537 -0.109096356
0.0034874473 -0.04217008 -0.043911282 -0.03595024 0.001865787 0.027556859 -0.06819962 -0.11733159
-0.12795979 -0.11335451 -2.3453069e-05 -0.090081334 -0.022806803 0.026637847 -0.09702632 -0.095934615
-0.13325445 -0.057964962 0.004070981 -0.03569178 -0.032671575 -0.052617393 -0.04781379 0.041483097
0.02744983 -0.012692186 0.025401432 -0.0028037818 0.07513708 0.049064312 0.021707335 0.096281335
0.07724004 0.06764163 -0.08041223 -0.05229109 0.04938971 0.00674578 0.050557937 0.044845857
0.048105534 0.04458254 -0.054067314 0.0800586 0.012820121 0.018710526 0.042561706 -0.061429556
-0.036451522 0.0012654039 0.08032124 0.07579334 -0.05822933 0.012291592 0.0076407213 0.06107559
-0.024976483 -0.046919554 0.057572946 0.05895818 -0.052046522 -0.01726636 -0.017063482 0.043742113
0.052496456 -0.07117826 0.056997303 -0.078449346 -0.07405304 -0.09066589 -0.030044029 0.02084172
-0.07654953 0.013551425 -0.10849587 -0.07066657 -0.06712094 -0.021691376 -0.022405893 0.01749334
-0.07911095 -0.10070943 -0.06412843 -0.052663375 0.009207549 0.046252277 -0.04242095 0.057041194
-0.00251942 -0.0022024612 -0.04533398 0.05936425 -0.03612627 0.029401114 0.02546572 -0.0021569636
-0.09012746 0.001529416 -0.04829406 -0.05511566 -0.029525286 -0.10607868 -0.039324798 -0.045855746

features.2.bias f4 [16]
00000000: 9084 d9bd fa14 ce3d 6ebb 57be 8f92 dfbd
00000010: cec8 963c 4019 84bd c333 5cbc bae3 98bc
00000020: 9a66 a6bd 9c66 57bd 1e39 aabd 01f1 c3ba
00000030: b668 dabb 156f a3bc 4cc7 66bc a00c 87bd
-0.106209874 0.10062595 -0.21067593 -0.10916626 0.018406298 -0.064501286 -0.013440075 -0.018663276
-0.081250384 -0.05258809 -0.083116755 -0.0014949144 -0.0066653145 -0.019950429 -0.014085602 -0.06594205

features.5.weight f4 [16, 16, 5, 5]
00000000: 36b3 033d 4056 24bc 3c07 5cbd 9d08 24bd
00000010: 0893 36bd fb93 6ebd 2c40 6ebd 3113 32bd
00000020: 5015 abbd 71d4 aabd 1956 933c 826d 97bc
00000030: c7f9 283d 878b 92bd ad58 45bc f447 ea3c
00000040: 8fbe 423c d7c8 a8bc 765d c1bd 5f96 ccbc
00000050: a5af 0dbd f7d2 febd 28f6 c2bc d01f 9ebd
00000060: e3d4 c83b 8776 eebd 0d45 30bd 1727 88bb
00000070: d894 e9bd 0b39 dfbd 639b 86bd 2bd2 243c
00000080: 82d2 adbd bd4a 683c abdb 42bd aa3e 2bbd
00000090: 660b a2bd 0495 b4bc 7541 02be 8434 08bd
000000a0: d1dc aabb 250c 86bd 60fa 563d 960e 00be
000000b0: 9ae3 83bd e2b9 5f3c bcbe b23c 4a98 773d
000000c0: 2470 b5bd 226b 363d aed1 ffbd 0dd2 06be
000000d0: b744 24be 481e 44bd e01a 85bd 36fa 94bd
000000e0: f109 953c 433d a7bd 0adf 85bd 4590 39bd
000000f0: 8570 32bb 8c80 233d 374d 3fbd b2eb 6abc
00000100: fe39 113d 070d 0d3d 6ccc b7bd 15ac e3ba
00000110: b647 e9bc f4e5 b1bd bcf5 4d3d 47d2 91bc
00000120: 76a5 603d c833 b1bd fbc7 8e3c a296 f1bd
00000130: aded ae3c 7d86 243d f4e8 dabc b30a bbbd
00000140: 853b 2bbc 92e9 c2bd b7f2 f6bd 6bb1 9fbd
00000150: d40d cabd b12d debd a049 e039 a07e 4e3c
00000160: 2dd2 8cbd f00d 9bbd c5f5 b6bd 43bc 453d
00000170: af53 b9bd 4085 733c 60a4 163d 0d41 c73c
00000180: 4723 033d 987a 84bd 80e2 483c 45aa 083d
00000190: aa5d 9dbd 8ea7 813c f6fc f63d f8c6 553e
000001a0: 9f8c c13c 7d57 933d 3d84 59bc 07c5 233e
000001b0: 4e91 6f3e 9e79 393d af32 8fbb 19be a23d
000001c0: 6559 ce3d 450c 843e c21e 333d a999 3e3d
000001d0: 8121 403d 0a8b ac3d 1161 453e 05f2 a13d
000001e0: b057 6dbd b637 0bbd 899b b43d fd1c 2a3e
000001f0: dfa5 0b3d b8f0 373d f2e0 4cbc 2549 743b
00000200: f881 7a3c 4e65 cfbc 43e9 92bd 344d 03bd
00000210: d8e2 7b3d 29bf 303d 9c59 f0bb 6eec 92bd
00000220: 6503 7abd 8df0 973d 643f 85bd 315e 70bd
00000230: cfd9 99bd 6973 eebb bdd2 fe3b a759 b3bd
00000240: a59a bfbd d6d9 1f3c af71 9f3b 735d c5bd
00000250: bf71 d0bd a5e7 95bd cf9a 75bd 0d71 723c
00000260: e77d f7bd 8266 4cbd 904f c7b9 00ba 96ba
00000270: fb19 10bc 156b 77bd b8d8 f2bc 73de d8bc
00000280: b23a b03c c1d2 55bd 361a e2bd 219a f0bd
00000290: 2323 88bd 4109 ce3c 6165 25bd 9731 fa3c
000002a0: d19f 953c d4ae cabd f96d b2bd 5cec 36bc
000002b0: 4b2d e53c eb0f 25bd a3f9 a9bd e605 3fbc
000002c0: 2199 3a3d f8dd 333d c5ad d2bd e6c6 a0bd
000002d0: 3ee9 d7bd 8cca 9bbd 64e9 c0bd d99d d1bd
000002e0: 44a7 ccbd 1cbb c63c b2a7 073d 45d2 adbd
000002f0: f301 81bd c24f d0bd 8df6 353d e8d2 573d
00000300: 2cf6 ff3c de9a c2bd 15a8 9ebd 1c15 983c
00000310: c820 fd3b 5ad9 ca3c a753 d93c 57d9 51bd
00000320: f183 89bd 1d2d 8b3d 9d79 123d 817a 2a3d
00000330: 2d40 01bd ca75 9e3c b8d1 23bd c544 323c
00000340: ba0b a33d 3b98 79bd 0f1b 92bd 617d a13d
00000350: 4682 b3bd d73f 963d 3e13 9f3d 9403 8b3d
00000360: 17b9 11bd ee19 0abd 6936 5aba f000 8abb
00000370: c807 69bd ae16 823d 95e0 603c 671e fdbc
00000380: 801f 903c 1c77 cc3b ca1f 3f3c 66bc 3abd
00000390: 2cf7 94bd d3fb 95bc c74e adbc 5ff3 acbd
000003a0: c5d9 0dbd 9cde fc3b fef4 92bd 7286 73bd
000003b0: 0d67 c2bd 7c50 163d 4c56 08be e9d6 913b
000003c0: 1e1c 323d bf3f 453c 6929 13bd 626e 10bd
000003d0: c823 1f3c 3c28 0b3d 56bd e3bd fc7c e7bd
000003e0: bb75 903c 6281 d7bd bd2a b2bc b9bc 753c
000003f0: 07b4 8cbd 88cc 213d af3f bfbc c0a2 0fbc
0.03215333 -0.010030329 -0.053717837 -0.040047277 -0.044573814 -0.058246594 -0.058166668 -0.043475334
-0.083536744 -0.08341301 0.01798539 -0.018484835 0.04125383 -0.07155519 -0.012045068 0.028598763
0.011886253 -0.02060358 -0.094416544 -0.024974046 -0.034591336 -0.12442582 -0.023799017 -0.077209115
0.0061288937 -0.11643701 -0.043034602 -0.0041550505 -0.11405343 -0.10899552 -0.065726064 0.010059874
-0.08487417 0.014177975 -0.047572773 -0.041807808 -0.0791233 -0.022043712 -0.12720282 -0.033253208
-0.0052143116 -0.06545285 0.05248487 -0.12505564 -0.06439896 0.013655158 0.021819465 0.06044797
-0.0885928 0.044535764 -0.12491165 -0.13166066 -0.16041838 -0.04788044 -0.064992666 -0.072742864
0.018193217 -0.081659816 -0.06536682 -0.0453036 -0.0027227711 0.039917514 -0.046704497 -0.014338421
0.035455696 0.034436252 -0.08974537 -0.001737001 -0.028476577 -0.08686438 0.05028318 -0.017800463
0.054845296 -0.086524546 0.017429342 -0.11796309 0.021353567 0.04016732 -0.026722409 -0.091329
-0.010451202 -0.09517206 -0.12058013 -0.07797512 -0.09865919 -0.10848559 0.00042779464 0.012603432
-0.06876025 -0.07571018 -0.089335956 0.048275243 -0.090491645 0.014863312 0.036777854 0.02432301
0.032016065 -0.064686954 0.012261033 0.033365507 -0.076838806 0.015826967 0.12059967 0.20876682
0.023626624 0.071944214 -0.013276157 0.15993129 0.23395273 0.045282 -0.0043700556 0.079464145
0.100756444 0.2579061 0.043730505 0.04653326 0.04690695 0.08424957 0.19275309 0.0790749
-0.057944953 -0.033988677 0.088187285 0.1661262 0.034093734 0.0449073 -0.012504803 0.0037275043
0.015289776 -0.02531686 -0.071733974 -0.03205605 0.061495632 0.043151055 -0.007334901 -0.07174002
-0.061038394 0.07418928 -0.065062314 -0.058683578 -0.07512247 -0.0072769416 0.007776587 -0.08757334
-0.09355668 0.009756526 0.004865847 -0.09636965 -0.10177945 -0.07319573 -0.05996209 0.014797461
-0.12084561 -0.049902447 -0.00038015516 -0.0011499524 -0.008795257 -0.060404856 -0.029644355 -0.02647326
0.021512363 -0.052202944 -0.110401556 -0.11748148 -0.06647327 0.025150897 -0.040379886 0.030541224
0.018264683 -0.09896627 -0.08712382 -0.011164751 0.027975699 -0.040298384 -0.082995676 -0.011659121
0.04555619 0.043912858 -0.1028705 -0.07850437 -0.10542534 -0.07606992 -0.09419516 -0.10235185
-0.09992841 0.024259143 0.03311891 -0.08487371 -0.062992 -0.101714626 0.044424582 0.05269137
0.031245314 -0.09502195 -0.07746903 0.018564753 0.007724855 0.024761844 0.026529146 -0.051232662
-0.06714619 0.06795714 0.03576051 0.041620735 -0.031555343 0.019343276 -0.039994925 0.010880654
0.07961221 -0.060936194 -0.07134067 0.07885242 -0.08765082 0.07336395 0.07767342 0.06787792
-0.035576906 -0.033716135 -0.0008324148 -0.0042115375 -0.056892186 0.06351982 0.0137254195 -0.030898286
0.017593145 0.006239785 0.011665294 -0.045589827 -0.07273707 -0.018308556 -0.021155728 -0.08444857
-0.03463151 0.007716967 -0.07175635 -0.05945439 -0.094923116 0.03669785 -0.1331417 0.004450668
0.043483846 0.012039124 -0.035928164 -0.03526152 0.009713121 0.033973917 -0.11120097 -0.11303136
0.017634263 -0.10522725 -0.021748895 0.014998608 -0.06870275 0.039501697 -0.023345796 -0.00876683

features.5.bias f4 [16]
00000000: cfcb 72bd 73d8 4bbe 0b15 cbbd 8194 c23c
00000010: 69d7 3abd 957d afbe 7684 a5bd 7bad 00be
00000020: 9548 84be f473 efbd bd7f bcbe 6136 57bd
00000030: 05a3 b3bd e3d4 6dbe 2f09 8b3d aae1 e3bd
-0.0592764 -0.19906788 -0.09916123 0.023752453 -0.045615587 -0.342755 -0.080819055 -0.12566178
-0.25836626 -0.11692038 -0.36816207 -0.052542094 -0.08771328 -0.23225741 0.06788861 -0.111270264

features.7.weight f4 [16, 16, 5, 5]
00000000: 5488 efbb 581b aa3d 02f3 593e 4d57 113d
00000010: 4ed9 4b3d ec65 d2bc b47c f6bc bab4 163e
00000020: 94ca 463d 7acc 9b3d 82bb 1b3b 5405 efbd
00000030: 947b 293d 95ea 82bd 4783 593c 6270 e7bc
00000040: 09c8 92bd 9908 cf3d f76c e2bd 5795 edbd
00000050: be03 a43d ebea 9fbd 364a 283e 63a4 a63c
00000060: 6a97 773d e778 5b3c ca8e a53c 1fdf 193e
00000070: e780 ad3d 13f1 ca3d 5eed 273e 9026 603e
00000080: 9b7c 0d3e 3e8f 9dbd 5751 6a3d 5195 a0be
00000090: 4076 abbe 6369 7cbe 55bb e8be fb16 9abe
000000a0: ba61 bdbd 6933 55ba f876 f2bd 9048 023e
000000b0: 3d0a 343e 65a6 cf3a 2b33 50bd 189a aabd
000000c0: cc94 ddbb 3ed9 573d b880 d73c 88d5 95bb
000000d0: 0048 2b3d 4626 3bbd 244f 8c3d 0ee1 d2bd
000000e0: efd4 1fbd efd6 86bd c7a6 a63d 3d75 e33c
000000f0: a6e3 1cbb 2bd8 f53d 1a67 36bd ae36 3abd
00000100: a5c5 b73d 8908 84bd 6a7a a03d 0a43 7cbd
00000110: b6b6 8c3d 384e 6f3d 3bc5 4a3d 0db8 4e3d
00000120: 98b0 a7bd 08a3 24bd 281d 033d 6906 403e
00000130: 67e9 203e 44a9 1a3e c0eb 753e 738a e83e
00000140: b858 933e 8e96 7d3e a80f 6a3e e91c 8e3e
00000150: 2f60 c53e e403 08bd aeb0 53bd 1b41 233d
00000160: ae37 7d3e d843 8f3e 0ebf 51bd 0b4c bcbd
00000170: a59c 92be 5e69 70be 0bb6 6f3d 70e2 3dbe
00000180: 32df 96be 0099 c8be 678e 9bbe c531 afbe
00000190: 7295 2d3d 6038 cc3d d279 0a3d 88f1 953d
000001a0: f78d 733c 7154 5b3b fd25 e73c 87ca 793c
000001b0: 3a80 3fbc b9f5 2d3d d930 36bd 7637 81bd
000001c0: 4151 aabc aec9 6b3d 4f80 35bd bf0c ca3b
000001d0: 3286 e2bd 1671 8d3d 1dc8 9e3d d332 5dbd
000001e0: 064c c2ba 054b 0c3c c9c7 c53c 079e bd3c
000001f0: 4799 a6bd a289 c3be 71a0 0cbe 9f58 0bbe
00000200: 793c e7bd e7f8 b7bd b71a ffbd 3215 35be
00000210: 774d ccbd e830 06be 5221 09be f580 163d
00000220: db35 273a 342e bdbc 77b1 19be 2c7c 82be
00000230: f342 863d cbc4 233e d704 393e 29a8 4e3d
00000240: a5da 47be 5bee 67bd 3eba a43d 2182 6c3e
00000250: 9e2d 823e ecc9 c13d 3d17 f43d c4c2 9ebc
00000260: efdf 713c 259f 833d 8b1a d83c 4e39 4d3d
00000270: e432 513d f897 be3c d5d2 8b3d 7e49 75bd
00000280: 8bb9 193d 3fcb 14bc 734d 8bbd a584 373d
00000290: 1e01 da3c 9bfc d43c 7edd 48bd b8fb 093c
000002a0: 8f04 df39 96f9 c1bc 4558 99bd c8f8 aebd
000002b0: a9a2 303d 5911 4cbe 08b3 313c 38fc 41be
000002c0: ec4d 6fbd f74e 22be e801 bbbd 128b 96bd
000002d0: a4b1 0cbe ceb9 04bd 87a4 09bd b132 0a3e
000002e0: d4da 19be a1b7 a0be 091a a3be 84ed 4cbe
000002f0: 71a0 dc3d 1c5f 673d 7abe 81bd 1f70 e4bd
00000300: 0352 2bbe afc7 c63d 137a 5fbd 9eae a23d
00000310: ce65 963d b965 493e d290 8f3c 7274 a8bd
00000320: 36d2 7cbe 60ab f3be 8684 d7be 9c06 6cbe
00000330: 57d5 ec3c f8d9 283e 7625 513c 934c e4bd
00000340: 4695 0abd b6ec 553e b1e4 b4bd d1c6 d7bd
00000350: 476e 17bd 1115 93bd 3435 573d 70d1 1dbe
00000360: 77e2 f7bd 4790 0ebe 6050 203d 4d59 873d
00000370: ce22 a2be b522 3abe 9690 81bc 8996 13bd
00000380: fef9 a73d 1703 a93d cf82 83bc 88f3 7fbd
00000390: 0e37 1a3c 7cb9 4f3d e970 833c cc7c 1fbc
000003a0: aef3 0cbd 493a 4b3d c52e 903d 585d 0c3c
000003b0: 3fb0 5dbd 1b88 bfbc 8c9c 1abd dcbe c03c
000003c0: 29fa 413d e5de 823b df9d a73c 841f cb3c
000003d0: e09d 933d fc15 43bd f5d7 e63a 4e47 24bd
000003e0: 8f8b 83bb 107c 9f3d 0226 243c db28 2cbc
000003f0: 196f a13d 11a6 c6bb d039 363e f827 9f3d
-0.0073099528 0.08305997 0.21284106 0.035483647 0.049767785 -0.025683366 -0.03008876 0.14717379
0.048533037 0.0760736 0.0023762886 -0.11670938 0.04137762 -0.06392399 0.013275928 -0.02825183
-0.0716706 0.10109062 -0.1105594 -0.1160075 0.08008526 -0.07808479 0.16434559 0.020342058
0.060447134 0.013395525 0.020209689 0.1502652 0.08471852 0.099092625 0.16399142 0.2188971
0.13817064 -0.07693337 0.057206478 -0.3136392 -0.33488655 -0.24649577 -0.45455423 -0.30095658
-0.092471555 -0.0008132966 -0.11839098 0.12722993 0.1758203 0.0015842436 -0.050830048 -0.08330172
-0.0067621227 0.052697413 0.026306495 -0.004572574 0.04181671 -0.045690797 0.068510324 -0.10296832
-0.03902143 -0.06583964 0.08137279 0.027765865 -0.00239394 0.120041214 -0.04453192 -0.045462303
0.089732446 -0.064469405 0.07835849 -0.06158737 0.06870787 0.058424205 0.0495045 0.050468493
-0.081879795 -0.04019454 0.032010227 0.18752445 0.15714036 0.15103632 0.24015713 0.45418128
0.28778625 0.24764463 0.22857535 0.27756432 0.38549945 -0.033206835 -0.051682167 0.03985701
0.24728271 0.27981448 -0.051207595 -0.091941915 -0.28635135 -0.23477694 0.05852322 -0.1854341
-0.2946716 -0.3917923 -0.30382082 -0.3421766 0.04237885 0.0997169 0.033807583 0.07321459
0.01486539 0.003346708 0.028216356 0.01524604 -0.011688286 0.042470668 -0.04448018 -0.063094065
-0.020790698 0.057565384 -0.044311818 0.0061660702 -0.11060752 0.06906335 0.07753012 -0.054003548
-0.0014823682 0.008562808 0.024143117 0.023146642 -0.08134704 -0.38190943 -0.13733079 -0.13608025
-0.11290831 -0.08983021 -0.12456267 -0.17683867 -0.09975713 -0.13104594 -0.13391617 0.036744077
0.00063785695 -0.02309332 -0.15009104 -0.2548536 0.06555738 0.1599304 0.18068253 0.05045334
-0.19517 -0.056623798 0.080433354 0.23096515 0.25425428 0.09462342 0.11918495 -0.01937998
0.014762863 0.06426839 0.026379844 0.050103478 0.051073924 0.023265824 0.068273224 -0.05988454
0.037530463 -0.009081661 -0.06801882 0.044804234 0.02661186 0.025999358 -0.049039356 0.008421831
0.0004253727 -0.023678582 -0.07487539 -0.08543545 0.043123875 -0.19928493 0.010845907 -0.1894387
-0.05842392 -0.15850435 -0.09131223 -0.07350744 -0.1373964 -0.03240376 -0.03360417 0.134959
-0.15024883 -0.31390098 -0.318558 -0.2001248 0.10772789 0.056487188 -0.06335159 -0.11154198
-0.16730504 0.097060554 -0.05455978 0.07943462 0.073436365 0.1966771 0.01752511 -0.08225335
-0.24689564 -0.47591686 -0.42093295 -0.23049396 0.028910322 0.16489398 0.012765279 -0.11147418
-0.033833764 0.2089108 -0.08832682 -0.10535968 -0.036970403 -0.071817525 0.052540973 -0.15411925
-0.121037416 -0.13922225 0.03913915 0.0660883 -0.3166718 -0.18177302 -0.015816014 -0.036032233
0.08201979 0.082525425 -0.016053585 -0.06248811 0.00941254 0.050714 0.01604505 -0.009734344
-0.03441208 0.049616132 0.070401706 0.008567177 -0.05412316 -0.02338033 -0.03774695 0.023528509
0.047357712 0.0039938563 0.020461021 0.024795301 0.07207847 -0.047628388 0.0017611968 -0.040107064
-0.0040144394 0.07787335 0.010018827 -0.010507788 0.07882518 -0.006062277 0.17795491 0.07771295

features.7.bias f4 [16]
00000000: e768 44bd dff0 f5be f129 c6bc 67e0 02bc
00000010: aba2 34bb 6f24 0abe 3126 36be 1081 843c
00000020: bbac febc 7e94 c7bd 4bcc 0abf 5721 7ebe
00000030: 29e0 0dbd 937f f63d 3dc0 3dbc 99b0 b6be
-0.047951605 -0.48035333 -0.024189921 -0.007988072 -0.0027562778 -0.13490461 -0.17788006 0.016174823
-0.031088224 -0.097451195 -0.54217976 -0.24817406 -0.034637604 0.120360516 -0.011581478 -0.35681608

features.10.weight f4 [32, 16, 5, 5]
00000000: 07b3 8c3d bbc4 3bbc 1dca bebc e1d8 c2bd
00000010: a5f9 9dbe d9a6 093e 6568 f6bc 85df f4bc
00000020: 7938 14be 7c24 3cbe 2b0d cc3d 9ce9 e9bc
00000030: 7821 fbbc 7685 cdbd 75b6 17bd 64b3 50bd
00000040: a55a 61bd b4d1 5cbe c97c d6bc 8573 4d3d
00000050: 8adb 3cbe 3cb7 b5bd c739 53bc 4141 a1bd
00000060: 918a babd b694 14be 4ddf 2cbe a60d b2bd
00000070: 1252 12be ea12 b73b 40af 6b3d 075b 10be
00000080: c377 a1bd 1b11 58be fc37 383d 60c7 06bd
00000090: 2ad8 95bd b3c6 85bd a415 ff3c d26c 0dbd
000000a0: ec33 83be 1f60 8ebe d57b 07be 9c37 e6bc
000000b0: c334 4dbe 6fa0 6abe f119 2ebe eb5b 363e
000000c0: bcf4 163e e4c6 e03d af58 4b3e d4b4 823e
000000d0: 263a 903e ca92 3c3e 682c 863e 9408 853e
000000e0: 1da7 933e 9582 e63d 07f3 603e 9c43 6b3e
000000f0: 50a7 34be cd31 c2bd 6fc8 aebd 891e 4dbd
00000100: 8911 2dbe 5e8c e4bd 87ea 00bd 0bcd 173e
00000110: a13e 33be 08b6 ecbd f415 6dbe 190b d1be
00000120: 4d0b a6bd d95e 23bd c826 97be eeec ef3d
00000130: 8045 253e 5857 3e3e c240 0cbf 3f03 43bf
00000140: f403 373e 7f38 5d3e fc5d 783d a4ca 36be
00000150: 51d5 67be c368 533d 8293 bebd 9e06 6dbe
00000160: 9171 133d 0c5b 22bd 1b71 f93d 438d 36bd
00000170: ae7d 8f3d ec49 503d a80f 1d3e 2c58 103e
00000180: 7cd0 a83d 8846 a63d f830 57bd 741b e4bd
00000190: 944e 4e3d e99b b6bd f425 1bbe f357 90be
000001a0: ee20 3dbc fceb 213d 8075 a3bd d249 653c
000001b0: 3eaf e13d f6b6 8c3d 1650 86bd 2513 a4bc
000001c0: e21d 99bc 461b 69be a45d 4fbc 77f8 3e3e
000001d0: 1a47 9a3d 8dfc fc3d 043c 683d ebd0 0b3d
000001e0: 88a0 653e c7f7 093e eef0 2b3e 5582 073e
000001f0: 80a9 b2bd a6a2 553e e6e3 713d 1ba4 5f3c
00000200: 57f3 103e 5b68 5c3e 233c c83d ac94 2f3d
00000210: f6ee 45bd f9ee bf3d c07e 733e e3d6 a33d
00000220: b63d 8b3a 4d0e b1bd f9cd 593c e1e4 463e
00000230: 40bf 66bd c027 62bc f98e b23c 54a6 343e
00000240: 15b3 603e 140f a8bc 4acb aebd 10ab 14bd
00000250: 7f95 a83d 419b be3e 9f25 133e c5e4 583e
00000260: f69a 573e aa99 923e 9073 b63e 43a1 453e
00000270: b1de 373e 0ba0 f43d 0b7f 5e3e 274d 893e
00000280: 2152 3fbd 283c 0ebd 8b34 26bd 20c5 42bd
00000290: 65ab 1b3d f8a2 35be b684 84be 69e9 89be
000002a0: 4ca0 e1bd c437 a3bd c787 84be 4162 c1be
000002b0: f609 b3be 4a5e 5abe 9799 5abd a35b 763d
000002c0: 40e1 4c3d fcd7 433e cacf 1e3e d63b ad3c
000002d0: b648 6bbe 016d d8bd 9cf4 dbbc 2b07 8abd
000002e0: 28b4 21bd ec08 93bd 6122 e6bd 3bc8 d1bd
000002f0: 2d13 efbd 5d2c 1abd 4d31 883e 60a0 623e
00000300: 2bfb 9e3c 8b12 1e3b 0ac6 0f3d 35f5 3a3e
00000310: b152 a53e 3f9f 753d 467b 0bbe a706 37bd
00000320: 9030 d23d 5c18 f53d c934 d33d d0b9 c53d
00000330: 1a11 f23c e574 2cbe c1f6 f63d 28b2 a3bd
00000340: 9ef6 86be 1c4a c93d d04f 37be 40d8 4a3d
00000350: e45f 08be f1e6 7abe d9e6 7ebe 96b7 7bbe
00000360: 2b85 923c 7d60 e1bd 01fd b7bd dd56 e8bd
00000370: f1f7 f43d b540 88bd cfac 3f3d b0f3 233e
00000380: b88c f63d 42d0 d93d 5ea6 2b3e a803 623e
00000390: b5be cbbd d613 2f3e bf9a b7bd 1d6a aa3d
000003a0: 7441 cd3d 1f4f f13d 56e3 433e 94f3 313e
000003b0: a509 a13d aa2e 1c3e 7d1d 4b3e 1d4b 4b3e
000003c0: 2607 3f3d 5011 673e 34e9 263e 5593 753e
000003d0: b882 523e 5ee4 8f3d 4905 6bbc 96f8 43bd
000003e0: 9bcd aa3d 17aa 6a3c 1559 333d 21f3 b23d
000003f0: a9cd 113d c31f 0d3e d9e7 593d d742 573d
0.06870084 -0.011460478 -0.023289734 -0.095140226 -0.30854526 0.13442554 -0.030079076 -0.029891739
-0.14474668 -0.18373293 0.09963449 -0.028553776 -0.030655608 -0.10035221 -0.03703924 -0.05095233
-0.055018086 -0.2156437 -0.02618255 0.050158996 -0.18443123 -0.0887284 -0.012892193 -0.07873774
-0.09108461 -0.14509854 -0.16882057 -0.086940095 -0.1428912 0.0055869715 0.05754018 -0.14097224
-0.07884171 -0.21100275 0.044975266 -0.032904983 -0.07316621 -0.065320395 0.031138249 -0.034527607
-0.2562555 -0.2780771 -0.13230832 -0.028102688 -0.20039658 -0.22912763 -0.17002083 0.17808501
0.14741796 0.109754354 0.19858049 0.25528586 0.28169364 0.1841537 0.26205754 0.25983107
0.28838435 0.11255375 0.21967708 0.2297501 -0.1764195 -0.09482155 -0.085343234 -0.05007795
-0.1690122 -0.111595854 -0.031473663 0.14824311 -0.1750436 -0.11558157 -0.23152906 -0.4082878
-0.08107624 -0.039885376 -0.29521775 0.117151126 0.16139793 0.18588006 -0.5478631 -0.7617683
0.17872602 0.21603583 0.060636505 -0.17850739 -0.22639968 0.05161358 -0.09305479 -0.23147056
0.035996977 -0.03963761 0.12179776 -0.04456831 0.070063934 0.050851747 0.15338004 0.14096135
0.0824289 0.081189215 -0.052536935 -0.11138049 0.050367907 -0.08916456 -0.15151197 -0.281921
-0.011543496 0.039531693 -0.07981396 0.013994651 0.11019753 0.068708345 -0.06558244 -0.02002866
-0.018691007 -0.2276431 -0.012656603 0.1864947 0.07533093 0.12352858 0.05669786 0.034134787
0.22424519 0.13473426 0.16791126 0.13233311 -0.08723736 0.20862827 0.05905523 0.013649966
0.14155327 0.21524183 0.09777095 0.042866394 -0.048323594 0.09371752 0.2377882 0.07999971
0.001062325 -0.08645306 0.013293737 0.19423248 -0.056334734 -0.013803422 0.02179669 0.17641574
0.21943314 -0.020515002 -0.08534868 -0.03629595 0.08231639 0.37227824 0.1436982 0.21181019
0.21055207 0.2863286 0.35635042 0.19299798 0.17956044 0.11944588 0.2172815 0.26816675
-0.046709184 -0.03472534 -0.040577453 -0.047551274 0.03800525 -0.17737949 -0.258825 -0.2693589
-0.11016902 -0.07969621 -0.2588484 -0.37770274 -0.34968537 -0.21325031 -0.05336913 0.060145985
0.050019503 0.1912536 0.15508953 0.021146696 -0.22976956 -0.10567666 -0.026850037 -0.067396484
-0.03947845 -0.07179436 -0.11237026 -0.10243269 -0.11673579 -0.037639964 0.26600114 0.2213149
0.019406876 0.002411994 0.035100974 0.18257602 0.3228965 0.059966322 -0.13621244 -0.04468408
0.10263169 0.11967537 0.10312802 0.096545815 0.02954917 -0.16841467 0.12058783 -0.07992965
-0.2636003 0.09828588 -0.1790154 0.04952264 -0.1331783 -0.2450216 -0.24892749 -0.24581751
0.017885765 -0.11004732 -0.089838035 -0.11344693 0.119613536 -0.06652967 0.046795662 0.16010928
0.12038559 0.10635425 0.16762683 0.22071707 -0.09948484 0.1709741 -0.08965062 0.08321021
0.1002225 0.11782669 0.1912969 0.17378074 0.07863168 0.15252176 0.19835468 0.19852872
0.046637677 0.22565198 0.16299897 0.23981984 0.20557678 0.070259795 -0.014344522 -0.047844492
0.083399974 0.014322779 0.043786127 0.087377794 0.035596523 0.13781647 0.053199623 0.052553978

features.10.bias f4 [32]
00000000: d361 c3bb 700e 08bf 521c cbbd 5efa 393e
00000010: 0edb 233e 28c1 6bbe a2fc 27be 00b4 bebd
00000020: 648b 00bf c614 f13c 2bf6 84bd 0bce 5c3b
00000030: d78a b33d 6047 e93c c426 873e b698 2fbb
00000040: ae7e f6bc 6363 5ebd 4dff 903d ad74 c13d
00000050: ea7b 8f3d c633 bb3e 8343 c5be 8923 c7bd
00000060: ef9d 293d c0c5 d93e ae09 873d f7ae 9d3e
00000070: 0f67 033e c0f0 083e ab03 a3bc 811f 913d
-0.0059625893 -0.5314703 -0.09917511 0.18161914 0.16001531 -0.23022902 -0.16404966 -0.09311676
-0.50212693 0.02942885 -0.06492265 0.0033692147 0.08766716 0.028476417 0.26396763 -0.0026793904
-0.030089702 -0.054294 0.07079945 0.09446082 0.070060566 0.36562937 -0.3852807 -0.09723575
0.041410383 0.42533684 0.06593643 0.3079755 0.12832282 0.13373089 -0.01989921 0.07086087

features.12.weight f4 [32, 32, 5, 5]
00000000: 7dbd dfbd 04b9 55be b830 01be 38ee 34be
00000010: 096a 40be 04b5 263e 9350 04be 8fc5 f4bd
00000020: 071f 12be dc05 2d3d 84c2 943e 4b79 c63d
00000030: e2aa 9c3d b696 1f3c 3cde 55b9 9f4e 043e
00000040: b166 c33d ee6c b83d 95ca 93bd 9105 ecbd
00000050: d670 4c3e 8a7a 7fbc 9bc7 9ebb e114 50be
00000060: 4178 29bd f459 083e 9174 763c b196 adbe
00000070: 5fed 82be 505a 0fbd ab90 d53d 7713 bcbc
00000080: f9b0 0e3e c44d 73be 60ac cebd be07 66be
00000090: 0876 e8be 192b 2abf e3a5 f13d 3b4f 223d
000000a0: bf91 c2be eceb 433d 7552 353c 66df 293e
000000b0: 8a5f b93d c8b6 a1be 49f2 adbe cd5d da3c
000000c0: ee7b 93bc b843 9d3d 589f 0fbf 0dc1 05bd
000000d0: 7bd3 a53e c80b 973e b441 443e 08ab efbe
000000e0: 2d51 3ebe fd09 1bbd dfb7 19bc c918 8abe
000000f0: a2c1 fc3e 728f 79be 4704 9abd 72de 0b3e
00000100: c67e 97be 9437 1e3e 4ac4 98be 5371 5cbc
00000110: b84c 32bf 956b 2dbf da91 7a3e 9864 1ebe
00000120: cb68 4ebe 8bf7 34bf 18e5 f8be 24fd b2be
00000130: 81b6 2bbd 88e5 c23a b93b adbd 6cf6 9dbb
00000140: 7203 583c 69c6 a1bd 1815 983e 5b0f 063e
00000150: c7b5 93bd d88a e13d f0a7 ae3d 5d1f e33b
00000160: cf2a 013e fe3c 0d3d 8154 07bf 09bc d4ba
00000170: 0593 f43c 131b af3d a3f0 cf3d d8e9 68be
00000180: d816 41bd 2d95 8e3d 3fc1 373e ac56 3e3d
00000190: ff6b 463e ef69 b93e 9880 863e 1c8d eb3d
000001a0: e810 4b3e 1c03 cfbd 8f32 9abd 9e69 f23d
000001b0: 8775 9e3c 3973 01bc 9523 1f3e 8a84 4dbc
000001c0: 5aca 89bd e4d0 703d ed1f fa3d e32e 9e3e
000001d0: 4d6b c13d 3255 1bbe 9ba2 253d 67af 763e
000001e0: 3b32 633e dfc8 75bc fab3 383e 369e 9f3d
000001f0: 1200 7f3e 5383 c5be 296a 3d3e 104e 7dbd
00000200: 6a99 31be f799 bdbc b1c0 8e3d dc00 8f3d
00000210: f76d 93be 7b95 2cbe a549 c2be 5d5a 203e
00000220: cf92 903e a448 58bd 99f6 3ebd 4100 953d
00000230: e288 a0bc 422f 55be 85b6 f7bd 6aca 0f3e
00000240: 2244 183e cc1a 8f3d 1451 763c 36aa 5dbc
00000250: a8dc 18bd ecfb 013d dcdf cdbe 3b96 12bf
00000260: 6e8a 783d 04d6 2b3e f576 833e 2992 8abe
00000270: 839a b6be 75aa 7a3e 08c9 4c3e a326 81be
00000280: 85ea 143e 6ed8 65bd 016b 28be faff adbd
00000290: 13f7 b93b ee06 04bd d878 f2be 16d9 e83d
000002a0: 1e26 b13e 3a98 6f3e c80b a2be 0a70 3b3e
000002b0: 9955 f33e 44f1 69be 54bc 17bf 0755 d7be
000002c0: 182d 99be 08e0 b2be 3855 703e f0a9 293e
000002d0: 8f45 c7be 1231 513d 5bd1 203e f697 063e
000002e0: 0a03 efbd 0821 1bbf 56eb 35bf 36c5 06bd
000002f0: c614 1bbe f499 81bd 21a0 a3bf a420 11bf
00000300: 2769 7dbe 4247 3fbe 73ba 993e 421d 2fbf
00000310: 1fac f63d 2800 e63c 39a9 ae3e 6ea5 743e
00000320: d655 85bb d1ab b9bd bc4f 4c3c bfdc eabe
00000330: 84bc 28bf 14cb 773e dcbe 05bf 691d fd3d
00000340: d188 dfbd 2b5f e6bd b855 883e b681 ef3e
00000350: 7fc8 dcbc 1cf5 2bbf dbe5 21bf 574c 403c
00000360: 51cc 1e3e 5c00 32be 9ba7 7bbd 2c97 2ebc
00000370: b601 53be 30d2 3f3e 79b1 b73d 6de6 653e
00000380: 122b 503e b1d6 dbbe e16f c2bd 770f 18be
00000390: e48f 7d3d e7cd 7fbe 621d b7bd 715f 1d3e
000003a0: 30f3 43be 78f6 9c3e d030 043e 3067 7d3c
000003b0: 4c72 973d 5384 f53b 63e1 92be 5ff2 133e
000003c0: 6ec8 31bf 01e7 7abd af62 96be c44f 1abf
000003d0: 0aab cd3e 7d54 19bd 8565 ee3e f18e bf3d
000003e0: f452 fdbe a853 98bd 5b44 fe3d 0f2c ca3d
000003f0: 5f90 5a3e f462 663d 94cc 30be f339 043e
-0.10924814 -0.20871359 -0.12616241 -0.17668998 -0.18790449 0.1627999 -0.12921362 -0.11951744
-0.14269648 0.042241916 0.29054654 0.096911035 0.07649781 0.009740522 -0.00020396052 0.12920617
0.09541071 0.09005152 -0.07216374 -0.11524499 0.19964918 -0.01559318 -0.004845572 -0.20320465
-0.04137445 0.13315564 0.01504244 -0.3390403 -0.25571725 -0.034998238 0.10427984 -0.0229585
0.13934697 -0.23760134 -0.10091472 -0.22463891 -0.4540255 -0.6647201 0.117992185 0.03962634
-0.3800182 0.047832415 0.011067023 0.16589126 0.09051426 -0.31584764 -0.3397391 0.026656056
-0.01800343 0.07678932 -0.56102514 -0.03265481 0.3238791 0.29501176 0.19165689 -0.46810174
-0.18585654 -0.037851322 -0.009382217 -0.26972035 0.4936648 -0.24371126 -0.07520347 0.13659075
-0.29588908 0.15450889 -0.29837257 -0.013454753 -0.69648314 -0.6774228 0.244697 -0.15468061
-0.20157163 -0.7069022 -0.48612285 -0.34958756 -0.041922096 0.0014869431 -0.08458657 -0.0048206355
0.013184415 -0.07899172 0.29703593 0.13091795 -0.07212406 0.110128105 0.08528125 0.006931229
0.12613986 0.034481995 -0.5286332 -0.0016230355 0.02985526 0.08550086 0.1015332 -0.22745454
-0.047140926 0.06962047 0.17944811 0.046469375 0.19377135 0.36213633 0.26269984 0.11501524
0.19830668 -0.10108015 -0.075291745 0.11836551 0.01934315 -0.007901006 0.15540917 -0.012543807
-0.067280486 0.058792964 0.122131206 0.30895147 0.09444294 -0.15169218 0.040438276 0.24090348
0.2218713 -0.015001505 0.18037406 0.07793848 0.2490237 -0.38576755 0.18497528 -0.061842024
-0.17343679 -0.023144705 0.06970347 0.06982586 -0.28794834 -0.16853897 -0.3794681 0.15659471
0.28237006 -0.05280365 -0.046621893 0.07275439 -0.01959652 -0.20818809 -0.1209536 0.14042059
0.1486974 0.06987533 0.015033979 -0.013529351 -0.03731981 0.031734392 -0.40209854 -0.57260484
0.06067889 0.16780859 0.25676695 -0.27064636 -0.35664758 0.24479087 0.19998562 -0.2522479
0.14542587 -0.056114607 -0.16447069 -0.08496089 0.0056752055 -0.03223317 -0.4735782 0.11369531
0.34599394 0.23397914 -0.31649613 0.18304458 0.47526243 -0.22845942 -0.5927174 -0.42057058
-0.29917216 -0.34936547 0.23470008 0.16568732 -0.38920256 0.051072188 0.15704863 0.13143906
-0.116705015 -0.60597277 -0.7106222 -0.03290292 -0.15144643 -0.06328192 -1.2783242 -0.5669043
-0.24747144 -0.18679526 0.30025062 -0.6840402 0.12044548 0.028076246 0.34113482 0.23891231
-0.0040690703 -0.090659745 0.012470182 -0.4587154 -0.6591265 0.24198562 -0.52244353 0.12359125
-0.109147675 -0.112486206 0.26627898 0.4677865 -0.026951073 -0.6717088 -0.63241357 0.011736951
0.15507628 -0.1738295 -0.061439138 -0.010656159 -0.20606121 0.18732524 0.08969397 0.22451182
0.2032893 -0.42937234 -0.094939955 -0.1484965 0.061904803 -0.2498089 -0.08941151 0.1536844
-0.19135737 0.3065679 0.12909245 0.015466496 0.07394847 0.007492581 -0.2868758 0.14447926
-0.69446456 -0.06125546 -0.29372165 -0.6027796 0.40169555 -0.03743409 0.46561828 0.09353436
-0.4947735 -0.07437831 0.124153815 0.09871685 0.21344136 0.056246713 -0.1726554 0.12912731

features.12.bias f4 [32]
00000000: a285 7abd 8eb6 df3e 9841 713e 5f7c c73c
00000010: eb7a 223e bb86 163e b3a6 ddbd 75e9 d5bd
00000020: b25c bebe 2799 953b e8c4 643e 22bc e4bd
00000030: 3b61 7f3d b3a0 893d 4408 46be b77f a83d
00000040: 5cee f13d 2f2c 6d3d 0eb7 98bd 398e 54be
00000050: 52e2 bc3d 7465 52bd f116 083e f3a5 da3c
00000060: 013e 42be b8f7 5ebe c357 55be 4f44 0e3d
00000070: 3af1 bd3e cc47 b3bd 3a74 b03e a5bb b2bd
-0.0611626 0.43693966 0.23560178 0.024351297 0.15867202 0.14699833 -0.10822811 -0.10444919
-0.37180096 0.0045653763 0.22340739 -0.11168696 0.062348586 0.06720104 -0.1933909 0.08227485
0.118130416 0.057903465 -0.0745679 -0.20757379 0.09222855 -0.051366284 0.13290001 0.026690459
-0.18968965 -0.21774185 -0.2083426 0.034733113 0.37098104 -0.087539285 0.34463674 -0.087271966

features.15.weight f4 [16, 32, 3, 3]
00000000: 0766 25be de7f 0fbd e24e b5bd 7df5 07bd
00000010: e151 123e 9e29 513d 0c64 26be 891c f0bd
00000020: 6415 74bd 82fa 2c3c 831a 0f3e 6c69 093e
00000030: 39cc dcbd 113c 99bd d330 81bd 8d0d ae3d
00000040: 52dd 8c3d d38f b33d 63d0 9d3d 0c5b ed3d
00000050: 9824 003e 0b10 7e3d bab0 90bd 23e8 d43d
00000060: 0ee8 16bb cf46 973d 4d16 643b 7619 06be
00000070: 7501 d2bd 09f7 093e 5545 05be ff10 f6bd
00000080: d7ee b8bb 7e21 f7bd 8ce2 993d 37cf de3c
00000090: 6506 b13d cc50 ab3d 5df0 d8ba 3884 d13b
000000a0: 4d8c 1bbc 963d 4dbd a132 263d e51c 4bbd
000000b0: a87d b03d b28c a13e 791a d53c e604 b63e
000000c0: 7958 953d 54d5 34be 37d7 bb3d 450b be3e
000000d0: 9146 163c a1bb 933e 6fad 8cbd 63d4 a93d
000000e0: ac45 a4bd 79a9 ac3d 4d7f e8bd a2ee 823b
000000f0: d05f af3d 7f63 09bd d0f4 fbbd bc72 25be
00000100: 4e7f 33be e791 ccbd 7a2b d13c 236c 0f3d
00000110: 7f76 983d c226 55be 7c50 c53d f0a6 67bd
00000120: 4299 febd 1d63 8cbd a4a6 28be 03aa a73d
00000130: 4795 543d 536e 05bd 048f 6cbd 5721 0dbd
00000140: 3924 d5bd 4567 513e 2e4f b33d 73b7 3c3e
00000150: d588 633e 1e32 94bc 9fcb 773e a6dd 7d3e
00000160: 2d23 263e fd03 e73d 045d bfbd 3de2 8cbd
00000170: 4291 dc3c 629c 08bd 2468 893c d0e2 c43d
00000180: a51a eebd 7c3f fa3c 86c8 b7bd 4b47 f3b9
00000190: 3a33 b2bd 6e9c bfbd bc9f 2bbd 3c65 773e
000001a0: 83df ccbc 4f47 49be a8f9 c73b 6dc3 81be
000001b0: 743d 6fbe 1889 9e3c 6496 a9be d57f 833d
000001c0: a6ff 9f3e 4c62 5a3c 7064 bfbe cb25 6bbd
000001d0: 1621 aebe 2935 df3d 8e72 a1bd baf1 dabb
000001e0: c78e a13d cbe9 bdbc 3b5e 43be ebac 5b3d
000001f0: 6562 ab3d 82ff 5e3b 89cd 18be 3694 aabd
00000200: 3cd3 b4bd 19bf 1fbe 02cd 023e fc35 883d
00000210: 7d28 88be 594e c1bd 8f28 1ebe 8aa1 08be
00000220: 5868 03bd 6da5 48be c305 de3c 7562 2f3e
00000230: 86f7 72bd 41fe 91be d9fe 81bc 8dc0 4ebe
00000240: b9e1 6bbc f1d5 553d 91c0 8a3d dd76 db3b
00000250: 40e2 8f3d e5f4 163e 7d80 d4bd 16e3 253d
00000260: a8da 37be 3b47 7a3e 59ad 793e a527 1c3e
00000270: 5c98 413e 7309 d33d 4f74 373d cfca 8d3e
00000280: 08a1 583e 4526 983e 70e1 4e3d 67cd c2bd
00000290: a027 e83d 5772 33bd 4f90 9dbd 2e56 aabd
000002a0: 9cf6 d53d a50f 94bd 58ff 98bc 70b1 68be
000002b0: 0436 9ebd a21a c4be d0e9 653d 5d0b d33d
000002c0: db0f 5d3b 7a78 0bbe c365 a7bd f131 83be
000002d0: 8c92 f1bc 8ab6 fd3c 3f18 cdbc cb52 0b3d
000002e0: 42fe 21bd bdca 61bd 066a 39bd 4665 03b9
000002f0: 7384 ddbd 7a3c 63be c4b6 bdbc a0d5 8abe
00000300: 1858 273e 0108 e23d 69dc 1d3d 5333 e13c
00000310: 3a5e 8fbd 8c52 e3bd 79cf 85bd e796 bcbd
00000320: b942 a73b 27f8 cebc 68e1 263d de1d e8bc
00000330: 1dcb ef3c d8f3 b43d 3960 a23c 7b4e 73bd
00000340: 7e48 113d fe40 96be cacb 813d 7500 0fbd
00000350: f126 72bd dd05 b83c 7d17 3ebe cdf9 4cbe
00000360: e535 37be 4631 47bc 6535 aabe 1c0a 373e
00000370: 679d 5c3e bb6e 1fbd 0220 a9bd 49e7 b3bd
00000380: b039 9abe b6f5 8dbe 9e1c 4c3d 8af5 6ebe
00000390: a7c3 a1bd 9f7b 933d d1df 58be be17 bebe
000003a0: 7e0f 20be 0573 85be 9d89 00bf a805 a1bd
000003b0: ff9b 8ebe 1ba5 44be 70a2 903e 511f 1dbe
000003c0: 4a71 c5be 3d66 2e3e d70d 60be 76a2 5d3d
000003d0: baed 9f3d 9389 c13d 90b4 5a3d 2b1d 0a3d
000003e0: f3d2 aa3d 312a 4c3e 2460 293e 5f42 b43e
000003f0: 986d 373e 5e43 b3bd a18b 733e 0e8e 89bd
-0.16152202 -0.035034053 -0.08852936 -0.0331931 0.14289047 0.05106508 -0.16249102 -0.11724193
-0.059590712 0.010557773 0.13974957 0.13419122 -0.1078114 -0.0748216 -0.063081406 0.08498678
0.06878151 0.08767667 0.07705762 0.115896314 0.1251396 0.06202702 -0.07064958 0.10395839
-0.00230265 0.073865525 0.0034803331 -0.1309565 -0.10254184 0.13473143 -0.1301473 -0.120149605
-0.0056437063 -0.12066935 0.075139135 0.027198417 0.08643798 0.0836502 -0.0016551126 0.0063939355
-0.0094938995 -0.05010756 0.040575627 -0.049588103 0.08617717 0.31552655 0.0260136 0.35550612
0.072922654 -0.17659503 0.09171908 0.37117973 0.009172098 0.28854087 -0.06869017 0.08292463
-0.08021101 0.08430762 -0.11352406 0.0039957324 0.08563197 -0.033542152 -0.12302554 -0.16157049
-0.17529032 -0.09988766 0.025533427 0.035015237 0.07444476 -0.20815566 0.09634492 -0.05655569
-0.12431575 -0.06854842 -0.16469818 0.08186724 0.051900174 -0.032575916 -0.057753578 -0.034455623
-0.104072995 0.2044955 0.08755337 0.18429355 0.22220166 -0.018090304 0.24198769 0.24791583
0.16224356 0.112800576 -0.09343913 -0.06879089 0.026924733 -0.033352263 0.016773291 0.096135736
-0.11626176 0.03054785 -0.08973794 -0.0004640169 -0.08701177 -0.093560085 -0.04190038 0.24159712
-0.025008922 -0.19656108 0.0061027594 -0.2534441 -0.23363286 0.01935248 -0.3312255 0.064208664
0.31249732 0.0133291 -0.37381315 -0.05740909 -0.34009618 0.10898811 -0.07883178 -0.006681648
0.07888561 -0.02318277 -0.19078915 0.053631704 0.08368377 0.0034026806 -0.14922155 -0.0832905
-0.08829352 -0.15600242 0.12773517 0.06650922 -0.2659339 -0.09438772 -0.1544516 -0.13342872
-0.03208193 -0.19594355 0.027102357 0.17127402 -0.059318088 -0.28514293 -0.015868591 -0.2019064
-0.014397078 0.052205984 0.067750104 0.006697519 0.07025576 0.14741857 -0.1037607 0.04049977
-0.17954504 0.24441235 0.24382533 0.15249498 0.18905777 0.10304537 0.044788655 0.27693793
0.21155179 0.29716697 0.050507963 -0.09511834 0.11335683 -0.043810215 -0.0769354 -0.08317219
0.10447428 -0.072295465 -0.018676445 -0.22723937 -0.077251464 -0.3830157 0.056131184 0.10304902
0.0033731374 -0.13620177 -0.081737064 -0.2562404 -0.029488824 0.03097083 -0.025035976 0.034014504
-0.03954912 -0.055124987 -0.045267127 -0.00012530861 -0.10816278 -0.22191039 -0.023158439 -0.27116108
0.16342199 0.11036683 0.038540278 0.027490294 -0.07000394 -0.11099729 -0.06533713 -0.0920847
0.0051043895 -0.025264813 0.040742308 -0.028334554 0.029271657 0.08835572 0.019821273 -0.059401017
0.035469525 -0.2934646 0.06337698 -0.034912545 -0.05911917 0.022463733 -0.18563648 -0.20017166
-0.17891653 -0.012157744 -0.33243862 0.1787495 0.21544419 -0.03892396 -0.08258058 -0.087843485
-0.30122137 -0.27726525 0.04983198 -0.23335853 -0.07898646 0.07201313 -0.21179129 -0.3712749
-0.1563091 -0.26064315 -0.5020998 -0.07862407 -0.2785339 -0.19203608 0.2824893 -0.15343978
-0.38562995 0.17031188 -0.2188028 0.054110013 0.078090146 0.09450068 0.053394854 0.033719223
0.083410166 0.1993797 0.16540581 0.35206887 0.179129 -0.08753084 0.23783733 -0.06716548

features.15.bias f4 [16]
00000000: c919 563e 0f61 2b3e e59c 2d3e 57a8 3f3e
00000010: 48ad 043f 61dc 48bf e638 7fbe 8aa5 81bf
00000020: 4f76 823e 2e55 db3e 801c ef3e c40c 613e
00000030: d601 c43e 2946 e53d 3a13 263e 1a5b 273f
0.20908274 0.16736244 0.16954382 0.1871656 0.51826906 -0.7846127 -0.24924049 -1.0128644
0.25480887 0.42838424 0.4670143 0.21977526 0.3828265 0.111950226 0.16218272 0.65373385
