output/models/220424_1936_ggcnn2_rotate0.2/epoch_03_iou_0.44_statedict.pt (torch, 274205 bytes, 20 tensors)

features.0.weight f4 [16, 1, 11, 11]
0	0xbd1a1f60	-0.037627578
1	0xbc813acf	-0.015775112
2	0xbca64bcc	-0.020299815
3	0x3d30d798	0.043174356
4	0x3c21065f	0.009828179
5	0x3b8a1c3a	0.0042147906
6	0x3c6ddfe0	0.014518708
7	0x3c9079ea	0.017636258
8	0x3c025e96	0.007957121
9	0xbd3dff88	-0.04638627
10	0x3cf59e21	0.029982628
11	0x3ccecc1b	0.02524381
12	0x3d3419f7	0.043970075
13	0xbc2939db	-0.010328735
14	0x3c6281f3	0.013824928
15	0x3d36305c	0.044479713
16	0x3a37ceab	0.0007011692
17	0xbd23b016	-0.03996285
18	0xbbf50de7	-0.007478464
19	0x3c27db2e	0.010245128
20	0x3d35dc37	0.044399466
21	0x3d7a9dad	0.061185528
22	0xbc65f32d	-0.014035028
23	0xbb997cfb	-0.0046840883
24	0xbad56a51	-0.0016282295
25	0x3cd6e246	0.026230942
26	0xbd4c04ac	-0.049809143
27	0xbbb2ec73	-0.005460316
28	0x3d42db43	0.047572386
29	0x3c238c78	0.009982221
30	0xbd2e9e74	-0.04263158
31	0xbc5f53ad	-0.01363079
32	0xbbd9b3e7	-0.0066437605
33	0x3c697d1e	0.014251022
34	0xbcc60bc6	-0.024175536
35	0xbcf646aa	-0.030062992
36	0x3b0ed902	0.0021796827
37	0xbb4f860f	-0.0031665599
38	0x3d3580b2	0.044312187
39	0xb9eb1c7d	-0.00044843918
40	0x3c10db33	0.008841324
41	0x3d23f9d9	0.040033195
42	0x3d014544	0.031560197
43	0x3c8131c0	0.015770793
44	0x3d33c34e	0.04388743
45	0xbd4e7c54	-0.050411537
46	0x3ca6df29	0.020370083
47	0xbc699c7a	-0.014258498
48	0xbd269582	-0.040669926
49	0x3baffafc	0.005370496
50	0x3b3b2628	0.0028556678
51	0xbd3c7fd1	-0.046020333
52	0xbd51e782	-0.051246174
53	0xbd166908	-0.03672126
54	0x3d2dcd9b	0.04243241
55	0xbce14c01	-0.027502062
56	0xbce240ca	-0.027618784
57	0x3d1ccc97	0.03828105
58	0xbc992a76	-0.018697005
59	0x3ad09747	0.0015914225
60	0xbd240f10	-0.040053427
61	0xbc8922cb	-0.016740223
62	0xbcc520d4	-0.024063505
63	0xbc07f4dc	-0.008298125
64	0xbc15c076	-0.009140125
65	0xbc8a6df6	-0.016898137
66	0xbc9d27a4	-0.019183941
67	0xbc037d73	-0.008025515
68	0x3d05780b	0.032585185
69	0xbbb6756d	-0.0055681975
70	0xbcade9d2	-0.021229658
71	0xbd326cfb	-0.043560963
72	0xbcab95fc	-0.020945542
73	0xbc9b335c	-0.018945388
74	0xbd3acb83	-0.04560424
75	0xbcd322aa	-0.025773365
76	0x3c78eebc	0.015193637
77	0x3d409263	0.047014605
78	0xbc693c11	-0.014235512
79	0x3cfa2681	0.030535938
80	0xbc34157f	-0.010991453
81	0x3d4b2a66	0.04960098
82	0xbd0c56c6	-0.03426244
83	0xbd2fae15	-0.042890627
84	0x3cfb08cc	0.030643843
85	0xbc26d092	-0.010181563
86	0xbcef46ee	-0.029208627
87	0xbb61c0bb	-0.0034447152
88	0x3d1dab77	0.0384936
89	0xbcb966ef	-0.02263209
90	0x3a8649b7	0.0010245357
91	0x3d0e3317	0.03471669
92	0x3baa8ae3	0.005204545
93	0x3c1aa3e1	0.009438486
94	0xbcee9f21	-0.029128613
95	0xbc56cada	-0.013109887
96	0x3ca7f7fd	0.020503992
97	0xbd121371	-0.035663072
98	0x3c2a3d21	0.010390551
99	0x3c976f8a	0.018485803
100	0xbd00b160	-0.031419158
101	0xbd0fd925	-0.035119195
102	0xbd34f478	-0.044178456
103	0xbcfca146	-0.03083862
104	0xbd032cdf	-0.032025214
105	0x3d4d41ad	0.05011146
106	0xbd272553	-0.04080708
107	0x3c593994	0.013258357
108	0x3ad57b40	0.0016287342
109	0x3ccffaae	0.025388088
110	0xbccea6ce	-0.025226023
111	0x3c4ff002	0.0126915
112	0x3d48f73c	0.049063906
113	0x3d0c3ca4	0.03423752
114	0xbc87eb0f	-0.016591577
115	0x3ce3dc36	0.027814966
116	0xbc902891	-0.017597469
117	0xbc45fc2e	-0.01208405
118	0xbcba7f00	-0.022765636
119	0x3cb9fc36	0.022703271
120	0x3d371a61	0.04470289
121	0x3bde33fe	0.0067811003
122	0x3c8a2dea	0.016867597
123	0x3d0cf683	0.03441478
124	0xbbb0bb22	-0.0053934017
125	0x3d0aed0e	0.03391748
126	0x3c1a450a	0.009415874
127	0x3ccdcec5	0.02512301
128	0xbcef1e2b	-0.02918919
129	0x3d8726fc	0.065992326
130	0xbc816351	-0.015794428
131	0x3c50846b	0.012726883
132	0x3c5e51f7	0.013569347
133	0xbbe2fe6f	-0.0069273035
134	0xbccf9494	-0.025339402
135	0x3c52ebde	0.012873618
136	0x3d3c73b5	0.046008784
137	0x3ccdd735	0.025127033
138	0xbacc3496	-0.0015579637
139	0x3b3f3b5b	0.0029179666
140	0x3cc3be42	0.023894433
141	0x3cc2114c	0.023689888
142	0xbc9fe7f6	-0.019519787
143	0xbb6a7ea8	-0.003578106
144	0x3cb4da19	0.022076653
145	0x3c87621a	0.01652627
146	0x3a7120d7	0.0009198314
147	0xbbbbc1af	-0.005729876
148	0x3d7449b2	0.059640594
149	0x3c9de07a	0.019272078
150	0x3bf39bfb	0.007434366
151	0x3ccdac96	0.02510671
152	0xbd0283b0	-0.03186387
153	0x3cfcf7dc	0.030879907
154	0x3ce3e538	0.027819261
155	0xbb3ea301	-0.0029088857
156	0xbcf5b652	-0.029994164
157	0x3ccd6e88	0.02507712
158	0xbc99bf50	-0.018767983
159	0x3b1703b4	0.0023042979
160	0x3b8f01ad	0.0043642134
161	0x3d70af78	0.05876109
162	0x3c6d078a	0.0144671295
163	0x3c26510f	0.010151162
164	0x3c85909c	0.016304307
165	0xbc31dc68	-0.010855772
166	0x3d3d9724	0.046286717
167	0x3cb3d580	0.02195239
168	0x3d081789	0.03322557
169	0x3d7ede82	0.06222392
170	0xbcb6bbee	-0.022306409
171	0xbc39c081	-0.0113374
172	0x3d0b60bc	0.0340278
173	0x3d74c9bf	0.059762713
174	0xbc04f68b	-0.008115421
175	0x3c873ab4	0.016507484
176	0x3bb6f305	0.0055831694
177	0xbbccb3c0	-0.006247014
178	0x3ca91b74	0.020642973
179	0x3c8327c3	0.01601017
180	0x3c503cd0	0.012709811
181	0x3d760255	0.060060818
182	0x3d50c427	0.050968315
183	0x3d7a4395	0.061099607
184	0x3d091fe7	0.03347769
185	0xbd1b1fd9	-0.03787217
186	0x3d071516	0.032979093
187	0x3bfecbf2	0.007775777
188	0x3d5e9b7e	0.054347508
189	0x3c7bd1ee	0.015369875
190	0xbbcfe0ad	-0.006343922
191	0xbc77d860	-0.015127271
192	0xbceebc6d	-0.029142583
193	0x3d533583	0.051564705
194	0x3b83ad0d	0.004018432
195	0x3d0d879e	0.034553163
196	0x3d4e0d68	0.050305754
197	0x3d55563a	0.052084185
198	0x3b2456c9	0.0025076142
199	0x3d03837c	0.032107815
200	0xbd2912af	-0.041277584
201	0x3ce67b44	0.02813495
202	0xbce487a2	-0.027896706
203	0x3d24366c	0.040090963
204	0x3d29cdb5	0.041455943
205	0x3d821c70	0.0635308
206	0x3d00b64d	0.031423856
207	0x3d0779a1	0.03307498
208	0x3c09ebfd	0.00841808
209	0x3d1b416e	0.037904195
210	0x3c4ed243	0.0126233725
211	0xbc8058eb	-0.0156674
212	0x3c8c2297	0.017106337
213	0xbc64f544	-0.0139744915
214	0x3d6d5508	0.05794242
215	0x3c95cd80	0.018286467
216	0xbc62d14c	-0.013843846
217	0xbd04f244	-0.032457605
218	0xbcd99c44	-0.026563771
219	0x3d82a71b	0.06379529
220	0xbcee1649	-0.02906336
221	0x3caa5117	0.02079062
222	0xbc5aae84	-0.013347272
223	0xbc26fb4c	-0.01019175
224	0x3b793cf7	0.0038030723
225	0x3bcac0d5	0.006187538
226	0x3d086348	0.033297807
227	0xbd2e7000	-0.04258728
228	0x3c7d114d	0.015446019
229	0x3b37abdc	0.002802602
230	0x3cbd4c9c	0.02310782
231	0xbd1feb13	-0.039042544
232	0x3ce98f30	0.02851066
233	0x3a3f226f	0.0007291203
234	0xbca0dbd1	-0.019636067
235	0x3afcddea	0.001929221
236	0xbcd748ac	-0.02627977
237	0xba060998	-0.0005113124
238	0x3d1ac8a8	0.037789017
239	0xb9c7de0c	-0.00038121676
240	0x3d65058d	0.055913497
241	0x3d29ca1e	0.04145252
242	0xbc5b8752	-0.013398962
243	0x3c6e323c	0.014538344
244	0xbcd63f2e	-0.026153173
245	0x3d5ba3f1	0.053623144
246	0x3d5a8d14	0.0533572
247	0x3cf14a05	0.02945424
248	0x3d1d103e	0.038345568
249	0x3d74d167	0.059770014
250	0x3d0a850d	0.033818293
251	0x3c8584a1	0.016298594
252	0xbccde9bf	-0.025135873
253	0x3d5a06ff	0.05322933
254	0x3d5f3000	0.054489136
255	0x3c29ece8	0.010371424

features.0.bias f4 [16]
0	0xbd8f5d2a	-0.070001915
1	0x3d2b6d1c	0.0418521
2	0xbdba8086	-0.09106545
3	0xbdc7b5a7	-0.09751444
4	0x3d25b88b	0.040459197
5	0x3e4e3680	0.20137978
6	0xbe3ec9c2	-0.18631652
7	0xbdf180bc	-0.11792132
8	0xbcc4c400	-0.024019241
9	0xbe015390	-0.12629533
10	0xbd595f20	-0.053069234
11	0xbd94791a	-0.07249661
12	0x3e2a9596	0.16658625
13	0xbdd4d28a	-0.1039172
14	0xbd9719d7	-0.073779754
15	0xbd48f379	-0.04906032

features.2.weight f4 [16, 16, 5, 5]
0	0xbdafd9f0	-0.0858649
1	0x3cd67b58	0.026181862
2	0xbb94ea55	-0.004544536
3	0x3d1fd158	0.039018005
4	0x3d07d73a	0.03316424
5	0x3d3faf84	0.046798244
6	0x3d8582f8	0.06519121
7	0xbcfbca28	-0.030736044
8	0xba8c2dc9	-0.0010694797
9	0xbd6e570f	-0.058188494
10	0x3d1fe716	0.03903874
11	0xbd025441	-0.031818632
12	0x3d062b2b	0.032756012
13	0x3d735d1e	0.059414975
14	0x3d1ec1e1	0.038759116
15	0xbc699b1b	-0.014258171
16	0x3be8fc84	0.0071101803
17	0xbc0d0050	-0.008606032
18	0xbcae288d	-0.02125957
19	0xbbe59f37	-0.0070075053
20	0x3d5d8173	0.05407853
21	0xbc715c19	-0.01473143
22	0xbd2078ef	-0.03917783
23	0x3d94deae	0.07269035
24	0xbcb99319	-0.02265315
25	0x3d9c5a32	0.07634391
26	0xbd12104c	-0.035660073
27	0xbd8be754	-0.06831232
28	0x3b041985	0.0020156812
29	0x3c17e8c6	0.009271806
30	0xbd791ecc	-0.060820386
31	0xbdad4904	-0.08461192
32	0xbcce4e03	-0.025183683
33	0x3d84790a	0.06468399
34	0x3cabe9e1	0.020985546
35	0x3d857dda	0.06518145
36	0xbd490951	-0.04908115
37	0x3d599631	0.05312175
38	0x3c87fd31	0.016600223
39	0x3c8f0ef1	0.01746318
40	0x3c403ddb	0.0117334975
41	0x3d228585	0.039678115
42	0xbcc9614e	-0.024582531
43	0xbc5f6d44	-0.013636891
44	0x3db801a7	0.0898469
45	0x3c8329ae	0.016011085
46	0x3db11fdd	0.086486556
47	0x3d4f8125	0.05066027
48	0xbd7f4e60	-0.062330604
49	0xbd958e69	-0.07302553
50	0x3ceae7a0	0.0286749
51	0xbd90c2f6	-0.07068436
52	0xbd4473d1	-0.047962014
53	0x3d3657f0	0.044517457
54	0xbd63201b	-0.05545054
55	0x3cc977c1	0.024593236
56	0xbce5eed3	-0.028067982
57	0x3d27ad35	0.040936667
58	0xbd84dfa7	-0.06487971
59	0xbd47dc46	-0.048794053
60	0xbd818754	-0.0632464
61	0xbd57c933	-0.052682113
62	0x3a68cd59	0.0008880697
63	0x3d3208cf	0.04346543
64	0x3d81441c	0.06311819
65	0x3ca3b588	0.019984022
66	0x3a40f17b	0.0007360202
67	0xbd566d2e	-0.052350216
68	0x3bc377e9	0.005965222
69	0x3d462239	0.04837248
70	0x3da96fab	0.08273252
71	0xbd1cf38f	-0.038318213
72	0xbc558f44	-0.0130346455
73	0x3d87f77e	0.06639002
74	0x3d34a4c5	0.04410245
75	0xbc233052	-0.009960251
76	0x3c43c155	0.011947949
77	0x3da4061c	0.08008978
78	0x3cfcf12b	0.030876717
79	0xbc596bdd	-0.0132703455
80	0xbd48c36d	-0.049014498
81	0xbb7d10f7	-0.0038614848
82	0x3c9d4e32	0.019202325
83	0xbd9d08f3	-0.076677226
84	0x3d8845da	0.06653948
85	0xbd8ca6e6	-0.06867771
86	0xbb156518	-0.0022795852
87	0x3db111c7	0.08645969
88	0x3d1dc5d1	0.03851873
89	0xbd093fbc	-0.033508047
90	0xbd40f96d	-0.04711287
91	0x3ce95ee8	0.028487638
92	0x39a2c9af	0.00031049314
93	0x3d8efbc7	0.069816165
94	0xbda354fd	-0.079751946
95	0xbce93e60	-0.028472126
96	0xbca23b64	-0.01980371
97	0x3d79cf52	0.06098873
98	0x3d43bfe2	0.047790416
99	0xbd8f5090	-0.06997788
100	0xbbb36644	-0.0054748375
101	0xbd0e777b	-0.034781914
102	0x3d89e652	0.06733383
103	0x3d77a99b	0.060464483
104	0x3d216cd8	0.039410442
105	0xbdbcb1df	-0.09213614
106	0xbd5faae4	-0.054606333
107	0x3a4a7598	0.00077232113
108	0x3ca792da	0.020455766
109	0x3c94a096	0.01814298
110	0x3d244e07	0.040113475
111	0x3cd6dcae	0.026228275
112	0xbdd0dd1c	-0.10198423
113	0xbd9dcf49	-0.07705552
114	0x3cda1af1	0.026624175
115	0x3cfcee63	0.03087539
116	0xbc886a10	-0.016652137
117	0xbdc52c6e	-0.09627615
118	0xbd3da519	-0.046300028
119	0xbd4689e3	-0.048471343
120	0xbd3d9cf1	-0.04629225
121	0x3ce9c755	0.028537432
122	0x3d3eed33	0.04661293
123	0xbc744bc0	-0.014910638
124	0xbd4ae978	-0.04953906
125	0xbd88225b	-0.06647178
126	0xbbc28d50	-0.005937256
127	0xbd0be509	-0.03415397
128	0x3d336717	0.043799486
129	0xbd52e469	-0.05148736
130	0x3ca8ac0b	0.020589849
131	0xbd8ea143	-0.06964352
132	0x3d8a7e99	0.06762428
133	0xbd465b18	-0.048426718
134	0xbd8ced0c	-0.068811506
135	0xbcfb6acb	-0.030690571
136	0xbd81d541	-0.06339503
137	0xbd961139	-0.07327504
138	0xbcfee8c2	-0.031116847
139	0x3d52a464	0.051426306
140	0x3d0c5b0e	0.034266524
141	0xbd3aae7d	-0.04557656
142	0xbd3c6ad5	-0.04600032
143	0x3b1a59bc	0.002355202
144	0x3d935566	0.07194023
145	0xbd994751	-0.07484306
146	0xbd4d5a0f	-0.050134715
147	0x3c613454	0.013745386
148	0x3ce04081	0.027374508
149	0xbd41f147	-0.04734924
150	0xbc942cb8	-0.01808773
151	0xbcbf9ac0	-0.02338922
152	0x3c525714	0.012838144
153	0x3c8f2e53	0.017478144
154	0xbc8efdf6	-0.017455082
155	0xbc8cbd80	-0.017180204
156	0x3d7d6261	0.0618614
157	0x3d3c7230	0.046007335
158	0x3d300b79	0.04297969
159	0x3c197102	0.009365322
160	0xbc65c246	-0.014023369
161	0x3d55c72d	0.052191902
162	0xbc14b19e	-0.00907555
163	0xbaa8fd0a	-0.0012892794
164	0x3d9505fa	0.072765306
165	0x3d6a5bf4	0.0572166
166	0x3c64edcc	0.013972711
167	0xbd64418b	-0.05572657
168	0xbc8048b2	-0.015659664
169	0x3d0ec7be	0.034858458
170	0xbcc51bf5	-0.024061183
171	0xbd1ef548	-0.038808137
172	0xbcb9f4d7	-0.022699757
173	0x3c5e0a79	0.013552302
174	0xbce39f63	-0.027785962
175	0xbd6eb69d	-0.058279622
176	0x3d2b45a1	0.04181445
177	0xbc6e582c	-0.014547389
178	0x3d1ee39b	0.03879128
179	0x3da1d448	0.079018176
180	0x3d7f176e	0.062278204
181	0x3dc016b6	0.09379332
182	0xbd407c2e	-0.046993427
183	0x3dc882f5	0.09790603
184	0x3c8a5060	0.016884029
185	0x3da0a289	0.07843501
186	0x3cffc18a	0.031220216
187	0x3d660e8d	0.05616622
188	0xbcf53012	-0.029930148
189	0xbbd33355	-0.0064453282
190	0x3dd86a41	0.10567141
191	0x3d355f2a	0.04428021
192	0x3d18bbc4	0.037288442
193	0xbd0b001c	-0.03393565
194	0x3d9a2a64	0.075276166
195	0x3c6580d3	0.014007765
196	0x3d1433d5	0.036182243
197	0x3dac2595	0.08405606
198	0x3dad1af8	0.084524095
199	0xbc8ab99d	-0.01693421
200	0xbdaf7df6	-0.08568947
201	0x3d3b1f19	0.045683954
202	0x3d686162	0.056733496
203	0x3d846b35	0.064657606
204	0x3d32595f	0.043542262
205	0x3d12eca5	0.035870213
206	0xbd989c60	-0.07451701
207	0x3d42b696	0.04753741
208	0xbd36aac6	-0.044596456
209	0xbd86b5b5	-0.065776266
210	0xbc89cbc7	-0.016820801
211	0x3d62b188	0.05534509
212	0xbc900985	-0.017582664
213	0x3d91605d	0.07098458
214	0xbd86b7d4	-0.06578031
215	0xbc9128e3	-0.017719692
216	0xbd91c802	-0.071182266
217	0x3c6330ca	0.013866613
218	0xbcf4f3b8	-0.02990137
219	0x3d5e5d93	0.054288458
220	0xbcb7682b	-0.022388538
221	0x3d061dc1	0.03274322
222	0xbcdab5a0	-0.026697934
223	0x3da77837	0.08177226
224	0xbd8b1baf	-0.067923896
225	0xbd210beb	-0.039318006
226	0xbd7e4616	-0.062078558
227	0x3c4d1ad1	0.012518601
228	0x3d4ec4f0	0.050480783
229	0x3d52c81d	0.051460374
230	0xbd2651ee	-0.040605478
231	0x3d62a22c	0.05533044
232	0xbb81c5f3	-0.003960365
233	0x3d37134e	0.044696145
234	0x3d332ef1	0.04374594
235	0xbc90406a	-0.01760884
236	0xbd76adb6	-0.060224257
237	0xbdd552bd	-0.10416172
238	0x3d119c58	0.03554949
239	0x3cff8f18	0.031196162
240	0x3d81700b	0.063201986
241	0xbdba324b	-0.09091624
242	0xbdd42c14	-0.1035997
243	0xbdb076b6	-0.08616392
244	0xbd48b6c2	-0.049002416
245	0xbc77aaeb	-0.015116434
246	0xbcd48aa7	-0.02594502
247	0xbdc737ec	-0.09727463
248	0x3d08705f	0.03331029
249	0x3c2d8b04	0.010592226
250	0xbd492680	-0.049108982
251	0x3c821c08	0.015882507
252	0xbc61ca23	-0.013781103
253	0xbc723ba9	-0.014784732
254	0xbd646a6e	-0.05576556
255	0xbdaca9e6	-0.08430843

features.2.bias f4 [16]
0	0x3a9ca398	0.001195061
1	0xbd98647e	-0.07441042
2	0x3db88d52	0.0901133
3	0x3bd6041e	0.0065312525
4	0xbbbdb9a6	-0.0057899533
5	0x3d941cf6	0.07232086
6	0xbca229f2	-0.019795392
7	0xbcb54bd7	-0.02213089
8	0x3b944c4b	0.0045256964
9	0xbd3e4ad6	-0.046458088
10	0x3c292347	0.010323352
11	0xbd2bd8a7	-0.041954663
12	0xbce7ade1	-0.028281154
13	0xbd0e6618	-0.034765333
14	0xbc33c2dd	-0.010971752
15	0xbd4e5f41	-0.05038381

features.5.weight f4 [16, 16, 5, 5]
0	0x3d1fe559	0.039037082
1	0x3c268483	0.010163429
2	0xbccfb31d	-0.025353963
3	0x3d28aad1	0.04117853
4	0xbd98cc9d	-0.07460902
5	0xbd9db82d	-0.07701144
6	0x3d9843d9	0.07434816
7	0xbd5f1d5c	-0.05447136
8	0xbce637bf	-0.028102754
9	0xbd755f11	-0.059905116
10	0x3d0b0231	0.033937637
11	0xbcab3339	-0.020898448
12	0xbd0b3d62	-0.033994086
13	0x3d33bf77	0.043883767
14	0xbd99a0cf	-0.07501375
15	0x3ab69ab4	0.0013931603
16	0x3d1f2803	0.038856518
17	0x3d96fdef	0.07372653
18	0x3cdc194a	0.026867528
19	0x3d5cd541	0.053914312
20	0x3cbcffe8	0.023071244
21	0x3d936ca2	0.071984544
22	0xbd224407	-0.039615657
23	0xbd254937	-0.040353026
24	0x3cf45e5c	0.02983015
25	0x3d2bd593	0.041951727
26	0xbcd1ef65	-0.025626848
27	0xbde0c366	-0.10974769
28	0x3c6a8c91	0.01431574
29	0xbc1cc732	-0.009568976
30	0xbda89a68	-0.08232576
31	0xb9e106cb	-0.00042920405
32	0xbc53536d	-0.012898308
33	0xbc89b107	-0.016808046
34	0x3d1573e3	0.03648747
35	0x3d61ba31	0.055109207
36	0xbc9f8f4d	-0.01947751
37	0xbc5d4c8e	-0.013507022
38	0xbd8c9dc4	-0.06866029
39	0x3cf80654	0.030276455
40	0x3a62c4d0	0.0008650543
41	0x3d8c6694	0.06855503
42	0xbb442245	-0.0029927653
43	0xbd201c8f	-0.039089736
44	0xbd384dea	-0.04499618
45	0x3d17fc1e	0.037105672
46	0xbbb6dafe	-0.005580305
47	0xbd66a7f2	-0.05631251
48	0xbda4657e	-0.080271706
49	0xbc7b68de	-0.0153448265
50	0x3d5dd4bd	0.05415796
51	0xbb70899c	-0.0036703115
52	0x3d9440cc	0.072389215
53	0x3d281e24	0.04104437
54	0x3db2a875	0.08723537
55	0x3d958592	0.07300867
56	0x3dbaa3da	0.091132835
57	0x3a5f23ca	0.0008512108
58	0x3d6b6e9b	0.05747853
59	0x3cd0d873	0.025493836
60	0xbcc771a2	-0.024346177
61	0xbc8600d0	-0.01635781
62	0x3ad7751a	0.0016438097
63	0x3d962a9e	0.07332347
64	0x3d901b47	0.07036453
65	0x3d2e1c0d	0.04250722
66	0x3d0fb639	0.03508589
67	0xbc51bd8c	-0.012801539
68	0x3d478559	0.048711155
69	0x3d95c665	0.073132314
70	0xbd763c92	-0.060116358
71	0x3c996658	0.01872556
72	0x3cf68c2a	0.030096132
73	0xbcb5b0cc	-0.02217903
74	0xbccd9fca	-0.025100607
75	0x3b19123d	0.0023356818
76	0xbc75499d	-0.014971164
77	0x3db6a0d7	0.089173965
78	0x3d8e5396	0.069495365
79	0x3c6df291	0.014523164
80	0xbc8ee02b	-0.017440876
81	0x3da02a7c	0.07820603
82	0x3d00a9c5	0.031411905
83	0x3c99a3de	0.018754896
84	0x3db9b01a	0.09066792
85	0x3cf14bc6	0.029455077
86	0x3a812dac	0.000985553
87	0xbd9bdcbf	-0.07610463
88	0x3d530905	0.051522274
89	0x3d88b227	0.06674605
90	0xbc1cf1bb	-0.009579117
91	0xba448343	-0.0007496366
92	0xbce64e00	-0.028113365
93	0x3d037b63	0.032100093
94	0x3d755cf4	0.0599031
95	0x3c0dad6d	0.008647305
96	0x3cd48797	0.02594356
97	0x3c8d9396	0.017282289
98	0xbd110735	-0.035407264
99	0xbdada467	-0.08478623
100	0xbda9598f	-0.08269035
101	0xbd0cb4e5	-0.034352202
102	0xbcbab547	-0.022791518
103	0xbd596e67	-0.053083804
104	0x3d56f1ec	0.05247681
105	0xbd6f18f2	-0.0583734
106	0xbd468b82	-0.04847289
107	0x3d972270	0.07379615
108	0x3cd2c2e2	0.025727693
109	0xbd3a7571	-0.045522157
110	0x3d2c9287	0.042131927
111	0x3cadfa41	0.021237494
112	0x3c9fb889	0.019497173
113	0xbd1e8a6d	-0.03870623
114	0x3cb4bddf	0.022063194
115	0xbd9e18da	-0.07719584
116	0x3b4b63cc	0.0031034825
117	0x3cfbe3f2	0.030748341
118	0xbd26f4f7	-0.04076096
119	0xbd6b34f5	-0.05742355
120	0x3b8abca9	0.004233916
121	0x3d556d62	0.05210627
122	0x3d902150	0.07037604
123	0x3d955c13	0.072929524
124	0xbd56fe31	-0.05248851
125	0x3d059f8d	0.032622863
126	0xbd616dcc	-0.05503635
127	0x3c62517c	0.013813373
128	0x3d86b3ab	0.06577238
129	0xbd0d40d3	-0.03448565
130	0x3d714a7d	0.05890893
131	0x3d8dc5a7	0.06922465
132	0x3d9e415e	0.077273116
133	0xbd8a8edc	-0.067655295
134	0x3dc5b549	0.09653718
135	0x3d514d50	0.05109912
136	0xbcd45d3a	-0.02592336
137	0x3c9f2eec	0.019431554
138	0xbb1451e8	-0.0022631828
139	0xbd0bba23	-0.03411306
140	0x3d0785b2	0.033086486
141	0xbd011907	-0.03151801
142	0x3d8baea8	0.068204224
143	0x3ba55bc4	0.0050463397
144	0xbc0d6a9c	-0.008631375
145	0x3d9335ec	0.07188019
146	0x3cbffd03	0.023436075
147	0xbb29763f	-0.0025857834
148	0x3d43a50d	0.047764827
149	0xbb87de65	-0.0041463845
150	0x3c8bc3fe	0.01706123
151	0x3b39acd6	0.0028331778
152	0x3d824738	0.0636124
153	0x3c6b0b8a	0.014346013
154	0x3c0d7036	0.00863271
155	0xbd8cc122	-0.06872775
156	0xbdb01d5f	-0.08599352
157	0xbca1e669	-0.019763188
158	0xbdaf3b3e	-0.085562214
159	0x3d93e0cb	0.0722061
160	0xbd0b59ed	-0.034021307
161	0xbd2ea3f8	-0.04263684
162	0xbd4593bf	-0.048236605
163	0x3d1c9b6e	0.038234167
164	0x3d9cf793	0.076644085
165	0xbdcc4c65	-0.099755086
166	0x3d095836	0.03353139
167	0xbdb1622b	-0.08661302
168	0x3cb26c2e	0.0217801
169	0xbc4d1974	-0.0125182755
170	0xbd978609	-0.07398612
171	0x3ce4a55c	0.02791088
172	0x3bf64f62	0.0075167874
173	0xbd5996d1	-0.053122345
174	0x3d8693b6	0.065711424
175	0xbd832beb	-0.06404861
176	0xbd5da31e	-0.05411064
177	0xbbf52ba0	-0.007482007
178	0xbd39050e	-0.045170836
179	0xbd879c2f	-0.066215865
180	0x3c521202	0.012821676
181	0x3d3bdb91	0.04586369
182	0x3d3e1f59	0.046416614
183	0x3ca6eaa1	0.020375552
184	0xbd823393	-0.06357493
185	0xbd42072d	-0.047370125
186	0x39c12691	0.00036840563
187	0x3d8137e2	0.06309487
188	0xbc642c08	-0.0139265135
189	0x3cf26154	0.029587425
190	0x3d8a7623	0.06760814
191	0xbdb343a7	-0.08753138
192	0xbd9d6129	-0.076845475
193	0xb99e5b3b	-0.0003020408
194	0x3d3d40d0	0.04620439
195	0x3cf88eb3	0.030341482
196	0x3d8992e3	0.067174695
197	0xbd550a7b	-0.052011948
198	0xbcf95293	-0.030434882
199	0x3ce1dd35	0.0275713
200	0xbcd02c6b	-0.025411805
201	0xbb51d02c	-0.003201495
202	0xbd2a7f0c	-0.041625068
203	0x3ce991e5	0.02851195
204	0xbc39a9ba	-0.01133197
205	0x3c3961d6	0.01131483
206	0xbd72422c	-0.059145138
207	0x3d0b5b20	0.03402245
208	0xbd231c07	-0.03982165
209	0x3d1effef	0.038818296
210	0x3ce2cfd6	0.027686995
211	0x3c8ed741	0.017436625
212	0x3da9f613	0.08298888
213	0xbb9a3b57	-0.004706781
214	0xbd9eac60	-0.07747722
215	0x3c1ff4ba	0.009762937
216	0xbc58c2dc	-0.013230052
217	0x3d8ceccd	0.06881104
218	0x3da503d7	0.08057373
219	0xbd7bb227	-0.061449196
220	0x3d1753dd	0.036945213
221	0x3db2c776	0.087294504
222	0xbcc51d19	-0.024061726
223	0xbd2f179c	-0.042747125
224	0x3d9223a9	0.07135708
225	0x3ca95d0f	0.020674257
226	0xbd20798e	-0.039178424
227	0x3d5bcec0	0.05366397
228	0x3d48dc36	0.049038135
229	0xbd7d0bda	-0.06177888
230	0x3c8b5693	0.017009055
231	0x3d24cd2e	0.040234737
232	0xbda3de33	-0.080013655
233	0x3d84fcfe	0.06493567
234	0x3c99e139	0.018784152
235	0x3d09fe03	0.03368951
236	0xbd745507	-0.0596514
237	0x3d695742	0.05696798
238	0x3ccc2cdf	0.02492374
239	0x3cc70ae9	0.024297195
240	0xbd85a422	-0.065254465
241	0xbde3d5aa	-0.111247376
242	0x3ae6e385	0.0017615414
243	0x3d58ee79	0.0529618
244	0xbd866f98	-0.065642536
245	0x3d2b95a1	0.041890744
246	0x3d4bb071	0.049728815
247	0xbde56a04	-0.112018615
248	0x3b242753	0.0025047853
249	0x3d1dbb72	0.03850884
250	0x3d8d6756	0.069044754
251	0x3c2d17bb	0.01056474
252	0x3cf271ba	0.029595245
253	0x3cc2d79a	0.023784447
254	0xbd28659c	-0.041112527
255	0xbdb98f71	-0.090605624

features.5.bias f4 [16]
0	0x3c244065	0.0100251185
1	0xbd3d2206	-0.046175025
2	0xbbb7a397	-0.005604218
3	0x3bab225b	0.0052226014
4	0xbbf8c86e	-0.0075922525
5	0xbcdc25c2	-0.026873473
6	0xbd6b15c6	-0.05739381
7	0xbd34a491	-0.044102255
8	0xbcbbba3e	-0.022915956
9	0x3d71e951	0.0590604
10	0xbbb1f7f0	-0.005431168
11	0xbccdbe06	-0.025115024
12	0xbcb8b9a0	-0.02254945
13	0xbc675a27	-0.014120615
14	0x3be1eff8	0.0068950616
15	0xbc03ef04	-0.008052591

features.7.weight f4 [16, 16, 5, 5]
0	0x3c6d6ee9	0.014491775
1	0xbdb81cd6	-0.08989875
2	0xbcba8333	-0.022767639
3	0x3d6cb05d	0.05778538
4	0xbcabd67c	-0.020976298
5	0xbb910d80	-0.004426658
6	0xbc9490ce	-0.018135455
7	0xbc89c0b2	-0.016815517
8	0x3d2f09f0	0.042734087
9	0x3d72513b	0.0591595
10	0x3c8f4537	0.017489059
11	0x3c905337	0.017617805
12	0xbd05153e	-0.03249096
13	0x3ce2e6f2	0.027698014
14	0x3dbbe23f	0.091740124
15	0x3b1d00eb	0.0023956846
16	0x3d276edd	0.04087721
17	0x3c0456e1	0.008077354
18	0x3dae0b79	0.08498282
19	0xbc1c8448	-0.009553023
20	0xbd608a5f	-0.05481946
21	0x3db3363f	0.08750581
22	0xbce0030f	-0.027345208
23	0xbd1e2a1a	-0.03861437
24	0x3dab00a2	0.0834973
25	0x3d39f161	0.045396212
26	0x3b8bfa30	0.004271768
27	0xbd9af64a	-0.07566507
28	0xbd798287	-0.060915496
29	0x3d7ce4dc	0.061741695
30	0xbd8aca7b	-0.06776901
31	0xbbc2a1be	-0.0059396913
32	0xbcc16e28	-0.023612097
33	0x3d829c6d	0.06377492
34	0x3db2e526	0.08735113
35	0x3b49dbbe	0.0030801143
36	0x3ca86829	0.02055748
37	0xbbebedfd	-0.0072000013
38	0x3dc1b2cc	0.09457931
39	0xbd90b225	-0.070652284
40	0xbc30c9d4	-0.010790307
41	0x3dac5324	0.08414295
42	0x3db67306	0.08908658
43	0xbd9e8603	-0.077404045
44	0x3da77024	0.08175686
45	0xbcd2393b	-0.025662055
46	0x3b438d95	0.0029839028
47	0xbc66a034	-0.014076281
48	0x3d958a32	0.07301749
49	0xbc0d410c	-0.008621465
50	0x3cd28f5e	0.025703128
51	0x3d71bbaf	0.05901688
52	0x3ace4bc5	0.0015739134
53	0x3d9c2cbc	0.0762572
54	0x3d03d86e	0.032188825
55	0x3cc1738a	0.023614664
56	0x3d39dadd	0.04537474
57	0x3ccd03c1	0.025026204
58	0xbc348f3e	-0.01102048
59	0x3db86242	0.09003116
60	0xbd4673cf	-0.048450287
61	0xbc42d2d4	-0.011891086
62	0xbd2e0781	-0.042487625
63	0xbd5f6a12	-0.054544516
64	0xbd5910e1	-0.052994613
65	0x3d5138b8	0.05107948
66	0x3dcfb920	0.10142732
67	0xbd67a6d9	-0.056555603
68	0xbda27ef1	-0.079343684
69	0xbc9c2d66	-0.019064616
70	0xbe155779	-0.1458415
71	0xbdd77785	-0.105208434
72	0xbd84326a	-0.06454928
73	0xbe2c617e	-0.16834065
74	0xbdd03add	-0.10167477
75	0xbc781764	-0.0151422955
76	0xbd8f159f	-0.06986546
77	0x3d840ae0	0.06447387
78	0x3ca49257	0.020089312
79	0x3ccba4b0	0.024858803
80	0x3c3c82b6	0.011505773
81	0xbc12f525	-0.00896958
82	0xbc360d6e	-0.0111116
83	0xbdc6383a	-0.09678693
84	0x3d418815	0.04724892
85	0x3d212d2d	0.039349724
86	0xbd980e1b	-0.074245654
87	0x3bd3eb29	0.0064672423
88	0xbc8b7b64	-0.01702661
89	0xbd680f6f	-0.056655344
90	0xbd1d5c17	-0.0384179
91	0xbdd746bb	-0.10511538
92	0x3c63b7a6	0.013898766
93	0x3d18b2a4	0.03727974
94	0xbdbdd01f	-0.092682116
95	0xbd9a127e	-0.07523058
96	0xbc874520	-0.016512454
97	0x3c9d7875	0.019222477
98	0xbd928f14	-0.07156196
99	0x3ca5b0ef	0.02022597
100	0x3d88e58a	0.06684406
101	0x3ce3ffcb	0.027831933
102	0xbd749177	-0.05970904
103	0xbcab3373	-0.020898556
104	0xbc9f4d73	-0.01944611
105	0xbd6f7b92	-0.058467455
106	0x3c473059	0.012157523
107	0xbd7bc4e9	-0.061467085
108	0x3d382f36	0.0449669
109	0x3d42f21d	0.04759418
110	0xbc7a3463	-0.015271279
111	0x3d82f1f9	0.06393809
112	0x3d6238c5	0.05522992
113	0xbd6feee1	-0.058577422
114	0x3da25943	0.079271816
115	0xbdad22c3	-0.08453896
116	0x3c58e1f7	0.013237468
117	0x3c25d0ea	0.01012061
118	0xbdb3f0d0	-0.08786166
119	0x3d24c031	0.04022235
120	0x3d0ef143	0.034898054
121	0xbcbb8f87	-0.022895588
122	0xbd269fe3	-0.040679824
123	0xbc61d384	-0.013783339
124	0x3cb6d9a9	0.022320585
125	0xbd6110f1	-0.054947797
126	0xbd2081e5	-0.039186377
127	0xbd788c08	-0.06068042
128	0xbcd2beee	-0.025725808
129	0xbd5acafd	-0.05341624
130	0xbbf965fe	-0.0076110354
131	0x3bcf336e	0.0063232696
132	0x3c8f5293	0.01749543
133	0x3cd3e154	0.02586428
134	0xbdd25484	-0.10270026
135	0x3cf48a73	0.029851174
136	0xbd9096d6	-0.0706002
137	0xbd81d162	-0.06338765
138	0xbd8e3687	-0.06943994
139	0xbccc4d01	-0.024939062
140	0xbd9d2005	-0.07672123
141	0xbdc0cec3	-0.09414437
142	0xbc09edd1	-0.008418516
143	0xbc4cbf6f	-0.012496813
144	0xbdaead12	-0.08529104
145	0x3cefd093	0.02927426
146	0xbd7b5369	-0.061358843
147	0x3d3ae522	0.045628674
148	0x3c9361df	0.017991005
149	0xbd57ad3a	-0.052655436
150	0xbc58140a	-0.013188371
151	0x3cc9976e	0.02460834
152	0x3d32a849	0.04361752
153	0x3d132673	0.03592534
154	0x3c05153e	0.00812274
155	0xbca20026	-0.019775461
156	0x3d8a1b39	0.067434736
157	0xbcb233be	-0.021753188
158	0xbcd90b55	-0.026494661
159	0x3daade97	0.08343237
160	0xbc77b89f	-0.015119701
161	0x3d572ca9	0.052532826
162	0xbd8592eb	-0.06522163
163	0xbd000224	-0.03125204
164	0xbcb317cb	-0.021861931
165	0x3d325edb	0.043547492
166	0x3c3e5eeb	0.01161931
167	0x3d817009	0.06320197
168	0xbd2ffab9	-0.042963717
169	0xbca64dd3	-0.020300781
170	0xbdabae1f	-0.0838282
171	0x3cefcbec	0.029272042
172	0x3d958944	0.07301572
173	0x3cb284e4	0.021791883
174	0xbd4d8f0c	-0.05018525
175	0xbc57196e	-0.0131286215
176	0xbc8c76b1	-0.01714644
177	0x3d37db69	0.04488698
178	0xbd6455a4	-0.055745736
179	0x3d9873e9	0.07443983
180	0xbbe1cd46	-0.0068909256
181	0xbdc34da8	-0.09536296
182	0x3b7607e2	0.003754132
183	0x3cfd0ff3	0.030891394
184	0xbd61a09f	-0.05508482
185	0x3d761e60	0.06008756
186	0xbd010993	-0.03150327
187	0xbd9499fd	-0.072559334
188	0xbca09741	-0.019603373
189	0xbd9f1d9a	-0.07769318
190	0x3d88fef1	0.06689251
191	0x3d383f16	0.04498204
192	0x3cac2e6a	0.021018226
193	0x3b48a6cc	0.0030616997
194	0x3d872020	0.06597924
195	0xbd874aad	-0.0660604
196	0x3d599fb5	0.053130824
197	0xbdbd660b	-0.09247979
198	0xbd030288	-0.031984836
199	0xbdbcd36a	-0.092200115
200	0xbd423111	-0.047410075
201	0xbdc535c6	-0.09629397
202	0xbcbdce58	-0.023169681
203	0x3d1ea2c3	0.03872944
204	0xbb92d9b6	-0.0044815196
205	0x3d3f048a	0.04663519
206	0xbcb24009	-0.02175905
207	0x3d8c7fcb	0.06860312
208	0x3d52c6cf	0.05145913
209	0xbd5a8ee8	-0.053358942
210	0xbcbf9250	-0.023385197
211	0x3c86c799	0.016452597
212	0x37d73cfe	2.5658399e-05
213	0xbcdbf980	-0.02685237
214	0x3dadcb1e	0.08486007
215	0xbd7350f8	-0.05940339
216	0x3bd2f1e2	0.006437526
217	0xbd30db49	-0.043177877
218	0x3c6fc7e8	0.014635064
219	0x3da6e67b	0.081494294
220	0x3cd7ac5e	0.026327308
221	0x3d63c127	0.055604126
222	0xbd43b7ea	-0.047782816
223	0x3d58683b	0.052833777
224	0xbda4a8c3	-0.08040001
225	0x3da11a6d	0.078663684
226	0x3d868881	0.06569005
227	0x3b91a746	0.0044449894
228	0xbbceb539	-0.0063082245
229	0xbd805030	-0.062652946
230	0x3d905b9a	0.070487216
231	0x3c76d521	0.015065462
232	0xbd99aa77	-0.07503217
233	0xbdab2918	-0.083574474
234	0xbd3d49c9	-0.046212945
235	0xb99dd342	-0.00030102773
236	0xbc91d2d8	-0.017800733
237	0x3c707b22	0.014677795
238	0x3d8ad5e5	0.067790784
239	0x3b40ecfc	0.0029438129
240	0x3a2140a4	0.0006151295
241	0xbda7e94b	-0.08198794
242	0xbcee772e	-0.029109564
243	0x3d8db5e6	0.0691946
244	0xbd88b5ad	-0.06675277
245	0xbd5cf73a	-0.05394671
246	0xbbece4ac	-0.0072294082
247	0x3d1952b7	0.0374324
248	0xbce477d8	-0.027889177
249	0xbcb0fbd7	-0.021604462
250	0xbd5ee106	-0.054413818
251	0x3d68eb60	0.056865096
252	0x3d9efe4c	0.07763347
253	0xbd0706ae	-0.032965355
254	0x3c3a3d7a	0.011367196
255	0xbc5e4d81	-0.013568283

features.7.bias f4 [16]
0	0x3d8e7159	0.06955213
1	0xbd6dff5f	-0.05810487
2	0x3c45785f	0.0120526245
3	0xb9bcee5c	-0.00036035746
4	0xbd2de4eb	-0.04245464
5	0xbd8deb59	-0.06929655
6	0x3c860046	0.016357552
7	0x3be487e1	0.006974206
8	0x39e8a939	0.0004437657
9	0xbd7c7f1c	-0.06164466
10	0x3c3e7501	0.011624576
11	0xbd03194d	-0.03200655
12	0xbd94c581	-0.072642334
13	0x3b0519f7	0.0020309666
14	0xbd3610b4	-0.044449523
15	0x3d2a9349	0.04164437

features.10.weight f4 [32, 16, 5, 5]
0	0xbdab3eb1	-0.08361567
1	0xbc87b727	-0.016566826
2	0xbdd3c477	-0.10340207
3	0xbdc2dbc3	-0.095145725
4	0x3cf4e299	0.029893206
5	0xbe091589	-0.13387121
6	0xbdbd6937	-0.09248584
7	0xbd4c06c7	-0.04981115
8	0x3d3b1eea	0.04568378
9	0x3d762dd1	0.060102288
10	0xbd71989c	-0.05898343
11	0xbd379904	-0.04482366
12	0xba993b84	-0.0011690711
13	0xbcb5f48f	-0.022211341
14	0x3d074b68	0.033030897
15	0xbde07e2d	-0.10961566
16	0xbd1ab3e1	-0.037769202
17	0x3dc9bc16	0.09850328
18	0x3dc6c63a	0.097057775
19	0x3da25c00	0.07927704
20	0xbd314687	-0.04328015
21	0x3c80fac1	0.015744569
22	0x3da4cf6d	0.08047376
23	0x3df5c5ea	0.1200064
24	0x3d227203	0.03965951
25	0xbb6c1700	-0.0036024451
26	0x3d6fa5ab	0.058507603
27	0x3d7ceec3	0.06175114
28	0x3d8fc994	0.0702087
29	0x3d88cef4	0.06680098
30	0xbd70e3fe	-0.05881118
31	0x3d64d69d	0.055868734
32	0x3ce144ef	0.02749869
33	0x3d31f344	0.043444887
34	0xbbcfd9d8	-0.0063431077
35	0x3c4e03d3	0.012574154
36	0xbc5a9914	-0.013342161
37	0x3d60f3bf	0.054919954
38	0xbccb9a49	-0.024853842
39	0xbd1794cb	-0.037007134
40	0xbd3d860e	-0.046270423
41	0x3c2d7fdc	0.010589566
42	0x3c5f4c58	0.013629042
43	0xbd5e6438	-0.054294795
44	0x3d7f5652	0.06233818
45	0xbaadc800	-0.0013258457
46	0xbd5cc8e8	-0.053902537
47	0xbc2818c4	-0.010259811
48	0x3d5e60ae	0.05429142
49	0x3d14dd58	0.036343902
50	0xbe22e0fb	-0.15906136
51	0xbca0bcd1	-0.019621285
52	0x3b77cb31	0.003781032
53	0xbd02b759	-0.031913135
54	0x3c3f5e97	0.011680267
55	0xbdc64b36	-0.09682314
56	0xbd5d3b65	-0.05401172
57	0xbd794f2a	-0.060866512
58	0x3c1e497d	0.009661076
59	0xbbf8d2fe	-0.0075935116
60	0xbdc95135	-0.09829942
61	0xbd443aeb	-0.04790775
62	0x3d51529f	0.051104184
63	0xbd7a9ae6	-0.06118288
64	0x3d686403	0.056736004
65	0xbc299b99	-0.010352039
66	0x3d7fcc5b	0.062450748
67	0xbcc42b25	-0.023946354
68	0xbd145577	-0.036214318
69	0x3da3801d	0.0798342
70	0xbd8ba2ec	-0.06818184
71	0xbcdcc498	-0.026949212
72	0x3d7bb147	0.06144836
73	0x3dc832e3	0.09775331
74	0x3d1fb013	0.038986277
75	0xbe190a6f	-0.14945386
76	0x3d6d026a	0.05786363
77	0x3d772781	0.06034041
78	0xbcb0ff72	-0.02160618
79	0xbbdff9c6	-0.0068351952
80	0xbd4da34c	-0.05020456
81	0x3e17934c	0.14802283
82	0x3d35cd14	0.04438503
83	0xbd115316	-0.035479628
84	0xbd8ef5b8	-0.06980461
85	0xbe021fbb	-0.12707417
86	0x3e14802d	0.1450202
87	0x3cfdf549	0.03100075
88	0xbd2bf253	-0.041979145
89	0x3bc83412	0.006109723
90	0x3d3e3c5f	0.046444293
91	0x3e02f1d4	0.12787563
92	0x3dc6ee84	0.09713462
93	0xbcea9917	-0.028637452
94	0x3d951419	0.07279224
95	0x3c88fe3c	0.01672279
96	0x3e46d4d5	0.19417126
97	0x3c515b70	0.012778148
98	0xbd610501	-0.054936413
99	0x3d5f80a3	0.054566037
100	0xbc33a8f2	-0.010965573
101	0x3d3f06bb	0.046637278
102	0xbc3946c5	-0.011308377
103	0x3daa3fe4	0.083129674
104	0x3d9c324c	0.07626781
105	0xbdbe8c05	-0.0930405
106	0x3c783663	0.015149686
107	0x3c829941	0.015942218
108	0x3cfeb1ee	0.031090703
109	0xbd8da203	-0.06915667
110	0xbd0541aa	-0.032533325
111	0xbc8f7c01	-0.017515184
112	0x3d6b1269	0.057390604
113	0x3c97c07c	0.0185244
114	0xbc996c9e	-0.01872855
115	0x3d3e3d6e	0.046445303
116	0xbd64bc1f	-0.05584347
117	0xbc9cca37	-0.019139392
118	0xbca167aa	-0.019702751
119	0xbd2d58f5	-0.042321164
120	0xbd6c7a08	-0.057733566
121	0xbc65ec1b	-0.014033343
122	0x39a1c900	0.0003085807
123	0x3d3ef0d1	0.04661638
124	0x3d4b9d0d	0.049710322
125	0xbd8d50f4	-0.06900206
126	0xbe28e04d	-0.16491814
127	0xbe52ab4d	-0.20573159
128	0xbe70fdb3	-0.23534279
129	0xbe2c7826	-0.16842708
130	0x3ccd1b21	0.02503735
131	0xbca12bad	-0.019674147
132	0xbd7e78a4	-0.06212677
133	0x3d817e82	0.063229576
134	0xbd0b00c7	-0.03393629
135	0xbd9dc379	-0.07703299
136	0x3d8eed28	0.06978828
137	0x3e84e482	0.25955588
138	0x3e71a011	0.23596217
139	0x3e478555	0.19484456
140	0xbe2abcd2	-0.16673592
141	0x3cb18014	0.021667518
142	0x3e145003	0.14483647
143	0x3e1109f8	0.14163959
144	0x3da92f27	0.08260947
145	0xbe5dbe03	-0.21654515
146	0xbbda2eed	-0.006658426
147	0xbc1cde75	-0.009574522
148	0xbd3b2c96	-0.045696817
149	0x3d91f176	0.07126133
150	0x3d877639	0.06614346
151	0x3e3ff73e	0.18746659
152	0x3e41bf96	0.1892074
153	0x3d861059	0.06546087
154	0xbd7b701a	-0.061386205
155	0x3e42b8b3	0.1901577
156	0x3e6610d8	0.22467363
157	0x3e12ad17	0.14323841
158	0x3df9a768	0.12190133
159	0xbcc08ccf	-0.023504643
160	0x3c826d4f	0.015921263
161	0x3df38356	0.11890285
162	0x3af27f0b	0.0018500997
163	0x3df9e065	0.12201003
164	0xbe1e14a5	-0.15437563
165	0xbde72797	-0.11286848
166	0xbe51e0ea	-0.20495954
167	0x3c9ccd4e	0.019140866
168	0xbc2446f0	-0.010026678
169	0xbe8d6b39	-0.27620867
170	0x3dd1ad88	0.102381766
171	0x3e1f9dbc	0.15587515
172	0x3e3491f5	0.17633803
173	0x3dc1ded4	0.09466329
174	0xbd3357ff	-0.04378509
175	0xbd80ec19	-0.06295032
176	0x3e9da443	0.30789384
177	0x3bd2e85f	0.006436392
178	0xbdc989ec	-0.0984076
179	0x3d2e9c29	0.042629395
180	0xbda6510f	-0.081209294
181	0x3e317a82	0.1733189
182	0xbe0ab480	-0.13545418
183	0xbe477218	-0.19477117
184	0xbe8737f4	-0.26409876
185	0xbe467275	-0.193796
186	0x3de4b2ac	0.111668915
187	0xbe566b30	-0.20939326
188	0xbe24dba9	-0.16099419
189	0xbe483130	-0.19550014
190	0x3be53d8d	0.006995863
191	0x3ea3f895	0.3202559
192	0x3cfd2f0f	0.030906228
193	0xbd31bf20	-0.04339516
194	0xbd1692ca	-0.036761083
195	0xbcaf5991	-0.021405013
196	0x3e24e807	0.16104136
197	0x3d8cee7a	0.06881423
198	0xbdc3e23a	-0.09564634
199	0xbd0937e0	-0.033500552
200	0xbdcbab04	-0.09944728
201	0xbe149f4b	-0.1451389
202	0xbcbd4fa9	-0.023109274
203	0xbe11e4a6	-0.14247379
204	0xbe457941	-0.19284536
205	0xbdcc964b	-0.099896036
206	0xbd968b87	-0.073508315
207	0x3c4b2c46	0.012400692
208	0xbe3278c1	-0.17428876
209	0xbe7b23db	-0.24525397
210	0xbc918082	-0.017761473
211	0x3d118894	0.03553064
212	0x3dbb0bab	0.09133085
213	0xbd74eae0	-0.059794307
214	0xbd2d4a07	-0.042306926
215	0xbc9cc89d	-0.019138629
216	0xbe0b24ea	-0.135883
217	0xbcbbb67c	-0.022914164
218	0xbd188c3a	-0.037243105
219	0xbddd466d	-0.10804448
220	0xbcd2f6b6	-0.025752407
221	0xbdcb0ca3	-0.0991452
222	0xbe17a20d	-0.14807911
223	0xbe1b60ad	-0.15173598
224	0xbdbadfcf	-0.09124719
225	0x3d67dc66	0.056606673
226	0xbd72b24d	-0.059252072
227	0xbd91b64b	-0.07114848
228	0xbd6a8a01	-0.057260517
229	0xbce335e7	-0.027735664
230	0x3c4b3410	0.012402549
231	0xba90485f	-0.0011007896
232	0x3c731191	0.014835731
233	0x3c89c4b9	0.016817437
234	0x3c748eba	0.014926607
235	0x3d139c0b	0.036037486
236	0xbdb34319	-0.08753032
237	0xbd174ad0	-0.03693658
238	0x3d34212e	0.043976955
239	0xbd203747	-0.039115217
240	0xbe016cc4	-0.12639147
241	0xbe0eb527	-0.13936292
242	0xbde8db13	-0.1136991
243	0xbe118f3d	-0.14214797
244	0xbcf4b0b8	-0.029869422
245	0xbdcea5e4	-0.10090235
246	0xbe0ec970	-0.1394403
247	0xbd20fde3	-0.039304625
248	0xbd0e4247	-0.034731176
249	0xbd931b11	-0.07182897
250	0xbc43c701	-0.011949302
251	0xbc89e189	-0.016831176
252	0x3d237332	0.03990478
253	0xbc0a9c45	-0.008460109
254	0xbda32188	-0.0796538
255	0xbd164fd1	-0.036697213

features.10.bias f4 [32]
0	0x3be5621a	0.00700022
1	0xbda74260	-0.08166957
2	0x3ccd0cbf	0.025030492
3	0x3c82b2f2	0.015954468
4	0x3b911835	0.0044279345
5	0x3cf29741	0.02961314
6	0x3d8d2812	0.068924084
7	0x3d019f5c	0.031646118
8	0x3d520c82	0.05128146
9	0x3da4a7c9	0.08039815
10	0x3d4c7e11	0.049924914
11	0x3ce4a3c7	0.027910126
12	0x3c48efe2	0.012264224
13	0x3d33939f	0.043841954
14	0x3d2ae8b7	0.04172584
15	0xba5ba457	-0.00083786756
16	0x3cb3dce9	0.021955924
17	0xbc9d6d45	-0.019217143
18	0x3c9745d6	0.018465918
19	0xbd8fc980	-0.07020855
20	0xbc998ee1	-0.018744888
21	0x3bfdaab6	0.0077412976
22	0x3d4aa3f0	0.04947275
23	0xbb848a34	-0.0040447954
24	0x3b913a82	0.0044320235
25	0x3d9050b2	0.070466414
26	0x3b569f6d	0.0032748834
27	0xb9df7697	-0.0004262223
28	0x3d49670a	0.04917053
29	0xbd81bdab	-0.063350044
30	0x3d7fa735	0.06241532
31	0xbd6226b3	-0.055212688

features.12.weight f4 [32, 32, 5, 5]
0	0xbdf8217b	-0.12115761
1	0xbc015a83	-0.007895115
2	0xbe3dc94d	-0.18533821
3	0xbda22337	-0.07916873
4	0xbe09d93a	-0.13461772
5	0x3c048d33	0.008090305
6	0xbd8f7baa	-0.07006009
7	0xbdeff2d3	-0.11716237
8	0xbdb0b5f8	-0.08628458
9	0xbda33742	-0.07969524
10	0xbd064509	-0.03278068
11	0x3ca06e18	0.019583747
12	0xbdaad8a1	-0.083421
13	0xbdf8a09d	-0.121400096
14	0xbdcb4430	-0.09925115
15	0xbbbb9b02	-0.0057252655
16	0xbca03a7d	-0.01955914
17	0xbd9a3efe	-0.07531546
18	0xbba317c6	-0.0049771992
19	0xbdf6e5c9	-0.12055547
20	0xbd823f56	-0.063597366
21	0xbdb479c1	-0.08812285
22	0xbe1d69b3	-0.15372352
23	0xbdf418eb	-0.11918815
24	0xbd874eb6	-0.0660681
25	0x3d5e4397	0.054263677
26	0x3d42ad35	0.047528464
27	0xbba8e7c0	-0.00515458
28	0x3b1c7770	0.0023874901
29	0x3a8630e0	0.0010237955
30	0xbd691590	-0.05690533
31	0x3c06758c	0.008206736
32	0xbd334f78	-0.04377696
33	0xbd27580b	-0.04085545
34	0xbb4292c0	-0.002968952
35	0xbd5937f8	-0.05303189
36	0x3b6e1890	0.0036330558
37	0xbc9c29aa	-0.019062836
38	0x3b9ca4a8	0.0047803707
39	0xbd2e2ee0	-0.042525172
40	0x3d340027	0.043945458
41	0x3cde9886	0.027172338
42	0xbd0d6786	-0.034522556
43	0x3d3a5b1f	0.045497056
44	0xbd3dc98b	-0.046334784
45	0xbc85f6dc	-0.016353063
46	0xbd3e3fde	-0.046447627
47	0xbd734c02	-0.05939866
48	0x3c04b704	0.008100275
49	0x3d3eb347	0.04655769
50	0xbca641df	-0.020295082
51	0x3cd7eb11	0.026357206
52	0x3ce2ae8c	0.027671121
53	0x3bfa3bcf	0.0076365243
54	0xbcf58c2b	-0.029974064
55	0xbcf64cd0	-0.030065924
56	0x3d2fe023	0.042938363
57	0x3ccf6ffc	0.025321953
58	0xbd28fb26	-0.04125514
59	0x3cde8c00	0.027166367
60	0x39c9fa89	0.0003852437
61	0xb967a99a	-0.00022093058
62	0x3ca810ec	0.020515881
63	0x3af9a893	0.0019047431
64	0xbd71ed3b	-0.05906413
65	0xbcc63f43	-0.024200087
66	0xbc82472d	-0.01590308
67	0x3d21ae57	0.039472904
68	0x3afdbc63	0.0019358512
69	0xbd86a8d2	-0.06575169
70	0x3d0a7e8e	0.0338121
71	0xbd1230b2	-0.03569097
72	0x3ba9cd38	0.0051819347
73	0xbcfcb8df	-0.030849872
74	0xbc21c3eb	-0.009873371
75	0x3cd9c162	0.02658147
76	0x3cef8fa5	0.0292433
77	0x3cf9361c	0.03042131
78	0x3c599c71	0.013281927
79	0xbd890222	-0.0668986
80	0xbae65aa7	-0.0017574624
81	0xbc7a527c	-0.015278455
82	0xbd5be4f9	-0.053685162
83	0xbd710813	-0.05884559
84	0xbc2b0184	-0.010437373
85	0xbcf95396	-0.030435365
86	0xbd374dbd	-0.04475187
87	0x3d0bc300	0.034121513
88	0x3cc1cbd8	0.02365677
89	0xbd5ace66	-0.053419493
90	0xbc9e0150	-0.019287735
91	0xbced2432	-0.028947923
92	0x3b3303a1	0.0027315395
93	0xbd090dbe	-0.03346037
94	0x3d4104ff	0.047123905
95	0xbd3883c4	-0.045047536
96	0xbc9a24fb	-0.018816462
97	0xbd0a1ffb	-0.033721905
98	0xbce55ba3	-0.027997797
99	0xbd21929e	-0.039446466
100	0x3d38c033	0.04510517
101	0xbbd78ca2	-0.006578044
102	0xbd7bbbcf	-0.061458405
103	0x3cbb65f6	0.022875767
104	0x3b0d17e2	0.0021529128
105	0x3bb0b25e	0.005392357
106	0x3b2a1e83	0.0025958128
107	0xbcb1e0f5	-0.021713713
108	0xbc16ca7e	-0.009203551
109	0x3ca8ff55	0.020629564
110	0x3d40d673	0.047079515
111	0x3b89ebc5	0.004209014
112	0xbbacb2fb	-0.0052703596
113	0xbd3d352f	-0.046193298
114	0x3c0884ae	0.008332415
115	0xbd8d7f1a	-0.06909008
116	0x3d476405	0.04867937
117	0xbce98d19	-0.028509663
118	0xbd70eef8	-0.05882165
119	0xbcc6053d	-0.02417242
120	0x3d00527a	0.031328656
121	0xbd166e9d	-0.036726583
122	0xbd1984c1	-0.03748012
123	0xbd1084dc	-0.035282955
124	0xbd3ec357	-0.04657301
125	0xbd6986fa	-0.05701349
126	0xbde54079	-0.11193938
127	0xbd878320	-0.06616807
128	0xbcbdc1a3	-0.023163622
129	0x3c98a435	0.018632988
130	0xbd554dc8	-0.05207613
131	0xbd3e5ff7	-0.046478238
132	0x3a891e6d	0.0010461338
133	0x3c948315	0.018128911
134	0x3d200cce	0.03907471
135	0xbdd15265	-0.10220794
136	0xbdef11b6	-0.116733
137	0x3d16d080	0.036819935
138	0x3d3e0f76	0.046401463
139	0x3d4b7a01	0.0496769
140	0xbbed6355	-0.0072445073
141	0xbdc9d811	-0.098556645
142	0xbd686b71	-0.05674309
143	0x3d1c95b5	0.03822871
144	0xbd3ef21f	-0.046617623
145	0xbd05a647	-0.032629278
146	0x3c0fe233	0.008781957
147	0x3bdba3b1	0.006702863
148	0xbd4321d2	-0.047639675
149	0xbd0cc575	-0.034367997
150	0xbcf8fb6a	-0.030393321
151	0xbb96f2c2	-0.0046065757
152	0xbd212efa	-0.03935144
153	0xbc1a1f91	-0.00940694
154	0xbc8ab978	-0.016934142
155	0xbc2c5ae0	-0.010519713
156	0xbd1d711a	-0.03843794
157	0xbbacd8cb	-0.005274867
158	0xbd29c808	-0.04145053
159	0xbd0e9b64	-0.03481616
160	0x3d3cea69	0.04612199
161	0x3cd0df95	0.025497237
162	0xbd66487d	-0.056221474
163	0xbd3ba7dc	-0.04581438
164	0xbd214492	-0.039372034
165	0xbd0a059e	-0.033696763
166	0x3b13830a	0.0022508525
167	0xbd85afb1	-0.06527651
168	0xbd991f4b	-0.07476672
169	0xbca3898c	-0.019963048
170	0xbb6bb968	-0.0035968665
171	0xbbffc7a2	-0.0078057805
172	0xbd58e792	-0.052955218
173	0xbd8a754d	-0.067606546
174	0xbd452132	-0.04812736
175	0xbd3fb0d6	-0.046799503
176	0xbd83721b	-0.06418248
177	0x3ce3a3ab	0.027788004
178	0x3ced0716	0.028934043
179	0x3cc59af2	0.024121735
180	0x3d0b2a70	0.03397602
181	0x3c8683bd	0.01642024
182	0xbc2aada8	-0.010417379
183	0xbd5b8df1	-0.053602163
184	0xbaef494f	-0.0018256101
185	0xbd6551ed	-0.055986334
186	0xbcf32568	-0.029680923
187	0x3bd78234	0.0065768007
188	0xbd1e95d6	-0.038717113
189	0xbc257ebe	-0.0101010185
190	0x3d550d6b	0.05201475
191	0x3cacaac4	0.021077521
192	0xbd8d94ee	-0.06913172
193	0xbd53a3b7	-0.051669803
194	0x3b62dc97	0.0034616345
195	0x3d53a93c	0.051675066
196	0x3d40a731	0.047034446
197	0xbcecf09c	-0.028923325
198	0x3d2d9410	0.04237753
199	0x3c7e7c8e	0.015532626
200	0x3d3df565	0.046376605
201	0xbc3cb46b	-0.011517624
202	0xbd514061	-0.051086787
203	0xbd0dcde8	-0.034620196
204	0x3cd297c2	0.02570713
205	0xbd444e45	-0.047926206
206	0x3d4d8f4a	0.05018548
207	0xbc6acffb	-0.014331813
208	0xbc951fda	-0.018203665
209	0xbd3dfc41	-0.046383146
210	0xbd204ebe	-0.039137594
211	0x3b7a563d	0.0038198375
212	0xbcf73bc4	-0.030179866
213	0x3c12e16c	0.008964878
214	0x3cf90273	0.030396676
215	0xbd765068	-0.060135275
216	0xbd347dc2	-0.044065244
217	0xbc8891b6	-0.016671043
218	0xbcc19e3b	-0.02363502
219	0x3c4fdb15	0.012686511
220	0xbccf7050	-0.02532211
221	0x3cff7071	0.031181546
222	0xbd7eed61	-0.0622381
223	0x3d0faee9	0.035078917
224	0xbc05f071	-0.0081750015
225	0xbcb4a246	-0.022050034
226	0xbd3fd11c	-0.04683028
227	0x3dcbd9c9	0.099536486
228	0x3d6b9b0b	0.057520907
229	0x3e0037b8	0.12521255
230	0x3c4e8f8e	0.012607468
231	0xbd5f95e3	-0.054586302
232	0xbd96f6b4	-0.07371274
233	0x3b60f760	0.0034327134
234	0xbc25b9d6	-0.0101151075
235	0xbd185987	-0.037194755
236	0x3c2f323b	0.010693128
237	0xbcc6f5ce	-0.02428713
238	0x3aca24cd	0.0015422344
239	0x3a4c453e	0.00077923003
240	0xbc990626	-0.01867969
241	0xbcfd4d74	-0.030920722
242	0x3d325f41	0.043547872
243	0x3c984910	0.018589526
244	0xbd5d7c13	-0.054073405
245	0x3c241b04	0.010016207
246	0x3d4d0d75	0.05006166
247	0xba96ae12	-0.0011495969
248	0x3d8a5aa2	0.06755568
249	0xbb61c49d	-0.0034449466
250	0xbd38ae3a	-0.04508803
251	0xbd330cf2	-0.043713517
252	0xbbc73a0b	-0.0060799173
253	0x3c9faef6	0.019492608
254	0xbce4f235	-0.027947525
255	0xbdc5d794	-0.09660259

features.12.bias f4 [32]
0	0xbd176283	-0.036959182
1	0xbddb27fd	-0.107009865
2	0xbcc0890c	-0.023502849
3	0x3cb2d4c1	0.021829965
4	0xbcef4719	-0.029208707
5	0xbc462ff5	-0.012096395
6	0xbc02057c	-0.007935878
7	0x3c8bab05	0.017049322
8	0x3cd84e03	0.026404386
9	0xbcd0e189	-0.025498169
10	0x3d7d06cb	0.061774056
11	0x3db8dd47	0.0902658
12	0xbd3b3773	-0.045707177
13	0x3d6abe29	0.057310257
14	0x3d756aab	0.05991618
15	0x3df407d1	0.11915553
16	0x3d9c6120	0.076357126
17	0x3e15b192	0.14618519
18	0xbd9fd43f	-0.078041546
19	0x3d903c07	0.07042699
20	0xba885732	-0.0010401963
21	0x3d8072c1	0.062718876
22	0x3e10986e	0.14120647
23	0x3c87d849	0.016582625
24	0x3d64180f	0.055687007
25	0x3da438b1	0.080186255
26	0xbd31e247	-0.043428686
27	0x3c546437	0.012963346
28	0x3d645ab7	0.055750575
29	0xbc10a112	-0.008827465
30	0xbce055f4	-0.027384736
31	0xbd538a48	-0.051645547
