output/models/220320_1020_training_example/epoch_02_iou_0.30_statedict.pt (torch, 255529 bytes, 16 tensors)

conv1.weight f4 [32, 1, 9, 9]
00000000: 98b1 46be d71f 04be 3c21 2abe 3fcd 36be
00000010: 01ac 2bbe bb53 0ebe e68e e5bd 01d4 2ebe
00000020: 9555 12be bf56 f7bd 4fcf dfbd d479 bfbd
00000030: 89c1 a3bd e697 aebd fb7c 00be d0c2 07be
00000040: cfa3 d6bd 3329 a1bd 59aa dfbd 670a b6bd
00000050: db18 50bc b940 a8bd d6ab eabd 1dfa 91bd
00000060: b04d 93bd 2d5b 15bb 14fe 29bc d28b 99bb
00000070: 6c1d 2fbd 73cb f7bc b745 1abd 9f7f 91bd
00000080: f652 dabc c858 67bd 3905 25bd 67bd c8bc
00000090: 9702 bc3c 5af7 f8bc 1aa2 033c 4f17 78bb
000000a0: 9f2c bdbc 312d 3ebd a821 dbbc 2802 193d
000000b0: a6a0 143b 1fdb 4bbd d577 343d 4651 4e3d
000000c0: 4f25 003b 92b7 54bd 9903 ee3c bb45 0f3d
000000d0: 4b0c 9b3b dec3 863d 5734 523c ce4c 9e3c
000000e0: c60e 6d3d 3f8a a93c 9bd3 eb3c c012 463d
000000f0: 933e b03d 7eab 3e3d 3287 9d3d 1c07 c63d
00000100: ad06 953d d292 e53d 9e4b 933d 7f07 213d
00000110: a9a8 c73d 7bff 9d3d 3b72 fe3d 54b1 483d
00000120: c572 cb3c c08b e83d 3191 f33d 81dd 363d
00000130: 2fe7 5d3d 6ebc e33d b06b 823d 13a3 833d
00000140: 5e5f ce3d 27c7 ce3b bb35 a13c a3f5 ee3b
00000150: 3dc2 04bd 2941 173d 51e5 ad3c da6a 11bd
00000160: 43df 28bb a952 c43b 489f 5d3c 9ab2 1c3d
00000170: 14c9 953d d0e9 833d 7ef0 133d bf60 e13c
00000180: e2a0 963b ab22 143d 277a 623d 7212 473d
00000190: 4a1a 2c3d c21a 0b3d d731 ab3d d21e 513c
000001a0: 52f2 983b 12c6 3b3d 7c4c 813c 3750 623d
000001b0: 9201 e7bc 1b58 b23c 2079 2bbd e38f 6cbd
000001c0: b51a bbbd 6876 c4bc 0bed c2bd a8c4 80bd
000001d0: 671a 65bd 2c62 0cbd 85e5 1abd 2d21 c1bc
000001e0: f65c 01bd fa9f 27bd d26a 35bd 4a68 65bd
000001f0: 7c35 c0bd ed4f aebc 7a20 0dbd e1ff c3bc
00000200: 9893 f1bc af55 aabd 684c 00bc 1566 9abc
00000210: ae02 acbd f8fa 5fbd 0d58 f9bc 004c 76bd
00000220: 0956 babc 9bb3 0bbd 68d5 8fbd e11f 83bd
00000230: bef8 9bbc 9595 33bd cf68 adbd 1f00 d4bd
00000240: 6b45 5dbd ecc4 4ebd 3f1e 05bd 4b67 aabd
00000250: 07e7 dbbd e762 18bd 4dee d7bd c8e1 e6bd
00000260: 4d42 4bbd 4755 8bbd 7e23 89bd 7ce8 fdbc
00000270: aff8 00be 7abc 83bd d203 93bd b270 1fbd
00000280: dada 06be 8087 94bd 75d7 c83c e2ac eebc
00000290: 7c25 c5bc 3254 2abd e45e aebc d044 5abd
000002a0: b763 58bc b48f 133d 9c0f 093c 769c a43c
000002b0: 5e8a 9c3d ddc7 183d 635f 8fbc da7e 3ebc
000002c0: 744c f33b 4ec6 153d ca32 113c bc30 573d
000002d0: 152e 893d 5819 313d a66e cc3b eb9e aabb
000002e0: 2ea2 163d e3f0 063d 9f30 5b3d 4770 423d
000002f0: a41b 663c fa09 3bbd 77f0 28bd 8e9f ccbc
00000300: 2a30 83bc 8669 c8bc d864 c6bd d589 72bd
00000310: 804e 1ebc c3c9 babd 2c32 83bd 54a3 403c
00000320: 1cf9 79bd b389 babd f3b0 d8bc 2dea 7abd
00000330: f008 0ebd a681 18bc 825e 10bd 2fc0 6dbc
00000340: e58b 02bd b8f1 80bd 280c bfbd b952 5cbd
00000350: 9f08 97bd d840 85bd 25e6 45bc 1621 85bd
00000360: 9886 733c 2589 f9bc 4902 46bd 3599 abbd
00000370: 6134 81bd 7dfb 50bc e42f 07bc 1ca1 2dbd
00000380: 23a1 8cbd ae33 6abd 8ee8 23bd 479e b2bd
00000390: d094 d3bd 783f c6bd efdb b1bd b9b9 b8bd
000003a0: 3f9b 50bd 27af 81bc ff1a cfbd 4fe6 ddbd
000003b0: 4588 9ebd 0abe 9fbd 7c44 acbd f9ef a6bd
000003c0: 0492 cebd fa8b 33bd 2541 d6bd 09c6 463d
000003d0: cff4 02bd bdac ce3c e855 babc 2ff2 89bc
000003e0: 6a1b 3c3d 1cfb 743d 4043 333c da0e 82bb
000003f0: 762b 0dbc 048f 043d 1aaa 9bbb 4f8e 0a3d
-0.19403684 -0.12902771 -0.1661424 -0.17851733 -0.16764833 -0.13899128 -0.11208896 -0.1707306
-0.1429046 -0.120770924 -0.10928213 -0.09349409 -0.07995898 -0.08525066 -0.12547676 -0.13257909
-0.10480463 -0.07869186 -0.10921163 -0.08888703 -0.0127012385 -0.0821547 -0.11458556 -0.071277834
-0.07192552 -0.002278994 -0.010375518 -0.0046858573 -0.04275267 -0.03024838 -0.03766414 -0.0710442
-0.026650887 -0.056481153 -0.040288184 -0.024504377 0.022950454 -0.030391384 0.0080342535 -0.003785569
-0.023092566 -0.046429817 -0.026749447 0.037355572 0.0022678762 -0.049769517 0.044059593 0.050370477
0.0019553488 -0.05193288 0.02905445 0.03497861 0.00473169 0.065803275 0.012829862 0.019323733
0.057875417 0.020695804 0.028787425 0.048357725 0.08605685 0.046550266 0.07691802 0.09669325
0.07276664 0.112096444 0.07192157 0.03931379 0.09748966 0.07714745 0.124241315 0.04899724
0.024835 0.1135478 0.118929274 0.044644836 0.054175552 0.111199245 0.06368196 0.06427588
0.100767836 0.006310362 0.019678941 0.007292466 -0.032411803 0.036927376 0.02122751 -0.035502292
-0.002576784 0.005991299 0.013526745 0.038256265 0.07313743 0.064410806 0.036118023 0.027511952
0.0045968154 0.036165874 0.055292275 0.048601575 0.04201726 0.033961065 0.083591156 0.012763696
0.0046675587 0.04584319 0.01578354 0.05525228 -0.028198991 0.021770528 -0.04186356 -0.05775441
-0.09135953 -0.023982242 -0.095178686 -0.06287509 -0.055933382 -0.03427331 -0.037816543 -0.02357539
-0.031582795 -0.04092405 -0.044291325 -0.05600766 -0.09385201 -0.021278346 -0.0344548 -0.023925724
-0.029489323 -0.08317124 -0.007830717 -0.018847505 -0.083989486 -0.0546827 -0.030437494 -0.060131073
-0.022746103 -0.034106832 -0.07023126 -0.06402565 -0.019039508 -0.043843824 -0.08467256 -0.103515856
-0.05402128 -0.050480768 -0.032499548 -0.08320483 -0.10737424 -0.037203696 -0.10543499 -0.11273533
-0.049623776 -0.06803375 -0.06696223 -0.030994646 -0.12594865 -0.064324334 -0.07178463 -0.038925834
-0.13169423 -0.07252407 0.0245168 -0.029135171 -0.024065726 -0.0415842 -0.021285482 -0.05328828
-0.013207368 0.036025718 0.008365538 0.020094138 0.07643579 0.03729998 -0.017501539 -0.011626923
0.0074248854 0.03656607 0.008862207 0.05253671 0.066982426 0.04323706 0.0062387763 -0.005206933
0.03677576 0.03294457 0.053513166 0.047470357 0.014044676 -0.04566381 -0.04124495 -0.024978425
-0.016014177 -0.02446438 -0.09687203 -0.059213478 -0.009662271 -0.09120514 -0.06406054 0.01175769
-0.061028585 -0.09108295 -0.026451563 -0.061258484 -0.034676492 -0.009308254 -0.03524638 -0.014511152
-0.031871695 -0.06296104 -0.093284905 -0.053789828 -0.07374691 -0.065065086 -0.0120787965 -0.06500451
0.014863633 -0.030460903 -0.048342023 -0.08378831 -0.063088186 -0.012755272 -0.008251164 -0.042389974
-0.06866672 -0.05717819 -0.040016703 -0.08721595 -0.10331118 -0.096800745 -0.08684527 -0.09019799
-0.050929304 -0.01583059 -0.10112571 -0.108349435 -0.07740835 -0.07799919 -0.084115 -0.0815124
-0.10086444 -0.043834664 -0.10461644 0.048528705 -0.03197175 0.025228852 -0.022746041 -0.016839115
0.04592458 0.05980979 0.010941327 -0.0039690556 -0.008616319 0.032362953 -0.0047505023 0.033827122

conv1.bias f4 [32]
00000000: eef4 00bd f247 c3bd b467 2dbd b4da 31be
00000010: 9e66 813d b951 153e f6ff 73bd b293 403d
00000020: 4c75 cdbd 9222 073e 4013 06bd e745 833d
00000030: 837f 563d 0e70 34bd 8078 a63d 76ff b8bd
00000040: 663e c23d 4ccc 4d3d 706e fa3d 21d2 38be
00000050: 3ed0 cfbd d2cd 6ebd b097 debd 8182 49be
00000060: 1ad9 993c b45d 743d a6e3 aebd 0592 f43c
00000070: c4a9 b63d d33a d23d 600e 61bd 85eb 7f3d
-0.031483583 -0.09535207 -0.042335227 -0.17368585 0.06318401 0.14581956 -0.059570275 0.047015853
-0.10032138 0.13196781 -0.032733202 0.06409817 0.0523677 -0.044052176 0.08128452 -0.090331
0.09484558 0.05024366 0.122280955 -0.18048908 -0.10147141 -0.058301754 -0.10868776 -0.1967869
0.01878028 0.059659675 -0.08539514 0.029854784 0.08919099 0.10265126 -0.05494535 0.06248047

conv2.weight f4 [16, 32, 5, 5]
00000000: 06e6 8ebe cb78 20be 8efb 4dbd c6ef cebc
00000010: eaba e43c faef a3be 3dd1 9dbe 2140 31be
00000020: 194d dbbd a374 e83b 5598 0cbd b9e3 563c
00000030: d9df ca3d cbbf 5c3e 0aa0 443e e7ad 91bd
00000040: 1f84 81bd adb6 4fbc 3ea5 af3d 5d34 cebc
00000050: 939c 803d 30a7 da3d dc48 283e 7f1e e23d
00000060: 9db8 473e 168b 2ebe fb94 66be 5f51 c3bd
00000070: 1f09 61bd 0e53 203d 1e93 0fbe 9029 7cbd
00000080: 54b8 82bd a30a 0fbd 512a 9b3d 5638 89bd
00000090: 58f5 01be 9d05 1fbd 4cbb 913c 539f c33d
000000a0: 4bb6 9a3c 8950 823d 9882 d13d 12ee d63d
000000b0: 08c1 333e 0395 25bc 3517 4b3d 2bf6 023e
000000c0: 7261 223e 3f97 733e 3f1c 38be 3494 3ebe
000000d0: 59a6 2dbe 1e70 fcbc dcc2 bebd 8047 0dbe
000000e0: cb0b 24be e29f f9bd a68a 243c 1527 8b3c
000000f0: 7423 42bc 5129 b8bd e8b8 163c c39e 623d
00000100: 6fb0 663d 50e8 473d 363f a03d 8bfb c33c
00000110: 0654 5d3d c427 873d 4f64 903d 3084 ff3d
00000120: 9f5a c03d 1b5a 4c3e 53e0 2f3e 69b6 223d
00000130: 41d5 4c3d 411e 3c3b 69a0 833b 82e0 9d3d
00000140: 0849 913d e474 a13d e5c3 a93d 3a49 0e3b
00000150: 9e30 8a3b 9105 01be c088 2bbe eeb5 d8bd
00000160: 9c63 07be 995e f5bd 08ea a7bd 45be edbd
00000170: ba34 3ebd f916 41bd dcdb efbd 310a 7f3d
00000180: 3da8 56bd 1920 82bd f3d3 57bd 9f32 1d3d
00000190: 8d4f 52be a15b f6bd 896b 38be b0fd 89bd
000001a0: 5751 fdbd eb53 47bd 361e 16be 3237 90bc
000001b0: 6321 08bd 131f 5c3d 5fe5 88bc 0966 563d
000001c0: 8243 12bd 1b74 b83d eeee 493d 2f1f 4dbc
000001d0: 37d6 963d 7454 603d 9b87 ef3d 8d88 073e
000001e0: 8127 3d3e 2578 263e 06ef f13d 0042 753e
000001f0: 5ecb fd3d 5f5f 843d e247 38bd a0e3 f2bc
00000200: a92e 7f3d 735f 73bc 68f3 2d3b e6ca b73b
00000210: 6d16 623d 621a aa3d db74 c9bc 75cb 7a3d
00000220: d8b3 983c 86e8 553d 1b4d ae3c 7766 3a3d
00000230: 3e6b 673d be51 9a3d 25ea a43d e9f5 9f3d
00000240: a3d5 cbbc 87f0 953d 3d2c 903d 6a4f 8ebc
00000250: 61e6 c93d 2252 133d 31f5 14bc a014 493d
00000260: 6817 543c 77ac d03d c98f 453d 9898 c5bd
00000270: 3706 88bd c0e6 dcb9 c1f5 38bd e656 673d
00000280: 0be6 aabc c26f 11bd f5e8 3bbc ce49 c83c
00000290: df6e 043d 333b e13d 4449 923d b466 8b3d
000002a0: cac4 2c3d b179 ac3d ee02 a9bb 4d28 513d
000002b0: 7eff f6bc e0ea a53c be55 a53d 0710 e3bd
000002c0: 6cbe f8bd 05c8 eebd fe22 c0bc 5760 c3ba
000002d0: 2aaa 33be 8e97 02be e966 d1bd 55ad 9ebc
000002e0: 8cfc ebbd 4fd5 4c3c 32fc 9bbd db07 a2bd
000002f0: 3cbc 6c3d a4b6 a43c bf6e 0c3c 3819 afbb
00000300: e4d9 76bd f27c ab3d 82cf a2bb 1a61 653d
00000310: b48a b6bc f18a 03bc 52df 09bd 3527 48bd
00000320: 854c 863d daab 183d 9615 7fbd 4960 4abd
00000330: 7609 11bd e020 c73c 1926 86bd b659 d5bc
00000340: 36f4 0e3d 6bff 833d a06d ca3b 9228 5c3d
00000350: dd10 863d cee1 9abc ba33 f5bc cc40 343d
00000360: 84b3 873c c7bc 7cbd 74ee a03c cb1a 873d
00000370: 62a4 18bd 026a 2abd a416 8a3c e48f 80bd
00000380: 80f4 30ba 138b f9bd 89f9 22be a2e0 e9bd
00000390: 3771 b7bd 0861 f9bb 8770 73bd 79d0 acbd
000003a0: d937 77bd dcb5 98bd ca63 ac3b 4177 533d
000003b0: b41a e0bc d8ee 223d 9cd8 273d fd67 e03c
000003c0: 26ec da3d 4c63 d83d 09b9 013e 7862 163e
000003d0: 7ca0 c33c 4a62 023d 9f86 033d 0053 dc3d
000003e0: f7ee 083e beaf b33d e3c6 083e 4147 153e
000003f0: d1f2 2d3e a052 c6bd c90f 603e 5969 6f3d
-0.2790987 -0.15671079 -0.05028873 -0.025260817 0.027921159 -0.32019025 -0.308237 -0.1730962
-0.107080646 0.0070939823 -0.034324963 0.013115817 0.09905977 0.21557538 0.19201675 -0.07113247
-0.06324028 -0.012677831 0.08576439 -0.025171453 0.06279864 0.1067642 0.16434044 0.11040973
0.19504018 -0.17045245 -0.22517769 -0.09537005 -0.05494034 0.039141707 -0.14020965 -0.061563075
-0.06382814 -0.034922253 0.075764306 -0.06700198 -0.12691247 -0.038823713 0.017789505 0.09551873
0.018885752 0.06363017 0.10229987 0.10494627 0.17554104 -0.010106328 0.04958268 0.12789218
0.15857485 0.23788165 -0.17979525 -0.18611223 -0.16957988 -0.03081518 -0.0931451 -0.13796806
-0.16020124 -0.12188698 0.010042822 0.01698641 -0.011849273 -0.089922555 0.0091993585 0.05532719
0.056320604 0.048805535 0.078245565 0.023923656 0.05403521 0.065993816 0.07050382 0.12476385
0.093922846 0.19956248 0.17175417 0.03972474 0.050008062 0.0028704556 0.004016925 0.07708837
0.07094008 0.07883623 0.08289317 0.0021711127 0.0042172214 -0.1259978 -0.16751385 -0.10581575
-0.13221592 -0.11980934 -0.08198935 -0.11608557 -0.046437003 -0.04714105 -0.11711857 0.06226558
-0.05240654 -0.063537784 -0.052692365 0.038378354 -0.20538159 -0.120291956 -0.18009771 -0.0673784
-0.1236903 -0.048664015 -0.14659962 -0.017604444 -0.033234965 0.053740572 -0.016710935 0.052343402
-0.03570891 0.0900652 0.049300127 -0.012519642 0.07365077 0.05476804 0.116957866 0.13235684
0.18472101 0.16256769 0.11813168 0.23950958 0.12392305 0.06463503 -0.044990428 -0.029649556
0.062300358 -0.0148543 0.0026542787 0.005608904 0.05519717 0.08305813 -0.024591854 0.061229188
0.018640444 0.052223705 0.021277001 0.045507874 0.05649876 0.07535122 0.08052472 0.078105755
-0.024882143 0.073212676 0.07039688 -0.017371852 0.098583944 0.035967 -0.009091661 0.049091935
0.012945034 0.10189145 0.048232827 -0.096482456 -0.066418104 -0.00042133592 -0.045156244 0.056479357
-0.020861646 -0.03550697 -0.0114691155 0.024449255 0.032332297 0.109976195 0.071428806 0.068066984
0.04217986 0.08421648 -0.00515782 0.051063824 -0.030151125 0.020253599 0.08072995 -0.11087041
-0.12145695 -0.116592444 -0.023454186 -0.0014906031 -0.17545381 -0.12753126 -0.10224707 -0.01936976
-0.11522779 0.012502029 -0.07616462 -0.079116546 0.0577967 0.020106621 0.008571326 -0.0053435825
-0.06026639 0.08373441 -0.0049685845 0.056000806 -0.022282936 -0.008028732 -0.03366024 -0.048865516
0.06557564 0.037273265 -0.062276445 -0.04940823 -0.035409413 0.024307668 -0.06550235 -0.026043754
0.034900866 0.064452015 0.006177619 0.05374963 0.06546185 -0.0189065 -0.029931892 0.044007108
0.016565092 -0.06170347 0.019644953 0.06596907 -0.037266143 -0.041605003 0.016856499 -0.06277445
-0.00067503005 -0.121847294 -0.15915503 -0.114197984 -0.08957141 -0.007610444 -0.059433486 -0.084382005
-0.060355995 -0.07456562 0.005260919 0.0516274 -0.027356483 0.03977856 0.04097806 0.027393335
0.10689573 0.105658144 0.12668242 0.14686 0.023880236 0.031832017 0.032110807 0.107580185
0.13372408 0.087737545 0.1335712 0.14577962 0.16987158 -0.09683728 0.21881022 0.058450077

conv2.bias f4 [16]
00000000: d5f5 403d b09d 5ebd 7e16 b5bc f9c2 65bb
00000010: 62bd 4a3d 8da1 df3c abfa 4a3d 8f7d 813d
00000020: 0a2a 7cbd d8f6 763d d52f 10bb 5fe0 dcbc
00000030: 1289 ae3b 60b9 99bb 5b71 1fbd 0f59 c43c
0.047109444 -0.0543496 -0.022105452 -0.003505884 0.049497016 0.027298713 0.04955546 0.063227765
-0.06156353 0.060294002 -0.0022001166 -0.026962457 0.0053263986 -0.004691288 -0.038926464 0.023968248

conv3.weight f4 [8, 16, 3, 3]
00000000: 2611 e83c 9438 3a3d af89 1dbd cbb9 26be
00000010: 03f4 e83d 9f4d 1f3e 9d71 1abe 4294 893d
00000020: 6880 05be 7347 b9bd df7e 2a3e 5cf3 483d
00000030: 40fe 66bd e7e5 fc3d 80a4 58bd 7247 a43d
00000040: d689 b2bd 5ad4 0bbe 7290 18be 3709 e7bd
00000050: 5dcc fabd ff6d a5bd d132 143d 34af 213e
00000060: d0d3 adbd b08b d9bd 45d2 df3d cfb3 583c
00000070: 7b92 483d 65cc 19be 9269 ee3d 2085 333e
00000080: 4efa b6bc c002 24be 6a11 343e 1522 7c3d
00000090: 3bfa e63d 6e26 2c3e 0bd6 133e b227 8b3d
000000a0: 2db9 eb3d 5601 283d 2df6 083d 17bc 05be
000000b0: e084 d93c ba06 1cbe 40a8 ca3d dd0a 413e
000000c0: 8293 babd 1c8c a9bd 7e4f 093e 6e07 583d
000000d0: f178 0d3e b280 943d face c6bc cfcb afbc
000000e0: c64c 173e f0ea 1abe 0e86 b4bd a3a6 4c3e
000000f0: c0cc debd 3d40 f0bd b0c8 ae3d c836 b8bd
00000100: de7a f63c ccd7 2ebe 860a da3c 1a8b f13e
00000110: 2d25 11be 53f0 6f3d 4121 e4bc cc4a fdbd
00000120: 2098 9e3c bfbe 9cbd 589a f8bd 0ba0 e8bd
00000130: 1122 c3bb a850 803c efb2 1dbe 0aa6 99bd
00000140: 34c9 29be 747e ecbd e9e2 2dbb d8bf 963d
00000150: 9b68 f43c 562f 303d 3a77 fabd a32e 353d
00000160: 0bc2 aab7 8fe1 0abd 3554 e9bc eb87 163e
00000170: 1b45 143d 008b 3b3d 748b cabc c5cc 083e
00000180: 0282 c0bd eb4e 953c df50 c43d 5e31 ccbd
00000190: b6a7 0fbe 4888 5dbc 0c32 c43c 417c 0a3b
000001a0: c413 c8bd 1cc6 40be 2a5d 22be c553 133e
000001b0: e301 cc3d 7fa4 cb3d 5778 29bd 5b16 04be
000001c0: e85e e23d f631 d0bd 23d7 01be 1417 5b3d
000001d0: e480 48bb 7cf4 cb3d 7738 a2bd 15cd 193d
000001e0: 14cf f03c bcc7 333d 0ba6 1dbe c7c5 d8bd
000001f0: 8ba3 963d 12fd b2bc 6019 af3c 52f2 b83d
00000200: b854 23be 803d 333d 9ea9 a9bd a45a 423d
00000210: a615 a4bd 80e1 493c 908b 433c 8e40 76be
00000220: ad85 54be f508 8d3a a172 6bbe 9fa1 f2bd
00000230: 27a2 8dbc b31f f4bd 11a1 03be b10d 6c3e
00000240: b9b5 adbd b7bb 55be bc1d 87be 5c71 e13d
00000250: 48a1 82bb 6da9 25bb 0ea2 d13b 500a 51bd
00000260: 1148 083e affe d3bc b920 023e da76 f13d
00000270: e5cf 223e b15f 6f3d 9578 993b e04b 583d
00000280: e799 25be 0741 ad3c 448f 1fbd 24f6 6c3d
00000290: 9073 4e3d ae9c c6bd 59b4 393d 177c 8ebd
000002a0: 671d 0cbd 821a 78bd 7aad fd3d ae0d be3d
000002b0: 70a1 d83c b3f9 25bd 547e b7bd f48e b0bb
000002c0: 2ff0 83bd 615a a1bd 54cb 0abc 5da2 e5bd
000002d0: a9a0 313c 9edc 08be 2887 df3a 69c2 0fbe
000002e0: 0b38 19be 6b49 093e ed9f 563e f074 ec3d
000002f0: 66d9 c63c 2e8d 7b3d b10c b7bd e572 af3d
00000300: 7ac0 fc3d fea1 0a3e e493 eebd 3ead 46ba
00000310: 021d 393e e606 183d 22a0 06be 0db5 6ebe
00000320: 381d 3dbe 769e 2fbd 91c9 cd3d 6937 043e
00000330: 7840 873e 86e5 4f3d c47b 333d 1be4 64bd
00000340: f3dd 8d3d 9110 a93d 0608 febd c1d7 2a3e
00000350: 72b6 86bd 49ed 07bd efa4 d1bd 250f 27be
00000360: 9a3e 93bd 6fd9 983d bb37 3f3d 9be4 cf3d
00000370: 1f03 0d3e a3b8 e0bd 1e3f d6bd 1db5 563d
00000380: c687 c83d 873a 54be 7493 24be 9c46 b6bd
00000390: 3f00 61bd 32fe 83bb ac7b c13d 70dc 0fbe
000003a0: 9215 083e 392d 073e 4004 c9bd a913 5dbe
000003b0: 350a f1bd 0d57 36bc aceb de3d 0cb9 36be
000003c0: 3338 d73b 6e13 f0bc 5173 20be 952a 8dbd
000003d0: 5b6b 49be f671 69be 1d31 7bbd 367c 2fbd
000003e0: 7ffb 653d 213e 1a3d 8d99 8ebd 1d42 5dbd
000003f0: bf1b 95bc e2e0 c7bd 6d3d 373d b4ad 1cbe
0.02832849 0.045464113 -0.038461383 -0.16281812 0.113746665 0.15556954 -0.15082403 0.06717731
-0.13037264 -0.09046831 0.1664996 0.04906021 -0.056394815 0.12348538 -0.052891254 0.080214396
-0.08717696 -0.13655224 -0.14898852 -0.112810545 -0.122460105 -0.08077621 0.036181275 0.15789491
-0.08487666 -0.106223464 0.109287776 0.013226463 0.04896782 -0.15019377 0.1164123 0.17531252
-0.022336151 -0.16016674 0.17584768 0.06155594 0.112781964 0.16811535 0.1443712 0.06794681
0.11509929 0.0410169 0.033437897 -0.13060032 0.026552618 -0.15236941 0.098953724 0.188518
-0.09110166 -0.08278677 0.1340923 0.05274146 0.13815667 0.07251109 -0.024268616 -0.021459488
0.1477538 -0.15128684 -0.088146314 0.19985442 -0.10878897 -0.117310025 0.08534372 -0.08994824
0.030087885 -0.17074507 0.026616346 0.4717644 -0.14174338 0.0585788 -0.027847888 -0.12367782
0.019359648 -0.076535694 -0.12138814 -0.11358651 -0.0059549888 0.01566346 -0.15400289 -0.075023726
-0.16580659 -0.115475565 -0.0026532954 0.0736081 0.029835036 0.043013893 -0.12229772 0.04423393
-2.0355938e-05 -0.033906516 -0.028482536 0.14700286 0.036198717 0.045786858 -0.0247247 0.13359363
-0.09399797 0.018226108 0.095857374 -0.099703535 -0.1402882 -0.0135212615 0.023949645 0.002113119
-0.09769395 -0.18825573 -0.15855852 0.14387424 0.09961297 0.099434845 -0.04137453 -0.12899153
0.11053258 -0.10165779 -0.12679724 0.053488806 -0.0030594403 0.09958741 -0.07920926 0.037549097
0.029395618 0.043891653 -0.15395372 -0.10584598 0.07355412 -0.021849189 0.021374404 0.09030594
-0.15950286 0.043759823 -0.08284305 0.047449723 -0.080119416 0.01232183 0.01193513 -0.24048063
-0.20754118 0.0010760116 -0.22992946 -0.11847233 -0.017289234 -0.11920109 -0.1285441 0.23052098
-0.084819265 -0.20872389 -0.26389873 0.1100795 -0.0039865114 -0.0025277988 0.0063974923 -0.051035225
0.13308741 -0.025878279 0.12707795 0.11790247 0.15899618 0.058440868 0.004683564 0.052806735
-0.1617199 0.021149172 -0.038954988 0.057851925 0.050403178 -0.09697853 0.04533801 -0.06957262
-0.034207728 -0.060572155 0.12386604 0.09279953 0.026444167 -0.040521335 -0.08959642 -0.005388135
-0.06442296 -0.078785665 -0.008471329 -0.11212609 0.010841527 -0.13365409 0.001705383 -0.14039005
-0.14962785 0.13406913 0.20959444 0.115457416 0.024273586 0.061413936 -0.089379676 0.08566836
0.123413995 0.13538358 -0.11649302 -0.00075789157 0.18077472 0.037115954 -0.13147023 -0.23311253
-0.18468177 -0.04287573 0.10048211 0.12911762 0.26416373 0.050756 0.043819204 -0.0558816
0.06927099 0.08255113 -0.12403874 0.16683866 -0.065777674 -0.033185277 -0.10236537 -0.16314371
-0.07189675 0.07463347 0.046684008 0.10151025 0.13770722 -0.10972717 -0.104612574 0.052418817
0.09791522 -0.20725451 -0.16071874 -0.089001864 -0.054931875 -0.004028105 0.09447417 -0.14048934
0.13289478 0.13200845 -0.09815264 -0.21589531 -0.11769525 -0.011129153 0.108847946 -0.17844027
0.0065679788 -0.02930614 -0.1566899 -0.068928875 -0.19669859 -0.22797379 -0.061326135 -0.042843066
0.05614805 0.037656907 -0.06962881 -0.05401813 -0.018201707 -0.0975969 0.044736315 -0.15300637

conv3.bias f4 [8]
00000000: 079c 413c 01ef da3d 9f30 b6bd 347b 4cbb
00000010: 741c 12bd c9d5 b43d 53e5 133e 98f4 173d
0.011816985 0.106901176 -0.088959925 -0.0031201364 -0.035671666 0.08829839 0.14442949 0.037098497

convt1.weight f4 [8, 8, 3, 3]
00000000: cbcf cebd 3d8f 013e 0adf 063c 35a0 9fbc
00000010: 6a9a 0b3e aa59 e9bd aff0 0ebd 5b02 4bbd
00000020: d3e5 bf3d 54a1 043e fe2d ffbc 9b45 333e
00000030: 4a14 25be 0287 c6bc c42a 3d3e 34e1 3b3e
00000040: 3a13 383d aa4c 833e c2c9 e4bd b934 4fbd
00000050: 83d3 fa3c 766e 89ba 8811 163e bc24 083e
00000060: eab3 f6bd 0b1d d1bb f4fa d73d 2739 14be
00000070: 3a90 163e 2a1b 50be c973 3bbe bc84 6d3e
00000080: de4f c0be 44f9 d53d 6cf9 173e 81ed d3bd
00000090: d104 4bbd c7f0 3bbe 772c 7d3e a812 5c3c
000000a0: 284f ebbe 7468 633e 1930 6f3d 7b8d 1fbd
000000b0: c17f ae3e 8920 dfbd 88a8 f4bd 2ea7 63be
000000c0: f6e3 343e cf30 093d 1a26 42bd 4abc e93d
000000d0: 6eef 3c3e 4ff3 0c3e 2f17 3bbe 04f1 45be
000000e0: d44a aabd e2d8 2d3e 6b03 a23d edc0 8f3c
000000f0: 341b 3e3e b282 273d d9cb 69bd f519 b53d
00000100: 0f48 2b3c 4a44 c5bd a98c 273e 5f07 113e
00000110: b232 e93d 7986 f63c 0f8f 703e 75cd 18be
00000120: 444a 8abd 67cc 70bb 61b9 4c3e 6cc8 ddbd
00000130: b6a3 233e b16a 6f3e bb0d 2b3e 4be9 3cbd
00000140: 217f 803d e36e 5cbe 4f84 b13c 7fa9 11be
00000150: 9e99 67bd 223a 893d 7b0b df3c 7efc ca3e
00000160: f9fd c13e 4a69 b43e 2968 c3bc 05a4 37be
00000170: 8559 0cbe d8b2 16be 06b2 ce3d 8114 973d
00000180: 0843 783d 1cf4 41bd bab8 543e e51e 033e
00000190: 2519 91be f644 71bd a0eb 5e3d 5b63 f93d
000001a0: ee42 24bc f4d3 913e 8e22 2d3f 6e1d 0a3f
000001b0: 8a4c 6fbe d481 823d aae9 b23b a1d8 a139
000001c0: 62be 0c3b b46b d83d 96e7 38be e1f2 8bbe
000001d0: 09db 88be 74bc bdbd 77da 8d3d 06e8 1e3e
000001e0: 64ad ae3d 9eff 243e 09a3 88bd 61ae 16be
000001f0: 9fff 0ebe 3c71 dc3c 72a5 5d3e 6057 80bb
00000200: ed99 243d ce03 cebd 3bda abbc 807b dd3d
00000210: 35db 453e cc67 a1bd 2b2c 3d3e d401 49bd
00000220: 9316 a33d cb49 043d c696 5e3e 7660 8c3e
00000230: 64c9 2c3e 8243 0b3e 0667 95bd 8bac 12bd
00000240: 065c 22be 97ba bdbd 906b 9a3d b082 a93d
00000250: e25f 36be 8070 5fbb fb69 ccbd 93ff 0a3e
00000260: 771e ddbd 908c 30bd abe0 3b3e bf09 eabd
00000270: 51d6 f2bb c021 95bd 3731 183e 389d 43bc
00000280: 6b47 d6bd ee1e 4b3d 2b24 20be 3e95 1cbd
00000290: faaf fdbd fd90 49bd 06c4 133d c000 a03d
000002a0: 1660 5b3d 3eed bbbd fc9b 05be aae8 953c
000002b0: 5fb1 4f3e 0026 1abd 0c93 38be 9b60 02be
000002c0: 0ac7 133e ce0b 2bbc 77ed 82bd 65a2 9a3d
000002d0: e3c2 46be 4445 5b3d 9ae7 11bd e4b9 8c3d
000002e0: 9724 38be 3147 2f3e 8f78 2cbe 5a8d 90bc
000002f0: 6ccf 0c3e b649 493e a396 d9bd 62a5 2d3d
00000300: e03e 49be a774 4f3e 683f 003d 2502 edbd
00000310: 6e3c abbd 4ba4 d93d 083e 34bd 8f02 afbd
00000320: 3afd 2d3e 9588 1cbe c230 42be 0ab6 13be
00000330: f0ea 403c 9441 f23d 1101 f23d 2d45 8e3c
00000340: 4ed4 233d b422 cfbd adcf 053e 2a82 25be
00000350: 1fd9 a23c 67ae 743c ebc1 c03d e425 a4bd
00000360: 6984 1abc 9e99 323e 7461 ecbd 5351 01bd
00000370: 78c9 bfbd aed1 b83c 7d8c c6bd 0ed7 e3bd
00000380: e21a d33c 46e3 01be b5fe 5ebd 4fcf 203e
00000390: c092 86bd b298 9a3d cc87 f13d 9f8e 293e
000003a0: 3796 713d d769 403e d10d bcbd bd78 333d
000003b0: 221b 1bbe b7c0 153d 51ee 663e 5769 96bd
000003c0: b92a b23d 5c3c aebd a6b3 983d 01e9 afbd
000003d0: f2a4 033d c791 dd3d 08be 373c 11df 23be
000003e0: fa1b af3d c35d ea3d 7313 ddba 8d27 003d
000003f0: 8270 b0bd f329 87be e9fd 8c3d 09e5 2c3e
-0.10098227 0.12652297 0.008231888 -0.019485572 0.13633123 -0.11394055 -0.034897503 -0.049562793
0.09370007 0.12952167 -0.03114986 0.17507021 -0.16121021 -0.024234299 0.18473345 0.18347627
0.04494021 0.25644428 -0.11171295 -0.05058739 0.030618435 -0.001048519 0.14655125 0.13295263
-0.12046035 -0.006381636 0.105459124 -0.14474927 0.14703456 -0.20322862 -0.18305887 0.23195165
-0.37560934 0.10447934 0.1484124 -0.10348035 -0.04956514 -0.18353568 0.24723993 0.013432182
-0.4595883 0.22207814 0.05839548 -0.038953286 0.34081843 -0.108948775 -0.11946207 -0.22231743
0.17665085 0.033493813 -0.047399618 0.114128664 0.1845071 0.1376469 -0.18270563 -0.19330221
-0.083150536 0.16977265 0.07910808 0.017548049 0.18565065 0.040896125 -0.05707917 0.088428415
0.010454192 -0.09632166 0.16362251 0.14162968 0.113866225 0.030093418 0.23492073 -0.14922126
-0.06752446 -0.0036742927 0.19992591 -0.10829243 0.1598042 0.23380543 0.16704457 -0.046120923
0.06274248 -0.21526675 0.021669535 -0.14224814 -0.056542985 0.06700541 0.027227154 0.3964576
0.37889078 0.3523658 -0.023853378 -0.17933662 -0.13706024 -0.14716661 0.10092549 0.07376958
0.0606108 -0.04735194 0.20773593 0.12804754 -0.28339496 -0.058903657 0.05442393 0.12177154
-0.010025723 0.2848202 0.6763085 0.53951156 -0.23369041 0.06372419 0.005459984 0.00030869714
0.0021475782 0.10567418 -0.18057093 -0.2733374 -0.2672961 -0.0926446 0.069264345 0.15518197
0.085291654 0.16113135 -0.066717215 -0.14714958 -0.13964699 0.026909463 0.21645144 -0.003916666
0.040185858 -0.100593194 -0.020978084 0.108145714 0.19321902 -0.07881126 0.1847388 -0.04907401
0.0796329 0.032296937 0.21737203 0.27417344 0.168737 0.13599971 -0.07295041 -0.03580908
-0.15855417 -0.09264105 0.07540047 0.0827688 -0.17810014 -0.0034094155 -0.09981152 0.13574056
-0.10796826 -0.0431028 0.18347423 -0.1142764 -0.0074108024 -0.07281828 0.14862524 -0.011939339
-0.10462841 0.049590044 -0.15638797 -0.038228266 -0.123870805 -0.049210537 0.036075614 0.07812643
0.05355843 -0.0917611 -0.13047785 0.01829942 0.20282505 -0.037633896 -0.18024844 -0.12732165
0.14431396 -0.010439826 -0.06392949 0.075505055 -0.19410281 0.053532854 -0.035621263 0.06871393
-0.17982708 0.17117001 -0.16842864 -0.017645527 0.13751 0.19657025 -0.10624435 0.04239405
-0.19652891 0.20259343 0.03131047 -0.11572675 -0.083611354 0.106270395 -0.04400447 -0.0854541
0.1699113 -0.15286477 -0.18963912 -0.14424911 0.011774763 0.11828914 0.1181661 0.01736697
0.03999739 -0.10114041 0.13067503 -0.16162935 0.019878922 0.014934159 0.09411987 -0.080150396
-0.009430983 0.17441413 -0.11542025 -0.031571697 -0.09364599 0.02256092 -0.09694765 -0.11125003
0.025769655 -0.12684354 -0.054442126 0.15704082 -0.06570959 0.075486556 0.11793479 0.16558312
0.058981147 0.18790375 -0.09182323 0.043816317 -0.15147069 0.03656074 0.22551848 -0.07344311
0.08699555 -0.085076064 0.0745614 -0.08589364 0.032139726 0.108188204 0.011214741 -0.16003062
0.08550258 0.11443665 -0.0016866758 0.03128772 -0.08615209 -0.26399192 0.06884367 0.16884245

convt1.bias f4 [8]
00000000: 5fbb 1bbd 2a50 743d 0747 c03d c9d8 023d
00000010: cc94 9d3a 7ced 873d 85b7 50bd a9ab 933d
-0.038020488 0.059646763 0.093885474 0.031945024 0.0012022494 0.066370934 -0.050956268 0.07210476

convt2.weight f4 [8, 16, 5, 5]
00000000: 14d7 eebd 05c3 16bd d4f6 97bd 9f69 91bd
00000010: b4b5 b0bd ee88 5fbd a599 fabc 39fe 9fbd
00000020: 2896 debd baf5 dcbd 1080 04be 8403 74bc
00000030: 8b7e 8c3c 42ca abbd 5bbf 04be 0ba5 7d3c
00000040: 98e0 8dbd d656 233d 0065 b4bd 26c2 29bd
00000050: b511 053d f43c b33c 4c54 0dbe fb3f 703c
00000060: ae86 8fbd 28a2 aa3c c9f0 3ebe 38ac 02be
00000070: cdf4 5cbd 26b1 2ebe ef6e 253d 59a0 2fbe
00000080: 87f3 69bd b5a2 0b3c d992 7abe 4de3 e1bd
00000090: a89f d73c f779 1f3c 5580 8cbd 0351 f2bd
000000a0: b302 a93d 56c3 edbd 6b7b 90bc 1d04 51bd
000000b0: 7242 d7bd 4aa7 0abd 10b0 72bb 6176 dc3b
000000c0: 1779 3ebe 914a 31be f0c9 ca3c 3a75 2e3e
000000d0: 4bbf e23d b2d9 9d3d 0dd7 1abd 86b0 543d
000000e0: 510a 87bc dfc8 243d dad0 933d 1f7c 633c
000000f0: 7d3e 8b3d e98a 013b f44a 333d 5236 babc
00000100: 9750 06be f768 47bc 209d 203d a59e c93c
00000110: 0f16 d0bd e247 883c e08a e8bc 44bd c73c
00000120: 7cec c6bd 182f d2bd d52a debd 19b0 8cbc
00000130: 2029 27be 2c7f 733d a1e1 cbbd c18c 3eba
00000140: 0c58 85bd a56b c33d 6360 1bbd 16ca 0fbd
00000150: d15f 71be 2866 5cbb 28e6 32bc 2219 b03c
00000160: 4f3f 033d 7de6 06be 4719 153e 9016 4abd
00000170: a44d f23d 6808 d2bd aa00 5cbd 4be7 1dbc
00000180: f34d 10be 8aa8 90bd b525 42bd e8a5 0cbd
00000190: eb33 193b 1cdc 6c3c 1a93 26bd 9e49 9a3c
000001a0: 0f1d f8bd ba16 7fbd a8a9 3e3d be6e a03d
000001b0: 420d 313d 859d 24bd 8b69 a03d 8a4c 0fbd
000001c0: 63a5 cf3b cddb 4b3d 81f5 98bd ba98 07be
000001d0: 1e0f 8cbc e474 d2bc 24e8 8ebd b97f ddbc
000001e0: 4aac a9ba cbc4 313d d124 41bd f59d fbbd
000001f0: ac6b 84bd 5b8d f23c 4574 423c e6a2 703c
00000200: 9eee efbd 0b86 e13b 4150 8ebd ef61 bdbd
00000210: a0ce fabc 7c19 1a3d 2e59 3b3d 988a eabc
00000220: 0001 5bbd d245 e4bc 3ec9 aebd cdf2 d9bd
00000230: abdd 15bd a59a 04be 1e70 703d 08ec dabc
00000240: 0c87 77bc dd6e 8dbc 0225 0cbd 7870 d3bd
00000250: c8c1 efbd ed1e e5bd 59d0 8e3d cd1e 55bc
00000260: 69e7 7bbd 10ca 623c 0b3b aabd 0f01 21bd
00000270: 9378 783b f974 d0bd 0e99 dfbd 81ac 03be
00000280: 5694 d7bc 07ed 28be 0812 d4bd 1c9e d1bd
00000290: 0338 f5bc 28d7 f43d 2b34 8b3d 5ee9 32bd
000002a0: cc95 fabc 8e36 c43c 3146 2d3d 12e2 23bd
000002b0: b4af a63d b94f eb3d b260 3b3d 32f0 113e
000002c0: 71be fe3d 7db9 373d edf4 d53d f61f 883d
000002d0: 6b40 073e 5626 853d d163 ffbc 3b56 b7bc
000002e0: ea25 d7bc a0ed 82bd 7cf1 85bd 770a dc3a
000002f0: 1164 2ebd 9c90 15be 0ff4 96bd 12f2 193d
00000300: c882 51bd 0505 99bd 386f f3bd 52ca c63d
00000310: 5198 d2bd c02b 69bd 2bb3 a3bc be6b d23c
00000320: d86e 5d3d 0d61 5c3c 83d8 9dbc 65fe 52ba
00000330: 5d94 943a 131b 1e3c 73be d7bd 49d7 67bd
00000340: 4257 9dbd 2fbe a9bd b195 593d c937 e63c
00000350: 9746 21bd 5715 b0bd bfd9 abbd a277 bbbd
00000360: 8af8 87bd 65d7 393d 1cd4 62bd f153 87bc
00000370: 0b11 afbd 0bb2 d1bc 5c4f 9ebd 0619 cabc
00000380: 3e46 ca3b c255 683d 4cfc 8cbe 9b36 bdbd
00000390: 5283 9a3b bfd6 1cbe 5ddc 94be 10fc 39be
000003a0: 96b8 6bbd 04ce e1bd 732e a6be 60e9 e0bd
000003b0: 5606 933d 18c6 03be 9c45 02be 045a 6fbe
000003c0: 8f62 28ba 4d7f 36be a528 16be c0c1 55bd
000003d0: 0809 25bd 0f86 b53d 23e3 51be 819f 293c
000003e0: 8b3c f03c f6d3 9a3c 79ed 19bc 4995 273d
000003f0: 674f 07bd fa35 e6bd c70b 8dbd b4df 8dbc
-0.11662117 -0.03680708 -0.074201256 -0.07100224 -0.08628407 -0.054573946 -0.030590842 -0.07812161
-0.10868484 -0.10789056 -0.12939477 -0.014893416 0.017150184 -0.08388187 -0.12963621 0.015481244
-0.069276035 0.039877735 -0.08808327 -0.04144492 0.03248759 0.02187965 -0.13801688 0.014663692
-0.0700811 0.020829275 -0.1864654 -0.12761009 -0.053944398 -0.17059764 0.040388998 -0.17151012
-0.05711701 0.008522679 -0.2447008 -0.11029682 0.026321247 0.0097336685 -0.06860415 -0.11831858
0.08252468 -0.11609523 -0.017636975 -0.051029313 -0.1051072 -0.033850946 -0.003703121 0.006727979
-0.1860088 -0.17313601 0.024754494 0.17036906 0.110716425 0.07707538 -0.037802745 0.05192616
-0.016484411 0.040230628 0.0721757 0.013884573 0.06799028 0.0019766635 0.043772653 -0.02273098
-0.1311668 -0.012171022 0.039212346 0.02461178 -0.10160457 0.016635839 -0.028386533 0.024382241
-0.097130746 -0.10262889 -0.10848013 -0.017173814 -0.16324282 0.059447452 -0.09955145 -0.0007268899
-0.06510934 0.09542016 -0.03793372 -0.035104834 -0.23571707 -0.0033630226 -0.010919131 0.02149636
0.032042798 -0.13173862 0.14560424 -0.049337924 0.11831215 -0.102555096 -0.05371157 -0.009637664
-0.14092235 -0.07063396 -0.04739924 -0.034337908 0.0023376893 0.014456775 -0.04066763 0.018833932
-0.121149175 -0.062277533 0.046548516 0.078336224 0.043225534 -0.040189285 0.07832631 -0.034985103
0.0063368543 0.049770165 -0.07468701 -0.13241854 -0.017097052 -0.025690503 -0.06977871 -0.027038442
-0.0012945023 0.043400567 -0.04715425 -0.12285987 -0.06465849 0.02960842 0.011868541 0.0146872755
-0.117154345 0.0068824342 -0.06948901 -0.09247195 -0.030616105 0.03762196 0.045739345 -0.02863054
-0.05346775 -0.027865324 -0.08534478 -0.10642014 -0.036588352 -0.12949617 0.058700673 -0.026723877
-0.015107881 -0.017264778 -0.03421498 -0.10324186 -0.11706883 -0.11187539 0.06973333 -0.013007832
-0.061499987 0.013842121 -0.08312043 -0.03930765 0.0037913665 -0.10178561 -0.10917865 -0.12858774
-0.02631585 -0.16496669 -0.10355002 -0.10235235 -0.029933935 0.119551 0.067970596 -0.043679588
-0.030589007 0.023951795 0.042303268 -0.04001052 0.081389815 0.11489815 0.045746513 0.14251783
0.124386676 0.04485463 0.104471065 0.06646721 0.13208167 0.065014526 -0.031175526 -0.022379985
-0.026263196 -0.063929796 -0.065402 0.0016787787 -0.0425759 -0.14605945 -0.07370769 0.037584372
-0.051150113 -0.074716605 -0.11886448 0.09706558 -0.10282958 -0.05692649 -0.019982895 0.025686141
0.054060787 0.013450873 -0.01926828 -0.0008048772 0.001133572 0.00965001 -0.10534372 -0.056601796
-0.07682659 -0.08288228 0.053121272 0.028102772 -0.03937396 -0.0859782 -0.08391141 -0.091536775
-0.06639202 0.04537143 -0.055378065 -0.016519519 -0.085481726 -0.025597593 -0.0772998 -0.024670135
0.0061729243 0.05672241 -0.27536237 -0.09238931 0.0047153616 -0.15316294 -0.29074374 -0.1816256
-0.05754908 -0.110256225 -0.32457313 -0.10982013 0.07178943 -0.12868536 -0.12721866 -0.23374182
-0.0006423378 -0.17821999 -0.14663942 -0.052186728 -0.040291816 0.0886346 -0.20496802 0.01035297
0.029325744 0.018899899 -0.009394997 0.040913854 -0.03303471 -0.11240764 -0.06887012 -0.017318584

convt2.bias f4 [16]
00000000: 8445 ffbc 42eb 053d 2fa9 bd3d 1c79 533d
00000010: 5e45 643c a7b6 cb3c 61e1 843d 66c7 ab3d
00000020: 1cc6 aa3d 9620 913c 88f3 023d b548 b83d
00000030: b739 a73d 9939 0cbc 03d3 dabb 359e bcbd
-0.031161077 0.032695062 0.09260785 0.05162917 0.013932554 0.024867369 0.064883 0.083876416
0.083385676 0.017715733 0.03197053 0.08998243 0.08165305 -0.008558654 -0.0066779866 -0.09209863

convt3.weight f4 [16, 32, 9, 9]
00000000: 8a2e 39bd 5833 32bb 5a48 1f3d 2469 e63c
00000010: 355d 123d 9667 afbb 6800 7e3c 6ea7 ca3c
00000020: c58a 4b3c 5d64 ffbc 48f2 c83b c48d dd3a
00000030: 65e1 db3c 564b e43c 1894 8f3c 7654 0b3d
00000040: f67c 2e3c 31f1 323c 99d1 ce3c 8da1 6dbc
00000050: dde4 2fbc 2084 99b9 368d 9f3c 4699 4a3c
00000060: d038 b73c f322 debb 364e cabb 1687 8d3c
00000070: b341 033d 5b12 8ebc 1c92 4f3d 2069 e6bb
00000080: e7bd be3c 62bd 0c3d 474d 843c 803d e93c
00000090: f1a8 193d 2a5a ad3c 8b41 313d 42c0 113d
000000a0: 7759 413d bad7 5d3d 770c fdbb bbfc e8bc
000000b0: 58c0 57bc 7566 3d3d 9021 853d 4bae 913b
000000c0: 32d5 653c d4cf 833d ff54 b23b 4ab2 c23a
000000d0: 6ebc 213d 0862 203b 03fe afbc 07d4 b03c
000000e0: 0fe5 483d e127 46bc 25b4 a5bc 1ed9 00bd
000000f0: b3b7 4a3c 4815 a43c c378 3bbc 2153 f4bc
00000100: c14e babc 4976 163c d708 7ebc 48d7 3e3c
00000110: 4002 99bc dd23 c23c 2c4e 83bc 420f f0bc
00000120: 7f79 d03c aaec 10bc 7bdc 173c bb19 983c
00000130: 8b02 fdbb 3a68 5e3b 09a9 aebc ea30 593c
00000140: 9b69 d0bc e9d0 f33c 4a8d 2a3c 539f 02bc
00000150: 2278 9c3c a4fa 893b a977 acbb 7a9a 23bc
00000160: 12ed a1bc e299 08bb e1d6 653c 5491 033d
00000170: b7b1 9bbc daea d93c cef5 bf3c c4dd e2bc
00000180: a7f4 1cbc 4d49 1f3c 5126 d2bc 04ff 14bc
00000190: 5317 af3c c14b 133c d2e5 593c fa58 0b3d
000001a0: 5ac6 093d 99cf af3c 9b1d e5bc bc6f 253d
000001b0: fbe4 b1bc cb09 083d f4a9 f4b8 64ae 513d
000001c0: 791b 453b 4e66 273d ebc3 283d e465 92bc
000001d0: 803b a23b c741 a43c a1d4 8c3b c9e6 a3bb
000001e0: 9f1e b1bb c0c0 afbb 5094 63bc 9425 1abd
000001f0: 33e6 a8bc 77e6 e3bc 7a24 753c 8061 c93c
00000200: 37ba 473b eb46 6fbc ff1f c23c 7d51 c5bc
00000210: a706 7f3c a4cf 4abc 2cc0 24bd 833c e93c
00000220: c554 f73c 936a 363d aab0 a63b 5828 f8ba
00000230: ce57 463c dced e93c c995 a33c f331 9fbc
00000240: d4d0 bcbc bd19 2d3b 17fd 57bc 8bc6 a33c
00000250: 1f8f c93c b304 423c 8f71 abbb 2fac 423c
00000260: bc55 06bd 93c1 b23c 8253 493c 955b c73b
00000270: 1c2b 0d3d d5f0 663a 5505 193c b2f3 5e3c
00000280: cfd4 8f3c 0e35 723b 79e2 ac3b 9994 913c
00000290: 1083 a53c b499 b73c e4af 0e3c 63af 9bbb
000002a0: 9a36 ae3b e23a b53c 0dde a6bb 2570 473b
000002b0: d933 dfbc 4a81 b93c 9edc b63c 806f bf3c
000002c0: 59da a43c bf39 03bd 1ad8 47bd c7dc 9abc
000002d0: 247d b23c 66b0 153c 8504 b739 c74f 0a3d
000002e0: 848a e3bc 87d7 81bc ccca 053d 096c 803c
000002f0: 02c5 013d 589b ce3b d54b 683a cfd4 2b3d
00000300: 0476 8a3c 5a36 37bc 5ba2 a9bb 6196 c8bc
00000310: e1c4 8a3c f8f0 3c3c b07c 0c3d 8c94 7a3c
00000320: bc16 f13b 6693 5b3c 7d00 813c 11b7 28bd
00000330: 1ec8 b1bc 57a9 b3bc 525a f2bb 32cc febc
00000340: 19ab 793b 4264 c5ba 595a e93b 161b d03c
00000350: a012 8ebc b8de 12bd 2960 81bc e752 bbbc
00000360: 2c04 aa3c 1bc6 ff3c ff70 73bc 1e5a 2abd
00000370: 8ec1 c9bc bfe5 53bc 9de6 1abd 5d40 0abd
00000380: d116 8cbb e01b b73c 80f3 94bc ba4c 2d3d
00000390: 8867 87bc a4a7 43bd 9694 edbc bb3b 3dbc
000003a0: 7e1f 87bd f21e d23c 4757 32bc 95a4 c13c
000003b0: e797 bfbc 29b3 b53b 1a4e b2bc 435e ffbc
000003c0: ffcf bf3c ecaf f4bc eb65 483c ff8e c83b
000003d0: b778 4c3c 3f08 b1bc 0349 4fbc 99da 653c
000003e0: 087a 49bc 2353 87bc 5b16 f93c a2f1 dd3c
000003f0: d8c5 d53b dd27 8ebc 3918 be3c 9cbf df3c
-0.0452104 -0.0027191248 0.03888736 0.028126307 0.03573342 -0.0053529246 0.015503027 0.02473804
0.012423222 -0.031175787 0.006132398 0.0016903211 0.026840875 0.027867954 0.017526671 0.034016095
0.01064991 0.010921762 0.025246428 -0.014503849 -0.010735718 -0.00029280875 0.019476514 0.012365645
0.022365957 -0.0067790686 -0.0061738743 0.017276328 0.032045078 -0.017342737 0.05067645 -0.007031575
0.023283912 0.034360297 0.01615013 0.028471708 0.03751463 0.021161158 0.043275397 0.035583742
0.04720446 0.05416081 -0.007722433 -0.028440824 -0.013168417 0.04624029 0.06500542 0.004445826
0.0140278805 0.064361244 0.005442261 0.001485416 0.03948634 0.0024472494 -0.021483427 0.021585478
0.049046572 -0.012094469 -0.020227501 -0.03145706 0.012372899 0.020029679 -0.011442366 -0.029824795
-0.02274263 0.009183475 -0.015505037 0.011648007 -0.01867783 0.023698742 -0.016028486 -0.02930415
0.025448559 -0.008845488 0.009268875 0.018566957 -0.0077212504 0.0033936636 -0.021320837 0.013256291
-0.025440982 0.029762702 0.0104096625 -0.007972556 0.019100253 0.004210787 -0.005263288 -0.009985561
-0.019766364 -0.0020843674 0.014028282 0.032121018 -0.01900564 0.026601244 0.023432638 -0.027693637
-0.009579814 0.009722066 -0.025653036 -0.009094004 0.021373427 0.008990229 0.013299422 0.0340204
0.03363643 0.021461295 -0.027968219 0.04038976 -0.021715632 0.033212464 -0.00011666483 0.051191702
0.003007619 0.04086905 0.041202467 -0.01787085 0.0049509406 0.020050896 0.0042978083 -0.005001877
-0.0054052616 -0.0053635538 -0.013890341 -0.037633494 -0.02061758 -0.027819855 0.01496231 0.024582624
0.0030475983 -0.0146043105 0.023696898 -0.024086708 0.015565551 -0.012378607 -0.040222332 0.028471237
0.030191788 0.04453523 0.005086978 -0.0018932922 0.012105895 0.028555803 0.019968884 -0.019432997
-0.023048796 0.0026413046 -0.0131829 0.019992134 0.024604378 0.011841941 -0.005232043 0.011881872
-0.032796606 0.021820819 0.012287976 0.0060839155 0.03446494 0.00088096905 0.00933965 0.013607906
0.01755753 0.0036957893 0.005276021 0.017771052 0.020204097 0.022412159 0.008708928 -0.0047511323
0.0053165676 0.022122804 -0.0050923885 0.0030431834 -0.027246403 0.022644658 0.022321995 0.023368597
0.020123648 -0.032037493 -0.048790075 -0.018904103 0.021788187 0.009136295 0.00034907847 0.033767488
-0.02777601 -0.015849842 0.032664105 0.015676515 0.031682022 0.0063051395 0.00088613975 0.041950997
0.016901977 -0.011182392 -0.005176825 -0.024485769 0.016939582 0.011532061 0.0342986 0.015294205
0.0073574465 0.013401842 0.015747303 -0.04119021 -0.021701869 -0.021931333 -0.007396021 -0.031103227
0.0038096367 -0.0015059786 0.007121366 0.02540354 -0.017342865 -0.035856932 -0.015792923 -0.02286668
0.020753942 0.031222394 -0.014858483 -0.04158985 -0.024628427 -0.012933194 -0.037817586 -0.033752788
-0.004275181 0.022352159 -0.018182516 0.0423095 -0.01652886 -0.047767296 -0.029001515 -0.011549885
-0.065978035 0.025649521 -0.010885066 0.02363805 -0.023387862 0.005545039 -0.021765757 -0.031172877
0.02341461 -0.029869042 0.01223133 0.006120562 0.012479953 -0.021610377 -0.012651685 0.0140291685
-0.012297161 -0.016519135 0.030406168 0.027092759 0.006523829 -0.017352993 0.02320491 0.027313046

convt3.bias f4 [32]
00000000: 1bea 943d 55fe 733d a433 3b3d 909e 5c3d
00000010: 433c 8e3d 813e 8c3d a08f 893d e397 9bbc
00000020: d972 8dbb 9fd2 0f3d 6ee3 82bc 334a 9a3d
00000030: 7706 7a3d f467 8d3d fda5 cebd 8569 3abb
00000040: 4339 1d3d 0bf1 8bbb 29d3 913d 81a6 843d
00000050: a96b 23bb 1601 a73d 283d f13a 6126 8b3d
00000060: 215a 88bc d5cb 843d 768d a4b8 1272 523d
00000070: 0767 8b3d cdd5 933d ab7f 01be 00df c6bc
0.072712146 0.05956872 0.045703545 0.053862154 0.06945088 0.06847859 0.067168474 -0.018993324
-0.0043166694 0.035112973 -0.015977588 0.07533684 0.06104132 0.06904593 -0.100902535 -0.0028444242
0.038384687 -0.004270678 0.07120354 0.064770706 -0.0024935997 0.08154504 0.0018405067 0.067944296
-0.01664454 0.064841904 -7.8464785e-05 0.051378317 0.0680676 0.07218514 -0.12646358 -0.024276257

pos_output.weight f4 [1, 32, 2, 2]
00000000: 9c87 893e c841 573e afab af3c 2988 153d
00000010: 5191 313e 7138 eb3c bc47 2abe be0f 1e3d
00000020: 09bb 7c3d f479 38be 6f22 fc3c 592b e43d
00000030: 7fa1 8cbd 14cd 8fbd 5186 583e 523d 49be
00000040: 6f69 10bd cdb2 193d e5f4 013d 4007 503e
00000050: 3093 ff3d 4b1f 2e39 e8b1 8f3e 3256 0d3e
00000060: de2a 9d3e 2a99 543d bbd7 0d3e e3f4 7d3e
00000070: 1578 2c3e 6bbb 0f3e 105d aa3d 2037 1f3e
00000080: 29cc 963c cf45 143e fa98 4b3e 146e 95bc
00000090: a194 f33d be96 853d a3dc 673a ddbc 9dbc
000000a0: 1cc0 6d3d 60eb 1c3e ec58 203e e985 7c3e
000000b0: 7e57 913d 26dd 0abd bc98 963d 1b93 3a3e
000000c0: 16d8 f9bd 91ba db3d 8dab 7c3c abda 16be
000000d0: 2c40 423d 1935 efbd a6aa 343e 0a68 123e
000000e0: bdde 243d 268d 9d3d df33 c3bd 2916 b33c
000000f0: b107 db3d c6bc c63d 6fb2 113d e3af 8a3e
00000100: 1a93 ef3d 89a7 45be 6f9a 4d3e 0a63 45be
00000110: 240b 31bd ab04 f73c 9e81 6abd 7044 003e
00000120: 61e0 a13e 0562 ad3e 157b 3f3d 122a 323e
00000130: 2fee 53be 527a 493b bf24 953d 473e aa3d
00000140: d788 debc 5776 263e 2c92 0bbe e246 d7bd
00000150: fb52 fdbb a3d8 c0bd 36ad 643d 8379 1f3e
00000160: 64d1 04bd 85bf 89bc fb7f c53d 3c37 08be
00000170: 68dc 3b3e 2e40 98bd 9925 3abd a0a6 03bd
00000180: 3c60 8a3c d1b9 103e a5cb 283e 642a 953d
00000190: bcbe 08be 0a60 2e3e f777 22be 7e8f b73d
000001a0: 01fa 203d 926b 5d3d 2acf 533e c005 83bc
000001b0: 8211 aebc 64d7 10bd 1b1d f6bd 63ce 29bd
000001c0: 45e6 423c f233 323e e9b8 413e 2d4b 4fbe
000001d0: 37b6 ff3e 271f cd3e 5b19 bf3e 951c a73e
000001e0: 3189 71bd d0f0 acbb e08a 5fbd 06b6 a0bd
000001f0: 227f 393e 9bcc 273e 02e7 c6bc ab78 483e
0.26861274 0.21021187 0.02144417 0.036506806 0.1734059 0.028713437 -0.16628927 0.03858923
0.061701808 -0.18015271 0.030778138 0.111410804 -0.068667404 -0.070215374 0.21144988 -0.19652298
-0.0352568 0.037524033 0.03172769 0.20315266 0.12479246 0.0001660559 0.2806542 0.13802412
0.30696768 0.05190388 0.13851826 0.24800448 0.16842683 0.14036338 0.083185315 0.15548372
0.018407898 0.14479755 0.19882575 -0.018240966 0.11893583 0.065228924 0.0008844828 -0.019255096
0.058044538 0.15324163 0.15658921 0.24660458 0.07096766 -0.03390231 0.073533505 0.18220179
-0.12199418 0.10728944 0.01542176 -0.14731853 0.04742448 -0.116800494 0.17643222 0.142975
0.040251482 0.076929376 -0.09531378 0.021861153 0.106948264 0.097039744 0.03557056 0.27087316
0.11697979 -0.19302191 0.20078443 -0.19276062 -0.043223515 0.030153593 -0.05725252 0.12526107
0.316165 0.33863845 0.04674824 0.17398861 -0.20696329 0.0030743075 0.072823994 0.0831266
-0.02716486 0.1625608 -0.13629979 -0.10511567 -0.0077308393 -0.0941632 0.05582925 0.15573697
-0.032426253 -0.016814956 0.09643551 -0.1330232 0.18345797 -0.07434116 -0.045446012 -0.032141328
0.016891591 0.14133383 0.16483934 0.07283476 -0.1335401 0.17028823 -0.15866075 0.08962916
0.039300922 0.054057665 0.20684496 -0.015993953 -0.021248583 -0.035361663 -0.1201727 -0.04145659
0.011895721 0.17402628 0.18918194 -0.20243521 0.49943706 0.4006283 0.37324032 0.32638994
-0.058968727 -0.0052777305 -0.0545758 -0.07847218 0.18114904 0.16386645 -0.024280075 0.19577281

cos_output.weight f4 [1, 32, 2, 2]
00000000: 4685 57be b22c 353e 4cb8 9a3d c8a8 0abe
00000010: 6a02 d1bd dafd 1f3e 1fbd b93d dc95 4e3d
00000020: b73b 23be 8877 213d 827d 443e 7cc9 df3d
00000030: 3a99 7d3e 94be eabd 2d25 263e 2a31 c9bd
00000040: a3a0 7d3e ee8c c63d 7f7c 083e c717 b0bc
00000050: 382d 0bbe bea5 cdbe 3a8a 38be 51ee 5cbe
00000060: abf3 c3bc 8ab1 063e d697 7abe 4b10 04be
00000070: 9809 62bc aba0 5d3c 3627 d9bd 721a 18bd
00000080: 96d0 71bd c603 11be ee00 02be 7411 f23d
00000090: 387a 40be edd6 53be 0328 593e c3e6 f93d
000000a0: ee49 28be d3e8 10be a352 3bbe bf2b 3fbe
000000b0: 11d8 493e 67b0 223e 6583 30bc ee69 a73d
000000c0: 9806 28be 01ee 033e 38ca 733e 13f9 773e
000000d0: cf55 14be 5953 393e c0f4 033e c4d9 3e3e
000000e0: 06b7 f9bd d28b 33be e57e e4bc f643 3bbe
000000f0: 613c dfbd 1841 fb3d 2c90 9fbd 994b e3bd
00000100: 9d9b e53d 2797 483e 2027 2dbe db6f d63d
00000110: d53d 2ebe ed92 22be 3ac0 053e 4f47 debb
00000120: 415a 88be b6da a8be 147e e9be c369 50be
00000130: 21a4 553e 6a5e 09bd 2c10 3e3e e5d1 2f3e
00000140: 0474 163c 2181 1e3e 08f2 a53d 0c0f 57be
00000150: 3078 993c 7a53 ceba 1a18 763e 00fc 563e
00000160: e03c c4bd f054 3abe b722 813c e4e6 293e
00000170: fed9 e03d 2ea5 ec3a 3d14 be3d 15e4 013e
00000180: ee70 04be d1a9 7bbe be50 0fbe 5f96 25be
00000190: b591 603e c071 ebbd 01ce 523e 068e 63bd
000001a0: 8242 5b3e facb 43be ba8b 023e 9cd7 25be
000001b0: 0e6c b53c a19e 0a3e dfaf 733e 87a1 6d3e
000001c0: a402 183e 5b91 073d 8b95 97bd 536d 373e
000001d0: d58f f7be f688 fbbe 4b62 cebe 1cbd 97be
000001e0: 3575 7cbe dcbc 74be 3278 50be 4655 2abe
000001f0: 0c6d 96be f03b 44be a918 e3bd 8f67 9cbe
-0.21046934 0.17692831 0.07554683 -0.13540947 -0.102055386 0.1562418 0.09069275 0.050435886
-0.15940748 0.039420635 0.19188502 0.10927102 0.24765483 -0.11462131 0.16225119 -0.098238304
0.2476831 0.09694849 0.13328741 -0.021495713 -0.13591468 -0.40165514 -0.18021479 -0.21575285
-0.0239199 0.13153663 -0.24471983 -0.1289684 -0.013796233 0.013527076 -0.10603182 -0.037134595
-0.059036814 -0.14161596 -0.12695667 0.11819735 -0.18796623 -0.20687456 0.2120667 0.122022174
-0.16434452 -0.14151315 -0.18293242 -0.18669032 0.19711329 0.15887605 -0.010773514 0.08174501
-0.16408765 0.1288376 0.23807609 0.24216108 -0.14485858 0.18098201 0.12886333 0.18637758
-0.12193112 -0.17533806 -0.02789254 -0.18287644 -0.10900188 0.12268275 -0.077911705 -0.110984035
0.112113215 0.1958891 -0.16909456 0.104705535 -0.17015775 -0.1587636 0.1306161 -0.006783403
-0.26631358 -0.32979363 -0.45604002 -0.20352845 0.20863391 -0.033537306 0.18560857 0.17169912
0.009182934 0.15478946 0.081028044 -0.21001834 0.018734068 -0.0015741431 0.24032632 0.20994568
-0.095819235 -0.18196464 0.015763624 0.16591984 0.10979079 0.0018054598 0.09281204 0.12684663
-0.12933704 -0.24576499 -0.13995644 -0.16170643 0.21930583 -0.114963055 0.20586397 -0.055555366
0.2141209 -0.1912078 0.12748614 -0.1619553 0.022146251 0.13537075 0.23797558 0.23206149
0.14844757 0.033097606 -0.0740157 0.17912798 -0.48351923 -0.4912793 -0.40309367 -0.29636467
-0.24654086 -0.23900169 -0.20358351 -0.16634092 -0.2938007 -0.1916349 -0.11088688 -0.3054776

sin_output.weight f4 [1, 32, 2, 2]
00000000: 2d0b aebd f3da 17be f74d e93c 4730 3cbd
00000010: b081 34be 5483 87bc b06e b5bc 974d b6bd
00000020: 30dd 13be 8aa7 b5bd 9779 e8bd 4573 353d
00000030: 797f 773d 572d 14bd 824c 22be f2ad 013e
00000040: 464c 09be bf7a 1abe e3ed e73d 04e0 33be
00000050: 1490 53bd 8a45 213d 5db4 cd3d 75bc a0bd
00000060: 57c9 263e 5bfd 34be a093 ebbd c9a7 0dbe
00000070: 592a 9f3c 20ba 5c3d 9fd0 2fbd feb9 0bbd
00000080: 8c87 d43d 7531 333c 92a3 60bc d35a 2a3e
00000090: dc11 103e b01b a93d f85c 24ba 58f0 4fbc
000000a0: 028c 273d 2556 eebc 227f 9a3d 932b 563c
000000b0: 5438 3a3e ec23 133e f0c1 ffbc 8fa0 b73d
000000c0: def7 f5bc 6168 6bbd 363e 05be 8a79 2fbe
000000d0: cba5 213e 074b 1e3e be48 35be 5090 183e
000000e0: 324a 82bb 15c5 743d e116 6a3d bb54 113d
000000f0: ed76 b1bc d54b ad3c 0beb 683d 7726 433d
00000100: bed0 4fbe bf95 233e 42b5 273e f5b8 d83d
00000110: 581b 07bd 8569 5c3d 40ad 8c3d b308 67bd
00000120: 8cc5 ee3d ef77 553d 7452 43bc 4c1e 3dbd
00000130: 8c28 443e 4693 93bd 486d 44be cb27 313e
00000140: 4d28 0b3e 14e7 00be a91f a7bd 1caa e93d
00000150: 51ed 06be 872e 88bd 6a5a 203e fe5c 2e3e
00000160: 2549 1e3e abf6 c73d c969 71bd 0578 f63d
00000170: 68c9 c43d 2434 3fbe 7627 a93d bb70 863d
00000180: 71fe 25bd 1b38 273d 0b67 9b3d 2449 cd3d
00000190: ecdf 2a3e dd5d b7bb 9782 1cbe 4140 233b
000001a0: 9d02 0b3e 897e 2a3d 6460 0dbe 5c3a 773c
000001b0: fc0c 413e de61 1f3d 79d0 063e c1cb 0bbe
000001c0: a919 9bbd 625b e4bd bcbd 42be ddda afbd
000001d0: 4f69 1e3e 6263 11be 03c8 943c 614b 16bc
000001e0: 335b 22bc be9b 0d3d 1aa4 703c 406f 1dbb
000001f0: 49a4 4dbd 32e3 8f3c 247a a6bc c6b1 6bbc
-0.08498225 -0.14829616 0.02847956 -0.04594448 -0.17627597 -0.016542114 -0.022147506 -0.08901518
-0.14439845 -0.08869846 -0.113513164 0.044299383 0.0604243 -0.036176052 -0.15849498 0.12664011
-0.13408002 -0.15085886 0.1132467 -0.17565924 -0.051651075 0.03937296 0.10044167 -0.07848445
0.16287743 -0.17674772 -0.115027666 -0.13833536 0.019429373 0.05388844 -0.042923566 -0.034112923
0.10377416 0.010937084 -0.013710873 0.16636209 0.14069313 0.08257234 -0.0006269957 -0.01269158
0.040905006 -0.029093811 0.0754378 0.013071912 0.1818555 0.14369172 -0.031220406 0.08966171
-0.030025419 -0.05747259 -0.13012013 -0.17136207 0.15785901 0.15458308 -0.1770353 0.14898801
-0.00397613 0.059758265 0.057150725 0.035481196 -0.021663154 0.021154324 0.05686478 0.047644105
-0.20294473 0.15975092 0.16377738 0.10582153 -0.03298506 0.05381157 0.06868982 -0.05640478
0.11658773 0.05211633 -0.011921514 -0.04617147 0.19156092 -0.072058246 -0.19182312 0.17300336
0.13589592 -0.1258815 -0.081603356 0.11409399 -0.13176467 -0.066494994 0.1565949 0.17027661
0.1545759 0.09763845 -0.058938775 0.12034611 0.09608728 -0.18672234 0.0825948 0.065644704
-0.040525857 0.04082499 0.07588013 0.10023716 0.16686982 -0.005595906 -0.15284191 0.0024910124
0.13575216 0.04162458 -0.13806301 0.015089598 0.1885261 0.038911693 0.13165464 -0.13651945
-0.07573254 -0.111502424 -0.1901769 -0.08586667 0.1546986 -0.14198068 0.01816178 -0.009173245
-0.009909439 0.034572355 0.014687562 -0.002402261 -0.050205503 0.01756439 -0.020321913 -0.014385646
