output/models/220429_0913_ggcnn_epoch_20/epoch_00_iou_0.00_statedict.pt (torch, 255529 bytes, 16 tensors)

conv1.weight f4 [32, 1, 9, 9]
000000 b2 f5 33 bc d3 0c dd bc f8 bf 20 3d 59 3a 0f bd
       -0.010983871 -0.026983654 0.039245576 -0.034967754
000010 89 97 36 bd 33 dd 58 bc 0b 0d 10 3d 10 9b 3f 3d
       -0.04457811 -0.013236332 0.03516869 0.04677874
000020 bc 1a 7c bb 76 33 d4 3b 9a f0 49 3b 88 d1 76 3c
       -0.0038468083 0.006475861 0.0030813576 0.015064605
000030 57 4f 31 38 28 58 d0 3b 2d b7 1d 3d 11 e2 7d 3b
       4.227398e-05 0.0063581653 0.03850477 0.0038739482
000040 26 f9 6d 3c 1c d8 0f bd f2 1f 9a bc e5 a0 25 3d
       0.014524734 -0.035118207 -0.01881406 0.040436644
000050 ef 6b f5 bb ca 39 d4 bc 2d 2e 6d bc eb 04 3c bd
       -0.0074896733 -0.025906462 -0.014476341 -0.045903128
000060 8e 70 f0 39 e7 96 3b 3c 11 06 fa bc 0c aa 22 bd
       0.00045860227 0.011449552 -0.03052047 -0.03971295
000070 67 75 d0 bb 04 cf 84 bc 03 44 8f 3b 54 fc 36 bc
       -0.0063616517 -0.016211994 0.0043721213 -0.011168558
000080 ec 0c 24 bd de 8c b9 3c 71 d6 0b 3d 1c 0c be 3c
       -0.040051386 0.022650179 0.034140054 0.023199134
000090 04 8f 36 3c 5d ba 0a bd ac 19 df b9 6c e6 bf 3c
       0.011142496 -0.033869136 -0.00042553002 0.023425303
0000a0 5b d3 80 3c f9 5a b6 bc c8 0d 66 bd 80 70 c6 3a
       0.015725782 -0.022260176 -0.056165487 0.0015139729
0000b0 48 18 e2 bc b0 54 ff bc fb 1f d3 3b f4 1b 97 3c
       -0.027599469 -0.031168312 0.0064430214 0.018445946
0000c0 d9 83 86 bb e5 02 cd 3c 14 f5 ef 3c 68 fc 03 bc
       -0.004105073 0.025025794 0.029291667 -0.008055784
0000d0 e6 21 ca 3c 32 40 23 bd a0 4d 03 bc 7e 86 b0 3c
       0.024674367 -0.039856143 -0.008014113 0.021548506
0000e0 b3 e0 59 bb c9 43 37 bd 6e 1d 2c bd df ff cb bc
       -0.0033245503 -0.04474238 -0.042020254 -0.024902282
0000f0 94 a8 5f bc ff 3f 0a 3d b8 20 d4 bb 4a a9 47 bd
       -0.013651032 0.033752438 -0.006473627 -0.04874543
000100 a5 21 b2 39 ad 7d 0a 3d 0e f9 e9 3b 8a 16 f8 bb
       0.00033975873 0.03381126 0.0071402853 -0.0075710462
000110 06 e0 01 3d 6a 4f f4 bc cb 12 60 bd c3 4f f0 3c
       0.031707786 -0.029823024 -0.054705422 0.029334908
000120 15 8c 33 bb 1f 18 4f bd 0e 63 e9 bb 60 cd 47 3c
       -0.0027396728 -0.050560113 -0.007122404 0.012194961
000130 a6 fd a3 3b a6 e7 63 bd 85 c4 9c bb be 8b c0 3c
       0.0050046025 -0.05564084 -0.004784169 0.023504134
000140 36 94 b2 3b 1f 13 c8 bd 63 9a 07 be 67 6b 60 bd
       0.005449797 -0.09769272 -0.13242488 -0.054789927
000150 0d fe ac bd 01 d2 eb bc d1 ab b9 bd 96 2e 70 bd
       -0.08446894 -0.028786661 -0.090659745 -0.058638178
000160 cd d5 c6 bc e4 df 67 bd a8 c0 f4 bd 77 f2 cc bd
       -0.02427187 -0.056610003 -0.11950809 -0.10007184
000170 c3 43 73 bd 70 8a b6 bd 70 cb cf bd ca fe b1 bd
       -0.059390794 -0.089131236 -0.101462245 -0.08691175
000180 23 2e 28 bd 83 1c c4 bd 09 91 78 bd dd 1d e5 bd
       -0.041059624 -0.09575751 -0.06068519 -0.111873366
000190 cb 46 be bd f9 1f b0 bd c3 52 df bc 5c 3f c1 bd
       -0.092908464 -0.08599848 -0.027261144 -0.09435913
0001a0 f9 01 85 bd 87 2b da bc c8 21 ba bd f3 aa 57 bd
       -0.06494517 -0.026632084 -0.090884745 -0.052653264
0001b0 c2 08 4c 3d ee 69 e6 bb 11 9a 17 bd 4b d3 7a 3d
       0.04981304 -0.007031671 -0.037012164 0.06123666
0001c0 87 03 24 3c 1a eb 1b b9 eb 2b 24 3d a9 fa 28 3d
       0.010010607 -0.00014869534 0.040080946 0.041254673
0001d0 e6 c4 58 3d 3f ee 10 3c c0 07 a9 3b 1c 3a 7b 3c
       0.052922152 0.008845865 0.0051583946 0.015333679
0001e0 ba 7e 47 3d e5 4b 8e bc b9 26 cf 3c 8c 4c 84 3d
       0.04870484 -0.017370174 0.02528702 0.06459913
0001f0 95 66 47 3c 51 67 21 ba 45 aa a1 3b 30 ca 19 3d
       0.012170454 -0.0006157058 0.004933628 0.037546337
000200 1e 26 d5 bc 2a 85 67 3d ec f1 f9 3c f0 c7 19 3d
       -0.026019152 0.05652348 0.030510865 0.03754419
000210 8a 18 ad bc 65 ed 36 3d d6 58 49 3d cb 79 8c 3d
       -0.021129865 0.04465999 0.049156986 0.06859168
000220 ee b7 7c 3d 40 8d 8a 3d 1f 3b 20 bb da 25 6a bc
       0.061698847 0.067652225 -0.0024449301 -0.014291251
000230 d5 f0 fb 3c 16 23 7a 3d c6 ba 59 3d f0 c9 07 3d
       0.030754486 0.061068617 0.053156637 0.033151567
000240 d5 61 72 3d 54 bb 56 3b 2f 9e 49 3d 93 7f 9d 3d
       0.05917533 0.0032765465 0.04922312 0.076903485
000250 15 45 92 3c 2e e8 b4 3b 50 f6 40 3d 9d ae 97 3d
       0.017855207 0.005520842 0.047109902 0.07406352
000260 f9 d5 11 3d 1b fa 05 3d aa 47 4a 3d 6e a4 48 3d
       0.03560445 0.032709222 0.04938475 0.048984937
000270 42 15 15 3d b1 c5 19 3d bd b9 62 3c b7 3a 8d 3d
       0.036397226 0.03754205 0.013838229 0.068959646
000280 0d d5 39 3d 00 95 c0 3c e9 6d fb 3c ab b5 24 bd
       0.045369197 0.023508549 0.030692058 -0.040212315
000290 ee 72 0d 3d 0a 5b d6 3c f4 6a 9b bb 6d ee f5 bb
       0.034533434 0.026166458 -0.0047429744 -0.007505229
0002a0 06 b2 f5 3c db 36 c8 bc 42 d2 e8 3c 96 14 c4 bc
       0.029992115 -0.02444022 0.028420571 -0.023935597
0002b0 92 30 23 bd ad 60 9f bc 0d b8 40 3d 8d 80 ef 3c
       -0.039841242 -0.019455278 0.047050525 0.029236102
0002c0 1f c6 88 bc 37 e3 3e 3b 6d 58 51 3c 16 96 bf bc
       -0.016696034 0.002912713 0.01277743 -0.023386996
0002d0 96 53 cf bc a0 71 f9 3c a0 c5 65 bb 70 c9 1c bc
       -0.025308412 0.030449688 -0.003506042 -0.009569511
0002e0 fe d5 8f ba 15 aa 21 bd e1 d4 46 3d c4 56 4e 3b
       -0.0010973809 -0.039468843 0.04854286 0.0031484822
0002f0 c5 bc 3c 3d 97 e3 92 bc 16 54 1d bd b2 03 70 bc
       0.046078462 -0.017930789 -0.03841027 -0.0146493185
000300 90 d7 14 3d b9 95 5d bc db 03 04 3c 85 8a c4 bc
       0.03633839 -0.013524466 0.00805756 -0.023991833
000310 0e d7 5f bc 88 48 d4 3c e7 cc 3b 3d b4 a7 ce bb
       -0.013662113 0.025913492 0.045849707 -0.006306613
000320 e6 c0 87 bb 6a 1b 68 bc 1c f1 16 bd b4 69 30 3d
       -0.0041428683 -0.014166692 -0.036851034 0.043069556
000330 d8 90 2b 3c f8 ef 38 3d cf 5b 0b 3c ca 17 b8 3b
       0.010471545 0.045150727 0.008505776 0.0056180703
000340 cc 18 54 3b 19 07 f1 bb f4 cc d7 3b f4 56 d2 bc
       0.0032363413 -0.0073555824 0.0065857116 -0.025676228
000350 6a 38 c0 3c 4b fd 74 39 5c c5 ff 3c 8b 10 b8 3c
       0.0234644 0.00023364012 0.031222038 0.022468826
000360 1a 56 b9 bc c0 0c 2c bc 82 11 aa 3c 62 ce 27 3c
       -0.022624064 -0.010501087 0.020760302 0.010242077
000370 ef 11 2d 3d 09 a4 a9 3c 7c 2f d7 bc 32 c7 25 3d
       0.04225343 0.0207081 -0.02626776 0.04047317
000380 f7 a8 54 bc 29 91 28 bd 9f e8 db bc 47 cc 2d bc
       -0.0129797375 -0.04115406 -0.02684432 -0.010607786
000390 c5 7b e7 bc ed 50 b1 ba c7 40 32 3d 6a 5c 44 3d
       -0.02825726 -0.0013528146 0.043518808 0.047939695
0003a0 c5 06 7f 3c c8 d2 0a 3d 1c cc a7 bc 4d 83 30 bd
       0.015565579 0.033892423 -0.02048307 -0.04309397
0003b0 3b c9 49 bb 4c b0 cd 3c 2d ee dd 3c d9 01 a3 3c
       -0.0030790109 0.025108479 0.02709111 0.019898342
0003c0 a8 e8 4f 3d ed 82 96 3c 23 3b 21 3d f6 86 d0 bb
       0.050758988 0.018372977 0.039363038 -0.006363745
0003d0 c0 0f 08 bd 6d 89 cd bc de 84 4f 3c 30 fe 11 bd
       -0.033218145 -0.025089944 0.012665955 -0.035642803
0003e0 e3 0b 16 bb a7 9b 04 3b f3 83 03 3d 21 13 39 3c
       -0.0022895269 0.0020234378 0.03210826 0.011296065
0003f0 68 14 9d 3c f9 2c 09 3d ca ae 52 3a ee b0 09 bd
       0.01917477 0.033490155 0.000803691 -0.033616

conv1.bias f4 [32]
000000 92 10 7e 3c f4 79 0f bd 7e 49 82 3c d5 5a 9b 3d
       0.01550688 -0.035028413 0.015904184 0.07585684
000010 bb 9c af 3c ad e3 42 bd 07 3f 83 3d 17 ad 53 3c
       0.02143704 -0.04758041 0.06408506 0.012919686
000020 9b 05 c0 bd bc 02 81 bd fa cd d7 bd 01 48 bc bd
       -0.09376069 -0.0629935 -0.10537334 -0.09193421
000030 f7 cc 50 3d 97 8c 06 bd 93 a9 ec bd 59 35 ca 3d
       0.05097672 -0.03284892 -0.11555781 0.098734565
000040 7c ae 1b 3d ab d4 b7 3c 03 e6 6b 3d db ef b0 bd
       0.0380082 0.022440275 0.057592403 -0.08639499
000050 43 91 c3 3d 0f e8 06 3d 48 88 0c bc e7 68 ae 3d
       0.09549191 0.032936152 -0.008577414 0.08516102
000060 bb 30 b5 3c 29 53 89 bc 1b 98 d5 3d 5e 98 c2 bd
       0.022117963 -0.016763287 0.104294024 -0.09501718
000070 7a 96 96 bd bb 0b c8 3c 44 84 28 3d 6e 74 be 3d
       -0.0735292 0.024419656 0.041141763 0.09299551

conv2.weight f4 [16, 32, 5, 5]
000000 2c 8e a0 3b 0c a5 8b 3c c1 b8 18 3d cf 43 63 3b
       0.0048997607 0.017046474 0.03728557 0.0034677868
000010 0f a7 07 bd a1 df 44 bd 0a 11 03 bc 68 3a 8c bc
       -0.033118304 -0.04806483 -0.007999668 -0.017117694
000020 02 95 39 bd 69 f6 09 bd 25 81 cd bc 2f 07 11 3d
       -0.04530812 -0.03368226 -0.025085995 0.03540724
000030 ed f2 64 3d ec 19 97 bc f7 8b 02 bd 49 7f 34 3d
       0.055895735 -0.018444978 -0.031871762 0.0440667
000040 c7 3c de 3b 44 41 b7 bc 20 77 05 bd 21 7a 03 3c
       0.0067821476 -0.022369988 -0.03258431 0.008024723
000050 8e f9 7f 3b 61 86 a4 3d 43 6d cc bc 35 4b df bc
       0.0039058658 0.08033443 -0.024954444 -0.027257541
000060 f0 13 b3 bc 7f 95 82 3c 94 9d f5 bc 7e e1 c2 bc
       -0.021860093 0.015940426 -0.029982366 -0.023789164
000070 b6 e7 f1 3c 76 ad 7d 3c c3 99 df 3c 7d 41 13 bd
       0.029529434 0.015483251 0.027294999 -0.035951126
000080 32 2d 9e 3d cc 8c 9a bc 06 48 e0 3b 0e d4 0f 3d
       0.07723464 -0.018865965 0.0068445234 0.03511434
000090 c4 7f 33 3d e3 a3 3b bd d3 68 a7 3d 5c df 91 bc
       0.04382302 -0.04581059 0.081742905 -0.017806701
0000a0 74 14 18 be 0b d1 a2 bd c1 d6 ad bd 98 95 6e bc
       -0.14851552 -0.07950028 -0.08488227 -0.014562033
0000b0 b9 f8 c3 bd 34 35 85 bc 84 92 26 3c 5a 30 07 bd
       -0.095689245 -0.01626072 0.010166768 -0.033005096
0000c0 c5 22 f1 3c 81 10 49 3d 2b be 37 3d 18 aa 45 3d
       0.029435525 0.049088005 0.044859093 0.048257917
0000d0 15 45 c9 3c 94 e2 78 3d 37 a0 25 bd 37 a0 f9 bc
       0.024569074 0.060762957 -0.040435996 -0.030471904
0000e0 39 dc 19 ba 32 20 67 bd 21 d9 34 bd 5f f9 13 bd
       -0.00058693025 -0.05642719 -0.044152383 -0.03612649
0000f0 fd a9 42 3c 2f b5 2e bd bc ee 46 3d 6a 49 61 bd
       0.011881349 -0.04265326 0.04856752 -0.055001654
000100 a9 6b 58 3d ee 5a 79 bd 73 a5 00 bd cb a8 7d bd
       0.052837048 -0.060877733 -0.031407785 -0.06192855
000110 05 b8 44 3b 5d 3a d3 3c 22 93 0e bd 1c a5 83 bd
       0.003001691 0.025784666 -0.034808286 -0.064279765
000120 3e d5 13 bd 87 4c 8f ba d1 45 7b bd 2a da 54 bd
       -0.036092035 -0.0010932841 -0.06134588 -0.05196587
000130 ab 4d 20 3c d6 3e 1d 3c cc 14 69 bd 5c 5c 12 3c
       0.0097841425 0.009597501 -0.0569046 0.008933153
000140 73 c7 8f 3c da bc e1 bb cd 49 08 bd e4 85 63 bd
       0.01755116 -0.006888968 -0.033273507 -0.05554761
000150 c4 6d 18 bd 8f 3f a4 3d d3 eb 94 3d 6e 3c bc 3c
       -0.037214056 0.08019935 0.072715424 0.022978034
000160 7d ab 93 3d f2 e8 5f 3c fb b0 3c 3c a8 05 f6 3c
       0.07210443 0.013666378 0.011516805 0.030031994
000170 9a 3a 0a 3d a6 10 0f 3d f2 cc bc 3c ef 2f 28 bd
       0.033747293 0.034927987 0.023046944 -0.041061338
000180 8e c5 45 bd 0a 76 f5 bc 83 6c a2 bc e8 c6 4e bd
       -0.048284106 -0.029963512 -0.019827133 -0.05048266
000190 79 e3 88 bd 67 62 70 bc 33 fe f0 bc bc 1c 32 3c
       -0.06684012 -0.014671898 -0.029418087 0.010871109
0001a0 e8 66 44 3d c1 7d 16 bd 03 51 c3 bc 06 bf 89 bd
       0.0479497 -0.036741022 -0.02384234 -0.06725888
0001b0 01 8b 6f 3d 83 9f 5c 3d f9 3c cb 3c 7e 3f 3f 3d
       0.058482174 0.05386306 0.024809347 0.04669141
0001c0 79 49 3b 3d dc f7 3f bd b7 f7 89 bd f7 e9 e6 bc
       0.045724366 -0.046867236 -0.06736701 -0.028187735
0001d0 f0 4a bd 3c 45 5d 55 bd cb 40 2d 3d 3f c0 58 3c
       0.023107022 -0.052090902 0.04229812 0.013229429
0001e0 5f fb 1d bc a5 e8 24 bd 91 62 36 3d fc 60 74 3d
       -0.009642451 -0.04026093 0.044527594 0.059662804
0001f0 d6 bb 56 3d 85 c3 0c 3d 6f 99 11 3c dd 70 14 bd
       0.052425228 0.03436615 0.008886679 -0.036240447
000200 1c 7b 24 3d 97 ac ac 3b be a3 6b bb 58 45 11 3d
       0.04015647 0.0052695978 -0.0035955752 0.035466522
000210 9d c5 03 3d 13 af c5 bc 06 4a 8e 38 36 bf 14 bd
       0.03217088 -0.024131333 6.7848756e-05 -0.036315165
000220 bc 44 9b bb 81 2d 4a 3d ce 60 3b 3c 9a 87 64 3d
       -0.0047384184 0.049359802 0.011436654 0.055793382
000230 b4 e2 ba 3d 2d 16 b9 3c f8 6d 98 bc e8 db 0e bd
       0.091252714 0.022593582 -0.018607125 -0.034877688
000240 27 77 27 3d 70 d3 96 bc 64 30 97 bc 21 f1 2d 3c
       0.040885117 -0.018411368 -0.018455692 0.010616572
000250 09 44 a1 3d 9c fb 03 bd fc eb 8a 3d 27 4a 4e bd
       0.07874305 -0.032222375 0.06783292 -0.050363686
000260 70 56 0f bc 37 18 3d 3d 1b bc 02 bd b4 e1 e3 bb
       -0.008748636 0.04616567 -0.031917673 -0.006954396
000270 57 19 94 bc 00 be 00 bd 4f f6 b6 bb ed 68 25 3d
       -0.01807849 -0.031431198 -0.0055835615 0.04038327
000280 ec 1c 03 3d d3 86 dc bb 1f c7 3f bd ba 3a 9c 3d
       0.032010004 -0.0067299395 -0.046820756 0.07628389
000290 b8 61 3e bd 6e f2 45 3d 6d 8a cb bc 8a f9 92 3c
       -0.04647991 0.048326902 -0.02484628 0.017941255
0002a0 b3 ee 8c 3d 2f 59 ea bc fc 4a b3 bc 57 92 96 3d
       0.06881466 -0.02860698 -0.021886341 0.07352131
0002b0 90 3a 5e bd 5c 94 ec bc 3b 40 0c bd dc 18 81 3d
       -0.05425507 -0.028879337 -0.034240942 0.0630357
0002c0 f7 eb 2d bc d2 74 5f bd 64 64 3f bb 3d a2 3b 3d
       -0.01061534 -0.054554768 -0.0029204125 0.04580902
0002d0 b8 c8 63 bd cc 45 90 3d be 64 d4 3c fd d5 13 3c
       -0.055611342 0.07044563 0.025926944 0.009023187
0002e0 39 a8 10 3b 03 ad 36 bd 87 b6 f4 bc 7c 0c 59 3d
       0.0022072925 -0.04459859 -0.029872192 0.05299042
0002f0 f9 2b 8c 3d 9b 9b 79 bd 00 f8 c3 bc 38 b3 54 bd
       0.068443246 -0.060939413 -0.023921967 -0.05192873
000300 97 37 34 bd f1 5b 81 bd 89 9c 2a 3d 99 53 96 3d
       -0.043998327 -0.063163646 0.04165319 0.07340164
000310 c9 84 f2 bc 67 ca e4 3c 06 88 64 bc 17 d2 02 3b
       -0.029604333 0.027928544 -0.013948446 0.001996165
000320 4a fc 2c bd 9e 6e 22 3d 84 47 b9 3c 20 8a 82 3b
       -0.04223279 0.039656274 0.02261711 0.003983751
000330 9f 53 72 bd 8c 59 0d 3d ef a8 52 bd 78 40 1e 3c
       -0.05916178 0.034509227 -0.05143064 0.009658925
000340 94 a7 8a bc 7a 01 c1 bc 80 bb 1e bd b2 26 37 bd
       -0.01692561 -0.023560274 -0.038753033 -0.044714637
000350 b0 c8 83 bd 88 fe 44 3d 10 58 33 bc 58 8d bc 3c
       -0.064347625 0.048094302 -0.010946289 0.023016617
000360 a1 52 8c 3d ce 2e b4 bc 5c 5e 49 bd 64 bd 15 bd
       0.06851698 -0.021994974 -0.049162254 -0.03655757
000370 08 fc aa bc a2 4b 32 3d f2 38 5c bd 28 84 bb 3c
       -0.020872131 0.04352916 -0.053765245 0.022890165
000380 2e 2e 20 3d 20 13 9a bb e5 5e 83 bd 1f 9a 8b 3d
       0.03910654 -0.004701987 -0.06414584 0.06816506
000390 f8 6f 1e 3c 7c ad 50 3d b0 c4 27 3d 54 10 d8 3c
       0.00967025 0.050946698 0.04095906 0.026374973
0003a0 dc 0d 64 bd 50 83 3b 3d 5e 8a 4b 3d 5e 7b 49 3d
       -0.05567728 0.045779526 0.049692504 0.049189918
0003b0 8f 10 7e bd c4 a5 89 bc 50 ec 47 3d bf 14 14 bd
       -0.06202751 -0.016802676 0.04880935 -0.036152598
0003c0 28 06 db bc 23 f3 c7 3c f8 89 08 3d 67 7e 50 bd
       -0.026736334 0.024407929 0.033334702 -0.050901797
0003d0 7b f7 d0 bc 4a 7e 03 bd 24 c8 8c 3c eb 1a 3e 3d
       -0.025508633 -0.03210286 0.017185278 0.04641239
0003e0 d4 e9 c7 3c 93 36 a8 bb 78 41 5d 3b 58 3c 04 bd
       0.02440349 -0.005133459 0.0033760946 -0.03228411
0003f0 cf 58 86 bb e8 5f fc bc d5 20 49 3d 9d 24 d7 3c
       -0.0040999423 -0.03080745 0.049103577 0.026262576

conv2.bias f4 [16]
000000 0d 52 1a 3d 37 ab 76 3c e0 d4 45 3d d9 c9 ca 3c
       0.037675906 0.015055469 0.048298717 0.024754452
000010 a1 ed 37 3d 98 41 71 ba d6 fa b7 3b 1c b3 da 3c
       0.044904355 -0.00092031946 0.005614619 0.026696734
000020 0a 5f 56 bc db b1 f0 bb 31 08 e6 3c 40 61 53 ba
       -0.0130841825 -0.007345421 0.028080078 -0.00080635026
000030 1a cf 90 3d ec d8 a4 3c 80 d8 be bb 91 3a b6 3c
       0.070707515 0.020122968 -0.0058241487 0.022244724

conv3.weight f4 [8, 16, 3, 3]
000000 0a b1 5d 3d 80 85 d4 3c c5 c9 15 3e e9 68 4e bd
       0.054123916 0.025942564 0.1462775 -0.05039302
000010 6b 12 bd bd ff da 88 3d c4 ff 2c 3e 38 0a 02 3e
       -0.092320286 0.06682395 0.16894442 0.1269921
000020 89 e3 f3 3d 43 da 17 be 4b 69 40 bd 7a b7 0a be
       0.11908633 -0.14829354 -0.046975415 -0.13546553
000030 d9 49 b8 3d 7b fc 05 3e 40 e5 ff 3d fe 56 a4 3c
       0.0899846 0.13084595 0.12494898 0.020061012
000040 8c 51 0f 3e 4d db eb bd 90 9c 7d bc 58 e5 1c 3e
       0.13995951 -0.11516438 -0.015479222 0.15321863
000050 86 96 10 be d6 c8 11 be 4c 7e 2d 3d e7 5d 4f 3d
       -0.1411992 -0.14236769 0.042356774 0.05062666
000060 e6 80 95 3c a3 bf 68 bd f7 64 d6 bd 03 aa f5 3d
       0.01824994 -0.056823384 -0.10468476 0.11995318
000070 13 91 1a 3e 34 8c 06 3e 06 05 8c 3d 7f b5 c6 bd
       0.15094404 0.13139421 0.06836896 -0.097025864
000080 5c f5 2a bd 64 82 d5 3d 84 07 13 be 00 4e 83 3d
       -0.0417379 0.10425261 -0.14358336 0.06411362
000090 ac a2 2d bb eb 8c 76 3d 0a bc 18 3e 8c cb 66 3b
       -0.0026494665 0.060192984 0.14915481 0.0035216538
0000a0 52 d7 aa 3d 13 56 0a be e1 1e ab 3d 4f a7 b0 3d
       0.0834185 -0.13509397 0.08355499 0.086256616
0000b0 a0 0f fd bd ab 21 ec bc 94 2a 69 3d 1b 10 1d bd
       -0.12356496 -0.028824648 0.05692537 -0.038345437
0000c0 c8 74 96 3c 90 c7 e6 bc fb 92 12 bd 59 a5 88 bd
       0.018366233 -0.02817133 -0.035784703 -0.066721626
0000d0 2c 48 9c 3c 0f 4a 02 3e 99 8a 0d 3e 3c 48 5f bd
       0.019077383 0.12723564 0.13822402 -0.054512247
0000e0 a4 92 ad 3d 2f 6d 0d 3e 3c d8 92 bd 6f 9c 10 3e
       0.08475235 0.13811181 -0.0717015 0.14122175
0000f0 92 cc cd bd c0 5f 17 3d 3b 17 29 3e 18 4e 03 3d
       -0.10048784 0.03695655 0.16512768 0.032056898
000100 f2 23 18 be ed d1 06 3e 7b 9c cf 3d a9 3f c2 bd
       -0.14857462 0.13166018 0.10137268 -0.094847985
000110 da c7 bf 3d ff ff f2 3d 69 ef 10 bc d3 13 15 3d
       0.093642905 0.11865234 -0.008846142 0.03639586
000120 fd 5b 44 bc 78 75 da bc 12 4c 6e bc 89 7d 22 be
       -0.011984822 -0.026667342 -0.014544504 -0.158682
000130 da 85 d5 3d 36 60 85 3d b3 8e 2b bd b7 f3 d0 bc
       0.10425921 0.065124914 -0.041884135 -0.025506837
000140 dc 35 fe 3d c9 9f 44 3c 2d 5f bc 3d 8b 54 8b bd
       0.124126166 0.012000986 0.09197841 -0.06803235
000150 92 0a 2d be d4 eb ed bd 83 34 ec 3d ab 33 91 bc
       -0.16898564 -0.11617246 0.11533453 -0.017724833
000160 fa 86 0f 3e 0b 60 c3 3c 71 56 c1 bd f3 ec 06 3d
       0.14016333 0.023849508 -0.094403155 0.032940816
000170 8a 07 b6 bc cd 20 10 3d 62 cd dd 3c 22 86 f7 3d
       -0.022220392 0.03518753 0.027075473 0.12086131
000180 26 71 b5 3d 42 da 05 be 95 52 05 3e 0c 5d 08 be
       0.08859472 -0.1307154 0.13019784 -0.13316745
000190 00 11 80 3c 1a 04 92 3d 32 d1 bf 3d b8 2c 8b bd
       0.015633106 0.071296886 0.09366073 -0.06795639
0001a0 00 32 e1 bb 16 57 f1 bd 4c a0 78 3d 0d 1b 03 3e
       -0.0068724155 -0.117841884 0.060699746 0.12803288
0001b0 81 fe 8b bd 5c 60 8e bd b7 23 16 be 0f 03 d9 3d
       -0.06835652 -0.06951973 -0.14662062 0.105962865
0001c0 a9 02 01 3e e3 25 1c be 90 d8 8f 3d 62 31 4a bd
       0.12598671 -0.15248828 0.07023728 -0.0493635
0001d0 9e 13 ba 3d 2f d0 de 3d 9b 14 01 3e f5 7d 1e 3e
       0.09085773 0.108795516 0.12605517 0.15477736
0001e0 d7 8b 8c 3c 64 15 94 bd f5 a4 03 be 2e de 24 3e
       0.017156525 -0.072306424 -0.12855895 0.1610038
0001f0 4f 87 da bd 72 9c 11 be d4 7c 09 be f3 72 9b 3d
       -0.10670339 -0.14219835 -0.13426524 0.07590284
000200 e4 7a 09 be a8 9c 0b 3e 6f 2c 20 be 09 6e ce 3d
       -0.13425785 0.13633978 -0.1564195 0.10079581
000210 bd 93 74 bc 3f 8b e3 3d 19 de a8 3c 4d 0a f1 3d
       -0.014927802 0.111105435 0.020613717 0.11769543
000220 ec 58 a6 3d 30 40 ff 3d 5e fe e2 bd c0 03 f0 3d
       0.08122429 0.12463415 -0.11083673 0.11719465
000230 45 14 63 bc 5d 82 36 bc e0 af e8 3d 54 18 47 bd
       -0.013859813 -0.0111394795 0.113616705 -0.048607185
000240 e2 c8 49 bd fb 50 51 be fc 64 18 be 2e 3b 4f be
       -0.049263842 -0.20441048 -0.14882272 -0.20237419
000250 e2 c3 e1 3d 27 88 3d be 54 97 14 be 9a 8d 88 3d
       0.1102369 -0.18508969 -0.14510852 0.06667633
000260 37 d3 5b 3c 82 10 9b bd 5f a0 7b bc 9f 25 54 3d
       0.013417057 -0.07571508 -0.01535806 0.05179369
000270 2d 01 a9 3d e1 3e e6 3d 87 af 25 be 93 5b ee bd
       0.082521774 0.11242462 -0.1618024 -0.1163856
000280 89 4d 41 be 4f 84 41 be f7 18 dd bd bd 1d a5 bd
       -0.18877234 -0.18898128 -0.10795777 -0.08062313
000290 7d fc 8e bd c5 ba 1f be a1 70 fa 3d 49 3f 00 be
       -0.06981752 -0.1559859 0.122285135 -0.12524141
0002a0 1a dc eb 3d f1 0e da 3d d9 b5 23 be ad 24 0e be
       0.115165904 0.10647381 -0.15987338 -0.13881178
0002b0 9c 2a 24 bd 4f ae 95 bd ce f6 ca 3c df ff ea 3d
       -0.040079698 -0.07308637 0.024775889 0.11474585
0002c0 dc af 48 3b f9 f3 ab bc d3 5e 1d 3d 60 eb 45 be
       0.0030622398 -0.020990359 0.03842051 -0.1932807
0002d0 f0 26 1d bd a0 27 db 3d ea a8 89 bd 2c 82 d5 3d
       -0.03836721 0.10700917 -0.06721671 0.10425219
0002e0 1f 12 7f 3c 3c 98 2e bc ba 38 d8 bc bf 2b 78 bd
       0.015568285 -0.010656413 -0.026394237 -0.060588595
0002f0 31 4c 38 be ba 77 8d 3d 40 5b 84 3b 53 b6 d3 bd
       -0.17997815 0.06907602 0.004039198 -0.1033751
000300 06 81 09 3e 88 dd 89 3d 83 55 5c bd da a4 fd 3d
       0.13428125 0.06731707 -0.053792488 0.123849586
000310 be fb 0b 3e da e1 f1 3d 5d 5d 21 bd f9 5f 04 3e
       0.13670251 0.11810656 -0.03939568 0.12927236
000320 c5 8e 7b bd fc 3e 48 3d be 87 b9 3d d2 26 cc 3d
       -0.061415453 0.04888819 0.09059094 0.09968342
000330 ae 7e f7 3d 20 a9 29 3d cf dc f6 bd 57 5c 92 3c
       0.12084709 0.041421056 -0.12053835 0.017866297
000340 03 e8 81 bb ee b4 cd 3d c6 a8 09 be 8b 8e 67 3d
       -0.0039644255 0.10044275 -0.13443288 0.056532424
000350 0a d3 02 be b2 7c 06 3e 3d 1a 34 be 93 88 2b be
       -0.12775818 0.13133505 -0.17588134 -0.16751318
000360 62 57 f9 3d 78 4a 1a be f0 fa 49 bc 90 04 5a 3c
       0.1217487 -0.1506747 -0.012327895 0.013306752
000370 13 06 19 be 60 7d f1 bc a5 96 e6 bd f3 20 1a be
       -0.14943723 -0.029478729 -0.11259202 -0.15051632
000380 20 16 d6 3b bf 2b f6 bc 59 f1 fa 3d f0 f4 fd 3d
       0.006533399 -0.030050157 0.12253065 0.12400234
000390 e3 30 ae 3d 40 eb 22 be 15 e9 cd 3d df 70 d1 bd
       0.08505418 -0.15910053 0.100542225 -0.102266066
0003a0 0d d8 28 be 2d b8 c3 3d f0 bf 1a be 96 ba 79 3d
       -0.16488667 0.09556613 -0.15112281 0.060968958
0003b0 dd 18 12 3e cc a6 6e bd f2 36 7f bc a0 2e 82 bd
       0.14267297 -0.05826454 -0.015577065 -0.06356549
0003c0 d4 cd 03 3e 8f 3a 0b 3e f6 ca 1c 3e 40 98 8c bc
       0.12871486 0.13596557 0.15311798 -0.017162442
0003d0 31 6b 0f 3e 9e 13 f3 bd eb 2c 11 be 74 c0 00 be
       0.14005734 -0.11868976 -0.14177291 -0.12573415
0003e0 79 c7 02 3e 3b 66 ea bd 10 10 0d 3d f9 a8 16 3e
       0.12771405 -0.1144528 0.034439147 0.14712895
0003f0 40 23 1b be e2 4a c1 bd 75 28 62 3d b4 3f 8b bd
       -0.15150166 -0.09438111 0.055214364 -0.0679926

conv3.bias f4 [8]
000000 78 c4 1d 3d 4e a1 50 bd a3 e4 54 bc 47 3d db 3d
       0.038517445 -0.050935082 -0.012993964 0.10705047
000010 42 f9 11 3d 1d e2 ee 3c a4 0f 93 bc 75 f3 f7 3b
       0.0356381 0.029160554 -0.017951794 0.007566864

convt1.weight f4 [8, 8, 3, 3]
000000 74 09 44 bd 9f fd 4b bd 10 f2 a1 bc 10 61 b7 3c
       -0.047860578 -0.04980242 -0.019768745 0.02238515
000010 cf 8c 2b be 0d 80 22 be 63 a5 61 be 2d e1 eb 3d
       -0.16752933 -0.1586916 -0.22035746 0.11517558
000020 55 d5 47 3e 67 e8 70 bd 1d c1 bd 3d fb 48 08 3e
       0.19514973 -0.058815386 0.09265349 0.1330909
000030 a9 a0 f6 3c 82 72 6d 3d 34 50 f6 3d fe 4a b8 3c
       0.030105906 0.05797053 0.12027016 0.022496697
000040 8b db 31 bd c3 a6 df 3d 2a 76 4d bd c5 df 43 be
       -0.043422263 0.10920479 -0.05016152 -0.1912833
000050 9d 8e 24 3e f7 76 24 be 8f 25 16 3d bc ed c5 3d
       0.16070028 -0.16061006 0.036656912 0.09664485
000060 44 7c e5 bd 2e 35 f3 bd be ec b6 bd 71 68 f8 3d
       -0.112053424 -0.118753776 -0.08931874 0.121292956
000070 9e c2 e6 3d fd db 07 3e fc 7b 50 bc ae ac 15 be
       0.11267589 0.13267513 -0.012724873 -0.14616653
000080 68 3b 29 3e 52 99 e8 bd 2f b3 e8 bd 5c 37 09 be
       0.16526568 -0.113573685 -0.113623016 -0.13400024
000090 de 4e ea bd 05 ac ed 3d 08 27 28 bd 2e 50 38 3e
       -0.11440824 0.11605076 -0.041052848 0.17999336
0000a0 bb 7b e1 3c be f0 21 be 5b 5f 78 be 45 07 ce 3d
       0.02752482 -0.15814492 -0.24255125 0.1005998
0000b0 6c 4a 60 3e 15 76 04 bc 6c 71 e1 bd bc 0d 17 be
       0.2190339 -0.008084794 -0.11007962 -0.14751333
0000c0 df 0d 28 3d b3 72 0e be 13 04 1b be 3f 39 f1 3d
       0.041028854 -0.13910942 -0.15138273 0.11778497
0000d0 a4 83 15 be f1 b4 36 3e fa 7e 1f 3e 43 a2 5e bd
       -0.14600998 0.17842461 0.15575781 -0.054353964
0000e0 db f7 72 3d 03 39 ab bd 53 82 b6 bd 7f 9c f3 bd
       0.059318405 -0.083604835 -0.08911576 -0.11895084
0000f0 7e 13 1c 3e 05 05 c7 3d 80 d9 c7 3c d7 7f 50 3e
       0.1524181 0.09717754 0.024395704 0.20361267
000100 7f bc df 3d b7 94 cf bd a6 95 0c be 94 65 2a be
       0.10924625 -0.10135787 -0.13728961 -0.16640311
000110 ad 40 de bd ee f4 1d be 31 1a 45 3d 96 57 85 3d
       -0.1085218 -0.15425465 0.04812068 0.06510846
000120 5d 8e dd bb 2f 6f e9 bd 92 8f 17 3e e6 ca b0 3d
       -0.006761356 -0.1139816 0.14800861 0.0863245
000130 a5 d3 61 3e 2e 15 a9 3c 69 42 58 be 57 72 1a be
       0.22053392 0.020639982 -0.21119083 -0.1508268
000140 fb d3 4c bd 01 28 b5 3d f9 78 d9 bd 11 42 8e 3d
       -0.050006848 0.08845521 -0.10618777 0.06946195
000150 2b 1d fe bd 1e 6d 18 3e b3 e2 d1 bd 00 3c fc bd
       -0.12407907 0.14885375 -0.102483176 -0.123161316
000160 d4 20 08 3e 23 bd 01 3e b5 67 af 3d 94 72 e6 3d
       0.13293773 0.12669806 0.085647024 0.11252323
000170 89 1e 40 be c0 69 cc 3d 4a 71 21 be ed 4f 20 3e
       -0.18761648 0.09981108 -0.15765873 0.1565549
000180 a9 88 2a be 90 2f 43 bc fe 0e 3d be c1 4e 02 be
       -0.16653694 -0.011913195 -0.1846275 -0.12725355
000190 dc 92 27 be 91 34 2e be 35 a2 a7 3c 89 cb 1d be
       -0.16364616 -0.1701224 0.020463089 -0.15409674
0001a0 a0 97 0e be 0b 5e 19 3e 1c f7 41 bd 20 0b 23 bc
       -0.13925028 0.14977281 -0.047354802 -0.009951383
0001b0 38 9c 99 3c 33 1f 79 bd 5a 0f 0a be 46 1d 2c be
       0.018751249 -0.06082077 -0.13482419 -0.16808042
0001c0 e2 83 e2 3d 10 a0 bc 3d 0c e7 c8 bd 3b 37 14 be
       0.11060311 0.09210217 -0.09809694 -0.14474194
0001d0 fb ff 3d be d8 bd 1e be 82 4d 06 be be 1b 69 3e
       -0.1855468 -0.15502107 -0.13115504 0.22764489
0001e0 e8 20 84 3d 18 51 3e 3e 6d 6c 0e bd a5 44 73 bd
       0.06451589 0.18585622 -0.03477137 -0.059391636
0001f0 ac 51 46 3e 4a eb 60 3c b6 f4 60 3c c6 9f 24 bd
       0.19367093 0.013727972 0.013730219 -0.040191434
000200 4f c8 07 be c4 5c d8 bd 0e 56 0e 3e 52 a9 24 bd
       -0.13260005 -0.10564569 0.13900015 -0.04020054
000210 74 49 58 3d e5 db 26 3d 32 57 88 bd 55 37 69 bb
       0.052804425 0.04073705 -0.06657256 -0.003558596
000220 c8 24 e7 bd 37 26 ec 3d a8 a9 f6 bc 18 c3 82 3c
       -0.11286312 0.115307264 -0.030110195 0.015962169
000230 57 23 2c 3e 32 08 cc bd 04 cf a2 bd 44 f6 6e 3d
       0.16810356 -0.09962501 -0.07949641 0.058340326
000240 1c 7f a3 bd f4 af 23 3e b9 f6 e7 3b 69 23 52 be
       -0.079832286 0.1598509 0.007078972 -0.2052132
000250 f9 91 26 3e c3 ea 8b 3d 9a 55 02 bd 76 81 91 3d
       0.16266622 0.068318866 -0.031819917 0.07104771
000260 bd fb e7 3d 4b 0d 23 be 89 4f 3a 3e f9 28 05 3d
       0.11327312 -0.1592304 0.18194403 0.032509778
000270 7f 0b bb 3c fd a8 fa bd 2e 4f b0 bd 2d 33 c0 3d
       0.02283263 -0.12239263 -0.08608852 0.09384761
000280 5a e7 dd 3d 11 b5 5a 3d b7 9e 0c 3e 7e ae 65 3d
       0.108351424 0.053395335 0.1373242 0.05607461
000290 a4 c9 c1 3d ed d4 17 3c 72 8c 2a be ac 37 7d 3c
       0.09462288 0.009267074 -0.16655138 0.015455168
0002a0 9e 3c 12 3e 7a e3 fe 3c be 90 4e be 32 07 dd bd
       0.14280936 0.031114329 -0.20172402 -0.10792388
0002b0 19 34 29 3e f3 37 f2 bc f7 92 0e be 34 fd 53 3e
       0.1652378 -0.029567694 -0.1392325 0.20702058
0002c0 bb 32 08 3e dc a0 96 3d 30 b2 54 3e 92 5f 7f 3d
       0.13300602 0.073549 0.20771098 0.062347002
0002d0 82 5a bf bd ed 96 4b 3e 84 3d 56 3e a5 b0 e2 3c
       -0.09343435 0.19881792 0.20921904 0.027672121
0002e0 1d e6 e7 3d 4a 21 a8 bd 9c 43 79 bd 81 89 ce 3c
       0.113231875 -0.082094744 -0.060855493 0.025212051
0002f0 29 2e f3 bc 2b b8 17 be 1a 76 d0 bd dc 0a 92 bc
       -0.029685097 -0.14816348 -0.10178776 -0.017827444
000300 00 54 92 bd 93 5b fb 3b 97 5c 2b bd 20 24 c2 3d
       -0.07144928 0.0076708286 -0.041836347 0.094795465
000310 db db 68 3d 7c b1 21 3e f1 ee 53 3e 6a 44 76 3d
       0.056850296 0.15790361 0.20696618 0.06012384
000320 81 fe aa bb 40 b1 19 be cf 74 b9 3b 10 16 9e 3d
       -0.0052183275 -0.15009022 0.0056596766 0.07719052
000330 07 12 ae 3d e9 05 85 bd 8c cd 6d bc 3f 86 97 bd
       0.08499532 -0.06495268 -0.014514338 -0.07398652
000340 4a dc 31 3e 84 36 5a 3e 85 4d 1a be 3c 1e 0a be
       0.1736919 0.21309859 -0.15068634 -0.13488096
000350 15 09 fa 3d 2c cf 22 3d db ac 51 3e 43 da 8c 3d
       0.122087635 0.039748356 0.20476095 0.068775676
000360 84 4e 53 bd aa 46 e3 3c 9c 26 48 be 1d b8 4d be
       -0.05158855 0.027743656 -0.19545978 -0.20089765
000370 ec 82 7d 3d a5 2b 20 bd 8c 3e 53 3a 69 96 a3 3e
       0.061892435 -0.039104123 0.00080583314 0.3195069
000380 99 5b a2 3d 5b ec fc 3c 28 9d 4e be 60 01 0a 3d
       0.07927627 0.030874422 -0.20177138 0.033692718
000390 69 b5 2e 3e 2d 59 ca 3d 0a 75 eb bd 60 d2 05 bd
       0.1706139 0.0988029 -0.11496933 -0.032671332
0003a0 9c 90 19 3e e6 a0 46 bc 5c 9d d6 bd ce f8 61 be
       0.1499657 -0.012123322 -0.10479233 -0.22067568
0003b0 33 79 3f be 98 a9 89 3c 93 23 31 3e a0 6c 60 bd
       -0.18698578 0.016804501 0.17298727 -0.054791093
0003c0 dc 61 7a 3e eb e7 5f bd be e7 86 3e 5d b1 00 3e
       0.24451393 -0.054664534 0.2634868 0.12567659
0003d0 c0 f1 91 bd 19 bd 9b bd e0 98 2a 3e 64 bd 99 bd
       -0.07126188 -0.07604427 0.1665988 -0.075068265
0003e0 54 50 2e be 5f 0d 1a be e4 69 2b 3e c6 63 88 3d
       -0.1702283 -0.15044163 0.16739613 0.06659655
0003f0 a3 18 f0 3d fc 70 26 be 40 be 26 3e cf 30 3a 3e
       0.11723449 -0.16254038 0.16283512 0.18182682

convt1.bias f4 [8]
000000 ef 59 70 3d 11 ec 22 3d 2a 78 17 3d 39 d9 d6 3d
       0.058679517 0.03977591 0.03697983 0.10490651
000010 9c ac 90 bc 27 d2 34 3d fe 5b 8f 3d 5d 08 e3 bd
       -0.017660432 0.04414573 0.06999968 -0.110855795

convt2.weight f4 [8, 16, 5, 5]
000000 fe 81 1f 3d 19 6a e9 bc 58 fe ba 3d af 22 fd 3d
       0.03894233 -0.028492974 0.091305435 0.12360131
000010 e5 45 7b 3d d2 74 40 bc f5 84 b9 bd af a0 9e bc
       0.061345953 -0.011746602 -0.09058563 -0.01936373
000020 78 bb ad 3d 99 ab d9 bb b9 85 c0 3d 24 6b 4e bd
       0.084830225 -0.0066427705 0.094005056 -0.050395146
000030 62 28 0d 3e 11 1e 8a bd 9e 77 67 3c 06 e3 92 3d
       0.13784936 -0.06744016 0.01412764 0.071722075
000040 fc e4 81 3c 4c 70 76 3d 45 08 d5 3d b4 08 ea 3d
       0.015856259 0.06016569 0.10401968 0.11427441
000050 d5 7e d7 3c 8a 15 46 3c 4f ff 17 3b f8 ce a5 3d
       0.026305595 0.012090096 0.0023192947 0.08096117
000060 d8 80 71 3d 3b 32 0f 3e d3 11 12 3d 58 c5 b9 3d
       0.058960766 0.13984005 0.03566153 0.090708435
000070 4d 4d 8a bd c3 c8 f4 3c 72 11 af bb 13 b7 47 3d
       -0.06753025 0.029880887 -0.005342656 0.048758578
000080 e4 3c 5c bc ce c8 03 bd 75 20 cc 3b d1 13 bb 3d
       -0.013442252 -0.032173924 0.006229455 0.09134639
000090 93 82 4d bd ed fd cd 3c 63 c7 30 3e dc 54 77 3d
       -0.050173353 0.025145495 0.1726356 0.060383663
0000a0 76 7e 71 3d 76 d6 08 3e 97 6a 12 3e 01 7e 05 3e
       0.058958493 0.1336306 0.14298473 0.13036348
0000b0 4a 1b 64 bc b5 14 da 3d 6d 1d 45 bd 4b 7e bc 3d
       -0.013922522 0.10648481 -0.048123766 0.09203776
0000c0 f5 a1 9c 3d 2d 51 82 bd e6 3d 00 3e 34 f7 9a bd
       0.07648078 -0.06363139 0.12523612 -0.075666815
0000d0 9d 27 dc 3d 83 94 a7 3c db 85 9e 3c 3f 4e 53 3c
       0.10749743 0.020456558 0.019350937 0.012897073
0000e0 d9 a5 96 bc 58 7a b5 3d 86 9b 0a bd 44 3f 9c bd
       -0.01838963 0.08861226 -0.033839725 -0.076292545
0000f0 5b 21 a1 3c 87 2a bb bd ff ac ec 3c a3 21 ab 3d
       0.019669225 -0.09138971 0.028891085 0.08356025
000100 97 18 9c bd 70 e4 9b 3d ec 3d 96 3c b5 37 45 3d
       -0.07621878 0.0761193 0.018340074 0.04814883
000110 9a 9e 2d bd 73 2b c3 3d 66 d7 bd bc 3c 1b 8e bc
       -0.042387582 0.09529772 -0.023173999 -0.01734697
000120 93 cc 91 bd 0f f5 2d bd cd bf 66 bd 1e 18 7a bd
       -0.071190976 -0.042470034 -0.05633526 -0.061058156
000130 61 a8 23 3c 85 68 11 3d 6b 2a 64 3d 4b b1 ba 3d
       0.009988875 0.03550007 0.055704515 0.09115847
000140 c3 49 0f bd b9 cc 66 bd 69 55 8a bc 8c e7 80 bc
       -0.034982454 -0.056347582 -0.01688643 -0.01573541
000150 ff 01 78 3d 2e 9e a1 3d 58 a7 9d bd 16 6e 1a 3e
       0.06054878 0.078914985 -0.07697934 0.15081057
000160 e0 4b de bc 57 b8 73 3d 88 07 32 bc d8 da 56 3d
       -0.02713579 0.059501972 -0.010866053 0.0524548
000170 65 24 ff 3c 78 97 e7 3d 11 d0 4c 3d 28 25 be 3c
       0.031145284 0.11308187 0.050003115 0.023211077
000180 d8 04 04 bd fd f5 85 3c 3c ba 22 bd ff 11 67 3b
       -0.03223118 0.016352648 -0.03972839 0.003525853
000190 df 87 fd 3d 1b 67 ad 3c 71 f2 19 3d 55 b1 90 3e
       0.12379431 0.021167329 0.037584726 0.28260294
0001a0 a2 db 55 3e 83 e1 b9 bd b2 3d c3 3d 00 0d c7 3d
       0.20884565 -0.09076216 0.09533252 0.097192764
0001b0 36 f3 c3 3d bc bd ff 3c 4a 87 e4 3c 35 02 f0 bd
       0.09567873 0.031218402 0.027896542 -0.11719171
0001c0 7b 55 01 3e f0 13 ad 3e fd 55 31 3b e3 d5 78 bd
       0.12630264 0.33804274 0.002705931 -0.060750853
0001d0 bb 84 44 bd 10 96 52 3e 11 74 fc 3d 47 e1 7f 3d
       -0.047978144 0.20565057 0.123268254 0.0624707
0001e0 72 2b 65 3d 55 d7 d4 bc f4 c4 1e bd fe 3f b5 3d
       0.055949636 -0.025981585 -0.038762048 0.08850096
0001f0 55 f5 00 3d 08 e5 02 3e 65 21 c9 3d 42 d9 25 3d
       0.031483967 0.12782681 0.098208226 0.040490396
000200 d4 db 8f bc 63 b9 91 3d 1e e2 a9 bd 67 88 ac bc
       -0.017560877 0.07115438 -0.082950816 -0.021061135
000210 16 6e 50 3d e5 31 d4 3d 76 0e 7b bc 3d c7 3e 3d
       0.050886236 0.10361079 -0.015323272 0.046576727
000220 cf 90 7e bc d8 00 55 3d 6b 9e c2 3d ae f4 42 bc
       -0.015537455 0.052002758 0.09502872 -0.0118991565
000230 89 58 9a 3d 8e 94 7b 3d de cf fb 3d 72 21 6a 3c
       0.07536418 0.06142097 0.12295507 0.014290201
000240 e8 cf 48 bd 41 f8 4b 3d f7 b8 97 3d ee fa 3c 3c
       -0.0490264 0.0497973 0.07408326 0.011534436
000250 19 7d f6 ba 1b 57 7c 3d fa a5 52 bd fd e6 6b bd
       -0.0018805593 0.061606508 -0.05142782 -0.057593334
000260 fc e3 18 bd 2d 0d 0d bd 8c e2 8d 3d 83 c8 90 bd
       -0.037326798 -0.034436394 0.06927976 -0.070694946
000270 5c 4a 5e bd 99 4e c3 3d 15 bd d3 3d 7d e1 93 3b
       -0.054270133 0.09536476 0.10338799 0.0045129643
000280 aa f0 a7 bd 28 a3 35 3d fa 7d be 3d 51 52 17 3d
       -0.082002 0.04434505 0.09301372 0.036943737
000290 4e 4e e8 bc 3b cc 42 3b ad ee 2d 3c 24 ce e5 bb
       -0.028357651 0.0029723782 0.010615987 -0.0070130993
0002a0 ef 31 1e 3e 3f e9 8c bd 6c 2f a2 bd b0 f9 e8 bd
       0.15448736 -0.06880426 -0.07919201 -0.11375749
0002b0 6e f3 a2 bc d4 7c d3 3a d6 27 0e bd 0d da 54 bd
       -0.019891467 0.0016135224 -0.03470596 -0.051965762
0002c0 5b fa db 3c a6 47 26 3e a3 d0 7f bc 9f 11 0c 3d
       0.026852777 0.16238269 -0.015613708 0.034196492
0002d0 14 d8 ab bd 86 f2 80 bd 30 da 05 3e 37 b7 6d 3a
       -0.08390823 -0.06296258 0.13071513 0.00090681337
0002e0 f2 43 01 3e 49 db 22 3a bb 29 09 3e ce df 2a 3e
       0.12623575 0.00062124856 0.13394825 0.16686937
0002f0 68 a9 0b 3d b3 a0 0c 3d d4 f0 2e 3e 79 50 f1 3d
       0.034097105 0.034332942 0.17084056 0.11782927
000300 f6 fc 15 3e c2 c8 29 3e d5 d3 c0 3d 7d ed a9 3d
       0.14647278 0.1658049 0.09415404 0.082972504
000310 43 b7 87 3d 05 51 61 3e 83 10 d0 3d 54 e1 97 3c
       0.06626751 0.22003563 0.10159399 0.018540062
000320 c1 48 60 3b cc bd 34 bc 03 ee 79 3e 0e b1 c8 3d
       0.0034223052 -0.011031579 0.244072 0.097993955
000330 03 f9 b2 bc c6 62 ae 3c 44 d7 44 3b 8c 54 34 3d
       -0.021847254 0.021287333 0.0030035535 0.044025943
000340 f8 de 41 3e d7 c0 54 bd 58 65 0c 3d 52 93 84 3e
       0.18932712 -0.05194172 0.034276336 0.25893646
000350 a7 d2 00 3d 88 6f c9 3d ef e6 24 3e 4d 1f 19 3e
       0.031450894 0.09835726 0.16103719 0.14953347
000360 56 45 88 bd b3 2e ac 3d 29 e1 8f 3e f5 5a 8b 3e
       -0.0665385 0.08407345 0.2810147 0.27217832
000370 ed 3b b8 3b 39 25 2b bb 49 50 15 3e 68 6b 5b bd
       0.005622378 -0.0026114716 0.14581408 -0.053569227
000380 49 c3 06 3d 05 31 b3 bc c0 70 a1 bd 22 bf d8 3c
       0.032901082 -0.02187396 -0.078828335 0.026458327
000390 66 d4 b2 3d 4b 9f d6 bc 53 60 d2 bd 40 41 a3 bd
       0.08731918 -0.026199004 -0.10272279 -0.0797143
0003a0 a0 22 23 3d 25 ef 16 3e 24 b5 b2 3c 3b 40 4c 3d
       0.039827943 0.14739664 0.02181489 0.049865942
0003b0 11 bf 2d 3d f1 18 85 3e ec e6 93 3d 2d b0 58 bd
       0.042418543 0.2599559 0.07221779 -0.05290239
0003c0 f5 65 70 3d 33 55 27 bd 6a 04 9f bd fd f2 95 3c
       0.058690984 -0.040852737 -0.07764514 0.018304342
0003d0 f2 58 82 3c 0e f5 1a 3b 2d 41 18 bd 0a f6 9c 3d
       0.015911553 0.00236446 -0.03717153 0.07664116
0003e0 7d 69 26 bd 2a ca a4 bb 7f 37 08 3d 18 d3 0a bd
       -0.040627945 -0.0050289826 0.03325605 -0.03389272
0003f0 46 0c f3 3c 74 fa 6b 3e 1a bc 76 3d 66 cf 85 3d
       0.029668938 0.23044759 0.06023798 0.06533699

convt2.bias f4 [16]
000000 66 66 b2 3c 30 eb 06 bc 7f 61 e0 3c 41 9f 70 3d
       0.021777343 -0.008234784 0.02739024 0.058745626
000010 2a 3f 9f bb 70 63 4e 3d d1 6b 91 3d 79 7f 27 bc
       -0.0048598247 0.0503878 0.071006425 -0.010223263
000020 43 8e 3f bc 33 a3 e6 3c 81 8e be 3c c0 d0 e2 3c
       -0.011691633 0.028153991 0.02326131 0.02768743
000030 92 5d 8d 3d be 42 4f 3d 51 1a 2a 3d 8b ca f1 3c
       0.06902613 0.05060076 0.041529004 0.029515525

convt3.weight f4 [16, 32, 9, 9]
000000 06 94 b1 bc a2 a4 8f 3c 86 08 40 bd 84 91 16 3c
       -0.021677028 0.017534558 -0.04688313 0.009189967
000010 e6 ca 53 bc 2f 2f 25 bd 81 47 17 bd 40 e9 2a bc
       -0.012926793 -0.0403282 -0.036933426 -0.010431588
000020 ec 54 50 bd 99 75 90 3c a8 8a c8 3c 9f b3 b0 bc
       -0.050862238 0.0176342 0.024480179 -0.021570025
000030 b5 d5 92 3c 63 e7 04 3c 25 1a 67 3c 4e 9a fc bb
       0.01792417 0.0081118075 0.014105354 -0.0077088242
000040 9b 0f f1 3c 44 c5 8b bc 63 6a e6 3c 55 d7 4a 3c
       0.029426387 -0.017061837 0.028126901 0.012380441
000050 e2 2a e4 bc ba a6 fb bc 8d 8d 29 3a 00 4a d4 38
       -0.02785248 -0.03071915 0.0006467931 0.00010122731
000060 e3 99 8e 3c 50 fb 0e 3b 9b c1 08 bd d0 1b 19 3b
       0.017407363 0.0021817274 -0.03338776 0.0023362525
000070 54 3c ed bc 20 e5 0e 3c 16 ee 13 bd b2 1c 04 bc
       -0.02895943 0.00872162 -0.03611573 -0.008063482
000080 5f 22 08 bd a6 16 fa bc 22 97 51 3b dd 62 10 bd
       -0.033235904 -0.030528378 0.0031980951 -0.035250533
000090 04 fa 1a bd 9d d4 74 bc 10 b8 bb bc 36 1b fe bc
       -0.03783609 -0.014943269 -0.022914916 -0.031018835
0000a0 d1 37 e0 bc 6f b6 10 3c ca 86 35 bd 04 eb 8e 3b
       -0.027370365 0.008832558 -0.044317998 0.004361512
0000b0 89 88 67 3a 91 1c ec 3c af 04 88 3c 53 a5 20 3b
       0.0008832296 0.028822215 0.016603796 0.0024512603
0000c0 73 5f 20 bd 69 67 18 bc ab 34 40 bc c0 0f be b9
       -0.039153527 -0.009301999 -0.011731307 -0.0003625136
0000d0 05 5e 84 bc a2 13 80 3c 80 30 9c 3a 49 f6 39 bd
       -0.016158113 0.015634362 0.001191631 -0.04540089
0000e0 a9 dd 84 bc 01 be 0b 3d 4b 33 c1 3c e2 ab b9 3c
       -0.016218977 0.03411675 0.023584029 0.022664968
0000f0 04 f3 4b 3c 89 ae 38 bd f2 03 46 bd 8d b6 ce 3c
       0.012448076 -0.045088325 -0.048343606 0.025233531
000100 8a b4 e4 3c e4 e1 63 bc 88 83 8e bc a7 a0 b7 3c
       0.027918119 -0.013908837 -0.017396703 0.022415472
000110 c8 4f 12 bd 2f 67 ca bc 00 65 c4 3c 20 e9 9c bc
       -0.035720617 -0.024707405 0.023973942 -0.019154131
000120 5f 1a 2c bd bc 75 ec bc e2 ac 68 bc 50 b3 51 ba
       -0.042017337 -0.028864734 -0.014201375 -0.0007999437
000130 2a da 4b bd e9 7b 4f ba 2e 0a b5 bc 24 bf 2d bd
       -0.049768604 -0.00079148874 -0.02209958 -0.042418614
000140 b7 c4 35 3c eb 44 a6 bc aa bc fc bc b5 94 87 3c
       0.011094264 -0.020296535 -0.03085168 0.016550401
000150 c4 23 b8 3c a8 69 80 3c 73 9f c1 3c df d8 c6 bc
       0.022477992 0.01567538 0.023635602 -0.024273334
000160 4a 40 21 3c f7 70 21 3d 86 6b 57 ba 21 39 cd 3c
       0.009841988 0.039414372 -0.00082176214 0.025051655
000170 d7 08 55 3c 85 1d 12 3b 2e 03 c7 3c 91 06 16 3d
       0.013002596 0.0022295427 0.024293508 0.036627356
000180 da ba e9 bc 04 b6 a7 bc 49 c7 bc 3c 75 97 70 bb
       -0.02853148 -0.020472534 0.023044245 -0.003671137
000190 d6 c1 c2 3b e7 43 fc 3c 57 60 76 3c fe c6 21 3d
       0.005943517 0.030794097 0.015037618 0.039496414
0001a0 e5 ee c0 bc 4a 15 c0 3c 18 d3 83 3b 47 10 29 3c
       -0.023551414 0.023447651 0.004022967 0.010318822
0001b0 14 17 a0 bc 84 74 b2 bc 6e 3c cc 3c 9c 46 d1 bc
       -0.019542255 -0.021784075 0.024931159 -0.025546364
0001c0 88 38 7c bc c7 74 d8 3c ee e0 80 3c be 27 de 3c
       -0.0153943375 0.026422871 0.015732255 0.02711856
0001d0 ba 46 bb bb ca 98 0e 3d e2 4d 00 3c b8 9f 29 3d
       -0.0057152184 0.03481368 0.007831069 0.041412085
0001e0 d5 22 c1 39 c3 53 a0 bc 9d 88 2b 3d b3 0e 14 3d
       0.0003683778 -0.01957119 0.04187833 0.03614683
0001f0 01 8f 11 3c f5 6e eb 3c f2 f7 0b 3d b8 aa cd 3b
       0.008884192 0.028739432 0.034172006 0.006276455
000200 1f 41 38 bc 8a 31 3e 3c 18 0d a2 3c 35 60 69 3c
       -0.011245995 0.011608491 0.019781634 0.014244129
000210 bc 4d 2d bc 7c 37 21 3c 88 f3 f6 bc 7f 1d b9 3c
       -0.010577615 0.009839889 -0.030145422 0.022597073
000220 17 8b 39 3a 02 41 f7 3c cd 89 3b bc b9 5a b3 bb
       0.0007077916 0.030182365 -0.0114464285 -0.0054734615
000230 9b 89 f8 3c 7b 34 3c bc 13 72 ee bc 8c 76 0e 3d
       0.030339053 -0.011487122 -0.02910713 0.034781024
000240 c1 92 0c 3c 3b 1e 46 bc 02 0a 0c bd b8 8c 8d 3b
       0.008579911 -0.012092168 -0.03418923 0.0043197535
000250 f0 3e d2 3c 15 80 00 3c 42 35 e8 3b 30 16 ff 3c
       0.025664777 0.007843037 0.007086427 0.03113851
000260 d0 fc f4 3c 1d ab 81 bb d5 b7 92 3c 4f 80 96 39
       0.029905707 -0.003957166 0.017909924 0.00028705827
000270 e4 f3 34 3c db 92 51 bc a2 e2 26 3b 9b e6 4f 3c
       0.011044476 -0.012791361 0.0025464674 0.012689258
000280 af b2 a3 bb d3 88 c5 ba 83 96 22 bd 33 06 15 3d
       -0.004995666 -0.0015070684 -0.03969432 0.036382865
000290 b0 cb fd 3c 69 d1 d2 bc e2 9c e3 3c 60 57 ae bc
       0.030980915 -0.02573462 0.027784768 -0.021281898
0002a0 77 60 b9 3c c8 4d 12 bd c1 1a 07 bc ef 1f ab 3b
       0.022629006 -0.03571871 -0.008246125 0.0052223126
0002b0 29 72 17 bd 89 7c 20 3d 45 73 23 3d 77 84 02 bd
       -0.036974106 0.039181266 0.03990485 -0.03186461
0002c0 eb d7 bf 3b b9 21 92 bc 85 08 0d bd 9f e3 06 3d
       0.005854597 -0.017838346 -0.034431953 0.03293192
0002d0 a5 fc 90 bc e5 ce f4 bc 0d d9 94 bc d8 f6 f2 3b
       -0.017698595 -0.029883811 -0.018169904 0.00741468
0002e0 bf 7c dd bc 54 b6 cc 3b 82 48 d9 bc 56 62 1d bc
       -0.027037023 0.006247321 -0.026523832 -0.009605965
0002f0 f9 73 ca 3c 22 d1 fb 3c a3 ae f5 bc 0f de 1f bb
       0.024713503 0.03073937 -0.0299905 -0.0024393832
000300 e5 9c eb 3c 96 5e 6f bc 86 5c 14 bd e2 6b 38 bd
       0.028761337 -0.014609953 -0.03622105 -0.04502476
000310 ee 25 00 bd 64 5d 18 3c 1d b7 d4 3c eb c1 6c 3b
       -0.031286173 0.00929961 0.025966221 0.0036126326
000320 ca 22 36 bd 06 63 ec 3c d8 bc 39 3c c8 82 37 bc
       -0.04446677 0.028855812 0.011336528 -0.011200614
000330 9c 40 31 bd 4c 4b b8 bc fa 20 05 bd ca 6e 3c bc
       -0.043274507 -0.022496842 -0.032502152 -0.011501024
000340 58 0e f0 bc 37 98 b6 bc 99 2a 09 3d ea f3 a6 bc
       -0.029303715 -0.022289379 0.03348789 -0.02037998
000350 1c dd fc 3a c8 5e 99 bc fd 8a 6b 3c bc 6a f2 bc
       0.001929197 -0.018721953 0.014376399 -0.02959191
000360 74 71 79 3c ae 30 e5 bc a0 08 c4 bb 16 0a 95 3b
       0.015224803 -0.027977314 -0.0059824735 0.0045483215
000370 d9 cb 1f 3d 0e 78 69 bc 5c 12 f5 3c 79 f4 ec bc
       0.039012764 -0.014249815 0.029915981 -0.028925167
000380 95 92 97 3b 88 6a 4a bb 64 db a7 3c b8 6c 97 3b
       0.0046256282 -0.0030886251 0.020490356 0.0046211146
000390 aa 27 95 3b 0f 7d 47 bc d3 ac 43 ba 44 cc 97 3c
       0.0045518475 -0.012175812 -0.00074644125 0.018530019
0003a0 1a 24 e1 3c 79 57 0a 3d b5 28 98 bc 67 a0 03 3d
       0.027483035 0.033774827 -0.018574098 0.032135393
0003b0 31 d3 d8 bc c8 aa 17 bc 43 00 4e 3a 87 de 20 bd
       -0.026467891 -0.009257026 0.00078583154 -0.03927472
0003c0 ae a7 6e bc da 77 51 3c 0a 40 bb bc a0 38 d6 bc
       -0.014566345 0.0127849225 -0.022857685 -0.026150048
0003d0 88 f1 25 3d 2f d0 d3 3c ac 9e 51 3b 8f 72 a0 3c
       0.040513545 0.025856106 0.0031985445 0.019585876
0003e0 af f6 79 3b aa 77 dd 3c 20 c3 2b 3d 7f 7c e4 bc
       0.003814142 0.0270346 0.041934133 -0.027891396
0003f0 dc 4f b6 3c 50 16 3a bc dc 4d 38 3c d4 ef 1c 3d
       0.022254877 -0.011357859 0.011249032 0.038314655

convt3.bias f4 [32]
000000 c4 1e f8 bc f6 c0 11 3d 38 d1 81 bc 7a f5 c1 3c
       -0.030288108 0.035584413 -0.015846834 0.023676623
000010 bb 7b 65 3d 65 af 02 3d 62 55 e6 bc c9 ea 17 3d
       0.0560262 0.03190555 -0.028116886 0.037089143
000020 aa 91 d6 3c ca 3d 29 3d f0 43 61 3b ea b0 55 3c
       0.026192505 0.041318692 0.003437277 0.013042668
000030 a2 4c 05 3b 61 58 39 3d e5 41 0c 3d 11 9d 68 3d
       0.0020339866 0.0452503 0.03424253 0.056790415
000040 73 b9 8b 3d 4d 8a 1d bb b9 ca 1c 3d da ed 63 ba
       0.06822481 -0.0024038733 0.03827927 -0.00086948054
000050 c7 04 fa bb 7a b4 e8 bc 37 3a 2b 3d 1c 74 2a 3d
       -0.007629964 -0.02840637 0.041803565 0.041614637
000060 89 77 02 3c ad cf 60 bc 2a 49 0a bb 93 97 ef bc
       0.00796307 -0.013721389 -0.0021100738 -0.02924708
000070 28 16 54 3d 48 af 3a 3d ad e8 a2 3b f6 3c 93 bc
       0.051778942 0.045577317 0.004971585 -0.017973404

pos_output.weight f4 [1, 32, 2, 2]
000000 bb ad 34 3e 10 90 61 be f4 29 2a bc f6 bf 27 3e
       0.17644398 -0.22027612 -0.010385979 0.16381821
000010 22 57 2d 3e 26 37 3c 3e c4 82 4e 3d dc cf b5 3d
       0.1692777 0.18380412 0.050417677 0.08877537
000020 da 4f 5f bd db 75 aa bd a0 4b 3a 3e f1 b6 89 bd
       -0.05451951 -0.083232604 0.18192911 -0.067243464
000030 6d a1 7b 3c 23 cc 96 bd 83 b9 4c 3d e0 3a e9 bd
       0.015358311 -0.07363155 0.049981605 -0.11388183
000040 9b bf 3e 3e 9b 97 31 3d f8 2f 2e 3e 6a 78 4b 3e
       0.18627779 0.043357473 0.17010486 0.19870153
000050 15 4d f6 3d df c9 03 3e 27 f8 1f be eb f4 5d bd
       0.12026421 0.12869976 -0.15622006 -0.05418865
000060 1d 70 2f 3e d4 5c 45 3e 8d 92 31 3e 18 6c 25 bc
       0.17132612 0.19273692 0.17341061 -0.010096572
000070 7b fa 8b 3c a8 d6 3f be b2 44 40 bc 64 7a 3c 3e
       0.017087212 -0.18734229 -0.011735128 0.18406063
000080 d1 47 47 be f4 df c6 bd 59 1f f7 3c 90 d3 18 bd
       -0.1946099 -0.097106844 0.030166315 -0.037311137
000090 ca 98 c3 bd 14 fd 40 bd 2f 22 d3 3d b4 57 40 be
       -0.095506266 -0.047116354 0.103092544 -0.18783456
0000a0 5e a9 47 bd 29 b2 b0 3d 48 9e f7 bd ef 92 30 bd
       -0.048745506 0.08627731 -0.12090737 -0.043108877
0000b0 6f 47 36 be 6e 6c 00 be 83 ea a8 3d 16 7e 11 3e
       -0.17800687 -0.12541363 0.082478546 0.14208254
0000c0 36 bf 32 be db 28 fa bd ae 0b 32 3e db 5b 9d bd
       -0.17455754 -0.12214824 0.17387268 -0.07683536
0000d0 4b 28 c0 3c e3 f5 50 3e 62 5a 3f 3d 0e 90 52 3e
       0.023456713 0.20406298 0.046717055 0.20562765
0000e0 36 95 fb bd 51 a4 2a 3e 04 3e 2d 3e 63 41 03 3e
       -0.12284319 0.16664244 0.16918188 0.12817912
0000f0 b8 a1 3b bd 55 35 29 3d d9 93 0a 3e bf af c9 bd
       -0.045808524 0.041310627 0.13532962 -0.09847974
000100 3e 89 2c be c9 d3 f1 3d 69 26 0e 3e 8b 32 f3 3d
       -0.16849229 0.11807973 0.1388184 0.11874875
000110 9b 10 6d 3d 7b 20 24 bd 31 25 4b bd 4b d5 29 3e
       0.057877164 -0.04007004 -0.049596015 0.16585271
000120 9e 9a 3a 3e 1f 4e 53 bd 49 04 1b 3e fa b4 ef bd
       0.18223044 -0.051588174 0.15138353 -0.117044404
000130 0b ff 84 bd 66 08 27 be a6 24 64 be 63 fc 48 3e
       -0.06493958 -0.16311797 -0.22279605 0.19627528
000140 6c e0 1e 3e c9 e0 10 3e e6 27 42 3d b7 93 51 3e
       0.15515298 0.14148249 0.04740133 0.20466505
000150 6e c2 45 be c7 15 b7 3d 15 5b 25 bd 42 c9 83 bc
       -0.1931245 0.089397006 -0.040370066 -0.016087178
000160 ef 59 01 be 06 d6 0b be 3d 6c 4f 3e 64 75 48 3e
       -0.12631963 -0.13655862 0.20256133 0.19576031
000170 a6 34 3a 3e 4a 99 83 bd a9 7a 41 be 6b 36 bd 3d
       0.18184146 -0.06425722 -0.18894447 0.09238895
000180 af 2d 1c bd 2d d8 3d be 6e 4d 44 be 2a fd 10 3e
       -0.038129505 -0.18539496 -0.19170162 0.14159074
000190 6c d6 27 3e 24 f6 1b bd 73 8a 34 3d 46 01 57 3e
       0.16390389 -0.038076535 0.044077348 0.2099658
0001a0 71 22 3f bd 21 9e 2d 3e b4 df a7 3c fd a6 cc bb
       -0.046663705 0.16954853 0.020492412 -0.0062454925
0001b0 d6 eb 0c 3d c8 36 55 be 80 bd d4 bc d7 b1 2c be
       0.0344046 -0.20821679 -0.025969267 -0.16864716
0001c0 8c 30 ed 3d 53 19 37 3d a2 f5 b8 3d cc 9a e7 bd
       0.11581525 0.044701885 0.09031226 -0.11308822
0001d0 22 dd 1e be 22 10 cf bc 22 5c 88 bd 33 7f d1 3d
       -0.15514043 -0.025276247 -0.06658198 0.102293395
0001e0 b0 6e 2f be d1 e4 12 be 46 75 40 be 03 52 09 be
       -0.17132068 -0.14345099 -0.18794736 -0.13410191
0001f0 42 f9 57 be b0 e7 ad bd 41 eb 8c 3b 37 83 18 be
       -0.21091178 -0.084914565 0.0043005054 -0.14893804
