output/models/220501_1015_ggcnn2_epoch_10/epoch_04_iou_0.61_statedict.pt (torch, 274205 bytes, 20 tensors)

features.0.weight f4 [16, 1, 11, 11]
00000000: 2167 673d ecf8 713b 79e5 01bd 886e 4d3b
00000010: abfd 17bd 1fd0 d03c bc57 483d 813e af3c
00000020: a625 863c fd97 7abb 156c 013c cd4f 13bd
00000030: e3c5 343d 0293 1abd 4f94 b03c c2c6 18bd
00000040: db04 263b 9143 833c 52f6 d53b d5d1 00bd
00000050: 13a5 5b3d 679c dfbc 4360 1bbd ab4c 8c3c
00000060: 70db e8bb 88c0 0c3d 0f92 b13c 5a9f 1c3d
00000070: 7723 ed3a 0d9a 05bc 9535 0f3d d2d8 ccbc
00000080: 7e9b 043c 4370 033d ea5b 46bc 3e2b 07bd
00000090: 5306 c73c 3a64 16bd 8145 03bd 254c efbc
000000a0: ad15 4abc 71db 123d 6abb dbbc 941f 0fbd
000000b0: fe9d 803a 2e78 1a3d e590 bc3c 6a70 1d3d
000000c0: 155f 2dbd d4ab 033d 32ee 13bd 91b9 48bd
000000d0: 8aee 1e3c d346 143d 7c62 d1bc e027 00bd
000000e0: 4b87 e2bc a01b 323b 6635 24bd 452d 233d
000000f0: 54a1 d93c 3f02 e7bc 707e 25bd ac4f f2bb
00000100: 6f31 6cbb 48cf 8a3c 7e6e 57bc 8f56 003c
00000110: 96a7 0f3c 2928 f23c 6ff1 623c 6756 a9ba
00000120: 26d9 343d 07b6 f53c 716d e7bc 762d a0bc
00000130: 8c2b 1dbc 700c 90bb 984a c3bc f32c 1ebd
00000140: 5725 de3c 0fc9 10bd 7d58 21bd f0ee e1bb
00000150: 7a7d 94b9 5a34 2c3c 89dd 5f3c 5dc2 133d
00000160: 9033 cbbc 1567 a43c 043d 8bbb f7fa 083d
00000170: e5f2 1e3d 2a28 e83c 02b0 46bd c9a6 323d
00000180: 7f3a 97bc ef0c abbb fbbb 62bd 2275 003d
00000190: ee93 0eba ea01 5cbc 29b1 b6bb 7572 57bb
000001a0: 7ba5 46bd 33fa e03a 1b14 523c 29cb c43c
000001b0: 7cdd 3f3c 7fa1 1b3d 10d7 05bd 0eaa 883c
000001c0: 4980 b23c 597c 823c 9b7a f13c 40e1 58bd
000001d0: a35c cfbc 9bd3 0a3c f9bf 03bd efa6 f03b
000001e0: 347d 363a 5796 56bd b5f6 eabc 2665 70bd
000001f0: 7a49 c03b cde6 2e3d 34f3 33bc dc28 343d
00000200: 8b74 0abd 3a72 64bd 275e 363d 9467 39bc
00000210: 6405 9bbc 55ea bc3c 5315 79bd 209e d03c
00000220: 1dce 78bd 501f 183d f32b d43c d34d 90bc
00000230: 11a7 a63c 77d4 4cbd b57d 353d 762a 47bd
00000240: f7db 37bd 3ebe 6dbd 2847 12bd 204d d03c
00000250: 5b13 213a dcf9 5a3c 4aee f8bc f5cb 57bd
00000260: 129f 32bd a1e6 4dbc 05f9 4dbd 050d 3bbd
00000270: f533 93b9 04b1 6bbd 4c41 3abd cc10 8a3c
00000280: 89a6 f03b d5b0 883c d924 9f3c aa71 caba
00000290: 6b52 aa3c f553 e8bc 5c54 4dbb b252 5f3c
000002a0: 7c28 bd3c fd04 a7bc d7e2 77bc 6da5 cb35
000002b0: 8b88 aabc a25a 26bc c282 0a3d c866 58bd
000002c0: 428e 72bc 2fc2 9b3c bc71 1fbd 0b24 84bc
000002d0: ddfb 1fbd e08b 8e3b fee3 213d 868b 8cbc
000002e0: 502b 7c3c 6343 173d 49f2 b5bc 0580 27bd
000002f0: 8a2c 50bd ec67 14bd 34ef 07bc 9d53 1e3d
00000300: 7d24 343d 62ae 083d c422 443d 8fcd 65bd
00000310: 7884 d13b 0d7e 923b 2532 fcbc b13b f6bc
00000320: 084b d43c 702c b0bc a931 013d 05e7 2cbd
00000330: 14e9 363d 9ca9 423c eb17 ec3c 6d18 48bc
00000340: 93be e4bc 7a8c 423d e1b2 1a3c 4f3a 23bd
00000350: e4fe f33a d57d e33c ad2d 59bd d382 023d
00000360: 49ee f03c c175 353c 66bb e4bb 9c25 293d
00000370: 6a4c 09bd d7fa d43c 3750 1e3d 3ccf b9bc
00000380: 12ab 833c 603e 9fbc 6ebf 563d d514 ca3a
00000390: bb11 ea3a 5faa f93c 7402 833d 3129 383c
000003a0: d774 47bd 19a9 443d 3e60 23bd 6835 3e3d
000003b0: d4da fa3c 242a 503c a520 013d f78e e6bc
000003c0: 5a04 183c ce03 893d aa74 e93d 338d e13d
000003d0: 0243 bb3d f7bb 553d 4db1 333d 5f1a 843b
000003e0: 077c ce3d e5eb f73c c9fb ac3d f8bb d03d
000003f0: 7d04 c83d ed37 a73c bcd0 253d 4c93 8d3d
0.056494836 0.003692205 -0.031712983 0.00313464 -0.03710715 0.025489865 0.048911795 0.021392109
0.016375374 -0.0038237565 0.007899304 -0.035964776 0.044134032 -0.037737854 0.021555094 -0.037298925
0.0025332484 0.01602343 0.006529608 -0.03145011 0.053624224 -0.027296258 -0.0379336 0.017126402
-0.007106237 0.0343633 0.021676091 0.038237907 0.0018092234 -0.008154404 0.03496321 -0.025005732
0.008093713 0.032089483 -0.012106875 -0.033000223 0.024295008 -0.036716677 -0.032048706 -0.029211113
-0.0123342695 0.035853807 -0.026822764 -0.034942225 0.000981271 0.03771227 0.02301831 0.038437285
-0.042327005 0.03214629 -0.036115833 -0.049005095 0.009700427 0.036200356 -0.025559656 -0.031288028
-0.027652403 0.002717711 -0.040089987 0.039838094 0.026566185 -0.028199313 -0.040403783 -0.0073947515
-0.0036040207 0.016944543 -0.013148902 0.007833137 0.008767983 0.029560165 0.013851508 -0.0012919427
0.0441524 0.029994024 -0.028250428 -0.019552927 -0.009592902 -0.004396014 -0.02383928 -0.038617086
0.027117414 -0.035347994 -0.03939103 -0.0068949386 -0.00028322247 0.010510528 0.013663658 0.03607403
-0.02480486 0.020068685 -0.004249217 0.033442464 0.03880586 0.028339464 -0.048507698 0.04361609
-0.01846051 -0.0052200477 -0.055355053 0.031361707 -0.00054389134 -0.013428191 -0.0055753184 -0.0032874618
-0.04849766 0.0017164409 0.012822176 0.024022656 0.011710521 0.03799581 -0.032675803 0.01668265
0.021789687 0.015928434 0.029477408 -0.05294919 -0.025312727 0.008473302 -0.0321655 0.007344119
0.0006961406 -0.05238947 -0.028682092 -0.058690213 0.005868134 0.042700578 -0.010983277 0.04398428
-0.03380255 -0.055772997 0.044523384 -0.011316199 -0.018923469 0.023060957 -0.060811352 0.025466025
-0.06074344 0.037139237 0.025899863 -0.017615234 0.020343335 -0.05000731 0.044309337 -0.04862448
-0.04488751 -0.058042757 -0.03571239 0.025427401 0.0006144547 0.013365235 -0.030387063 -0.052684743
-0.043608733 -0.012567193 -0.05028631 -0.045666713 -0.00028076736 -0.057541862 -0.04547243 0.016853712
0.0073440713 0.016685883 0.01942675 -0.0015445251 0.020791253 -0.028360346 -0.00313308 0.013630556
0.023090594 -0.02038812 -0.015129766 1.5172824e-06 -0.020817062 -0.0101534445 0.033816107 -0.052832395
-0.014804425 0.019013492 -0.038926825 -0.016130468 -0.039058555 0.0043501705 0.03952407 -0.017156374
0.015391186 0.0369295 -0.022210257 -0.040893573 -0.050823726 -0.03623192 -0.008296777 0.03865396
0.04398011 0.03336943 0.047884718 -0.05610424 0.0063939653 0.004470593 -0.03078563 -0.03005776
0.025914684 -0.021505564 0.0315415 -0.042212505 0.044655874 0.011881258 0.028819999 -0.012212855
-0.027922904 0.04749725 0.009442062 -0.03985053 0.0018615392 0.027769962 -0.053022075 0.031863045
0.029410498 0.011075438 -0.0069803474 0.041295633 -0.03352014 0.025998516 0.038650718 -0.022681825
0.016072784 -0.019438922 0.052428655 0.0015417585 0.0017858067 0.030476747 0.06396952 0.01124029
-0.04869541 0.048012827 -0.039886706 0.04643765 0.030621924 0.01270536 0.031525273 -0.028144343
0.009278381 0.06690179 0.11399205 0.1101326 0.0914364 0.05218121 0.04387026 0.004031464
0.1008225 0.03026385 0.08446462 0.10192102 0.09766481 0.02041241 0.040482268 0.0691286

features.0.bias f4 [16]
00000000: 408e a3bd 014a 0ebe 6979 a13b ed5d 2ebd
00000010: 9e7c 94bb 4f0a 3b3c 65f4 9b3c 52e7 33bd
00000020: 9565 44bc db23 603e 5527 5dbe 9b8c 97bc
00000030: 36cd f8bc e97a 7dbc a994 bfbd 5b07 67be
-0.079861164 -0.13895418 0.0049278033 -0.042570043 -0.004531457 0.011416032 0.019037435 -0.043921776
-0.01198711 0.21888678 -0.21597035 -0.018499663 -0.03037129 -0.015471199 -0.093545265 -0.225614

features.2.weight f4 [16, 16, 5, 5]
00000000: 7e30 0f3d 8e9b d1bb 595a 4d3d f5c6 953d
00000010: 245a 86bd 8aaa 9abc 3a81 30bb 40a6 4bbc
00000020: 3d90 a6bc 4d41 9b3c 6f9e b83d fe92 063b
00000030: 6d20 45bd 5ae6 873b b89c 853d 248a 4d3d
00000040: 3927 7d3d a454 8f3d 315d d93c eed3 953d
00000050: 1860 213c c20b 18bd 8400 cd3c d093 963c
00000060: 97b6 123d e376 72bd af8b 29bd 355c 84bd
00000070: c87f 9b3d 0832 493d a3bb 133d 524c 4bbc
00000080: 6f00 54bd e81b 593d 96df 4a3d b4db a6bd
00000090: 7b51 89bd 8f8f 963d b020 243d 96fd 903d
000000a0: 3ca7 00bc 77d1 f1bc b2cb b23c c894 753d
000000b0: 9aac 4abd 08da 2f3d 2ebd 8bbd aeb4 44bd
000000c0: 2dfc f53c 72dd 10bc 7ef0 d63b ef5a 9e3c
000000d0: c703 af3c 68e4 8c3d f6db 843d 4984 f63c
000000e0: 9b2a 85bc 7b3a 4d3d 9c40 67bd 3f36 9cbd
000000f0: 753f bdbc 306d 1fbc 83ce 0fbd 868b 42bc
00000100: b52e 953d 0ab2 9b3d c9fb 863d c977 ecbc
00000110: 8a9a 93bc ed64 e7bc 0757 323d 502c b23d
00000120: 50a5 1a3d 8bcc 123d 39c7 15bd bd56 d6bb
00000130: 6d19 c9bd 04f3 8c3b 58a5 9a3c 9166 8fbd
00000140: c051 123d a634 c2bd 9b71 ddbd 0e66 92bd
00000150: 70e1 bdbd 2c87 15bc 0731 e0bd be65 7dbd
00000160: 086d 1fbd b242 e2bd de30 033d 394e 8dba
00000170: c110 55bc 6878 d4b9 6539 5dbb deda 91bc
00000180: e402 10be ceb2 efbd 4832 b53c 6e04 e63c
00000190: 4175 543d 6ed8 0eba b2d5 7dbb 88cf 8a3d
000001a0: 029c 7c3d b3d9 83bd cf03 aa3d 1606 2abd
000001b0: 6994 033d 0bab d43c 1092 453d 3830 1d3d
000001c0: 1137 b13d 0fff 26bd ea2f 8f3d 5b97 9b3d
000001d0: 5e30 f83c daad 20bd d8ee 8b3d 6a56 70bd
000001e0: 4338 1b3c 7d03 5d3d 1031 a53d dbe8 4dbd
000001f0: 4e6a 323d bf48 75bd 3d5d 413d a01d e0bc
00000200: 25f9 a2bd 4119 7fbd 9cf0 1ebd 7042 a53b
00000210: 5b3d aa3d 44a8 a83d 1776 753c 5e65 a2bd
00000220: 03e6 9cbd 8686 823d 8c4c 1f3d d0d7 d4bc
00000230: f972 69bd 73e8 acbd 9ffd 973d 81f3 2e3d
00000240: 66d5 ac3c 325c 9f3c 50f4 9e3c 6224 883d
00000250: e851 6bbd 105b 263d c2c3 17bd bb1e 88bd
00000260: 7e3b 713d 6e3d 5dbd 48d1 063d 67f6 3c3d
00000270: 6944 3abd fbb5 9cbc d679 c2bc fa39 e43c
00000280: 24dc c83c 8cea 96bc d66d 583d 52d4 79bc
00000290: 4990 b9bd d5a2 e73c c75c b03c 788c a7bd
000002a0: fad4 2fbd 45de c0bc 06dc 523c 35a1 703b
000002b0: 02f3 f9bb 9dc7 f43c 66b9 8d3d 113b b2bd
000002c0: 4f76 5dbd 1442 a13d 47a5 0abd e0c5 0dbd
000002d0: dbc4 803d 2048 6abc b47f 1bbc 9311 963d
000002e0: e432 9fbd 3a4d 773d 1986 3c3d 83bd 35bd
000002f0: 68c6 933d 319a 8f3c d2b6 853d d2c6 86bb
00000300: 8ebf 5b3d 3ba0 07bd d116 9bbd 2123 cebc
00000310: d381 933d 65d6 c53c db6d 933d e1fb 81bc
00000320: 5753 1fbd 5121 6abd 3406 86bc a2a8 b7bd
00000330: bef1 77bd 62b5 94bd 7600 a5bd 9360 80bc
00000340: b62c 093a 4999 c1bd 1bea b03a 28ea 933d
00000350: f863 70bd 07d5 c3bc d11a 473d ad54 7a3b
00000360: 33e3 1c3d 6e56 aebd a6d5 c4bd a5b3 643d
00000370: e043 07bd 0c0f b9bd 0f0b 723c 3e55 913d
00000380: 0ba6 88bc 390a 6c3d 7149 babb d27f d1bc
00000390: 57cb e4bc 1c9b 9ebc 02bc 263d feec 623c
000003a0: 021a e03c 646a a3bd 9278 053d 4817 493d
000003b0: 8000 dabc 3d48 8fbd 8e59 19bd 3748 c4bc
000003c0: ebc9 aaba 79a2 803d b67c 7abd 7f18 31bd
000003d0: 98b5 b03c be63 7ebb 3318 75bb 986b 6dbd
000003e0: 3a05 a7bc 053a 4c3d ee42 c4bc 0684 8f3c
000003f0: 0ce1 09bd 3034 b03a de33 08bd 5753 143d
0.034958355 -0.0063967174 0.05013499 0.07313339 -0.06560162 -0.018880147 -0.0026932494 -0.012429774
-0.02033245 0.018952036 0.09014594 0.0020534392 -0.048126627 0.004147333 0.06524032 0.05018057
0.061804984 0.06998566 0.026533695 0.07315813 0.009849571 -0.037120588 0.02502466 0.01838103
0.035818662 -0.05919541 -0.04139298 -0.064628996 0.07592732 0.04911998 0.036067616 -0.012408333
-0.051758226 0.05300513 0.049529634 -0.08147374 -0.06704994 0.073516004 0.040070236 0.07079618
-0.007852372 -0.029518826 0.021825645 0.059956342 -0.049481012 0.04293254 -0.068231925 -0.048023872
0.030027473 -0.008841859 0.0065594306 0.01933047 0.021364106 0.068795025 0.06487267 0.030092375
-0.016255667 0.0501046 -0.0564581 -0.07627534 -0.023101548 -0.009730622 -0.035109054 -0.011874085
0.07284299 0.07602318 0.06590993 -0.028865712 -0.018018026 -0.028246367 0.043540027 0.08699858
0.03775531 0.0358396 -0.036566947 -0.0065411017 -0.09819303 0.0043014307 0.01887767 -0.07001985
0.035722494 -0.09482698 -0.10812684 -0.07148372 -0.092715144 -0.009126466 -0.10946851 -0.061864607
-0.03892234 -0.11047877 0.032029025 -0.0010780758 -0.013004483 -0.000405255 -0.0033756134 -0.01780456
-0.14063603 -0.11704026 0.022118703 0.028078284 0.051869635 -0.00054491207 -0.0038732109 0.06777865
0.06167222 -0.06438007 0.08301508 -0.04150971 0.032123957 0.025960466 0.048235 0.038376063
0.08653081 -0.040770587 0.06991561 0.07597228 0.0302965 -0.039228298 0.06832665 -0.05867616
0.009473863 0.053958405 0.080659986 -0.050270896 0.04355841 -0.05988383 0.04720806 -0.027357876
-0.07957677 -0.062279943 -0.03880368 0.0050433204 0.08312484 0.08235219 0.014981768 -0.079294905
-0.07661059 0.063733146 0.03889136 -0.025981814 -0.056994412 -0.08442774 0.07421421 0.042712692
0.02109785 0.019453142 0.019403607 0.066475645 -0.05745116 0.040614188 -0.037051924 -0.06646486
0.058894627 -0.054013662 0.03291443 0.046133425 -0.045475397 -0.019129744 -0.023739737 0.027859677
0.024519034 -0.018422388 0.052839123 -0.015248375 -0.09060723 0.028275887 0.021528615 -0.08181089
-0.04292772 -0.023543486 0.0128698405 0.003671718 -0.0076278457 0.02988034 0.069201276 -0.08702672
-0.054067906 0.078739315 -0.033849027 -0.034612536 0.06287547 -0.0142994225 -0.009490896 0.07327571
-0.077733785 0.060376383 0.046026323 -0.044370186 0.07215577 0.017529579 0.06529011 -0.0041130567
0.053649478 -0.033111792 -0.07572711 -0.025163235 0.072024964 0.024150083 0.07198688 -0.015867176
-0.03889784 -0.05716068 -0.01636038 -0.08967711 -0.060533278 -0.072611585 -0.080567285 -0.01567105
0.00052327977 -0.09453065 0.0013497503 0.07222396 -0.058689088 -0.02390529 0.04860956 0.0038197443
0.03830261 -0.08512579 -0.09611063 0.055835385 -0.033023715 -0.09036073 0.014773144 0.07096337
-0.016680738 0.057626937 -0.0056850244 -0.025573645 -0.027928991 -0.019361071 0.040706642 0.013850449
0.027356151 -0.07979277 0.032585688 0.04909447 -0.026611567 -0.069962 -0.03743892 -0.023960216
-0.0013030147 0.06280989 -0.06115409 -0.043236252 0.021570966 -0.0038816775 -0.0037398457 -0.057963938
-0.020388234 0.04986002 -0.023957696 0.017519008 -0.033661887 0.0013443287 -0.03325259 0.03621229

features.2.bias f4 [16]
00000000: 5421 6bbd 10be 10bd 4c68 6f3c 8cc4 133d
00000010: 5d9c 0ebe 0891 e4bc 4641 bc3c a301 ffbc
00000020: 6ea5 48bd 8054 a93d 584a 12bd e9b4 56bd
00000030: dcc5 7d3d f51e c13d f438 9dbd d59d b9bc
-0.05740483 -0.035337508 0.014612269 0.036076114 -0.13926835 -0.027901188 0.022980344 -0.03112871
-0.04898589 0.0826807 -0.03571543 -0.052418623 0.06195627 0.09429733 -0.076768786 -0.022658268

features.5.weight f4 [16, 16, 5, 5]
00000000: 7404 c8bc 838d cfbd a7a5 bb3c 0771 56bd
00000010: 035a 85bd e2b3 6d3d 16b9 abbb 9ebb b3bc
00000020: d4b3 42bd a9ab 23bc d586 d9bd 2b97 fbbc
00000030: e33c 9fbd 1ec2 543d 519f 523d 2b22 9ebc
00000040: 66a4 693c da62 153d eb41 3f3c 2c0d c5bd
00000050: 345d 6e3d 5630 c1bd 8933 6d3d d4fa d4bd
00000060: 04c7 433d e5d4 da3c 020f bebd 047f abbd
00000070: 6d0d 85bc 360f ddbd 850d bebd 23a8 50bd
00000080: 0ca1 98bb a68e d73b 4e44 0b3d 4178 31bc
00000090: ff79 da3d 197a e43d d56a 71bc 5749 e43d
000000a0: 0751 273d 55ca a9bd 7cff d2bd 694b a23c
000000b0: 1cfc 083d dbf6 fbbc e620 4a3c 8a6a dbbd
000000c0: 6354 4a3d fda8 c9bd 1379 70bd 3d38 953d
000000d0: de95 2a3d 959c 99bd 3d77 44bb 5f18 763d
000000e0: dd8a 853c c62a 733d f35f 69bc f005 b53d
000000f0: f86f 8dbd cf94 283d 0748 e33c 62b4 183c
00000100: 0d01 ffbc ec5d 503c 6c33 67bd 66b6 6fbd
00000110: f369 5cbc 5b68 803d 4cce a4bd 6a39 92bd
00000120: c276 2b3b 0225 05bd b31f 2dbd cf7c b1bb
00000130: 0933 76bc 37ba 4ebc 9910 9bbd 815b 48bd
00000140: 9244 473d 076e 7e3d 65f9 293c dc54 a3bd
00000150: e115 2a3d 51ab 13bd 1956 ecbc f115 ddba
00000160: 8eba 9c3c 6a05 8abd ccd5 66bd c073 06bd
00000170: 4048 9fbd 64ee bc3b 6c46 e5bc f2dc bdbd
00000180: 2eb4 6cbd 582a e6bc c9bf 18bd 2817 083d
00000190: 6548 893c 9d72 663d 1c72 4ebd 11a1 c3bc
000001a0: 2753 9aba e2fc 7bbd cfce b7bd 63e9 563d
000001b0: afdf f1bc e8ce 7d3d bbbd 4dbd b08a cc3b
000001c0: 0fb4 403c 9ada a0bd 45bd 68bc 9660 c2bd
000001d0: 1685 4bbc 7a99 423d b36d f5bc ab92 03bd
000001e0: 54a1 fa3c c3d6 c1bd 6980 20bd 1e35 7a3d
000001f0: 0101 333d 1a8f cd3c 81f4 0bbc 46b5 293d
00000200: 34f8 263d 4649 a0bd b3af cbbb af4a 43bd
00000210: a791 9abb 985c cfbd 4bc7 b1bb 9a00 c3bd
00000220: 5b68 3cbc 188d 16bd 4396 18bd 37f6 2ebc
00000230: 192d 2fbd bd93 a9bd 1444 303d 77b2 833d
00000240: 0816 5e3d 2e3a a2bc 80af f5bb e68a 443d
00000250: 5101 d5bd 457e 66bd b75a 223d 76d8 04bd
00000260: 3c8d 94bc c609 843d a863 d53c 579b 57bd
00000270: dfe5 083d 96a0 9f3c dafa 6fbd f225 573d
00000280: 60ac c1bc 39c6 5e3d 7ca0 823a 65b0 b53d
00000290: c867 69bc efab 56bd 4b8b 9fbb efc5 95bd
000002a0: d7c8 203d 675a 743b 8dd9 683d 3037 75bd
000002b0: 6ff2 a23d 65e0 823d fec4 ae3d 0f28 a4bd
000002c0: b501 7c3d 5c3a 5abd fc1f 823d 317d 303d
000002d0: 5aed 973c 4e75 2c3d 2fcf 7f3c d05a 933d
000002e0: cc1a d3bc a031 b4bc 9afb 1a3c 2925 54bb
000002f0: 0613 a63c c38e fb3c d178 523d aa4a cb3c
00000300: 5185 97bd 6d68 8b3d 8cea b4bd d9bb 39bc
00000310: e072 863d e001 8bbd 0f56 31bd 02ed 9bbd
00000320: faab 38bd 9e99 81bd 3d33 85bd c725 4bbd
00000330: e69f b13d 381e 253d 0842 813b b9e0 923b
00000340: 282e 20bd c494 4ebd 1e12 663d 78ab d73b
00000350: d62e 33bd 53de 0b3d 6f99 20bd 21b3 aebd
00000360: f6b2 78ba 3ac2 013d 9e7a 1c3d fc8a 98bd
00000370: 63dd 40bd 5138 163d 9994 673d b8e8 ac3d
00000380: 0a95 40bd 7198 c83c cd36 87bd fa98 9abc
00000390: c8db c73c a722 73bc 00eb 5cbc 50af 453c
000003a0: 6da0 89bd 6c90 8ebd 480f 9ebd 3714 14bd
000003b0: 7b33 77bd 9564 ac3c 950e 66bd 0c51 a7bc
000003c0: 7e51 a5bd 926d 2abd ef3f 9b3d 3203 0c3d
000003d0: 0242 0cbd 4325 823d 993b 2cbd 1b11 cdbc
000003e0: 21a8 3e3d 30b4 8abd d82c b9bc 5399 323d
000003f0: 6e62 aa3a ea44 c13c fbc5 0bbd ec56 09bd
-0.024416186 -0.10134413 0.022906138 -0.052353885 -0.06511309 0.058032878 -0.00524057 -0.021940049
-0.04753478 -0.009989657 -0.1062142 -0.030711731 -0.07775285 0.051942937 0.051421467 -0.019303402
0.014260387 0.036471225 0.011673431 -0.09621653 0.058194354 -0.094330475 0.057910476 -0.10399404
0.047797218 0.026712844 -0.09280206 -0.08373836 -0.016241753 -0.10793917 -0.092799224 -0.050941598
-0.00465787 0.0065782843 0.034000687 -0.010831893 0.106678 0.11156101 -0.014734943 0.11146801
0.040848758 -0.08290545 -0.10302636 0.019811349 0.033443555 -0.030757358 0.012336945 -0.1071368
0.049396884 -0.09846685 -0.058709215 0.07286117 0.04164683 -0.07500569 -0.0029978298 0.060081836
0.016301567 0.059366964 -0.0142440675 0.08839023 -0.06906122 0.04115754 0.027744306 0.00932035
-0.03112843 0.012717705 -0.056445524 -0.058523558 -0.013452995 0.06269904 -0.080471605 -0.07139857
0.0026163314 -0.032505997 -0.04226656 -0.0054164897 -0.015026816 -0.012617639 -0.07571525 -0.04891539
0.048649378 0.06211665 0.010374402 -0.0797517 0.04152477 -0.036052052 -0.028849648 -0.0016867501
0.019131925 -0.06739314 -0.056356236 -0.03282523 -0.077774525 0.005765723 -0.027987681 -0.092706576
-0.05778902 -0.028096363 -0.037292276 0.03322521 0.016758153 0.056261647 -0.050401792 -0.023880513
-0.0011774049 -0.061520465 -0.089749925 0.05246867 -0.029525606 0.0619649 -0.05022977 0.006242119
0.011761679 -0.07854195 -0.014205282 -0.094910786 -0.012421867 0.047509648 -0.029959535 -0.032122295
0.030594505 -0.09464791 -0.03918496 0.061085813 0.04370213 0.02509265 -0.008542181 0.04143264
0.04076405 -0.07826476 -0.0062160133 -0.047678646 -0.00471707 -0.10125083 -0.005425369 -0.09521599
-0.01149949 -0.03675565 -0.037252676 -0.010678819 -0.042767618 -0.08280132 0.043033674 0.06430524
0.05422023 -0.019803133 -0.007497728 0.047984026 -0.10400642 -0.056272764 0.039637294 -0.032432996
-0.018133752 0.06447177 0.026048496 -0.052638378 0.033422347 0.019485753 -0.05858884 0.05252642
-0.023641765 0.05438826 0.0009966041 0.08871535 -0.014245935 -0.052410062 -0.0048689 -0.073131435
0.039254036 0.003728533 0.056848098 -0.059867084 0.07956397 0.06390456 0.08533667 -0.08015453
0.061525065 -0.053278312 0.06353757 0.04308814 0.018545795 0.042104058 0.015613361 0.071950555
-0.025769614 -0.02199632 0.009459401 -0.0032370782 0.020272743 0.030707723 0.05138475 0.024815876
-0.07398475 0.06807027 -0.08833799 -0.01133629 0.065648794 -0.06787467 -0.043294962 -0.07613565
-0.045085885 -0.06328128 -0.065039136 -0.049596574 0.08673076 0.040312022 0.003944639 0.0044823554
-0.039106518 -0.050434843 0.05616962 0.00658172 -0.043745838 0.03414757 -0.039208826 -0.0853026
-0.00094871165 0.03167937 0.038202874 -0.07448384 -0.04708613 0.0366748 0.0565382 0.08442825
-0.047017135 0.024486752 -0.06602249 -0.018871773 0.024396792 -0.014839805 -0.013483763 0.012065724
-0.06720052 -0.0696114 -0.077177584 -0.03615209 -0.06035183 0.021044055 -0.05616625 -0.020424388
-0.08072184 -0.0416084 0.07580554 0.034182735 -0.034242637 0.06354763 -0.042049024 -0.02503257
0.04654706 -0.06772649 -0.022604391 0.043603253 0.0012999305 0.023592431 -0.034124356 -0.03353016

features.5.bias f4 [16]
00000000: 9f41 263d 539a 5abd e9bd 9dbc 00d7 333d
00000010: 11ed 34bc fc25 39bd 04bf 90bb 6e7c 87bd
00000020: f87d 363c 4d9f fa3b cc92 b43c a1e9 1f3d
00000030: 6bdb 7a3d 557e bf3c ad92 95b9 b24b a5bc
0.040589925 -0.05336983 -0.019255595 0.04390621 -0.011042849 -0.04520224 -0.004417302 -0.0661553
0.011138432 0.0076483847 0.022042654 0.039041165 0.06124441 0.02337567 -0.00028528777 -0.020177696

features.7.weight f4 [16, 16, 5, 5]
00000000: cf0b af3d de4e c33d 4327 4a3d 6518 63bd
00000010: 8654 c83c 7331 373d d7c8 073e b5a1 153d
00000020: 3376 f0bd 0d59 b7bd 7995 2a3e de98 d23d
00000030: 7d8a a63d df97 a43c a18e b23d 0a6b 23bd
00000040: 1fc1 9a3c 91f3 123d 967e 6b3b a81d 4ebd
00000050: 9ae9 ea3d d555 0d3e c7b4 bfbc aa03 07bd
00000060: 41d7 cd3c a346 05bd 5fbb 9fbd 1727 c53b
00000070: 6be1 27bc 9171 22bc 385f 973d 82b9 f83a
00000080: c721 c83c d4ee 99bd 9a1a 823d 50c0 853b
00000090: 8d48 523d 0c02 863d 946e 7c3d 3a80 babd
000000a0: 18ee 803d 0a8e 4abd 9325 9b3c 4d72 293d
000000b0: e5d4 9a3d f245 3b3b 1200 0e3d e374 23bd
000000c0: ac65 a23d 5120 723d 3cf6 9ebd 189d 523c
000000d0: 3247 30bd eb45 25bd 48d5 333c bc99 72bb
000000e0: f343 79bc 45aa 43bd bbb9 ddbd 7175 8ebd
000000f0: b15f 57bd 71de b4bd fe2f acbd 4b00 93bd
00000100: faf3 cdbc 946d 87bd 4b12 c7bd 60ac f6bd
00000110: a984 60bd d9de d7bd e076 efbc ef2f 1bbd
00000120: 8efd 6c3d bfde 4c3c e36f 79bd eef5 333d
00000130: 0cfb 86bd f93b 99bc 055e 50bb 0172 16bd
00000140: aaac 143c 7591 93bd 7c60 c23c 138e dcbd
00000150: 53f5 9cbd a143 943d 26f5 dc3b b88e b33d
00000160: 50f8 593d 5ed1 573d 831e fe3c 9848 a13d
00000170: ab22 913d bb00 21bd e0e1 99bc 8361 cf3b
00000180: d4de 17bc 17ed cdbb 2013 43bd c1a7 353d
00000190: f013 343c d517 cfbc f010 10bd 6e1a 4dbd
000001a0: 829d 36bd e441 9c3d 4785 21bd da59 a0bd
000001b0: 516f 93bd 38b2 163d 4ff2 9ebd 2a02 523d
000001c0: 9a69 c33c dd53 bcbd d55a 103d 6e5f 333d
000001d0: 4689 803d df02 78bc 795c 923d f7e5 903d
000001e0: 994d 48bd a8b1 7dbd 6f09 193d 7fe9 a13d
000001f0: 50ca 073d d248 313c 2d86 fb3c bae3 9ebd
00000200: fba8 a9bc 2b45 ecbd c7f2 babc 07d5 113d
00000210: c5d7 e2bd 686a be3b f4db 72bd 7ea2 0bbd
00000220: 0cc8 96bc b0f4 9e3d 4da7 a1bd 5361 43bd
00000230: 5a99 a63d ddfe b5bc 0519 91bd d73a 9f3d
00000240: 24fc 1d3d 5d0e 99bd 292b 4f3c 0586 9e3d
00000250: a435 503d 4816 af3d cd4c 7e3d 7fd9 bf3d
00000260: 1485 623c a8cd 5a3d d9f9 a23d 33f9 a23c
00000270: fcf1 09bc ace0 8fbd 8e7a 80bd 9e2c 12bd
00000280: 59e4 b73c a190 833d b923 723d b78f f6bb
00000290: 0920 2bbc e2f8 b93d 46ab be3d 77c9 c33c
000002a0: 6156 b93d b5f3 27bd f109 a93b b701 be3d
000002b0: da79 11bd 61ed 703d 0fc1 243d a649 99bd
000002c0: 2bc6 083d ce2b f13c 92a7 3f3c 4f80 8fbd
000002d0: d3e6 a43d d772 fb3c ea2f 9fbd e4f8 cb3c
000002e0: 483f f0bc e122 523d 9668 d23b ba4c 483d
000002f0: d4aa a33d cb38 523d a513 b1bd 28c9 1ebc
00000300: 86c6 be3c 345b 9abd bb65 6d3d ecac ddbd
00000310: 4b0e a7bd 606f 52bd ab87 0f3d 1a44 29bd
00000320: 8a96 2abd f1f1 acbc 37dd 53bd 0f5e c3bc
00000330: 414e 17bd b94b ac3c 7591 143d 24f8 afbd
00000340: f0e1 9a3d 09c9 25bd 7bfc 853c 92ff 53bd
00000350: 6298 56bd 5b50 bd3d d3fa 0f3d 0b8c 95bb
00000360: 8f68 843d 4568 a6bd c13a 17bc 9e44 1fbd
00000370: 44e6 7dbd f46f 343d 50d3 c1bd 62d9 49bd
00000380: 2d01 98bd 423d 5e3c 10d6 51ba 4469 1a3e
00000390: 8f17 5f3d 1cf7 363d 8098 abbd 8882 7abc
000003a0: 0418 a43d 16c2 81bd 2829 b8bc 7b74 883d
000003b0: ea11 c7bb ac3c 183d 389d 173d b270 ac3d
000003c0: 9c0f 2ebd 2e46 763d 6700 003e b357 7b3c
000003d0: 228c 14bd 26c1 97bb 1bd0 97bc 9620 0d3e
000003e0: 53f9 153d 86fc 833d 4cea 70bc f7c2 f7bc
000003f0: ac30 ddbd c1b4 94bc 25f2 abbd a1c0 5e3a
0.08547174 0.09536527 0.04935385 -0.055443186 0.024454366 0.044724893 0.13260208 0.03653117
-0.11741295 -0.08952532 0.16658582 0.10283063 0.08131883 0.020091949 0.087186106 -0.039897002
0.018890915 0.035876814 0.0035933605 -0.05032125 0.11470337 0.13802274 -0.023401631 -0.03296248
0.025127055 -0.032538068 -0.0779941 0.0060166228 -0.010246615 -0.009914772 0.073912084 0.0018976184
0.024430169 -0.07516256 0.0635273 0.0040817633 0.05133872 0.06543359 0.061628893 -0.091064885
0.06295413 -0.049451865 0.018938815 0.04136877 0.07560138 0.0028575626 0.034668036 -0.039906394
0.079295486 0.05911285 -0.07761809 0.012854837 -0.043036647 -0.040349882 0.010976143 -0.0037017902
-0.015213954 -0.047769804 -0.10826441 -0.06955994 -0.052581493 -0.0883149 -0.08407591 -0.0717779
-0.025140751 -0.06612697 -0.09720286 -0.12044597 -0.054814015 -0.10540552 -0.029231489 -0.03788751
0.057858996 0.012504279 -0.06089772 0.04393571 -0.06590852 -0.018705355 -0.0031794321 -0.036729816
0.009074369 -0.07205478 0.023727648 -0.10769286 -0.076639794 0.07239462 0.006743091 0.08767456
0.053215325 0.052689902 0.031020408 0.07875174 0.070866905 -0.039307337 -0.018784463 0.006328763
-0.009269435 -0.006284367 -0.04762566 0.044349436 0.010991082 -0.025279919 -0.035172403 -0.050074033
-0.044583805 0.07629755 -0.039433744 -0.07829638 -0.07198966 0.036791056 -0.077610604 0.051271595
0.023854066 -0.09195683 0.035242874 0.04379218 0.06276183 -0.015137403 0.07146544 0.07075112
-0.048902128 -0.061937004 0.037362512 0.07905864 0.033151925 0.010820584 0.030703628 -0.07758279
-0.020710459 -0.1153663 -0.022820843 0.03560355 -0.11076311 0.0058110245 -0.059291795 -0.03409051
-0.018405937 0.07761514 -0.07893238 -0.047700237 0.08134718 -0.022216255 -0.0708485 0.07774895
0.03857054 -0.07473443 0.0126445675 0.07740406 0.050832406 0.08549172 0.06208496 0.09367656
0.013825674 0.053418785 0.07957811 0.019894218 -0.00841951 -0.07025275 -0.062733755 -0.03568708
0.022447752 0.0642407 0.0591161 -0.0075244564 -0.0104446495 0.09080674 0.093100116 0.023899777
0.090496786 -0.0410039 0.005158656 0.09277671 -0.035516597 0.058820132 0.040223178 -0.074847504
0.033392113 0.029439833 0.011697667 -0.07006895 0.08051839 0.030694408 -0.07772811 0.024898954
-0.02932705 0.051302794 0.006421159 0.048901297 0.07991567 0.051323693 -0.08646325 -0.009691514
0.023288023 -0.07536927 0.057958346 -0.10823998 -0.08157023 -0.051375747 0.035041492 -0.041324712
-0.04164747 -0.02111146 -0.05172464 -0.023848562 -0.036939863 0.021032201 0.03627153 -0.08592251
0.075626254 -0.040474925 0.016355744 -0.051757403 -0.052391417 0.09243842 0.035151314 -0.0045638136
0.064652555 -0.081253566 -0.009230317 -0.038883798 -0.061987177 0.04405208 -0.09464133 -0.049279578
-0.07422099 0.01356441 -0.0008004615 0.15079218 0.054465827 0.044669256 -0.083786964 -0.01528991
0.08012393 -0.06335847 -0.022480562 0.06662842 -0.0060751336 0.037167236 0.03701517 0.084199324
-0.042495355 0.060125522 0.12500153 0.015340733 -0.036266454 -0.0046311794 -0.01853185 0.13781962
0.036614727 0.064446494 -0.014704298 -0.030244334 -0.10800299 -0.018152596 -0.08395795 0.0008497332

features.7.bias f4 [16]
00000000: 2c93 d63c 31d1 853b 3f9a 8e3c 3c8e 4fbb
00000010: 5a78 fe3c 16c0 f93c 9e92 5fbd 5881 97bd
00000020: b5aa 3abc b356 35bd 4a27 25bd e82e 733d
00000030: 8452 afbd 4088 e9bd a3cd b13c 25f4 72bd
0.026193224 0.0040837754 0.017407535 -0.0031670472 0.031063247 0.030487102 -0.054583184 -0.07397717
-0.011393239 -0.044272136 -0.040320672 0.059370905 -0.085606605 -0.11402941 0.0217045 -0.059314866

features.10.weight f4 [32, 16, 5, 5]
00000000: 6865 cbbc 3e4f a4bd d62a d3bd 4fd0 2ebd
00000010: a533 8e3d d1a0 91bc bc06 d03d 799c 913d
00000020: 9c83 a7bc aa48 ea3c 28e4 d53d 53d3 2e3e
00000030: 4e06 233e ecd8 ef3d 8aaa 293e 14e8 24bd
00000040: 865e ad3c cb02 9dbc 6fb0 21bc d915 693d
00000050: 4722 5dbd b9a9 cebd e485 5bbd 2cd6 0abd
00000060: adec 523d 2992 a0bd 405e 663c 61cc 70bd
00000070: 13c4 073d 464e b33d 1cb7 943d 951d 4a3e
00000080: e9f2 463e 0cf7 833e 854f 933e 4074 93bb
00000090: 68f8 003e bb76 c23d ba50 193e e12b d23d
000000a0: a5a7 d73c 2b0a ab3b f7fb de3d 8e72 0ebd
000000b0: e8c6 303d e21b 8bbc 6706 e13c eec3 8e3d
000000c0: dd5d c83c e45c 0fbd 81bc 10bd 3db0 ebbd
000000d0: 5937 7ebc b569 debc 9a05 be3d 95ad 23be
000000e0: 6fca 24bd 431f 3d3b bbe2 1fbd 0d68 9f3d
000000f0: 8921 38be 5181 0fbd 1910 7f3d 20e6 853d
00000100: f05f 9b3d 42e0 3cbd fe02 37be 9e66 9cbd
00000110: 8e91 c73d c928 093e c11e fa3d 20f7 1dbe
00000120: d8b1 6abd fcae 8abd 7fe2 d83d 2658 52bd
00000130: 2c57 5c3d cf4d ddbc f08f 4abd 4810 8fbc
00000140: a185 fabb f6e3 143d fdaa 4bbd 6c4c bcbc
00000150: d67b 093b 5f35 a03d cfe6 103d 0cc9 db3d
00000160: 0e32 aa3d 4186 e23d aeb1 5c3c 4abc a03d
00000170: 676a 3fbc 93e8 1e3d c8ce a83d 4fda 883d
00000180: 10e6 043c 38ad 4ebd 52e6 49bc e1f8 bb3d
00000190: 89bd 1b3d 0c2e cabc d2ed aa3b 7bc0 f73c
000001a0: 64e0 843d f6e4 493d 42b3 73bd b368 713d
000001b0: 1f31 953c 42bc a7bc 0820 1dbd e55f 1abd
000001c0: dea0 16bd f9f3 27bd 12fd 2dbc 2ce1 683c
000001d0: ae43 cabc 29b9 17bd f88f 873d 2a0f 4cbc
000001e0: 71cc 69bc bfb8 c63c a7f5 15bd 68d5 163d
000001f0: 2594 683d 0b8d 593c be13 c2bc ecae 483d
00000200: afe0 78bb 6229 533d ab49 4abc bf60 f53a
00000210: 5a1e 5a3d e52b 38bc f53d 9b3d 45a2 f5bc
00000220: fc3b 743d bc58 7abd e697 abbc af32 2ebd
00000230: 6f4e 11bd 23f5 853d 6454 1bbd 9750 71bb
00000240: b95b 6abd d75e 69bd a4ab 763d 09cb fabc
00000250: b972 5fbd baa7 94bd 8cb4 c9bc 87c1 023d
00000260: 80ae 623d 5dde 0a3d 4187 513d 8f20 803d
00000270: f447 193d 95ac 4dbd 45b8 463d 0400 523c
00000280: 730f 52bc feff f23c a19a 223d fcd9 313d
00000290: a64d 5f3d a221 8dbd f3db 9abd 81c4 533d
000002a0: ff95 70bd ddde 11bc d7eb 4f3c 492d 0bbd
000002b0: 408c 5ebc 9ce1 c63c f89c 64bd 7642 9dbd
000002c0: f485 383d 1e2e 2dbd fe67 263d b5a4 92ba
000002d0: d3e9 473c e830 e6bc 4ee4 ce3b 2ce1 34bd
000002e0: 1c0a e4bc 4a18 8dbc 63a7 37bd c1b3 83bc
000002f0: 8408 8cbc 0330 44bb 434a 58bd a41b aabc
00000300: 05b3 303d 0388 ebbb f472 2b3c 210f 253d
00000310: 36b0 1c3c e105 febc 28b3 ca3c 2c29 49bd
00000320: 575d 9ebd 8a98 28bd 0bce 423d 1cf6 b83c
00000330: fe55 81bd 1477 c53c 8552 6e3d 6b29 93bd
00000340: d0cb 08bd 6358 8cbd 12f2 debc 27b6 0bbc
00000350: 6ad5 9bbd 61c7 2f3d 3115 e43c 5b5f c03c
00000360: b7a5 493d 8ec4 0fba 390d 3dbc 3f94 633d
00000370: 4cd3 01bd b1f5 0a3d 8619 303d ee7f cb3c
00000380: 0f0d 903a 8f67 87bd 81f2 51be 0735 76be
00000390: 84b1 bcbc 7684 85bd 810f 76bd c768 1ebe
000003a0: 1238 82bd 7a6f 093d 97cc f83c 2c2b bc3c
000003b0: 9d96 73be f905 cebd 1322 5ebe 625b 8dbe
000003c0: 1ee6 963b 3fa9 59bd ba1d a9bd 657a 42bd
000003d0: bc8a 36bd 52ce 8f3a 32a4 fabd 5817 14be
000003e0: a9c4 a8bd 0865 e03c c973 90bd fd06 bcbd
000003f0: 7748 983c fecc cbbb 588e c33c e92e 8cbd
-0.024828628 -0.08022927 -0.10310905 -0.042679127 0.06943444 -0.017776879 0.101575345 0.07109923
-0.020448498 0.028599102 0.10443908 0.17072801 0.15920374 0.117112964 0.16568962 -0.04026039
0.021163236 -0.01916637 -0.009868725 0.0569056 -0.053987768 -0.10090966 -0.053594485 -0.033895656
0.051495243 -0.07840378 0.014060557 -0.05878866 0.033145975 0.08755164 0.07261488 0.19737847
0.194286 0.2577442 0.28771606 -0.004499942 0.1259476 0.09495302 0.14972201 0.102622755
0.026325056 0.005219718 0.10887902 -0.034777217 0.04315844 -0.016981069 0.027468873 0.06970964
0.02445882 -0.035000697 -0.03533602 -0.11508224 -0.015516126 -0.027150014 0.09278412 -0.15984185
-0.04023212 0.0028857745 -0.039034586 0.07783518 -0.17981543 -0.035035435 0.06227121 0.065380335
0.07586658 -0.046112306 -0.17872235 -0.0763676 0.09744559 0.13394465 0.12212897 -0.15426302
-0.05729851 -0.06771657 0.10590076 -0.051353596 0.05379407 -0.027014641 -0.049453676 -0.017463818
-0.0076453243 0.036350213 -0.049723614 -0.02298566 0.0020978353 0.0782268 0.035376366 0.10731706
0.083103284 0.11060763 0.0134700965 0.07848413 -0.011683083 0.03879602 0.082425654 0.06682264
0.008111492 -0.050458163 -0.012322979 0.09178329 0.03802255 -0.02468016 0.0052163387 0.030243149
0.064881116 0.04929062 -0.059497125 0.05893774 0.0182119 -0.02047551 -0.038360626 -0.03768911
-0.03677451 -0.041004155 -0.010619419 0.014213841 -0.024690475 -0.037041817 0.06619257 -0.012454787
-0.014269934 0.024258016 -0.036611225 0.036824614 0.056781907 0.013278256 -0.023691054 0.048994943
-0.0037975719 0.051553138 -0.012346665 0.0018720849 0.0532516 -0.011240934 0.07580177 -0.029984603
0.059627518 -0.06111978 -0.020946454 -0.042528804 -0.03547519 0.06540897 -0.037922278 -0.0036821717
-0.05721638 -0.056975212 0.060222283 -0.030614393 -0.054552767 -0.07258554 -0.024622224 0.031922843
0.055342197 0.03390347 0.05115438 0.0625621 0.037422135 -0.050213415 0.048515577 0.012817387
-0.012821066 0.029663082 0.039698247 0.043420777 0.05451741 -0.068911806 -0.07561483 0.051701073
-0.058736797 -0.008903232 0.012690506 -0.033978734 -0.013583243 0.0242775 -0.05581376 -0.07678692
0.045049623 -0.04228031 0.04062652 -0.0011188003 0.012201744 -0.028099492 0.006313837 -0.044160053
-0.027836852 -0.017223496 -0.044837367 -0.016076924 -0.017093904 -0.0029935844 -0.052805196 -0.020765133
0.043139476 -0.0071878447 0.010464419 0.04029763 0.009563496 -0.031008663 0.024743631 -0.04911153
-0.07732647 -0.041161098 0.04755978 0.022578292 -0.0631523 0.024104632 0.058184166 -0.07185634
-0.033397496 -0.06852796 -0.027215037 -0.008527315 -0.07609065 0.042914752 0.027842136 0.023482969
0.049230304 -0.0005484306 -0.011538797 0.0555613 -0.03169565 0.033925716 0.04299309 0.024841275
0.001099022 -0.06611549 -0.20502664 -0.24043666 -0.023033865 -0.065194055 -0.06007338 -0.15469657
-0.06358351 0.033553578 0.030370994 0.022969805 -0.23787923 -0.10059733 -0.21692686 -0.27608782
0.004605069 -0.05313992 -0.08257623 -0.047480006 -0.0445659 0.0010971522 -0.12238349 -0.1446203
-0.08240635 0.027391925 -0.07053334 -0.091810204 0.018589241 -0.0062195053 0.023871586 -0.06844885

features.10.bias f4 [32]
00000000: 1385 94bc bb38 97bc 4215 a73c d322 b2bc
00000010: 022c 9c3c fc59 3d3c 2ecc 983c 848c babd
00000020: 520d 443c d9cf ce3c f906 d83b 1875 9cbd
00000030: bd70 2a3d b3a5 89bc 9fa9 813b f83d d7bc
00000040: 5cc8 fc39 853c 183d 5329 2d3d e213 ff3c
00000050: 3224 b43c 6efe 44bc 0f0c 803c eb0b 593c
00000060: 0619 65bd 317e 30b9 a355 513d 990b 473c
00000070: 1428 a7bd 66a7 09bd bde2 6fbc 2fd7 bfbc
-0.018129861 -0.018459668 0.020395879 -0.021745121 0.019063953 0.0115570985 0.018652048 -0.091088325
0.011966066 0.025245594 0.006592628 -0.07639521 0.04161142 -0.016802644 0.003956988 -0.026274666
0.00048214465 0.03716709 0.042275738 0.03113741 0.021989916 -0.012023551 0.01563075 0.01324747
-0.055932067 -0.00016831678 0.05110706 0.012148761 -0.08161941 -0.03360691 -0.014641461 -0.023418037

features.12.weight f4 [32, 32, 5, 5]
00000000: 475f 1fbc 81d0 4d3d 4f46 88bd fa9d f3ba
00000010: a48b 86bb cfc7 71bd bd7d 52bd 1d79 793c
00000020: 897a c0bc 495b 4cbd 3ba9 1c3d f421 9f37
00000030: bab9 35bd cc24 453d 7d3e b9bc 2ea7 1ebd
00000040: e275 e6bc e1d3 343d 0155 023d 9e28 abbc
00000050: cc63 5bbd 3a30 abbb 2175 993c 5439 553d
00000060: 66f9 70bd 0be6 523b 1fdf 9bbc 9154 2a3c
00000070: 5e9a 2b3c ed92 42bd e75f 343c 3421 1d3d
00000080: 7daa 01bd fba4 89bd dc4b 3dbd d7fc 4cbd
00000090: d474 cabc 4511 5cbd 6e70 50bd c972 353d
000000a0: ce0d b3bc c9a2 843a fb1a d8bc 61af fc3b
000000b0: 12d5 08bd 9b2e b63c b0ef 99bd a2aa 54bd
000000c0: 425e 2b3d 5af8 1e3d 760e a2ba 9fd5 36bc
000000d0: 06c8 48bc 8340 16bc bae8 14bd 9acc 63bc
000000e0: 060e 5abd 0cc6 1c3c f1a9 dfbd eca3 5cbd
000000f0: 3aab dd3d 528b fb3d c39a 073e 836f 8b3d
00000100: 7ca2 c93c bd51 293d 267a b83d 9091 913d
00000110: f4f5 643d 6ee6 5a3d 772a 97bd 8dff 5ebd
00000120: a85c 28bd 76e0 a8bb adee 86bc 54f1 85bc
00000130: d6f2 1c3d b7d3 debc 03ca 363d f2f6 04bd
00000140: 6f3c 103d 2c6e 2abd a384 973b 8eee 4dbd
00000150: c173 19bd df25 f5ba c22d 0dbd 0c19 9cbc
00000160: dd6f 44bd 93f0 973c bbfb 843c 76a4 c23c
00000170: c791 4d3d 125f d73c 8a44 ecbc 4d71 003d
00000180: 8993 e6bc 5c47 e6bc 2a54 d3bb 2670 58bc
00000190: 2db4 3fbd b20b c7ba e33a e4bb 56bd 11bd
000001a0: c442 e23c b346 e6bc ac0e 6fbd e218 29bd
000001b0: 326f 81bb d46d ea3c ab05 533d 6d55 85bd
000001c0: 128c 58bd 69e8 313c 129c 213d dd91 3fbc
000001d0: d2cf bcbb 41e7 393d e17c b93c 19e7 493d
000001e0: 0dec 163d 060d 833d 511f 8d3c 7443 833d
000001f0: 559f e43b f717 a73d 4459 833d de7d 7bbd
00000200: 8a7b 02bd 7b14 02bd 70a2 99bc daf9 3cbd
00000210: 91a4 613c 5ad6 fcbd fe0c a9bb 0b78 853d
00000220: d6b7 5e3d 011b debc 5188 003d f680 463c
00000230: c005 683d 6194 4d3d 2af0 503d d023 fb3a
00000240: 8be2 12bb 83e7 bb3b 32a1 ab3c c77b 4dba
00000250: f39f 9bbc 10bd 1cbd 74c2 863d affc 703d
00000260: ea8f 00bd a077 de3c 5a63 923d aa02 133d
00000270: be72 9e3d d826 7d3d fa18 a23c 4f6a 2a3b
00000280: b8cc 33bd 956d 693c f973 2d3d 152f 17bd
00000290: 04e4 f63c 8b8e a5bc ab9e 83bd 0f45 61bd
000002a0: 85c3 823d fda1 cbba 739c febb a490 413c
000002b0: b987 bebc c668 e33c ab23 4f3c 146f 723e
000002c0: 8b1a 023e 7bf2 333e 22fb 2bbd 1baa d2bc
000002d0: 99b7 443e f53d 473e 9e5d 853e 9d94 d33b
000002e0: 2017 d3bd 53be febc 2975 653b 86d7 b1bd
000002f0: b18a 81bd 9b45 debc 134b 15be 31d0 e2bd
00000300: 9e3f 51be ff72 e0bd a4a9 05be 4491 81bd
00000310: d65e b6bd 13e3 70bd d83d c7bd 5d37 bbbd
00000320: 958d 72bd 15e5 963c 9da4 913c 7e97 823b
00000330: 550b 7ebd 4d66 d43b 0c9c cabd 7a03 fabd
00000340: 4e8a 04be 24dd 89bd 5967 00bc fec1 543c
00000350: 9df2 32bc 31db 163c d9c4 b33c b0ae 25bc
00000360: 4609 c63d 8b25 9d3d edbb 223d a4a7 8c3c
00000370: 0ce9 843d 2cba dd3d f181 a53d e55f 183d
00000380: 87e3 b53c 2e47 63bd 1c36 70bd 27d0 59bb
00000390: 98df be3c bf0f 11bc 8c16 c8bc 7c55 01bd
000003a0: 2079 45bd f8a3 82bc 5d97 c2bc 4ee3 bbbd
000003b0: 2d39 9639 836f 83bd 1ffd ce3c 24ab 653c
000003c0: 3f7a 2fbc aa9c e33c 1b95 0e3c 650c e13c
000003d0: af51 d0bc 3c4e 0dbd 3d61 b33b e450 503c
000003e0: d672 683c 4803 143d 0fe4 0abd d5a9 b23a
000003f0: 4fa8 963d 6153 9f3d 815b 013c 2ab0 ec3c
-0.009727306 0.050247673 -0.06654035 -0.0018586509 -0.004106002 -0.059028443 -0.051389445 0.01522663
-0.02349593 -0.049891744 0.03824733 1.8970088e-05 -0.044366576 0.048130795 -0.022612805 -0.038733654
-0.028132383 0.044147376 0.031819347 -0.020893391 -0.05356197 -0.005224255 0.01873261 0.052056625
-0.058831595 0.0032180573 -0.01902729 0.010396139 0.010473816 -0.0475034 0.011009193 0.038361743
-0.03165673 -0.06720921 -0.046214923 -0.050045814 -0.024713911 -0.053727407 -0.05088847 0.04429892
-0.021857169 0.0010119315 -0.026380053 0.0077113365 -0.033406325 0.02223902 -0.0751642 -0.05192054
0.041837938 0.038811065 -0.0012363929 -0.01115933 -0.012254721 -0.009170654 -0.036354758 -0.013903761
-0.05323603 0.009568702 -0.109210856 -0.053867266 0.108236745 0.122824326 0.1324263 0.068083785
0.024613611 0.041337717 0.09007673 0.07107842 0.05589862 0.05344241 -0.073811464 -0.05444293
-0.04110399 -0.005153711 -0.016471231 -0.016350426 0.038317524 -0.027200563 0.044626247 -0.032462068
0.035213884 -0.041608974 0.004623966 -0.05027633 -0.037463907 -0.0018703303 -0.034467466 -0.019054912
-0.047958244 0.018547332 0.016233316 0.023760062 0.050187852 0.02629045 -0.028841276 0.031358052
-0.028146522 -0.028110199 -0.006449242 -0.013210332 -0.04680269 -0.0015185981 -0.0069650277 -0.035580955
0.027619727 -0.028109884 -0.0583636 -0.041283496 -0.003950023 0.028616823 0.051519077 -0.06510434
-0.052867956 0.010858634 0.03945548 -0.011692491 -0.005762079 0.045386557 0.022642555 0.049292658
0.03684621 0.063989684 0.017226847 0.0640935 0.0069770017 0.08158868 0.064135104 -0.061399333
-0.031856097 -0.031757813 -0.018754214 -0.046136715 0.013772146 -0.12345572 -0.0051590195 0.06517037
0.05437454 -0.027112486 0.03138 0.012115708 0.05664611 0.050190333 0.05101029 0.0019160453
-0.0022412862 0.0057343855 0.020950887 -0.00078385737 -0.018997168 -0.03826624 0.06580058 0.058834728
-0.031387247 0.027156651 0.07147856 0.035891213 0.07736729 0.061804622 0.0197873 0.0026003306
-0.043896407 0.014247318 0.04234693 -0.036910135 0.030138023 -0.020209571 -0.06426748 -0.0549975
0.06384949 -0.0015535947 -0.007770115 0.01181427 -0.023258077 0.02775992 0.012642781 0.23675185
0.12705438 0.17572968 -0.041987546 -0.025715878 0.19210662 0.19457228 0.26047987 0.006456925
-0.10307145 -0.031096613 0.003501246 -0.08683686 -0.063252814 -0.0271328 -0.1457942 -0.110748656
-0.20434424 -0.10959434 -0.13052994 -0.06326535 -0.08904807 -0.058810305 -0.09728593 -0.09141419
-0.059217054 0.018419782 0.017778689 0.0039853444 -0.062022526 0.0064819218 -0.09893045 -0.12207694
-0.12943384 -0.06731632 -0.00783714 0.0129857045 -0.010922101 0.009207533 0.02194445 -0.0101124495
0.096697375 0.076731764 0.03973 0.017169781 0.06489763 0.10826525 0.08081425 0.037200827
0.02220322 -0.055487804 -0.058645353 -0.003323564 0.023299977 -0.008853852 -0.024424814 -0.031575665
-0.048211217 -0.015947327 -0.023753816 -0.09174214 0.0002865283 -0.064177535 0.025267182 0.014017854
-0.010710298 0.027784664 0.008702542 0.02747173 -0.025429575 -0.03449844 0.005474238 0.012714598
0.014187535 0.03613594 -0.0339089 0.0013630936 0.07356321 0.07779575 0.007895351 0.028892595

features.12.bias f4 [32]
00000000: 20bd c0ba 22ca 3d3d 23b2 90bd 7952 48bd
00000010: 9de3 853d 41e6 a5bd 3cfe 7e3b 4875 4abd
00000020: 01c8 053e 911e 5e3d 8fda 31bc 4d3e 8f3d
00000030: b3f0 bd3d 59c3 863b b903 b1bd f8b1 64bc
00000040: 9411 3ebd c658 cd3c 1edf 403d 15ff 06bd
00000050: 6349 0dbd a888 3fbd 2f34 393d 36aa 18bb
00000060: 4a4b cbbd 81b4 37bd 0e1d 533d 2f87 28bd
00000070: 6d75 61bd b9f5 31bd 6899 34bd 1f8f 923d
-0.0014704801 0.046335347 -0.07065227 -0.048906777 0.065375544 -0.08100558 0.003890886 -0.049428254
0.13064577 0.05422837 -0.010855331 0.06994305 0.09274425 0.0041126427 -0.08643288 -0.013958447
-0.046403483 0.025066745 0.04708778 -0.03295811 -0.034493815 -0.046761185 0.04521578 -0.0023294813
-0.099264696 -0.044849876 0.05154138 -0.041144546 -0.055043627 -0.04344723 -0.044091612 0.071562044

features.15.weight f4 [16, 32, 3, 3]
00000000: c41e 503c 847a 9e3d b7c0 373d 781d b33a
00000010: b0e1 24bd 9ce5 183e 57c7 82bd c9b6 a5bc
00000020: fabd 82bc 628a 0fbc deb6 06be 641d f1bc
00000030: 4de5 69be 13b9 d4bd 04d2 49be 0ccc 20be
00000040: 58b9 a2bd 24d1 15be 21f0 c1bd ba72 1dbd
00000050: 3f30 1dbe 0802 b1bd e34c 18be fdf3 d9bb
00000060: f35a f23c c6a9 81bb 7bad 07be 0813 4fbe
00000070: 40ab 37be 5d68 6abe b31f 49be 836c 10be
00000080: 4f4a 2cbe 0155 17be 053e 21be df0f 19be
00000090: 8791 56be c78a 9fbd 7b4e 313d d061 c03c
000000a0: 1acc 913c 326b eebc c16f f53c 6f7c a1bc
000000b0: 6962 19be 7161 d23b 2352 853d 15c3 76bd
000000c0: ae2d 0abd f85e 863d 929c f9bd 397b 3d3d
000000d0: 6f57 09be 9616 19be b0ce b6bd d873 613d
000000e0: 6436 9cbd c2e8 bebd 7b07 b73d 9184 dc3d
000000f0: 50f5 b73c 2327 5c3d 34c2 6a3d db0b 893d
00000100: 2eff 913d 10a3 3bbd 0d7e 09bb 5c5f 9dbd
00000110: 3466 0ebc c58b 6d3d ccff dfbd 95fc 3bbc
00000120: c34b a93d 486e 213d 9853 41bd 6794 e138
00000130: aae7 c53b b5a6 5fbd c3eb a23d 8763 f73d
00000140: d15c d93d b102 b9bd 531e cd3b e40a 2cbe
00000150: 4399 95bd 3830 f1bd 51b7 02bd b3e8 87bd
00000160: b954 fabd 6b75 70bd 681f 25be 5078 75bd
00000170: 6be4 01be 07db 38bd a46d ebbd 1c21 13bd
00000180: 71c7 8fbc 32c1 3ebe 57ca 01be c47c 80bb
00000190: e0a0 dbbd ca07 c5bd 4dce c2bc da4c f0bd
000001a0: 7384 dbbd 942f d0bc 30a7 15bd bd62 4fbd
000001b0: c26c 283b b058 82bd dc3c 013e 1bcd be3d
000001c0: c75c bcbc b74c de3c cec0 20ba 4ab0 8cbd
000001d0: 8bc1 95bd f1c9 87bd 06ac 11be 11c1 23be
000001e0: 3b13 a23c 2aee 15be 22c3 76be 0e47 b9bd
000001f0: 099e eebd bddf 2ebe e064 44bc 1b20 b33d
00000200: d04a 7ebd 7364 e4bd 40fe debb ba77 e1bd
00000210: 88e2 4a3c 815e 883d ac30 f23c d75f a5bd
00000220: d530 46be e41b 5abe a8de 19be b125 88bd
00000230: 5a8b 89bd 3098 94bd b75c c03c 342f 28be
00000240: 6ac4 b4ba 7d57 4abd 6348 a53c 661b 813c
00000250: e932 2cbd 8823 893d 4f0f 653c 6afc e83a
00000260: 0f6f c93d 160f d6bd a7cb 5cbd 6855 10be
00000270: fbe3 c63c 46cf 9abd 5f23 babd ffdc c9bd
00000280: 3631 b6bd d9b9 35bd 3900 aabd 5e8a 5f3c
00000290: e935 013c ec0a 39be 759a d5bd dd45 f8bc
000002a0: 5702 dbbd 93e5 b7bd b4e4 18be 692d 153d
000002b0: e3e4 8abd 7cc0 ce3b 151f 11bb b801 be3d
000002c0: 27fd 96bd 6404 2b3d c98d 6e3d 06b4 193d
000002d0: 82f9 073d bcf0 1fbe a582 18be cdbc f53b
000002e0: f3d0 b13b 9bd8 1d3d b0a9 2ebe a7dc ac3a
000002f0: cbe8 00be 818b d7bd 90f9 53be c57c 41bd
00000300: 6283 f1bc 2ae8 c1bd b92e e8bd c822 3c3d
00000310: 5c90 18be 01be 12be 99a4 f93d 4112 b1bd
00000320: 76ae 2dbd d063 2ebd 8174 22bd 3510 8bbd
00000330: dcc8 8cbd 2cc5 1d3d 1e5e d7bd 34f6 b9bd
00000340: 7468 06be 3e3d 7dbe 665f 9dbe 5fd1 4bbe
00000350: c703 d5bd a68c a5be d8e3 3abe d04c 84be
00000360: 41e0 a4bd 41a4 13bc a47c 18be c320 16be
00000370: a35f 13be 8b83 28be c99f debd 7eb3 0cbe
00000380: fa67 b5bc 1bae d3bd b3da 99bd f416 1bbe
00000390: b9b7 c93b 2ab1 8bbd 5d28 89bd 80ab f6bd
000003a0: 860c 88bd 3dc5 1cbd e7de 7e3d 4e72 363e
000003b0: 9278 813d cff4 f23d a4bd 153e 80e0 a63d
000003c0: 1c8c a93d 6acb 1f3e 9eab 263e 250e 2fbb
000003d0: 82d2 9dbd 32f9 be3c 4f2f fe3d 1bad 953d
000003e0: b3cf 053d 96e2 80bd 7006 d63c 888f a53d
000003f0: fc0f 1ebd 3815 21bd 1c63 d1bd 53cb 6c3d
0.012702648 0.07738212 0.04486152 0.0013665399 -0.040254295 0.14931339 -0.06385677 -0.02022876
-0.015959729 -0.00876102 -0.13155696 -0.02943296 -0.22841378 -0.103868626 -0.19709021 -0.15702838
-0.07945508 -0.14630562 -0.09469629 -0.03843949 -0.15350436 -0.086429656 -0.1487308 -0.0066514
0.029584384 -0.003957006 -0.13249771 -0.20222104 -0.1793642 -0.22891374 -0.19640999 -0.14103894
-0.16825221 -0.1477852 -0.15746315 -0.1494746 -0.20953952 -0.077901416 0.043287735 0.02348414
0.017797519 -0.02910385 0.029960515 -0.019712655 -0.14978947 0.0064203073 0.06509807 -0.06024464
-0.03373497 0.065610826 -0.121880665 0.046260092 -0.1341226 -0.14950022 -0.08926141 0.055042118
-0.07627562 -0.09321739 0.08936974 0.107674725 0.022455841 0.05374826 0.057314113 0.066917144
0.0712875 -0.045809805 -0.0020979673 -0.07684204 -0.008691359 0.057994623 -0.10937461 -0.0114737945
0.082664035 0.039411813 -0.04719886 0.00010756478 0.0060395794 -0.054602344 0.07955124 0.1207953
0.106134064 -0.090337165 0.0062597184 -0.1680103 -0.07304623 -0.11776775 -0.031913105 -0.06636181
-0.12223191 -0.05870573 -0.16125262 -0.059929192 -0.12684791 -0.045130756 -0.11495522 -0.035920247
-0.017551156 -0.18628386 -0.12674843 -0.003921123 -0.10724044 -0.09620626 -0.023780013 -0.11733408
-0.10718622 -0.025413312 -0.036536396 -0.050631274 0.002569959 -0.06364572 0.12620872 0.093164645
-0.022993458 0.02713619 -0.0006132246 -0.06869562 -0.07312306 -0.06630314 -0.14225778 -0.15991618
0.01978456 -0.14641634 -0.24097875 -0.09046756 -0.116512366 -0.17077537 -0.011986941 0.08746358
-0.062083066 -0.11151972 -0.0068052113 -0.11009164 0.012383111 0.0665865 0.029564224 -0.080749206
-0.19354565 -0.21299702 -0.15026343 -0.06647814 -0.06716032 -0.0725559 0.02348171 -0.16424257
-0.0013791446 -0.04939984 0.020176118 0.015760135 -0.04204074 0.0669623 0.013980701 0.001777542
0.09835636 -0.10452096 -0.053905156 -0.1409508 0.024278631 -0.075590655 -0.09088778 -0.09856605
-0.08896105 -0.04436669 -0.08300824 0.013643829 0.007886388 -0.18070573 -0.10429851 -0.03030675
-0.10693806 -0.08979335 -0.14930993 0.03642026 -0.06781938 0.006309567 -0.002214377 0.092776716
-0.07372504 0.041752234 0.058240686 0.0375252 0.033196934 -0.15619177 -0.14893587 0.0074993134
0.00542652 0.03853665 -0.17056918 0.0013188318 -0.12588803 -0.10524655 -0.2070067 -0.04723813
-0.029481594 -0.0946811 -0.11337037 0.045931607 -0.14898819 -0.14330293 0.12189598 -0.0864606
-0.042402707 -0.042575657 -0.039661888 -0.067902006 -0.068742484 0.038518116 -0.10515998 -0.09080163
-0.13125783 -0.24730393 -0.30736846 -0.19904087 -0.10401111 -0.3233387 -0.18250978 -0.25839853
-0.080505855 -0.009011329 -0.14891297 -0.14660935 -0.14391951 -0.1645643 -0.1087032 -0.13740346
-0.022144306 -0.10335942 -0.07512417 -0.15145475 0.0061559347 -0.06820901 -0.06697152 -0.1204443
-0.06643014 -0.03827404 0.062224295 0.17817041 0.06321825 0.118631 0.14623123 0.08148289
0.08278677 0.1560494 0.16276404 -0.0026711312 -0.07706167 0.023312185 0.12411367 0.07308408
0.03266878 -0.06293218 0.026126117 0.08084017 -0.038589463 -0.039326876 -0.10223982 0.057811093

features.15.bias f4 [16]
00000000: 7d8f a93d 7a00 b8bb 423d c83d 2d39 883d
00000010: b57c 41bc ba3f 0bbd 40c9 6c3d e0e8 303e
00000020: b57b 4b3e 1bb6 a33d 9bfc 0b3d 4daf b6bd
00000030: 7c6e e6bc 0eb9 be3d 0432 333a 8b38 ae3d
0.08279321 -0.005615291 0.09777309 0.066515304 -0.011809518 -0.03399632 0.057809114 0.17276335
0.19871409 0.07993718 0.03417645 -0.08920155 -0.028128855 0.0931264 0.0006835761 0.085068785
