output/models/220628_1723_ggcnn2_met_ruis_epochs_20_val-batches_125/epoch_02_iou_0.50_statedict.pt (torch, 274205 bytes, 20 tensors)

features.0.weight f4 [16, 1, 11, 11]
000000 04 e6 35 bd 7b 6f 9b 3b 50 fb 58 bd 30 9d 95 bc
       -0.044408813 0.004743514 -0.052974045 -0.01826343
000010 81 b9 d9 3c d9 d8 29 3d 47 9d 08 bd 3b 42 08 3c
       0.026577713 0.041466568 -0.033353116 0.008316572
000020 41 d2 53 bd ee 64 c0 bc 1b 6a 17 3d 51 a5 ed 3c
       -0.051714186 -0.023485627 0.036966424 0.029009493
000030 3f c8 eb bc ed 11 0f 3c 9b b6 2e 3d d8 81 73 bc
       -0.028782008 0.008732301 0.042654615 -0.0148625
000040 0c 19 c8 bc 5b d3 8f bc 7a 38 da bc 49 88 0c bd
       -0.024426006 -0.017556837 -0.026638258 -0.03430966
000050 9d 35 4c bd 06 7b 97 bc 18 03 f9 bc 4a ca 76 bc
       -0.049855817 -0.01849128 -0.030396983 -0.015062878
000060 86 f4 21 bd be 1a 70 3c 6c 21 26 3d a7 a4 4d bd
       -0.039539836 0.014654813 0.040559217 -0.050205853
000070 31 b5 16 3d d4 91 bb 3c d8 8e 8e 3c 7b d2 f6 3a
       0.03679389 0.022896685 0.017402098 0.0018831039
000080 31 ca b3 bc 4b ad dd bc 0a 19 25 3b cd 48 b8 bc
       -0.021946998 -0.027060172 0.0025191926 -0.022495652
000090 3b 3d d9 bc b8 18 2c bd 39 1c 20 bd 72 40 b1 3b
       -0.026518455 -0.04201576 -0.039089415 0.005409294
0000a0 d3 91 42 3c 47 1f 1f 3d 04 94 d8 bb 62 99 9f bc
       0.0118755875 0.038848188 -0.0066094417 -0.019482318
0000b0 20 f0 1a bd 4f 8e c9 bb 93 33 43 bd 70 8e 45 bd
       -0.037826657 -0.0061509977 -0.047656607 -0.048231542
0000c0 64 de b7 bc 6a 9d 80 3c cb cf 2a 3d 27 78 a9 bb
       -0.022444911 0.01570006 0.041702073 -0.005171794
0000d0 97 a4 cf bc 86 3b 67 3b 3a f6 42 3c 24 48 04 3d
       -0.025347037 0.0035283281 0.011899525 0.03229536
0000e0 60 e3 15 bc e4 97 84 bc 39 21 be bc 14 ce 23 3b
       -0.009148449 -0.016185708 -0.023209201 0.0024994658
0000f0 47 fd 84 3c 22 b5 a2 bc c8 06 38 3d 6a 80 2d 3d
       0.016234053 -0.019861761 0.044928342 0.042358793
000100 de 79 f9 3c 46 69 39 3d ad b1 ac bb 75 0e 91 3c
       0.030453619 0.045266412 -0.005270204 0.017707089
000110 44 8f bd 3a d2 48 01 3d b7 c5 07 bd 18 1b a9 3c
       0.0014462252 0.031563587 -0.03314754 0.020642802
000120 6a 61 62 bc 73 5a 57 bd 70 a8 7f bc e7 a4 ed 3c
       -0.013817171 -0.052576493 -0.0156041235 0.029009296
000130 ce 4f 3b bd e6 de 9d bc 0b 45 d1 bc f6 60 50 bd
       -0.045730405 -0.019271325 -0.025545618 -0.05087372
000140 ee b0 32 bd c3 6e fb bc 3f 81 1b bd b7 86 ca 3c
       -0.043625765 -0.030692464 -0.037965056 0.02472244
000150 a7 59 b9 3c d0 29 32 bc a1 7a 25 bd 5f 35 46 3d
       0.022625757 -0.010874227 -0.04040015 0.048390742
000160 64 29 3e bc b5 45 16 3d 48 64 91 3c 84 55 ca bc
       -0.011606548 0.03668757 0.017748013 -0.02469898
000170 66 2a 08 3b c1 48 1a 3d 66 89 27 bd cf ff 30 bc
       0.0020777225 0.03766704 -0.040902518 -0.010803177
000180 dd 9b 81 b9 32 96 43 bd 1b dd 26 3d dd e0 04 3c
       -0.00024720925 -0.04775066 0.040738206 0.008110252
000190 46 d6 58 bd b0 15 41 3d 16 83 0b 3d 21 d7 37 3d
       -0.052938722 0.047139823 0.03406056 0.044882897
0001a0 ff c5 15 bd dd 92 0e 3d 21 12 4b bd 1a 5b 65 bc
       -0.036565777 0.03480803 -0.049577836 -0.013998771
0001b0 47 0f 37 bd 5c 40 27 bc 85 41 54 bc 37 3e 28 3c
       -0.044692304 -0.010208216 -0.012955074 0.010268739
0001c0 1e 2c 53 3c 7b e4 26 bd a7 f0 3b bd 4f 38 35 bd
       0.012888936 -0.04074524 -0.0458838 -0.044243153
0001d0 5e b7 4d bd c7 f4 4c bd e4 fb 65 3c d8 99 35 3b
       -0.0502237 -0.050038125 0.014037106 0.0027710106
0001e0 e9 84 53 bd c0 92 45 bc 01 83 60 bb 46 2b a8 3d
       -0.051640425 -0.012058914 -0.0034257772 0.08211379
0001f0 66 ee b9 3c f0 3e 76 3c c5 d7 8c bb ee ce b5 3c
       0.022696685 0.015029654 -0.0042981827 0.022193398
000200 36 39 15 bc c6 c7 fd 3b dd 06 b5 3d c5 34 83 3c
       -0.009107878 0.007744762 0.088392 0.016016373
000210 4b 43 7f 3d 7f 53 b3 3d 64 78 b6 3d 67 47 67 3c
       0.062320035 0.0875616 0.089096814 0.014116145
000220 ac 97 6d 3d 4e 87 4c 3c 58 12 b3 3c 5b 78 4c bc
       0.058005974 0.012483431 0.021859333 -0.012479867
000230 26 b3 8a 3b 8f a7 a3 3d c4 2d 43 3a 6a 8d 07 3c
       0.004232782 0.07990944 0.0007445479 0.008273462
000240 80 55 bf 3b bc fc 66 3d 91 e0 ee 3c 17 79 68 3d
       0.00583905 0.05639337 0.029159816 0.056756105
000250 1c 64 44 bc 3f e1 20 3c 7d 1e 9e 3c 8c 07 db 3c
       -0.011986759 0.009819328 0.019301647 0.026736997
000260 52 31 b0 3a 58 5b 9c 3c 80 10 8e 3d 44 0e d3 3c
       0.0013442433 0.019086525 0.06936741 0.025763638
000270 14 a1 0e 3c 86 ef 18 3d 83 95 9b 3c 9d 82 23 3d
       0.008705396 0.037337802 0.018992191 0.039919484
000280 75 67 0b 3d 6d 1d a4 3d 25 1f 5a 3d 13 6d 07 3c
       0.03403421 0.08013425 0.053252358 0.008265751
000290 55 b9 6a 3b fe 53 b5 3d 15 3f a4 3d f7 68 b3 3d
       0.0035816033 0.08853911 0.080198444 0.08760255
0002a0 fa e3 95 3d d2 49 b9 3d bd f4 9d 3d 66 a6 0b 3d
       0.07318874 0.09047283 0.07712696 0.034094237
0002b0 87 e5 73 3d 89 56 91 3d 48 23 98 3d 93 f5 65 bc
       0.059545066 0.070965834 0.07428604 -0.0140356
0002c0 c1 b9 a2 3d 83 6e b1 3d cf 1f 86 3b d1 37 23 3d
       0.07945586 0.086636566 0.0040931473 0.039848153
0002d0 0b a7 6e 3d 68 09 9c 3d 90 be 5f bc ab 7f b5 3c
       0.058264773 0.076189816 -0.0136562735 0.022155603
0002e0 d5 11 21 bc 65 21 88 3d 52 0f c0 3d 4a 1a 9d 3c
       -0.009830912 0.066469945 0.09377922 0.019177575
0002f0 3e fd 87 3d 60 6e 77 bc f0 b5 02 bc 17 41 9b 3d
       0.06640099 -0.015101999 -0.007977948 0.07580774
000300 8e 87 68 3d 0a 50 a4 3d 00 b3 9c 3d 5f bb 1c 3d
       0.0567699 0.08023079 0.07651329 0.03826463
000310 cd 60 ad 3d 01 36 4c 3d 6b fd a9 3d 83 6d 23 3d
       0.08465729 0.04985619 0.08300289 0.03989936
000320 ac 70 6a 3d 8d 9f b5 3d 59 71 1c 3c c3 5a 73 3a
       0.05723636 0.088683225 0.009548509 0.0009283239
000330 08 90 86 3c 05 25 b0 3d 7b 7f 97 3d d3 c3 91 3a
       0.016426101 0.08600811 0.07397362 0.0011120982
000340 c7 b2 4c ba f3 be 34 3d 65 22 13 bb 6c cf 3f 3d
       -0.00078086223 0.044127416 -0.002245092 0.046828672
000350 8a 8d 49 3d b4 45 af 3c 7a 7c 61 3b 0e 80 ba 3d
       0.049207248 0.021395542 0.003440647 0.09106456
000360 d0 fd c7 3d 72 5d 6b 3d 7f 79 42 3d d0 1a 87 3c
       0.09765208 0.057462163 0.04747915 0.016492277
000370 60 24 7c bb 43 30 4f 3d 28 31 93 3d 33 2f 9f 3d
       -0.003847383 0.050583135 0.0718711 0.077726744
000380 09 39 04 3c b5 f7 be 3d 2c 6b 13 ba 6a 48 92 3d
       0.008070239 0.0932459 -0.0005623575 0.07142718
000390 af cd e6 3c 2a 28 63 3d 17 06 18 3d e4 e6 86 b9
       0.02817425 0.055458225 0.037115183 -0.000257305
0003a0 91 45 92 3c 4e e5 11 bc 92 75 76 3d d1 11 bd 3d
       0.017855437 -0.008904768 0.060170718 0.09231914
0003b0 83 9a 8c 3d 56 65 00 3a 69 10 bc 3a 92 c8 41 3d
       0.06865408 0.0004897913 0.0014348152 0.04731042
0003c0 07 ec 0a bc 90 66 9d 3d 95 fb de 3c 4a 7a 1b bc
       -0.008479125 0.07685578 0.027219573 -0.009489605
0003d0 26 e8 78 bd d3 e9 28 3d 98 4a 7d bd 2e 76 9c 3c
       -0.06076827 0.041238617 -0.061838716 0.019099321
0003e0 02 59 b0 3c 59 cf 11 bc 94 f6 f9 3a 42 f6 11 bd
       0.021526817 -0.008899533 0.0019070678 -0.03563524
0003f0 2a 6a 8d bd f1 bd 05 3c bb 97 29 3d 09 5d 3b bd
       -0.06905015 0.008162961 0.041404467 -0.045743022

features.0.bias f4 [16]
000000 42 fd af 3d 25 ca bd 3d 56 4b d1 3d e6 56 bc bc
       0.08593227 0.09267072 0.10219447 -0.022990655
000010 89 69 a1 bd 81 4b ce bc b7 85 b5 bd 96 7c 46 be
       -0.07881457 -0.025182487 -0.08863395 -0.19383463
000020 88 a8 58 3d 1c 69 7a bd 00 12 83 bd b2 ad 8d bd
       0.0528951 -0.061135396 -0.063999176 -0.069178954
000030 a0 7e fa bc fe a7 bb 3c 8c f8 89 bc 34 a4 05 3d
       -0.030577958 0.022907253 -0.01684215 0.0326273

features.2.weight f4 [16, 16, 5, 5]
000000 84 7d a1 3d 72 e8 74 3d 2e 3d e7 bc 17 fb c5 3d
       0.07885268 0.05979199 -0.028227415 0.09667032
000010 7d 4f ce 3d da eb a7 3d b6 56 5c bb 9f df c3 3d
       0.10073755 0.08199282 -0.003362102 0.09564137
000020 a9 b3 7b bb 27 de 0d 3c 71 e3 a3 3d 36 c2 4e bc
       -0.0038406646 0.008658922 0.080023654 -0.012619546
000030 b5 40 0a 3e 24 28 a0 3d 22 14 fb 3d 00 da eb 3c
       0.13501246 0.07820156 0.122596994 0.028790474
000040 22 92 05 3e 7d 10 8e 3d f9 35 e9 3d 56 9e 43 bc
       0.13044026 0.06936739 0.113872476 -0.011939606
000050 84 88 d8 3d b4 73 6a bb cf fd 32 3d 8d 0b 80 3d
       0.10572913 -0.003577453 0.043699082 0.06252203
000060 ee 3f d8 3d 5d e5 f3 bc 20 71 a3 3d be 0a ef 3d
       0.105590686 -0.029772455 0.07980561 0.11671971
000070 fc 5d 86 3c 87 33 c4 3d 4f 85 b2 3c cc 35 b6 3d
       0.016402237 0.095801406 0.021792082 0.0889698
000080 a8 74 f1 3d 1b 27 e0 3d 0b 43 20 bc b0 da f3 3d
       0.117898285 0.10944959 -0.009781609 0.11906946
000090 53 61 f7 3b 52 b0 97 3d 66 e5 7a 3d c5 7f cf 3d
       0.0075494437 0.07406677 0.061253928 0.10131792
0000a0 4c ec 82 3d 07 74 93 3d cf 4b 10 3e 05 33 05 3c
       0.06392726 0.07199865 0.14091419 0.00812984
0000b0 6a 35 2b 3d e6 9b 01 3e 2a da 89 ba ea 10 c8 3c
       0.041798986 0.12657127 -0.0010517288 0.024422128
0000c0 77 05 64 3c 0d 8d 5f 3d f1 77 75 3b 0b 10 e5 bc
       0.013917319 0.054577876 0.0037455524 -0.027961751
0000d0 09 33 8b bd 93 f7 c4 bb c0 68 d6 3d 26 7b a3 3d
       -0.067968436 -0.0060109585 0.10469198 0.07982473
0000e0 ba 29 b0 3d d6 80 43 bd a0 ed cc 3d 8d f1 d2 3d
       0.08601709 -0.04773029 0.10006261 0.102999784
0000f0 91 1b 69 bd 64 3c 55 bc bf f7 17 ba 40 cd 9d 3c
       -0.056911055 -0.0130148865 -0.000579711 0.01926291
000100 49 e5 3a bd 74 68 37 bd 0c d2 6d bd f8 20 86 bd
       -0.04562882 -0.04477735 -0.058061644 -0.06549257
000110 cd ae 4d 3d b8 82 6c 3c 64 f8 2f 3c 4e 2e 1e 3d
       0.05021553 0.014435463 0.010740373 0.03861838
000120 60 95 e2 3d 2e 5e 88 3d 8e 1e 92 3d 5b b4 c1 3d
       0.11063647 0.06658588 0.07134734 0.09458228
000130 67 24 41 3d 7c 61 98 bc ea 42 cc 3d 53 c3 da 3a
       0.047153857 -0.018601172 0.099737 0.0016690291
000140 50 66 d3 3d e4 5d 5a 3d 0a 9b d0 bc 46 33 a8 bc
       0.10322249 0.053312197 -0.025464553 -0.020532262
000150 f0 ad 98 3c 1d e7 01 3d 74 76 01 3d a7 fc 6f 3d
       0.018637627 0.031714547 0.031607106 0.058590557
000160 1a 04 82 3d d9 42 d1 bc 64 3e 89 3c 9e 52 c7 3d
       0.063484386 -0.02554457 0.016753383 0.09732555
000170 49 1d 08 3e d9 0e 0e 3d ad 3e c6 bc fe 5a a6 3c
       0.13292421 0.03468213 -0.024199808 0.02030706
000180 83 80 35 3d 11 c8 92 3d 83 ff 0f 3e 2d 9f f5 bb
       0.04431201 0.07167066 0.14062314 -0.007495782
000190 3a 0c 69 bd 69 35 0a be 0b 37 37 be 7b 2e cd bc
       -0.056896426 -0.13496937 -0.17892091 -0.025046578
0001a0 09 e6 5f bd c4 36 3a be 90 fd 4d bd 05 d8 c6 bd
       -0.054662738 -0.18184954 -0.050290644 -0.09709171
0001b0 12 65 0d be 72 ae 9f bd 11 92 26 be f4 e5 60 bd
       -0.13808087 -0.07796945 -0.16266657 -0.0549068
0001c0 2e 0b b8 bd cb 1e 12 be f6 3b 2f be c8 cc b7 bd
       -0.08986507 -0.14269559 -0.17112717 -0.08974606
0001d0 c5 71 3a bd a8 34 2b be 30 d4 c1 bd f4 6b 9b bd
       -0.045518655 -0.16719306 -0.094643 -0.0758895
0001e0 bf 6c f0 bc 7b 36 e7 bd af 8f 84 bd e1 e3 ec bd
       -0.02934873 -0.11289688 -0.06472718 -0.11566902
0001f0 7e be 8a bd d7 cd 11 bd ae 6e 5c bd 2c 9e a5 3c
       -0.06774615 -0.035596695 -0.05381649 0.020217024
000200 d5 79 06 be e2 88 05 3d f4 80 2a bd 27 16 32 bd
       -0.13132413 0.032601245 -0.041626886 -0.043478157
000210 92 81 07 bd f4 f1 7d bd 0f da 03 3d 6f 5a 0c be
       -0.033082552 -0.061998323 0.03219038 -0.13706373
000220 19 8f 9c bd ad 95 03 be 19 aa 87 bc 2f 52 24 3c
       -0.07644481 -0.12850066 -0.016560601 0.01002936
000230 f5 b3 fe bd eb 82 0a be e8 74 93 bd 9f 0f 2a 3d
       -0.12436668 -0.13526504 -0.072000325 0.041518804
000240 41 12 83 bd 72 dd a1 bd 5d 08 8e bd bf 50 56 bd
       -0.06399966 -0.079035655 -0.06935189 -0.0523231
000250 3c cb 89 3c db d0 6d 3d 06 22 b9 bd fe 31 c7 bd
       0.016820543 0.05806051 -0.090396926 -0.09726332
000260 9e 42 f0 bd ad bf 69 bd f0 43 d9 bd 94 83 da bd
       -0.11731456 -0.057067562 -0.10608661 -0.10669628
000270 3c 8b 00 bd b0 25 47 bd f8 f0 f2 bd 2b d0 e4 3c
       -0.031382784 -0.048619926 -0.118623674 0.027931293
000280 e4 82 db bd 8c 28 5f bd 8c f5 2f 3d 0c 4a 18 3c
       -0.10718325 -0.054482028 0.04295878 0.009294998
000290 06 ec 86 bd 47 07 01 bd d9 01 cc bb 22 4b 3b bd
       -0.06587987 -0.03150108 -0.006225806 -0.04572595
0002a0 f0 9c b7 bd 5a 5d a2 bd ca 81 b3 ba ce cd b4 bd
       -0.0896548 -0.07927962 -0.0013695296 -0.08828317
0002b0 72 92 bc 3c 9f 06 6d 3c df f7 2b bd 65 6c 52 be
       0.02301905 0.014466911 -0.041984435 -0.20549162
0002c0 13 4d 35 be 2a 8c 5b be 6d 03 3b be 8d df 67 be
       -0.17705183 -0.21440187 -0.18263026 -0.22643872
0002d0 7b 32 d2 bd f3 53 e8 bd 46 df 2c be 85 af 63 be
       -0.10263535 -0.11344137 -0.16882047 -0.22234924
0002e0 2c 9f 9c be 73 e7 e2 bd 62 91 e4 bd e7 22 25 be
       -0.30590189 -0.11079302 -0.11160542 -0.16126595
0002f0 96 6a 15 be 4c da 80 be 19 db e9 bd 89 9e 00 be
       -0.1459144 -0.25166547 -0.11418743 -0.12560476
000300 ff f2 d6 bd 37 92 41 be c0 97 0d be 73 a2 4e be
       -0.104955666 -0.18903433 -0.1382742 -0.20179157
000310 52 7f 8c bd af d3 b6 bd 9e f3 2b be cb e0 7d be
       -0.06860222 -0.08927094 -0.16792151 -0.24792783
000320 9d 41 5e 3d 8a 68 dc 3d 25 13 93 3d fc 76 96 3d
       0.054261792 0.10762127 0.07181386 0.07346913
000330 7d e8 3a 3d 11 6f 11 bd 25 34 1d bd 82 0b a4 3d
       0.045631874 -0.03550631 -0.038379807 0.080100074
000340 e5 fe 47 bc 17 e8 a0 3d 46 fd c3 3c 2d 25 0b 3d
       -0.012206768 0.078567676 0.023924481 0.033971
000350 be f5 23 3c d2 46 e2 3c 7a 87 ba bc 51 e6 4f 3c
       0.01000732 0.02762166 -0.022769678 0.012689189
000360 5a c8 9d 3d f3 e1 6a 3d 3e 60 c3 3a 9d 70 9b bc
       0.0770423 0.05734439 0.0014906002 -0.018974597
000370 35 f9 12 3d 17 c3 b3 bc a6 c2 8b 3d da a9 5a 3d
       0.035882194 -0.021943612 0.068242356 0.05338464
000380 68 3f 1b 3c de 6c 1f 3d d8 42 ea 3d 4c 05 89 3d
       0.009475566 0.038922183 0.11438531 0.066904634
000390 2b d7 cd 3b 3c cf 2e bd bb ca aa 3d df e8 25 3e
       0.0062817535 -0.042678103 0.08339449 0.16202115
0003a0 88 f6 c6 3d 1f 68 6a bd 5c 16 2b bd 20 65 59 bd
       0.09714991 -0.057228204 -0.04176937 -0.053074956
0003b0 9d 7d 07 3d 4e c6 24 3d d1 c9 8b bd 89 08 1b bd
       0.03307878 0.04022818 -0.06825603 -0.037849937
0003c0 ff 72 0f 3c 24 c4 1f 3e fb 7a f5 3c 79 97 94 bc
       0.008755445 0.15602165 0.029965868 -0.018138634
0003d0 98 2d 94 bd 78 cd 16 be ea 26 26 3e 55 f6 ff 3b
       -0.07235259 -0.14726818 0.16225782 0.0078113475
0003e0 87 4e eb bd 9d 36 4a bd 86 18 b3 bd d4 ad 86 bd
       -0.11489587 -0.04936849 -0.08744912 -0.06576124
0003f0 78 b8 b5 bc 86 6f 25 bc 6b 79 f5 bd a5 6d 0a be
       -0.022182688 -0.01009739 -0.11986049 -0.13518389

features.2.bias f4 [16]
000000 15 30 98 3d a1 fc 49 bc 6e c2 5c bd 02 1f d3 bc
       0.07431046 -0.012328298 -0.05389636 -0.025771622
000010 d7 a0 9c ba 0b 24 ab bc 31 95 b5 bd e5 3a 10 bd
       -0.001194979 -0.02089121 -0.08866347 -0.035212416
000020 53 72 49 bd 93 de 74 3d fc 82 a0 ba 8d 50 55 bd
       -0.049181294 0.059782576 -0.0012246068 -0.052078772
000030 e4 5c 0d bd 75 66 1f bd b3 06 54 bd 0e 62 01 bc
       -0.034512416 -0.03891607 -0.0517642 -0.007896913

features.5.weight f4 [16, 16, 5, 5]
000000 43 7f c5 bc ec 6b 74 3d 01 45 95 bd f7 b2 20 3d
       -0.024108535 0.059673235 -0.07288552 0.039233174
000010 24 26 86 bc 8e df cc 3c 08 b4 32 bd 21 3e c5 3c
       -0.016375609 0.025008943 -0.043628722 0.024077477
000020 fd ab 43 bc 9b 42 f5 bd 30 4d d0 3d 93 af d0 3d
       -0.011942861 -0.119755946 0.10170972 0.10189738
000030 7a 29 00 3e f0 5a a1 bd 5d f4 58 bd 72 ca 96 bd
       0.12515822 -0.07878673 -0.052967418 -0.07362832
000040 c0 53 8f bc 08 7f 62 3d f6 cb ad bd 8b 07 6b bc
       -0.01749599 0.055296928 -0.08486168 -0.01434506
000050 10 97 29 3d ef 38 08 bd a6 99 f9 bc 0b 92 ca bd
       0.04140383 -0.03325742 -0.030468773 -0.09891137
000060 f2 b3 8a 3c f8 03 16 be 59 34 da bd 67 5b 0e be
       0.016931508 -0.14649951 -0.10654516 -0.13902055
000070 d9 80 13 3d 60 1e eb 3c 11 2d 50 bc fd 84 cf bd
       0.03601155 0.028701007 -0.012706057 -0.101327874
000080 26 9f 04 be a2 30 33 3d ce 5b 03 be 9b 34 b0 3d
       -0.12951335 0.04374755 -0.1282799 0.08603784
000090 b1 b7 77 bd 97 6a ef bc 8e 75 0b be 40 6e 0c bb
       -0.060477916 -0.02922563 -0.13619062 -0.0021428019
0000a0 19 d6 03 3e 84 2f 60 3d 27 b6 3b b9 82 31 10 be
       0.1287464 0.054732814 -0.00017901567 -0.14081386
0000b0 a0 e5 9b bd 35 0b a6 3d de 70 80 3d 8e 80 61 3d
       -0.07612157 0.08107606 0.06271528 0.05505424
0000c0 7e 09 53 bd f7 d2 ca bd 16 8a 3b bd e6 90 81 3d
       -0.051522724 -0.099035196 -0.045785986 0.06326465
0000d0 54 ec 1e 3d 7d ac 8f bd 5a f9 bd 3c 08 91 11 bc
       0.0387996 -0.070153214 0.02319019 -0.008884676
0000e0 aa 68 a5 bd 08 fc 05 3c ef 1d 6e 3d ed 37 a8 3d
       -0.08076604 0.008177765 0.058134016 0.08213792
0000f0 c1 12 35 bd 67 26 9e bd 4b c3 51 3d 4b 38 89 3d
       -0.04420734 -0.077221684 0.051211637 0.0670019
000100 a1 03 90 3d dd fe bf bc 4a 87 75 3c aa 0c 91 3d
       0.07031942 -0.023436958 0.014985869 0.070824936
000110 f8 a5 09 3c 68 06 51 3d 84 63 20 bc e4 69 9b 3d
       0.008401386 0.0510315 -0.009789351 0.075885564
000120 ec 32 53 bd da 7c 72 bd 96 26 90 3d ad 91 be 3b
       -0.051562235 -0.0592011 0.0703861 0.0058157058
000130 0e 78 86 3d 60 d4 8d 3d 91 af 92 3d 7d 46 a3 bd
       0.06565867 0.06925273 0.07162393 -0.07972429
000140 f1 cd 50 3d d3 64 29 3d b4 69 3f bb 76 8b 30 bc
       0.05097765 0.04135592 -0.002920729 -0.010775438
000150 8d 70 86 bc e9 25 b7 bd 11 32 b0 bd 30 29 88 3d
       -0.01641109 -0.08942778 -0.086032994 0.06648481
000160 fd 6f be 3c 1e e3 10 bd ba 6b df bc fe 49 32 bd
       0.02324676 -0.035372846 -0.027273048 -0.043527596
000170 e1 1a 97 bc 3e 99 2b bd 1c 54 7a 3d 14 49 9e bc
       -0.018445434 -0.04189419 0.06111537 -0.019321956
000180 bc b0 1f bd 3a 96 2a 3d c4 b6 5f bc a1 df 69 bc
       -0.038986906 0.041647173 -0.013654415 -0.014274509
000190 0e 27 a8 3d 76 af e0 3c fe 91 19 3d 00 de 80 3d
       0.08210574 0.027427416 0.037492745 0.06292343
0001a0 a4 7e fe 3c 78 1e 39 3d c9 d4 a4 3d d6 e3 e7 bc
       0.031066246 0.045195073 0.08048398 -0.028306883
0001b0 be c0 a1 3d 48 70 95 bc 4c 4b 5d bd b0 d4 f6 3b
       0.07898091 -0.018242016 -0.054026887 0.0075326785
0001c0 cc 11 86 3c 55 8a 28 3d 28 80 62 bc 69 81 7c 3d
       0.016365908 0.04114755 -0.0138245 0.061646853
0001d0 84 7d fc 3c 5e c7 a7 bd 6a 7f 1d 3d cc f5 2d 3d
       0.03082157 -0.08192323 0.03845159 0.04247074
0001e0 62 de 1b 3c 8e fc 81 3d 08 b9 21 3d 6f 04 ad bd
       0.009513469 0.06346999 0.0394831 -0.08448111
0001f0 09 e8 99 bd 7e 4c 41 3c e7 38 0b bd a7 ad d7 3c
       -0.0751496 0.011798022 -0.033989813 0.026327921
000200 8f 42 30 39 60 a2 eb 3c 90 74 e0 bb ae 43 8e 3d
       0.00016809463 0.02876395 -0.006849833 0.069465026
000210 41 54 91 3d 6e 32 5d bd 08 f1 e1 3c 0f df d1 bb
       0.07096148 -0.05400317 0.027580753 -0.0064047645
000220 cd 96 9c 3d 4f de 87 3c 5e e5 60 3d c2 06 ae 3d
       0.076459505 0.016585497 0.05490624 0.08497383
000230 d7 b2 42 bd 47 cd a1 3d fc d2 53 bc 2b f3 43 bd
       -0.047533836 0.07900482 -0.012928721 -0.047839325
000240 a7 8d 9a bd f0 9b 9d bd 9d 7e 9a bc 73 a3 9b 3d
       -0.07546549 -0.07695758 -0.018859202 0.07599535
000250 ca eb 16 3d fb 80 47 bd a4 51 8a bb 86 44 0e bc
       0.03684596 -0.04870699 -0.004221158 -0.008683329
000260 f4 68 d5 3c 25 56 ae bd a0 be 7f 3d 66 15 bf 3c
       0.026051022 -0.085125245 0.062437654 0.023325633
000270 c2 6c 45 3c eb f7 5d 3d 90 d4 ff 3c 00 fd 40 3d
       0.012049856 0.05419151 0.031229287 0.04711628
000280 7d d0 f3 bc 1e c8 6f 3d c2 49 97 3c 6b a0 88 3d
       -0.0297625 0.058540456 0.018467788 0.06671222
000290 40 8d a0 bd 1b 46 d1 3c ba 2e 59 bd 95 ba 8d 3d
       -0.07839441 0.025546124 -0.053023078 0.06920353
0002a0 b9 98 95 3d 00 63 28 3d 95 c2 ae bc 00 2a a4 bd
       0.0730452 0.04111004 -0.021333018 -0.08015823
0002b0 f8 02 06 3d a9 03 31 3d 78 f8 ce bc 96 1d 9e 3c
       0.032717675 0.04321638 -0.025264964 0.019301217
0002c0 a8 ca b8 bc 2a 0d 84 3c 86 13 17 3d a6 6e 9d 3d
       -0.022557572 0.016119558 0.036883853 0.0768712
0002d0 7e fd 8a bd b9 3e 68 bd 96 e9 64 3d 8a 22 f2 bc
       -0.06786631 -0.056700442 0.055886827 -0.029557485
0002e0 52 9b fc bc 44 a9 19 3d a9 e5 a2 bd a3 fe 98 3c
       -0.030835781 0.03751494 -0.079539604 0.018676108
0002f0 49 75 25 bb 2f d3 9b 3d ce fc a8 bd 07 86 cd 3c
       -0.002524691 0.076086394 -0.08251344 0.025088323
000300 98 5e 66 bd 58 43 85 3c 1d a8 e9 3c 5a a2 7f 3d
       -0.056242555 0.016267464 0.028522545 0.06241069
000310 41 e1 03 bd 9c fc 9a 3d d5 e0 a4 bd 1e 8c aa bb
       -0.03219724 0.07567713 -0.08050696 -0.0052046916
000320 d8 3c 6e 3c c7 3d 44 bd c8 62 6f bc 2e 19 ff bc
       0.0145408735 -0.047910478 -0.014610954 -0.031139936
000330 94 65 2e bd be 77 cc bc 42 77 9c bd 2d 09 22 bd
       -0.04257734 -0.024959441 -0.07639934 -0.039559532
000340 40 44 2d 3c e8 8c 24 bc 40 b8 e9 3a 80 d1 52 ba
       0.010575354 -0.01004336 0.00178314 -0.0008042082
000350 c4 e7 ce 3c 3d 22 4b bc 21 c9 66 bd 70 c6 8e 3b
       0.025256999 -0.0123983 -0.056344155 0.0043571517
000360 2e 21 76 bd 8e fe 90 3d a0 f2 31 bc 5a 8d 81 3d
       -0.060090236 0.070798025 -0.010861069 0.06325789
000370 a8 cf 33 3d 8c 31 2c bd 70 11 e0 bb 7f 03 12 bd
       0.04389921 -0.04203944 -0.006838016 -0.035647865
000380 76 0a 41 bd 77 53 cd bc ab e7 38 bd b1 2c a1 bd
       -0.047129117 -0.025064213 -0.04514281 -0.07869852
000390 a4 85 68 bd 77 bf 8d bd 94 fc d5 bd 8f 6a 30 3d
       -0.056768075 -0.06921285 -0.10448566 0.043070372
0003a0 c4 9e 9b 3b 25 4e 1a bd 4d 06 c7 bd 1d bb a0 bd
       0.004749151 -0.03767218 -0.09717999 -0.07848189
0003b0 d9 cc 8f 3d 6e 02 e8 b8 24 39 f8 bc d7 9b b7 bc
       0.070214935 -0.000110630746 -0.030300684 -0.022413177
0003c0 df d5 a2 bd 27 63 1d bd 52 d6 7c bc 59 01 1f 3c
       -0.07950949 -0.038424637 -0.015431957 0.009704911
0003d0 0b e4 be bd 25 5a 76 bd 2f bf b8 bd e7 15 50 3d
       -0.093208395 -0.060144562 -0.090208404 0.050802138
0003e0 57 d4 3d 3d f7 a4 ff bd fb d2 62 bd b7 95 71 3d
       0.04634508 -0.124826364 -0.055376988 0.05898067
0003f0 69 07 8b bd 5c e2 ba bd 17 d8 3a bd 79 30 9e 3c
       -0.06788523 -0.09125206 -0.045616236 0.019310223

features.5.bias f4 [16]
000000 59 2e 58 bc e5 3d 12 bd c5 9b 67 bc 32 3c 44 bd
       -0.013194644 -0.03570356 -0.014136259 -0.04790897
000010 8e 54 74 bd f7 77 f3 bc 11 63 49 3a e2 47 26 bb
       -0.05965095 -0.02972029 0.00076823035 -0.0025372435
000020 2b 2f 8f 3d 99 4a 48 3c ea c8 f4 3d 6a 03 02 3c
       0.069914185 0.012224817 0.11952384 0.007935384
000030 2e 11 c7 bb 6f 06 b0 3d 8d 9c d2 3b ce 02 96 bc
       -0.006075046 0.08594977 0.0064273537 -0.018311884

features.7.weight f4 [16, 16, 5, 5]
000000 0a 83 15 3c 24 8c 60 3d 83 ff c2 3d 59 9b 5b 3d
       0.00912548 0.05482115 0.09521391 0.053614948
000010 2d af 0f bd 17 f5 82 3d 4a 8b ba 3d df 95 2d 3d
       -0.03507917 0.063944034 0.091085985 0.042379256
000020 70 56 4f 3d 8d b9 ce bc 52 74 8c 3d 12 65 da 3c
       0.050619543 -0.025234962 0.06858124 0.026659522
000030 75 5e 0d bd bf 61 57 3d 74 67 5c bd cc e4 69 3d
       -0.03451391 0.052583452 -0.053809598 0.057102963
000040 3f a5 1f bd 13 76 b2 3d e8 9b 38 bd 5e cc 57 3d
       -0.03897595 0.08713927 -0.04507056 0.052685134
000050 43 06 14 bd eb c9 26 bd df 68 d7 3c 88 54 7b bd
       -0.036138784 -0.040719908 0.026295124 -0.061359912
000060 85 73 47 3d 62 9a 9f bd da e4 aa 3d 40 8b 87 ba
       0.048694152 -0.07793118 0.08344431 -0.0010341182
000070 cb db 0f bd 9f cb 31 bd 74 84 1e 3d 88 75 ec bc
       -0.03512172 -0.04340708 0.038700536 -0.028864637
000080 14 82 96 3d 1e 41 10 3d 64 3d a9 bc 36 65 67 bd
       0.07349029 0.03521835 -0.020659156 -0.056493007
000090 60 40 71 3c c7 25 22 bd cd 4a 93 bd e4 a2 f0 3c
       0.014724821 -0.03958681 -0.071920015 0.029374547
0000a0 3a ff 4f bd ba 3e df bb 45 95 83 bd 13 cd 8a bc
       -0.050780512 -0.0068128975 -0.06424955 -0.01694349
0000b0 c5 38 48 bd 02 62 c5 bd 37 34 97 bc a4 e1 48 3b
       -0.048882265 -0.09637834 -0.018457515 0.003065207
0000c0 da e8 b8 bd 6b a8 c9 3c cc 73 8a bd d6 70 bb 3c
       -0.09028788 0.02461644 -0.06760368 0.022880953
0000d0 c5 af 8c 39 95 bd 39 bd 32 d3 db bd 93 89 3c bd
       0.0002683384 -0.045346815 -0.10733642 -0.04602964
0000e0 9b 06 7c bd 17 20 bf bc 93 4f 79 3d 62 8e 6e bd
       -0.061529737 -0.023330731 0.060866904 -0.058241256
0000f0 80 ff 4d 3d ed 9f cc bd b1 38 b7 3b 8b ce 15 3b
       0.050292492 -0.09991441 0.005591475 0.0022858705
000100 1a 0a 9e bd 35 77 a7 ba ab fb 90 bd 57 f7 04 3d
       -0.077167705 -0.0012776615 -0.07079252 0.032462444
000110 ae d5 c5 bc ef 7d e6 bc 86 e4 f0 bc c3 19 dd 3c
       -0.024149742 -0.028136222 -0.029405843 0.026989823
000120 fe cf 95 bd c5 11 aa bd 82 53 9a 3d 40 bf a7 3d
       -0.07315062 -0.083041705 0.07535459 0.08190775
000130 88 fd 95 3c 90 66 ac 3b c6 cb a2 3a 3e 43 0e bd
       0.01830937 0.00526125 0.0012420348 -0.034732096
000140 04 89 dc bc f0 83 28 3c 3c 0e 3d 3d 28 be 40 bc
       -0.026920803 0.010285363 0.046156153 -0.011764087
000150 c2 2e aa 3d 1d 9c 5c bd 18 cc 59 3d c8 fd ac 3c
       0.083096996 -0.05385982 0.053173155 0.021117106
000160 23 10 81 3d cc 86 97 bd 84 71 a5 bc 9c a7 7d 3d
       0.06301906 -0.07398757 -0.02019573 0.061927423
000170 28 2c 4b bc c0 27 1a bd 95 c0 4e bd 13 30 a5 bd
       -0.012400664 -0.037635565 -0.05047663 -0.0806581
000180 e8 4e 75 bc 48 f3 5d 3d 68 4b 83 3c e8 ef 4f ba
       -0.014972426 0.05418709 0.016027167 -0.0007932172
000190 38 bc 36 3c 4f 37 ab bd 5c e8 f5 bc 04 67 97 3d
       0.011153273 -0.08360159 -0.030018024 0.073926955
0001a0 6c 04 1a 3d 18 bf e8 3c 66 da 77 bd 08 d5 3a 3d
       0.037601873 0.028411433 -0.060511015 0.04561332
0001b0 12 bd 0b 3d 4c 3d 46 3d b6 5a 14 3d 10 48 1f 3d
       0.03411586 0.0483983 0.03621932 0.038887084
0001c0 20 7a 2c 3b 8c 40 7a 3d 10 00 12 bd 78 14 80 bd
       0.002631791 0.061096713 -0.03564459 -0.06253904
0001d0 d7 da a0 bd 59 bc 0f bd 48 7f 58 3d 3a 05 af bd
       -0.078542404 -0.03509173 0.05285576 -0.08545919
0001e0 58 50 6a 3d da 83 07 3d e0 12 fa 3b 64 ba 89 bd
       0.057205528 0.033084728 0.0076316446 -0.06725004
0001f0 04 df a2 3c f1 80 83 bd e0 50 da bb ee 31 5c bd
       0.019881733 -0.06421078 -0.006662473 -0.053758554
000200 35 eb 71 bd 80 e1 5c 3d 7a 3f 28 bc 5e cf bd 3c
       -0.0590622 0.05392599 -0.01026904 0.02317017
000210 55 0a 10 bd 18 73 c7 bd ee 2f 7d bd 88 87 23 3c
       -0.035166103 -0.09738749 -0.061813287 0.009981044
000220 e8 c8 52 bc 8c dd 83 bd 30 49 4a bc d8 a4 37 3d
       -0.012865283 -0.06438741 -0.012346551 0.04483494
000230 98 32 0f 3c c8 0f 88 3d 80 a1 e9 3a 20 ec 51 bb
       0.00874009 0.06643635 0.001782462 -0.003203161
000240 b0 5d eb 3b cc 3d 3b 3d 19 b9 8e bd 80 bf ae bc
       0.0071827993 0.04571323 -0.06968898 -0.021331549
000250 38 eb c7 3c 7c 6f 89 bd c2 7a 8c 3d c3 32 ae 3d
       0.024404153 -0.06710717 0.06859352 0.08505776
000260 78 43 3a 3e b0 ca 60 3c d4 2d a8 bd 72 42 00 bd
       0.181898 0.0137201995 -0.08211866 -0.031313367
000270 8b 70 55 3e 0a 51 39 3e 99 03 86 bd 44 68 88 bc
       0.20843713 0.1809732 -0.06543655 -0.01665128
000280 eb d8 9c bd 0d 1d 9e 3d 7d 71 67 3d 9d 4f f2 3c
       -0.07658561 0.07720385 0.056504715 0.029578978
000290 0a 71 03 be 6e 75 8c bd 22 9d 62 3c 61 79 9e 3d
       -0.1283609 -0.068583354 0.013831409 0.07737995
0002a0 33 4a 7b bd 52 c4 a0 bd 75 a1 36 bd 74 3d 65 3d
       -0.06135006 -0.07849945 -0.04458757 0.05596681
0002b0 58 a9 88 3d ac fe 78 3d d1 f3 91 bd c4 b9 ca ba
       0.06672925 0.06078975 -0.071265824 -0.001546674
0002c0 30 04 62 bc 83 1f 27 3e 22 7c 78 bd 41 00 ab 3a
       -0.013794944 0.16320615 -0.060665257 0.001304634
0002d0 c6 ed 1a 3e c6 78 d8 3d ba bc 21 3e 16 a2 a9 bd
       0.15129766 0.10569911 0.1579465 -0.082828686
0002e0 9f ae 4a bd d7 d0 2c 3d dd 7f 2c bd 9e 1f da 3d
       -0.049482938 0.042191353 -0.042114127 0.10650562
0002f0 c9 3e 0a bd b0 0b 2c bd 96 4f 11 3d 83 bf 81 3d
       -0.033751283 -0.042003334 0.03547629 0.06335356
000300 51 f0 ce 3d 73 95 9e bd 78 65 32 3c dd a6 17 bd
       0.101044305 -0.07743349 0.01088845 -0.037024368
000310 ff 5e 9a 3d 4d ad c4 3d 1c e9 4b 3d 07 48 59 bd
       0.0753765 0.09603367 0.049782857 -0.053047206
000320 73 2a 38 bd a2 12 43 3c 70 44 69 bd b0 c6 f0 bd
       -0.044962358 0.011906298 -0.056950033 -0.11756647
000330 ed 78 b9 3c dc 17 33 3d d5 e3 68 bd 6d e0 a6 bd
       0.02264067 0.043723926 -0.056857903 -0.081482746
000340 c5 01 30 bd 78 db 51 bd 90 60 b7 3c 7e 17 f6 3c
       -0.042970438 -0.051234692 0.022384912 0.030040499
000350 94 ce e6 3c 37 d1 bc 3c 94 d5 ca 3c 07 ab f0 bc
       0.028174676 0.02304898 0.024760045 -0.029378427
000360 eb 4d 8c bd 3b dd 19 bd 24 95 87 bd db 99 db bd
       -0.06850799 -0.037564497 -0.06620243 -0.10722705
000370 d2 8e 4f bc ce 03 b6 bd db 7d 4b bd 91 81 04 3d
       -0.012668328 -0.088874444 -0.049680572 0.032350127
000380 c4 fa bc 3a ae 46 0c bd fb 12 e2 3c 75 6e a4 bd
       0.0014417996 -0.034247093 0.027596941 -0.080288805
000390 c2 5a 07 3c a0 e5 2e 3d 6e 3c a1 3c 4d 53 9e bd
       0.008261384 0.042699456 0.019682135 -0.07730732
0003a0 15 93 64 3d da cc ef bc f5 8b 00 bd a0 ef cb 3b
       0.05580433 -0.029272486 -0.031383473 0.006223634
0003b0 41 40 01 3c f3 be 74 3b 50 42 08 3d bf fb a0 3c
       0.0078888545 0.003734526 0.033266366 0.019651292
0003c0 96 f2 91 3d 13 ec 0a bd 20 38 92 3d 81 d9 a9 bd
       0.07126348 -0.033916544 0.07139611 -0.08293439
0003d0 31 a0 a2 bd dc d4 6a 3d d3 94 1f bd 86 25 45 3d
       -0.0794071 0.057331905 -0.03896029 0.04813149
0003e0 16 01 ee bc b9 52 98 bd f5 fa 97 bd 9e c7 e5 bb
       -0.029053252 -0.07437653 -0.07420913 -0.0070123216
0003f0 49 b2 43 3c 04 00 03 be 1d 44 fb 3a 4b f1 8d 3b
       0.011944362 -0.12792975 0.001917008 0.004331743

features.7.bias f4 [16]
000000 3a dc a4 bd 27 72 0b bd 65 7f 3b bb 85 3e 07 bd
       -0.080498174 -0.03404441 -0.0028609869 -0.033018608
000010 06 fe d2 bc 54 25 9e 3d 25 32 87 3d 54 56 25 3b
       -0.025755893 0.077219635 0.06601361 0.0025228458
000020 0e ef 91 bd 77 ad 37 3d ad f9 a0 bc be 36 1b bd
       -0.07125674 0.044843163 -0.019650305 -0.037894003
000030 d6 ff 18 bd a3 d3 36 bd 00 46 9a bc 05 11 39 3c
       -0.03735336 -0.044635426 -0.018832207 0.011295562

features.10.weight f4 [32, 16, 5, 5]
000000 5d e9 4c 3d c5 ea c4 3d f8 0d 50 3d 44 fd cf ba
       0.05002724 0.09615091 0.05079457 -0.0015868326
000010 66 73 73 bc 9f 96 55 3c 1f b1 38 bd 7e 60 96 3d
       -0.014859056 0.013036399 -0.04509079 0.07342623
000020 28 7c 9b 3d 48 38 9e 3b 32 2e 82 bd 19 94 e1 bc
       0.0759204 0.0048284866 -0.06356467 -0.027536439
000030 0c 6a 05 bc 65 45 b4 bc d3 09 f7 3c 29 ba d9 bb
       -0.008142959 -0.022005746 0.030156052 -0.0066445065
000040 4c ef 92 3c 44 ce 38 bd 4d 92 11 bd f4 3b 86 bc
       0.017936371 -0.045118585 -0.035539914 -0.01638601
000050 16 26 0c bd 3e 2f 34 3b ea 26 0b bd 88 4a b0 3d
       -0.03421601 0.002749398 -0.03397266 0.08607966
000060 34 45 86 bd 84 e0 db 3c 2e 66 61 3d c0 5b 12 3c
       -0.06556168 0.026840456 0.055029087 0.008933008
000070 a0 f7 f9 bb c6 01 18 3d 5a 12 2e bd 83 8d 90 bd
       -0.007628396 0.037111066 -0.04249797 -0.07058241
000080 cd c5 80 3d 40 a7 c3 3c a0 52 9b 3c c0 81 6c bb
       0.062877275 0.023883462 0.018960297 -0.003608808
000090 28 55 26 bd 20 6c 61 bc 44 31 91 bc 34 84 ff 3c
       -0.040608555 -0.013758689 -0.017723687 0.031190969
0000a0 de 2d 79 3d 60 75 8d 3c b0 e7 e3 bc b4 db 47 3d
       0.060834758 0.017267883 -0.027820438 0.04879351
0000b0 c0 18 bc 3c 4b 58 90 3d 96 6d 72 3d d8 7f 26 3d
       0.02296102 0.070480905 0.05918654 0.040649265
0000c0 3f 81 8e bd 03 e6 64 bd de 7f 22 bd 86 95 cf 3b
       -0.069582455 -0.05588342 -0.039672725 0.0063349633
0000d0 6c 34 72 bd a6 c5 5b bd c1 84 20 3d d5 06 96 bd
       -0.059132025 -0.05365529 0.039189104 -0.07325522
0000e0 e6 4c 92 bd a0 2e 75 bd 06 35 dd ba d4 ab 55 bd
       -0.071435735 -0.05985892 -0.0016876764 -0.05216582
0000f0 44 46 72 3c 4a 71 3f 3d 5f 4c 77 3c a0 a3 22 3d
       0.01478726 0.0467389 0.015093892 0.039706826
000100 7d 85 76 3d 57 88 2e bd c9 ae 84 3d 18 c8 1d bc
       0.060185898 -0.042610493 0.0647865 -0.009630226
000110 ca 9e dd 3c 47 9c 36 3d 3a 6a 38 bd 50 0b 14 3d
       0.027053256 0.04458263 -0.04502318 0.0361436
000120 77 73 84 3d d7 c1 2e bd 2f 3d 40 3c fc 13 66 3d
       0.06467336 -0.04266533 0.011733337 0.056171402
000130 ff 55 c3 3c ce 6f 4a be 5d 37 7d bd 23 79 2f be
       0.023844717 -0.19769213 -0.061820377 -0.17136054
000140 43 3d 13 bd de b7 91 bd 21 1c 53 bd 66 0a ef bd
       -0.035947096 -0.07115148 -0.051540498 -0.11671905
000150 41 eb 13 be 8a f2 3f bc dc af 7e bb 81 08 f9 bd
       -0.14445211 -0.011715541 -0.0038862145 -0.12159825
000160 81 f4 16 bc cc 0a 18 be cd ea ee bc e7 ab 0e bc
       -0.009213568 -0.14847869 -0.029164696 -0.008707977
000170 2e 93 32 bd 95 fa 11 bd 96 39 fa bd 9d a0 df 3b
       -0.043597393 -0.035639364 -0.12218015 0.0068245665
000180 f1 89 cf bc 4f f3 e0 bd 73 51 a3 bc a9 a3 6e be
       -0.02533433 -0.109839074 -0.019936299 -0.23304619
000190 9a 91 c5 3d 6b 9a f8 3d 14 ef ab 3d c9 00 1b bb
       0.09646912 0.12138828 0.0839521 -0.002365159
0001a0 a3 52 02 bd f2 15 72 3c 10 dd cd 3d f1 1f 70 3d
       -0.03181709 0.01477574 0.1005193 0.05862421
0001b0 a5 14 4c 3d 59 21 09 be 69 f3 0b 3d 28 66 98 3d
       0.049824376 -0.13391627 0.03416768 0.0744136
0001c0 c5 0b e2 bc 2f c8 07 3a 0f e1 04 be e3 ce 47 be
       -0.027593503 0.0005179671 -0.12976478 -0.19512515
0001d0 c4 fb 0a be 51 dd 00 be 8b 24 01 be 4f fd 8e 3d
       -0.13572603 -0.12584426 -0.12611596 0.069819085
0001e0 99 00 28 be 21 1e 37 be fd 20 11 be 07 37 61 be
       -0.16406478 -0.17882587 -0.1417274 -0.21993648
0001f0 ce 04 a6 3c 99 39 66 bd e0 1d 2c 3d d2 e5 f5 3c
       0.020265963 -0.056207273 0.04202068 0.030016813
000200 1f 53 42 3d dc 11 2d bd 04 75 3b 3d 0d e7 1e bd
       0.04744255 -0.04225336 0.04576589 -0.038794566
000210 ca a4 ae ba 65 05 24 bd 00 54 4a 3c c9 b6 0d 3d
       -0.0013324257 -0.040044207 0.012349129 0.034598146
000220 2a 85 68 bd 9b 77 9c 3c dc c1 ec bc 47 28 82 bd
       -0.05676762 0.019100001 -0.028901033 -0.063553385
000230 4d 71 4e bd e3 32 37 3a a9 1e f6 38 bb 0a f6 3a
       -0.05040102 0.00069884787 0.00011735905 0.0018771508
000240 ba 66 bf bd 9e 1f 56 3c d5 7d a9 bd 1a 3b 84 bd
       -0.093457654 0.013069062 -0.08275954 -0.06456585
000250 11 20 b0 bd 29 f8 55 ba b0 de 0e 3c 7a d6 40 bd
       -0.08599866 -0.0008162284 0.008720085 -0.04707954
000260 e2 6a fa 3c e1 c5 21 bd f0 b4 dd ba 70 09 80 bd
       0.030568544 -0.039495353 -0.0016914885 -0.062518
000270 2f 1f ea bc 74 19 4f bd 97 99 4f bc af 60 35 bd
       -0.028579323 -0.050561383 -0.012670896 -0.044281658
000280 84 53 3a 3d c2 85 42 3b c4 6e a5 3b 4c a6 fa 3c
       0.045489803 0.0029681777 0.0050486047 0.030596875
000290 d8 a0 8b 3c d0 83 08 bd e4 9d 06 3d 10 d1 91 bd
       0.01704447 -0.03332883 0.03286542 -0.07119954
0002a0 1d 08 2a bd 90 67 00 3d 6a c8 c8 3b 7b c7 56 bd
       -0.041511644 0.031348765 0.006127407 -0.052436333
0002b0 5d 15 0c 3d a8 e8 d8 bc 67 de 65 3c 0f 87 2f bc
       0.03420006 -0.026478127 0.014030076 -0.010713353
0002c0 74 c8 11 3b e9 92 48 3c 9d 3a 2b bc b8 f8 07 3b
       0.0022244724 0.012242057 -0.010450986 0.0020747613
0002d0 69 da 14 bc ff 49 b7 bc b4 a1 18 bd 91 31 8e 37
       -0.009085276 -0.022374151 -0.037263587 1.69508e-05
0002e0 62 de 34 bd 21 4a 94 bc 8d f0 8f 3c 47 a6 f0 bb
       -0.044157393 -0.018101754 0.017570758 -0.0073440406
0002f0 b6 a9 56 bd 26 9e 03 bd df a6 e0 bc 80 30 11 bd
       -0.052407943 -0.032133244 -0.02742332 -0.035446644
000300 3f 7c 38 bd c2 35 2f bd 55 7d 80 bd 0a 0d 30 bd
       -0.045040365 -0.042775877 -0.06273905 -0.042981185
000310 e7 2b 0c bd 28 a2 9d bc 91 cf 29 3d 71 a5 f1 3c
       -0.034221556 -0.019242361 0.041457716 0.029497834
000320 5c 46 75 bd 92 cb c7 bd 43 f5 3a bc e2 6f 3b bd
       -0.059881553 -0.09755625 -0.011411014 -0.045760997
000330 9b 32 1c bc 0e 19 73 bd 94 32 a6 bd 28 65 b5 bb
       -0.00953355 -0.059350066 -0.08115116 -0.0055357404
000340 32 b0 25 3c 7d be 98 bd 28 f9 c4 bd 20 3e 80 bd
       0.010112809 -0.07458208 -0.09617835 -0.062618494
000350 51 4b 22 bd d7 e7 21 bd f5 aa 0d bd 9f 23 b9 bd
       -0.03962261 -0.03952774 -0.034586865 -0.09039997
000360 60 73 07 3c a3 67 0d bd 7d 6c 98 bd a9 cb c9 bc
       0.008267254 -0.034522664 -0.074425675 -0.024633246
000370 e8 e3 52 bd a5 73 ae bd 71 99 24 bd 09 94 81 bc
       -0.05148688 -0.08518151 -0.040185396 -0.015817659
000380 2b 52 ec bc ed 50 0c bd 1f 46 7b bc 03 c8 86 bd
       -0.028847774 -0.034256864 -0.015336542 -0.06581118
000390 0f 9a 5a bc 6d 8c 85 3b 78 b0 89 bd 8f 27 b0 bc
       -0.0133423945 0.004075578 -0.06723112 -0.021503238
0003a0 1f 29 e7 3c bd a0 7d 3d 46 c3 81 bc 08 36 48 3c
       0.02821785 0.06192087 -0.015840184 0.012219913
0003b0 85 9b 0a bd 2b 3b 00 3d 52 43 e5 bc 21 41 47 bd
       -0.03383972 0.031306427 -0.027986202 -0.048646096
0003c0 8d 4e 39 3c a0 ba 73 3c a5 ac 7a 3c 5f 8a cb bc
       0.011310232 0.014876038 0.015299951 -0.024846254
0003d0 8d 2b 86 bd 3c e0 52 3d 32 93 08 3d f4 e6 10 3d
       -0.065512754 0.051483378 0.0333435 0.035376504
0003e0 03 df 77 3d c9 4c 79 bd 7d 43 2d 3e 13 b0 8d 3e
       0.060515415 -0.060864244 0.16920276 0.27673396
0003f0 b5 77 7a 3e 6c 64 cc 3d a2 c9 83 bd 99 0b 84 3e
       0.24459727 0.099800915 -0.06434943 0.25790098

features.10.bias f4 [32]
000000 c0 fa 64 bd 47 f1 9f ba 7b 86 53 bb a4 f7 0b bd
       -0.055903196 -0.0012202644 -0.0032276202 -0.034171715
000010 49 db 58 bd 19 b8 6e bd d5 eb 7c 39 c2 14 e2 3d
       -0.0529435 -0.058281038 0.00024120447 0.110391155
000020 ea 14 6e 3d f9 02 5c 3d 8b 84 05 bd e1 0e da 3d
       0.058125414 0.053713772 -0.032597106 0.10647369
000030 bd f0 a0 3d af 28 41 3c da ac 81 bd 56 cc 33 3d
       0.07858417 0.011789485 -0.06331797 0.04389604
000040 81 a2 6a bd 1f ef 33 bd da b0 5c 3d 41 c5 0a 3c
       -0.057283882 -0.043929216 0.053879596 0.008469881
000050 2d 9a bb bd 55 56 a1 3b 84 62 21 3b 93 de 2e bd
       -0.09160266 0.0049236217 0.002462537 -0.042692732
000060 eb 76 7c 3c 61 6c 4a bd b8 09 7f 3d 71 13 28 3d
       0.015409212 -0.049419764 0.062265128 0.041034166
000070 c8 e6 c4 3d c9 ad 41 bd d1 5b 0c bd dd d2 68 3d
       0.096143305 -0.047284875 -0.03426725 0.05684172

features.12.weight f4 [32, 32, 5, 5]
000000 11 76 b5 3b 95 97 53 3d 73 ab 4b bb 95 fe d4 bc
       0.0055377563 0.05165823 -0.0031077533 -0.0260003
000010 2b 6f b7 3c ec df 60 3d 07 38 02 3d 75 bb 06 3b
       0.022391876 0.05490105 0.031791713 0.002055851
000020 4b 0a 4b bc dc 07 83 bc 94 10 6c 3c 57 02 32 bd
       -0.012392591 -0.015994959 0.014408249 -0.043459263
000030 cd 1a 13 3d 6f 69 8e 3c e8 c5 e5 bb 2e 68 cf 3c
       0.03591423 0.017384259 -0.0070121177 0.025318231
000040 a5 f3 3d bd 4c b9 25 3d 89 32 94 3b e1 bf e3 bc
       -0.046374936 0.040459916 0.004522626 -0.027801456
000050 7d cd 63 3d 47 df 59 bd 63 6f 88 bc 3b cb 44 3c
       0.05561589 -0.05319145 -0.016654676 0.012011345
000060 9f 69 55 3d 8e eb 23 bc 84 b5 cd bd 4a 7d bd bd
       0.05210268 -0.010004891 -0.10044387 -0.092524126
000070 b8 48 f6 bc 37 95 93 bd 38 60 40 3c db c2 cb bd
       -0.030063972 -0.07206195 0.01174169 -0.09949275
000080 8f fb 79 bd 4e 30 e0 bd 36 d3 ed bc 2f c0 e9 3c
       -0.06103092 -0.109467134 -0.029031377 0.028534023
000090 62 0e c9 3c ba 42 8d bd c1 5a 46 3b 2d 09 5f bd
       0.024542991 -0.06897493 0.0030266496 -0.05445211
0000a0 a4 a4 76 bd be 0a 9e bd 00 5c 9e bd b1 e1 ba 3c
       -0.060215607 -0.07716893 -0.07732391 0.022812696
0000b0 55 03 9d bd 1f 02 40 b9 18 3f 70 3d 78 4f 69 3d
       -0.07666651 -0.00018311337 0.05865392 0.056960553
0000c0 df 8d bf bc 3c 65 d1 ba 97 cd 28 bd 8d 34 32 3d
       -0.02338308 -0.0015975605 -0.04121169 0.043507148
0000d0 7e 8d 2b bd f5 15 ae bc 16 c9 ab bd 9a a0 33 bd
       -0.041882984 -0.021250704 -0.083879635 -0.043854333
0000e0 5e 12 11 3d ff 57 1a 3d f9 63 8c 3c 9e d6 a4 3b
       0.035417907 0.037681576 0.017137514 0.005030467
0000f0 d2 7b db bc e0 13 35 bd b4 85 8c 3d c6 53 4c bd
       -0.02679244 -0.044208407 0.06861439 -0.04988458
000100 74 2a a2 bd 92 36 55 bd a5 48 12 3d a1 ca e7 ba
       -0.079182535 -0.052053995 0.03571381 -0.001768429
000110 40 fe 45 bd af 5d b2 bd a2 c1 60 bd 34 cb b3 3c
       -0.048338175 -0.08709275 -0.054872163 0.02194748
000120 db 98 7b 3d af 62 95 bd 9d d2 88 bc 46 4b 2c 3d
       0.06142507 -0.07294213 -0.01670199 0.042063974
000130 c6 57 38 3d 30 4e 14 bd 54 de 91 bd ee 8f 0d 3d
       0.045005582 -0.036207378 -0.07122484 0.03456109
000140 08 41 c8 bc 3d ad 5e bd cd eb 26 bd c7 6b 62 bd
       -0.024445072 -0.05436443 -0.04075222 -0.055278566
000150 d3 a1 1a bd b9 b7 82 3d c0 0d 49 3c 3d 23 4f 3d
       -0.037751984 0.063826986 0.012271345 0.050570715
000160 b6 21 1a 3d ec a8 f4 bc 82 25 7a bc 25 06 30 bd
       0.037629806 -0.029865704 -0.015267732 -0.04297461
000170 e0 4f 0d bc 76 1f 01 3d cb 62 3f 3d 9d 89 50 3d
       -0.008625001 0.031524144 0.046725076 0.05091249
000180 0a 15 9b bc 15 4f 72 3d af 1c 30 3d 8c 24 83 3b
       -0.01893093 0.05915745 0.042996105 0.0040021595
000190 5e 9b 84 bc bd 8e 11 bd 71 51 0f 3c cc a8 8b bd
       -0.016187366 -0.035536516 0.0087474445 -0.06819305
0001a0 6b 7d 35 bc 08 65 da 3c 0a f5 8a 3c a8 02 7a bc
       -0.011077265 0.026659504 0.016962547 -0.015259422
0001b0 4e 54 47 bc 36 9b 40 bc c8 99 97 3d 75 6d 17 3d
       -0.012166096 -0.011755755 0.07402378 0.03696962
0001c0 d8 76 a6 bc 11 00 72 3d 90 ea 5a 3d 5f 5a 87 3d
       -0.020320341 0.059082095 0.053446352 0.06609034
0001d0 d1 67 24 bc 7d 6a bd bc a9 86 44 bd 21 69 f5 3b
       -0.010034517 -0.023122067 -0.047979984 0.007489339
0001e0 04 a9 08 bd 97 8b 1f 3d 72 e9 14 bb 93 b2 70 3c
       -0.03336431 0.038951483 -0.0022722152 0.014691013
0001f0 d4 df 18 bd 53 e6 66 bd a7 8e 3f bd 62 35 bc 3c
       -0.037322834 -0.056371998 -0.046766903 0.022974674
000200 61 a0 20 bd 4d 66 da 3c 6b 60 11 bd 57 f1 fd 3c
       -0.03921545 0.026660109 -0.035492342 0.030998869
000210 6c b9 67 bd b3 1a 7b bd d6 31 26 bd bb af e5 3c
       -0.056573316 -0.06130476 -0.04057487 0.028037896
000220 f1 6b 0c 3d 3f c3 16 3d 57 88 14 bd 0b eb 92 ba
       0.03428263 0.036807295 -0.036262836 -0.0011208964
000230 c8 90 42 3d 33 88 b7 bb ee 8e 8f bd 55 3b d0 3c
       0.047501355 -0.005600953 -0.070096835 0.025418917
000240 b0 ce e2 3b d9 c8 28 3b 7c 44 a9 bc 34 66 ef bb
       0.0069216117 0.002575448 -0.020662539 -0.0073058847
000250 33 4b 08 3c e1 fe 60 bc 67 ea 79 3c 9c 7b 78 bd
       0.00831871 -0.013732643 0.01525364 -0.060664758
000260 bf 3f a6 3c f2 25 29 bc 9d e3 b1 bd da ee 4f 3c
       0.020294068 -0.010323988 -0.08685992 0.012691224
000270 2b 4a 9c 3c 84 80 75 bb 00 cc 2d 3c c9 46 49 bc
       0.019078335 -0.0037460634 0.010607719 -0.012284943
000280 a7 39 31 bd 04 05 91 bd ac 00 1e bd f4 54 88 bc
       -0.043267872 -0.07081035 -0.03857486 -0.016642071
000290 27 85 f5 bb bc ec 72 bc 05 0d b0 bd 98 0a 7a bd
       -0.0074926796 -0.01482695 -0.08596233 -0.06104526
0002a0 ff 0d cd bd 37 3b ab bd 91 bd 19 bd 59 55 98 bd
       -0.10012435 -0.08360904 -0.0375343 -0.07438154
0002b0 e8 23 ac bd c9 37 1f be ae cf 49 be 2b b9 ec bc
       -0.08405286 -0.15548624 -0.1970813 -0.028896889
0002c0 51 83 33 bd 2f 3e 55 bd c7 e4 05 bc c5 10 3f bc
       -0.043826405 -0.052061256 -0.008172221 -0.011661713
0002d0 ba 91 e3 3b a5 da 84 bd 3a 63 55 bd cb 06 15 3d
       0.006944862 -0.06487016 -0.052096583 0.03638343
0002e0 96 c4 20 3d 5d be 2d 3d f8 2b 6d 3c 13 e1 64 3d
       0.03924998 0.042417873 0.014475815 0.05587871
0002f0 e1 a0 bc 3d 28 a6 3b 3c e5 f6 c7 3c 21 3e 38 3d
       0.09210373 0.011453189 0.02440972 0.044981126
000300 3b c8 5e 3c 8d fe f3 3d 83 82 ba 3d d3 75 15 bd
       0.013597543 0.11913786 0.091069244 -0.03648932
000310 37 20 8a bd 73 77 05 3c 2b 90 21 3c 69 5f 31 3d
       -0.06744426 0.008146155 0.0098610325 0.04330388
000320 04 9c 44 3d e6 6c 70 bb a5 f8 91 3d fb ff 74 3d
       0.04800035 -0.0036686002 0.07127503 0.059814434
000330 f6 6f c5 3d 3f ae 48 3d dc 92 8a bc 04 bb ce bc
       0.096404955 0.0489943 -0.016915731 -0.02523566
000340 7c 62 f6 3d 74 b5 ab 3d d2 bd c7 bd 98 25 64 bd
       0.12030503 0.08384219 -0.09753002 -0.055699915
000350 6f 0c 88 bc fc 2a 3e 3c e7 ba 2f bb 68 81 fd bc
       -0.016607491 0.011606928 -0.0026814283 -0.030945495
000360 e6 26 9c bd 63 97 51 bd 78 86 50 3c 4b 06 27 bd
       -0.07624607 -0.051169764 0.012727372 -0.040777486
000370 aa 6b 5e bd 84 5c f9 bc de 01 c2 bc b3 95 4f bc
       -0.054301895 -0.030439623 -0.023682531 -0.012669968
000380 91 a9 a2 bc 9d 5d 51 bd 93 46 1f 3d 64 49 07 bc
       -0.019856246 -0.051114667 0.038885664 -0.008257244
000390 27 3e 02 bd 3c 04 8a bc 65 84 2a bc 8c 03 19 3a
       -0.031797554 -0.016847722 -0.010407542 0.00058370153
0003a0 24 97 b6 39 31 15 65 3d 8b 39 e8 3c 56 e2 4f 3c
       0.00034826354 0.055928413 0.028347751 0.01268824
0003b0 4c d4 f6 3c 50 a3 8a 3d 18 9c 60 3d 15 35 02 3c
       0.030130528 0.06769431 0.054836363 0.007947226
0003c0 d0 78 60 3d 9d 91 25 bd 06 84 34 39 70 52 1a bd
       0.054802716 -0.04042207 0.0001721532 -0.037676275
0003d0 0a 62 20 3d be 2a 05 bd 10 1f 2b bd dc 69 04 3d
       0.039155997 -0.032511465 -0.04177767 0.032327518
0003e0 3c 72 a3 bc a9 96 6f 3c a6 c9 7c bc 22 ca a5 bc
       -0.019951932 0.0146233225 -0.015428936 -0.020237986
0003f0 0b ff 14 bd 4d f9 91 bd e0 ce b7 3c 7d 58 76 bd
       -0.03637604 -0.071276285 0.022437513 -0.060142983

features.12.bias f4 [32]
000000 8e a4 0d 3e df 82 9f 38 97 e8 e6 ba a5 39 4d bc
       0.13832304 7.6060875e-05 -0.0017616925 -0.012525951
000010 d4 e7 08 3d a8 25 63 3d 77 65 44 3c d3 66 88 bd
       0.033424214 0.055455834 0.011987082 -0.06660237
000020 fa c7 3e 3d 18 a5 75 3d 5c ce 8c bd 3c f6 53 bb
       0.04657743 0.0599719 -0.068752974 -0.0032342812
000030 10 bb 80 bc 18 43 18 3d 63 8f 81 3c 5a 45 17 3c
       -0.015714198 0.03717336 0.015815442 0.009232843
000040 1f 9e 0e bd df 96 9c 3d 75 6f b0 3d b5 d6 ff 3d
       -0.034818765 0.07645964 0.08615009 0.12492124
000050 49 53 a3 bd 96 28 0e bd 6f 58 2c bd 89 2f 1e bd
       -0.0797487 -0.034706675 -0.042076524 -0.03861955
000060 ef 59 16 3d 26 12 43 bd 37 d0 07 bc 3e c7 4b 3d
       0.03670686 -0.04762473 -0.008289388 0.04975056
000070 0f 16 fd bc 7b c0 39 3c 87 2f 36 bd 92 0b 15 bd
       -0.030894307 0.011337395 -0.04447892 -0.036387987
