output/models/220624_2010_ggcnn2_met_ruis_rotate_0.2_poging3/epoch_03_iou_0.47_statedict.pt (torch, 274205 bytes, 20 tensors)

features.0.weight f4 [16, 1, 11, 11]
000000 fa 2c 51 3d 78 c3 40 bd be 5f b4 bc 02 f7 42 3c
       0.051068284 -0.047061414 -0.02201831 0.011899712
000010 02 ce 21 3c 41 97 7c 3d 47 50 ec 3c 28 d7 81 3d
       0.009875776 0.061667684 0.028846873 0.06339866
000020 2c b2 1d 3c 57 80 98 3d 3d f3 b1 bc 1e 12 d6 3b
       0.009624999 0.07446354 -0.02172243 0.0065329215
000030 9e 07 2e 3d 06 a9 28 bd 39 47 16 3d 5c 16 09 bd
       0.042487733 -0.04117682 0.036689017 -0.03346859
000040 8e 92 37 3d bb 85 15 bc ae e8 4f bb 7f bf 3a 3d
       0.0448175 -0.009126122 -0.0031724381 0.04559278
000050 76 37 22 3d da ff 9a 3d da c8 fe bb 4c b5 24 bd
       0.039603673 0.07568331 -0.007775408 -0.04021196
000060 f5 67 7a 3d bb cd 0e 3d e0 31 0d bd 15 35 a1 3b
       0.061134297 0.03486417 -0.034471393 0.004919658
000070 a4 5e 3c 3c d9 a0 94 3d 22 81 73 3d 0d 53 13 3d
       0.011497173 0.07257242 0.059449323 0.035967875
000080 96 30 d0 3c e1 41 78 3d 4b 93 ca bc c4 a7 fe bc
       0.025413793 0.060609702 -0.024728438 -0.031085856
000090 2a e4 19 bd 85 a3 84 3b 60 7f 09 3d 18 61 91 3c
       -0.03757111 0.0040478134 0.03356874 0.017746493
0000a0 63 0a ea 3c 66 ac 84 3d ad 69 8e 3d 40 0b 87 3c
       0.028569406 0.06478195 0.0695375 0.016484857
0000b0 a1 04 7c 3d 94 48 15 3d 00 ed 50 bc e3 18 08 3d
       0.061527852 0.03644617 -0.012751818 0.03322686
0000c0 04 f3 0e 3b 5e 5c 2d 3d 77 95 92 3c 3c f0 1e bc
       0.002181233 0.042324416 0.017893536 -0.009700831
0000d0 61 95 09 3d e1 90 65 3d 52 3d 19 3d 49 dd c6 bc
       0.033589724 0.05604637 0.037411995 -0.024275439
0000e0 30 ef 5c 3d 11 db 04 3d 9e 55 84 3d fc 2b 5b 3d
       0.053939044 0.03243548 0.06461643 0.053508744
0000f0 ca aa 06 bd 25 ac 26 3c 75 9b b3 bc 0b 51 d0 bb
       -0.03287772 0.010172878 -0.021924714 -0.0063573173
000100 20 96 5e 3b 0b 6a 62 3d ed 50 65 3d 01 2d cf 3b
       0.0033963993 0.05527691 0.05598538 0.0063225036
000110 f4 cb 29 ba 40 cc 00 3d b6 e1 13 3d d6 e7 96 ba
       -0.000647723 0.031444788 0.036103927 -0.0011513184
000120 e5 14 81 3d 98 be 74 3d 38 f9 17 3c de 7a c6 bc
       0.063028134 0.059752077 0.009275727 -0.02422851
000130 6c 6d cb bc a9 f4 aa bc ea ee a0 3c 5d 69 4b 3d
       -0.02483245 -0.020868616 0.019645173 0.04966103
000140 df 9b 03 3d 15 d9 0e bd 24 eb ab 3c 7b f2 92 bb
       0.032131072 -0.034874994 0.020986147 -0.0044844723
000150 b5 81 ab bc db 50 79 3d d9 1f 36 3c 5f 18 b0 3c
       -0.020935873 0.060868125 0.0111159915 0.021495996
000160 36 36 2a bd d2 07 02 3d 86 bd 3a 3d 53 1c 90 bc
       -0.041555606 0.03174574 0.0455909 -0.017591631
000170 22 91 ee bc 30 8c 09 3d b9 09 85 3d 0b f1 2d 3c
       -0.02912194 0.03358096 0.06495995 0.010616551
000180 f7 65 75 3d c5 9e d0 bc d0 9c 67 3d d7 b2 cc 3c
       0.059911694 -0.025466332 0.056546032 0.024987621
000190 3b 31 e7 bb 91 0f de 3c b6 dc fa 3c 16 ab 62 b7
       -0.0070554293 0.027107032 0.030622821 -1.3510484e-05
0001a0 1a 42 18 3d 1b cc 02 bd ae 40 0f bd f1 45 a8 3c
       0.037172414 -0.03193293 -0.034973793 0.020541163
0001b0 0e b7 2b 3d a6 90 24 bd 5f a1 2c 3b 50 a7 ee 3b
       0.04192262 -0.04017701 0.0026341302 0.007283129
0001c0 b6 c0 cb 3c 81 6e 77 bc 5a 5a f2 3c 25 51 3a 3d
       0.024872165 -0.01510203 0.029584099 0.04548754
0001d0 51 2a 31 bc 93 46 9b bc 8a 09 61 3c e6 fb fe 3c
       -0.010813312 -0.01895455 0.013735184 0.031125974
0001e0 1b 14 4d bd a9 9a 7a 3d 11 a5 5f 3d f0 d4 2f 3d
       -0.050068002 0.06118265 0.05460078 0.042927682
0001f0 58 73 cb 3c e4 a7 4e 3d ae 34 7a 3d 6d 27 96 3d
       0.024835274 0.05045308 0.061085396 0.073317386
000200 ec ba 32 3d 4f 41 98 bc 0f d8 70 3d 08 d6 49 3d
       0.043635294 -0.018585829 0.0587998 0.04927638
000210 3c 44 42 3d 26 ef a3 3d c1 10 f5 3c 5c 75 88 3d
       0.047428355 0.08004598 0.029915215 0.066630095
000220 cf 6f 64 bb 5a 9c b1 3d b5 4e 6f 3d 60 94 1b 3d
       -0.0034856682 0.086724 0.05842467 0.0379833
000230 b8 70 d3 bc 05 4e 75 3c 07 c4 d6 bc 3e 0a 9c 3d
       -0.025810584 0.014972215 -0.02621652 0.07619141
000240 aa 8c 83 3c 2f e0 6c 3d 49 62 8a bc 35 67 89 3d
       0.016058285 0.057830986 -0.01689257 0.06709138
000250 0d 40 95 3c b0 dc 89 3d e6 bd 97 3d 7c 35 80 3d
       0.018219018 0.06731546 0.07409267 0.06260201
000260 75 21 92 3d 71 cc 48 3d 07 ab 4f 3c 35 da bf 3d
       0.07135288 0.049023096 0.012675053 0.093677916
000270 26 03 5a 3d 4c 38 4c 3d bc c2 ac 3d 95 15 0e 3d
       0.05322566 0.049858376 0.0843558 0.03468855
000280 51 91 c3 bc 7b 22 4a bc 9c 7a 72 3d 55 62 7c 3d
       -0.023873003 -0.012337322 0.05919896 0.061617214
000290 e5 fe 46 3d 53 50 a6 3d c2 9f 60 3d 6c d4 91 3d
       0.04858293 0.081207894 0.054839857 0.071205944
0002a0 e9 fc 37 bc f9 df f1 bb a7 ab 72 3c 10 b1 06 3d
       -0.011229732 -0.007381436 0.014811433 0.032883704
0002b0 42 85 f3 bc 77 6d 9f 3b d2 81 6c bc 16 3c 08 3d
       -0.029726628 0.004865344 -0.014435248 0.033260427
0002c0 d1 d9 3d 3d b2 e7 a1 bb 6f 9d d0 bc 09 60 a2 3c
       0.046350304 -0.0049409503 -0.025465695 0.019821184
0002d0 cf 93 1a 3b 51 9e 40 3c 57 cc 1c bd 1b b1 8b bb
       0.0023586636 0.011756496 -0.03828081 -0.004263056
0002e0 db 52 76 bd 39 20 e2 bc 8c f1 fe 3b 87 1a 0a 3c
       -0.06013761 -0.027603256 0.0077802595 0.008429176
0002f0 dd 28 52 3d 4e 8c 5b 3d 91 83 07 3d a1 9e 16 bd
       0.0513085 0.0536006 0.033084456 -0.036772374
000300 64 43 e3 bc 08 1c 18 3d 09 d9 e8 bc 8b 09 3f bc
       -0.027742095 0.037136108 -0.028423803 -0.01165999
000310 11 b0 06 bd 54 21 46 bc 40 55 25 bd ee 1e c0 3c
       -0.032882754 -0.012092907 -0.040364504 0.023452248
000320 ee 89 b3 bb bc 14 76 3c 0f cb 96 3a db e9 27 bd
       -0.005479089 0.015019592 0.0011504608 -0.040994506
000330 4d 07 80 ba 6b 43 2a bd 0e 7c 5a bd 74 f2 10 bd
       -0.0009767801 -0.0415682 -0.053340964 -0.03538747
000340 a1 46 68 3b 72 11 34 bd 9d d4 8b bd 26 47 71 bd
       0.0035442489 -0.04396195 -0.06827662 -0.058905743
000350 a0 af 39 bc 91 0a 2c 3c be c9 2d bd de 55 14 bd
       -0.011333376 0.010500566 -0.042428724 -0.0362147
000360 06 8d 2b bb 97 3c c2 bd 5a f7 90 bd 92 d5 26 bd
       -0.0026176586 -0.09484213 -0.070784286 -0.04073102
000370 ea d5 95 bd 63 a8 52 bd 0a 5a 1a 3c 62 c5 53 bd
       -0.073161915 -0.051430117 0.009420881 -0.05170191
000380 a5 ae 61 bd cc f0 bd bd e1 0e 2e bd e7 2e 8b bc
       -0.055098195 -0.09274444 -0.04249466 -0.016990138
000390 64 50 5e bd 5c 48 af bd 5d 12 a3 bd 4c 5c 95 bc
       -0.054275885 -0.08558723 -0.07962487 -0.018232487
0003a0 50 48 62 bd 9a 32 78 bd ce 3a b3 bd 59 9c 1a bd
       -0.055244744 -0.060595132 -0.087514505 -0.03774676
0003b0 44 8a a8 bd cc 0a dd bd 24 98 28 bd 5f f0 28 bd
       -0.08229497 -0.10793075 -0.041160718 -0.04124486
0003c0 99 55 9c bd fe df e1 bd 1e 38 bc 3b a7 41 b3 3c
       -0.07633514 -0.11029051 0.0057439944 0.021881891
0003d0 e5 91 28 bb 2f 18 5f bc c3 65 dc bc df d1 59 3c
       -0.0025721726 -0.013616606 -0.026903993 0.013294666
0003e0 46 a5 42 3d 03 af 1a 3b f4 38 3f ba 9e f7 05 3d
       0.0475209 0.002360285 -0.00072945585 0.03270685
0003f0 2f aa 04 bd 60 c1 98 bc 48 d0 f0 38 af 04 28 bc
       -0.032388862 -0.018646896 0.00011482887 -0.010255023

features.0.bias f4 [16]
000000 a7 da 00 be 42 22 b5 bd 5b 96 62 3d 58 45 04 be
       -0.12583409 -0.08844425 0.05531917 -0.12917078
000010 a6 0e a9 3c 79 c4 d2 3c d2 fb 4c 3d 7e de d2 bd
       0.020636868 0.025728451 0.050044842 -0.10296343
000020 b5 94 ae bc 32 16 3f 3b c7 e7 e5 bb 26 f1 46 3e
       -0.021311143 0.0029157517 -0.0070161554 0.19427928
000030 a5 2a 39 bd 26 2d 10 3e b6 27 0d bd 0b 77 6a be
       -0.045206685 0.14079723 -0.0344617 -0.22896974

features.2.weight f4 [16, 16, 5, 5]
000000 c7 b6 ac bc ee c2 b8 bd 02 6e 79 3d 27 fa 05 3d
       -0.021083249 -0.09021555 0.060895927 0.032709267
000010 94 18 5a 3d e0 59 31 3d 5a 3d 18 3d 80 0b 93 3d
       0.053246096 0.043298602 0.037167884 0.07179928
000020 e4 69 76 bd 4e 00 06 3d 68 56 b1 3b ec 2b 10 bd
       -0.06015958 0.032715134 0.0054119118 -0.035198137
000030 f3 11 f0 3c b6 bf 61 3c e1 0b 15 3d 98 fa bb bc
       0.029305434 0.013778618 0.03638828 -0.02294664
000040 13 c7 47 bd 68 b2 56 bd 67 be 5b 3d eb e7 91 bd
       -0.048773836 -0.052416235 0.05364838 -0.07124313
000050 3a 48 ae bd fe 76 66 3d 16 91 6d bd 45 01 6c bb
       -0.0850987 0.056265824 -0.057999693 -0.00360115
000060 1f 64 3a 3d d5 e5 8a 3c 11 ec 4e bd 73 a9 53 3d
       0.04550564 0.016955296 -0.0505181 0.05167527
000070 29 6a 87 bd 16 f6 0e bc fb a5 aa 3d ae 5a 16 3d
       -0.06612045 -0.008725664 0.083324395 0.036707573
000080 47 91 d1 bc a6 73 ae 3d ed 68 1c bd d0 83 9a 3d
       -0.025581969 0.08518152 -0.038186003 0.075446725
000090 4e 18 77 bd a7 09 89 bd 15 e0 91 bd d9 37 f9 3c
       -0.060325913 -0.06691294 -0.071228184 0.030422138
0000a0 7f fb 4e bd 14 3e 09 bd 96 95 e2 3b ad f3 9d bd
       -0.050532814 -0.033506468 0.0069148047 -0.07712493
0000b0 20 da 4e bc 5c 9f 2c 3d 9e f2 2d 3d 83 72 b8 3d
       -0.012625247 0.042144164 0.042467706 0.090062164
0000c0 24 43 89 3c 2c ec 82 3d 03 ba 18 bd 84 5d 0a 3d
       0.016755648 0.063927025 -0.03728677 0.03378059
0000d0 3a b7 08 bd fc 0f 98 bd 2d 31 0c 3c 25 6e a6 bd
       -0.033377863 -0.07424924 0.008556646 -0.08126477
0000e0 46 52 63 3d bb 67 39 3c 53 f3 80 3d dc 0d 89 bc
       0.055498384 0.011316235 0.062964104 -0.016730241
0000f0 af ca 82 bd cb 42 d5 bc 9b b5 26 3c 38 39 50 3b
       -0.06386315 -0.026032826 0.010175134 0.0031772386
000100 d2 55 14 bb 65 41 30 3c ce 4b ed bc a4 19 3a 3d
       -0.002263416 0.010757779 -0.02896681 0.04543461
000110 74 92 34 3d 8f 09 06 bc 36 56 0e 3d 8c 00 e4 3a
       0.04408498 -0.00818099 0.034750186 0.0017395183
000120 33 83 32 3c 1a 54 64 3a 91 df 3e bd 03 c8 bd bd
       0.010895538 0.0008710042 -0.04659993 -0.09266665
000130 74 31 26 3d 47 aa 5a 3d 7b 0d 3a bd ff 22 11 3d
       0.040574506 0.053385045 -0.045423012 0.035433766
000140 4c f7 a3 bc 8e c7 c5 bd 77 69 05 3d d8 2f 65 3d
       -0.020015381 -0.09657203 0.032571282 0.05595383
000150 44 06 8a 3d 04 80 f7 3c e2 c6 6d 3c 74 a2 00 3d
       0.06739476 0.03021241 0.014512749 0.031404927
000160 c9 9d 88 bc ab 63 a4 bd e9 64 86 bd e4 1e b0 bd
       -0.0166768 -0.08026823 -0.06562216 -0.08599642
000170 ad 24 64 bd 2f cf c8 bd b9 65 90 bd 8a 0f 54 bd
       -0.05569904 -0.09805142 -0.07050652 -0.05177263
000180 f5 77 af bd f4 52 c6 bc 41 c8 3a bd ad 15 3e 3d
       -0.08567802 -0.024209477 -0.045601133 0.04640739
000190 f9 cd 7c bd 18 7d 6b bd b2 10 54 3d cd c7 4e bd
       -0.06171987 -0.057492346 0.051773734 -0.050483514
0001a0 34 e3 f8 bc ad 26 5c bd 56 3f ec bc ba 25 7a bc
       -0.030381776 -0.05374782 -0.028838795 -0.015267784
0001b0 a2 26 32 3d b7 c1 d3 3b 2b ce 95 3d 11 b9 ab 3d
       0.043493874 0.0064623016 0.07314714 0.08384908
0001c0 f4 f8 82 bd b5 22 42 3d 2f 32 bb 3d a0 66 11 bd
       -0.0639514 0.04739638 0.09140431 -0.03549826
0001d0 9c a7 65 3d 18 c2 7e bd 13 99 5d 3c fd 1d 36 bd
       0.056068048 -0.06219682 0.013525265 -0.044462193
0001e0 49 95 6a bd 97 c4 a2 bd f7 c9 84 3d 84 f0 17 bd
       -0.057271276 -0.07947653 0.06483834 -0.037094608
0001f0 46 c2 ae 3d 26 f8 35 3d de 94 fd 3c fd 87 2b 3d
       0.085331485 0.044426106 0.030954774 0.041877735
000200 65 b3 64 bd 9e e7 9d bd a8 96 04 bc 89 98 85 bd
       -0.055835146 -0.07710193 -0.00809256 -0.065232344
000210 e2 b5 88 bc 9d 68 2e 3d 12 30 95 bd 05 2c 88 bb
       -0.016688291 0.042580236 -0.07284559 -0.004155638
000220 5c 7f 27 3d 2f 44 7d bd 03 dc 08 bd 60 60 23 3d
       0.040892944 -0.061832603 -0.033412945 0.039886832
000230 2f 14 62 bd ed 90 37 bd 52 8e 8c 3d 86 eb 37 3d
       -0.05519503 -0.044815946 0.06863083 0.044902347
000240 ec 2f a5 3d 53 08 2a ba 35 01 48 bd 7c 07 b9 bd
       0.08065781 -0.0006486226 -0.048829276 -0.09034631
000250 72 f0 d5 3c d7 8c 29 3b 19 96 83 bd 8f 79 10 3d
       0.02611563 0.00258713 -0.06425113 0.035272177
000260 dc e9 93 3c 88 2f 03 3d 69 37 7b bd e6 51 6f 3d
       0.018055849 0.03202775 -0.06133214 0.058427714
000270 5a 22 04 bd 0f 6e 3e 3d 3d 7f df bc e0 33 91 3d
       -0.032259323 0.04649168 -0.027282352 0.070899725
000280 50 dd c3 3c 3f 24 4d bd 0a 41 a7 bd 40 b8 59 bd
       0.023909241 -0.050083395 -0.08166702 -0.05315423
000290 7b 5b a3 bd 73 ac 70 ba bf b4 49 bc f9 0d 35 3d
       -0.07976433 -0.00091809704 -0.01231116 0.04420278
0002a0 88 90 d8 3c 9b 07 39 3b f1 f0 65 3d 54 49 6d 3d
       0.026436105 0.0028233293 0.056137983 0.05793126
0002b0 cb 64 23 3d c1 84 70 bc 58 6c 5e bc 8b 5a c3 3d
       0.039891046 -0.0146800885 -0.013575636 0.09538754
0002c0 c8 8e 77 3d 9e f8 ac 3d d2 f7 74 3d b0 9d ac 3d
       0.0604389 0.084458575 0.059806652 0.08428514
0002d0 7e af 64 bd bf 83 69 bd 21 9c 75 3c 8b 61 b6 3d
       -0.055831425 -0.05701041 0.014990837 0.089053236
0002e0 e4 61 65 3d 6f 03 d9 3c e5 93 c5 bc a8 b5 bc 3c
       0.05600156 0.026490895 -0.024118373 0.02303584
0002f0 a0 59 bd 3d 18 72 c5 bc 0e 0d b3 3c 51 59 4c 3d
       0.0924561 -0.024102256 0.02185681 0.049889866
000300 ae c7 f3 bc 5e c8 65 bd 6b 74 19 bd 38 f6 0d 3d
       -0.0297583 -0.05609929 -0.03746454 0.03465864
000310 de 0b 62 3d 49 ba 77 bc f2 d5 9a bd e5 51 47 3c
       0.0551871 -0.015120097 -0.07560338 0.012165521
000320 e3 f3 99 bd 7f c0 86 3d 9e df 74 bd fd c6 7b bd
       -0.07517221 0.065796845 -0.05978357 -0.061469067
000330 ad c2 4f 3c 66 80 4a bb 38 fd 8b bd 64 69 36 bd
       0.012680692 -0.0030899285 -0.06835407 -0.044534102
000340 ae 23 2e bc a7 b4 84 bd 4b 82 77 bd ea b2 a2 bd
       -0.010628624 -0.06479769 -0.06042699 -0.079442814
000350 93 d7 2d 3d 2e 13 3c 3d a3 a2 26 3d 38 49 a7 3c
       0.042441916 0.04591673 0.040682446 0.020420656
000360 65 98 13 bd e8 2e 89 3d 68 f3 c2 bc 59 63 a5 3d
       -0.036034007 0.066984 -0.023797706 0.0807559
000370 f8 13 0c bd cd b9 52 3d 6e ee 86 bd 63 5d 72 bc
       -0.03419873 0.051446725 -0.065884456 -0.014792773
000380 1d 5b 4c 3d 0c f2 0f 3c 33 47 3e 3d eb c0 31 3d
       0.04989158 0.008785736 0.04645462 0.04339687
000390 6e 80 29 3d b8 79 46 bb 13 05 aa bd c6 f9 9e bc
       0.041382246 -0.0030284952 -0.08301749 -0.01940621
0003a0 ce b4 ae bd 28 61 35 3d 0f 84 d3 38 89 9f 71 bc
       -0.085305795 0.04428211 0.00010085862 -0.014747509
0003b0 a0 ee 0d bc 42 00 be bd 87 54 44 bc 04 77 9c bd
       -0.00866285 -0.09277393 -0.0119830435 -0.07639888
0003c0 e2 51 05 bd 6c e0 19 bd 4a 9a b7 bd 77 e9 46 3d
       -0.032548793 -0.03756754 -0.08964975 0.048562493
0003d0 1f 76 71 3d 83 bb 51 3d b1 06 6c bd 3a cb 2e 3d
       0.05895054 0.051204216 -0.05762357 0.04267428
0003e0 af e1 28 bd c5 0e a1 bc f8 6f 80 3d a1 e8 01 3c
       -0.041230854 -0.019660363 0.06271356 0.007928998
0003f0 e4 37 35 bd 85 7a a9 3c 36 b7 2f 3d 17 3d 7a 3d
       -0.044242755 0.020688305 0.042899333 0.061093416

features.2.bias f4 [16]
000000 1f f0 74 3c 8e 8c d3 3b 7c 87 6f bc fc 24 36 3d
       0.014949827 0.0064559644 -0.014619704 0.044468865
000010 e8 cd ae 3c 41 a8 40 3d 2e 9b c6 3c d5 6f 48 3d
       0.021338418 0.04703546 0.024243917 0.048934776
000020 c6 9a b6 bd 69 40 b6 bd f9 4f c6 3d 1d e6 57 3d
       -0.089162394 -0.08899004 0.09683222 0.052709688
000030 d1 48 29 3d d9 d7 11 3d 4c 56 1a bd 47 09 42 bd
       0.04132921 0.03560624 -0.037679955 -0.04737213

features.5.weight f4 [16, 16, 5, 5]
000000 28 8d 3e 3d 82 11 1f bb 80 a9 ae 3c ae 38 df bc
       0.046521336 -0.002427191 0.021321058 -0.027248707
000010 30 23 81 bd 15 80 93 3c 67 0a ba bd 24 74 54 bd
       -0.063055396 0.01800541 -0.09084015 -0.051868573
000020 60 0a 6f 3d 65 c0 3e bc 6b 3c 54 3d 66 e5 d3 3c
       0.058359504 -0.01164255 0.05181543 0.025866222
000030 8c 71 0e 3d 6d 11 7b bd 21 8b 17 bd 58 17 b9 bd
       0.034776255 -0.061295915 -0.036997918 -0.090376556
000040 87 1f ca bd a8 a7 62 bc fb b8 54 bd 14 75 e7 3a
       -0.098692946 -0.013833918 -0.051934224 0.0017658793
000050 6b bf 21 3d 35 13 1e 3d fa 50 67 bd ba ac 76 3d
       0.03948919 0.038592536 -0.05647371 0.06022332
000060 7c db 83 3d 85 66 77 3d 28 c2 26 bc 18 5f 5b 3d
       0.06438348 0.060400505 -0.010178126 0.053557485
000070 a9 72 2b bd 58 2e ce 3d ce 25 37 3c 42 ac bf 3c
       -0.041857395 0.10067433 0.011178447 0.023397569
000080 7c f8 83 bd a4 f7 bb 3a ab b1 18 3d e7 22 99 3d
       -0.06443879 0.001434077 0.037278812 0.0747736
000090 14 d2 22 bd f7 49 65 3c 5a 12 df bc 14 45 d8 bc
       -0.039751127 0.013994685 -0.02723043 -0.026400127
0000a0 bf c6 83 bd 8a dc 77 bd ea 2e b4 bb 62 0a 7f 3d
       -0.06434392 -0.060513057 -0.0054987567 0.06226576
0000b0 8a 3a 04 bd ca cf a9 bd 00 9c 1d 3b ea 0d 39 bd
       -0.03228239 -0.08291586 0.0024049282 -0.045179285
0000c0 91 31 e5 bc c8 a1 22 bd 4e 0a 06 3e 0a d2 57 bd
       -0.027977737 -0.039705068 0.13089868 -0.052690543
0000d0 dd 6e 2b bc 9c e6 fc bb 1b cf 80 3c 3b 76 fe 3d
       -0.010463444 -0.0077179205 0.015723756 0.124248944
0000e0 59 23 6a 3d 19 05 f0 3d 35 e5 a1 3d 34 6a ba bd
       0.057162616 0.11719722 0.07905046 -0.09102288
0000f0 c8 5d 96 3d 8d d5 02 3d dc a2 9d 3d bd 36 d9 3a
       0.07342106 0.03194194 0.076970786 0.0016572099
000100 1e ac ba 3a 58 ef c1 3d b5 b9 62 3d 6d 72 87 3d
       0.0014241969 0.09469479 0.055352885 0.06613622
000110 66 c0 80 bd 28 99 51 bd c6 01 c3 3d 06 8f c3 bc
       -0.06286697 -0.05117145 0.09521823 -0.02387191
000120 c5 5c 38 3b bb 88 2c bd 41 ae 0d bd 81 5e 87 bc
       0.0028131467 -0.042122584 -0.03459001 -0.016524555
000130 6c 28 2b be 62 32 0f 3e 50 47 24 3d e2 81 14 3e
       -0.16714638 0.13984063 0.04010707 0.14502671
000140 2e 6d d2 3d 78 21 2c be e1 ff f5 3c 2d 18 ed 3d
       0.102747306 -0.16809642 0.03002924 0.11576877
000150 fc 72 0f 3d a6 4f 16 bd 09 9d 34 be 01 13 13 3e
       0.035021767 -0.036697052 -0.17638029 0.14362718
000160 51 bc a9 3d 0f 07 28 3e 4c 3b 73 3c db d5 3a be
       0.08287872 0.16408943 0.01484568 -0.18245642
000170 33 e7 9d ba 0e 3c b4 3d 4a b1 5d 3d 07 2e bf bc
       -0.0012047052 0.08800517 0.054124154 -0.023337377
000180 18 78 50 bd 8d 6d dc 3d fd 36 23 3d 64 58 b8 3d
       -0.05089578 0.10763083 0.039847363 0.09001234
000190 59 28 b4 bd db 22 8a bd d9 a4 45 bd 3b eb 72 bc
       -0.08796758 -0.067449294 -0.048252914 -0.014826591
0001a0 da 84 4f 3d 98 d9 2b bb 10 7a b7 bd de ed 14 bc
       0.050663806 -0.0026222225 -0.089588284 -0.009089915
0001b0 5f 03 8e bb 66 16 59 bd fb 1c a8 bd ec f3 50 3d
       -0.004333898 -0.052999876 -0.082086526 0.051013872
0001c0 02 54 51 bd 5f 7e a8 3d 13 9b 2b bd 9b 35 a1 bd
       -0.051105507 0.082272284 -0.041895937 -0.078715526
0001d0 22 98 9d bd 66 09 fb 3a b9 f0 40 bd 8f 63 93 bc
       -0.07695033 0.0019152581 -0.04710457 -0.01799181
0001e0 44 87 41 bc e2 a3 87 bd 68 db 3a 3c eb 24 83 3d
       -0.011812035 -0.06623055 0.01140485 0.06403526
0001f0 c4 70 d4 3c be 77 bd 3d 35 10 d3 bd 65 db 46 3e
       0.025932677 0.09251355 -0.103058256 0.1941963
000200 dc 98 10 bd f7 66 ba bc d9 36 7b 3d da 18 1c be
       -0.035302028 -0.022754176 0.061331604 -0.15243855
000210 09 56 04 3e 55 ec f3 3c 71 b7 9d 3d 76 5a 1a bc
       0.12923445 0.029775778 0.07701004 -0.009420982
000220 85 22 06 be 87 05 10 3e e8 d5 94 bd d2 98 cb bb
       -0.13099106 0.14064609 -0.07267362 -0.006213286
000230 e0 10 69 3d cd 95 14 be 69 a7 3d 3e 09 cf 83 bd
       0.05690086 -0.1451027 0.18520893 -0.06435973
000240 94 ae 81 3d 79 ab f2 3c 3c cf 89 be 61 2a a8 3d
       0.06332126 0.02962278 -0.2691592 0.08211208
000250 fe 6f 0c bc 33 27 da 3d 83 9f d4 ba a8 48 af bd
       -0.008571623 0.10652008 -0.0016221855 -0.0855878
000260 50 27 db bb 31 b3 41 bc e3 e0 84 bc 8d 7c 13 3d
       -0.006688036 -0.011822508 -0.016220516 0.036007453
000270 b1 3e a3 bd ae 3e 1d bd 1e ff 5f bb d6 23 57 3d
       -0.07970942 -0.038389854 -0.0034179161 0.05252441
000280 71 c4 04 3c de ca b3 bb 03 f9 37 bd 98 20 07 3d
       0.008103476 -0.00548683 -0.04491521 0.03299007
000290 4d 05 80 3d 49 2d c0 3d 96 22 9f 3d cc b0 59 bd
       0.06251011 0.093836375 0.077702686 -0.053147122
0002a0 67 b7 a5 3d 53 90 25 3d 80 0a ae 3b 0d f2 09 bd
       0.08091622 0.04042084 0.0053113103 -0.033678103
0002b0 b8 55 60 3d 04 9d de 3c ef da e9 3d 3f f9 96 3d
       0.054769248 0.02717448 0.114187114 0.07371759
0002c0 19 b7 a9 3d ff bc 0b 3c 2f 78 d1 3c b7 07 b8 3d
       0.08286876 0.008528947 0.025570003 0.089858465
0002d0 c1 cf ce 3d f0 aa 83 3d 1c 5d 92 3d d5 ca f7 bc
       0.1009822 0.06429088 0.071466655 -0.030248085
0002e0 41 c1 5f bc 76 03 14 3c 63 2c 81 bd cc 53 9a 3d
       -0.013656915 0.009034028 -0.06307294 0.07535514
0002f0 5f 2e 84 bc ce ee 6e 3d 6e 82 63 bb 15 29 9d 3d
       -0.016135393 0.05833321 -0.0034715193 0.076738514
000300 44 32 ba 3c d1 d1 99 3d fe 4b 3e 3d 84 48 29 bd
       0.022729047 0.075107224 0.04645919 -0.041328922
000310 25 79 33 3c 5b a5 9c 3d fb f8 5a 3c d0 3a 99 3d
       0.010954176 0.076487266 0.013365026 0.07481921
000320 7f 69 22 3d e6 84 b1 bc 65 03 cd 3c 69 67 b0 3d
       0.03965139 -0.021669816 0.025026033 0.08613474
000330 6f eb 3f bc 12 bc 0f 3d ab 7e 5e 3d 45 36 81 bd
       -0.011713847 0.035091467 0.05432002 -0.06309179
000340 1c 19 9d 3c d4 52 a7 3a 1f 90 96 3c c7 78 91 3d
       0.019177012 0.0012765774 0.01837927 0.071031146
000350 37 4b 28 bd 00 7d 83 3d 49 95 b8 3d 66 fa 5f bd
       -0.041087355 0.06420326 0.09012849 -0.054682158
000360 59 69 31 bd df d3 16 bc e3 de 47 3d ea c5 89 3c
       -0.043313358 -0.009205787 0.048796546 0.016818006
000370 a4 2e a9 3d 36 e7 4f 3d 98 f2 70 bd 20 04 96 3d
       0.08260849 0.05075761 -0.058825105 0.073250055
000380 51 ad f5 bb 0b c6 a4 bc 6f ae b0 3b b5 13 a6 3d
       -0.0074974676 -0.020113965 0.005391888 0.081092276
000390 83 db a2 3d d9 f1 fd 3c a2 1b 40 bd 83 19 90 bd
       0.07952025 0.030999111 -0.046901353 -0.07036116
0003a0 06 32 80 bd 4f 2a 26 3d 44 a7 ab 3d b3 07 ba 3c
       -0.06259541 0.040567692 0.08381513 0.02270875
0003b0 39 50 da bd 27 b3 af bd 0e 21 e1 bd 8c f9 94 bd
       -0.106598325 -0.085790925 -0.10992633 -0.0727416
0003c0 0e 74 52 3d 86 de a5 3d d8 40 a4 3d 2e f3 c8 bc
       0.05138021 0.080990836 0.080201805 -0.02453002
0003d0 a0 b9 35 bd b1 ab 9d 3d b6 7e 2a 3d 5b cb f8 3c
       -0.04436648 0.07698763 0.041624747 0.030370405
0003e0 80 bf 03 bd 30 b9 52 bd e5 4c 54 bd d8 d9 9d bd
       -0.03216505 -0.05144614 -0.051831145 -0.07707566
0003f0 65 93 38 3d c1 27 90 bd ea a3 27 3c 2a 0b 5b 3d
       0.04506244 -0.070388325 0.010231951 0.053477444

features.5.bias f4 [16]
000000 eb 5b cc 3c c5 a2 8a bc 03 4f 2d 3d 9b 9d 02 bd
       0.024946174 -0.016923318 0.04231168 -0.031888586
000010 51 a5 a6 3c 11 d9 a2 3b 46 fb 80 3c e3 60 82 bc
       0.0203425 0.004969724 0.015744817 -0.01591534
000020 09 af af 3c 30 8b d5 3c 77 9e 95 bd 48 bf 3e bd
       0.021445768 0.026067346 -0.073056154 -0.04656914
000030 7c f8 b3 bd 14 c2 4b bd df 9d 1c bc 4b 5a e1 bb
       -0.08787629 -0.049745634 -0.009559124 -0.006877219

features.7.weight f4 [16, 16, 5, 5]
000000 3e 70 0e 3d ba b1 2e bc 03 4b 78 3d fb 1d af 3d
       0.03477501 -0.0106624905 0.06061841 0.0855064
000010 58 df 00 bd 15 8c e9 ba 46 d9 44 3d c6 e2 cf 3d
       -0.031462997 -0.0017818237 0.04805877 0.101506755
000020 e2 99 1a bd 3c 75 ad 3d c0 77 e0 3c b0 07 7e 3d
       -0.03774441 0.08469626 0.027400851 0.06201905
000030 34 58 80 3c 1a 06 80 bd 01 5f 3b bd 1b b5 3e bd
       0.015667059 -0.06251164 -0.0457449 -0.046559434
000040 1d 64 98 bc 9c b1 89 bd b3 f0 09 be f5 27 0f be
       -0.018602425 -0.067233294 -0.13470726 -0.13980086
000050 8e a7 fe 3c 23 25 d9 bd d7 bc 54 bd 8a 7c 40 bd
       0.031085756 -0.106027864 -0.051937904 -0.04699377
000060 20 22 75 bd 5c 2c 42 bb ea 7a 61 3d 24 83 30 3d
       -0.059846997 -0.002962849 0.05504886 0.043093815
000070 c3 dd 94 3d 23 65 8f 3a d0 2d 1e bd 04 2c 9b bd
       0.0726886 0.0010940175 -0.03861791 -0.07576755
000080 b3 8b 0d 3d d3 7b 97 3d 24 c2 33 bd f4 8e 78 3c
       0.034557056 0.073966645 -0.04388632 0.015170801
000090 00 56 72 bd b8 31 3c bc 8d 85 70 bd fb 2e 7c 3d
       -0.059164047 -0.011486463 -0.058721114 0.06156824
0000a0 72 68 48 bd c6 70 ba bc 60 18 89 3d cf ca 80 bd
       -0.04892773 -0.022758853 0.06694102 -0.06288683
0000b0 91 05 b8 bd e8 6d 62 3d 9e 4d 82 bc d2 e8 a2 bc
       -0.08985437 0.055280596 -0.015906151 -0.019886408
0000c0 af 74 a3 3d 5b 7e a9 bb 60 e8 14 3e 22 08 84 3d
       0.0798124 -0.0051725334 0.14541769 0.06446864
0000d0 a0 e7 04 3e fc d6 a5 3d cd fd be 3d 29 d5 d3 bc
       0.12978983 0.08097646 0.093257524 -0.025858479
0000e0 cd 12 24 bb c8 f2 5d 3c 80 93 55 3d 44 43 8e bd
       -0.002503562 0.013546653 0.05214262 -0.06946424
0000f0 69 77 bc 3b 9f 5d 71 3d ae 00 bf 3c b2 95 af bd
       0.0057515395 0.058927175 0.023315754 -0.08573474
000100 d2 52 d9 bd f5 de 86 bd 90 37 8f bd 4d 5e 01 be
       -0.106115 -0.065854944 -0.069930196 -0.12633629
000110 0d f6 c4 bd 1c 2c bd bd a2 40 e8 bd aa ce 49 bc
       -0.09617243 -0.09236929 -0.11340453 -0.012317339
000120 78 29 5a 3c 62 78 85 bd 61 6d da bd be aa d3 bc
       0.013315551 -0.06517102 -0.106653936 -0.025838252
000130 98 55 66 bc a1 83 62 3d 4a a4 51 3d 78 c4 78 3d
       -0.014058493 0.055301312 0.05118207 0.060734242
000140 d4 17 53 bd fc d2 dd 3c d9 cc c0 bd f3 1a 2a 3d
       -0.051536396 0.027078144 -0.094140716 0.041529607
000150 f9 7a 65 bd 43 83 11 bd 8b 54 2a bd d5 42 99 3d
       -0.05602548 -0.03552557 -0.041584533 0.0748345
000160 4f 7d 06 3c 59 11 39 bc 03 fa 4f 3d 0d 50 85 3d
       0.008208587 -0.01129564 0.05077554 0.06509409
000170 9a 0e bb 39 f8 c0 90 bd bf 27 8e 3d 2e d5 71 bd
       0.00035678298 -0.07068056 0.06941175 -0.059041195
000180 96 4f a0 bc 4b dd b1 bb bb 27 4a bd 26 7c 21 3b
       -0.0195692 -0.0054279915 -0.049354296 0.0024640649
000190 e8 57 13 3d 53 ac 53 3d 0d 5e 9d 3d 11 d3 1a 3d
       0.035972506 0.051678013 0.076839544 0.037798945
0001a0 e7 ef 54 bd ab b1 02 3d b3 0b 58 bd b4 27 9f bb
       -0.0519866 0.03190772 -0.052745532 -0.004857028
0001b0 1d 1a cf 3c 05 1e 9f 3c cb e7 82 bc 0d e6 82 bd
       0.025281006 0.019423494 -0.015979668 -0.06391535
0001c0 53 36 60 3d 20 f6 b9 3c 06 6b bc bd d1 d3 31 bd
       0.054739308 0.02270037 -0.092001006 -0.043414894
0001d0 e9 aa 77 3d 14 e9 1f bd b4 7d 85 bd fe 31 90 3d
       0.060465727 -0.03904064 -0.065181166 0.07040785
0001e0 fa 51 be bc ac 05 36 3d 9d bc 47 bc 14 90 9a 3d
       -0.023232449 0.044439003 -0.012190965 0.07547012
0001f0 33 99 0f bd 82 58 79 bd 1d 1e f4 bd 63 a8 08 be
       -0.03505821 -0.060875423 -0.11919806 -0.13345484
000200 8e ed 44 be 9d ba 54 bd f7 db be bd 5a 84 ce bd
       -0.19231245 -0.05193578 -0.09319299 -0.10083838
000210 7f dc db bd 76 95 56 3c e8 f4 15 be d7 18 4a bd
       -0.10735416 0.013097158 -0.14644206 -0.049340095
000220 75 12 f9 3c 0c cc b8 bd 49 92 16 bd d9 ff 80 bd
       0.030404309 -0.09023294 -0.036760602 -0.06298799
000230 16 8b 0b bd 44 f6 43 3c 7d 03 1f 3d 44 33 c5 bc
       -0.03406819 0.01196057 0.038821686 -0.024072297
000240 6d fb 37 bd 0b 61 4c bd 68 af a9 bd 27 aa 4a 3d
       -0.044917513 -0.049897235 -0.08285409 0.049478676
000250 bc 07 7a 3d 0a ab a7 bd 7f ca 5b bd 18 a4 26 bd
       0.061042532 -0.0818692 -0.053659912 -0.040683836
000260 dc 76 6c 3c 05 fd 2d 3d f0 52 58 bd fa 96 3f bd
       0.014432635 0.042477626 -0.05281347 -0.04677484
000270 f6 0c e6 3c 89 a0 10 3c 09 7a 3b 3d db 81 ac bb
       0.028082352 0.008827337 0.04577068 -0.0052645034
000280 f8 a8 8a 3c 8b a9 1f 3d 2f a2 46 bd 71 7d c3 3d
       0.016926274 0.03898005 -0.048494514 0.095454104
000290 e4 d3 ca 3d 47 df 70 bc 43 86 33 bc f4 c6 8f bd
       0.09903696 -0.014701671 -0.010957303 -0.07020369
0002a0 c6 53 d8 bd 43 ab 30 3d b2 b3 20 3d d2 fc a8 bd
       -0.105628535 0.043132078 0.03923387 -0.08251347
0002b0 f2 61 e2 bb 43 ed 2f 3d d5 67 09 bd c5 b2 86 3c
       -0.0069086486 0.04295088 -0.033546288 0.016442666
0002c0 0a 54 06 3c 4a 9d 42 bd c8 cd 9f bc 7d 8b 68 bd
       0.008198747 -0.047513284 -0.019507304 -0.05677365
0002d0 82 79 44 bc e2 a6 41 bd 31 4e 2e bd c7 7b 5d bb
       -0.01199186 -0.047278292 -0.042555038 -0.00337957
0002e0 7d e7 b8 bd d7 0e 0f bd 64 1b e4 bd 35 8f c0 bd
       -0.09028528 -0.03492626 -0.11138037 -0.094023146
0002f0 8d 76 32 3d 52 7f fc 39 fc 86 e6 bd 06 05 cc bd
       0.04357009 0.00048160047 -0.11256215 -0.09961896
000300 5c cf 21 bd 5a a0 66 3d d4 52 9a bc 1b f2 46 bd
       -0.039504394 0.056305267 -0.018838324 -0.048570734
000310 dc 30 26 3d e3 17 46 3a 72 24 1d 3d bd 81 5b bd
       0.04057394 0.000755666 0.038364835 -0.053590525
000320 cc 00 86 3d 4e 96 5a 3d 11 df d3 bc 0e aa 14 bb
       0.06543121 0.053365998 -0.025863202 -0.0022684368
000330 6d 18 5f 3d 08 f0 b5 3c 22 b3 3b 3c b0 89 02 3c
       0.054466654 0.022209182 0.011456283 0.007967398
000340 2c 0a 90 bd 62 fb 96 3d 01 d0 7b bb 2a 0f 85 3d
       -0.0703319 0.07372166 -0.003842354 0.06497033
000350 f0 95 15 bd 78 9d fd 3c 30 4c a5 bd 5d 0e a1 3d
       -0.036519945 0.030958876 -0.08071172 0.07864068
000360 ca ab 9f 3d 73 71 8c bd 93 55 97 bd 38 d2 e1 bb
       0.07796438 -0.06857576 -0.07389369 -0.006891515
000370 b9 8f 8f bd 6f d0 99 bd ed d9 d7 3c e0 c4 40 bc
       -0.07009835 -0.07510459 0.026349032 -0.011765689
000380 15 57 41 bd 98 8f 8b 3a f4 6d dd 3d cf b8 b7 3d
       -0.04720219 0.0010647653 0.108119875 0.08970796
000390 d3 0a 1f bd 86 58 ba 3d 95 19 a4 3d ef 8b 6b 3d
       -0.038828682 0.09098916 0.08012692 0.057506498
0003a0 fc a5 bc 3d 0c 2a ba bc 5f c4 81 3d 2e f6 3c 3c
       0.092113465 -0.022725128 0.06336283 0.011533303
0003b0 3d cf 5a bd d6 b3 ab bd 7b 3b 7a bd 2f 0e da bd
       -0.053420294 -0.0838391 -0.06109188 -0.106472366
0003c0 22 5f 19 3d e8 2d bd bd 2c ca 03 be f1 12 0f bd
       0.03744424 -0.092372715 -0.12870091 -0.034930173
0003d0 b8 ce 86 bd 52 7a 7a bc 82 d2 93 bc ba 03 97 bd
       -0.06582397 -0.0152879525 -0.018044714 -0.07373758
0003e0 b1 73 d4 bd f8 6a ef bd 02 8e 69 3d f3 bb f3 bb
       -0.10373629 -0.116903245 0.057020195 -0.007438177
0003f0 50 e3 5f bd 1a a9 54 3d 90 95 8e 3d 9f 6a a6 3d
       -0.05466014 0.05191908 0.069621205 0.08125805

features.7.bias f4 [16]
000000 a5 cd c7 bc 37 fd 75 bc 2e e5 6d 3d 6e a0 97 3c
       -0.024390051 -0.015013984 0.05807989 0.018509116
000010 4f c2 91 bd 50 8f e0 bc 5f a3 bc bc 9e 1c fa bb
       -0.071171395 -0.027412087 -0.02302712 -0.007632806
000020 9b 7b 56 bc 39 02 50 bd ee 3e 72 3c b4 56 a2 3c
       -0.013090993 -0.05078337 0.014785511 0.019816734
000030 73 b0 24 3c 85 93 39 bc 01 8c 64 3d fb c8 34 bc
       0.010051834 -0.011326675 0.05579758 -0.011034246

features.10.weight f4 [32, 16, 5, 5]
000000 83 b9 73 3d e8 39 93 bc bf e1 fa bc fb 12 1e bd
       0.05950309 -0.017971948 -0.030625222 -0.03859232
000010 3f e1 2b bd ed 7f 90 3d b5 cc 2c 3d 23 b2 d7 bb
       -0.04196286 0.0705565 0.04218741 -0.006582515
000020 07 28 b9 bc 2b 4f 59 bd 36 20 57 3c 13 d6 59 bd
       -0.022602094 -0.053054016 0.013130238 -0.053182673
000030 29 eb c3 3c b6 4f 1d 3d 60 45 af 3c c8 40 65 3d
       0.023915844 0.038406096 0.021395385 0.055969983
000040 9e cd d2 3d b5 a9 f1 3c 54 9a a0 bc 49 bb db 3c
       0.102931246 0.029499868 -0.01960484 0.026822703
000050 dd 5c 0c 3d b9 ea c6 bc 8b d5 fa bc f9 b5 af 3b
       0.03426825 -0.024281846 -0.030619403 0.005362269
000060 4b c0 a9 3d dc 4c db 3c 1e 61 90 3d 6d c2 76 3b
       0.0828863 0.026770048 0.07049774 0.0037652508
000070 f1 10 fd bd f4 86 3a bd 33 ce 24 3e 9f 08 ec 3d
       -0.12356747 -0.045538858 0.16094284 0.11525082
000080 f8 0f a8 3c d0 4d 0a bd de ad a5 bd 31 68 d7 3d
       0.020515427 -0.033765614 -0.08089803 0.1051792
000090 c7 f2 ce 3c a8 6f 84 3d b0 eb 95 bc 50 50 dc bd
       0.02526225 0.06466609 -0.018300861 -0.10757506
0000a0 af 62 0c 3e ed b9 d9 3d c4 69 20 3d 65 04 82 bd
       0.1370952 0.10631166 0.039163366 -0.063484944
0000b0 e4 76 0a be 21 de da 3d 42 6b 55 bb 74 b3 dc bd
       -0.13521916 0.10686899 -0.0032565151 -0.107764155
0000c0 b2 98 09 be ab 74 46 be e8 d8 52 be 04 90 44 bd
       -0.13437155 -0.19380443 -0.20590556 -0.047988907
0000d0 1b 42 21 3d 60 17 de bb 67 96 81 3d 17 de 16 be
       0.039369684 -0.006777689 0.06327515 -0.14733158
0000e0 20 15 cd bd 40 3d fe bc c7 e6 ab 3d c5 cc cf 3d
       -0.10013795 -0.031035066 0.08393627 0.101464786
0000f0 6e e4 dc bc 48 e9 64 3d c2 87 e9 3c 80 9e 1e 3d
       -0.026964393 0.055886537 0.028507117 0.038725376
000100 78 08 59 3d ca 65 82 bd c9 e5 4a bc fa 15 4b 3d
       0.052986592 -0.06367071 -0.012383887 0.049581505
000110 66 8e ca 3d 70 b1 d3 3d 2f 98 5b bd f4 98 92 3b
       0.098904416 0.10336578 -0.05361193 0.0044738
000120 2e 0b 3e 3c d9 41 f9 3d ac 00 c3 bc 47 ca 39 3b
       0.011599345 0.121707626 -0.023804031 0.0028349326
000130 ba 1f 4c 3b 7b 10 f2 bb 55 71 ea bc 0e a5 71 3c
       0.003114684 -0.0073872185 -0.028618494 0.014748825
000140 d0 08 c3 3d 4a 45 c5 bc ad 0c b9 bc 35 29 88 bb
       0.09523165 -0.024080891 -0.022589052 -0.004155303
000150 14 25 82 bd 18 6a 11 bd 79 cd 4a 3d df 5e 61 bd
       -0.06354728 -0.03550157 0.04951236 -0.055022117
000160 c4 45 73 bd ca 06 83 bd 8a 5d cd 3c 6e 47 57 bd
       -0.059392706 -0.06397779 0.025069017 -0.052558355
000170 9b da 8a 3c 34 0e 5d bd 75 67 74 bd 66 2d bb 3a
       0.016949942 -0.053968623 -0.059668977 0.0014280498
000180 eb f9 ee ba 1e 1e 4b bd 60 fe e5 bd 9b 9b d0 bd
       -0.001823244 -0.04958927 -0.11230159 -0.101859294
000190 23 a0 8a 3c 3a 51 27 3c 40 eb 55 bd c8 8e 88 bd
       0.016922062 0.010212237 -0.052226305 -0.06667858
0001a0 c0 34 ed bd 9a 7a 48 3d 4b 03 ea 3d 77 d5 66 3d
       -0.11582327 0.048945047 0.11426409 0.05635592
0001b0 ad bf 81 bd 2c 75 f4 bd f3 5e cf 3d 14 8d 83 3d
       -0.063353874 -0.11936411 0.10125532 0.06423393
0001c0 88 8f 82 3c 80 0d b2 bd f0 06 3c bd 96 a4 05 3e
       0.015937582 -0.08693981 -0.045905054 0.13051066
0001d0 d4 e7 83 3d ec 0a 7b bd f7 37 73 bd af cf 4f bd
       0.06440702 -0.061289713 -0.059379544 -0.050735172
0001e0 cf 9f 49 3d 86 bc fa bb cd ae 70 3d 6b 0b a8 bd
       0.04922467 -0.0076518683 0.058760453 -0.08205303
0001f0 e6 de 3d be 46 3a f4 bc c0 e6 d4 bb 46 78 89 3d
       -0.1854206 -0.029812943 -0.006497234 0.067123935
000200 37 15 aa 3a 45 3c 83 3d 51 10 2c 3c bf ad 7a 3d
       0.0012976293 0.0640798 0.010501937 0.061200853
000210 38 d9 2b 3d 80 9b 75 bc 5f 3c 4a 3d 17 23 68 bd
       0.041955203 -0.014990687 0.04937398 -0.05667409
000220 9c ee 9b bd c6 2b 03 3c 9c 46 27 3b bb 2a 01 3d
       -0.076138705 0.008006042 0.0025524264 0.03153489
000230 38 5f 70 bb a3 a7 48 3d a2 a8 60 bd f7 46 49 3d
       -0.0036677849 0.048987996 -0.05484832 0.049139943
000240 e5 57 f8 36 db 22 31 3d 8d fc 94 3d 7f 93 21 bd
       7.401208e-06 0.04324613 0.07274733 -0.039447304
000250 bc 40 9c 3d bc bb 9a 3c 97 c2 26 bc 1c 94 db bc
       0.076295346 0.018888347 -0.01017823 -0.026804022
000260 71 a6 bb bd fd 36 20 bd bd 2e 7d bb b2 c0 17 ba
       -0.091626056 -0.03911494 -0.0038632595 -0.0005788907
000270 1e 97 4c 3c 87 52 99 3c a9 70 88 bd 03 b7 2f 3c
       0.012487201 0.01871611 -0.06662113 0.010724786
000280 d9 37 9a bc 9d f2 8c 3c d0 cc e4 bd 01 a0 b7 bc
       -0.018825458 0.01720553 -0.111718774 -0.022415163
000290 98 9c b7 bd 45 30 38 bd 70 18 b6 bc be 00 88 3c
       -0.08965415 -0.04496791 -0.02222845 0.016601916
0002a0 1d e8 63 3a ca 74 89 bd b5 8b 30 bc 5b 6a 8d bc
       0.00086939504 -0.06711729 -0.010775496 -0.017262628
0002b0 a6 03 9b bd d2 1d 8f bd 8e 48 ef 3a 21 a8 ed bd
       -0.07569055 -0.0698811 0.0018255876 -0.11604334
0002c0 d2 ee 90 bd 2c f8 5e bd 52 47 81 bd cd 87 2c bb
       -0.07076801 -0.054435894 -0.063124314 -0.002632606
0002d0 09 f7 f1 bd c3 d6 6e 3d 43 45 c4 bd cd 0b a9 bc
       -0.11814696 0.05831028 -0.09583523 -0.02063551
0002e0 e7 1f c0 bd 29 41 8f bd cd f8 be 3c ec 61 87 bd
       -0.09381085 -0.0699485 0.023311997 -0.06610474
0002f0 0b 98 f4 bc bb 56 5d bd a0 bb 02 bc 78 55 e9 3c
       -0.029857656 -0.05403779 -0.007979304 0.028483137
000300 50 46 ec 3c 99 c6 31 bd 91 1f 1c 3d 9b bf d0 bc
       0.028842121 -0.043402288 0.03811604 -0.02548199
000310 7f 44 a5 3c d5 f7 60 bd 15 53 27 bc 0f 56 86 3b
       0.020174263 -0.05492385 -0.010212679 0.0040996145
000320 be 9c ef bc 7b 78 85 3d a5 15 1a bd b6 2d 81 3c
       -0.029249545 0.065171205 -0.037618298 0.015768867
000330 e8 93 e8 bb 38 ea 5d 3d 61 a7 f8 bc d3 e6 a0 bd
       -0.00709771 0.054178447 -0.03035325 -0.07856526
000340 d3 d0 7b 3d 7f 63 cc bb 3e 93 1c 3c e0 f8 76 3d
       0.061478447 -0.006237447 0.00955659 0.06029594
000350 45 ed 86 bd 0e 8f 43 bc a5 c4 32 bd e0 7a 3b 3d
       -0.06588224 -0.011935962 -0.043644566 0.04577148
000360 02 c1 84 3d 09 bb 03 bd 17 65 f2 ba 27 2d d7 bd
       0.06482126 -0.032160792 -0.0018493262 -0.10506659
000370 87 22 91 bd ce 1a c9 ba ee 86 ea bd d7 cf af 3c
       -0.07086664 -0.0015343071 -0.11451517 0.02146141
000380 f3 f7 d0 bd b3 4f 27 bd 5a 50 f5 3b 16 5d 0e 3d
       -0.102035426 -0.04084749 0.0074863853 0.034756742
000390 e3 2d 02 3d 76 ca de 3c da 71 2f 3d 0e 8c aa bc
       0.031782042 0.02719615 0.042833187 -0.020818736
0003a0 74 c0 39 3d e0 62 39 3d 53 0d 1d bd 45 cb 0f 3d
       0.045349553 0.04526031 -0.038342785 0.035105962
0003b0 22 6a 12 39 00 b2 0a 3d 55 d4 14 3d 5b 4b 91 3d
       0.00013963183 0.03386116 0.036335308 0.07094451
0003c0 ed a1 01 bd f5 03 77 bd f5 6b 12 bd 4b 9a 14 bd
       -0.031648565 -0.060306508 -0.035747487 -0.036279958
0003d0 d6 da 47 3d c0 79 7e 3d cc ce 3b bd c9 6e de 3c
       0.048792683 0.06212783 -0.045851514 0.027152436
0003e0 c4 80 54 3d 97 b7 80 bd d9 28 85 bd 70 83 35 bd
       0.051880613 -0.06285017 -0.06501932 -0.0443148
0003f0 da 93 a1 bd 77 0c 83 bd 77 5f 74 bd 80 a7 cf 3c
       -0.078895286 -0.06398862 -0.059661355 0.025348425

features.10.bias f4 [32]
000000 13 c5 b5 3d c1 c1 b0 39 7f 36 bf 3d 71 50 31 3d
       0.088754795 0.00033713694 0.09336566 0.043289606
000010 ec 09 5f 3a b4 30 5b 3d 0c 56 7a bd 2b fe 23 bd
       0.00085082534 0.053513244 -0.061117217 -0.040037315
000020 e8 d6 36 3d df 71 21 bc 57 46 84 bd d6 cc 93 3d
       0.044638544 -0.009853809 -0.06458729 0.07216804
000030 42 d0 a8 bc 98 61 d2 bc fa 28 01 bd f5 4e 91 bd
       -0.020607118 -0.025681302 -0.03153322 -0.07095138
000040 5b 50 37 3d ac 85 e2 b9 ac 65 24 bd ac e2 9a 3d
       0.044754367 -0.00043205672 -0.040136024 0.075627655
000050 f3 5e 34 3d e6 82 8e 3d 64 16 36 bb 29 b6 e6 bc
       0.044035863 0.06958561 -0.0027784342 -0.028163033
000060 da 64 10 3d 7c ad 19 3b 82 7d a0 3c 46 8f 16 3d
       0.03525243 0.0023449352 0.019591097 0.03675773
000070 b8 9f 54 bd dc 06 da bb a2 59 ac bd dd a4 84 3d
       -0.051910132 -0.0066536497 -0.084155336 0.06476758

features.12.weight f4 [32, 32, 5, 5]
000000 9c ef 1e 3d a0 87 ed 3c 97 c5 45 3c 91 bc fb 3c
       0.038802728 0.028995335 0.012071035 0.030729564
000010 5b b8 1e 3d 61 4e ae bc 5b 4a 1e bd 10 5b 00 3d
       0.038750034 -0.021277608 -0.03864513 0.031336844
000020 1e 18 bf 3c 39 af 34 3d 14 67 ed 3b 79 dc 04 bd
       0.02332693 0.044112418 0.007244954 -0.03243682
000030 49 02 b4 3d 57 4c b8 3d 5a 90 8a 3c 2e e2 db ba
       0.08789498 0.08998936 0.016914535 -0.0016775781
000040 37 ee b9 3c 29 24 57 bc 24 86 a8 bc 94 d7 8c 3d
       0.022696598 -0.01313118 -0.020571776 0.06877056
000050 37 b6 56 bd 08 ff 8f bd b7 ea 34 bd a4 39 c7 ba
       -0.052419867 -0.07031065 -0.044169154 -0.0015199673
000060 f2 64 8b bd 65 0d 03 bd 4d b8 e3 bc 2c 48 0f bd
       -0.06806363 -0.031995196 -0.027797842 -0.034980938
000070 4c 85 ef bb 3f 37 6d bd 93 8c 84 bd b0 86 da bb
       -0.0073095914 -0.057914015 -0.06472125 -0.006668888
000080 a8 e2 c7 bb e6 92 a9 bb b5 c6 7a bd a0 13 8b 3c
       -0.0061000176 -0.0051749824 -0.061224658 0.016977131
000090 8d 6d 94 bd fe af a0 bd 67 42 33 bd 92 7d a8 bd
       -0.07247458 -0.07846068 -0.043764498 -0.08227076
0000a0 14 41 96 bc 21 41 f6 3c a5 e4 6d bd 94 ed a9 3c
       -0.018341579 0.030060353 -0.05807938 0.020743169
0000b0 02 4c 7c 3b 09 5e 0d 3d 90 dc 62 bd 6e c5 46 bd
       0.0038497453 0.034513507 -0.055386126 -0.048528127
0000c0 bc 3a 15 3d ff 99 a2 bd f9 52 84 bd 0f ff c0 3c
       0.036432967 -0.07939529 -0.06461138 0.023559121
0000d0 7d a6 d1 3b ef 27 ee 3c 7d b8 ba bc 5e 17 d3 3c
       0.006398021 0.029071776 -0.022793049 0.025767978
0000e0 e0 3b 2c bb 59 29 c9 ba 2a 6f 36 bc 59 9f b8 3b
       -0.0026280805 -0.0015347406 -0.011134902 0.00563423
0000f0 87 0f b6 bc d2 4e 90 3c 2b 1f 0d 3c 09 f2 86 bd
       -0.0222242 0.01761571 0.008613388 -0.06589133
000100 9e bf 3e 3c 5c bc 6c bc 01 03 ca bd 84 45 a3 bd
       0.011642365 -0.014449205 -0.09863854 -0.079722434
000110 35 cc 84 3c 6e da 82 bd 14 68 94 bd de a9 03 bd
       0.016210655 -0.063893184 -0.07246414 -0.03214442
000120 f4 d3 2e bd 83 72 cf 3a 01 dd 16 bd c7 a5 57 bd
       -0.042682603 0.0015826974 -0.03683186 -0.052648332
000130 08 05 a3 bc a5 14 85 3d 2b 8d 01 3b 26 46 80 3d
       -0.01989986 0.06498078 0.001976798 0.0626338
000140 7e 2b e6 bd 30 29 6c bd d5 51 08 3c ab 08 86 3c
       -0.11238764 -0.057656467 0.0083202915 0.016361555
000150 ab a9 53 3c f2 f8 e0 bc 67 41 9e bd 8c 5a e3 bb
       0.01291887 -0.027462456 -0.07727318 -0.0069382843
000160 13 01 c7 3d 9b 6a 20 3d 44 66 7c 3c 2b 7b 49 3c
       0.09717002 0.039164167 0.015405241 0.012297432
000170 6d dc 50 3d fa 71 d2 3d 89 b2 36 3d 61 cd 80 bd
       0.050991464 0.102756456 0.04460386 -0.06289173
000180 3d f7 92 bd 1a 3b ef 3c 78 83 e6 bc 60 5f 20 3d
       -0.07176063 0.029202987 -0.028138861 0.039153457
000190 01 49 3e 3c 16 46 15 bd 8c d2 61 3d 9f c3 87 3d
       0.011614085 -0.036443792 0.055132434 0.06629109
0001a0 58 d0 75 3d c2 11 8e bd ee 9b 29 3c 37 f9 38 3d
       0.060013145 -0.06936981 0.010352118 0.045159545
0001b0 ec 61 38 3d c3 05 5f bd 39 ed 6a bd 1c b4 26 3d
       0.04501526 -0.054448854 -0.05735514 0.04069911
0001c0 66 2b 2c 3d fe c6 21 3d 72 aa 93 bb 52 a1 25 bd
       0.042033575 0.039496414 -0.0045064026 -0.04043705
0001d0 19 e2 16 3d c7 38 09 bc 69 1e d1 bc 6f 1b fe 3b
       0.036836717 -0.008375353 -0.025527196 0.007754735
0001e0 b0 02 5a 3d fe de a8 3c 8e 8e 8f bd 96 37 21 3c
       0.05322522 0.020614143 -0.07009612 0.009839913
0001f0 74 4b 04 bd 5a b7 91 3d c6 d8 85 3d 73 d7 6e bc
       -0.03229852 0.0711505 0.06535487 -0.014577734
000200 a1 ff 93 3d 7d 5a ba 3d a3 b8 9a bc 84 4e 6b bb
       0.07226492 0.090992905 -0.01888687 -0.0035904953
000210 34 a3 a6 3d f5 eb c0 bc df f3 bc bc 0a 44 95 3d
       0.08136597 -0.023550013 -0.023065506 0.07288368
000220 4b 75 27 3d 46 0c 37 3c de d4 69 bd 76 d1 ab bd
       0.040883344 0.01117236 -0.05708777 -0.08389561
000230 44 9d e4 3c a2 b5 23 3d 73 90 73 3d 27 37 72 bd
       0.027907021 0.03996814 0.05946393 -0.05913463
000240 9b ce 02 bc 17 31 34 be f1 c5 6d be 38 7c 05 be
       -0.007983829 -0.17596851 -0.2322004 -0.13035667
000250 c0 0a 11 be 04 10 4d bd 00 ae 3d 3d a3 59 b4 bd
       -0.14164257 -0.0500641 0.046308517 -0.08806159
000260 b9 5a cb bb 87 1e 98 3c 7e 09 04 bc 44 38 37 bc
       -0.0062058833 0.018569244 -0.008058904 -0.011182848
000270 6c 91 68 39 c0 eb 7e bd 97 99 03 3d 54 0d b2 3c
       0.00022179418 -0.062236547 0.032128897 0.021734871
000280 9f e9 46 3c 63 51 90 bd fa 50 1e bd c7 a1 53 bd
       0.012140661 -0.07046773 -0.038651444 -0.051667955
000290 4f 95 c0 bd d1 8c c6 3b 36 a5 bc bd 03 09 8d bd
       -0.09403478 0.006059267 -0.09211199 -0.068864845
0002a0 6c a2 63 bd 95 1a b2 bc 32 b3 83 bd 19 c4 4b bd
       -0.05557482 -0.02174119 -0.06430663 -0.04974756
0002b0 2e ab 67 bd e5 52 58 3c 49 a2 f4 3c 6c 91 bb bd
       -0.056559734 0.013203357 0.02986254 -0.091585964
0002c0 7d 3b 06 bd cd 87 78 bc d4 64 85 bd a5 8b d8 3c
       -0.032771576 -0.015169096 -0.06513372 0.026433775
0002d0 3f 16 2f bd fd b5 83 bd a0 63 a3 3c 83 6c c4 bb
       -0.042745825 -0.06431196 0.019944966 -0.005994381
0002e0 79 b4 c1 bc 42 c9 20 bd 1a d8 22 bd 87 63 a5 bd
       -0.023645626 -0.039254434 -0.03975687 -0.08075624
0002f0 39 68 af bd 6f b0 ea bc 0a a0 02 bd 7d a2 8a bd
       -0.08564801 -0.028648583 -0.031890906 -0.067692734
000300 2a 91 b5 3c 18 58 51 bd 9a 09 4c 3c e2 f1 2f bd
       0.022163946 -0.051109403 0.012453461 -0.042955287
000310 08 ad 9e bb 38 6b 0b bd d1 30 52 bd 7f 82 86 bd
       -0.0048424043 -0.0340378 -0.051316086 -0.06567859
000320 a3 78 48 3d 48 77 c9 bc 33 46 86 3c 33 91 73 bd
       0.048943173 -0.02459301 0.016390895 -0.059464645
000330 17 4d 34 3d a4 34 49 bc f1 9c d9 3a a9 82 9b bc
       0.04401883 -0.012280617 0.0016602558 -0.018983202
000340 dc 68 ad 3c e5 40 85 bc 4e d1 13 bd c3 d8 f7 bc
       0.021168165 -0.016266296 -0.03608828 -0.030254727
000350 46 6d 4b 3d cc dc 63 3c 06 d2 b9 3c d9 6c 47 3d
       0.04966476 0.013907623 0.022683155 0.04868779
000360 bd 20 63 bd c7 d7 96 ba c7 e4 8b 3c 3f af a8 3c
       -0.055451144 -0.0011508398 0.017076863 0.020591376
000370 ce 7d 81 3c aa 3a c4 3b ef 80 8b bd af 6d 7e bd
       0.015807059 0.0059884386 -0.068117015 -0.06211632
000380 f6 54 8c ba 9f 4a b7 bd 56 2e 10 bd de 53 92 bc
       -0.0010706473 -0.0894978 -0.03520044 -0.017862257
000390 c7 f0 a5 bd 7e f6 29 bd 72 77 07 be e8 92 74 3d
       -0.08102565 -0.04149484 -0.13229159 0.059710413
0003a0 5b 45 d6 bc 21 a5 21 bc 71 b1 ef bd be 3a 63 bd
       -0.026156118 -0.00986603 -0.11703766 -0.055475943
0003b0 0d 85 13 3c 12 bc 51 3d 83 7b e3 bd 9e 11 ed bd
       0.00900389 0.05120475 -0.11107542 -0.11575626
0003c0 83 c9 c4 bc b3 10 21 3d f1 bc 9c 3d 50 a0 d3 b9
       -0.02402187 0.039322566 0.07653225 -0.00040364498
0003d0 38 cf 10 be f3 58 00 be 1d b7 89 bd d7 4f df bd
       -0.14141548 -0.12533931 -0.06724379 -0.109039
0003e0 f3 11 df bb 9c 8a 5f bd cc 8b d6 3d 74 63 9e 3d
       -0.0068075596 -0.054575548 0.10475883 0.07733813
0003f0 24 d6 fe 3c 76 ad e0 3d c7 c9 c7 3d ab ff d3 3c
       0.03110797 0.10970585 0.09755283 0.025878748

features.12.bias f4 [32]
000000 cb b2 1b 3d c1 c2 b6 3d 87 70 2d bc 40 53 0d 3e
       0.038012307 0.08923865 -0.010585911 0.13801289
000010 95 d3 d4 3d 25 9f 40 bc 9a ec 84 bd bd 7f cc 3d
       0.103919186 -0.011756693 -0.06490441 0.09985302
000020 0a 24 92 3c 37 4b 77 bd b7 50 eb bd a0 87 bf 3c
       0.01783945 -0.060374465 -0.114900045 0.0233801
000030 68 f1 b2 3d fb 10 4e 3d 29 79 83 3d 60 54 7c bd
       0.08737451 0.050309163 0.06419594 -0.061603904
000040 e1 21 2c bd b6 80 b8 3d 5e 17 3b 3d bb 8d f9 3d
       -0.042024497 0.09008925 0.04567658 0.12185236
000050 73 de 62 bd ab 83 39 3d 65 2b 46 3c 43 ae ab bc
       -0.055387925 0.045291584 0.012095307 -0.020957118
000060 81 1c 37 bd 68 93 5f 3b 69 97 b9 3d 55 67 83 b9
       -0.044704918 0.003411496 0.09062082 -0.00025063255
000070 e0 1f 49 3d 64 1f 59 3d 8d 23 3c 3d 16 d4 c8 3c
       0.049102664 0.053008452 0.04593234 0.024515193
