output/models/220423_1553_ggcnn_rotate0.8/epoch_20_iou_0.76_statedict.pt (torch, 255529 bytes, 16 tensors)

conv1.weight f4 [32, 1, 9, 9]
0.035995595 0.010793404 -0.0014258357 -0.019116322 0.035364866 0.02805328 -0.017532758 0.011530629
0.018300066 0.039846428 -0.040661458 -0.005937962 0.027576474 -0.018441977 0.033647135 0.032938577
-0.039219804 -0.024367733 -0.040246554 0.007544094 0.016760604 -0.048342586 0.024468021 0.028862419
0.010861027 -0.0014879099 -0.010061104 -0.017774638 0.041982092 0.005473248 -0.0003074449 -0.04724665
0.007005168 -0.03508943 0.031923532 0.0075216494 -0.009187424 0.015239916 -0.008993165 0.020119589
-0.043782502 0.023817176 0.03149716 -0.028131573 -0.020790922 0.01677407 0.01330199 -0.0292653
0.025142714 0.0081320675 -0.02511254 0.036007818 -0.0035026376 -0.019540356 0.017888892 0.01941711
0.026717773 -0.031545505 -0.00090801815 -0.038326766 0.037203252 -0.029610684 0.031090396 -0.02018181
-0.006945891 0.002134568 -0.036263764 -0.040703848 -0.048583575 -0.027528582 0.032553967 -0.041439947
-0.023727125 -0.048319865 0.0036029809 0.026089655 0.0053395163 -1.3908384e-05 0.02423031 0.015920514
-0.046404775 0.10848181 0.08706617 0.07335812 0.07466856 -0.0061607747 0.0049280254 -0.02760553
0.047934256 0.057331666 0.08613325 0.058868363 0.0698874 0.058770396 0.049629845 -0.027256202
0.028473828 -0.0019367272 0.0153376395 0.050097495 0.07294048 0.059742674 0.009331483 -0.0010777289
0.02329285 0.031991903 -0.019931993 -0.0068511236 0.055316407 0.07327119 0.041658066 0.013400567
-0.0018873841 -0.027380344 0.026739169 -0.0107233245 0.0053694895 0.042392816 0.059982326 0.062999874
0.03170949 0.049338352 -0.007408283 0.011566649 -0.0051582996 -0.013389418 -0.020910997 -0.0035048937
0.042280897 0.006691594 0.056487873 -0.036870867 0.009940347 0.037702195 -0.04661934 -0.0013271704
0.009438236 -0.02698468 0.026600983 0.055262964 0.046317417 0.044059135 0.012908503 0.017169315
0.038374543 0.040278625 -0.0066233645 -0.0011779208 0.036246806 -0.053113677 -0.0459366 -0.0167626
-0.009283675 -0.06031198 -0.047866836 -0.028792677 -0.009599981 -0.011024055 -0.040510483 -0.0040699374
-0.0058473917 -0.07038221 0.039542433 0.08734323 0.13832313 0.029111832 0.10043245 0.03680049
0.12342425 0.093038216 0.013261464 0.038537387 0.14531222 0.13046612 0.101026036 0.12230001
0.06569584 0.116237074 0.07892852 0.081347674 0.076059386 0.20217009 0.23056096 0.14550695
0.17433582 0.121010706 0.14051747 0.19932164 0.18196855 -0.08136055 0.01966841 0.012786805
-0.06792669 -0.05699174 -0.017569644 0.03156403 -0.06763057 -0.020932512 -0.06678364 0.019323386
0.043868836 -0.022914445 0.020746961 0.030602455 -0.006940334 -0.02846314 -0.015132062 -0.024360603
-0.03478695 -0.005073428 -0.06762651 -0.043393 -0.05288013 -0.024141671 -0.028131751 0.014444599
-0.07086132 -0.0057709403 -0.016023524 -0.06141894 -0.04371058 -0.06538292 -0.010835919 0.015887337
-0.0698787 -0.07923599 -0.09480504 0.02599552 -0.043220334 -0.11197997 -0.09890693 -0.045205228
-0.03004991 -0.107153215 -0.16446553 -0.17084016 -0.08991622 -0.20536476 -0.12337046 -0.16978766
-0.116607174 -0.116143525 -0.19115813 -0.029547572 0.056405343 0.004933383 -0.02076726 -0.016328292
0.031002663 0.0009423104 -0.018209677 -0.026531357 -0.019309897 0.026050378 0.053025637 0.018702503
00000000: 1e70 133d d1d6 303c 1be3 baba d599 9cbc
00000010: c0da 103d fecf e53c dca0 8fbc f7ea 3c3c
00000020: 05ea 953c 0236 233d a18c 26bd 3c93 c2bb
00000030: 0fe8 e13c a113 97bc 94d1 093d 9aea 063d
00000040: f2a4 20bd d79e c7bc 92d9 24bd 7334 f73b
00000050: 894d 893c e002 46bd 2971 c83c e170 ec3c
00000060: 73f2 313c f905 c3ba 54d7 24bc 1e9c 91bc
00000070: 6af5 2b3d ef58 b33b 8e30 a1b9 b485 41bd
00000080: 9c8b e53b efb9 0fbd 40c2 023d 2b78 f63b
00000090: d986 16bc d7b0 793c 1158 13bc d6d1 a43c
000000a0: 4855 33bd 3d1c c33c 2b03 013d 2f74 e6bc
000000b0: b951 aabc c669 893c 97f0 593c c8bd efbc
000000c0: 18f8 cd3c 5d3c 053c d0b8 cdbc ef7c 133d
000000d0: 828c 65bb 1913 a0bc ba8b 923c a210 9f3c
000000e0: 3bdf da3c dc35 01bd 1108 6eba 87fc 1cbd
000000f0: 7062 183d 1b92 f2bc 49b1 fe3c 5354 a5bc
00000100: 5b9a e3bb 1ce4 0b3b 5089 14bd 14b9 26bd
00000110: 92ff 46bd 9f83 e1bc 4f57 053d efbc 29bd
00000120: 635f c2bc 0deb 45bd fd1f 6c3b f9b9 d53c
00000130: 1cf7 ae3b 0e58 69b7 a57e c63c bd6b 823c
00000140: ef12 3ebd b62b de3d c04f b23d c83c 963d
00000150: d4eb 983d 53e0 c9bb 467b a13b fe24 e2bc
00000160: b656 443d 9cd4 6a3d a166 b03d f41f 713d
00000170: 2021 8f3d 3ab9 703d aa48 4b3d 6648 dfbc
00000180: f241 e93c c8d9 fdba b94a 7b3c 0833 4d3d
00000190: d261 953d bcb4 743d 14e3 183c 9542 8dba
000001a0: a6d0 be3c f109 033d 6b48 a3bc 647f e0bb
000001b0: 7593 623d 350f 963d a6a1 2a3d 0d8e 5b3c
000001c0: 1a62 f7ba be4c e0bc 1a0c db3c e2b0 2fbc
000001d0: 8bf2 af3b 17a4 2d3d 07b0 753d 1406 813d
000001e0: cfe1 013d 0317 4a3d 2fc1 f2bb 0b82 3d3c
000001f0: f406 a9bb 4a5f 5bbc 8a4d abbc 5cb2 65bb
00000200: bc2e 2d3d 2945 db3b d45f 673d e805 17bd
00000210: d6dc 223c 9e6d 1a3d ecf3 3ebd 73f4 adba
00000220: d5a2 1a3c fa0e ddbc 4eea d93c 6b5b 623d
00000230: 55b7 3d3d 5a77 343d 307e 533c aaa6 8c3c
00000240: a02e 1d3d 33fb 243d cf08 d9bb 7764 9aba
00000250: 8877 143d ba8d 59bd 0428 3cbd b851 89bc
00000260: 8e1a 18bc b209 77bd 0410 44bd 9fde ebbc
00000270: 3d49 1dbc 3d9e 34bc 52ee 25bd 1c5d 85bb
00000280: 7a9b bfbb 8c24 90bd 3ff7 213d 02e1 b23d
00000290: 94a4 0d3e f07b ee3c 87af cd3d 1cbc 163d
000002a0: dac5 fc3d d28a be3d 9d46 593c 61d9 1d3d
000002b0: bacc 143e e998 053e bde6 ce3d 6d78 fa3d
000002c0: 8a8b 863d b40d ee3d 47a5 a13d 9c99 a63d
000002d0: 06c5 9b3d ad05 4f3e 2c18 6c3e c6ff 143e
000002e0: 1785 323e 76d4 f73d d0e3 0f3e f91a 4c3e
000002f0: f755 3a3e 5ca0 a6bd a51f a13c bf7f 513c
00000300: 261d 8bbd 2c70 69bd 37ee 8fbc 4949 013d
00000310: e581 8abd a97a abbc dcc5 88bd 144c 9e3c
00000320: cfaf 333d 13b7 bbbc 88f5 a93c 00b2 fa3c
00000330: be6b e3bb 882b e9bc 78ec 77bc e38f c7bc
00000340: c37c 0ebd 003f a6bb c57f 8abd dcbc 31bd
00000350: d698 58bd c1c4 c5bc 8f74 e6bc 0aa9 6c3c
00000360: bd1f 91bd 281a bdbb c443 83bc 6d92 7bbd
00000370: dd09 33bd 7be7 85bd 2389 31bc 2926 823c
00000380: 901c 8fbd 7b46 a2bd 2529 c2bd 8ff4 d43c
00000390: ce07 31bd c155 e5bd b78f cabd 1e29 39bd
000003a0: 3b2b f6bc 2573 dbbd a769 28be b9f0 2ebe
000003b0: ff25 b8bd 244b 52be a7a9 fcbd d1dc 2dbe
000003c0: becf eebd a8dc edbd f5be 43be c00d f2bc
000003d0: 4a09 673d 37a8 a13b 1a20 aabc e9c2 85bc
000003e0: 4cf9 fd3c 6105 773a 762c 95bc 4a58 d9bc
000003f0: ca2f 9ebc 9a67 d53c 6931 593d fe35 993c

conv1.bias f4 [32]
-0.11731415 -0.28894022 -0.04068887 -0.11666415 -0.10414019 -0.14531915 -0.15578681 -0.28575996
0.30682477 -0.10968869 0.0706047 0.34722874 -0.13556314 0.01202348 0.061864115 -0.089693956
-0.15071693 -0.039895214 0.02109567 0.32316878 -0.17200823 -0.08501991 -0.06349393 -0.05280117
0.060656875 -0.030257769 -0.12740567 -0.0038443408 -0.0070197643 -0.077524 0.21189147 -0.05961009
00000000: 6742 f0bd f9ef 93be 5fa9 26bd 9ded eebd
00000010: 7447 d5bd 8bce 14be 9486 1fbe 214f 92be
00000020: 2318 9d3e 77a4 e0bd 3299 903d f7c7 b13e
00000030: 10d1 0abe 21fe 443c 3a65 7d3d 77b1 b7bd
00000040: 8a55 1abe 2a69 23bd d4d0 ac3c 6176 a53e
00000050: ed22 30be eb1e aebd 1b09 82bd 0a46 58bd
00000060: 5873 783d 24df f7bc a276 02be 56f1 7bbb
00000070: 0d06 e6bb e7c4 9ebd 14fa 583e b629 74bd

conv2.weight f4 [16, 32, 5, 5]
-0.07164518 -0.079327874 0.008032467 0.016417932 0.0010241047 0.05308103 0.06885183 0.005354763
-0.07945238 -0.05583544 -0.061560795 0.050385714 0.05959042 -0.03257908 0.05372335 0.08702992
-0.012321017 0.09442308 -0.07923196 0.07496282 0.030817823 0.06958086 -0.062389508 0.056899674
-0.07749898 -0.018191729 -0.059304424 -0.11956283 -0.1356396 -0.099869534 -0.06816084 -0.034671266
-0.14693604 -7.5994074e-05 -0.007757124 -0.0034078867 0.015161353 -0.12593487 -0.006508919 0.1180955
-0.041148774 0.03294593 0.05342867 0.13271827 0.21180323 -0.031271115 0.0378078 -0.0065868734
0.11898949 0.17910917 -0.23734361 -0.084396526 -0.022994308 0.06601618 -0.016663898 -0.22881754
-0.14869599 -0.05922114 0.10861798 0.004173549 -0.25703537 -0.11072085 0.013898541 -0.027187217
0.00028789713 -0.121987954 -0.107845165 0.035180487 0.09845953 -0.0012267631 -0.0072978744 0.031417668
0.14072312 0.15697311 0.0796031 -0.059298333 -0.12705228 -0.12707107 -0.0023876838 0.0020405755
-0.01743426 -0.03696238 -0.13443951 -0.059569333 0.0042009177 -0.109514385 -0.034095816 -0.10271155
-0.047650825 -0.064270094 -0.079135634 -0.110732526 -0.028077874 -0.03149394 -0.00084575795 -0.031065762
-0.011642588 -0.033342414 0.0016743998 -0.08739162 0.07038007 -0.023516651 -0.06400625 -0.044611968
-0.024812594 0.04746396 -0.03719697 0.0042549595 -0.043974742 0.02347216 -0.03519248 0.02098351
-0.05878876 0.030770145 -0.057602152 -0.048141733 0.023647457 0.043390565 -0.013959695 0.009315148
0.003340952 0.015460648 0.020148396 -0.038318332 0.028832078 0.0567663 -0.042304203 0.046203032
0.05043193 -0.0923378 0.09864471 -0.016718404 -0.069584996 0.04174217 0.0076215463 0.1598089
-0.03671202 0.05817579 0.048829563 -0.03722207 0.049446974 0.057771023 0.0029941516 0.04789408
-0.01189284 0.04866916 0.08581028 -0.053382494 0.031515963 -0.0046993433 -0.0048702667 -0.08174108
-0.048590418 -0.089949846 0.010827868 -0.012763367 -0.0646026 -0.02277528 -0.09576027 -0.066370524
-0.052234 -0.005847679 0.033658963 -0.056670498 0.005160604 -0.057840858 0.034229305 -0.011178295
-0.03898892 -0.035373133 0.03919758 -0.058172245 -0.044898003 0.020881508 -0.011037609 -0.051264748
0.14761366 -0.04824543 -0.22008263 0.004769116 -0.014293362 0.08925303 -0.03439503 -0.18603612
-0.031670947 -0.060365222 0.122260556 0.0065467847 -0.22398336 0.11662018 0.018275019 0.017578369
0.029651096 -0.16000688 0.10882459 -0.0081054075 0.07556481 -0.101149045 -0.23645426 0.012626569
0.45073587 0.26962623 0.19642097 0.06329569 -0.09178462 0.3416108 0.1581172 0.017351575
-0.013553224 -0.14337194 0.25399512 0.022848744 -0.057237696 -0.14816321 -0.19891942 0.21485323
0.07074312 -0.088294104 -0.14223118 -0.21886046 0.13278325 -0.05183341 -0.10306842 -0.2093979
-0.297468 -0.014717549 0.031475298 0.023020988 -0.1064381 -0.048470434 -0.019139964 0.0002748373
0.018525725 -0.016844565 -0.01740036 -0.001705617 0.017501581 0.04589053 0.057840295 0.011142081
0.022386478 -0.050248012 -0.063324325 -0.040271346 -0.053136267 -0.053007543 0.04012947 0.05144517
-0.06033827 0.036869004 -0.14518319 -0.09242151 -0.13011885 -0.41024196 -0.46692896 0.090712436
00000000: b5ba 92bd a776 a2bd 9c9a 033c e67e 863c
00000010: 403b 863a 7e6b 593d 3002 8d3d 0277 af3b
00000020: eeb7 a2bd b4b3 64bd 2c27 7cbd 4061 4e3d
00000030: 1615 743d a471 05bd 040d 5c3d be3c b23d
00000040: 17de 49bc e360 c13d 5e44 a2bd 1b86 993d
00000050: a975 fc3c 6980 8e3d 248c 7fbd a20f 693d
00000060: c9b7 9ebd d206 95bc 32e9 72bd 5bdd f4bd
00000070: 1be5 0abe 6688 ccbd e997 8bbd 7503 0ebd
00000080: 6776 16be 025f 9fb8 792f febb da56 5fbb
00000090: 5367 783c 12f5 00be c548 d5bb 0edc f13d
000000a0: 9e8b 28bd 50f2 063d 05d8 5a3d 4ce7 073e
000000b0: f2e2 583e 2416 00bd 5adc 1a3d b3d6 d7bb
000000c0: c3b0 f33d 6568 373e 340a 73be 16d8 acbd
000000d0: 8f5e bcbc 7e33 873d ba82 88bc 254f 6abe
000000e0: c343 18be de91 72bd 1a73 de3d 44c2 883b
000000f0: 249a 83be 9dc1 e2bd b5b6 633c bab7 debc
00000100: e6f0 9639 d2d4 f9bd eddd dcbd 6a19 103d
00000110: 26a5 c93d 57cb a0ba 0223 efbb d0af 003d
00000120: b919 103e 8fbd 203e f306 a33d cfe2 72bd
00000130: fe19 02be eb1e 02be b07a 1cbb 2dbb 053b
00000140: 4bd2 8ebc dd65 17bd 83aa 09be f9fe 73bd
00000150: daa7 893b 1449 e0bd 0ea8 0bbd 6f5a d2bd
00000160: 832d 43bd 0aa0 83bd dd11 a2bd bcc7 e2bd
00000170: 9203 e6bc caff 00bd dbb5 5dba a07d febc
00000180: 8ec0 3ebc 0e92 08bd 8977 db3a 61fa b2bd
00000190: 6d23 903d fea5 c0bc b515 83bd 0abb 36bd
000001a0: c843 cbbc 9269 423d da5b 18bd 306d 8b3b
000001b0: dc1e 34bd b048 c03c fd25 10bd 9ce5 ab3c
000001c0: 7ccc 70bd ac11 fc3c 3cf0 6bbd 4430 45bd
000001d0: 50b8 c13c 4eba 313d 34b7 64bc 909e 183c
000001e0: e0f3 5a3b a84e 7d3c 400e a53c aff3 1cbd
000001f0: 4031 ec3c c883 683d 2c47 2dbd 643f 3d3d
00000200: b691 4e3d 9a1b bdbd 3d06 ca3d 09f5 88bc
00000210: 9482 8ebd d6f9 2a3d 2abe f93b f2a4 233e
00000220: 585f 16bd bd49 6e3d 8201 483d 2b76 18bd
00000230: e988 4a3d 4fa1 6c3d 8739 443b 952c 443d
00000240: 30da 42bc 5059 473d 4dbd af3d 9aa7 5abd
00000250: e216 013d f3fc 99bb c296 9fbb de67 a7bd
00000260: bf06 47bd a037 b8bd 5f67 313c 711d 51bc
00000270: 5e4e 84bd 3993 babc f61d c4bd 45ed 87bd
00000280: 52f3 55bd e39d bfbb fbdd 093d 531f 68bd
00000290: 491a a93b 89ea 6cbd 0734 0c3d 2b25 37bc
000002a0: d9b2 1fbd 6be3 10bd a48d 203d 0546 6ebd
000002b0: f8e6 37bd b20f ab3c 16d7 34bc fcfa 51bd
000002c0: 0928 173e 009d 45bd 575d 61be 3f46 9c3b
000002d0: b52e 6abc 4bca b63d cee1 0cbd 4180 3ebe
000002e0: 65b9 01bd 8641 77bd be63 fa3d 6986 d63b
000002f0: e55b 65be 90d6 ee3d 7eb5 953c 8300 903c
00000300: dbe6 f23c d8d8 23be 6ddf de3d 8bcc 04bc
00000310: b9c1 9a3d 3b27 cfbd 1121 72be abdf 4e3c
00000320: dac6 e63e 730c 8a3e 9422 493e 2ca1 813d
00000330: 93f9 bbbd 9ce7 ae3e 7ae9 213e e424 8e3c
00000340: 570e 5ebc 18d0 12be a60b 823e 4a2d bb3c
00000350: 1372 6abd 19b8 17be 88b1 4bbe 7c02 5c3e
00000360: c5e1 903d 8ad3 b4bd 0da5 11be f51c 60be
00000370: 55f8 073e 454f 54bd 8915 d3bd 676c 56be
00000380: ba4d 98be e021 71bc 3eec 003d 8396 bc3c
00000390: 38fc d9bd ef88 46bd 6acb 9cbc 0a18 9039
000003a0: 43c3 973c 9dfd 89bc 338b 8ebc 028f dfba
000003b0: 7a5f 8f3c b5f7 3b3d f2e9 6c3d 468d 363c
000003c0: d963 b73c dcd0 4dbd 2fb0 81bd 91f3 24bd
000003d0: 6aa5 59bd 701e 59bd cd5e 243d 2cb8 523d
000003e0: 4325 77bd f403 173d e7aa 14be 7d47 bdbd
000003f0: e03d 05be 3c0b d2be 5011 efbe 71c7 b93d

conv2.bias f4 [16]
0.22095877 -0.03829298 -0.04037922 -0.13676667 -0.04728377 -0.033019844 -0.020466981 -0.008821807
0.013301829 0.13468774 0.1254156 -0.018593797 -0.0415205 -0.052191768 -0.032796707 0.10160623
00000000: 0443 623e 1ad9 1cbd ae64 25bd 900c 0cbe
00000010: a0ac 41bd d13f 07bd 5faa a7bc 5789 10bc
00000020: eaef 593c 95eb 093e f26c 003e 0552 98bc
00000030: 6611 2abd 09c7 55bd d755 06bd ed16 d03d

conv3.weight f4 [8, 16, 3, 3]
0.08281897 0.10322836 -0.27852377 0.28597137 0.075523786 -0.2841958 0.25928453 0.04605646
-0.2939225 -0.32873696 0.0332022 -0.034518883 -0.16349933 0.06077117 -0.18413329 0.023735344
0.27099824 -0.30335364 0.45749226 -0.10116526 -0.20675276 0.35096616 -0.15277985 -0.12078984
0.15129861 -0.10915674 -0.2569177 -0.18781723 -0.03128185 0.16305286 -0.22192252 0.02390487
0.1180043 -0.05247737 -0.060830757 0.1985646 -0.028418574 -0.014677265 -0.07610216 0.07021704
-0.24056374 -0.18925449 0.37286213 -0.17274211 0.066486225 -0.15000993 0.004360767 0.21881378
-0.101204984 0.10625522 -0.14041744 0.08635603 0.12532157 -0.19539988 0.1136628 -0.10631721
-0.12314076 0.011382915 -0.12544313 -0.024345448 -0.14483173 0.09647922 -0.13150613 0.17471999
0.16706517 -0.0037536214 -0.05108497 -0.102316655 0.12498729 0.08617822 -0.06514098 0.17508091
0.08396496 0.042466708 0.059954442 -0.15003027 -0.266623 0.19286655 0.10542877 -0.17126861
-0.06090178 0.16039395 0.14226228 -0.14038393 0.06729782 0.02304107 -0.11373545 -0.14432468
0.07844736 -0.11691721 -0.3174016 -0.04389233 0.30897346 -0.36273628 0.15017854 0.28878137
-0.15087269 -0.12688322 0.2467531 -0.15551664 -0.12693036 0.08183436 0.031090807 0.017695883
0.038011834 0.049525168 0.067985296 0.019587819 0.12373991 -0.3294325 -0.32247505 0.2546546
-0.029157037 0.02459594 0.007860744 -0.12439236 -0.059890967 -0.101657785 -0.06971168 -0.05000232
0.1622563 -0.0930662 0.041439634 -0.09729157 -0.12539653 -0.05842963 0.020047555 0.14347284
0.0058598653 -0.13266742 0.061689094 -0.08930063 -0.10854257 0.06015045 0.033605427 0.07272634
0.043760594 -0.17743954 0.09910965 -0.0013329661 0.13447754 0.072845705 -0.21387391 0.00075251434
-0.054086845 -0.12490377 0.07801523 0.12899216 0.22660871 0.021421889 -0.057921845 0.069868006
0.263577 -0.1624768 0.05286127 -0.1786819 0.13956238 0.095895655 -0.14403486 0.05180618
0.064820886 -0.016810104 -0.100096926 -0.077563226 0.13111413 0.07131735 0.047727138 0.11488392
0.15369654 0.21169902 -0.032060478 0.20363231 0.15491416 0.2890963 -0.19064988 0.0082225595
-0.09334978 -0.33067992 -0.37379944 -0.39080578 0.045988254 -0.06044566 0.09986505 0.1510895
-0.3105075 -0.09057374 0.16979407 -0.10785906 -0.089370266 0.24612251 -0.002879347 0.16544591
-0.1602305 -0.049806256 0.15039739 -0.12818007 -0.2537272 0.027952984 0.04756986 -0.03086003
-0.018431129 0.13737969 0.10832696 0.029718773 0.08519875 0.03335886 0.0054094098 -0.14527598
0.039272405 0.11301844 0.08291969 -0.1318836 0.0672747 -0.10961438 0.06504516 0.07002905
0.009418071 -0.054899555 -0.022500534 -0.12781872 -0.053722426 0.11043309 -0.021952853 -0.07980275
0.12938224 -0.19859985 0.080544055 -0.033812795 0.011336958 -0.07336653 -0.06565267 -0.29028246
0.048306722 0.15537448 -0.13525227 -0.13847046 -0.21003519 -0.00594156 -0.08162076 -0.118041314
-0.17186043 0.079769574 -0.2681997 -0.13126189 -0.098860525 0.1543995 0.025443971 0.009747529
-0.021045899 -0.109767996 0.01580641 -0.09512648 0.019922797 -0.13264412 -0.081424296 0.30172336
00000000: fe9c a93d 6469 d33d ab9a 8ebe d76a 923e
00000010: 37ac 9a3d 1d82 91be f1c0 843e b3a5 3c3d
00000020: 037d 96be 3650 a8be 08ff 073d ac63 0dbd
00000030: 5e6c 27be 31eb 783d 708d 3cbe a070 c23c
00000040: 48c0 8a3e 2b51 9bbe 6d3c ea3e bb2f cfbd
00000050: ffb6 53be d6b1 b33e 5272 1cbe aa60 f7bd
00000060: 06ee 1a3e 928d dfbd b78a 83be 2953 40be
00000070: 6621 00bd 54f7 263e a83f 63be 25d4 c33c
00000080: 3dac f13d 83f2 56bd ac29 79bd 8554 4b3e
00000090: 12ce e8bc e978 70bc 73db 9bbd f4cd 8f3d
000000a0: 5756 76be eecb 41be c9e7 be3e 4fe3 30be
000000b0: ee29 883d 349c 19be c4e4 8e3b b810 603e
000000c0: 8f44 cfbd 569c d93d 97c9 0fbe 6edb b03d
000000d0: 4c54 003e e816 48be 0bc8 e83d d6bc d9bd
000000e0: 3931 fcbd 687f 3a3c 2a74 00be 1b70 c7bc
000000f0: c54e 14be e696 c53d 8ba9 06be cce9 323e
00000100: 2213 2b3e 51ff 75bb 793e 51bd 658b d1bd
00000110: 56f9 ff3d 357e b03d a268 85bd 6948 333e
00000120: d2f5 ab3d 92f1 2d3d ca92 753d 89a1 19be
00000130: cf82 88be cf7e 453e 0aeb d73d 0a61 2fbe
00000140: 2574 79bd 503e 243e 34ad 113e cec0 0fbe
00000150: 70d3 893d a0c0 bc3c 22ee e8bd d9c9 13be
00000160: 02a9 a03d 4a72 efbd 7682 a2be 72c8 33bd
00000170: c531 9e3e 92b8 b9be 67c8 193e 27db 933e
00000180: 5f7e 1abe aded 01be d8ac 7c3e c13f 1fbe
00000190: 08fa 01be c698 a73d 26b2 fe3c f5f6 903c
000001a0: 4cb2 1b3d e7da 4a3d e03b 8b3d a276 a03c
000001b0: 5a6b fd3d 60ab a8be 731b a5be 1662 823e
000001c0: bdda eebc 6d7d c93c 5aca 003c 6cc1 febd
000001d0: 3b50 75bd f531 d0bd ffc4 8ebd 3ccf 4cbd
000001e0: 8426 263e 7e99 bebd 9bbc 293d cd40 c7bd
000001f0: f367 00be e853 6fbd c53a a43c 8bea 123e
00000200: 1d04 c03b f8d9 07be b4ad 7c3d 40e3 b6bd
00000210: 914b debd 5160 763d d8a5 093d 8cf1 943d
00000220: 4f3e 333d b6b2 35be 00fa ca3d ecb6 aeba
00000230: 7bb4 093e 2130 953d c301 5bbe 6244 453a
00000240: 2b8a 5dbd 8ccd ffbd 73c6 9f3d 8516 043e
00000250: 1d0c 683e f57c af3c 753f 6dbd f516 8f3d
00000260: 91f3 863e 5160 26be 0f85 583d 63f8 36be
00000270: 71e9 0e3e f164 c43d e07d 13be b832 543d
00000280: d0c0 843d 58b5 89bc 9eff ccbd 78d9 9ebd
00000290: c842 063e d50e 923d 887d 433d 4348 eb3d
000002a0: a062 1d3e a1c7 583e d951 03bd fd84 503e
000002b0: d1a1 1e3e 6e04 943e b939 43be eab7 063c
000002c0: 2b2e bfbd e14e a9be a462 bfbe b217 c8be
000002d0: 2e5e 3c3d de95 77bd 0c86 cc3d 35b7 1a3e
000002e0: d7fa 9ebe ba7e b9bd 7fde 2d3e 36e5 dcbd
000002f0: c207 b7bd 8a07 7c3e 6db3 3cbb a76a 293e
00000300: 7713 24be a501 4cbd c601 1a3e a341 03be
00000310: 88e8 81be a8fd e43c 9dd8 423d 2cce fcbc
00000320: e1fc 96bc 43ad 0c3e 86da dd3d c974 f33c
00000330: af7c ae3d 4da3 083d 6b41 b13b 3ac3 14be
00000340: 1adc 203d 3676 e73d ccd1 a93d 7f0c 07be
00000350: 51c7 893d 817d e0bd 6636 853d 646b 8f3d
00000360: 414e 1a3c 5bde 60bd 0a53 b8bc e9e2 02be
00000370: 0c0c 5cbd be2a e23d 78d6 b3bc a06f a3bd
00000380: c77c 043e c25d 4bbe 48f4 a43d 497f 0abd
00000390: a6be 393c 3141 96bd e874 86bd e79f 94be
000003a0: 45dd 453d 7d1a 1f3e 927f 0abe 33cb 0dbe
000003b0: 7713 57be 6bb1 c2bb c928 a7bd a5bf f1bd
000003c0: 2efc 2fbe 3b5e a33d 7951 89be 8469 06be
000003d0: 6377 cabd e71a 1e3e e06f d03c 1ab4 1f3c
000003e0: 7368 acbc 0bce e0bd 727c 813c acd1 c2bd
000003f0: 2235 a33c dcd3 07be c8c1 a6bd 7c7b 9a3e

conv3.bias f4 [8]
-0.03463202 0.07884538 0.09815938 0.16789106 -0.12291532 0.18801184 -0.21197367 -0.0052896314
00000000: 4eda 0dbd b079 a13d c907 c93d a2eb 2b3e
00000010: 07bb fbbd 2d86 403e a00f 59be a554 adbb

convt1.weight f4 [8, 8, 3, 3]
-0.18456055 -0.19798598 -0.34770408 -0.25929084 -0.64645517 -0.0011668534 -0.17732646 -0.18656443
-0.09617478 -0.42848355 0.27014697 -0.9574103 -0.12647079 -0.33455473 -0.12950741 -0.48715693
-0.43079132 -0.62513167 -0.01647306 -0.1263663 0.12689479 -0.43416777 0.558503 0.0034966243
0.12361204 0.15740712 -0.31984168 -0.26363876 -0.34263307 -0.4402924 -0.5663077 -0.18722627
-0.12464079 0.07048336 -0.3166397 -0.64819974 -0.0046521234 0.42405677 0.07956567 0.58198357
0.15509698 0.7083864 0.52675015 -0.0012461178 0.4704993 0.27647918 0.19538112 0.12461694
0.20048375 -0.17890611 -0.043590423 0.06364191 -0.30957988 -0.2708389 -0.3093853 -0.31619543
-0.30341142 -0.3875003 -1.0443923 -0.13713104 -0.4117408 -0.7473441 -0.18650867 -0.9001622
-0.42695946 -0.7487613 -0.14801918 0.19867237 -0.22424798 -0.27044213 -0.24945112 -0.6000352
0.023973567 0.03128844 0.13085987 0.21476412 0.038858917 0.05455934 -0.03889214 -0.010707179
-0.07263224 0.023330584 0.19134255 -0.037794746 -0.17520137 -0.03935896 -0.044944894 -0.056551736
-0.5451774 0.050790757 -0.16733363 -0.24291952 0.016276145 0.33372304 0.121025525 -0.068475686
-0.037691385 -0.057896487 0.1832367 -0.3173934 0.0015214728 -0.65226907 -0.007552624 -6.4496424e-05
0.12913646 0.26542193 0.06319296 0.107736155 0.2434212 -0.22391893 -0.08948972 0.019489741
-0.03125611 -0.05998051 -0.085661046 0.08135174 -0.016938915 -0.19574505 -0.019322501 0.30596665
0.05017839 -0.0511813 0.0923679 -0.45691258 -0.047460426 0.16467483 0.082030125 -0.8089021
0.11204958 -0.116517894 -0.080037124 -0.06010537 -0.006307341 0.30170825 -0.10232353 0.26482534
-0.057778478 0.080217294 0.13338211 0.13228644 -0.055031825 -0.111022696 0.048279274 0.11726485
0.028677532 -0.21947855 0.0062951925 0.11275988 0.07514863 -0.011881351 0.13124385 0.35841545
0.06140394 -0.036618236 0.004400325 0.112426735 -0.13987182 -0.07150125 0.03570569 -0.18811293
-0.3480361 0.112103365 -0.29628712 -0.032549888 -0.19974732 0.29230574 0.14935444 0.030853556
-0.4428639 -0.43307805 -0.52364206 -0.55831075 -0.12790279 -0.120654285 0.09677611 -0.1846064
-0.053142935 -0.2741919 -0.037327662 0.106017195 0.17350325 -0.25023228 0.1834833 0.16703162
-0.21565959 -0.23055312 -0.08438622 -0.13107103 -0.13833696 -0.09614306 0.0025301585 -0.33703443
-0.08146665 -0.21697998 -0.14333564 -0.06921733 -0.1572793 -0.15590648 0.047721542 -0.17159434
0.108718336 -0.12095657 -0.07455326 0.03310726 -0.29051495 0.17097576 -0.3836342 0.081451856
0.08989538 -0.1683881 0.08841236 0.15230244 0.08795897 0.1621368 0.089673445 0.25726986
-0.021530531 0.01989375 0.03281005 -0.101956435 0.26300108 -0.0790627 0.14561221 -0.0055946256
0.12877472 0.1114593 -0.026794558 0.15531811 -0.0945297 -0.15468344 -0.36158392 -0.07512695
-0.11054851 -0.13862923 0.019488486 -0.072321974 0.012561232 -0.114121705 -0.088049196 0.0106458105
-0.14670137 -0.14478295 0.11519802 -0.22024998 0.026638951 -0.111395545 -0.09619143 -0.32053062
0.13721739 -0.06525371 0.09977582 -0.033922087 -0.25518125 0.12445184 -0.13990909 -0.17147738
00000000: 71fd 3cbe d6bc 4abe 4506 b2be c5c1 84be
00000010: 167e 25bf 1af1 98ba 1195 35be bf0a 3fbe
00000020: 48f7 c4bd 3262 dbbe b450 8a3e d718 75bf
00000030: 8f81 01be c24a abbe 979d 04be a26c f9be
00000040: ae90 dcbe a108 20bf 83f2 86bc 2b66 01be
00000050: b5f0 013e 3d4b debe 0dfa 0e3f 9f27 653b
00000060: 4f28 fd3d 552f 213e 4ac2 a3be a9fb 86be
00000070: 9a6d afbe 016e e1be 8bf9 10bf 3eb8 3fbe
00000080: ac43 ffbd 9459 903d 991e a2be 6bf0 25bf
00000090: d770 98bb f81d d93e 53f3 a23d e0fc 143f
000000a0: bed1 1e3e d058 353f 19d9 063f c654 a3ba
000000b0: 49e5 f03e ae8e 8d3e fd11 483e 2b37 ff3d
000000c0: 9d4b 4d3e 2a33 37be df8b 32bd b156 823d
000000d0: 4181 9ebe 65ab 8abe c067 9ebe 5ee4 a1be
000000e0: be58 9bbe 7066 c6be a6ae 85bf 146c 0cbe
000000f0: b1cf d2be f151 3fbf 21fc 3ebe 0871 66bf
00000100: 6e9a dabe d2ae 3fbf 5792 17be c570 4b3e
00000110: 43a1 65be 6477 8abe 1d70 7fbe e89b 19bf
00000120: 3764 c43c 4f28 003d 2100 063e 20eb 5b3e
00000130: 872a 1f3d 9d79 5f3d 5d4d 1fbd 2a6d 2fbc
00000140: 36c0 94bd c81f bf3c 4def 433e aace 1abd
00000150: fd67 33be dc36 21bd 2318 38bd cba2 67bd
00000160: bf90 0bbf f809 503d 8259 2bbe e5bf 78be
00000170: 8d55 853c bfdd aa3e 3bdc f73d fb3c 8cbd
00000180: 4862 1abd de24 6dbd 67a2 3b3e 6381 a2be
00000190: 286c c73a 1bfb 26bf 017c f7bb 4142 87b8
000001a0: 593c 043e 62e5 873e 506b 813d c6a4 dc3d
000001b0: 6843 793e 014b 65be 6346 b7bd f3a8 9f3c
000001c0: 6806 00bd 20ae 75bd 0f6f afbd be9b a63d
000001d0: 7bc3 8abc 6471 48be 394a 9ebc a9a7 9c3e
000001e0: db87 4d3d 7ca3 51bd 622b bd3d 72f0 e9be
000001f0: dd65 42bd 85a0 283e 69ff a73d 3514 4fbf
00000200: 407a e53d efa0 eebd 81ea a3bd 0c31 76bd
00000210: d0ad cebb 8179 9a3e 008f d1bd 3097 873e
00000220: 20a9 6cbd f748 a43d 5295 083e 1976 073e
00000230: 0d69 61bd de5f e3bd 7dc0 453d 8e28 f03d
00000240: 25ed ea3c fcbe 60be e747 ce3b a7ee e63d
00000250: 86e7 993d ffa9 42bc ca64 063e 3b82 b73e
00000260: b382 7b3d 01fd 15bd 9a30 903b fd3f e63d
00000270: 8f3a 0fbe 3f6f 92bd 2140 123d ada0 40be
00000280: ca31 b2be 7396 e53d f2b2 97be 0853 05bd
00000290: 908a 4cbe 19a9 953e 5ff0 183e 99c0 fc3c
000002a0: 0fbf e2be 68bc ddbe 680d 06bf 74ed 0ebf
000002b0: f3f8 02be 9819 f7bd 8e32 c63d 7609 3dbe
000002c0: 68ac 59bd e162 8cbe e4e4 18bd 8b1f d93d
000002d0: d6aa 313e 721e 80be 0ce3 3b3e 560a 2b3e
000002e0: ded5 5cbe 1e16 6cbe afd2 acbd 7c37 06be
000002f0: 34a8 0dbe a7e6 c4bd 04d1 253b c78f acbe
00000300: fdd7 a6bd 0030 5ebe 94c6 12be d1c1 8dbd
00000310: d30d 21be f3a5 1fbe aa77 433d 6db6 2fbe
00000320: b8a7 de3d 14b8 f7bd 61af 98bd 7a9b 073d
00000330: 60be 94be 4514 2f3e b46b c4be 3bd0 a63d
00000340: 121b b83d ee6d 2cbe 8a11 b53d 2cf5 1b3e
00000350: d523 b43d 3007 263e b6a6 b73d e0b8 833e
00000360: cc60 b0bc 38f8 a23c d563 063d 89ce d0bd
00000370: 14a8 863e a0eb a1bd 5e1b 153e 1f53 b7bb
00000380: 85dd 033e c644 e43d 4380 dbbc b60b 1f3e
00000390: ca98 c1bd 5665 1ebe 8721 b9be 29dc 99bd
000003a0: 4267 e2bd d2f4 0dbe 51a6 9f3c 8b1d 94bd
000003b0: a0cd 4d3c a4b8 e9bd 2353 b4bd c46b 2e3c
000003c0: e238 16be fb41 14be f1ec eb3d 3689 61be
000003d0: ee39 da3c 5923 e4bd 0300 c5bd 971c a4be
000003e0: b782 0c3e bda3 85bd 4457 cc3d e3f1 0abd
000003f0: 1ea7 82be 9be0 fe3d 5444 0fbe c497 2fbe

convt1.bias f4 [8]
-0.08203973 0.09231957 -0.048559655 0.08736872 0.05502371 0.09779928 0.049318668 0.047384374
00000000: 7204 a8bd 0b12 bd3d 7de6 46bd 5fee b23d
00000010: 8b60 613d fd4a c83d 5f02 4a3d 1e16 423d

convt2.weight f4 [8, 16, 5, 5]
-0.30246553 -0.5053451 -0.16990432 0.07750414 -0.049399417 -0.19765458 -0.4658693 -0.02619554
-0.15655282 -0.008683153 -0.12877913 -0.04272172 -0.1042544 0.008572888 -0.13253668 -0.13241088
-0.43347427 -0.04780753 -0.14030984 -0.03307036 -0.28811705 -0.013636531 -0.2784305 -0.092859685
-0.09312397 -0.1187388 0.10212796 0.100453176 0.044160776 -0.18553112 -0.27790764 -0.2237003
-0.13123773 -0.16909812 -0.2495783 -0.2563385 -0.25933877 0.15442213 -0.24042004 -0.18074025
-0.30122226 -0.7127194 0.09541356 -0.25613758 -0.24548563 -0.16989814 -0.24394059 0.17456174
-0.27848932 -0.12004292 -0.21455085 -0.22884451 -0.04478474 -0.16358168 -0.06342633 -0.1419285
0.040798604 0.085821025 0.0040778834 0.03404496 -0.038820304 -0.14242072 -0.029702073 -0.16377346
-0.106522426 -0.05180154 -0.107698426 0.08940632 -0.021149233 -0.16295168 -0.1327248 -0.28497142
-0.07715934 -0.05822375 0.043138094 -0.27152982 0.025597839 -0.0712558 -0.06530046 -0.03738522
0.26191235 -0.4598554 0.025584528 -0.48943508 -0.04348316 -0.44672525 -0.045484256 -0.14751862
0.011748176 -0.23662807 0.20896809 -0.14353938 -0.053560585 -0.17830479 -0.031942062 -0.27124116
-0.016800908 -0.27475974 0.0314981 -0.17768066 -0.2770967 0.16879444 -0.07009263 0.26136065
-0.08356015 -0.23671733 -0.21059944 0.5429786 -0.088806234 -0.35139966 0.0136715 -0.13403068
0.031164128 -0.24383059 -0.18148814 0.022133317 -0.28851128 0.04796633 -0.15599476 0.065883204
0.058203015 0.057395834 -0.019680541 0.0020578082 -0.17153656 0.09727906 -0.025873126 -0.07395944
0.15683107 -0.111173294 -0.0041060573 -0.3267407 0.052658036 -0.18019985 -0.17906602 0.05797991
0.034128472 -0.0049734 -0.13513309 -0.07345919 0.14810319 -0.060780212 0.052246116 0.22122914
-0.087619625 0.15958333 0.119350746 -0.06278065 -0.1854133 -0.2921275 0.049057547 -0.01761386
0.022980196 0.0650053 0.09450939 0.0232692 0.07784293 -0.016863571 -0.071495004 0.09146309
-0.27895647 -0.29760462 -0.018116115 -0.14585418 -0.07996272 -0.06256175 -0.24400537 0.032773692
-0.3227056 -0.24147017 -0.31214148 0.034754496 -0.24071528 -0.17261033 -0.20805573 -0.11648246
-0.04444316 0.007605989 -0.17750335 -0.017173659 -0.15518406 -0.2249402 -0.03583349 -0.49856398
-0.17592989 0.068275936 0.025907427 0.07541454 0.04102944 -0.20046493 -0.20153928 -0.17786223
-0.13553727 -0.16983274 -0.49439654 0.05317384 0.021070836 -0.029259508 -0.05172005 -0.34250805
0.14717753 0.18371423 -0.011672543 0.21541212 0.044838518 0.014472213 0.024175243 0.13270353
-0.022382675 -0.0010017456 0.02510048 -0.072741546 0.06087011 -0.06250092 0.049372107 0.023079913
-0.22074571 0.04204561 -0.08635066 0.06813065 0.023980431 0.018063888 -0.08979772 0.012908598
-0.07782838 -0.23958892 -0.10588798 -0.3997016 -0.38627923 -0.20430084 0.18382126 0.0007490443
-0.25615704 -0.04211425 -0.38510713 -0.07463 -0.29628018 -0.27967572 -0.07135456 -0.1180118
-0.071575396 -0.21984649 -0.5389733 -0.13831164 -0.16126369 0.06427507 -0.12029452 -0.102882676
-0.061329257 -0.013891283 -0.094833985 0.17625688 0.12633611 0.1015266 0.06155592 0.08108602
00000000: c3dc 9abe 4c5e 01bf 66fb 2dbe 7eba 9e3d
00000010: 0b57 4abd f665 4abe 6c86 eebe 0798 d6bc
00000020: 624f 20be c943 0ebc adde 03be f8fc 2ebd
00000030: 5583 d5bd 4c75 0c3c b2b7 07be b896 07be
00000040: 57f0 ddbe d4d1 43bd 62ad 0fbe c974 07bd
00000050: 1484 93be c26b 5fbc 718e 8ebe 382d bebd
00000060: c8b7 bebd 542d f3bd 7728 d13d 65ba cd3d
00000070: eee1 343d dffb 3dbe e949 8ebe b111 65be
00000080: 2f63 06be 0f28 2dbe 7491 7fbe cd3e 83be
00000090: 0dc8 84be d620 1e3e ac30 76be f913 39be
000000a0: ce39 9abe c774 36bf 2f68 c33d 7724 83be
000000b0: 9660 7bbe c7f9 2dbe 90cb 79be 50c0 323e
000000c0: 2796 8ebe 10d9 f5bd 38b3 5bbe 3756 6abe
000000d0: 3470 37bd f581 27be aae5 81bd b455 11be
000000e0: 701c 273d efc2 af3d c49f 853b ba72 0b3d
000000f0: 0a02 1fbd bdd6 11be c351 f3bc 3bb4 27be
00000100: 6e28 dabd da2d 54bd fe90 dcbd a91a b73d
00000110: 2841 adbc cedc 26be 03e9 07be c6e7 91be
00000120: b705 9ebd 077c 6ebd 92b1 303d f505 8bbe
00000130: 8fb2 d13c 90ee 91bd 3fbc 85bd 3f21 19bd
00000140: 6019 863e 2b72 ebbe a596 d13c 3c97 fabe
00000150: 661b 32bd 2cb9 e4be b34d 3abd 1f0f 17be
00000160: 6c7b 403c a14e 72be bbfb 553e fdfb 12be
00000170: 5862 5bbd 8895 36be aed5 02bd 1fe0 8abe
00000180: 0fa2 89bc 4fad 8cbe 2704 013d ebf1 35be
00000190: 9edf 8dbe 73d8 2c3e ba8c 8fbd 10d1 853e
000001a0: 9521 abbd 0766 72be 61a7 57be a500 0b3f
000001b0: 0be0 b5bd a8ea b3be 6dfe 5f3c 573f 09be
000001c0: ea4b ff3c baae 79be 07d8 39be ee50 b53c
000001d0: c0b7 93be 5878 443d 17bd 1fbe c6ed 863d
000001e0: 4966 6e3d e517 6b3d 1639 a1bc 4bdc 063b
000001f0: 48a7 2fbe 3e3a c73d e1f3 d3bc 0c78 97bd
00000200: 5398 203e d3ae e3bd 1b8c 86bb 8f4a a7be
00000210: f4af 573d 4f86 38be 155d 37be 587c 6d3d
00000220: 4cca 0b3d e7f7 a2bb 5460 0abe c671 96bd
00000230: 5da8 173e acf4 78bd 0600 563d e489 623e
00000240: eb71 b3bd d069 233e 2a6e f43d 2493 80bd
00000250: fcdc 3dbe bc91 95be 91f0 483d f14a 90bc
00000260: f740 bc3c 8021 853d 248e c13d 0d9f be3c
00000270: 1d6c 9f3d 7925 8abc f96b 92bd 0051 bb3d
00000280: 62d3 8ebe a25f 98be 3f68 94bc cc5a 15be
00000290: 7fc3 a3bd 6020 80bd 8bdc 79be b53d 063d
000002a0: ab39 a5be f543 77be 02d1 9fbe bb5a 0e3d
000002b0: 117e 76be c3c0 30be 900c 55be 5b8e eebd
000002c0: 080a 36bd a93b f93b 70c3 35be c6af 8cbc
000002d0: 92e8 1ebe b956 66be 23c6 12bd c743 ffbe
000002e0: f726 34be 41d4 8b3d d03b d43c f072 9a3d
000002f0: 7c0e 283d ae46 4dbe 5060 4ebe 8421 36be
00000300: 48ca 0abe a2e8 2dbe 8b21 fdbe d0cc 593d
00000310: bf9c ac3c a3b1 efbc 67d8 53bd 375d afbe
00000320: b5b5 163e 951f 3c3e 323e 3fbc ff94 5c3e
00000330: 98a8 373d dc1c 6d3c 290b c63c 6fe3 073e
00000340: df5b b7bc 014d 83ba 869f cd3c 85f9 94bd
00000350: f052 793d 7b00 80bd 683a 4a3d 1612 bd3c
00000360: 2a0b 62be 0438 2c3d 9dd8 b0bd 1588 8b3d
00000370: 9c72 c43c b8fa 933c dee7 b7bd 967e 533c
00000380: 7c64 9fbd cc56 75be ccdb d8bd b0a5 ccbe
00000390: 64c6 c5be 3d34 51be a43b 3c3e 835b 443a
000003a0: 0427 83be fe7f 2cbd c32c c5be 9dd7 98bd
000003b0: 09b2 97be a831 8fbe 5722 92bd 2cb0 f1bd
000003c0: 1f96 92bd 701f 61be 27fa 09bf 91a1 0dbe
000003d0: 4f22 25be a6a2 833d f95c f6bd 27b4 d2bd
000003e0: 6334 7bbd 4498 63bc 5238 c2bd af7c 343e
000003f0: 415e 013e 2eed cf3d 0f22 7c3d 6d10 a63d

convt2.bias f4 [16]
-0.030272145 0.05543645 0.023026435 0.012831318 0.026189566 0.011636207 0.051541835 0.075592466
0.062366482 0.04219757 -0.018879496 0.011910555 0.06886458 -0.022539435 -0.0027014865 0.03400623
00000000: 4afd f7bc 5511 633d efa1 bc3c 733a 523c
00000010: 808b d63c caa5 3e3c 881d 533d 39d0 9a3d
00000020: ff73 7f3d 5cd7 2c3d 2ca9 9abc 7d24 433c
00000030: df08 8d3d 9fa4 b8bc 6c0b 31bb 1e4a 0b3d

convt3.weight f4 [16, 32, 9, 9]
-0.13445304 -0.32742026 -0.2890386 -0.09035517 -0.38282406 -0.18555813 -0.13594937 -0.19039644
-0.25397584 -0.48915222 -0.06812404 -0.15327437 -0.15287851 -0.08465862 -0.20182191 -0.318163
-0.038265046 -0.17095348 -0.09704654 -0.036879085 0.01974063 -0.060790308 -0.21390398 -0.0047656675
-0.07226406 -0.020557508 -0.030339392 0.013777997 -0.061180633 -0.16750515 0.014650777 -0.24549997
0.0064064157 -0.018553454 -0.12137364 -0.2206313 -0.18921159 -0.081178 -0.08722657 -0.24883363
0.046329256 -0.25208408 -0.15043448 -0.14948562 -0.24427992 -0.052773584 0.089416936 -0.047737747
0.024169391 -0.11808046 0.03181691 -0.10191725 -0.26854333 -0.047326252 -0.06723871 -0.17888366
-0.18825345 -0.16127916 -0.29458195 -0.25378352 -0.17323361 -0.04996149 -0.28645787 -0.078918986
-0.08412048 -0.18076652 -0.07331114 -0.17426121 -0.25261402 -0.1203498 -0.12283807 -0.2326179
-0.12179376 -0.04523484 -0.010823823 -0.08835518 -0.34925658 -0.01053507 -0.050443344 -0.22156505
0.002028737 0.10794564 0.09181915 -0.20450327 -0.010101731 -0.16620523 -0.2790058 0.11473298
-0.13169624 -0.034532897 -0.04672802 -0.22846042 -0.1711711 0.06858901 -0.13225868 0.020853264
-0.38302302 -0.21591103 -0.43102834 -0.107146256 -0.041452494 -0.034475077 0.048823852 0.117769726
-0.22152632 -0.021988574 0.24291526 -0.032113757 -0.1152357 0.017058069 -0.30429563 0.029036762
-0.17028631 0.26336154 -0.26939198 -0.34756616 0.013738779 0.005587475 -0.2353206 -0.011751705
-0.35241324 -0.15071952 -0.32938334 -0.17037255 -0.07538374 -0.034625523 -0.34092033 -0.14679092
-0.0070198374 0.07223425 -0.38375965 0.072125524 -0.4968573 -0.031277925 -0.10801357 -0.24014258
-0.07655673 0.031846654 -0.3761299 -0.41153732 -0.13155138 -0.0794127 -0.28602725 -0.060499884
-0.36959988 -0.43458316 -0.49810302 0.08177951 -0.20972452 0.08694786 -0.5524723 0.006279518
-0.5852123 -0.25766367 -0.33723766 -0.0023059233 -0.28860766 -0.05260834 -0.22085436 -0.22139825
-0.12087277 -0.10645409 -0.013329436 -0.02309651 -0.04386737 -0.03053195 -0.038713586 -0.026822396
-0.013731995 -0.074064426 -0.04536536 -0.021909202 0.00024516767 -0.032981332 -0.067790404 -0.034476783
-0.022803873 -0.052625295 -0.055184554 -0.07817707 -0.07094211 0.024284784 -0.034928676 -0.04685973
-0.02659474 -0.024074493 -0.095208585 -0.052390117 -0.0764522 -0.011714994 -0.006767995 0.0067718453
-0.03102089 0.010741341 0.0025763493 -0.040378656 -0.034404855 -0.02670427 0.0054525184 -0.020346437
-0.00890625 -0.058792487 -0.029897204 -0.02595172 -0.047052875 -0.02712335 -0.04505289 0.024738615
0.015116319 0.0032091036 -0.0033197713 -8.0865655e-05 -0.0059004654 -0.013581086 -0.017146531 -0.05333365
-0.07215819 -0.038566705 -0.008884066 -0.056226626 -0.04544759 -0.03136468 -0.09950568 -0.06410888
-0.08084016 -0.041642256 -0.04438608 -0.059385967 -0.019626522 -0.05900534 -0.04708976 -0.08122289
-0.04807854 -0.07599801 -0.07567966 -0.07042659 -0.084509656 -0.06694158 -0.07688093 -0.07982951
-0.13009052 -0.10365501 -0.0990273 0.047628775 0.025793644 0.022639101 0.03142361 0.03538917
0.00082467485 0.040254112 0.026315799 -0.005023183 0.009589269 0.004673009 0.03544534 -0.006950051
00000000: 0fae 09be a1a3 a7be defc 93be 220c b9bd
00000010: 8401 c4be f302 3ebe 5036 0bbe 49f7 42be
00000020: 1f09 82be 2972 fabe 9e84 8bbd f5f3 1cbe
00000030: 2f8c 1cbe 8061 adbd 67aa 4ebe 43e6 a2be
00000040: cfbb 1cbd 6e0e 2fbe 56c0 c6bd 860e 17bd
00000050: 1ab7 a13c 42ff 78bd a509 5bbe 5129 9cbb
00000060: 2eff 93bd 3868 a8bc 518a f8bc 1cbd 613c
00000070: 8b98 7abd 7886 2bbe d009 703c 5864 7bbe
00000080: e9ec d13b 6afd 97bc be92 f8bd 2ced 61be
00000090: afc0 41be a740 a6bd d8a3 b2bd 3ece 7ebe
000000a0: bfc3 3d3d 2a11 81be 7f0b 1abe c212 19be
000000b0: 8424 7abe 1d29 58bd 3a20 b73d a888 43bd
000000c0: e3fe c53c 2bd4 f1bd 7352 023d feb9 d0bd
000000d0: 837e 89be 2cd9 41bd 73b4 89bd 472d 37be
000000e0: 83c5 40be 5d26 25be 72d3 96be eaef 81be
000000f0: 2764 31be 6ba4 4cbd 9baa 92be 47a0 a1bd
00000100: 5c47 acbd dc1a 39be 2724 96bd 8871 32be
00000110: a056 81be f579 f6bd 8792 fbbd 6333 6ebe
00000120: 026f f9bd 2b48 39bd 6756 31bc 90f3 b4bd
00000130: c2d1 b2be 499b 2cbc ae9d 4ebd f3e1 62be
00000140: 8ff4 043b 9b12 dd3d ae0b bc3d 4e69 51be
00000150: bb81 25bc b431 2abe d9d9 8ebe 20f9 ea3d
00000160: 61db 06be 5e72 0dbd e165 3fbd 87f1 69be
00000170: 7a47 2fbe 6578 8c3d d26e 07be 77d4 aa3c
00000180: 981b c4be c817 5dbe bfaf dcbe 7f6f dbbd
00000190: 17ca 29bd bd35 0dbd 85fb 473d 4131 f13d
000001a0: ccd7 62be 6221 b4bc c7be 783e b789 03bd
000001b0: b200 ecbd 5dbd 8b3c a3cc 9bbe 81de ed3c
000001c0: 895f 2ebe 53d7 863e bfed 89be 31f4 b1be
000001d0: 9e18 613c 2317 b73b e2f7 70be 398a 40bc
000001e0: 826f b4be 3856 1abe efa4 a8be 2476 2ebe
000001f0: ca62 9abd 7ed3 0dbd 1c8d aebe 5c50 16be
00000200: aa06 e6bb 8def 933d 257c c4be 8cb6 933d
00000210: 1464 febe 481d 00bd 3836 ddbd f0e7 75be
00000220: c6c9 9cbd a371 023d 1994 c0be 05b5 d2be
00000230: 68b5 06be 20a3 a2bd 2a72 92be bace 77bd
00000240: 323c bdbe af81 debe 5c07 ffbe 047c a73d
00000250: 06c2 56be b811 b23d d36e 0dbf 6ac4 cd3b
00000260: 79d0 15bf 7eec 83be 6aaa acbe f91e 17bb
00000270: 62c4 93be d87b 57bd a527 62be 39b6 62be
00000280: 258c f7bd 9a04 dabd b563 5abc e434 bdbc
00000290: 45ae 33bd 241e fabc 2392 1ebd a4ba dbbc
000002a0: 29fc 60bc 17af 97bd 07d1 39bd ed7a b3bc
000002b0: d989 8039 6f17 07bd b2d5 8abd 8737 0dbd
000002c0: 30cf babc 9f8d 57bd 3309 62bd 4d1b a0bd
000002d0: 194a 91bd e2f0 c63c 5f11 0fbd fdef 3fbd
000002e0: 36dd d9bc df37 c5bc b8fc c2bd 0597 56bd
000002f0: f992 9cbd 3ff0 3fbc 0fc6 ddbb 5be6 dd3b
00000300: 861f febc 73fc 2f3c f8d7 283b 1764 25bd
00000310: 1bec 0cbd eac2 dabc 0aab b23b 92ad a6bc
00000320: 85eb 11bc 64d0 70bd fbea f4bc b498 d4bc
00000330: 84ba 40bd ca31 debc 6189 38bd a3a8 ca3c
00000340: 70aa 773c d34f 523b 8590 59bb 6b96 a9b8
00000350: b158 c1bb 3483 5ebc e276 8cbc 6374 5abd
00000360: acc7 93bd 1ff8 1dbd 798e 11bc e44d 66bd
00000370: 4127 3abd 4078 00bd a2c9 cbbd 844b 83bd
00000380: 878f a5bd 1291 2abd 2ece 35bd b33e 73bd
00000390: cdc7 a0bc 95af 71bd 31e1 40bd 3058 a6bd
000003a0: 01ee 44bd d8a4 9bbd f0fd 9abd d13b 90bd
000003b0: 6613 adbd ab18 89bd c073 9dbd a77d a3bd
000003c0: 7336 05be 1449 d4bd d3ce cabd 6416 433d
000003d0: 314d d33c a375 b93c 0bb6 003d 3cf4 103d
000003e0: fe2e 583a 7fe1 243d 3b94 d73c 8399 a4bb
000003f0: 4f1c 1d3c 0a20 993b 222f 113d 41bd e3bb

convt3.bias f4 [32]
0.04414241 0.09977483 0.07353863 0.18788154 0.06583766 0.056890517 0.14559217 0.12670437
0.096869744 0.12731461 -0.31761542 0.019890564 0.07664824 0.097310364 0.059876885 0.08636451
0.11514373 0.04222648 0.13620628 0.08603214 0.055782337 0.037454307 0.1030979 0.18265301
0.07678659 -0.36384764 0.17457409 0.050721627 0.16002455 0.07025106 0.03977544 0.03947153
00000000: acce 343d bf56 cc3d 6c9b 963d 0564 403e
00000010: e5d5 863d 0806 693d 1d16 153e cabe 013e
00000020: a563 c63d c35e 023e 7d9e a2be 89f1 a23c
00000030: c1f9 9c3d a84a c73d 7741 753d e0df b03d
00000040: 7ad0 eb3d acf5 2c3d a979 0b3e 9e31 b03d
00000050: 057c 643d b069 193d fe24 d33d 6409 3b3e
00000060: 4a42 9d3d 3d4a babe 8dc3 323e 7bc1 4f3d
00000070: 7add 233e cadf 8f3d 92eb 223d e6ac 213d

pos_output.weight f4 [1, 32, 2, 2]
0.11976808 0.076728314 0.12462441 0.07731719 0.08524488 0.099036425 0.09477324 0.0637409
0.14722084 0.11992595 -0.06793939 -0.2046657 0.06218608 0.037682574 0.21989372 -0.10356731
0.24100412 0.16001137 0.29644138 0.27463037 0.107624546 0.1995627 0.14313895 0.1579279
0.118035994 -0.053887956 -0.1819781 -0.023390314 0.119200505 0.2225124 0.32833272 0.25590372
0.113663055 0.08007664 0.08656801 0.0386592 0.012164716 0.08927469 0.049233552 0.12327009
-0.46187928 -0.6443833 -0.68631893 -0.49978748 0.12900989 0.036838025 0.14181785 0.081811436
0.3545107 0.3737463 0.18255377 0.19050583 -0.15271582 0.15741226 -0.029285233 0.20032462
0.006490884 0.019763332 0.012436075 0.0043602125 -0.105302505 -0.07545843 -0.0014016496 0.064970754
0.047666308 -0.050394386 0.042185254 -0.08385048 0.043784544 0.0654426 0.047104683 0.024112845
-0.07821603 -0.17831692 0.034683447 -0.20096752 -0.09654604 -0.11741304 0.048991553 0.086950384
-0.09341155 0.060073804 0.025572086 0.12695327 0.0060384735 0.00041260486 -0.023557164 -0.025372349
-0.22078528 -0.19869415 -0.1870416 -0.22264029 0.14632913 0.06354695 0.12281151 -0.08618012
0.19386327 0.22829652 0.09501796 0.14814998 -0.34588066 -0.5788586 -0.6718518 -0.20531514
-0.042134836 -0.04832799 0.08875248 -0.12779199 -0.18963994 0.14571449 0.020792337 0.07870657
-0.16213794 0.042131815 -0.036677133 0.082111165 -0.06591319 -0.031950004 0.13592577 0.098671705
0.032254014 -0.09423262 0.28961968 0.08890338 -0.15027222 0.15243319 -0.15445182 0.10244069
00000000: f848 f53d bc23 9d3d 153b ff3d 7a58 9e3d
00000010: de94 ae3d 9cd3 ca3d 7918 c23d 978a 823d
00000020: 0fc1 163e bd9b f53d cf23 8bbd e393 51be
00000030: d5b6 7e3d 0b59 1a3d d22b 613e 191b d4bd
00000040: c9c9 763e 05da 233e 2ac7 973e 5a9c 8c3e
00000050: 426a dc3d 2a5a 4c3e 0493 123e dab7 213e
00000060: dbbc f13d 9eb9 5cbd 7858 3abe 0b9d bfbc
00000070: 651f f43d 4ada 633e 3a1b a83e d005 833e
00000080: 2dc8 e83d 39ff a33d 924a b13d 1c59 1e3d
00000090: 844e 473c a6d5 b63d 1fa9 493d 0775 fc3d
000000a0: 717b ecbe 4ef6 24bf 99b2 2fbf 25e4 ffbe
000000b0: 2b1b 043e 78e3 163d b338 113e c18c a73d
000000c0: 6d82 b53e ad5b bf3e 60ef 3a3e f613 433e
000000d0: 8961 1cbe ae30 213e 96e7 efbc e621 4d3e
000000e0: 7bb1 d43b b6e6 a13c aec0 4b3c 1de0 8e3b
000000f0: d7a8 d7bd f389 9abd 8eb7 b7ba 630f 853d
00000100: bf3d 433d 586a 4ebd 72ca 2c3d cdb9 abbd
00000110: 6c57 333d c506 863d d7f0 403d 4d88 c53c
00000120: ba2f a0bd b698 36be 3b10 0e3d 6eca 4dbe
00000130: eeb9 c5bd 3f76 f0bd 5eab 483d 0b13 b23d
00000140: 8e4e bfbd f30f 763d 8d7c d13c 0a00 023e
00000150: 63de c53b e352 d839 f4fa c0bc acd9 cfbc
00000160: 8915 62be 7b76 4bbe d587 3fbe d1fb 63be
00000170: 4ed7 153e e724 823d 9a84 fb3d 347f b0bd
00000180: 1884 463e 90c6 693e c798 c23d a1b4 173e
00000190: 4517 b1be 1430 14bf 7bfe 2bbf 223e 52be
000001a0: 9495 2cbd 92f3 45bd dcc3 b53d e7db 02be
000001b0: f930 42be 2e36 153e b154 aa3c e930 a13d
000001c0: 7d07 26be 6992 2c3d c33a 16bd e629 a83d
000001d0: 7ffd 86bd 02de 02bd 2030 0b3e 6414 ca3d
000001e0: c91c 043d 08fd c0bd 0849 943e fa12 b63d
000001f0: f6e0 19be 7217 1c3e 9e28 1ebe 6dcc d13d

cos_output.weight f4 [1, 32, 2, 2]
0.1493667 0.058762595 0.022677751 0.09200625 -0.40585026 -0.28748137 -0.3775308 -0.19495319
-0.09849366 0.063122965 0.076786354 0.04954582 0.08227909 0.2676929 0.25468677 0.15289856
-0.21722148 -0.115894176 -0.4673105 -0.41733128 0.16125986 -0.11037131 -0.124442205 0.17961632
0.18281765 0.27483124 0.25757104 -0.10435518 0.116687246 0.026084822 -0.1876652 -0.08087014
-0.291727 -0.36199856 -0.31103727 -0.16002738 -0.37284276 -0.5054975 -0.4050983 -0.46873724
0.17453061 0.18147793 0.27826592 0.17829368 -0.18242297 -0.09976002 -0.21349986 -0.22861913
-0.23994888 -0.3000099 -0.014304487 0.014292028 -0.1298104 0.05964614 0.16724066 0.08348989
-0.243809 -0.27679816 -0.2674915 -0.25412938 0.17036456 0.057275433 0.046279736 0.026568191
0.046422 0.1288592 0.04038151 0.14969385 -0.19109221 -0.1563301 -0.13560559 -0.10020363
0.2537499 0.044760525 0.06499686 0.23249057 0.1565134 0.14535907 0.17372605 0.109638564
0.060669955 -0.14286694 -0.025606388 -0.16687277 -0.20535795 -0.21861558 -0.1759862 -0.18165411
0.19302721 0.11624475 0.1618774 0.14797755 0.22152449 0.21145324 0.1487167 0.059499133
-0.23250343 -0.33282372 -0.07969172 -0.20529625 0.04067478 0.06679273 0.13850039 -0.057339147
0.210996 0.06882508 0.2644183 0.27504322 0.0872205 -0.20374584 0.23305947 -0.04576398
0.2152134 0.28385517 -0.010201678 0.18818721 0.0060614874 0.10318701 -0.13027751 -0.085455894
0.07107476 -0.071195364 -0.2132063 0.13553572 -0.0026779177 0.051539216 -0.20503367 0.14680873
00000000: 96f3 183e 0cb1 703d b1c6 b93c c66d bc3d
00000010: 9bcb cfbe c230 93be b84b c1be cfa1 47be
00000020: 0bb7 c9bd 9d46 813d 2a42 9d3d 8ff0 4a3d
00000030: f181 a83d 0b0f 893e 4e66 823e 7191 1c3e
00000040: 4f6f 5ebe ed59 edbd 5243 efbe 72ac d5be
00000050: 4e21 253e 5a0a e2bd 8edb febd 57ed 373e
00000060: 8d34 3b3e aeb6 8c3e 5ae0 833e 2bb8 d5bd
00000070: b9f9 ee3d d6af d53c 4e2b 40be 3e9f a5bd
00000080: 3e5d 95be e057 b9be 4740 9fbe 38de 23be
00000090: 3fe5 bebe 4968 01bf 0b69 cfbe 54fe efbe
000000a0: 27b8 323e 5ad5 393e df78 8e3e 9e92 363e
000000b0: 16cd 3abe fb4e ccbd b59f 5abe 221b 6abe
000000c0: 29b5 75be e69a 99be 5e5d 6abc 1c29 6a3c
000000d0: 04ed 04be 834f 743d 2341 2b3e bffc aa3d
000000e0: 11a9 79be 7db8 8dbe a5f4 88be 3f1d 82be
000000f0: 0c74 2e3e a599 6a3d d28f 3d3d 89a5 d93c
00000100: ff24 3e3d abf3 033e 1567 253d 5849 193e
00000110: adad 43be ff14 20be 31dc 0abe 9037 cdbd
00000120: 82eb 813e d056 373d 131d 853d 0212 6e3e
00000130: 0c45 203e 02d9 143e 3ee5 313e 2f8a e03d
00000140: 0f81 783d b64b 12be 7dc4 d1bc b2e0 2abe
00000150: 5b49 52be c3dc 5fbe ba35 34be 8903 3abe
00000160: eda8 453e ba11 ee3d 30c3 253e 6d87 173e
00000170: 51d7 623e 3387 583e 3149 183e 5db5 733d
00000180: 6115 6ebe df67 aabe 6a35 a3bd 2e39 52be
00000190: 999a 263d a0ca 883d 0cd3 0d3e 74dc 6abd
000001a0: 560f 583e 2af4 8c3d d661 873e 77d2 8c3e
000001b0: a9a0 b23d c0a2 50be 24a7 6e3e 0373 3bbd
000001c0: e760 5c3e 7755 913e f024 27bc 26b4 403e
000001d0: 719f c63b b653 d33d 7867 05be 8003 afbd
000001e0: a58f 913d e0ce 91bd c152 5abe e0c9 0a3e
000001f0: 0180 2fbb c91a 533d 59f4 51be 0755 163e

sin_output.weight f4 [1, 32, 2, 2]
0.24132155 0.31316686 0.07464341 0.30406293 -0.10838716 -0.1638107 -0.07824086 -0.14547245
-0.042270035 -0.107647404 -0.07585449 0.1678042 0.14752318 0.010994091 0.10429131 -0.15476614
-0.10912408 -0.05970215 -0.045634326 -0.037138034 -0.07303371 -0.070390694 0.11875602 0.080138855
0.11328628 -0.034899496 0.012652344 0.14536959 -0.09016224 0.053864386 0.08191435 -0.078243375
0.25454223 0.25238463 0.21234332 0.22500159 0.20282348 0.19994529 0.23532556 0.14457586
-0.09030372 -0.050099645 -0.15388806 -0.066584125 0.05180066 0.016910741 0.06845696 0.061324332
0.038742706 0.009313599 -0.030321047 -0.08714911 -0.10144848 0.02132167 -0.074522555 -0.04463255
-0.579772 -0.5747237 -0.5746196 -0.56127405 0.09837462 -0.0135718025 -0.066301286 -0.037079874
0.07570314 0.06811757 0.131971 -0.024641063 -0.46126348 -0.41439325 -0.43651038 -0.38257614
0.16043654 -0.16820063 0.09666319 -0.14207472 -0.085160345 -0.10416267 0.0638183 -0.06619564
-0.16861752 -0.21438974 -0.26874152 -0.24657258 -0.5547938 -0.5761856 -0.58808744 -0.59219027
0.042214353 0.018576954 0.013726003 0.008671906 -0.048664838 -0.041215096 -0.010121157 0.18897238
0.09630955 0.09863008 0.07661442 0.110361606 -0.010959309 -0.07118909 -0.07532197 0.011535041
-0.041849855 -0.043505464 -0.01056181 -0.094655275 0.08460913 -0.077961996 0.1477003 0.101305105
-0.110961825 -0.096580215 -0.07707159 -0.020120647 -0.090764515 -0.11771922 0.11524181 -0.07328453
-0.035648003 -0.0042987647 -0.0044785677 0.022651605 0.008643006 -0.17508021 0.14333114 0.06003566
00000000: ff1c 773e 6857 a03e a5de 983d 23ae 9b3e
00000010: 16fa ddbd febd 27be be3c a0bd bbf6 14be
00000020: 5823 2dbd 3e76 dcbd 9959 9bbd ddd4 2b3e
00000030: 5110 173e 8f20 343c af96 d53d 047b 1ebe
00000040: 727c dfbd 3e8a 74bd 0feb 3abd 0d1e 18bd
00000050: b392 95bd ff28 90bd 5b36 f33d d71f a43d
00000060: a302 e83d c6f2 0ebd c74b 4f3c c4db 143e
00000070: fba6 b8bd e7a0 5c3d b6c2 a73d 103e a0bd
00000080: 5c53 823e 8f38 813e 8770 593e d166 663e
00000090: f5b0 4f3e 75be 4c3e 2ff9 703e b20b 143e
000000a0: 28f1 b8bd 4935 4dbd d594 1dbe 425d 88bd
000000b0: ee2c 543d 6588 8a3c 2a33 8c3d 392f 7b3d
000000c0: acb0 1e3d 1198 183c d863 f8bc 3c7b b2bd
000000d0: 38c4 cfbd c8aa ae3c 489f 98bd 9fd0 36bd
000000e0: f06b 14bf 1821 13bf 451a 13bf a8af 0fbf
000000f0: a278 c93d 445c 5ebc f8c8 87bd 11e1 17bd
00000100: 3f0a 9b3d 3981 8b3d 6823 073e 0edc c9bc
00000110: ba2a ecbe 5a2b d4be 4a7e dfbe 05e1 c3be
00000120: 7a49 243e c93c 2cbe 5af7 c53d 097c 11be
00000130: 8c68 aebd 3d53 d5bd 2bb3 823d 9491 87bd
00000140: 12aa 2cbe fc88 5bbe 7d98 89be 867d 7cbe
00000150: f706 0ebf e680 13bf e68c 16bf c899 17bf
00000160: f5e8 2c3d b22e 983c 07e3 603c 9c14 0e3c
00000170: c854 47bd 29d1 28bd 36d3 25bc fa81 413e
00000180: f13d c53d 91fe c93d 05e8 9c3d 4405 e23d
00000190: ac8e 33bc 96cb 91bd 6842 9abd 78fd 3c3c
000001a0: c16a 2bbd c932 32bd 710b 2dbc a0da c1bd
000001b0: 8d47 ad3d 8aaa 9fbd bf3e 173e 0d79 cf3d
000001c0: f43f e3bd d9cb c5bd b6d7 9dbd 0ed4 a4bc
000001d0: bfe2 b9bd c616 f1bd e603 ec3d 3316 96bd
000001e0: a403 12bd a7dc 8cbb f3c0 92bb dc8f b93c
000001f0: 659b 0d3c 3a48 33be 66c5 123e f4e7 753d
